model_wts/s0_d3_m0.0_b1.0.ckpt (torch, 206875 bytes, 11 tensors)

pi.logits_net.0.weight f4 [64, 282]
000000 b7 b1 34 be a2 b6 a3 3c 20 99 b1 3d f9 76 3f be
       -0.17645918 0.019984547 0.086717844 -0.18697728
000010 f2 53 1d bd 43 1c 8d bb 75 fa b9 bd c8 b9 2d bd
       -0.038410135 -0.0043063476 -0.09080974 -0.042413503
000020 2d 93 05 3e a4 64 ff bd d4 c7 dc bc ac d9 c1 bc
       0.13044424 -0.124703676 -0.026950754 -0.023663364
000030 79 7e 6e be 5a 34 c5 3d a6 97 37 bd 5f 54 10 be
       -0.23290433 0.09629126 -0.044822358 -0.14094685
000040 77 21 1c be 07 ff 93 3d aa bc 64 bd 69 eb 52 be
       -0.15247141 0.07226377 -0.055843987 -0.20597614
000050 e1 16 1e be 4e 94 24 bd a9 0c b4 3d f0 f4 c6 3c
       -0.15438415 -0.040180497 0.08791477 0.024286717
000060 d6 87 b8 3d 2d 70 11 3e 2c 26 01 be d9 ee 70 be
       0.09010284 0.14202948 -0.12612218 -0.23528613
000070 46 2b 02 be ed ac 43 be d6 1f 32 bd 51 ac 3f 3e
       -0.1271182 -0.19108935 -0.043487392 0.18718077
000080 f5 14 4f bd d0 53 43 bd a1 f7 62 be f8 e3 14 be
       -0.050557096 -0.04768735 -0.22164775 -0.14540088
000090 91 c0 fe bd 89 67 3f 3e b4 d4 35 3c a9 8a 28 3e
       -0.12439073 0.1869184 0.011098076 0.16459145
0000a0 5f 31 0e 3e 67 ba 21 bd 7b 4d 15 3e aa 1a a4 3d
       0.13886021 -0.039484408 0.14580338 0.08012898
0000b0 83 0d 6a 3d f6 19 d7 3d 1c 07 b5 3c 8b 43 9f 3c
       0.057141792 0.105029985 0.022098117 0.019441387
0000c0 08 da 10 bd 65 f6 bb bd 3b 5d 11 be 51 3b ef bd
       -0.03536418 -0.091778554 -0.14195721 -0.116812356
0000d0 da 7e 70 3c 53 39 13 3e 56 19 e5 3c 3c ff 4e bd
       0.014678681 0.14377336 0.027966183 -0.05053638
0000e0 f2 4b 62 ba 73 a4 67 be a0 72 c1 3d 93 dd 57 be
       -0.00086325326 -0.22621326 0.09445691 -0.21080618
0000f0 03 c6 1c be 8b 82 23 3e 6f cd ff bd 93 09 14 3c
       -0.1530991 0.15967767 -0.12490355 0.009035486
000100 4c d3 a9 3c 47 4a 03 3e f7 88 c7 3d 63 b2 9e 3b
       0.020730637 0.12821303 0.09742921 0.0048430427
000110 c5 a4 ec 3d df 5e f3 bd 27 f3 6c bd 6d 41 e4 bd
       0.11554865 -0.118833296 -0.057849076 -0.111452915
000120 ab f3 22 3e 0b 04 03 3e 6f 92 2f 3d 0e e7 17 bd
       0.15913264 0.12794511 0.04286426 -0.037085585
000130 d3 36 e3 b8 62 ce 10 be 8d fa 0c be 62 ad c9 3d
       -0.00010834415 -0.14141229 -0.13767453 0.09847523
000140 50 ff 83 bd 7c 55 19 3d 0a a9 35 bd 3b 31 75 be
       -0.06445181 0.03743504 -0.04435066 -0.23944561
000150 5f 66 16 3e 91 82 3e be e6 9f 99 bc d2 99 02 3e
       0.14687489 -0.18604495 -0.018753003 0.1275399
000160 61 d8 30 be b6 01 fe 3e fe 8d c0 3e 2d 17 e2 3d
       -0.17270042 0.4961068 0.3760833 0.11039577
000170 e6 dd 0a 3e 6c 0b 21 3d 22 ea 36 be 97 42 8c 3e
       0.1356121 0.039317533 -0.17862752 0.27394554
000180 61 37 ca 3e 08 8c 6f 3d 06 5b 60 3e f5 38 f3 bd
       0.39495376 0.058483154 0.21909723 -0.11876098
000190 bd d5 09 3f 0d ab 28 be 2d d2 9d 3e 94 9e be bc
       0.53841764 -0.164715 0.30824414 -0.023268975
0001a0 32 f7 01 be e1 02 bb 3d ba fb ee bd e8 36 31 be
       -0.12691954 0.091314085 -0.11669107 -0.17306101
0001b0 85 82 90 bd a3 bd b9 3e cd c0 0e 3d eb ab 8d 3e
       -0.070561446 0.36277494 0.034851838 0.27670226
0001c0 13 5a e4 3e d7 c3 19 3e 5d 48 d5 3e 58 ae 75 3e
       0.4459997 0.15016113 0.4165677 0.23992288
0001d0 2c 78 a4 be 8f ca fc 3e 21 5c 3b be cb 8e 61 3e
       -0.32122934 0.4937329 -0.18296863 0.22027127
0001e0 72 04 97 bc fd c6 77 be ad 53 db be 56 59 5e be
       -0.018434737 -0.24197002 -0.42837277 -0.21713766
0001f0 a4 1d a2 be 28 11 82 3c 40 70 93 bd 9b e9 2c bd
       -0.3166324 0.015877321 -0.07199144 -0.04221497
000200 e3 7c 46 3e a4 7c a5 3e 7b 73 d7 3d 5e a3 05 3f
       0.19383578 0.32321656 0.10520073 0.52202404
000210 8c 4d 00 3d 91 8d 43 3f 33 23 fd 3c 80 aa 10 bd
       0.031323954 0.7638789 0.030900573 -0.03531885
000220 2d 0c 21 3d a2 c3 a0 bd ac d6 4d 3e 77 21 65 be
       0.039318252 -0.07849814 0.20101422 -0.22376047
000230 fa 8d b5 3e d0 95 0a 3e 05 0f 1d 3f 9b 3a 37 3f
       0.35459882 0.13533711 0.61351043 0.715738
000240 8d 9c c2 be 4b de 25 3c 6c 21 d0 bd 79 dc db be
       -0.38010064 0.0101238 -0.10162625 -0.42941645
000250 f8 cb 8a be de f8 3a be 15 88 00 be 76 44 fa 3e
       -0.2710874 -0.18258998 -0.12551911 0.48880357
000260 a9 7d 07 bf d3 3e 88 3e fe 5a bd 3d 05 5c c7 3e
       -0.5292612 0.2661043 0.09245871 0.38937393
000270 a1 4b 39 3f 28 af c2 bd 29 a7 57 be c6 02 94 3d
       0.72381026 -0.09506065 -0.2105986 0.072270915
000280 79 ec a2 3e f9 04 f1 be 30 9b 41 3e 32 8e 0f 3e
       0.3182104 -0.47074106 0.18906856 0.14019087
000290 9c 8c d6 3d 64 ab 9c 3e 33 d4 95 3e 58 88 f0 3e
       0.10476038 0.3059951 0.29263458 0.46979022
0002a0 67 42 8a be 79 89 aa 3d 5b df c9 3d b2 aa 4b 3e
       -0.27003786 0.08327002 0.09857055 0.19889334
0002b0 23 3b 53 be 1d 17 9c 3d 76 b0 c2 3d 56 07 97 3e
       -0.20628028 0.07621596 0.095063135 0.29497784
0002c0 74 55 c0 3c 69 6e 49 bf 46 ef 38 bd 69 b2 03 3e
       0.023478247 -0.786841 -0.045150064 0.12861027
0002d0 3a 3d d5 bc 28 ba 80 3d ca b8 de 3d 32 34 c8 3e
       -0.026030172 0.062855065 0.108750895 0.39102322
0002e0 03 a6 2a be 64 5b 18 3f 13 6e 07 bf be f8 dc bd
       -0.16664891 0.5951445 -0.52902335 -0.10789631
0002f0 ed 6c 88 3d 82 0d 07 3f c7 23 ae be a9 d2 bd 3e
       0.06661401 0.52754986 -0.3401167 0.37074783
000300 7a 52 8f be 41 7d 79 3d 95 31 99 be 71 ed a4 3e
       -0.27992612 0.060910467 -0.2992064 0.32212403
000310 ac c5 69 bb ca 85 93 3e 28 37 7a bf 09 73 4a be
       -0.00356708 0.2881301 -0.9774041 -0.19770445
000320 cc 4e b6 bc e3 77 b6 be 96 2a 0a 3e c0 76 1c 3d
       -0.02225437 -0.3563834 0.13492808 0.038199186
000330 bf ba d9 3e 6d ae 87 3d 91 2e f1 3e 99 a8 ec 3e
       0.42525288 0.06625066 0.4710584 0.4622238
000340 ec 88 86 bd 94 52 d8 3e d0 ef 6c 3f fc 0d 3e 3f
       -0.065690845 0.42250502 0.92553425 0.7424009
000350 95 7b 15 3e 33 8a 24 3f 5e 82 03 3f 23 3f 41 3f
       0.14597924 0.64273375 0.513708 0.75486964
000360 84 3b 8d bb a8 31 f7 be 0d b8 69 bf 57 44 d3 be
       -0.0043100733 -0.48280072 -0.91296464 -0.41263077
000370 4c 84 f2 be 65 11 10 3f 89 4d e9 3b ab 90 ce 3e
       -0.4736656 0.5627654 0.0071198386 0.40344748
000380 d1 c1 8f 3d 75 01 34 bf 8d b7 c2 be 82 18 b6 3e
       0.070193894 -0.70314723 -0.38030663 0.35565573
000390 fa 8e 18 3e 2b 1a b0 3d cb b4 2b 3f c6 e1 c7 3d
       0.14898291 0.08598741 0.67072743 0.0975986
0003a0 38 f6 d7 bd 64 b2 5c be 61 0e d4 be 2e e9 95 bf
       -0.105450094 -0.21552426 -0.4141722 -1.1711786
0003b0 d3 db 4a be 99 c1 cf 3e f5 29 2f be 2e 0e 43 3e
       -0.19810419 0.4057739 -0.17105849 0.19048378
0003c0 05 0a 8e 3e fc cd d1 be 36 2c 67 bd 8e a0 4c bf
       0.2774202 -0.40977466 -0.056438647 -0.79932487
0003d0 1d 1f ac 3e 69 a5 d5 bc 73 e0 32 3e 72 ba e5 3e
       0.33617488 -0.02607985 0.17468433 0.4486881
0003e0 50 2c e7 3a c5 bf 94 3e f9 a2 0c be 6d b8 45 3f
       0.0017637108 0.2905256 -0.13734044 0.77234536
0003f0 b1 50 0b 3f 37 a7 ce 3e 57 f8 93 3e c7 85 60 bf
       0.5442 0.4036195 0.28900406 -0.8770413

pi.logits_net.0.bias f4 [64]
000000 4c 6e f9 3d 61 3d 29 be 22 7a d5 bd a7 81 07 be
       0.121792406 -0.1652732 -0.104236856 -0.13233052
000010 85 73 82 bd e4 7b e5 3d ac 15 7d 3c da 1d bf be
       -0.0636969 0.11205271 0.0154470615 -0.37327462
000020 76 e2 50 be 9d 3e 5b 3e 58 84 3d 3e be 3d 70 3e
       -0.20398888 0.21410604 0.18507516 0.23461053
000030 ec ca 28 3d 2f 5e 58 be cd c8 db bd b5 d6 e2 bd
       0.041209146 -0.21129678 -0.10731659 -0.11076108
000040 a5 98 a7 be 99 50 3e be bf 91 90 3e 87 71 b8 bd
       -0.32733646 -0.18585433 0.28236195 -0.090060286
000050 2a 8a 5b bd 2c fb 96 bb 97 4a 14 be dd 37 15 bd
       -0.05359856 -0.0046075787 -0.14481579 -0.03643023
000060 0c 0f 88 3e b2 ac 89 3e ca 6a 75 be 0c a2 f0 bc
       0.2657398 0.2688957 -0.23966518 -0.029374145
000070 41 96 e9 3d 26 7f 87 3d c0 7c 11 3e 10 49 f4 3d
       0.11405612 0.066160485 0.14207745 0.11927998
000080 1f 42 87 3e 20 2c 26 be 44 6c a3 bd 3f c3 49 be
       0.26417634 -0.1622777 -0.079796344 -0.19703387
000090 5d 99 1c 3e 25 85 04 3e b7 ac 16 bd 3a f4 13 3e
       0.15292878 0.12941416 -0.036785807 0.14448634
0000a0 ff e4 5a 3e ee b6 54 bd 88 ee b8 3c 48 62 bb 3d
       0.21376418 -0.051932268 0.022574678 0.09149605
0000b0 7d a3 4a be 53 c4 d0 3d ae f1 9f be 17 22 0c 3e
       -0.19788928 0.10193696 -0.31239074 0.13684879
0000c0 e6 64 b2 be 78 8a 82 3e 6f 6b 5a 3e 6c c4 e7 bd
       -0.34842604 0.25496268 0.21330045 -0.113167614
0000d0 7e 2d 1a 3e b4 63 b0 be 03 45 29 3e 1d f1 41 be
       0.15056416 -0.34451067 0.16530232 -0.18939634
0000e0 b9 47 46 3e 29 22 3b 3e 61 fb d3 bd 29 39 a9 3e
       0.19363298 0.1827475 -0.10350681 0.33051422
0000f0 7e e2 8d 3d 30 b4 18 bd 34 82 b8 bd 16 ed 39 3e
       0.069279656 -0.037281215 -0.09009209 0.18156847

pi.logits_net.2.weight f4 [64, 64]
000000 23 74 4b bf 45 73 fa 3e bc 80 1d 3f 63 d0 e3 3d
       -0.79474086 0.4891607 0.6152456 0.11123731
000010 dd f4 a2 3c 95 08 34 3f 0d eb 46 3e 77 b4 27 3e
       0.01989215 0.70325595 0.19425602 0.16377436
000020 a0 b8 09 bf 4a f9 eb 3e 81 8a 6a 3f 36 34 90 3e
       -0.5379734 0.4608863 0.9161759 0.28164834
000030 2b 8a 45 3f cc 12 34 3e bd 23 97 bc d4 e3 14 3e
       0.7716395 0.17585295 -0.018449659 0.14540035
000040 19 68 45 bd cc 27 c5 3d 7b a7 11 3e 93 bf 5f 3f
       -0.04819498 0.09626731 0.14224045 0.87401694
000050 a0 49 c4 be 95 a5 ca 3e 60 3b 39 bd e9 c0 6e 3e
       -0.3833742 0.39579454 -0.04522264 0.23315777
000060 e3 57 c5 be d8 1d 2d bf c4 55 db be d9 92 57 3d
       -0.38543615 -0.6762366 -0.4283887 0.05263028
000070 2f 58 92 be ce 4d 06 bf fd 53 83 3e 5e ad 38 bf
       -0.28582904 -0.5246247 0.25650015 -0.7213954
000080 35 fd 5c bb 6e b9 a4 be 1b dd 0d 3e 5e 07 2b 3d
       -0.003372026 -0.32172722 0.13853876 0.041755073
000090 6a ab 0f be 58 96 9f be 9e 63 81 be 6d 6b 92 3e
       -0.14030233 -0.3116939 -0.25271314 0.28597584
0000a0 d4 b1 84 bd 59 7d a1 3e 44 28 03 3e d0 3b 9b be
       -0.064792305 0.31540945 0.12808329 -0.3031907
0000b0 77 cd b2 be 63 f4 3c 3e e2 a2 85 bf c0 93 38 bf
       -0.34922382 0.18452601 -1.0440333 -0.7210045
0000c0 01 02 d1 3e bd 3f bb 3e c5 87 fa 3e 4c 2e 08 3e
       0.4082184 0.36572066 0.4893171 0.13298911
0000d0 a3 0a f4 3e 89 25 f1 be 42 33 b0 bf ca ec a2 3d
       0.47664365 -0.4709895 -1.3765643 0.0795532
0000e0 e9 ce 5f bd ca a9 83 bf 58 b3 49 3f 94 da c2 bd
       -0.054640684 -1.028619 0.7878928 -0.09514347
0000f0 90 35 59 be ca cc 20 3f 9a 1b 57 be 29 8a 14 3e
       -0.21211839 0.62812483 -0.21006623 0.14505829
000100 32 4e 9b bd af 2d 21 be 78 de f6 bd 26 d1 bc be
       -0.07583274 -0.15740083 -0.12054151 -0.36878318
000110 34 c3 3f 3e 4e ff 09 bf e7 62 d8 3e a9 93 0d 3f
       0.18726808 -0.5390519 0.42262957 0.55303437
000120 42 f1 93 3f 1d cf 37 bf 29 b6 e9 be ec 60 2f be
       1.1558001 -0.71800405 -0.4564679 -0.17126817
000130 c3 eb b5 3d f0 3b ed 3e e8 80 39 be 39 30 1e 3f
       0.088828586 0.4633479 -0.1811558 0.6179233
000140 05 84 76 3e 93 cb 27 3f cf f0 17 3f ed 27 38 bf
       0.24073799 0.65545005 0.5935182 -0.7193592
000150 6c b6 4d 3e 7d 8a 13 bf b6 46 10 3e 6d d4 c0 be
       0.2008912 -0.5763319 0.14089474 -0.37662068
000160 03 3b 19 be 10 59 50 3e 58 18 78 be 5b f0 46 3e
       -0.14963917 0.20346475 -0.24228036 0.19427626
000170 53 34 c5 bc a7 8b 55 bf 7e cf 5f bd 43 3c d1 be
       -0.024072802 -0.8341622 -0.05464124 -0.4086629
000180 50 71 6d 3c 54 e1 2e be 36 90 ca 3e e4 c4 81 be
       0.014492348 -0.17078143 0.3956315 -0.25345528
000190 77 19 d6 be 24 3a c2 bc 7c 72 b7 be 16 50 0c 3d
       -0.41816303 -0.023709364 -0.35829532 0.034256063
0001a0 0e a6 0f bf 39 2b 7e 3e 85 55 bb be d8 28 7b 3e
       -0.56112754 0.24821176 -0.36588684 0.245273
0001b0 8d 70 72 be fb c5 2f bf 15 88 3c bc 2d 5d 9f 3e
       -0.23675747 -0.6866147 -0.011507054 0.31125775
0001c0 90 e2 7f 3d 0b e5 66 be c9 68 d4 be c6 13 f5 3e
       0.062471926 -0.2254831 -0.41486195 0.47866648
0001d0 20 fd 4e be 59 8e ec 3c 62 40 7f bc e0 d2 88 3c
       -0.20213747 0.02887647 -0.015579315 0.016702116
0001e0 c2 73 78 bc 4b 06 1c bf 86 18 94 bd 98 3e 80 be
       -0.015164318 -0.609471 -0.0723124 -0.25047755
0001f0 3c 95 fa be 0f 3a e7 bd 87 da c1 3e 34 70 ce 3e
       -0.48941982 -0.11290371 0.37862036 0.4031998
000200 06 e1 39 3e 26 4e 6d be 39 d6 61 3e 5f a6 f7 3e
       0.18152246 -0.23174343 0.22054376 0.4836912
000210 03 ed dc 3d e1 4e 77 bd 6e 59 f3 be 04 fb 8a 3e
       0.10787394 -0.06037796 -0.47529167 0.27144635
000220 40 23 0d bd 7a b1 a8 be 06 59 ef bd 68 3e ed be
       -0.034457445 -0.32947904 -0.11686902 -0.46336675
000230 3b 15 27 bf bf d4 e7 bd 6d f2 57 3e d8 67 8c 3e
       -0.6526677 -0.11319875 0.21088572 0.27422976
000240 d1 ab a4 be dc b1 c1 be 46 aa 1a bf 67 f7 59 3d
       -0.32162336 -0.37831008 -0.60416067 0.053214457
000250 1d 11 5b be c8 59 4a bf 51 7f 41 bf 6f b5 53 bf
       -0.21393247 -0.79043245 -0.75584894 -0.8269872
000260 4a df af be 6e 6a b5 3d 64 09 a1 3e f3 81 26 bf
       -0.34350044 0.088581905 0.31452477 -0.65042037
000270 03 22 00 3e 03 8c 80 3e 55 8a ec be 59 bd 12 bf
       0.12512974 0.2510682 -0.4619929 -0.5732017
000280 c5 6b b3 3c eb 5e cb 3f 19 5f 94 3e 26 c4 a3 3d
       0.021901974 1.5888342 0.28978804 0.07996397
000290 da b0 b7 be a8 a9 00 3f 02 7a 0f 3f 9f dd c4 bd
       -0.35877115 0.50258875 0.56045544 -0.09612583
0002a0 b0 7a e0 bd 03 a9 dd 3e 13 4d ab 3e dd ba d3 3e
       -0.10960901 0.43293008 0.3345724 0.41353503
0002b0 a4 df 7a bf 72 bb 25 be 72 32 f1 3e 69 f1 89 3e
       -0.979975 -0.16184786 0.471088 0.26941994
0002c0 b8 dc e2 bd 11 81 9e be be 5b c9 be 10 d7 53 3c
       -0.11077255 -0.30957845 -0.39327806 0.012929693
0002d0 82 34 22 3f 54 7a 18 bf 9e 74 9c 3e ce 97 f8 bc
       0.6336137 -0.5956166 0.30557722 -0.030345824
0002e0 20 f2 ac bd 68 d9 b7 bb 70 b7 4b 3f 0d 6a a4 be
       -0.08444619 -0.0056106336 0.7957678 -0.3211216
0002f0 00 f4 87 3e 80 da 2d bf 74 b1 ed bd 60 66 aa 3e
       0.26553345 -0.6791153 -0.11606112 0.3328123
000300 b3 37 4f bf c8 41 9a 3d 8a 3f 80 3e 98 45 c7 3e
       -0.80944365 0.07532078 0.25048476 0.38920283
000310 34 3d da 3e 86 07 7b 3f 46 b5 18 be 6b c1 04 bf
       0.4262482 0.98058355 -0.149129 -0.5185763
000320 88 e4 b8 3f 55 45 f3 bd 7e ac 65 3f 01 9b 8c 3e
       1.4444742 -0.118784584 0.8971633 0.2746201
000330 1e f2 91 3e 1a f4 17 bf e3 20 0c 3f 85 8c 18 be
       0.28505033 -0.59356844 0.5473768 -0.14897354
000340 68 d9 96 be 20 6c c8 bb 8a 2b 46 be 20 9b a0 be
       -0.29462743 -0.006116405 -0.19352546 -0.3136835
000350 93 2f de be 7f e0 52 be 29 12 26 bf 48 4c 8b 3f
       -0.4339567 -0.20593451 -0.6487146 1.0882654
000360 d3 63 29 3e bd 95 22 3e 15 03 62 3e 8c 83 2d 3e
       0.16541986 0.15877433 0.22071488 0.16944712
000370 19 1e 2b bf bf 6a 28 3e 5f 02 e3 3c 8a 69 6c 3e
       -0.668428 0.1644697 0.027711092 0.23087135
000380 c9 3a 01 be 86 db 87 3e 48 8f 0c 3d 66 9a ec 3e
       -0.12620081 0.2653467 0.03431633 0.46211547
000390 3c ea e0 3c 7b 5e 75 3d 2c 6f 10 be 89 90 c4 3e
       0.027455442 0.059904557 -0.14104909 0.38391522
0003a0 66 52 a5 3e 12 f7 1b bf cd a9 50 3f ee a3 fd bc
       0.32289428 -0.60923874 0.81509095 -0.030961957
0003b0 d8 29 82 bf 4a 64 0e 3f de 9c 13 bf 16 51 aa be
       -1.016902 0.5562178 -0.57661235 -0.3326499
0003c0 20 e2 44 3d f3 2e 96 3e 68 08 75 3e 55 76 17 bf
       0.048067212 0.29332694 0.23928988 -0.59164935
0003d0 21 3f cf 3e 7b d7 fb be ed dd 5b 3e 07 bc 67 bf
       0.4047785 -0.49187836 0.21471377 -0.9052128
0003e0 07 28 01 3e 58 04 68 3e 3f ff aa 3e 51 ae 2b 3e
       0.12612925 0.22657907 0.33397862 0.16765715
0003f0 ee c2 ed 3d b6 84 32 3d d1 5f 10 bf d7 f0 0d 3d
       0.116094455 0.043583594 -0.56396204 0.03465351

pi.logits_net.2.bias f4 [64]
000000 91 3b 5a 3e 52 ae 0a be 3a 4d bd be ff da 53 3e
       0.21311785 -0.1354306 -0.36972982 0.20689009
000010 fd 7f dd bd 90 25 99 3e 85 7d 12 be 0c 73 be be
       -0.108154275 0.2991147 -0.14305694 -0.3719715
000020 5b 76 26 bd 81 ad 6c 3e 11 fe 4f be eb dd 08 3f
       -0.040640216 0.23113061 -0.20311762 0.5346362
000030 a4 c4 b2 bc 7e 3d 88 3c 79 88 db 3c 5a 98 62 3e
       -0.021822281 0.016630884 0.026798474 0.2212843
000040 6c 3d a6 3e ed c4 50 3f 7a 2e 02 3c 9c 87 8e 3e
       0.32468736 0.81550485 0.007945651 0.27837837
000050 b7 cd bb 3e d0 5f 1d 3d e6 53 b0 bc 81 ab 1c 3e
       0.36680385 0.038421452 -0.02152438 0.15299799
000060 bb 0d c5 be c1 fc 79 be fb 66 9e bd 8c 02 35 3c
       -0.38487038 -0.24412824 -0.07734486 0.0110479705
000070 1c 42 b1 3d ca 2a a6 be e7 a3 31 3e 12 7f 77 3c
       0.086551875 -0.3245452 0.1734768 0.0151059795
000080 8f 06 80 3e 27 94 68 be de 29 82 3d f7 fc 58 be
       0.25005004 -0.22712766 0.06355642 -0.21190248
000090 9b a6 b3 be bf 3c c7 be 84 9a a8 3e 50 2a 18 3f
       -0.35088047 -0.38913533 0.32930386 0.59439564
0000a0 16 a3 e0 be 8e c4 4e bd 43 75 7a 3d 82 05 d2 be
       -0.43874425 -0.050480418 0.061146986 -0.41019827
0000b0 29 62 8d 3e 41 60 fd 3e 1c fb ab be 68 92 ca 3e
       0.27613953 0.49487498 -0.3359002 0.39564824
0000c0 8e ce 33 3d 76 96 31 3e 7a 5d a6 3e 1a 39 b2 bd
       0.043898158 0.17342553 0.32493192 -0.087022975
0000d0 df b8 26 3f bb 4b 3f 3e ee 69 f2 bd 1d a0 d4 bd
       0.6512584 0.18681233 -0.11836611 -0.10382102
0000e0 45 22 5d 3a 84 46 95 3d b3 c9 e2 3d 5a a6 ce be
       0.00084355875 0.072888404 0.11073627 -0.4036129
0000f0 ac a5 7c bf b1 37 10 bf 8a 9f b0 3e 6e b7 b2 3e
       -0.98690295 -0.5633498 0.3449672 0.3490557

pi.logits_net.4.weight f4 [87, 64]
000000 1a 14 58 bf 7c 56 3d bf ff 30 40 3f 1d 54 06 3d
       -0.8440567 -0.7396009 0.7507476 0.03279506
000010 c8 52 81 3e 1f 32 01 bf d6 8b 02 3f 07 b0 85 bd
       0.2525847 -0.50467104 0.5099462 -0.06527715
000020 b0 90 99 3d cb 91 48 3e ef e7 9c 3f 77 d5 61 be
       0.074983 0.19586866 1.225828 -0.22054087
000030 98 0a ab be 30 f1 51 3e c3 1f b6 3c 5d 7c 73 3e
       -0.3340652 0.20502162 0.022231942 0.2377791
000040 43 e0 d7 3e af 1a 85 3e b8 b1 0a 3f 1a 1b 8d 3e
       0.42163286 0.2599692 0.5417743 0.2755974
000050 31 ff ba 3e a1 50 6f be 01 bf e6 be d1 43 19 bf
       0.3652282 -0.23370601 -0.450676 -0.59869105
000060 a7 dc eb 3c 3b 83 9b bb 0f c7 1e 3f 87 e1 32 3e
       0.028791739 -0.0047458685 0.6202249 0.17468844
000070 a3 d3 58 3f f3 cb 2b bf c4 46 eb be 03 3c 33 3f
       0.8469793 -0.67108077 -0.45952427 0.70013446
000080 86 5b 65 bf 44 48 d7 3e ea dc d7 be e3 38 67 3e
       -0.8959278 0.42047322 -0.42160732 0.22580294
000090 65 04 36 be ee 60 eb 3e 93 bc e5 3e d9 4c 75 3e
       -0.17775114 0.4597239 0.44870433 0.23955096
0000a0 1b 23 4b bf ba ac 19 3f 4b ce e9 3e d1 f2 80 3f
       -0.7935044 0.60029185 0.45665202 1.0074102
0000b0 10 c0 c6 bd a3 88 02 bf 42 f1 19 be 99 9b dc 3e
       -0.09704602 -0.5098974 -0.15033439 0.43087462
0000c0 9a a5 c9 3e d0 80 6a 3f 65 19 d7 3c 84 a6 12 3f
       0.39384156 0.916028 0.026257226 0.5728533
0000d0 9e 3d 77 3e c3 46 8c be 90 e1 de 3d 0b a1 a8 be
       0.24144599 -0.27397737 0.108828664 -0.32935366
0000e0 c9 16 29 bf ad f1 70 3e ef a7 d6 be 13 17 b7 3e
       -0.6605039 0.23529692 -0.41924998 0.35759792
0000f0 6d 9c 9a be 2c 57 59 be 11 25 52 3e 8e d5 92 bd
       -0.30197468 -0.2122466 0.20521952 -0.071696386
000100 74 63 45 bf 19 13 ce be e6 41 6a bd 55 a3 47 3f
       -0.7710488 -0.40248945 -0.057191752 0.779836
000110 1e d9 11 bf 00 73 2b 3f 89 57 79 bf 9b 0f 05 bf
       -0.5697192 0.6697235 -0.97399193 -0.5197694
000120 2b 59 0e 3e c8 75 37 bf f6 1e 1b bf 18 e3 2d 3e
       0.13901202 -0.71664095 -0.6059412 0.1698116
000130 fc 9f 4f bf b7 be d9 3e 44 4b bb be a2 51 78 3e
       -0.8110349 0.42528316 -0.3658086 0.2424989
000140 be dd 3c bf b6 23 19 3f ac 1d 92 be 0c 21 f3 3e
       -0.7377585 0.59820116 -0.28538263 0.4748615
000150 80 13 2a 3f c6 bb 37 3f 9d 1b 72 3f 96 29 72 3f
       0.66436005 0.71770895 0.94573385 0.94594705
000160 bc b9 39 be ec 33 ae be 27 04 5a bf b6 f0 23 bf
       -0.18137258 -0.34023988 -0.85162586 -0.6403917
000170 11 46 00 3f 14 7b 7e 3e 37 2a 7f 3f e3 3f 7b be
       0.5010691 0.24851638 0.9967379 -0.2453609
000180 f4 d1 9e 3e 1f ca 6c 3b a9 9d a9 be 92 95 68 3f
       0.31019557 0.0036131216 -0.33128098 0.90853226
000190 61 d3 b4 be 6c 73 1e bf 7e 18 92 3d d7 2a 31 3e
       -0.3531752 -0.6189487 0.07133578 0.17301498
0001a0 f5 0c d6 3e d5 af 01 3d f7 9e 9e be 28 5f 32 3e
       0.4180676 0.031661827 -0.30980656 0.17419112
0001b0 27 0c 1a bf 7c b4 08 3f 96 ea 5a bf 87 f1 64 3e
       -0.60174793 0.534004 -0.855142 0.2235776
0001c0 dd d4 82 3e 4d d1 02 3f dc 1e 33 3f 35 d3 76 be
       0.25553027 0.5110062 0.6996896 -0.24104007
0001d0 9f 1c 0c 3f da 87 3e 3f 5a f7 35 bf ee 32 1a bf
       0.5473117 0.74426043 -0.71080554 -0.6023396
0001e0 a6 30 11 3f db ac 16 bf 62 f0 f9 3e 5e 22 06 bf
       0.56714857 -0.58857507 0.4881621 -0.5239619
0001f0 15 77 a6 be 15 cc 15 bf e0 0f a9 3e 30 97 c6 bd
       -0.32512727 -0.5851453 0.33019924 -0.096968055
000200 8b 09 45 bf 26 bf 2b bf 36 a4 da 3e e2 30 0d bf
       -0.76967686 -0.67088544 0.42703408 -0.55152714
000210 ca ed 5a 3f d2 ea a3 be 4e 04 c7 3e 85 1a 0f bf
       0.8551909 -0.3201509 0.38870472 -0.5589984
000220 47 cb d4 3d c5 85 46 bf 25 95 90 3f 28 10 d2 bd
       0.103903346 -0.77547866 1.1295515 -0.10256988
000230 bd 70 48 be 72 28 e8 3e 4b a5 8d 3e 5c a2 ca be
       -0.19574256 0.45343357 0.2766517 -0.39576995
000240 97 0b 11 3f 99 19 9d 3e 74 55 82 3f 18 ad f4 3e
       0.5665831 0.30683592 1.0182328 0.4778831
000250 f5 64 35 3f 06 0b 02 bf 6e 37 36 3f 25 27 49 bf
       0.70857173 -0.5079807 0.7117833 -0.78575355
000260 eb 7c ad 3e 09 ea cf be 2f 89 3c 3f 55 8a 0f 3f
       0.33884367 -0.40608242 0.73646826 0.5607045
000270 23 ce 26 3f fa 61 5c bf 66 f4 a7 be 6e ea 1b 3f
       0.6515829 -0.86087 -0.3280365 0.60904586
000280 dc 08 7c bf 1b a6 52 be 0e c7 fe be ee a9 8a be
       -0.9845102 -0.20571177 -0.49761242 -0.2708277
000290 06 6b 18 3e fb 2a 8c 3f 1a 3a dc 3d fe d0 0a 3d
       0.14884576 1.0950617 0.107532695 0.033890717
0002a0 33 ec b9 be cf 0b f7 3e 9a ca 77 bd ec d9 cd 3f
       -0.36313018 0.48251197 -0.06049595 1.608213
0002b0 64 ff 37 3e 50 1c 61 bf 0f ec 07 bf bd 1a 00 3f
       0.17968518 -0.87933826 -0.5309457 0.500408
0002c0 21 bc f5 be 84 e9 fe bd 47 71 1d 3c eb ce db 3e
       -0.47995093 -0.12446883 0.009609527 0.42931303
0002d0 35 82 13 3f 8a a2 2c bf 6c e7 51 3f f4 38 e4 be
       0.57620555 -0.67435515 0.81993747 -0.44574702
0002e0 8a 82 fc be 9b a5 0e 3f 3a e7 b5 be 10 35 ef 3d
       -0.49318343 0.55721444 -0.35527974 0.11680043
0002f0 61 bd 79 be fa b9 84 bd 50 27 0e 3f 94 e1 bf 3d
       -0.24388649 -0.06480785 0.55528736 0.093691975
000300 a5 9b d4 3e 1e 4a 15 bf d2 2e 85 be 05 91 4c 3d
       0.41524997 -0.5831622 -0.26012284 0.04994299
000310 f1 f3 f5 3d 53 55 bd 3d a9 0f 64 3e ba cd 90 be
       0.12009419 0.0924479 0.22271599 -0.28281957
000320 d0 65 31 bf d7 e9 ee 3e 6a 5b e9 be d6 e6 e3 be
       -0.6929598 0.4666278 -0.45577556 -0.4451205
000330 ad c2 7b 3f 00 62 19 3f 31 77 02 3f d0 ca 6e 3f
       0.98343927 0.5991516 0.5096312 0.9327822
000340 0d 81 9f 3e f9 91 b1 3e 34 66 48 bf 2f 27 58 3e
       0.31153145 0.3468168 -0.7828095 0.21108697
000350 32 16 c0 bd 43 b4 1b 3f 46 8e 3b bf 5b 6a e0 3d
       -0.093792334 0.6082193 -0.7326397 0.10957786
000360 76 c5 40 bf 3e 5b 58 3f 5d 3a 22 3e d4 7c 30 3f
       -0.753013 0.84514225 0.15842576 0.6894047
000370 a3 02 72 be 53 fe 93 3e 8c 51 d1 be 18 db e8 bd
       -0.23633818 0.2890497 -0.40882528 -0.11369914
000380 0c f6 1d bf 9c 83 e3 3e 54 7b 79 bf e3 6f df be
       -0.6170356 0.44436347 -0.9745381 -0.4364005
000390 50 41 1d bf 81 0d 2b bf 67 c1 aa 3e 5c fa 00 be
       -0.61427784 -0.6681748 0.3335068 -0.12595505
0003a0 da c5 36 bf aa bb c9 bc 55 60 2f 3f 58 14 91 be
       -0.7139565 -0.024625618 0.68506366 -0.28335834
0003b0 ca 14 c5 bc ab b4 f1 3e 58 3d ab 3f a6 e9 13 3f
       -0.024057765 0.4720815 1.3378096 0.57778394
0003c0 21 93 a7 bd d3 68 21 3e b1 c1 37 be f5 06 74 3e
       -0.081823595 0.15762644 -0.17944981 0.23830779
0003d0 40 2d 97 3e a3 81 83 bf 04 ae ea bd e9 ee 33 be
       0.2952671 -1.0273937 -0.11458972 -0.17571606
0003e0 7b 3f 1c 3f 7c 8c 5e 3d 53 66 6a bf a1 ce 39 bf
       0.61034364 0.054333195 -0.91562384 -0.72580916
0003f0 ab 86 c7 be 4d a6 c8 be c5 5a 1c 3f 2f 96 b7 3d
       -0.3896993 -0.39189377 0.61076003 0.08964192

pi.logits_net.4.bias f4 [87]
000000 42 12 f6 3e 24 4a d0 3e ac 73 eb 3e cb b5 c4 3e
       0.48060805 0.40681565 0.45986688 0.38419947
000010 e5 8a 5a 3e 63 b5 43 3e b5 70 d0 3e 7a 1b 3a 3f
       0.21342047 0.19112162 0.4071099 0.72698176
000020 8b a5 1e 3f c6 eb 00 3f f0 23 9c 3e 0e 7e ae 3e
       0.6197135 0.5035976 0.30496168 0.34080547
000030 99 fd 1d 3f 9f 55 4a 3f 7e c0 fe 3e 46 3a cd 3e
       0.61715084 0.790369 0.49756235 0.40083522
000040 bc de 74 3e 34 5d 0b 3f 3f 46 de 3e 95 f6 17 3e
       0.23913091 0.5443909 0.4341297 0.14840157
000050 20 60 2a 3f 90 31 a6 3e c6 52 81 3e af 21 fc 3e
       0.66552925 0.32459688 0.25258464 0.4924445
000060 b2 3c d0 3e 9d 51 0b 3f 86 fc 8e 3e 9c 51 06 3f
       0.40671307 0.54421407 0.27927035 0.52468276
000070 9d 7d c8 3e 3f 0e e3 3e 2d 91 87 3e 0c f8 22 3f
       0.39158335 0.44346806 0.26477948 0.6365974
000080 8a e0 3f 3e 28 aa ef 3e 4b f2 0f 3f 18 cd d4 3e
       0.18737999 0.46809506 0.56229085 0.41562724
000090 24 22 fe 3e b6 41 10 3f 80 48 ef 3e a1 18 22 3f
       0.49635422 0.56350267 0.46735 0.6331883
0000a0 65 96 29 3f e1 ed b8 3e 32 6b ff 3e 19 25 e2 3e
       0.6624511 0.36118987 0.4988647 0.44168928
0000b0 fb 19 05 3f 98 45 d3 3e 8c 41 22 3f 4f 6c ac 3e
       0.5199277 0.41264033 0.63381267 0.33676383
0000c0 de 2a 06 3e 6f ea 35 3f ba cf 33 bd 22 1f 17 3f
       0.1310229 0.7106084 -0.043899275 0.5903188
0000d0 58 3f 9d 3e 1c cc cf 3e 75 ea c9 3e 42 3e c7 3e
       0.3071239 0.4058541 0.3943669 0.38914686
0000e0 53 41 c7 3e 45 e9 d9 3e 9e fa bd 3e b6 3a e4 3e
       0.38917026 0.42560783 0.37105268 0.44576043
0000f0 96 84 db 3e e5 fc 24 3f 3e 29 03 3f 36 8f 10 3e
       0.42874593 0.64448386 0.51234806 0.1411713
000100 5a 17 c7 3e 9d f8 ce 3e b6 ea e1 3e c4 6f 8c 3e
       0.38885003 0.40424052 0.44124383 0.2742902
000110 7e 96 ca 3e a6 f7 36 3e c5 f5 74 3e 83 fc e5 3e
       0.3956794 0.17867908 0.23921879 0.44919214
000120 33 9e 01 3e 0c 62 bd 3e d1 9c 5b 3e 84 d5 38 3f
       0.12658004 0.36988866 0.2144654 0.722008
000130 5b f5 b2 3e a0 44 a2 3e fc 52 c7 3e 50 2a 48 3f
       0.34952816 0.31692982 0.389305 0.78189564
000140 72 86 1a 3e c7 7b 8e 3e 2e 98 0c 3f dc c7 19 3f
       0.1509035 0.2782881 0.5491971 0.60070586
000150 d0 b2 e7 3e a6 76 03 3f 83 c5 98 3e
       0.4525361 0.5135292 0.2983819

v.v_net.0.weight f4 [64, 282]
000000 94 49 5c 3f 0c c5 c1 3e f7 50 c8 3f bc 6d 60 3f
       0.8604977 0.37845647 1.5649709 0.8766744
000010 3c f3 9c 3f 0b 70 a0 3f ca ab 7c 3f 5a 59 81 3f
       1.2261729 1.2534193 0.9869963 1.0105393
000020 1b 19 cb 3f 9d ce b7 bf f8 43 ba 3e 45 21 a2 3e
       1.5867037 -1.4359928 0.3637998 0.31666008
000030 6c dd 5e 3f 1d fa c9 3f 17 27 9a 3f 3c a0 52 3f
       0.8705661 1.5779454 1.2043179 0.8227575
000040 ca 01 71 3f 12 13 4c 3e 62 1f 9b 3f 7a 7f 68 3f
       0.94143355 0.1992915 1.2118952 0.90819514
000050 b2 3e 54 3f 5e 4a 7b 3f f5 dc d3 3e ff 79 9d 3f
       0.82908165 0.9816035 0.41379514 1.2302855
000060 6f 75 d3 3f fd 61 c6 3f 2c 59 62 3f ec b1 6f 3f
       1.6520213 1.5498654 0.88417315 0.9363086
000070 da ac 71 3f 3a eb 56 3f a8 d8 a0 3f 73 94 bd 3f
       0.94404376 0.8395268 1.2566118 1.4810928
000080 04 de ba 3e e0 30 a4 3f 82 1b 5a 3f 6c 76 6a 3f
       0.3649751 1.2827415 0.85198224 0.9158695
000090 d2 6b 7e 3f 11 c9 cb 3f b4 26 9f 3f 77 9a c0 3f
       0.9938327 1.5920736 1.2433686 1.5047139
0000a0 e5 bf bf 3f 16 fe af 3e 31 e8 c8 3f 7b 00 ca 3f
       1.4980437 0.3437354 1.5695859 1.5781397
0000b0 06 b3 ef 3e d3 9e c7 3f 11 a0 9d 3f dd 73 9d 3f
       0.46816272 1.5595344 1.2314473 1.2300984
0000c0 b9 75 9c 3e c4 6c 7c 3f 8c 81 6b 3f 5e 2c 67 3f
       0.30558565 0.98603463 0.9199455 0.90302074
0000d0 4a 26 b7 3e 1f b5 cb 3f 22 46 b2 3e bb 66 a2 3f
       0.357714 1.5914649 0.34819132 1.2687601
0000e0 7b 1e b6 3e 28 d7 6a 3f af da c5 3f 8e e4 71 3f
       0.3557013 0.9173455 1.5457362 0.9448937
0000f0 38 ea 5f 3f cf ef c4 3f 6c ac 7e 3f 23 28 81 3e
       0.87466764 1.5385684 0.99481845 0.25225934
000100 9d 74 c3 3e 45 c9 c8 3f 05 64 d4 3f d0 6c a4 3e
       0.38174906 1.5686423 1.6593024 0.32114267
000110 e3 4e d5 3e 86 02 6d 3f 39 5f cd 3e 1e 55 6c 3f
       0.41661748 0.92581975 0.40111712 0.9231738
000120 3b 2f bf 3f 72 d6 af 3e 1d 4c bc 3e 47 67 81 3f
       1.4936289 0.34343296 0.3677682 1.0109643
000130 3e 82 9b 3e 37 3b 81 3f dc 90 5f 3f 5b c9 c5 3f
       0.30372804 1.0096196 0.8733041 1.5452074
000140 bd 16 92 3e 19 91 94 3f 2c 86 6c 3f 06 fe 74 3f
       0.28532973 1.160678 0.9239223 0.9570011
000150 93 62 bd 3f 7e c0 5f 3f 51 ef 9f 3e 6c 53 89 3e
       1.4795707 0.87403095 0.3123727 0.26821458
000160 96 ec 0f 3f 79 45 16 be 87 50 b7 3d b2 5e 54 40
       0.56220376 -0.14674939 0.08950906 3.3182797
000170 24 d8 82 3e 95 16 0b bd e4 24 d1 3d 06 09 eb be
       0.25555527 -0.033957083 0.102121145 -0.45905322
000180 60 3c ca 3f 6d 16 17 bf 2c 8c 45 bf 5c 9d 00 3f
       1.5799675 -0.59018594 -0.7716701 0.5024011
000190 1e 53 e6 3d 62 6d 1b 3f d3 6f e2 bf 3f 18 ae 3e
       0.11246322 0.6071378 -1.7690376 0.34002873
0001a0 d6 35 94 3c b8 24 a5 3f a7 9b 39 bf 28 b4 a0 3f
       0.018092077 1.2901831 -0.7250313 1.2554979
0001b0 88 6b 95 3c b7 64 18 3e e5 90 86 3f 13 c1 fc 3d
       0.018239751 0.1488217 1.0512968 0.123415135
0001c0 60 18 a8 3f 87 57 0d c0 b9 8c 5a bc 9d 7e fb bf
       1.3132439 -2.2084672 -0.013339215 -1.9648014
0001d0 c8 63 fb bc 0d d6 1c 3e 67 db c1 be 87 88 ed 3e
       -0.030687228 0.15316029 -0.37862703 0.46393225
0001e0 f5 72 f5 3f 0f 71 87 bf c9 35 82 bf 10 cd cc be
       1.9175707 -1.0581378 -1.0172664 -0.400002
0001f0 7f 10 9c 3c 96 f8 67 3f f3 b4 77 bf f8 54 3b 3f
       0.019050835 0.9061369 -0.9676048 0.7317653
000200 df ef ce 3d 7d e1 d5 bf 11 b4 1e 3e bb 94 cf bf
       0.101043455 -1.6709439 0.15498377 -1.6217264
000210 2a 3a 95 3e 1b 22 05 3f cf 4b f6 3f 19 15 47 3f
       0.29145938 0.52005166 1.9241885 0.7776657
000220 12 ad 2e 3f 23 6c 18 bf 97 c3 44 bf 67 e0 c0 3d
       0.68232834 -0.59540004 -0.76860946 0.09417801
000230 f4 58 11 bf 76 98 c2 be 67 31 fa 3f 3f 11 dc bf
       -0.56776357 -0.38006943 1.9546326 -1.7192763
000240 a1 e7 ee 3e 0b 8e 28 be 90 30 d3 bf 9b 86 20 bf
       0.46661094 -0.16460435 -1.6499195 -0.6270539
000250 80 10 17 3f 0d 88 41 3e 59 cc b9 3d d5 9d 6f 3f
       0.5900955 0.18899556 0.09072179 0.9360021
000260 40 e8 51 bf 1f fb d5 be 8a 2a 87 be e1 f7 1a 40
       -0.8199501 -0.41793153 -0.26399642 2.4213793
000270 17 ab 4d 3f 8f 19 d8 be 0a 34 98 bf d0 70 13 3e
       0.8033919 -0.42207 -1.1890881 0.14398503
000280 1d 31 97 be a2 95 44 40 6d 84 7a be da 08 0f 3f
       -0.29529658 3.0716329 -0.24464579 0.5587288
000290 a8 fe 3a bf fd 70 10 bf ec 4b 80 3f b2 d6 a7 3f
       -0.73044825 -0.56422406 1.002317 1.3112395
0002a0 46 3e 1f 3f 1e 6e da 3d 62 02 a8 3f 46 45 ed bb
       0.62204397 0.106655344 1.3125727 -0.007240924
0002b0 6d 4d f1 bc 04 b1 fa 3e c3 e0 98 3f da ef f2 40
       -0.029455865 0.48963177 1.1943592 7.5917788
0002c0 f8 5e b9 40 c0 12 da 3f 58 07 10 c0 4c de ea bf
       5.792843 1.7036972 -2.2504482 -1.834909
0002d0 51 24 67 40 85 62 73 3f ba a4 e9 bf da ff e3 40
       3.6115916 0.95072204 -1.8253396 7.124982
0002e0 e3 f9 44 c1 49 53 54 c0 3f 7d de 40 28 6d f3 3d
       -12.3110075 -3.3175833 6.952789 0.11886054
0002f0 61 4e 57 41 12 9e 30 c1 a2 9e bc 3f fb f2 9f 40
       13.456635 -11.038591 1.4735911 4.9984107
000300 aa 00 68 3f 82 87 4b 3f 06 58 55 bf c5 bc fd 3f
       0.90626013 0.79503644 -0.8333744 1.9823233
000310 4f de 01 c0 a6 e4 28 c0 4c 20 43 bf 40 05 a8 be
       -2.0291936 -2.6389556 -0.76221156 -0.32816505
000320 d0 16 4a bf ed 1f dd bf ca 53 24 40 14 ed 42 40
       -0.7894106 -1.7275368 2.567614 3.04572
000330 0d a0 86 3f a6 ce 71 40 93 6b ce bf f6 bb ba bf
       1.0517594 3.7782378 -1.6126579 -1.4588611
000340 93 4f fc bf cb 54 6a c0 48 b4 05 c0 ac e0 92 c0
       -1.9711784 -3.6614254 -2.0891285 -4.589926
000350 eb 87 a4 3f 02 34 89 bd 0c fb 32 3f 45 c8 28 40
       1.2853979 -0.06699373 0.6991432 2.6372235
000360 e1 b7 d0 bf f6 c5 44 40 c2 58 11 c0 39 77 8d 3f
       -1.6306115 3.0745826 -2.2710423 1.1052009
000370 dc 20 fa bf e9 31 9d c0 c6 17 8c bf 8d 41 0d bf
       -1.9541278 -4.9123425 -1.0944755 -0.5517815
000380 8f cc 25 c0 82 80 22 3f 87 34 42 bf 61 a3 13 c0
       -2.5906103 0.6347734 -0.758614 -2.3068469
000390 10 81 eb be 36 34 9a bf f6 3e 35 c0 80 c7 2b 3e
       -0.45996904 -1.2047184 -2.8319678 0.16775322
0003a0 72 12 52 be c8 e6 92 40 09 7c 35 c0 d0 23 63 3d
       -0.20514849 4.5906715 -2.8356955 0.055454075
0003b0 7f 46 28 3e 8e b9 23 bf 38 24 cb be 51 f5 fa bf
       0.16433142 -0.6395501 -0.3967607 -1.9606115
0003c0 e9 1b e0 3f 36 a9 d6 bf 5d 6c de be c5 28 fa 3f
       1.7508518 -1.6770389 -0.4344205 1.9543692
0003d0 ad ac c2 bd e8 a0 47 bf 21 48 98 bf c0 1c b1 3f
       -0.095055915 -0.779799 -1.1897012 1.3836899
0003e0 d3 8d e3 3f 7b 1b 74 bf a0 d8 79 bd 9e ac 60 3d
       1.7777656 -0.9535443 -0.060997605 0.05485212
0003f0 94 73 23 bc 8f 08 4b 3f 1a 09 09 3f 2e 90 68 3d
       -0.009976286 0.79309934 0.5352951 0.056778125

v.v_net.0.bias f4 [64]
000000 5b 03 b2 bf 1d 78 97 c0 b4 95 93 40 14 dd 8b c0
       -1.3907274 -4.7334123 4.6120243 -4.370737
000010 d4 fa 0b 3f e6 81 38 bf 49 ae bf 3f 39 e3 3d 40
       0.5467961 -0.7207321 1.4975063 2.9669936
000020 fb 7f 44 40 e4 97 de c0 d3 e0 5d c0 c6 2b b1 40
       3.0703113 -6.9560413 -3.4668472 5.5365934
000030 23 b1 10 40 de db 66 c0 13 e2 6f c0 6c f1 95 3f
       2.2608116 -3.6071696 -3.7481735 1.1714301
000040 e1 43 42 40 84 2e 12 40 25 5e 84 bf 31 cf f8 3e
       3.035393 2.284089 -1.0341231 0.48595574
000050 c1 34 b2 bf f1 51 a6 c0 4d e3 08 40 92 a7 66 40
       -1.3922349 -5.1975026 2.1388733 3.6039777
000060 a8 36 02 40 ea 64 2e 40 13 50 71 3f 71 45 a6 40
       2.034586 2.7249093 0.9426281 5.1959767
000070 24 40 57 3e d7 fe cb c0 cd 2f e0 be 90 0f bc c0
       0.21020561 -6.3748584 -0.4378647 -5.8768997
000080 18 88 5f c0 6a fb bf bf d3 d5 8f c0 83 0b 93 c0
       -3.4926815 -1.49986 -4.4948516 -4.5951552
000090 9e d1 a1 bf 0e 11 3d c0 dc 68 99 40 c3 06 6e c0
       -1.2642095 -2.954166 4.79405 -3.7191627
0000a0 e2 8a c3 40 e5 a0 a1 40 0b f2 8c c0 b5 95 81 c0
       6.1107035 5.0508904 -4.4045463 -4.049525
0000b0 3a 32 66 3f 63 18 32 40 00 11 b8 3e 86 8e 29 c1
       0.8992039 2.7827384 0.3595047 -10.597296
0000c0 25 2c 78 bf 81 f1 b8 bf b9 84 3b be ee 04 da 3f
       -0.9694236 -1.4448701 -0.18312348 1.7032754
0000d0 d2 7b 9a c0 4c 7a c4 40 35 cc ed 3f 5b bc df bf
       -4.827615 6.139929 1.8577944 -1.7479357
0000e0 52 21 7e c0 d4 ba e5 3f 83 a0 c4 c0 c0 8b bc be
       -3.9707837 1.794764 -6.1445937 -0.3682537
0000f0 e2 95 0a 40 2b 06 22 3f 04 a9 14 c0 d9 21 53 c0
       2.1653981 0.6329066 -2.322816 -3.298941

v.v_net.2.weight f4 [64, 64]
000000 ac c0 17 bf 0c 17 64 3f b1 f7 2c 40 5a 77 10 c0
       -0.5927837 0.89097667 2.702618 -2.2572846
000010 35 65 4b 3f 7a 58 05 3f d0 a2 b5 3e 81 4e 83 3f
       0.79451305 0.5208813 0.3547578 1.0258332
000020 5c cd 06 40 94 4b 09 c0 52 cb c4 bf c5 c6 d6 3f
       2.1062841 -2.145238 -1.5374548 1.677941
000030 62 c2 f1 3e 6c 86 b6 be c9 9b 02 40 a1 dc c1 bf
       0.47218615 -0.3564943 2.0407584 -1.5145456
000040 e8 8b 84 bf c9 ed 03 3f b8 6b d3 40 ed c9 b6 bf
       -1.0355196 0.51534706 6.6068993 -1.4280373
000050 74 1f ac be 36 68 bb bf 6f 52 b2 3e cb c0 09 bf
       -0.33617747 -1.4641178 0.34828517 -0.53809804
000060 30 0b 0d 3e c1 87 07 40 40 67 18 40 ca ef c9 3f
       0.13773799 2.1176608 2.3813019 1.5776303
000070 7c ac 42 bf 11 c6 dc bf df c2 4d 3f 99 23 b1 3f
       -0.7604444 -1.7247945 0.80375475 1.3838989
000080 2c 05 74 bf 22 ba 0b 40 fe 19 85 bf e5 ea 19 c0
       -0.9532039 2.1832356 -1.0398557 -2.4049618
000090 70 b2 fc bf 65 6e ca bf b8 87 15 bf a9 0c e9 bd
       -1.9741955 -1.581494 -0.58410215 -0.11379368
0000a0 9e b9 27 40 66 32 53 be c5 d4 38 be d1 58 b7 bf
       2.6207042 -0.20624694 -0.18049915 -1.432398
0000b0 de a2 e8 bf b9 20 07 c0 30 59 a4 3f f2 71 68 bf
       -1.8174703 -2.1113722 1.2839718 -0.90798867
0000c0 d9 0e b4 3f 43 f3 2c 3e 45 0b 69 bf 47 6c f1 bd
       1.4067031 0.16889672 -0.9103282 -0.117882304
0000d0 f4 12 1b c0 2b 2a bb 3f 7a dd 2a 3f 03 e7 8c bf
       -2.4230318 1.4622244 0.66744196 -1.1007999
0000e0 4a 3d 48 3f 69 c8 a7 bf 09 56 51 3f 97 11 08 3e
       0.7821852 -1.3108035 0.81771904 0.1328796
0000f0 75 f8 5b c0 59 72 57 3f 42 64 23 c0 50 94 42 3d
       -3.4370396 0.84158856 -2.5529943 0.047504723
000100 d6 48 cf be 1c 3b 9b 40 58 a6 c2 be bd 2a 37 3f
       -0.40485257 4.8509655 -0.38017535 0.7154959
000110 d1 58 06 bf db 2d b8 3f f7 12 6d bf 2d 9f df bf
       -0.52479273 1.4388994 -0.92607063 -1.7470452
000120 fe bb ee bf 54 ae 5f 3f ce 0a fb 3f e0 ce 0e c0
       -1.8651121 0.8737538 1.9612672 -2.2313766
000130 c9 24 b8 bf 43 60 32 bc 08 9f 7c c0 38 7c 2c 3e
       -1.4386226 -0.010887208 -3.9472065 0.1684426
000140 b9 a2 f7 be 43 a1 54 40 5b ea f8 bf 09 37 3d 40
       -0.48366335 3.3223426 -1.944652 2.956484
000150 97 6e ff be 47 37 3a 40 80 09 01 c0 37 a6 ed bf
       -0.4988906 2.9096239 -2.0162048 -1.856635
000160 37 b1 6e bf 33 00 d1 3e 4d a7 8c c0 a5 8d 48 c0
       -0.9323916 0.40820464 -4.3954225 -3.1336453
000170 e2 da 20 bf 02 ab f7 bd b8 fa 17 be 53 f3 e9 be
       -0.6283399 -0.12093164 -0.14841735 -0.45693454
000180 2c 25 9f 3f 7c 98 bb 3f cf 80 69 40 94 45 ab 3f
       1.2433219 1.465591 3.6484869 1.3380609
000190 93 e9 15 c0 67 a6 59 40 0d da 2c 40 0d c2 1e 40
       -2.3423812 3.4007814 2.7008088 2.480594
0001a0 b7 83 9c bf 39 1d 9f bf 8e 0d 5f 3f b0 21 b3 3f
       -1.2227696 -1.2430793 0.8713006 1.3994656
0001b0 38 28 48 bf ff 59 d7 3f 3b 1f 46 c0 84 4c d9 3f
       -0.7818637 1.682434 -3.0956562 1.6976476
0001c0 ba 42 59 bf bb ba 9f 3f 25 f0 7e bf a5 0d 9d 3f
       -0.8486744 1.2478861 -0.9958518 1.2269789
0001d0 a6 a3 3b bf c0 44 7a bf 6f c9 39 bf ee 82 2d bf
       -0.7329658 -0.97761154 -0.7257299 -0.6777791
0001e0 5f 30 f1 3f 55 db 73 3f f1 0c 94 3f 25 09 80 bf
       1.8842887 0.9525655 1.1566449 -1.0002791
0001f0 ff 1f 9e 3f 1b c8 40 c0 f5 74 0d 41 19 d4 e0 be
       1.2353514 -3.0122135 8.841054 -0.43911818
000200 4c ab 05 c0 a4 d3 8d 3e 3f b2 13 40 d5 99 0d 40
       -2.0885801 0.2770053 2.3077543 2.2125142
000210 69 cf f3 bf ee bd 97 3e 73 bd 66 c0 f7 bb 3a be
       -1.9047672 0.29637092 -3.605313 -0.18235765
000220 01 41 e8 3e e1 27 76 bf a9 09 b0 3e 39 8f b6 bf
       0.45362094 -0.961546 0.3438237 -1.4262458
000230 8e cd ac bf 39 90 a2 bf 9f c6 1b 3e 54 94 5a c0
       -1.350023 -1.2700263 0.15212487 -3.4153032
000240 bd 7b 4d 3f ab 34 c5 bf 9d 47 30 3c 74 4f b2 3f
       0.80266935 -1.5406698 0.010759261 1.3930497
000250 10 55 1d 40 61 72 ed 3f d5 7b 72 40 f4 86 11 3f
       2.4583168 1.8550531 3.788808 0.5684655
000260 e0 e0 ff bd b9 d3 60 40 40 f2 3a 3f 18 85 23 c0
       -0.124940634 3.5129225 0.73025894 -2.5549984
000270 d2 d1 a9 40 fc b9 2e 40 8d 0d 28 40 d2 26 ed 3e
       5.306863 2.7301016 2.625827 0.4631868
000280 95 b2 a1 bf 89 0d c6 be e1 f1 9e 3f ff 15 b4 3f
       -1.2632624 -0.38682202 1.2417566 1.4069213
000290 c5 80 4f c0 91 b2 ca 3e 76 68 63 40 26 56 84 3e
       -3.2422345 0.3958936 3.5532508 0.25846976
0002a0 fe 74 0e 3f d2 5a 24 40 fa 97 14 c0 e7 af 03 c0
       0.55647266 2.5680432 -2.321776 -2.0576112
0002b0 e2 cf 46 bf 8f 43 b6 bf 74 a8 24 3f cc a0 43 c0
       -0.77660954 -1.4239367 0.6431954 -3.0566893
0002c0 7b 00 86 bf 9e 47 ad bf 41 57 cb bf 86 2e 12 c0
       -1.0468897 -1.3537481 -1.5886003 -2.2840896
0002d0 56 42 26 40 ec dd 0e c0 a6 88 69 c0 bb 58 a8 40
       2.5977988 -2.232295 -3.6489654 5.2608314
0002e0 13 4e 21 be c9 21 26 bf a4 ac 8f be ea ac 38 40
       -0.15752439 -0.648953 -0.28061402 2.8855538
0002f0 7f d7 86 be d4 c6 0b c0 a2 d5 04 40 f6 d4 7e bf
       -0.26336285 -2.1840105 2.075539 -0.995437
000300 27 28 06 3f c1 e9 d2 bf a2 78 ee bf e5 dc 60 3f
       0.5240502 -1.6477586 -1.8630564 0.8783706
000310 89 42 c6 3f 2d 7e d6 bf 33 72 b0 3f f9 2c 1d 40
       1.5489055 -1.6757256 1.3784851 2.45587
000320 4d cb bc 3f ba ef 9d c0 13 a2 88 c0 fc f8 02 3e
       1.4749542 -4.9355135 -4.2697845 0.12790293
000330 0b 9f 3b bf 45 41 10 bf 14 69 af 3f 1c 1e 02 3f
       -0.73289555 -0.56349593 1.3703942 0.50827193
000340 3e 51 bf bf 76 36 c6 c0 50 00 99 bf 66 0f 44 be
       -1.4946668 -6.194148 -1.195322 -0.19146499
000350 05 97 b8 bf 4d 6c 7d bf a1 f2 92 40 ee c1 c6 3f
       -1.4421088 -0.9899338 4.592118 1.5527933
000360 66 17 ce 3f 5b 4c 57 be ac b7 af bf 92 10 02 40
       1.6100891 -0.21025221 -1.3727927 2.0322614
000370 7b 3f d6 3f 7f a1 b9 3e 6b e3 a3 bf 63 d9 df 3f
       1.6738123 0.36256024 -1.2803777 1.7488216
000380 dd ef 9a 3f a9 3f e4 3f 86 f0 e8 bf 87 18 57 c0
       1.210445 1.7831928 -1.8198402 -3.360872
000390 e9 ea d9 3c 7c e3 f6 3f 9e df 71 bf ea 90 0d c0
       0.026601272 1.9288173 -0.9448184 -2.2119699
0003a0 f5 c1 95 bf 25 bd 57 c0 a3 85 3b c0 40 26 96 3f
       -1.1699816 -3.3709195 -2.9300315 1.1730423
0003b0 7f 22 1f 3f 74 cc 86 c0 e5 f2 4a 3f c0 b8 d5 3f
       0.6216201 -4.2124577 0.7927688 1.6697006
0003c0 6e fb 27 40 4e ba 10 bf 85 09 13 40 24 fb 47 c0
       2.624721 -0.5653428 2.297456 -3.1247034
0003d0 69 1a e8 3d d6 0c 20 40 bb 50 ac 3e 8c 17 38 bf
       0.11333162 2.5007834 0.33655342 -0.7191093
0003e0 02 41 cc bf 97 ff 9c 3e 05 64 31 3f 4b 11 13 c0
       -1.5957339 0.3066375 0.6929324 -2.2979305
0003f0 76 ad 82 bf 39 d8 76 40 64 43 96 c0 39 b8 cb 3e
       -1.0209186 3.8569472 -4.6957264 0.39788988

v.v_net.2.bias f4 [64]
000000 a7 07 16 3f 2e 6c fd be 5a 9d 58 3f 98 fb 19 bf
       0.58605427 -0.49496597 0.846151 -0.60149527
000010 aa de 61 3d 05 1b 88 3e d2 5d 87 3e 43 97 3a bf
       0.05514399 0.26583114 0.26438767 -0.7288706
000020 58 5b 00 40 47 98 b6 3e aa 45 40 bf bd c2 43 bf
       2.0055752 0.35663053 -0.751063 -0.7646902
000030 80 68 61 bf 43 40 68 bf 32 9d 87 3f 77 4f 3a 3f
       -0.8805008 -0.90723056 1.0594847 0.72777504
000040 cd 36 ce be a6 44 d2 3e 80 c0 c2 3f 72 99 24 bf
       -0.40276185 0.41068 1.5214996 -0.6429664
000050 24 fa 16 bd 86 84 25 bf 6c ad 1b bf a1 db 36 3f
       -0.036859646 -0.6465534 -0.60811496 0.7142888
000060 32 0d a7 3d df 5d e5 3e 03 83 43 3f f0 d8 fa 3e
       0.08156814 0.4479818 0.76371783 0.48993635
000070 ba 9d c0 be 80 e1 bc bd c2 42 b9 3d fb 5c 1b be
       -0.37620336 -0.09222698 0.09045936 -0.15172188
000080 27 77 41 3f 59 ad 81 3f 43 71 0d 3f 9d 27 ee 3e
       0.7557244 1.0131027 0.5525095 0.46514598
000090 63 76 94 3f 00 7c cb bf f0 9b 78 3f e1 7e de bf
       1.1598629 -1.5897217 0.9711294 -1.738247
0000a0 d7 bb 8c be 6f b7 b1 3f da 9e ac 3f c4 d2 3f 3b
       -0.2748706 1.3884104 1.3485978 0.0029269913
0000b0 21 f4 d2 3e 84 65 de bf dd 30 ad be a3 62 2c be
       0.4120188 -1.737473 -0.33826342 -0.16834502
0000c0 ef 44 d7 3e fb 1a 10 3f 27 e3 87 3c a9 70 ac 3e
       0.4204478 0.5629117 0.016587807 0.33679703
0000d0 28 b3 d2 bd 35 ac 80 3f 31 86 f7 be 62 3a 3d 3f
       -0.102880776 1.0052553 -0.48344567 0.7391721
0000e0 1e 23 2e 3e 63 62 90 be 5b f1 63 bf 80 b6 d6 bd
       0.17005584 -0.28200063 -0.89040154 -0.10484028
0000f0 79 2b e5 be ef 2c e6 be 4d 83 b0 3f 92 87 db bf
       -0.4475973 -0.44956157 1.379007 -1.7150748

v.v_net.4.weight f4 [1, 64]
000000 89 a4 0f c1 40 f8 52 c0 b8 0c 1e 41 b2 c8 b8 40
       -8.97767 -3.296402 9.878105 5.774499
000010 10 4b 90 c0 2b a0 0a 41 98 46 94 41 b7 29 91 bf
       -4.509163 8.6641035 18.53447 -1.1340855
000020 3d ba d9 40 80 e4 09 c1 9c 38 67 40 2a b6 99 40
       6.803984 -8.618286 3.6128302 4.803487
000030 53 25 77 41 ca f3 05 c1 e9 49 68 c0 3b a2 1a c1
       15.446612 -8.372019 -3.629511 -9.664607
000040 fb f5 ce bf 75 ec 0c c1 8d a0 8e c1 8c 8e 06 41
       -1.6168817 -8.807729 -17.828394 8.4098015
000050 e0 e5 30 3f a4 7d 32 c1 1c 11 12 41 3a 0a 93 c1
       0.6910076 -11.155674 9.129177 -18.379993
000060 59 b1 f2 40 11 ed 9d c0 5f fd 9b c0 a0 2a 36 c0
       7.584149 -4.935189 -4.874679 -2.8463516
000070 22 88 b2 40 21 4c 08 41 2f ec bf bf fa ce 14 41
       5.579118 8.518586 -1.4993953 9.300531
000080 33 f8 ac c1 2c 08 a5 c1 fc c9 89 c0 54 12 d1 40
       -21.621191 -20.62899 -4.3059063 6.5334873
000090 6b e4 42 c1 cf 40 a8 41 bd f6 37 40 f8 13 ae 41
       -12.180766 21.031645 2.8744347 21.75975
0000a0 30 61 0b 40 e7 5a b9 c1 26 5c 0d 41 83 53 4c c0
       2.1778069 -23.169386 8.834997 -3.1925972
0000b0 eb cb 18 41 1f 26 67 41 89 51 29 c1 50 1a 73 c1
       9.549785 14.446807 -10.582406 -15.193924
0000c0 24 3e ba c0 25 2f 1c c1 98 60 be c0 01 c3 12 41
       -5.8200855 -9.76151 -5.949291 9.172608
0000d0 44 ad 29 c0 74 62 8f c0 e0 a3 be 40 9e bd ca c0
       -2.6512003 -4.480768 5.9575043 -6.3356466
0000e0 11 ab 4e bf 65 17 d8 40 8e ec 3b 41 41 dd ce 3e
       -0.80729777 6.752856 11.745253 0.40403178
0000f0 57 23 1f c1 21 b4 a4 c0 29 fb 7f c1 07 fb e9 40
       -9.946128 -5.1469884 -15.998818 7.311893
