model_wts/s0_d2_m1.0_b0.0.ckpt (torch, 206875 bytes, 11 tensors)

pi.logits_net.0.weight f4 [64, 282]
0	0x3cffdb30	0.031232446
1	0xbe3691fe	-0.17829129
2	0xbe690754	-0.22756702
3	0xbd1371e1	-0.035997275
4	0xbe32b002	-0.17449954
5	0xbe1b7570	-0.15181518
6	0xbc979042	-0.018501405
7	0x3cf4e730	0.029895395
8	0xbe3c40ac	-0.18384045
9	0xbec06f56	-0.37584943
10	0xbe5aa9d2	-0.21353844
11	0xbe634442	-0.22194007
12	0xbcce85ea	-0.02521034
13	0xbe5f39aa	-0.21799341
14	0xbe44f2ac	-0.19233197
15	0x3c245e90	0.010032311
16	0x3d622e6b	0.05522005
17	0xbe69927e	-0.22809789
18	0xbe448aca	-0.19193569
19	0x3bf59362	0.007494376
20	0x3d5a58d8	0.053307384
21	0x3d03993f	0.03212857
22	0xbe95abe4	-0.29232705
23	0xbdfc5bb4	-0.123221785
24	0xbe84359f	-0.2582216
25	0xbe306392	-0.17225483
26	0x3db2e2fa	0.087346986
27	0xbcb2b56c	-0.021815024
28	0xbd607fbb	-0.054809313
29	0x3c8801d3	0.016602432
30	0xbe4394ac	-0.19099683
31	0xbe02280f	-0.12710594
32	0xbe7ece6a	-0.24883428
33	0xbe47e1b2	-0.1951969
34	0xbc05fae8	-0.0081774965
35	0xbd95b14b	-0.073092066
36	0xbd555421	-0.052082185
37	0xbe026ccc	-0.12736815
38	0xbdfffb74	-0.12499133
39	0xbe19497c	-0.14969438
40	0xbe33a25e	-0.17542407
41	0xbe677f6b	-0.226072
42	0xbe2c8656	-0.1684812
43	0xbe6fc6a4	-0.23415619
44	0xbea56d79	-0.32310084
45	0xbe5646dc	-0.20925468
46	0xbde974a6	-0.11399202
47	0xbdeee57d	-0.11664865
48	0xbe634761	-0.22195198
49	0xbc9f7fcc	-0.019470118
50	0x3d9274c4	0.071511775
51	0x3dba1e84	0.09087852
52	0xbe3008da	-0.17190877
53	0xbe2e9a92	-0.17051151
54	0xbe2e654c	-0.17030829
55	0xbe3f1b5a	-0.18662778
56	0xbe4beaf4	-0.19913846
57	0xbc50c53a	-0.012742335
58	0xbe611a82	-0.21982768
59	0x3b2e9160	0.0026636943
60	0x3d774713	0.060370516
61	0xbe1e5170	-0.15460753
62	0xbd576dd1	-0.052594963
63	0xbe35d041	-0.17755224
64	0xbe35ce68	-0.17754519
65	0xbe3e89ae	-0.18607208
66	0xbe72d06a	-0.23712316
67	0xbe3a1b37	-0.18174444
68	0xbe71d986	-0.23618135
69	0x3db5fad0	0.08885729
70	0xbe8322cd	-0.25612488
71	0xbd2055ee	-0.03914445
72	0xbe1ee044	-0.15515238
73	0xbe6527e0	-0.22378492
74	0xbe132bee	-0.14372227
75	0x3d10461f	0.035223123
76	0xbe4b2526	-0.1983839
77	0xbd8d8621	-0.06910349
78	0x3c59fbd2	0.013304668
79	0xbe5cfd1c	-0.21580929
80	0xbe80884b	-0.25103983
81	0xbdca0bd9	-0.09865541
82	0x3ce50872	0.027958129
83	0xbcd4c8b2	-0.025974605
84	0xbe2b6d98	-0.16741025
85	0x3cb1545e	0.021646675
86	0xbe524503	-0.20534138
87	0x3ef15ea1	0.4714251
88	0x3e8d3095	0.27576128
89	0x3deaaa2c	0.11458239
90	0xbbd40a97	-0.006470989
91	0x3de2add6	0.11068313
92	0x3dbc3b21	0.091909654
93	0xbcf57242	-0.029961709
94	0xbde9c827	-0.11415129
95	0x3da1e0a3	0.07904174
96	0xbeb83b1d	-0.359826
97	0x3be5d1d5	0.0070135393
98	0xbedc5f00	-0.4304123
99	0x3e941538	0.2892244
100	0x3e59cb6b	0.21269004
101	0x3ec77490	0.38956118
102	0x3d50bd7c	0.050961956
103	0x3b99e06d	0.004695943
104	0xbc03d3e3	-0.008046123
105	0xbe99ffc2	-0.3007794
106	0xbe1e32bd	-0.15449043
107	0x3d5bc638	0.053655833
108	0xbe1f94a7	-0.1558405
109	0xbdca8cc8	-0.09890133
110	0xbef88f16	-0.48546666
111	0xbccf6a39	-0.025319206
112	0x3e570e6f	0.210016
113	0x3dbacdfc	0.0912132
114	0x3e97c655	0.29643503
115	0x3c970f15	0.018439809
116	0xbdeb90ed	-0.11502252
117	0x3e15f020	0.14642382
118	0x3e3f5b0d	0.18687077
119	0xbea9bcb5	-0.33151785
120	0xbf1e7eac	-0.61912036
121	0x3d105c53	0.035244297
122	0x3d9b123f	0.075718395
123	0x3d156cb8	0.036480635
124	0xbd535758	-0.05159697
125	0xbf16baed	-0.58878976
126	0xbd09dfe7	-0.033660796
127	0x3e91989e	0.2843675
128	0xbcc45209	-0.023964899
129	0xbd992feb	-0.07479843
130	0x3d07badc	0.033137187
131	0x3f0b943f	0.5452308
132	0xbe12aa28	-0.14322722
133	0x3df2a23b	0.11847349
134	0xbf25312f	-0.64528173
135	0x3e6b809d	0.22998281
136	0x3befa1a8	0.007312972
137	0x3ca25c1e	0.019819316
138	0xbd50339f	-0.05083048
139	0x3ec4deb8	0.3845117
140	0xbc094805	-0.008378987
141	0xbe07b3f1	-0.13252236
142	0xbd794c07	-0.06086352
143	0xbe77b010	-0.24188256
144	0x3ed568a8	0.4168141
145	0xbd54d9e6	-0.051965617
146	0x3db45867	0.08805924
147	0x3d96de6c	0.07366642
148	0x3da40c12	0.08010115
149	0xbd2188e9	-0.03943721
150	0xbe300ddb	-0.17192785
151	0xbe8d6f66	-0.27624053
152	0xbd972fd5	-0.0738217
153	0x3e6aa252	0.22913483
154	0xbdc9e4cb	-0.09858092
155	0xbeef8f62	-0.4678908
156	0x3ea26ed3	0.31725177
157	0xbf12cf2a	-0.5734736
158	0x3ce0fbe9	0.02746387
159	0x3e3431a8	0.17597067
160	0xbc79e14f	-0.015251472
161	0xbf0ff742	-0.5623666
162	0x3d217170	0.039414823
163	0xbda1f3dd	-0.07907841
164	0x3c078af3	0.008272874
165	0xbd84fe3e	-0.06493805
166	0x3df189fe	0.11793898
167	0xbdc3beb0	-0.09557855
168	0x3d9e1cbb	0.07720324
169	0x3b8c36aa	0.0042789774
170	0x3e4ea236	0.20179066
171	0x3e24db85	0.16099365
172	0x3e9fd093	0.31213817
173	0x3dfcdaed	0.12346444
174	0xbda1c5d2	-0.07899059
175	0x3ef3e378	0.47634482
176	0x3e9a87cb	0.30181727
177	0x3def3190	0.11679375
178	0xbecd36ba	-0.40080816
179	0x3d802475	0.062569536
180	0x3edd6a14	0.43244994
181	0xbdeaed3d	-0.11471031
182	0xbf082a68	-0.53189707
183	0xbed3c343	-0.4135991
184	0xbecc594d	-0.3991188
185	0xbf0ca8fa	-0.5494534
186	0x3e890a05	0.26765457
187	0xbf1a2d24	-0.6022513
188	0xbf54f67a	-0.83188593
189	0x3edacbac	0.42733514
190	0xbe4ea4a1	-0.20179988
191	0xbeb0463c	-0.34428585
192	0x3da23b7b	0.07921501
193	0x3ede6164	0.43433678
194	0xbe9c1889	-0.3048747
195	0xbf89861d	-1.0744053
196	0x3defda87	0.11711603
197	0x3ecc95a1	0.39957908
198	0xbee1fe2b	-0.44139227
199	0xbf09df04	-0.5385592
200	0xbd4541e6	-0.04815855
201	0xbe2e37bc	-0.17013448
202	0xbf5e3771	-0.86803347
203	0x3e392974	0.1808222
204	0x3f06b0cb	0.52613515
205	0x3dadd76e	0.084883556
206	0xbf6e5146	-0.93092763
207	0xbe9ff110	-0.31238604
208	0xbe317cf2	-0.17332819
209	0xbf45128c	-0.76981425
210	0xbe2dbcf2	-0.16966608
211	0x3f3ad70a	0.72984374
212	0x3e5bb24d	0.21454735
213	0xbf1e7b95	-0.6190732
214	0x3ed66051	0.4187036
215	0xbf18b5bd	-0.5965231
216	0xbdff82b4	-0.124761015
217	0x3e0c2c9b	0.1368889
218	0x3e215b96	0.15757594
219	0xbebb4a4e	-0.36580127
220	0x3ef2ae4e	0.4739861
221	0xbc93b59a	-0.01803093
222	0xbf283adc	-0.6571481
223	0xbec0467e	-0.3755378
224	0xbeedc028	-0.46435666
225	0x3eb565e6	0.35429305
226	0xbf8d1a45	-1.1023642
227	0xbe0b4112	-0.13599041
228	0x3f380a9b	0.7189118
229	0xbecb3270	-0.39686918
230	0xbdd15b9f	-0.102225535
231	0x3ebb2014	0.3654791
232	0x3e81f988	0.2538569
233	0x3efb00b8	0.49023986
234	0xbe77b502	-0.24190143
235	0xbd806f0f	-0.06271183
236	0xbd603ec1	-0.054747347
237	0xbeaf8308	-0.34279656
238	0xbf7a0b56	-0.9767355
239	0x3eead0b9	0.45862368
240	0x3eb55f49	0.3542426
241	0x3d987adf	0.07445311
242	0x3e916c44	0.28402913
243	0x3dd1d61e	0.10245918
244	0x3e7c03ef	0.24610876
245	0xbf4406f2	-0.765731
246	0x3f1fb4f7	0.62385505
247	0xbebf9a5b	-0.3742245
248	0x3f1ee37e	0.62065876
249	0xbd08c271	-0.03338856
250	0x3e87d732	0.26531368
251	0xbe892e66	-0.26793212
252	0xbe34f910	-0.17673135
253	0xbe584a4c	-0.21122092
254	0xbe78ab4e	-0.24284098
255	0x3c2c05cf	0.010499432

pi.logits_net.0.bias f4 [64]
0	0xbd3aa53b	-0.045567732
1	0x3e49ee17	0.1971973
2	0x3dab1f0c	0.08355531
3	0x3b9db51c	0.0048128497
4	0xbe493b37	-0.19651495
5	0x3da44668	0.080212414
6	0x3e65ec31	0.22453381
7	0xbe64a29f	-0.2232766
8	0xbdc0310f	-0.09384357
9	0x3d977cc3	0.07396843
10	0xbdc0301c	-0.09384176
11	0x3e87b2cf	0.26503608
12	0xbe3881db	-0.18018286
13	0xbdd61dd8	-0.10454911
14	0xbdb587c5	-0.088637866
15	0xbe544cb7	-0.2073239
16	0xbe44a1bf	-0.19202326
17	0xbe013f24	-0.12621742
18	0xbd3ef9a9	-0.046624813
19	0xbe21d8bb	-0.15805332
20	0xbd32bfd6	-0.04363998
21	0x3dacfdcb	0.08446845
22	0xbeb4d0cc	-0.3531555
23	0x3e003efd	0.12524028
24	0x3e6c2cdc	0.23063987
25	0x3e32299a	0.17398682
26	0x3e934e2a	0.28770572
27	0xbd850956	-0.06495921
28	0x3d11b745	0.03557517
29	0x3ea0f9bc	0.31440532
30	0x3ee77caa	0.452123
31	0xbd9877b0	-0.074447036
32	0x3e1c59bf	0.1526861
33	0xbe587419	-0.21138038
34	0xbd41b4fc	-0.04729174
35	0x3dbc3b9c	0.09191057
36	0xbdf293c3	-0.118445896
37	0x3da62431	0.08112372
38	0x3d107f9c	0.035277948
39	0xbe4b18da	-0.19833699
40	0x3dfc46b6	0.123181745
41	0xbd80a777	-0.062819414
42	0x3dd1ae05	0.1023827
43	0x3e09ea7d	0.13468356
44	0xbd826eba	-0.06368776
45	0x3e726e5a	0.23674908
46	0xbe89dbd2	-0.26925522
47	0x3e9f0fab	0.3106664
48	0xbe3a4839	-0.18191613
49	0xbd9c1023	-0.07620265
50	0x3e2c72a9	0.16840614
51	0xbd8eaaa2	-0.069661394
52	0xbdd306de	-0.10304044
53	0xbe20787a	-0.15670958
54	0x3e08df99	0.13366546
55	0xbe20719d	-0.1566834
56	0x3dd65edd	0.104673125
57	0x3deb2cfa	0.11483188
58	0x3d48ffbd	0.049072016
59	0xbe8d0efe	-0.275505
60	0xbd60dcd8	-0.054898113
61	0xbd309a2d	-0.043115783
62	0xbb40eb96	-0.0029437295
63	0x3c1fa20d	0.009743226

pi.logits_net.2.weight f4 [64, 64]
0	0x3e15b0c9	0.1461822
1	0x3e016cb2	0.1263912
2	0x3f4904f2	0.7852317
3	0xbe8d3ef6	-0.27587098
4	0xbe9dc3fa	-0.3081358
5	0x3f72fa45	0.9491313
6	0x3e82994f	0.2550759
7	0xbecea1ee	-0.40357918
8	0x3ee3098d	0.44343224
9	0xbd1d98ee	-0.038475923
10	0x3eed2d69	0.46323708
11	0x3ef82382	0.4846459
12	0x3f1a6302	0.60307324
13	0x3e97e4e3	0.29666814
14	0xbd60e96a	-0.0549101
15	0xbd82b303	-0.063818
16	0x3eb41687	0.35173437
17	0xbe159cd6	-0.1461061
18	0xbeb68135	-0.35645452
19	0xbf094cbe	-0.53632724
20	0xbf399262	-0.7248899
21	0x3dc36389	0.09540469
22	0xbf7ffb1c	-0.9999254
23	0x3f050834	0.5196564
24	0x3ea2baf1	0.3178325
25	0xbecd30db	-0.40076336
26	0x3b9d5ca9	0.0048023057
27	0xbe6db399	-0.23213042
28	0x3e958255	0.29200998
29	0x3f121013	0.5705578
30	0xbe6f60c5	-0.23376758
31	0xbe2e7c83	-0.17039685
32	0xbe610449	-0.21974291
33	0xbf8f178b	-1.117906
34	0x3ca7fe6c	0.02050706
35	0x3e504c24	0.20341545
36	0x3dccc7b2	0.09999026
37	0x3e3a5e9d	0.18200155
38	0xbed42ef5	-0.41442075
39	0x3e91a36b	0.2844499
40	0xbf1839f7	-0.5946345
41	0x3cbc7a80	0.023007631
42	0x3e959ed8	0.2922275
43	0x3f201e66	0.62546384
44	0xbec9df22	-0.3942805
45	0x3f44631c	0.7671373
46	0xbd921865	-0.07133559
47	0x3eb5d62a	0.35514957
48	0x3dda4fbb	0.10659739
49	0x3e75ea42	0.24015144
50	0xbdeb8d7e	-0.11501597
51	0xbee474b3	-0.44620284
52	0xbea45358	-0.32094836
53	0x3c6079af	0.013700887
54	0x3f03edc9	0.51534706
55	0x3c812064	0.015762515
56	0xbdc1ebf7	-0.09468835
57	0x3f0deae9	0.5543657
58	0x3e561009	0.20904554
59	0x3ebf1d4d	0.37327042
60	0x3ebe2a60	0.37141705
61	0x3e86c9c2	0.26325804
62	0xbd98a61d	-0.074535586
63	0x3ddbbe7f	0.107296936
64	0x3f1171c2	0.56814206
65	0xbc050293	-0.0081182895
66	0xbd54a781	-0.051917557
67	0x3f0065ba	0.5015522
68	0x3d50a2c4	0.050936475
69	0xbefe16f8	-0.496269
70	0xbe37eac8	-0.17960656
71	0xbe99fe24	-0.30076706
72	0x3edc0dc2	0.42979246
73	0xbe322b85	-0.17399414
74	0xbec8cb73	-0.3921772
75	0xbe1a6807	-0.15078746
76	0xbe206cab	-0.15666454
77	0xbcad7a02	-0.021176342
78	0x3d1662f8	0.036715478
79	0xbd5ece4f	-0.05439597
80	0xbf5455c2	-0.82943356
81	0xbd3a8547	-0.04553726
82	0x3ece2500	0.40262604
83	0xbe9645a8	-0.29350019
84	0x3e77cfd8	0.2420038
85	0xbf366a9b	-0.7125642
86	0x3f0ca468	0.54938364
87	0xbf037e3e	-0.51364505
88	0x3f4267f2	0.7593986
89	0x3f453af5	0.77043086
90	0xbd9aa4cf	-0.07550966
91	0xbe66881b	-0.22512858
92	0xbf8abdab	-1.0839132
93	0x3f1b9827	0.6077904
94	0x3de047e2	0.109512106
95	0xbea5ddc7	-0.32395765
96	0x3f1e3e3d	0.6181372
97	0x3f820eeb	1.0160803
98	0x3dfe99cb	0.124316774
99	0xbda9ff05	-0.08300594
100	0xbe1eb870	-0.15500045
101	0x3ec4488c	0.383366
102	0x3de57846	0.11204581
103	0xbd227c52	-0.039669342
104	0x3e781d38	0.24229896
105	0xbf34461a	-0.70419466
106	0x3f531528	0.82454157
107	0xbf2d7494	-0.6775601
108	0xbf02f1cf	-0.5115022
109	0xbe9fc7bf	-0.31207082
110	0xbd830d03	-0.06398966
111	0x3e4385e3	0.19094042
112	0x3d9daae0	0.076986074
113	0xbf20c8e3	-0.6280653
114	0xbd14f75c	-0.036368713
115	0x3c2bd243	0.010487142
116	0x3ed3cb4e	0.41366047
117	0x3e12df5a	0.14343014
118	0x3c8ec09c	0.017425828
119	0xbebd3bfe	-0.36959833
120	0xbd1eb98a	-0.038751163
121	0x3e32a071	0.17444016
122	0x3e97dc1b	0.29660115
123	0xbe1b2bf1	-0.15153481
124	0xbef17507	-0.47159597
125	0xbe6d1b9e	-0.23155066
126	0x3de67420	0.11252618
127	0x3d95f6b4	0.073224455
128	0xbd066207	-0.03280833
129	0xbd50bf03	-0.050963413
130	0xbe668be5	-0.22514303
131	0xbc6ae629	-0.014337101
132	0x3de98210	0.114017606
133	0x3f1315c6	0.574551
134	0x3f4f4273	0.8096077
135	0xbf02e8b3	-0.5113632
136	0xbe92a8c1	-0.28644374
137	0xbcdf7246	-0.02727617
138	0xbd795685	-0.060873527
139	0xbd928b35	-0.07155458
140	0xbc8a546b	-0.016885957
141	0x3dc3ff47	0.09570175
142	0x3d6627a6	0.056190155
143	0x3d967ee9	0.07348425
144	0xbe0326c0	-0.1280775
145	0x3e393b33	0.18088989
146	0xbef82efa	-0.4847334
147	0x3ea73d94	0.32664168
148	0xbf7d9b57	-0.99065155
149	0x3ed94f05	0.424431
150	0xbc920ae5	-0.01782746
151	0x3e837493	0.25674877
152	0xbee9690a	-0.4558795
153	0x3ea97271	0.33095124
154	0x3f062230	0.52395916
155	0x3ea046c3	0.31303987
156	0x3ee363de	0.4441213
157	0x3eeb8f41	0.46007732
158	0x3e2c0ee3	0.16802554
159	0xbe6cd3d9	-0.23127688
160	0xbeab67c5	-0.33477607
161	0x3f078793	0.52941245
162	0x3e9d7448	0.30752778
163	0xbeb97b8c	-0.3622707
164	0x3f67614b	0.9038283
165	0x3e751c4b	0.23936574
166	0x3f5944db	0.8487069
167	0x3e96512e	0.2935881
168	0xbf479943	-0.77968234
169	0x3e341ab3	0.1758831
170	0x3bcbdef0	0.0062216446
171	0x3e863db0	0.2621894
172	0x3f0f1d2c	0.5590389
173	0xbee3d389	-0.44497326
174	0xbdb5e31e	-0.0888121
175	0x3f6b4e91	0.9191676
176	0x3e982915	0.29718843
177	0x3db5a395	0.088690914
178	0xbf1a6a25	-0.60318214
179	0xbdaad5b1	-0.0834154
180	0x3e42df49	0.19030489
181	0x3ce2f745	0.027705798
182	0x3ec5343d	0.38516417
183	0x3d95f14a	0.07321413
184	0x3ed0f275	0.4080998
185	0xbee1857c	-0.44047153
186	0x3de3d1d7	0.11124008
187	0x3ef1efb0	0.4725318
188	0xbe9269dd	-0.28596392
189	0x3e687b48	0.22703278
190	0x3e8a32e6	0.26991957
191	0xbf65fd87	-0.8983998
192	0xbe982df7	-0.29722568
193	0x3dd9e166	0.106386945
194	0x3eb84d1b	0.35996327
195	0xbea4b869	-0.32171944
196	0x3d2adf83	0.041717064
197	0xbe193d6c	-0.14964837
198	0x3da76afe	0.08174704
199	0xbf2f8df1	-0.6857596
200	0x3f4dee74	0.80441976
201	0x3ef31468	0.47476506
202	0x3e6c1746	0.23055753
203	0x3d4564d0	0.048191845
204	0xbea0e08b	-0.31421313
205	0xbe991f7f	-0.29906842
206	0x3d5189ef	0.051156934
207	0x3e5e6531	0.21718289
208	0xbece2a1b	-0.402665
209	0xbc2234d6	-0.009900292
210	0xbdcb623e	-0.099308476
211	0xbf0c7de1	-0.54879576
212	0xbed65ff2	-0.41870075
213	0xbe779eb8	-0.2418164
214	0xbec3fafc	-0.38277423
215	0x3e98a3aa	0.29812366
216	0x3efac85d	0.4898099
217	0x3e406eaf	0.18792222
218	0x3ebe293c	0.37140834
219	0xbf469360	-0.77568626
220	0x3cef86ab	0.02923902
221	0x3f18bc43	0.59662265
222	0xbf216b0a	-0.63053954
223	0xbf7b084c	-0.98059535
224	0xbe292da3	-0.16521315
225	0x3de5dec0	0.11224127
226	0x3cc492b2	0.023995731
227	0xbda77259	-0.08176107
228	0xbe6abf0a	-0.22924438
229	0x3ef769ea	0.48322994
230	0xbf943cc9	-1.158105
231	0xbd65f3a7	-0.056140568
232	0x3eb5fa6e	0.35542625
233	0xbe92500f	-0.28576705
234	0x3f253f4e	0.6454972
235	0xbdd4ea79	-0.103962846
236	0xbe91c2e2	-0.28468996
237	0x3e7132ba	0.23554507
238	0xbf20a049	-0.62744576
239	0xbdbe07f4	-0.09278861
240	0x3d7fe1bd	0.06247114
241	0xbf35a7c3	-0.7095911
242	0x3e510259	0.20411052
243	0x3af05719	0.0018336504
244	0xbdb35968	-0.08757287
245	0xbe58f350	-0.21186566
246	0x3f13208f	0.57471555
247	0xbec09848	-0.3761618
248	0x3eb70797	0.35747978
249	0x3eaff265	0.3436462
250	0x3e6def85	0.232359
251	0xbec70473	-0.38870582
252	0x3ed3e863	0.41388234
253	0xbe6a5087	-0.22882281
254	0x3e49cedc	0.19707817
255	0x3f25bb6d	0.64739114

pi.logits_net.2.bias f4 [64]
0	0x3e5d0809	0.21585096
1	0x3dda6574	0.10663882
2	0x3d711158	0.05885443
3	0x3e892848	0.26788545
4	0x3d951eb1	0.072812445
5	0x3ebaf885	0.3651773
6	0xbe8ca605	-0.27470413
7	0xbd589fb5	-0.052886683
8	0xbef62887	-0.48077795
9	0xbe1c7d35	-0.15282138
10	0x3e8c7f14	0.27440703
11	0xbcb25d5e	-0.021773037
12	0x3e2e4571	0.17018677
13	0xbdc384d0	-0.09546816
14	0x3ef86b71	0.4851947
15	0x3ec5201c	0.3850106
16	0x3d35cc3b	0.044384222
17	0x3e012822	0.12612966
18	0x3e4325d4	0.19057399
19	0x3e57fd6f	0.21092771
20	0x3f1ddf7c	0.61669135
21	0x3e8f7d0b	0.28025088
22	0xbdf0342b	-0.117287
23	0x3dfda9c6	0.12385897
24	0x3d9a6eb0	0.07540643
25	0xbc870d15	-0.01648573
26	0xbdfef24b	-0.124485575
27	0x3c4447fe	0.011980055
28	0x3e23d912	0.16000775
29	0xbf137b85	-0.5761035
30	0x3e617194	0.22015983
31	0xbe5ee391	-0.21766497
32	0xbcdf30d0	-0.027244955
33	0xbd7db09b	-0.061936002
34	0xbe94dfa8	-0.29076886
35	0x3c1a6ab8	0.009424858
36	0xbf18f0bf	-0.5974235
37	0xbdeb7f71	-0.11498917
38	0x3d7b9e99	0.061430547
39	0x3f058910	0.52162266
40	0xbe865277	-0.2623479
41	0x3e614877	0.220003
42	0xbd358ef1	-0.044325773
43	0x3d14d5ec	0.036336824
44	0x3e8ab9e5	0.2709495
45	0x3ed09f15	0.4074637
46	0xbe8202ef	-0.25392863
47	0x3e716480	0.23573494
48	0x3eb52cf6	0.35385865
49	0xbdef1809	-0.11674506
50	0x3e835045	0.25647178
51	0xbd609d45	-0.054837484
52	0x3ee3c6f8	0.4448774
53	0x3f05ae33	0.5221893
54	0xbe99c17c	-0.3003043
55	0x3d2f7d85	0.042844314
56	0xbd9b048c	-0.075692266
57	0xbe19894c	-0.14993781
58	0xbe8cc29c	-0.27492225
59	0xbeb424b9	-0.35184267
60	0xbead1ac5	-0.33809486
61	0xbd856451	-0.065132745
62	0x3e84ce5b	0.25938687
63	0x3ded148a	0.11576183

pi.logits_net.4.weight f4 [87, 64]
0	0xbf80fad2	-1.0076544
1	0x3e68cb06	0.22733697
2	0xbe704f42	-0.23467734
3	0xbedf173e	-0.4357242
4	0x3fa6580d	1.2995621
5	0x3f5623f0	0.83648586
6	0x3dce9530	0.10087049
7	0x3e07c9c3	0.1326056
8	0xbf08f3ea	-0.53497183
9	0x3c9d77b5	0.01922212
10	0x3dcfc7c6	0.10145526
11	0xbe91d8fc	-0.28485858
12	0x3f73295a	0.9498497
13	0xbfd1e3f4	-1.6397691
14	0x3f0945c4	0.5362208
15	0x3d6b9876	0.057518445
16	0xbf5de41b	-0.86676186
17	0x3d339315	0.04384144
18	0xbc54203b	-0.0129471375
19	0x3e80a456	0.25125378
20	0x3f5840d8	0.84473944
21	0x3f1aae2f	0.60422033
22	0xbf02bccc	-0.5106933
23	0x3f14831d	0.58012563
24	0x3e892cd2	0.26792008
25	0xbe83070b	-0.2559131
26	0xbdabcb8d	-0.083884336
27	0xbf812c96	-1.0091732
28	0x3e935199	0.28773192
29	0xbf0a40e3	-0.5400526
30	0x3e2b982a	0.16757265
31	0x3e290fe7	0.16509973
32	0x3f443df9	0.7665706
33	0xbe393f43	-0.18090539
34	0xbf03e863	-0.5152647
35	0x3faef9ae	1.3669946
36	0xbf3cf26f	-0.73807424
37	0x3e9e9cc7	0.30978987
38	0x3db4f5c5	0.08835939
39	0x3f379c46	0.7172283
40	0xbfb55112	-1.4165366
41	0xbe08bb23	-0.13352637
42	0x3f0ad7ba	0.5423542
43	0xbdadfa69	-0.084950276
44	0x3ea4887f	0.32135388
45	0x3ef455e5	0.47721782
46	0xbef8b13f	-0.48572728
47	0xbdc4417c	-0.09582803
48	0x3d960adb	0.07326289
49	0xbeafbd8b	-0.34324297
50	0xbe9aebb4	-0.30257952
51	0xbec5acca	-0.3860839
52	0x3e8ecc2b	0.27890143
53	0x3f2aad3e	0.66670597
54	0xbe024940	-0.12723255
55	0x3e55be82	0.20873454
56	0xbd88c35e	-0.06677888
57	0xbf909c33	-1.1297668
58	0xbf8aee5d	-1.0853993
59	0xbf2b0c5b	-0.6681573
60	0xbf29760e	-0.6619576
61	0xbf6de9f1	-0.9293509
62	0x3ee6afc8	0.45055985
63	0xbea88e1e	-0.32920927
64	0x3f8a46bc	1.0802836
65	0x3fc947d2	1.5725043
66	0xbe041d09	-0.12901701
67	0x3d8bf13a	0.0683312
68	0xbe07bfef	-0.1325681
69	0x3e3758d5	0.1790498
70	0xbf4cbfa0	-0.79979897
71	0xbeeec2a0	-0.46632862
72	0xbea0ec29	-0.31430176
73	0xbef8c113	-0.48584804
74	0xbf7c6538	-0.9859195
75	0x3ed4c1b7	0.41554043
76	0xbe8de477	-0.27713367
77	0x3ed16218	0.40895152
78	0xbf131408	-0.5745244
79	0x3f5baed9	0.8581367
80	0x3e85411a	0.2602623
81	0x3e5d6116	0.21619067
82	0xbeee99f6	-0.46601838
83	0x3ea9699b	0.33088383
84	0xbd3d6678	-0.0462403
85	0x3ea31347	0.31850645
86	0xbe39e818	-0.18154943
87	0x3f44c01e	0.7685565
88	0x3f0d9ec8	0.55320406
89	0xbf8018d2	-1.0007575
90	0x3dfe7b36	0.12425844
91	0x3c4db2ff	0.012554883
92	0x3f2d7516	0.67756784
93	0x3ece725b	0.4032162
94	0x3ed66d0c	0.4188007
95	0xbe988c89	-0.2979472
96	0x3f00f6e1	0.5037671
97	0xbf604670	-0.8760748
98	0x3cf9ca27	0.030491902
99	0x3f1c9468	0.6116395
100	0xbe3c11cc	-0.18366164
101	0xbf13a192	-0.5766841
102	0x3ea1d778	0.31609702
103	0x3f224f62	0.6340238
104	0x3cdd8aee	0.027043786
105	0xbee4fd1d	-0.4472436
106	0x3ebb0ec1	0.36534694
107	0xbf7cd2d7	-0.98759216
108	0xba2c2d44	-0.00065680244
109	0x3e643b0d	0.22288151
110	0xbf762e3e	-0.9616431
111	0x3efe9034	0.49719393
112	0x3e446770	0.19180083
113	0x3d314f0e	0.043288283
114	0x3f08d8d4	0.53455853
115	0xbf36109f	-0.7111911
116	0x3e9060c0	0.28198814
117	0x3e66c5dd	0.22536416
118	0xbf5f90a2	-0.8733007
119	0xbef99f72	-0.4875446
120	0x3f31f090	0.69507694
121	0x3f87c7c1	1.0607835
122	0x3ee0fa3c	0.43940914
123	0xbf65d8d9	-0.8978401
124	0xbebbf7ee	-0.36712593
125	0xbf4bc650	-0.79599476
126	0x3ef86a63	0.48518667
127	0xbeeeafd4	-0.4661852
128	0x3f06aaa7	0.52604145
129	0xbf346cca	-0.704785
130	0x3d72e26a	0.059297957
131	0x3c399f88	0.011329539
132	0x3f8746a4	1.0568433
133	0x3d497319	0.04918203
134	0xbe6c1b21	-0.23057224
135	0x3e672bbd	0.22575279
136	0xbe18b2e8	-0.14911997
137	0x3eee3b3a	0.4652956
138	0x3f8571e0	1.0425377
139	0x3e75370e	0.23946783
140	0xbf199768	-0.5999665
141	0x3f1700b2	0.58985436
142	0x3f27ea93	0.65592307
143	0x3eb6667f	0.35625073
144	0x3f50dd72	0.815879
145	0x3eeb808c	0.4599651
146	0x3ed54ebe	0.41661638
147	0x3dfb0ce8	0.12258321
148	0x3d4129f2	0.047159143
149	0x3f02cba1	0.51091963
150	0x3e22cecc	0.15899199
151	0x3ebcfedd	0.36913195
152	0xbea2e378	-0.3181417
153	0x3ec4dc28	0.38449216
154	0x3ef4b28b	0.47792467
155	0xbf112624	-0.5669882
156	0xbbcf638b	-0.006329005
157	0xbf2d1f5a	-0.67625964
158	0x3e7d9b6e	0.24766323
159	0xbd2dd7e0	-0.042442203
160	0xbf100d8f	-0.5627069
161	0xbe845282	-0.25844198
162	0xbef4dd2f	-0.47825
163	0xbf29884f	-0.66223615
164	0xbeec0dae	-0.46104187
165	0xbeaae697	-0.3337905
166	0x3ed8ab80	0.42318344
167	0x3f15b430	0.5847807
168	0xbed1f50d	-0.4100727
169	0x3eae6cb0	0.34067297
170	0xbed58278	-0.41701102
171	0x3f3bb251	0.73318964
172	0x3f037c07	0.51361126
173	0x3ec8d39b	0.39223942
174	0xbe68461a	-0.22682992
175	0xbe976e57	-0.2957637
176	0x3eae3cc9	0.3403075
177	0xbdc3fed5	-0.0957009
178	0x3d195f02	0.037444122
179	0xbeb7d78d	-0.3590664
180	0x3e2d0305	0.16895683
181	0x3e5952fa	0.2122306
182	0x3d66522c	0.05623071
183	0x3dcf0362	0.10108067
184	0x3efd7661	0.49504378
185	0xbedaffd7	-0.42773315
186	0x3e86e560	0.26346874
187	0x3be66545	0.0070311152
188	0xbe4490fa	-0.19195929
189	0xbe4a13b1	-0.19734074
190	0xbf10407c	-0.56348395
191	0x3c44e1e4	0.012016747
192	0x3f74593c	0.9544866
193	0xbefa1a2f	-0.48848101
194	0xbef8c209	-0.48585537
195	0x3ef52a6e	0.47883934
196	0xbf2b962d	-0.67026025
197	0x3ead1b39	0.33809832
198	0xbf443def	-0.76657003
199	0x3d00ce80	0.031446934
200	0xbec12559	-0.37723807
201	0xbee12ab8	-0.43977904
202	0x3f629ce2	0.88520634
203	0x3e9548d3	0.29157123
204	0xbf207be6	-0.62689054
205	0x3fcf4a51	1.6194555
206	0x3f0487ac	0.5176952
207	0x3f0aac31	0.54168993
208	0x3f976fc8	1.1830988
209	0x3e9d0c9a	0.30673677
210	0x3cb5670d	0.022143865
211	0x3ee2874d	0.4424385
212	0x3f076a6a	0.5289675
213	0x3e4cfeea	0.20019117
214	0xbf11a9f4	-0.5689995
215	0xbd33353d	-0.043751944
216	0xbf837edd	-1.0273091
217	0xbe0bff94	-0.13671714
218	0x3f633968	0.8875947
219	0x3e30e71e	0.17275664
220	0x3f3bb84f	0.7332811
221	0xbf01e128	-0.50734186
222	0x3f021a1d	0.50821096
223	0xbf4202b2	-0.7578536
224	0xbf03f1f3	-0.5154106
225	0xbd08c209	-0.03338817
226	0xbf17e202	-0.59329236
227	0xbe954720	-0.29155827
228	0xbf057303	-0.5212862
229	0xbc874aa3	-0.016515082
230	0x3efd80bb	0.49512276
231	0x3ed2d7fc	0.41180408
232	0xbefb4f1a	-0.49083787
233	0x3f67e388	0.9058156
234	0xbea27093	-0.31726512
235	0xbe84280e	-0.2581181
236	0x3f14fe19	0.5820022
237	0x3e067f6c	0.13134545
238	0x3ed670e6	0.4188301
239	0x3f3648b1	0.7120467
240	0x3eecdcfb	0.46262345
241	0x3eaf1557	0.34195969
242	0xbf07e08c	-0.53077006
243	0x3e9d722f	0.30751178
244	0x3ef92432	0.48660427
245	0x3f21a5e2	0.6314374
246	0x3d43cd4c	0.04780321
247	0xbf889fcb	-1.0673765
248	0x3f60116e	0.87526596
249	0x3d07b94d	0.0331357
250	0x3e4ebb94	0.20188743
251	0x3dff127e	0.12454699
252	0xbec90778	-0.3926351
253	0x3ee87e2e	0.45408767
254	0x3f6e7229	0.93142945
255	0xbed8c6e8	-0.42339253

pi.logits_net.4.bias f4 [87]
0	0x3f116cbf	0.5680656
1	0x3e5d1f68	0.21594012
2	0x3eea46a2	0.45757014
3	0x3edb32c7	0.42812178
4	0x3efe42aa	0.49660236
5	0x3e8155c2	0.2526074
6	0x3f13594a	0.5755812
7	0x3efe6075	0.49682966
8	0x3ee3f86e	0.44525474
9	0x3e89898f	0.2686276
10	0x3d9541fc	0.07287976
11	0x3f18a343	0.5962412
12	0x3f32edd6	0.6989416
13	0x3ec1c1cc	0.37843168
14	0x3e937b57	0.28805038
15	0x3ed553f7	0.41665623
16	0x3e4dcd8d	0.20097943
17	0x3ebd97dc	0.37029922
18	0x3eefd0c1	0.46838954
19	0x3e3ae721	0.18252231
20	0x3ee2619e	0.442151
21	0x3ec42143	0.38306627
22	0x3ea57dbf	0.323225
23	0x3f0531c8	0.52029085
24	0x3eb53972	0.3539539
25	0x3f212939	0.62953526
26	0x3ed298b2	0.41132122
27	0x3f0840e3	0.5322401
28	0x3e82c27c	0.25539005
29	0x3ea2b660	0.31779766
30	0x3ec926ac	0.39287317
31	0x3e8399cb	0.25703272
32	0x3eac836a	0.3369401
33	0x3f1692d1	0.58817774
34	0x3ee01341	0.4376469
35	0x3edb20b7	0.42798397
36	0x3e7b8bb5	0.24565013
37	0x3f0f9bdf	0.56097215
38	0x3ea2671f	0.317193
39	0x3edfbf93	0.43700847
40	0x3f0c924a	0.5491072
41	0x3eaa424b	0.33253703
42	0x3ecc27e6	0.3987419
43	0x3eac8fc7	0.33703443
44	0x3ecfbf96	0.40575856
45	0x3f283ef3	0.6572105
46	0x3ee2c1cd	0.44288483
47	0x3e8946de	0.2681188
48	0x3eeb32e2	0.45937258
49	0x3f1942c4	0.598675
50	0x3f0af852	0.54285157
51	0x3f4cdc0a	0.8002325
52	0x3e880015	0.26562563
53	0x3e50ba83	0.20383649
54	0x3ee13403	0.43984994
55	0x3ed75dab	0.4206365
56	0x3f1ec626	0.620211
57	0x3f0090db	0.5022103
58	0x3f15e8b5	0.5855821
59	0x3ea4d1d6	0.32191342
60	0x3ef8e156	0.48609418
61	0x3f11df77	0.56981605
62	0x3f037893	0.51355857
63	0x3ed977b7	0.42474148
64	0x3ea01c7c	0.31271732
65	0x3ddae42c	0.106880516
66	0x3ea84c87	0.32870886
67	0x3edac154	0.42725623
68	0x3cf24ed1	0.029578598
69	0x3e904bc7	0.28182814
70	0x3e79b47c	0.24385256
71	0x3e5d81a8	0.21631491
72	0x3ea68839	0.32525805
73	0x3efb4f5a	0.49083978
74	0x3e9f8083	0.31152734
75	0x3e443d29	0.19163956
76	0x3e37fc11	0.1796725
77	0x3eaed77e	0.34148782
78	0x3f25da02	0.6478578
79	0x3eca393c	0.3949679
80	0x3ec9ad42	0.39389998
81	0x3ea11aa8	0.3146565
82	0x3e2b5ee4	0.16735417
83	0x3ec1c651	0.37846616
84	0x3eafaf2b	0.3431333
85	0x3f244291	0.6416407
86	0x3f11ab6a	0.5690218

v.v_net.0.weight f4 [64, 282]
0	0xbf3a1cbb	-0.7270009
1	0x3c8314f2	0.016001198
2	0xbd56d218	-0.052446455
3	0xbed78720	-0.4209528
4	0xbeb8061a	-0.35942155
5	0xbe6f6956	-0.23380026
6	0x3f1403be	0.5781821
7	0x3f1a0acf	0.6017274
8	0xbcfb96e5	-0.0307116
9	0x3e819622	0.25309855
10	0x3d0190d5	0.031632263
11	0xbd3b96c3	-0.045798074
12	0xbf3788cf	-0.7169313
13	0xbd21aaef	-0.039469656
14	0xbe90d8ea	-0.28290492
15	0xbef32218	-0.4748695
16	0xbf25641f	-0.646059
17	0x3ba41425	0.005007284
18	0xbebf5578	-0.37369895
19	0xbf1867cc	-0.5953338
20	0xbf422797	-0.7584166
21	0x3f12a223	0.5727865
22	0x3e68be81	0.22728921
23	0xbe838d66	-0.25693816
24	0x3e2d841c	0.16944927
25	0xbd8a579e	-0.06754993
26	0xbf1e8e49	-0.6193586
27	0xbf1134ce	-0.567212
28	0x3f0904a8	0.5352273
29	0xbf3f7b13	-0.7479717
30	0xbe6c248d	-0.23060818
31	0xbe0b9a29	-0.13633026
32	0x3b24cf82	0.0025148098
33	0xbe5162af	-0.20447801
34	0xbf26cbef	-0.6515493
35	0x3f01ce9b	0.5070588
36	0x3f15c3ec	0.5850208
37	0xbccf991c	-0.025341563
38	0xbeaf3786	-0.3422205
39	0xbde6d4d6	-0.11271064
40	0xbdf47d6f	-0.11937987
41	0x3c3d6b30	0.0115612
42	0xbd43eacc	-0.04783134
43	0xbd20df2e	-0.03927534
44	0x3e9037e2	0.28167635
45	0xbd6d17a7	-0.057883885
46	0xbeb552be	-0.3541469
47	0xbeb6037a	-0.35549527
48	0xbcd9c67d	-0.026583904
49	0x3f13c4c0	0.5772209
50	0xbf1565d7	-0.5835852
51	0xbf2f39f9	-0.68447834
52	0x3cd1368d	0.025538707
53	0xbcd4961f	-0.02595049
54	0xbc69e344	-0.014275376
55	0xbea23832	-0.316835
56	0xbbdd9aa4	-0.0067628194
57	0xbf161034	-0.58618474
58	0xbd92cc68	-0.07167894
59	0xbf0f0203	-0.55862445
60	0xbf20fd3f	-0.6288642
61	0xbda17a64	-0.07884672
62	0x3f160477	0.5860056
63	0xbda3a7db	-0.07991
64	0x3c9e0de7	0.019293739
65	0xbd47c823	-0.04877485
66	0x3e1d3082	0.15350536
67	0xbc34b0ef	-0.011028512
68	0x3e43c268	0.19117129
69	0xbf2963c1	-0.6616784
70	0x3d1e5067	0.038650896
71	0x3f03ad11	0.51435953
72	0xbdfd8729	-0.123792954
73	0x3df1a696	0.11799352
74	0x3d11d391	0.035602156
75	0x3f1a26b1	0.6021529
76	0xbd7090fb	-0.058732014
77	0x3f19ce89	0.6008077
78	0xbed940ba	-0.42432195
79	0xbd93e178	-0.07220739
80	0xbd3fdd27	-0.046841767
81	0xbed98e8f	-0.42491576
82	0x3f03de0f	0.5151071
83	0xbf0be894	-0.5465176
84	0xbe0d2957	-0.13785301
85	0xbf36a5bf	-0.7134666
86	0xbca22eee	-0.019797768
87	0x3fcb071c	1.5861545
88	0x3f9b7ba1	1.2147104
89	0x3f91f023	1.1401409
90	0x3f03f890	0.5155115
91	0x3fb9d103	1.451691
92	0x3f778e8f	0.967019
93	0x3f3e425c	0.74320006
94	0x3f267297	0.650186
95	0xbf35dff5	-0.71044856
96	0x3ef5d214	0.4801184
97	0xbf5eb6e2	-0.8699781
98	0x3f522242	0.82083523
99	0x408c6f2b	4.3885703
100	0xbfd2ab59	-1.6458541
101	0x3e852c93	0.2601057
102	0xbe52f716	-0.20602068
103	0x3e6b60d9	0.22986163
104	0xbf920d67	-1.141034
105	0x3e8dcac1	0.2769375
106	0xbc8fd014	-0.017555274
107	0x402baa0a	2.6822534
108	0x3e5ef7aa	0.21774164
109	0x3eecaa07	0.4622347
110	0x3eb5d1fe	0.35511774
111	0x3f428cde	0.75996196
112	0x3f922df0	1.1420269
113	0xbfe14882	-1.7600253
114	0xc043497b	-3.05136
115	0xbe467cb3	-0.19383506
116	0xbe84da27	-0.25947687
117	0x3ef9d892	0.48798043
118	0xbfb4fec3	-1.4140247
119	0x3feb4d8e	1.8383043
120	0x3eab4ddc	0.3345784
121	0xbfb71f42	-1.4306414
122	0x3d1225ca	0.03568057
123	0x3e932244	0.2873708
124	0x3fbc511e	1.4712255
125	0x3d262d65	0.040570635
126	0x3f945222	1.1587565
127	0x3e8117be	0.25213426
128	0xbf756108	-0.9585118
129	0x3f84357f	1.0328826
130	0xc00a92c6	-2.1652083
131	0x3f1a438b	0.6025931
132	0x3cca65e9	0.024706798
133	0x40196e9c	2.397376
134	0xbdf92075	-0.12164394
135	0xbdba844b	-0.09107264
136	0x3e652f75	0.22381385
137	0x400177c6	2.0229354
138	0x3f94210c	1.1572585
139	0x3d439a77	0.04775473
140	0xbe9665df	-0.29374596
141	0xbf3a897e	-0.72866046
142	0x400bea75	2.1861851
143	0x3f9bb8b4	1.2165742
144	0xbdcf97a6	-0.101363465
145	0x3f42daf0	0.7611532
146	0xbf7d8481	-0.9903031
147	0xc049eec4	-3.155198
148	0x3fec1196	1.8442867
149	0xbe99c328	-0.30031705
150	0x3ffda5b5	1.9816195
151	0xbe2e7498	-0.17036664
152	0xbfa023d2	-1.2510931
153	0xbee0e68c	-0.43925893
154	0x3f71a0cc	0.9438598
155	0x3f7a0581	0.9766465
156	0xbdd71f75	-0.10504047
157	0xbe28d029	-0.16485657
158	0xbf21a9b6	-0.63149583
159	0x3f0b33b0	0.54375744
160	0xbf045fd4	-0.5170872
161	0x3d031eea	0.032011904
162	0xbf4f139a	-0.80889285
163	0x3f3f33a0	0.7468815
164	0x3f780816	0.9688734
165	0x3f84c207	1.0371712
166	0xbf5de9f9	-0.8668514
167	0xbf0e74dd	-0.5564707
168	0x3fce795d	1.6130787
169	0xbfba9b43	-1.4578632
170	0x3f1d1f89	0.61376244
171	0x3f992738	1.1965094
172	0x4000795d	2.0074074
173	0x3fb3c634	1.4044862
174	0x3eaa3c27	0.33249018
175	0xbf456b1c	-0.7711656
176	0xc0c38fc9	-6.111302
177	0xbd5cac0a	-0.053875007
178	0xbfbe9c5f	-1.4891471
179	0xbf263f89	-0.64940697
180	0xc08043d2	-4.008279
181	0x404f85f7	3.2425516
182	0x3fed2003	1.8525394
183	0xbf9ade50	-1.2099094
184	0xbec2dc82	-0.3805886
185	0x40a1d6f5	5.05749
186	0x3ff82b65	1.9388243
187	0xbe928fe4	-0.28625405
188	0x4064f9d3	3.577748
189	0xbfdcefc4	-1.7260671
190	0xbf9e11f4	-1.2349229
191	0xbe969b65	-0.29415432
192	0x3f874285	1.0567175
193	0x3fa1a33d	1.2627941
194	0x4009a4b0	2.1506767
195	0x3f32ab81	0.69792944
196	0x404f0cb0	3.2351494
197	0x3f96d840	1.1784744
198	0x3fecb3ed	1.8492409
199	0x3e8dfb86	0.2773096
200	0xc01bce66	-2.4344726
201	0x3f23d696	0.6399931
202	0xbfddb25d	-1.7320057
203	0x3f0b6aa8	0.5445962
204	0x4094f870	4.655327
205	0x400a7d6b	2.163905
206	0x3e942fe8	0.289428
207	0x3f31cba4	0.69451356
208	0x3de718fb	0.112840615
209	0x3f3ad2d9	0.7297798
210	0x3ea79474	0.32730448
211	0xbf2df1d5	-0.6794713
212	0x4018b633	2.3861206
213	0x3faed221	1.3657876
214	0x3fd28a18	1.6448393
215	0x3e0bfee9	0.1367146
216	0xbe743d92	-0.23851612
217	0x3f01e4e4	0.50739884
218	0xc001a4c8	-2.0256824
219	0xc02e5ac5	-2.7242901
220	0x3ef80c66	0.4844696
221	0xbf4bb32b	-0.79570264
222	0x3edddcc3	0.4333249
223	0xbf546faf	-0.82982916
224	0x3eee4526	0.4653713
225	0x3f1ae6f8	0.6050868
226	0xbfe0f078	-1.7573385
227	0xbf4d6b81	-0.8024216
228	0xbec05a62	-0.37568957
229	0x3ffe8039	1.988288
230	0x3b6ad841	0.0035834464
231	0x3f591a9b	0.8480622
232	0x3ea9574d	0.33074418
233	0x3fb7074c	1.4299102
234	0xbe257547	-0.16158019
235	0xc008591b	-2.1304386
236	0x3e24c1f9	0.1608962
237	0x3c79b470	0.015240774
238	0xbea13ffe	-0.31494135
239	0xbe1be589	-0.1522428
240	0xbf7e9902	-0.9945222
241	0x40226b2a	2.5377908
242	0x4091dd5e	4.5582724
243	0x3f8eca97	1.1155576
244	0xbfb93a1a	-1.4470856
245	0x3e80991c	0.25116813
246	0xbfd1e2a0	-1.6397285
247	0x4037c47c	2.8713675
248	0xbd998778	-0.07496542
249	0x3fb31c1f	1.3992957
250	0x3ffc8623	1.9728435
251	0xc01ecc51	-2.4812205
252	0xc04a4151	-3.1602366
253	0x3f82481a	1.0178254
254	0xbfa33e4f	-1.275339
255	0x40565f16	3.3495536

v.v_net.0.bias f4 [64]
0	0xc08ac1b6	-4.3361464
1	0x4075cde7	3.8406923
2	0xbfe67fc5	-1.8007742
3	0x3ffcf668	1.9762697
4	0x3fde7d0a	1.7381909
5	0x3fc6d088	1.5532389
6	0xc00e3ba0	-2.2223892
7	0x4001c84f	2.0278509
8	0x3fcbf04f	1.5932711
9	0xbed15e21	-0.40892127
10	0x3f5e25be	0.8677634
11	0xbff049d2	-1.8772528
12	0xc0418a3e	-3.0240626
13	0xbfb1058c	-1.3829818
14	0xc07cbc05	-3.9489758
15	0x3f38c3aa	0.7217356
16	0xc0044eea	-2.0673165
17	0xbe8d00df	-0.27539727
18	0x4022b979	2.5425704
19	0x3f172c46	0.5905193
20	0x3f4d15a3	0.8011114
21	0xbeb13ccb	-0.34616694
22	0xbf0826dd	-0.531843
23	0x40269b10	2.6032143
24	0xbf5a8da0	-0.8537235
25	0x3f8f33a4	1.1187634
26	0xc086ee47	-4.2165866
27	0xbf8b99e2	-1.0906336
28	0xc0077a1f	-2.1168287
29	0x40a1f993	5.0617156
30	0x3f51a798	0.8189635
31	0xbe3db857	-0.18527351
32	0x4010eee2	2.2645802
33	0x3fb8e50f	1.4444903
34	0xbea3424a	-0.31886512
35	0x3f89ad46	1.0756004
36	0xbe8dae38	-0.2767198
37	0xbf17dcf8	-0.59321547
38	0xbf47e3ee	-0.7808217
39	0x40297227	2.6475923
40	0xbbf51aad	-0.0074799866
41	0x40687c41	3.6325839
42	0xc08e4879	-4.4463468
43	0x3fbc4377	1.4708089
44	0x3f3fd010	0.74926853
45	0x3f14076c	0.57823825
46	0x3f869730	1.0514889
47	0x4080ad51	4.021157
48	0x3f24fa51	0.6444445
49	0xbf3e7e3f	-0.74411386
50	0x401cf6ae	2.4525561
51	0xbff63f64	-1.9238095
52	0xbf3ca3e3	-0.7368757
53	0x403c9fc0	2.9472504
54	0xc108f641	-8.560121
55	0xbf6b2b35	-0.91862804
56	0x40215c89	2.521273
57	0xbdfeba09	-0.12437827
58	0x3f8ff301	1.1246034
59	0x3fd10503	1.6329654
60	0xc029c8da	-2.652884
61	0x409664e3	4.6998153
62	0xc10bce00	-8.737793
63	0xc04ac6d5	-3.1683857

v.v_net.2.weight f4 [64, 64]
0	0x40256edf	2.584892
1	0x4010926a	2.2589364
2	0xbf9481a7	-1.1602067
3	0xc085e9dc	-4.1847973
4	0x406e1ec8	3.7206287
5	0x4007d95e	2.122642
6	0xbffbf256	-1.968333
7	0xc056d6d4	-3.356862
8	0x3f82e3c9	1.0225765
9	0xbf0a9446	-0.541325
10	0x3f371720	0.7151966
11	0xbf86e46d	-1.053846
12	0x3fed45d3	1.8536934
13	0xbeaaeaef	-0.33382365
14	0xbf080a99	-0.5314117
15	0xc0d55cf3	-6.6675963
16	0x3d2f33af	0.0427739
17	0x40319d3c	2.7752218
18	0xc012c4f2	-2.2932706
19	0x3ea54caa	0.32285053
20	0x3f3f4fca	0.74731123
21	0xc01053dc	-2.2551184
22	0xbfa1adfd	-1.2631222
23	0x3f70c68b	0.9405295
24	0x3e97db8e	0.29659694
25	0xbfc93be6	-1.5721405
26	0xbddda523	-0.10822513
27	0x3de6d418	0.112709224
28	0x3e4129bd	0.18863578
29	0xbf8187cf	-1.011957
30	0x402ce093	2.701207
31	0xbe807372	-0.25088078
32	0xc095dbde	-4.6830893
33	0xc1147bcb	-9.280223
34	0xc00a6699	-2.162512
35	0xbf7cdd15	-0.98774844
36	0x40d37800	6.6083984
37	0xbfa0fc6a	-1.2577031
38	0xbea556ca	-0.32292777
39	0x3fc19694	1.5124078
40	0x4007291c	2.111884
41	0x3fb461b9	1.4092323
42	0x3f887aa8	1.0662432
43	0xbf87ff99	-1.0624877
44	0xbed72c90	-0.42026186
45	0x3f045615	0.5169385
46	0xc06ee836	-3.732923
47	0xbfec3bb6	-1.8455722
48	0x3ec93d06	0.3930437
49	0xbfcbd8c9	-1.5925533
50	0xbf1a360e	-0.6023873
51	0x4064bca9	3.574015
52	0x404ebfd4	3.2304583
53	0xc03e059c	-2.9690924
54	0x41159646	9.349188
55	0x3e621fe1	0.22082473
56	0xbfe0fa21	-1.7576333
57	0xbf09cbc1	-0.5382653
58	0x40593975	3.394132
59	0x3ee9992e	0.4562468
60	0xbfaf1c7d	-1.3680569
61	0xbf90cd57	-1.1312665
62	0xbd52e674	-0.05148931
63	0xc02c9e8b	-2.6971767
64	0x3f43460f	0.76278776
65	0xbe570c45	-0.21000774
66	0xc00c69c7	-2.1939561
67	0xc084f8e8	-4.155384
68	0xc0bf4a03	-5.9777846
69	0xc0b6270e	-5.6922674
70	0xbf333c08	-0.70013475
71	0x400f75cc	2.2415648
72	0xc0839b32	-4.1126947
73	0xc0a66b47	-5.2005954
74	0xc0963cf6	-4.6949415
75	0xbfef3edb	-1.8691057
76	0x3ea62581	0.32450488
77	0x40972dbf	4.7243342
78	0xc0119c35	-2.2751591
79	0x3f3222d4	0.69584394
80	0x4014c22e	2.3243518
81	0xbfd965d0	-1.6984196
82	0x4000fb58	2.0153408
83	0x400eae17	2.2293756
84	0x3f690b50	0.91032887
85	0xbff203e9	-1.8907443
86	0x400cc39f	2.1994398
87	0xc076714d	-3.8506653
88	0x3fd2138a	1.6412213
89	0x406a46ea	3.6605783
90	0xbff94617	-1.9474515
91	0xbfc9f2c8	-1.5777216
92	0xbff54a58	-1.9163313
93	0xc08f6933	-4.4815917
94	0xc00dfd56	-2.2185874
95	0x3fd81ef1	1.6884443
96	0xbffb3011	-1.9624044
97	0x3f9e4981	1.2366182
98	0xbfb76128	-1.4326525
99	0x40a5564c	5.1667843
100	0xbf1ee92e	-0.62074554
101	0x3e1e387d	0.15451236
102	0xc0ad11b4	-5.408411
103	0xbe280420	-0.16407824
104	0xbf9084e5	-1.1290556
105	0x3f58aa13	0.8463451
106	0x4082d2ca	4.088231
107	0x3edd3619	0.43205336
108	0xbf9ee6be	-1.2414167
109	0xbfff882a	-1.9963429
110	0x403a45fa	2.910521
111	0xc06d8b0e	-3.7116122
112	0x3fc321ee	1.524473
113	0x3e39afd7	0.18133484
114	0x3f9d1f86	1.2275245
115	0xc060ded0	-3.5135994
116	0x3f5a6aeb	0.85319394
117	0xc05c9110	-3.446354
118	0xbf565c3c	-0.8373449
119	0x40069201	2.1026614
120	0xbe92bbd2	-0.2865892
121	0xbfcc2618	-1.5949125
122	0x3de3cd6d	0.11123166
123	0x40476092	3.1152692
124	0x4084efda	4.1542788
125	0xc0937955	-4.608561
126	0x3e666fcb	0.22503583
127	0x3cc0335a	0.023461986
128	0x408622c7	4.1917453
129	0x3f4c8be0	0.7990093
130	0xc0267a60	-2.6012192
131	0xc06a322b	-3.659312
132	0xbed1d9c9	-0.4098647
133	0xc0a3c4ae	-5.1177588
134	0xc0c28a2f	-6.079368
135	0xc0746920	-3.8189163
136	0xbfdac250	-1.709055
137	0xc00b0b91	-2.172581
138	0xbd88ad9b	-0.066737376
139	0x3eea4d36	0.45762032
140	0xbeb3757c	-0.3505057
141	0x40659035	3.5869267
142	0x4070af2d	3.760692
143	0xbfb43b21	-1.4080545
144	0x409a6e90	4.8259964
145	0xc089550f	-4.291633
146	0xbe895413	-0.26821956
147	0x407ccb25	3.949899
148	0x3fb7def0	1.436491
149	0x3fcff6b6	1.6247165
150	0xc0d08274	-6.5159245
151	0xbc80f552	-0.015741978
152	0x3f516615	0.8179639
153	0xbd0aa5e0	-0.033849597
154	0xc036e4f8	-2.8577251
155	0xc0163344	-2.346879
156	0x3f9b9d03	1.2157291
157	0xc093231d	-4.5980363
158	0xbfaf5877	-1.3698872
159	0xbfa23ab4	-1.2674165
160	0x3e9610ba	0.29309636
161	0xbfce82ee	-1.6133707
162	0x40bd8050	5.921913
163	0x3fcd8f9b	1.605945
164	0x3e7f748c	0.24946803
165	0xc0164a00	-2.3482666
166	0xbf78af86	-0.9714283
167	0xbf9894b0	-1.1920376
168	0x3f1f77e7	0.6229233
169	0xc02037f6	-2.5034156
170	0x400e4c1e	2.2233958
171	0xbfa5b269	-1.2945071
172	0xc0bc283d	-5.879912
173	0x3df3fa53	0.1191298
174	0x405d7739	3.4604018
175	0x404cbd72	3.1990628
176	0xbebc8e4c	-0.36827314
177	0xc040f13e	-3.0147243
178	0x3ea29ece	0.31761783
179	0xbfb3c07a	-1.4043114
180	0x3f8065ee	1.0031106
181	0xbf2b423c	-0.6689794
182	0x3ed9ca10	0.42536974
183	0x3f6a1206	0.9143375
184	0xbfb4280e	-1.4074724
185	0xbfe8b41b	-1.8179964
186	0x3f8193ec	1.0123267
187	0x407e4f94	3.973607
188	0x3fab63be	1.3389814
189	0x4064cc6c	3.574977
190	0x403c3fe0	2.9413986
191	0x4075c862	3.8403554
192	0xc0fdccd0	-7.9312515
193	0x3f818c08	1.0120859
194	0x4061b3bb	3.5265949
195	0x40805dda	4.0114565
196	0x4003c5d3	2.0589492
197	0x411b988d	9.724744
198	0xbf6e00fb	-0.92970246
199	0xbfd9dedf	-1.702114
200	0x409c8e25	4.8923516
201	0x3d4388f7	0.04773804
202	0xbc863dc7	-0.01638688
203	0x3f835478	1.0260153
204	0xbe9b1d32	-0.30295712
205	0xc047d339	-3.122267
206	0xc0a6f6e2	-5.217637
207	0x3fc18767	1.5119447
208	0xbfffbb83	-1.9979099
209	0xbf354c14	-0.7081921
210	0xbfaef2f2	-1.3667891
211	0x3e2b5e2e	0.16735145
212	0x3e5baa75	0.21451743
213	0xbfbfb306	-1.4976509
214	0x3f7f99c2	0.9984399
215	0xc000772d	-2.007274
216	0xc05069f7	-3.2564676
217	0xbfcb78a7	-1.5896195
218	0x3fa60d8b	1.2972883
219	0xbf2b8222	-0.6699544
220	0xbfd05d0b	-1.6278394
221	0x3fae90b0	1.3637905
222	0xbf45bedd	-0.7724436
223	0x3eb5366a	0.35393077
224	0x40286b9c	2.631568
225	0x400d6b2f	2.209667
226	0x40009bc2	2.0095067
227	0xc0950d52	-4.657876
228	0x3f85ee42	1.0463336
229	0xbd9d1623	-0.07670238
230	0x4010a405	2.260011
231	0x400f3b9e	2.2380137
232	0xbfd2b687	-1.6461953
233	0x3fc362a0	1.5264473
234	0xc03a9b9a	-2.9157472
235	0x3f733402	0.9500123
236	0x408e2472	4.441949
237	0x40118be2	2.2741628
238	0xc056fd16	-3.3591971
239	0x3f5eedc6	0.87081563
240	0x3fa93a7b	1.3220972
241	0x4024b141	2.5733187
242	0x3f9f292a	1.2434437
243	0x3f1a4323	0.6025869
244	0x3e335a4c	0.17514914
245	0x4079f3d1	3.9055064
246	0xc03e9be0	-2.9782639
247	0x3f54cad9	0.8312202
248	0x3fd7d5da	1.6862137
249	0x40146db6	2.3191962
250	0xbfb6b01d	-1.4272496
251	0x3e0962c6	0.13416585
252	0xc08cc627	-4.3991885
253	0x404a3108	3.1592426
254	0xbf9350a6	-1.1508987
255	0xc0b4a944	-5.6456623

v.v_net.2.bias f4 [64]
0	0xbe97b534	-0.29630435
1	0x3f10137a	0.5627972
2	0xbceb7c2b	-0.028745731
3	0x3f94ab1c	1.1614718
4	0x3fe29d54	1.7704263
5	0xc0021b2c	-2.0329084
6	0xbf3e9dcb	-0.7445952
7	0xc012eda7	-2.2957551
8	0xbf8893d5	-1.0670115
9	0xbf668388	-0.9004445
10	0xbf849a8c	-1.0359664
11	0x3f02ac2c	0.51043963
12	0xbfb26821	-1.3938028
13	0x3f20a3f8	0.62750196
14	0xbca48f39	-0.020087825
15	0xbf9e0bb1	-1.2347318
16	0x4012734d	2.2882874
17	0xbfb1f480	-1.390274
18	0xbfd7efd4	-1.6870065
19	0xbeba15b0	-0.3634467
20	0xbe08dbf6	-0.13365158
21	0x3fb4bfd4	1.4121041
22	0xbfe9b7d2	-1.8259223
23	0x3eeefbab	0.46676382
24	0x3e30b8cb	0.17257993
25	0xbfd96913	-1.6985191
26	0xbffabbaf	-1.9588526
27	0xc00435f2	-2.0657926
28	0x3fd41cf0	1.6571331
29	0xbf730c10	-0.9494028
30	0x3fa5097f	1.2893523
31	0x3f8d9fb8	1.1064367
32	0xbe07019b	-0.13184206
33	0x3ed82367	0.4221451
34	0xbfb390ab	-1.4028524
35	0x3fb61040	1.4223709
36	0xbf98346e	-1.1891
37	0x40007333	2.0070312
38	0xbfc985c8	-1.5743952
39	0x3fefb061	1.8725702
40	0x3ed9d169	0.4254258
41	0x3f1056d7	0.5638251
42	0xbf5bde65	-0.8588622
43	0xc007fbd4	-2.1247454
44	0x3f0c340c	0.5476692
45	0x3ea7f563	0.32804403
46	0xbea09109	-0.31360653
47	0xbfc4c5ed	-1.5372902
48	0x3f4de759	0.80431134
49	0xbe826068	-0.25464177
50	0x3eb07a75	0.34468427
51	0x3fc1c801	1.5139161
52	0xbc805ae0	-0.015668333
53	0xbe7560c3	-0.23962693
54	0xbf599d9e	-0.8500613
55	0xbda33154	-0.07968393
56	0xbfe0e703	-1.7570499
57	0x3eff2114	0.49829924
58	0xbff1f736	-1.8903568
59	0x3f825b53	1.018412
60	0xbe5625c0	-0.20912838
61	0xbf8a27b7	-1.079337
62	0x3f76814a	0.9629103
63	0xbf83ffc9	-1.0312434

v.v_net.4.weight f4 [1, 64]
0	0x41b12f51	22.148104
1	0xc13bd7cf	-11.740188
2	0xc104bd4c	-8.296215
3	0x41266b4c	10.401196
4	0x41b78219	22.938524
5	0xc1b8cf55	-23.101236
6	0xc1527329	-13.153115
7	0xc194ffda	-18.624928
8	0xc1407c89	-12.030404
9	0xc1ba1af8	-23.263168
10	0x4145a1c0	12.35199
11	0x41ac1c68	21.51387
12	0x414a8765	12.658055
13	0x41c11992	24.137486
14	0xc1a0ea2c	-20.114342
15	0xc1a97dd4	-21.18644
16	0x416603c7	14.375922
17	0xc19ff1e7	-19.993116
18	0xc1a197d9	-20.199144
19	0x41a39c23	20.451239
20	0x418800e9	17.000444
21	0x4156264e	13.384352
22	0x417872f3	15.528064
23	0xc10f34bb	-8.950374
24	0x41888301	17.063967
25	0xc1b57ea8	-22.686844
26	0xc22709ec	-41.75969
27	0xc208e33b	-34.221905
28	0x41abd5de	21.479427
29	0xc19dac4d	-19.709131
30	0xc146c0c8	-12.422066
31	0x41740d6c	15.253277
32	0xc16008ad	-14.002118
33	0xc17d697f	-15.838256
34	0xc1bff3a3	-23.993963
35	0x41980d6b	19.006552
36	0xc1ae7159	-21.805346
37	0x41c327c3	24.394415
38	0xc22fcddd	-43.95104
39	0x41161997	9.3812475
40	0x41b885d3	23.065344
41	0xc171e3d0	-15.118118
42	0xc18a2e77	-17.272688
43	0xc1b1653e	-22.174435
44	0x41aaf560	21.369812
45	0x41a7c42c	20.970787
46	0xc163c13f	-14.234679
47	0xc1a7f947	-20.996717
48	0x41433b8b	12.202037
49	0xc1b41586	-22.51051
50	0x419a4287	19.282484
51	0x41a8d989	21.106218
52	0x41494791	12.579972
53	0xc168bd3e	-14.546202
54	0xc1ac5c92	-21.5452
55	0x4195e6da	18.73772
56	0x40e7417a	7.2267427
57	0x412cd077	10.800895
58	0x4188ba96	17.091106
59	0x41ca4139	25.281847
60	0xc12448a4	-10.267735
61	0xc186bd97	-16.842573
62	0xc1bbc1e9	-23.469683
63	0x409e03c3	4.937959
