model_wts/s0_d2_m0.0_b1.0.ckpt (torch, 206875 bytes, 11 tensors)

pi.logits_net.0.weight f4 [64, 282]
000000 93 09 42 be 25 3b ca 3d 6a 87 79 3e 86 c3 4a be
       -0.18948965 0.09874562 0.24368063 -0.19801149
000010 f7 98 3d 3e 0b 6d 47 3e 6e dc 29 bc e2 c3 1b 3d
       0.18515383 0.1947519 -0.010367496 0.038028605
000020 f5 26 93 3e 6d 35 85 3e 85 f7 99 3d 55 ab 61 3d
       0.2874066 0.26017323 0.07517914 0.055095036
000030 d3 d6 7b be 7a aa 81 3e db ef 1d 3e 7c a1 1b be
       -0.24593668 0.25325376 0.15423529 -0.1519832
000040 4b 79 29 be 2f 09 f2 3d 37 be 2b 3e 02 f3 6c be
       -0.16550176 0.11818158 0.1677178 -0.23139575
000050 a5 6e 2b be b6 e9 24 3d d9 cc e9 3d ff b3 64 3e
       -0.16741426 0.040261947 0.11416025 0.22334288
000060 29 81 6a 3e 91 15 99 3e bc 2e 1b be ae 7b 85 be
       0.22900833 0.29899266 -0.15154546 -0.26070923
000070 c6 2e 3f bd c7 04 51 be eb 4d 1f 3e 4d 33 b0 3e
       -0.046675466 -0.20411979 0.15557067 0.3441414
000080 8b 07 e7 3c c7 00 1b 3e 68 00 7d be ea 08 85 bd
       0.028201839 0.15137015 -0.24707186 -0.06495841
000090 28 03 34 bd f2 10 b0 3e 2f 4b 70 3e a3 a2 a4 3e
       -0.043948323 0.34387928 0.2346618 0.32155332
0000a0 1a 76 97 3e 8f 4c 80 3d 2d 04 9b 3e 2a c8 72 3e
       0.29582292 0.062646024 0.30276623 0.23709169
0000b0 c9 c6 aa 3d d4 23 86 3e 85 8e 7b 3e 21 d6 78 3e
       0.083386965 0.2619921 0.24566086 0.24300434
0000c0 ba bc 88 3d 2a bc 39 bc c4 65 2b be d3 f5 04 be
       0.06676622 -0.011336366 -0.1673804 -0.129844
0000d0 db 39 ef 3d 17 fa 99 3e d3 93 da 3d e3 2d 31 3e
       0.11680957 0.30073616 0.106727265 0.1730266
0000e0 a0 88 9f 3d 96 d6 80 be 20 ba 80 3e da e5 71 be
       0.07789731 -0.25163716 0.25142002 -0.23622838
0000f0 30 ce 36 be ac 1e a2 3e e2 1c 36 bd e9 aa e3 3d
       -0.17852092 0.31664026 -0.04446114 0.11116583
000100 44 c2 cb 3d 88 02 92 3e 7b b6 62 3e ef 14 db 3d
       0.099491626 0.28517556 0.22139923 0.10697352
000110 df d0 12 3e 9d 07 07 be 3d 4c ab 3c c6 08 fe bc
       0.1433749 -0.13186498 0.020910377 -0.031010043
000120 3b d7 a1 3e 8c 82 1f 3e fe 79 14 3e 0c 97 31 3d
       0.3160952 0.15577143 0.14499661 0.04335694
000130 48 14 a1 3d 72 bb 79 bd c0 47 18 be c8 c8 82 3e
       0.078651965 -0.060969777 -0.1487112 0.2554381
000140 00 55 1a 3d b3 a1 85 3e e8 d4 13 3d de 9c 87 be
       0.03767872 0.2609993 0.036091715 -0.26486868
000150 9a 90 9b 3e 3d da 4b be 39 c1 aa 3d 8a a4 02 be
       0.3038376 -0.1990747 0.083376355 -0.12758079
000160 43 44 86 bd 14 93 8e 3c b1 e2 34 be 25 34 43 3e
       -0.06555989 0.017404117 -0.17664601 0.1906286
000170 72 db 55 3e e7 16 01 be c2 34 e5 bd 6b d0 26 be
       0.20884493 -0.12606393 -0.111917034 -0.16290443
000180 2b 46 bc 3e 17 ec e2 be 4e b3 e9 bd f8 c7 9e 3d
       0.36772284 -0.44320747 -0.11411153 0.07752985
000190 ef f5 41 3e e2 42 0b be 8f c7 02 bf 67 b5 a4 be
       0.18941472 -0.13599733 -0.5108575 -0.3216965
0001a0 fb 17 dd bd 05 ff d2 3d d2 af 87 3d 08 6e 2e 3d
       -0.107955895 0.10302547 0.06625332 0.042585403
0001b0 40 c5 b8 bd 81 6d ed 3d a0 e7 cf bd 31 26 b7 bd
       -0.090219975 0.11593152 -0.10151601 -0.08942831
0001c0 68 85 bf bb 02 39 a7 be 73 5e 43 3d 47 af be 3d
       -0.0058447607 -0.3266068 0.047697496 0.09310775
0001d0 34 3e a3 be b5 b3 d6 bd 95 96 3e 3e cc 5a 73 be
       -0.31883395 -0.10483495 0.1861213 -0.23765105
0001e0 cd 4c 2d be b7 0f 69 3d 84 02 86 be d7 05 5a 3e
       -0.16923828 0.056899752 -0.26173794 0.2129129
0001f0 92 51 66 bd ae c3 df be 04 c4 e6 3e d3 69 af be
       -0.056230135 -0.4370398 0.45071423 -0.34260425
000200 08 95 be bd 06 5c 79 be 0c f6 f8 3d e8 68 22 3e
       -0.09305769 -0.2435151 0.12156305 0.15860331
000210 d6 df f6 3e 77 22 c7 bd 83 cc 9a be 6a ce ea bd
       0.48217648 -0.097233705 -0.30234155 -0.114651516
000220 11 f5 eb bd 7c 0d 8d bd c1 37 94 3d e5 f9 89 3e
       -0.11521352 -0.068873376 0.07237197 0.26948467
000230 61 42 c7 3d a7 cf aa bd 68 63 66 3e e5 e5 56 be
       0.09729458 -0.08340388 0.22498858 -0.20986135
000240 b2 9e 64 be c6 99 8e 3d fe e8 47 3e 74 9f ec bd
       -0.22326162 0.06962924 0.19522473 -0.11553851
000250 30 ac a4 3e 67 53 08 3e dd 1b 3d 3d da 8f ce 3d
       0.3216262 0.13313065 0.04616915 0.10086031
000260 60 01 9d be b0 81 60 3e de 40 c3 be 83 f2 08 be
       -0.30665112 0.21924472 -0.38135427 -0.13373761
000270 7f 4c 86 3e 81 e2 be bc a9 3a 2f 3d ab 54 56 3e
       0.26230237 -0.023301365 0.042780552 0.20930736
000280 a0 55 f7 bd e7 5f 95 be d4 bb 24 3e 3b c7 af 3d
       -0.120768785 -0.2917473 0.16087276 0.08582922
000290 81 da 41 bd 37 d9 81 3d bc e1 66 3c 9d db d2 bc
       -0.047327522 0.063402586 0.014091905 -0.025739485
0002a0 48 22 da 3c 73 ee 77 be f2 8e 7e 3e e3 db a9 bd
       0.026627675 -0.24212055 0.24859217 -0.08293893
0002b0 4b f7 92 be 06 aa 33 bd 19 43 12 be d1 30 09 be
       -0.28704295 -0.04386332 -0.14283408 -0.13397528
0002c0 0f 5d 52 be f2 03 74 be af 11 b5 bc 99 ed c0 3e
       -0.20543312 -0.2382963 -0.022103159 0.37681273
0002d0 1c a5 a1 be 13 80 8d bb 60 68 c3 3e 4f 01 8b be
       -0.3157128 -0.004318246 0.3816557 -0.27149436
0002e0 46 94 6f bd 9e 74 9a 3e ea 6e 06 bf e9 cf 2b 3f
       -0.058491014 0.30167097 -0.5251299 0.6711412
0002f0 82 5a 6e bf f1 e6 3c 3e 07 ff e9 bd 3a de 29 bf
       -0.93106854 0.18447472 -0.11425596 -0.66354716
000300 26 94 79 3e c9 d0 0f bd 49 f0 ca be 85 e3 e6 be
       0.2437292 -0.035111222 -0.39636448 -0.4509546
000310 fd 8b 05 3f 40 30 32 be ee 9d e5 be c8 4d 1d 3f
       0.5216673 -0.17401218 -0.44847053 0.6144681
000320 c4 37 99 3e 9d 65 2f bf 90 aa 3b 3d be 12 0a bf
       0.29925358 -0.68514425 0.045816958 -0.5393485
000330 82 aa ea 3e 78 55 9d 3f 9e f2 0c bd 02 b9 56 3d
       0.45833212 1.2291708 -0.034411065 0.05242253
000340 5f 00 0c bf ed 61 88 3e 63 77 21 3f 5f 7b a5 be
       -0.54688066 0.2663721 0.63072795 -0.32320687
000350 9b 0b d6 3e dd 7b 93 3f 33 0b 70 be 78 0f 01 bf
       0.4180573 1.1522175 -0.23441772 -0.5041423
000360 54 51 b9 be c0 6b 99 be 83 c1 5a bc 32 dd 81 3f
       -0.3619486 -0.2996502 -0.013351801 1.0145628
000370 84 fc 03 3f 61 f0 32 3f 2a a8 29 3f 40 03 01 bf
       0.51557183 0.6989804 0.66272223 -0.50395584
000380 44 fc 65 be 90 f6 26 3f 83 4f 65 3e 33 a6 03 bf
       -0.22459513 0.65219975 0.22393613 -0.51425475
000390 af 68 41 be 18 2b 84 3f 28 13 19 3f d4 42 48 3f
       -0.1888759 1.0325651 0.59794855 0.7822697
0003a0 12 f5 0d 3e 10 d1 9f be 99 0a c9 be 22 df 3d bf
       0.13863018 -0.3121419 -0.39265898 -0.741686
0003b0 30 99 d3 be 2f ac ca be 88 2d 93 be 35 80 a0 3f
       -0.4132781 -0.3958449 -0.28745675 1.2539126
0003c0 65 83 03 3f 2a 63 eb bc 5c ce 26 be 52 b9 b6 3e
       0.5137237 -0.028733809 -0.16289657 0.35688263
0003d0 ff 19 41 bd b0 df 9a bd 20 11 29 3f 1c 47 dd be
       -0.047143932 -0.07562196 0.66041756 -0.43218315
0003e0 52 49 d2 be a1 f3 02 3e f2 5f 4b 3f 1a 47 ad 3e
       -0.41071564 0.1278825 0.79443276 0.3384331
0003f0 a2 05 40 bf a0 d9 9a bc 77 3f ec 3e 88 4a 6c be
       -0.75008595 -0.0189026 0.4614217 -0.23075306

pi.logits_net.0.bias f4 [64]
000000 27 6b ae bd fe bf 90 be f0 91 1d 3c 07 23 39 3e
       -0.085165314 -0.28271478 0.009617314 0.18079768
000010 e5 09 cf bb 57 b8 a8 bc 63 21 b7 3e 35 cf 6b be
       -0.006318318 -0.020595713 0.3576766 -0.23028262
000020 b3 aa fd 3c ac 37 19 3e 2b ed 84 3e d6 ed 14 3e
       0.030965185 0.14962643 0.25962195 0.14543852
000030 57 95 92 3d 15 0b 48 be a7 47 a1 be 0b eb b3 be
       0.071573906 -0.19535477 -0.3149998 -0.3514026
000040 84 12 57 be 10 2e cd be a5 04 e1 3d 30 2b 1f be
       -0.21003157 -0.40074205 0.10987214 -0.15543818
000050 86 d0 a4 bd b8 b7 b8 bd 38 b2 9c bd 08 43 bb bd
       -0.08047585 -0.090194166 -0.0765118 -0.091436446
000060 b2 37 62 bd df 29 c2 be 28 f9 dc bd d9 ca a2 bd
       -0.055228896 -0.3792257 -0.1078971 -0.07948846
000070 f7 a3 31 3e 64 b0 04 3e 5c 42 d2 3d 09 c6 a6 3e
       0.17347704 0.12957913 0.10266563 0.32572964
000080 b7 c7 7b 3e 1f 4b 1d bc 9d 2b 8c be 3c 53 a9 3d
       0.24587904 -0.00960043 -0.27377024 0.08267829
000090 58 96 b8 bd b4 29 4e 3e ba 53 2c be 69 4a 80 bd
       -0.09013051 0.20133096 -0.16828814 -0.062641926
0000a0 c9 a9 a4 3e 6e e9 10 3f 08 fb 18 bd 17 45 a8 bc
       0.32160786 0.56606185 -0.037348777 -0.020540757
0000b0 e4 53 7a be 25 e3 38 3e d7 d6 37 bd 45 0b 9a bd
       -0.24446064 0.18055399 -0.04488262 -0.07521681
0000c0 d0 48 ab be d8 57 94 3e 4e ae f0 bc 7f 88 e0 3d
       -0.3345399 0.2897327 -0.02937999 0.109635346
0000d0 2b 26 38 3e f9 91 68 bd ad ee 11 bd 79 7b 31 be
       0.1798331 -0.056779835 -0.03562801 -0.17332257
0000e0 d7 81 c9 3e 33 ce 47 3e 75 b1 7d bc 95 dc 4d 3e
       0.39356872 0.19512253 -0.015484204 0.20103677
0000f0 80 a9 9a 3e 8d dc 90 bd c9 e4 ae 3d 29 41 d1 3d
       0.30207443 -0.07073317 0.08539731 0.102175064

pi.logits_net.2.weight f4 [64, 64]
000000 dd 81 fe be cb 66 ba 3d bb be a3 3e 4e b9 ce be
       -0.49708453 0.091016375 0.31981453 -0.4037575
000010 cd 2b af be 49 df 10 3e 16 f3 d9 3e ce 18 86 be
       -0.34213105 0.14147677 0.42568272 -0.261908
000020 17 d3 4b bf 07 ee c5 3e ac da db 3e ac 33 21 3e
       -0.7961897 0.38658163 0.4294027 0.15742368
000030 0f 99 a9 3d 68 82 77 3f 32 e0 96 bd ea c5 3c bf
       0.08281147 0.9668336 -0.073669806 -0.7373949
000040 77 9c 60 bf 33 9b 25 3d 70 33 51 3e 5f 82 a8 be
       -0.87738746 0.040431213 0.20429778 -0.32911965
000050 2e 92 bc be d4 68 cc 3e bd 23 dd 3e 9f 02 01 3e
       -0.36830276 0.39923728 0.4319133 0.12598656
000060 d4 14 bb be ed f0 94 be 74 93 8e 3d 67 a0 b2 3d
       -0.36539328 -0.29090062 0.06961718 0.087220006
000070 25 c2 1d 3e 96 5b 22 3e 20 d6 42 3f c2 b9 3f be
       0.15406092 0.1585525 0.7610798 -0.18723205
000080 72 fd 0b bf f1 c9 39 be 31 8d a2 be a8 29 a3 3e
       -0.546836 -0.18143441 -0.31748345 0.3186772
000090 7f c6 66 3d 82 94 a1 be 43 55 2e bf 38 65 b1 3d
       0.056341644 -0.31558615 -0.6809885 0.08661884
0000a0 db b9 46 bf 22 9e 63 bc 5d fe 36 3e 10 a2 54 3f
       -0.7762734 -0.013892682 0.1787047 0.8305979
0000b0 30 ed 14 be 1a 85 19 3e 81 57 d3 be de ad 33 bf
       -0.14543605 0.1499218 -0.41277698 -0.70187175
0000c0 da f0 e4 3e ca 64 4e bf 29 61 93 3e 1e 22 1d bf
       0.44715005 -0.8062254 0.28785065 -0.61380184
0000d0 6c b8 2a be 76 b9 c6 be f9 55 14 3e ba 1a 81 bd
       -0.16671914 -0.3881337 0.14485921 -0.06303926
0000e0 4b de 41 3e 2c 6b 8a be ca b5 4d be 92 2d 94 3e
       0.18932454 -0.2703489 -0.20088878 0.28941017
0000f0 6a 38 ac be 52 d5 c9 3e 33 ef b6 3e 19 b7 0b 3f
       -0.3363679 0.39420563 0.3572937 0.5457626
000100 0a 3b 70 bd 10 3a e5 bd 80 0e e6 be 61 16 80 3d
       -0.058650054 -0.11192715 -0.44932938 0.062542684
000110 b6 df da 3e 79 32 fb 3e 5e ea 1a 3e 3e 3e 93 be
       0.42748803 0.49061945 0.15128466 -0.28758425
000120 fb 9f 05 3f ee 0c 79 3e 8a 77 9f bd 60 14 3a be
       0.52197236 0.24321339 -0.07786472 -0.18171835
000130 4b 0e 81 3c 65 41 3d bd 25 f2 7c bd 05 79 6e 3e
       0.015753886 -0.046204943 -0.061754365 0.23288353
000140 d9 6c c5 3e bc 7c 81 3e 38 2e 7f 3e da 0e 43 3d
       0.38559607 0.25290477 0.24919975 0.047621585
000150 ed 0b 18 3f 8e 09 36 3f 09 d9 bb be 0f 83 02 bf
       0.593932 0.7110833 -0.36689022 -0.5098123
000160 ec d2 1d 3f d8 ca ce bd 5b e0 35 3e a4 14 ff 3e
       0.61649966 -0.10097283 0.17761366 0.49820435
000170 02 be 0f 3e dc 18 22 be 37 db f0 3d c8 c4 ea be
       0.14037326 -0.15829796 0.11760562 -0.45853257
000180 39 2b 1a be cc a5 e6 bd 3d 04 69 be 12 7b 80 bf
       -0.1505555 -0.11262092 -0.22755523 -1.0037558
000190 43 dd 34 bf 69 d5 e6 3e cb 0b 88 3d b6 c5 5a 3e
       -0.7065012 0.45084694 0.06642874 0.21364483
0001a0 24 10 e0 3e 21 16 6d bd 75 71 ec bd e4 d0 37 bf
       0.43762314 -0.057882432 -0.11545078 -0.71803117
0001b0 cf 56 f5 3e e2 7f bf be 7b 39 ac be 83 ac 2a 3e
       0.47917792 -0.37402254 -0.33637604 0.1666737
0001c0 ea 37 9a 3e ca c6 f0 be 24 f4 b7 3c e7 f0 39 3e
       0.30120784 -0.47026664 0.022455283 0.18158303
0001d0 79 fd 1e 3f 4e c1 56 3f ed fa 3a bf 8b 3f 5e bc
       0.6210552 0.8388871 -0.7303913 -0.0135649545
0001e0 6f 61 47 3f b8 15 8a bf 43 84 90 3f 46 9b 04 bf
       0.77883047 -1.0787878 1.1290363 -0.5179943
0001f0 1d 7d b3 bd b0 ae 4d 3e 48 f9 a4 3e f7 3f 71 bf
       -0.08764098 0.20086169 0.32221437 -0.9423823
000200 6c 5b 13 3f c5 3c 67 3d 1a 5e 2a bf 34 3c bc 3f
       0.57561374 0.05645444 -0.6654984 1.4705873
000210 86 0e 16 be 77 cd db be c5 a8 8e be 96 25 d3 be
       -0.14653978 -0.42930195 -0.27863136 -0.41239613
000220 91 b7 58 bf d8 b5 bb be c5 bd 3f 3f 68 22 27 3e
       -0.846551 -0.36662173 0.7489894 0.16321719
000230 e0 3d 9c be 99 28 01 3f 67 f8 47 3e 86 a0 d2 bd
       -0.30515957 0.5045257 0.19528352 -0.10284524
000240 82 40 3c bd ce 5f d8 bd 5f 9d 0d 3f c7 d8 4f bd
       -0.045959957 -0.10565148 0.55318254 -0.050743844
000250 93 1d f9 be 6e d4 27 bd ec 1a 48 bf ff 36 df bd
       -0.48655376 -0.040974073 -0.7816608 -0.108991615
000260 2f 05 08 bf e7 20 09 be b2 cd da be 9b 3d 9a 3e
       -0.5313291 -0.13391457 -0.42735058 0.30125126
000270 13 86 ad bd c5 e4 ae be 99 84 0f be 54 d9 68 bb
       -0.08472838 -0.34158912 -0.14015426 -0.0035529928
000280 ce 72 8f bc 3c 67 50 be 0a 35 f9 be da a6 43 3e
       -0.017510798 -0.20351881 -0.48673278 0.19106618
000290 16 bd b9 be 52 85 e8 3b 2a 52 b6 3e 2d db d2 3e
       -0.36277074 0.007095971 0.3560956 0.41182843
0002a0 d9 c8 c1 bd 99 92 20 3e ae fe 09 3f 74 ce bf bd
       -0.09462137 0.15680923 0.53904235 -0.0936555
0002b0 3f 7a b7 bd e9 f3 0d bf 99 77 bd be b9 bf 15 3f
       -0.089588635 -0.554503 -0.37005308 0.5849567
0002c0 fe 92 d5 3e d9 20 63 3f 26 22 36 bf 4b e2 39 bf
       0.4171371 0.88721997 -0.71145856 -0.7261092
0002d0 6f ab 3c 3c 1e a6 d0 be 88 0c bf be 37 59 ab be
       0.011515482 -0.40751737 -0.37314248 -0.33466503
0002e0 06 39 9d be 92 08 8a 3e 08 aa ab bd 23 29 7b bd
       -0.30707568 0.26959664 -0.0838204 -0.061318528
0002f0 c2 0b 00 3f 53 78 03 be a6 0e 2a bd 90 25 dd bd
       0.5001794 -0.12838869 -0.041517876 -0.1079818
000300 a2 34 d0 bd dd a5 38 be 12 92 b3 3e 54 43 26 3f
       -0.10166289 -0.18032022 0.3507238 0.64946485
000310 f6 0c c7 3e 06 fa 53 be e7 45 98 bd cc f4 0b be
       0.38877076 -0.20700845 -0.07435208 -0.13667601
000320 2b 52 51 3e 2c 12 c2 3e 37 f0 2e 3e 85 f9 6a 3d
       0.20441501 0.3790449 0.17083822 0.057366867
000330 e6 40 21 3c c0 e1 df be 48 8f cc be 33 4b dc 3c
       0.009842133 -0.4372692 -0.39953065 0.026891327
000340 26 6f 40 3e aa 18 a1 bc 8d 0c f3 3d d0 96 33 be
       0.187924 -0.019665081 0.11867628 -0.17537999
000350 a2 06 13 bc a2 f6 6d be ef e0 6d be 2a b3 0c be
       -0.008973749 -0.23238614 -0.23230337 -0.1374022
000360 a7 81 9c 3e 17 10 50 be ca a9 c5 3e 96 16 33 bf
       0.30567667 -0.20318638 0.386061 -0.6995634
000370 d9 b1 dc 3e 3c 95 15 3f 0c 25 6a bd a8 56 52 3f
       0.43104437 0.5843084 -0.057164237 0.82163477
000380 d4 46 ec 3e 58 9e 1e 3f 8d cc 32 be 63 c6 95 3e
       0.46147788 0.61960363 -0.17460842 0.2925292
000390 e9 cc 1e be c6 94 36 3e fc f9 71 3e 88 5d 7d bf
       -0.15507855 0.1783019 0.23630518 -0.9897084
0003a0 1e 95 c4 3e 25 e2 d3 3c a6 3a e0 3e 8a b2 06 3e
       0.38395017 0.02586467 0.43794745 0.13154045
0003b0 23 45 29 bf 5c 84 be 3e c1 2a 4f be 69 0d a3 3e
       -0.6612112 0.37210357 -0.20231153 0.3184617
0003c0 64 e5 b3 be a1 d6 b0 bd 56 52 41 3f c4 20 63 3f
       -0.3513595 -0.08634687 0.7551626 0.8872187
0003d0 a7 21 a6 3e 7d 95 3b 3d 5e 85 b7 3e b7 c3 c0 3c
       0.3244755 0.04579686 0.3584394 0.023530824
0003e0 34 dd 00 3e 8c 21 d5 be c0 ea 60 be 2c 81 4f bf
       0.12584382 -0.41627157 -0.2196455 -0.81056476
0003f0 91 7b 33 be 25 55 17 be 54 ca a1 3e 31 70 3a 3f
       -0.17527606 -0.14778574 0.31599677 0.7282744

pi.logits_net.2.bias f4 [64]
000000 f2 d1 dd 3d 6a 79 a6 bc c2 0f 2a bd 1c f0 10 3e
       0.108310595 -0.020321567 -0.041518934 0.14154094
000010 75 35 3a be 39 51 a6 3e 3c fa e7 be 1f 56 8b be
       -0.18184455 0.32483843 -0.453081 -0.27214143
000020 09 55 60 3e 91 60 36 3d ea b3 76 bd 79 68 87 3e
       0.21907438 0.044525687 -0.060230173 0.26446894
000030 e9 be 60 be 92 a5 00 3e 4a 87 84 3e e7 bd 68 3e
       -0.21947826 0.1256316 0.25884467 0.22728692
000040 34 87 32 3c 5f 23 0b 3e 22 0c b8 be 9c f6 dc 3e
       0.010896493 0.13587712 -0.35946757 0.43156898
000050 aa 58 46 3e f6 41 45 3e ac be 2a 3e 8b 3a b7 be
       0.1936976 0.19263443 0.16674298 -0.35786852
000060 23 fb fc 3c 4b e6 69 bd 9b 74 65 3d 6f b0 29 3b
       0.03088147 -0.05710439 0.056019407 0.0025892516
000070 22 d9 09 3f 9e e5 36 bd 23 f5 26 bc 35 7d 86 bd
       0.53846943 -0.044652574 -0.010190281 -0.0656685
000080 f0 d3 39 3e 12 a6 b9 bd 8c 40 bf be 51 52 b6 bd
       0.18147254 -0.090648785 -0.37353933 -0.08902419
000090 16 cd a8 be e2 49 99 be 45 18 eb ba 71 e9 98 3e
       -0.32968968 -0.2993918 -0.001793631 0.29865602
0000a0 5e b5 4a 3d 5f 2e 96 3e 37 4a 24 3e d9 4f 84 bd
       0.04948937 0.29332253 0.16043936 -0.06460542
0000b0 50 3b 9b 3e 6d b1 91 3e 78 82 c9 be a3 91 db 3e
       0.3031869 0.28455678 -0.39357352 0.4288455
0000c0 38 22 2e 3e 2c 08 a2 bc a9 ec d2 3e 8d a3 cd bd
       0.17005241 -0.019779287 0.41196182 -0.100409605
0000d0 ef d5 de 3d 0e a3 f1 3d 8f 2b 34 be 2f c5 28 3c
       0.10880648 0.11798678 -0.17594741 0.0103009185
0000e0 9b 5d 86 3d 59 1c 97 3c 0a 24 9e 3e 24 07 25 bd
       0.065608226 0.018446134 0.3088687 -0.040290013
0000f0 f8 65 ee bd f4 03 bd be 57 9a 90 3e 89 ea bd 3e
       -0.11640543 -0.36917078 0.28242752 0.37093

pi.logits_net.4.weight f4 [87, 64]
000000 91 89 88 be cd 88 7c bf d9 c5 44 be df 0a f5 3e
       -0.26667455 -0.9864624 -0.19216098 0.47859856
000010 1f 58 93 3e 1c 78 0f 3e f2 17 e6 3e 8a 35 ce 3c
       0.2877817 0.14010662 0.44940144 0.025172014
000020 79 1a 7a bf ac cf 8e bd 75 88 6c bf 53 77 46 bf
       -0.97696644 -0.06973204 -0.92395717 -0.77525824
000030 c1 b4 0b be ed 77 da 3e 3f 2e 0b 3f 82 c3 e9 bd
       -0.13643171 0.4266962 0.5436744 -0.11414243
000040 38 e2 78 3f 28 bf 85 bf 8a eb 24 be 12 d6 ca 3e
       0.9722018 -1.0448961 -0.16105476 0.39616448
000050 3e 01 ee 3e e7 39 0f 3e 90 3f a4 be de e7 24 bf
       0.46485323 0.13986932 -0.32079744 -0.644163
000060 f5 3f 39 3e 08 01 50 3e bd 9c 77 3f e6 ca 7c bf
       0.18090804 0.20312893 0.9672354 -0.987471
000070 05 d5 15 3f d0 ce 74 bf 1d ff 05 3f 61 f4 a8 be
       0.58528167 -0.9562807 0.52342397 -0.32998946
000080 c8 93 07 3f 2c 6c 5c be 32 18 08 bf e2 f0 60 3f
       0.5295987 -0.2152564 -0.5316192 0.8786756
000090 c0 17 0d 3e 09 d0 3a be 9d fa 60 3f 5e a2 d8 3e
       0.13778591 -0.18243422 0.87882406 0.42311376
0000a0 d0 5b cf be 02 d1 9d 3d 84 36 59 3f e1 7e 17 bf
       -0.40499735 0.07705881 0.8484881 -0.59177977
0000b0 7e fd 63 bf 0f 60 99 3e 3e 11 fd 3d 74 c6 22 3f
       -0.89058673 0.299561 0.12356804 0.63584065
0000c0 98 80 2f 3f d0 03 3e 3f 1c 62 27 3e a6 40 3c bf
       0.68555593 0.7422457 0.1634602 -0.73536146
0000d0 89 a0 64 3f e4 bb 8e be 4d 7b 31 bf 53 fd b4 3e
       0.8930746 -0.27877724 -0.6932877 0.3534952
0000e0 42 26 09 bf 87 f9 07 be d7 9b e5 be 61 83 c6 be
       -0.53574 -0.13278781 -0.4484546 -0.3877211
0000f0 fb 18 4f be 25 9c cb be 5a bd 6a be 08 11 8c 3e
       -0.20224373 -0.39767566 -0.22923794 0.27356744
000100 c5 8c d3 3e 7a 30 7a 3e ba 29 a1 be fa 6c 32 be
       0.41318336 0.24432555 -0.31477147 -0.17424384
000110 33 ae 3a 3e c7 a6 6c 3e 1e 57 35 bf cc 52 80 be
       0.18230514 0.23110496 -0.70836055 -0.2506317
000120 34 0c ba 3d 3e da 80 3c 21 2d 93 be 5b 23 d3 3e
       0.09084359 0.015729066 -0.28745368 0.41237912
000130 64 13 6e 3e 1a b5 1d bf a9 64 03 3f 6b 0c c0 3e
       0.23249584 -0.61604464 0.5132547 0.37509474
000140 23 ed ad bd a7 83 da 3e e7 1d 3c bf f8 25 28 3e
       -0.08492496 0.42678568 -0.7348313 0.16420734
000150 94 cd 19 3f b5 85 34 be 7a ea 16 3f 32 b7 d7 3e
       0.6007931 -0.1762913 0.5895153 0.42131954
000160 31 94 81 3e 40 2d 20 bf 14 62 24 bf 00 c4 45 3e
       0.25308374 -0.62569046 -0.64212155 0.1931305
000170 3d 4b 3a 3f d6 20 60 be 80 7f 09 3f c0 e8 a8 be
       0.72771055 -0.21887526 0.53710175 -0.32990074
000180 17 58 f7 bc ad 5d ae 3d 0d 16 e2 be c9 41 38 3f
       -0.030193372 0.08513961 -0.44157448 0.7197538
000190 cc c8 80 3e c7 25 34 bf 48 c2 cb 3e 09 e6 4d 3e
       0.25153196 -0.70370144 0.39796662 0.20107283
0001a0 5c ab d7 be fa a9 17 3f cb d1 27 3f 14 ec fb be
       -0.42122924 0.5924374 0.65554494 -0.4920355
0001b0 68 1b 69 3e 1b 5e 3c 3f d4 dc f3 be e9 2a e8 bd
       0.22764361 0.73581094 -0.47629416 -0.113363095
0001c0 73 7f ec 3e 61 d0 c9 3d 49 76 e9 3e 2b f0 f8 3e
       0.46190986 0.09854198 0.45598057 0.48620734
0001d0 24 a8 56 3f b9 f1 a0 3e 50 f3 03 3e 1c 11 9e bf
       0.8385031 0.3143442 0.12885785 -1.2348971
0001e0 26 37 11 3f c3 22 45 bd fe 86 2d 3f 28 b1 91 be
       0.56724775 -0.048128854 0.67784107 -0.28455472
0001f0 e6 26 c4 be ad 18 9f be 84 6c b4 3e fd e1 c6 3e
       -0.38310927 -0.31073514 0.3523904 0.3884429
000200 c3 4a ad 3e 63 f5 79 bf 60 c0 9d 3e 5a b3 1e 3f
       0.338461 -0.97640055 0.30810833 0.6199242
000210 1b dc 14 3f ea fa b5 3e 43 72 93 be 67 d1 d9 3e
       0.58148354 0.35542995 -0.28798112 0.42542574
000220 41 e3 39 bf b1 f3 d8 be 7a 74 8f be 84 12 66 be
       -0.72612387 -0.42373422 -0.28018552 -0.22468
000230 07 b7 58 bf a7 b5 b3 3e a6 0f 85 bd 37 71 91 be
       -0.8465428 0.35099527 -0.06497125 -0.2840669
000240 da 1f 49 3f 14 48 5b 3f 07 4a 35 bf 23 b4 52 3e
       0.78564227 0.8565686 -0.7081608 0.20576529
000250 7f a8 93 3f 73 5c 16 3f a6 8b 21 3f 24 12 ac 3e
       1.1535796 0.58734816 0.6310371 0.3360759
000260 3c 09 ba be 58 5c 8f 3e 6d af 1f 3f 44 04 49 be
       -0.3633517 0.2800014 0.62377053 -0.19630533
000270 62 d3 bc 3e 9f 55 a3 bf f2 5b e7 bd b1 2f 1b 3f
       0.36880022 -1.2760504 -0.11296834 0.60619646
000280 56 4a 38 bf 85 68 b4 be 4c dd e6 be ea 6b 8e bf
       -0.7198843 -0.35235992 -0.4509071 -1.1126683
000290 80 61 57 bf 7d 38 04 3e 65 45 cd bf 53 a1 0e 3f
       -0.8413315 0.12912174 -1.6036803 0.5571491
0002a0 1f 15 70 bd 2a 21 1a 3f 8f 1c bc bf d3 55 08 bf
       -0.058613893 0.60206854 -1.4696215 -0.5325596
0002b0 69 22 92 bb ca 9e 26 bf c3 e6 b3 be d0 63 95 3e
       -0.0044596684 -0.6508604 -0.35136995 0.29177713
0002c0 18 0b a2 3e 63 81 39 bf e8 37 00 bd 8f c6 fb 3d
       0.3164909 -0.72463053 -0.031303316 0.122937314
0002d0 7e d2 df be a4 57 ac bd 62 a9 0f bf 66 ca a2 3e
       -0.4371528 -0.084151536 -0.5611783 0.31795043
0002e0 90 dd 4e be 24 38 9a be 3d de 05 3f 06 26 5d 3e
       -0.20201707 -0.30120957 0.52292234 0.21596536
0002f0 f5 c9 ba bd 4f 48 5d bc 69 7b c4 3d bb b9 dd 3d
       -0.091205515 -0.013506009 0.09593851 0.10826441
000300 31 54 2a be e7 cf d1 3d ac 92 00 bf 1c 04 3c 3e
       -0.16633679 0.10244732 -0.50223804 0.18360943
000310 dc 7b 0e be 74 b6 b8 bd 91 e2 16 3f c1 54 a7 be
       -0.13914436 -0.09019175 0.5893946 -0.3268185
000320 e5 1a 04 3f 1a ca 22 3e 48 8d 3e 3f 4b 7f 13 3f
       0.5160354 0.15897408 0.7443433 0.5761611
000330 e6 34 d0 be 28 73 29 3f d7 d6 33 3f eb 24 a0 bd
       -0.40665358 0.6619134 0.70249695 -0.078195415
000340 42 ca ca 3d b1 a3 07 3f 97 2b 0f bf f0 83 e3 3e
       0.09901859 0.5298415 -0.5592589 0.44436598
000350 f6 fb d9 3d 3f a1 ae 3e 56 d9 8f be 29 27 92 be
       0.10643761 0.34107396 -0.28095502 -0.28545502
000360 e9 c5 03 bf 20 3b a3 3e c7 92 d7 3e 24 a7 17 3f
       -0.5147386 0.31881046 0.4210417 0.5923941
000370 a3 c8 85 3f 47 4d 35 3f 9c d3 b7 be 2a ae 7b bf
       1.0451854 0.7082104 -0.35903633 -0.9831263
000380 07 2c f3 bd 81 0f 85 bd 12 50 0f bf 2b 04 13 3f
       -0.11873632 -0.06497098 -0.5598155 0.57428235
000390 40 32 82 be 7b 22 25 bf 82 0b 0d 3f ce e2 11 3f
       -0.25428963 -0.6450574 0.55095685 0.569867
0003a0 c9 2d 5d be 8d b6 73 3f b8 4d 84 bd 8d 7f 09 3f
       -0.21599497 0.95200425 -0.06460136 0.5371025
0003b0 9a f7 5b 3f 1f a7 3e be a6 3f ff be 41 a1 22 3f
       0.85924685 -0.18618439 -0.49853247 0.63527304
0003c0 b3 5e 56 3f 87 9b 64 3f f5 b1 10 3f 83 d8 4b 3f
       0.8373825 0.89299816 0.5652154 0.79627246
0003d0 94 93 ea bc 0a a8 6c bf 92 b5 bb bd 58 da 94 bf
       -0.028634824 -0.9244391 -0.09165491 -1.1629133
0003e0 69 db e3 be 3b 60 92 bc 16 9c f8 3e 7c 27 e0 be
       -0.44503334 -0.017868152 0.48556584 -0.43780124
0003f0 b6 e4 df bd 25 57 c9 3e 98 65 0c 3f 8d 67 22 bd
       -0.10932295 0.39324299 0.5484252 -0.039649535

pi.logits_net.4.bias f4 [87]
000000 ec ad b4 3e 9b a4 12 3f c1 d0 c6 3e e4 c7 2a 3f
       0.35288942 0.5728242 0.38831142 0.6671126
000010 9f 20 a3 3e 29 2d aa 3e 42 00 e5 3e a1 35 24 3f
       0.31860825 0.3323758 0.4472676 0.6414433
000020 99 51 09 3f f8 6c 91 3e 3a 16 42 3e 42 9c 24 3f
       0.53640133 0.2840345 0.18953791 0.6430093
000030 f2 c5 e1 3e a2 ea 23 3f 6d 6c 56 3e 95 4e 15 3e
       0.44096333 0.64029896 0.20939799 0.14580758
000040 df 0c ef 3e f6 d2 c7 3e 32 dc cd 3e ab 74 96 3e
       0.46689507 0.39028138 0.40207058 0.29385886
000050 5d 6f a3 3e a3 fa fb 3e 7f 3e a3 3e f8 e3 91 3e
       0.319209 0.49214658 0.31883618 0.2849424
000060 67 f7 e9 3e 23 e6 25 3f 05 4f 49 3e 8c c7 f9 3e
       0.45696566 0.64804286 0.1965905 0.48785055
000070 82 95 8d 3e df d9 16 3f d0 0a 7e 3e ce 5f dd 3e
       0.27653128 0.58926195 0.24808812 0.43237156
000080 1e 18 73 3e e1 0a 11 3f 10 23 0d 3f 87 cf e2 3e
       0.23739669 0.56657225 0.55131626 0.44298956
000090 79 cd 09 3f 6b 32 06 3f 89 bd 75 3e 0e dd ea 3e
       0.5382915 0.5242068 0.23998083 0.45871776
0000a0 e2 fc e4 3e 10 0d 10 3f 14 7e 0a 3f d5 fc 0c 3f
       0.44724184 0.5626993 0.5409863 0.5507329
0000b0 40 09 f2 3e d8 3f 02 3f 00 c9 f2 3e 84 94 81 3e
       0.47272682 0.5087867 0.47418976 0.2530862
0000c0 68 76 ac 3e 01 70 32 3f 22 9d a1 3e b3 a8 39 3f
       0.33684087 0.69702154 0.31565195 0.7252304
0000d0 eb fc 2c 3e c4 fc d5 3e b3 d5 ff 3e 2f 5e b6 3e
       0.16893356 0.41794407 0.49967727 0.3561873
0000e0 8d dc 19 3f f2 3a 57 3e 8a 7f cd 3e 93 79 13 3f
       0.6010216 0.2101858 0.40136367 0.5760738
0000f0 f0 d5 2e 3f 16 a3 b1 3e 15 48 f2 3e 81 ce 8a 3e
       0.6829519 0.34694737 0.4732062 0.27110675
000100 52 e1 95 3e bb 3c d7 3e c0 b3 1a 3f 22 70 d6 3e
       0.29273468 0.4203852 0.60430527 0.41882426
000110 03 61 cd 3e 1c fa f5 3e 2e 96 d1 bd 80 39 d1 3e
       0.40113077 0.4804238 -0.102337226 0.40864182
000120 9a 42 cc 3e d6 0f 66 3e 05 de 8b 3e 34 ba e1 3e
       0.39894563 0.22466978 0.27317825 0.44087374
000130 9b 9a 06 3f e9 1d 93 3e 87 fe 12 3f 69 7b f0 3e
       0.5257966 0.28733757 0.5741963 0.46969154
000140 fd 1c 96 3e 45 dc 18 3f d9 73 dd 3e 56 de e7 3e
       0.2931899 0.59711105 0.43252447 0.45286816
000150 28 1b be 3e c4 6b 03 3f 44 4e 17 3f
       0.37130094 0.5133631 0.591038

v.v_net.0.weight f4 [64, 282]
000000 1c a3 9d 3e 1e fb 00 c0 27 63 d3 3f 28 f8 9f 3e
       0.30788505 -2.015327 1.6514634 0.31244016
000010 fc 7a 6f 3f 5f a8 65 3f 1f d5 52 bd 5a c7 e4 bc
       0.93547034 0.8971004 -0.05147278 -0.02792709
000020 5f 2b d6 3f 2b e4 77 3f db 59 fa bf ba ef 04 c0
       1.6731986 0.9683253 -1.9558672 -2.0771317
000030 ed ca a2 3e 4d 0c d5 3f 21 16 59 3f 39 5d 84 3e
       0.31795445 1.6644379 0.8479939 0.25852373
000040 ae 13 c7 3e a7 58 07 c0 51 d3 6b 3f da 5c a0 3e
       0.38882202 -2.114786 0.9211932 0.3132084
000050 39 8d 8d 3e 7d ec 68 bd 44 c9 fe bf e3 bb 5f 3f
       0.27646807 -0.056866158 -1.9905171 0.8739607
000060 56 40 83 3f 27 74 d1 3f 3c 10 94 3e 26 c2 ae 3e
       1.0254009 1.6363572 0.28918636 0.34132499
000070 14 62 c1 bd 34 e6 92 3e 89 79 66 3f 53 a6 c8 3f
       -0.09442535 0.28691256 0.900292 1.5675758
000080 22 d8 01 c0 e3 29 6d 3f c0 94 83 3e 27 17 fb bd
       -2.0288167 0.9264204 0.25699425 -0.12260275
000090 40 d2 36 bd 63 db d6 3f 14 e2 73 3f 55 ac cb 3f
       -0.044634104 1.6785702 0.9526684 1.5911967
0000a0 c5 d1 ca 3f b1 eb fc bf 63 fa d3 3f ad 12 d5 3f
       1.5845267 -1.9759427 1.6560787 1.6646324
0000b0 fe d3 f7 bf f9 b0 d2 3f 98 d4 70 3f 46 7c 70 3f
       -1.936157 1.6460258 0.9407439 0.93939626
0000c0 ad e6 00 c0 36 c5 56 bd d9 60 a6 3e 68 68 b3 3e
       -2.0140793 -0.05243417 0.32495764 0.35040593
0000d0 8d 21 fb bf 6d c7 d6 3f 5b eb 02 c0 e0 61 7a 3f
       -1.9619614 1.677961 -2.045615 0.97805595
0000e0 38 70 02 c0 1f 0c a5 3e d5 ec d0 3f 90 27 b3 3e
       -2.0380993 0.3223581 1.6322275 0.3499112
0000f0 08 32 8f 3e f1 01 d0 3f d4 c8 32 bd 8f 50 04 c0
       0.27967858 1.6250592 -0.043648556 -2.067417
000100 3d c5 00 c0 7b db d3 3f 88 84 83 3f 7c cf ff bf
       -2.0120385 1.6551355 1.027482 -1.9985194
000110 39 a8 fe bf 72 14 bf 3e 00 10 ff bf a3 21 ec bd
       -1.9895087 0.37320286 -1.9926758 -0.11529853
000120 39 41 ca 3f 25 03 04 c0 c6 d7 f9 bf d3 4c e1 bc
       1.5801154 -2.062692 -1.9518974 -0.027502453
000130 a4 c3 05 c0 66 4f ec bc 52 3e 9e 3e 81 db d0 3f
       -2.090066 -0.028846454 0.30906922 1.6316987
000140 b5 32 02 c0 8b b6 5e 3f 27 99 ea bd 96 5a b9 3e
       -2.034345 0.8699729 -0.11454993 0.36201924
000150 73 74 c8 3f c9 90 a4 3e 6a 77 00 c0 df d5 9f 3f
       1.5660537 0.32141712 -2.0072885 1.2487143
000160 05 45 86 3f 16 74 f5 3e a7 ab b2 3e 8f 17 17 c0
       1.0489813 0.4794013 0.34896585 -2.360813
000170 46 c1 fd bf 65 e6 26 bf 96 3d 38 3f 10 74 ee be
       -1.9824607 -0.65195304 0.7196897 -0.46572924
000180 db 14 a4 3f 25 62 09 40 31 cd d5 3e 6b 50 d3 bf
       1.2818865 2.1466153 0.4175811 -1.6508917
000190 f9 5a 00 3f 01 62 ff bf 9c ea 73 40 48 9e c7 3f
       0.50138813 -1.9951783 3.8111944 1.5595179
0001a0 67 91 a0 bf 74 cd e5 3e 67 5c ce 3f 41 43 95 bf
       -1.2544373 0.4488331 1.6121949 -1.1661149
0001b0 db f4 28 3d b9 32 13 40 1b 06 0e be 83 c8 63 be
       0.041249137 2.2999709 -0.13869517 -0.22244458
0001c0 88 bf e1 3f c4 09 c3 be a7 83 66 3f 34 fe 82 3f
       1.7636576 -0.38093388 0.90044636 1.0233827
0001d0 5d bc 3e 3f 71 41 e9 be 38 80 00 c0 ea 1a 1b 40
       0.7450617 -0.4555774 -2.0078259 2.4235177
0001e0 85 ef b5 bf 84 94 1c 40 70 7a e6 3f f0 97 d6 bf
       -1.421372 2.4465647 1.8006115 -1.6765118
0001f0 75 e9 84 bf 69 4c ee 3e 13 c3 0a 3f 21 6e 1b bf
       -1.0383745 0.4654267 0.5420391 -0.6071492
000200 28 10 7b 40 48 83 60 3f a0 5c e7 be 4d 09 2c bf
       3.922861 0.8770032 -0.45187855 -0.6720169
000210 a2 67 29 3f 76 0c ee bf 31 15 97 bf bb f1 e4 3f
       0.66173756 -1.8597553 -1.1803342 1.788627
000220 eb 1f 0b 3e 94 be 84 40 63 4b 67 3f 26 80 9b 40
       0.13586394 4.148264 0.90349406 4.859393
000230 cb 40 8c bf 5d 61 12 40 eb fe 6f bf 0f f6 63 3f
       -1.0957273 2.2871926 -0.9374835 0.8904733
000240 70 3a 37 be 70 18 af bd 61 d3 fc be 3d fc 92 bf
       -0.17893386 -0.08549583 -0.4938002 -1.1483227
000250 21 f3 88 bd 7c 23 3d 3f 7e f4 66 bf a4 9a 9b 3f
       -0.06686998 0.7388227 -0.90216815 1.2156568
000260 d9 c1 1e 3f 35 29 cc bf ed d0 b5 40 08 fb 92 3f
       0.6201454 -1.5950075 5.6817536 1.1482859
000270 75 00 ce bf e1 06 07 40 c6 ca 76 be cf ed 49 3f
       -1.609389 2.1097949 -0.2410079 0.7887849
000280 ef 60 33 3f 2d b5 5f 40 54 5d c7 3e 73 7d cb 3d
       0.70069784 3.495433 0.3893839 0.09936037
000290 24 34 0d 3f 10 7a 83 bf 3a d1 83 bf 20 d1 fb 3f
       0.55157685 -1.0271626 -1.0298226 1.9673195
0002a0 4b 99 d2 bf 21 a0 bc 3e 6d e8 08 3e 56 9d bc 3f
       -1.6453031 0.3684092 0.13369913 1.4735515
0002b0 33 5f 01 3f 2e 2b 3b 40 39 23 93 bf f2 72 a6 bf
       0.5053589 2.9245105 -1.1495124 -1.3003829
0002c0 3f cf 65 3f 3c 08 41 c0 28 bf 88 3f 8f ae a8 3f
       0.8976936 -3.0161276 1.0683336 1.3178271
0002d0 49 1f 55 bf d1 6f c9 3e be f4 97 3f d5 71 0a c0
       -0.8325086 0.39343122 1.1871564 -2.1631978
0002e0 ff 42 6a bf c4 eb f4 be b4 0b c0 bf fd 89 a0 bf
       -0.9150848 -0.47836125 -1.5003572 -1.2542111
0002f0 c4 18 8f bf 92 d2 24 c0 29 6f 1d bf 3e 03 aa bf
       -1.1179433 -2.5753522 -0.6149774 -1.328224
000300 e0 d9 c8 3f 7f 43 a4 40 d2 1d 56 bd c9 1d 1b bf
       1.569149 5.1332393 -0.052274533 -0.60592324
000310 93 d2 2a 3f 7e f1 8c bf b5 b3 00 bc 16 54 08 3f
       0.6672756 -1.1011198 -0.0078553455 0.53253305
000320 da aa 02 c0 95 4e af bf 24 03 1b 40 c5 e4 77 3f
       -2.041678 -1.3695856 2.4220667 0.9683345
000330 a2 46 1c c0 32 5d 24 3f 77 c6 9d 3f f0 8d 93 be
       -2.441811 0.64204705 1.2326192 -0.28819227
000340 7d c2 d4 3f 8f e0 77 c0 b6 02 38 c0 ef 91 ad 3f
       1.6621853 -3.873081 -2.8751655 1.356016
000350 64 49 3b 3f c7 c5 83 be 9a 64 a1 bf 21 f3 97 3f
       0.7315886 -0.2573683 -1.2608826 1.1871072
000360 aa 62 d7 bf de 35 a0 3e 02 3f 0b 40 1d 18 12 40
       -1.6826985 0.31291097 2.1757207 2.2827218
000370 b8 4c dd 3e 1d 5a 0c 40 b9 3a 56 3f e9 e5 b8 3f
       0.43222594 2.193 0.83683354 1.4445163
000380 99 ee af 3e 16 24 76 bf 66 ae 8e be b1 bf 98 3f
       0.34361723 -0.9614881 -0.2786743 1.19335
000390 25 37 d7 bf be 8c 38 3d 08 84 8b 3f 8d a1 09 3e
       -1.6813704 0.045056097 1.0899668 0.13440533
0003a0 69 36 81 bf 34 88 59 be 44 b0 9b bf 28 b7 d5 bf
       -1.009473 -0.21243364 -1.2163167 -1.669652
0003b0 db f1 06 40 bc 4a 09 3e d0 96 ce 3f d1 14 29 40
       2.1085117 0.13407415 1.6139774 2.6418955
0003c0 da eb 84 c0 69 36 38 bf d6 67 06 40 a3 c6 05 bf
       -4.1537905 -0.71958023 2.1000876 -0.5225622
0003d0 0c fd 10 be 80 69 8c 3f e7 c8 20 bf 60 2a f9 3b
       -0.1415903 1.0969696 -0.6280655 0.0076039284
0003e0 1d 88 48 bf 94 e6 40 c0 60 86 81 3e 30 d0 1a bf
       -0.7833269 -3.0140734 0.25297832 -0.6047392
0003f0 d3 77 09 3f 90 1a c3 bf 95 65 21 bd 61 9b ad c0
       0.5369846 -1.5242481 -0.039403517 -5.425217

v.v_net.0.bias f4 [64]
000000 e8 53 83 3f cc b6 d0 3f c4 e4 64 40 6a ef 14 c0
       1.0259981 1.6305785 3.5764627 -2.3271127
000010 8e a9 82 c0 a9 36 ba c0 19 03 55 bf 77 cb 54 bf
       -4.0831976 -5.8191724 -0.8320785 -0.8312296
000020 07 cf e1 3f ec 5e 29 3f d8 bf 09 40 f3 f0 ea c0
       1.7641305 0.66160464 2.1523342 -7.3419127
000030 94 12 af c0 bf ba 54 3e d8 8b 83 40 f7 38 ad bf
       -5.471018 0.20774363 4.110821 -1.3533009
000040 24 5d 4d c0 60 69 98 3f c4 a7 84 40 4a bb 2e c0
       -3.2088099 1.1907158 4.145479 -2.7301812
000050 d1 a0 44 40 6a 1f 7f c0 0f 4a 93 c0 30 ff a6 3f
       3.0723155 -3.9862924 -4.6027904 1.3046627
000060 84 d5 39 c0 fb 2a 8c c0 ab c1 81 bf 21 e6 57 c0
       -2.903657 -4.3802466 -1.0137228 -3.373421
000070 02 53 41 40 1f 9f 11 c0 33 4a 89 bf 8e b7 bb bf
       3.0206914 -2.275337 -1.0725769 -1.4665391
000080 90 28 12 c0 9a 06 91 40 9e fa 83 bf 06 bb 1a be
       -2.2837257 4.532056 -1.0310857 -0.15110406
000090 3a e9 38 c0 29 d9 e5 3f 8c 29 14 40 41 3f 24 bf
       -2.889235 1.7956897 2.3150358 -0.6415902
0000a0 be 17 19 c0 b6 46 82 3e 4d 73 32 40 25 2c 06 40
       -2.392074 0.25444573 2.7882874 2.0964444
0000b0 42 03 88 3f b6 6c a6 be a8 61 f9 bf b7 63 b8 3f
       1.0625994 -0.32504815 -1.9482927 1.440543
0000c0 71 41 bd 3e 5e 4d 3a 40 4d 31 51 40 5e b8 8a c0
       0.3696399 2.910972 3.268634 -4.3350058
0000d0 9c 20 aa 3f 26 e8 23 3d f7 38 a1 bf 3e ab 7b 3c
       1.3291202 0.040016316 -1.2595509 0.015360652
0000e0 68 04 61 40 30 a6 14 3f ae 3e 38 3f 93 03 2c 40
       3.515894 0.5806608 0.7197064 2.6877182
0000f0 1c eb eb be cd a3 c4 bf 26 4d 29 c0 e6 ee 40 bf
       -0.46077812 -1.5362488 -2.6453338 -0.7536453

v.v_net.2.weight f4 [64, 64]
000000 7d 75 14 40 a2 ae 72 be 8e 76 21 bf 3b 8f f6 bf
       2.319671 -0.2369943 -0.63071525 -1.926246
000010 56 33 5f 40 b6 93 7b 40 46 24 f4 ba da a6 eb bf
       3.4875083 3.9308906 -0.0018626533 -1.8410294
000020 4d 99 c0 bf 7a 9d 06 3f b1 3f 0c 3e 17 3d 6c 40
       -1.5046784 0.5258404 0.13696171 3.6912286
000030 bc 18 ef 3f e3 bd 9b bf c2 32 65 c0 3f 40 8f bf
       1.8679423 -1.2167324 -3.581223 -1.1191481
000040 8a 9e e5 3d a8 86 77 bf 1b bb 9e 3f bd c2 f1 3f
       0.112118796 -0.96689844 1.240085 1.8887554
000050 2f c3 13 3f 6d de ea 3f 2d 1d 86 bf 30 5d a9 bf
       0.577197 1.8349129 -1.0477654 -1.3231564
000060 07 7c 7f bf 8b 50 57 3f cf 76 cb 3f 02 89 09 40
       -0.99798626 0.84107274 1.5895633 2.1489873
000070 4d 2d 65 bf 1f 2d f4 bf 7f 20 b1 bf 8f c0 fe be
       -0.8952225 -1.907627 -1.3838042 -0.49756286
000080 2f e5 98 c0 8b 5c ee bd 80 07 8e 40 1b c4 c5 be
       -4.7779765 -0.11638745 4.4384155 -0.3862618
000090 d0 0f 49 3e f4 fd 19 c0 9e 28 bd 3f 17 3f 26 40
       0.19634938 -2.406125 1.477802 2.5976007
0000a0 93 14 d8 3e 20 53 ad bf 4e 59 0c c0 74 42 49 3f
       0.42203197 -1.3540993 -2.1929507 0.78617024
0000b0 b8 0c c8 bf 95 24 81 bf 4b 32 6e c0 de a1 2f c0
       -1.5628881 -1.0089289 -3.7218196 -2.7442546
0000c0 69 6d 9a 3e ea 43 19 c0 b4 e0 21 be 78 24 29 c0
       0.30161598 -2.3947701 -0.15808374 -2.6428509
0000d0 ad df e0 bf ea e7 06 c0 b4 77 5a c0 c3 4a 02 c0
       -1.756826 -2.107905 -3.413556 -2.035813
0000e0 63 1e b0 3f b8 a5 63 c0 6d bf 88 3f 8f 58 50 40
       1.3759273 -3.5569897 1.0683419 3.2554052
0000f0 1d ba 1a bf 5d e8 71 40 7f c6 d8 bf b9 87 c1 40
       -0.60440236 3.7798073 -1.6935576 6.0478177
000100 ea 28 a1 bf 70 f1 1c be e7 4a d0 3f ba c2 6c 40
       -1.2590611 -0.15326476 1.6272858 3.6993852
000110 21 b4 8e bf c7 43 2b c0 cb 76 f1 3f 90 9e 99 be
       -1.1148721 -2.6760118 1.8864378 -0.30003786
000120 96 b6 c8 3f a3 74 49 c0 ac 23 a9 bf 61 d4 12 41
       1.5680721 -3.147744 -1.3214011 9.17685
000130 96 c2 e4 be 29 81 db 3f 13 84 83 bf b1 b4 10 bf
       -0.44679707 1.7148792 -1.0274681 -0.56525713
000140 f2 2d e6 3d c8 86 f0 3e 02 8d ca 3f 83 19 70 3f
       0.11239232 0.4697783 1.5824282 0.9378893
000150 92 ff 1c c0 c4 7e c5 bd 5e 08 4e bf f3 4e 85 3f
       -2.4530988 -0.09643319 -0.8048152 1.0414718
000160 3d 3b e9 40 72 42 53 40 df b0 14 40 05 3b a3 bf
       7.288481 3.3009305 2.3232954 -1.2752386
000170 e0 f2 f4 3f fb 40 ca 3f cb 41 ac bd 31 bf bc bf
       1.913662 1.580108 -0.084109865 -1.4745847
000180 9a 6e 1c 40 77 f4 25 be 7c 74 0c 3f af 8d 93 3f
       2.4442506 -0.16206537 0.5486524 1.1527613
000190 32 40 d7 3f f8 d1 85 c0 44 75 ff 3e cf 04 84 bf
       1.6816466 -4.181881 0.49894154 -1.0313967
0001a0 3d d0 95 3f 98 3d 6a 3f b1 b9 97 c0 d6 70 52 c0
       1.1704174 0.91500235 -4.7414174 -3.288137
0001b0 03 cb 45 3f 66 1c 4e 3f 67 63 4d bf 16 cf 1f c0
       0.77262896 0.8051208 -0.802298 -2.4970145
0001c0 a0 f1 18 c0 e6 25 d1 be 82 da 96 be 92 f4 ac bf
       -2.3897476 -0.40849227 -0.29463583 -1.3512137
0001d0 80 13 43 bf 7c 68 30 c0 89 b3 77 be 0b 44 a7 c0
       -0.7620163 -2.7563772 -0.24189581 -5.227056
0001e0 38 ae cc bf 2b 78 df 3e 94 a7 49 bf ac d1 e8 bf
       -1.5990667 0.43646368 -0.7877133 -1.8188987
0001f0 76 5d 8c 3f 86 b9 91 40 cc 66 d7 be b7 e5 2d 3f
       1.0966022 4.553897 -0.42070615 0.6792864
000200 78 29 ab be e1 7e ff 3f 68 e3 ec 3e 6a 75 f1 3f
       -0.33430076 1.9960595 0.46267247 1.8863957
000210 ec eb 45 be 4b 3f 50 bf 8e 06 dd be 13 cc 0a 40
       -0.19328278 -0.8134658 -0.43169063 2.1687057
000220 3c f1 78 bf 77 db dc 3f bd 68 54 3e 13 f7 d3 3f
       -0.97243094 1.7254475 0.2074308 1.6559776
000230 e7 c9 17 c0 17 a2 be 3f 11 74 6a 40 57 78 02 40
       -2.3716981 1.4893216 3.6633341 2.038595
000240 c3 00 2d bf 3c 13 28 40 1b 8d fb 3f fb b0 4d 40
       -0.6757929 2.626174 1.9652437 3.213927
000250 e2 d5 bd be ab 2e 09 c0 a1 8c da bd 91 4e d6 3f
       -0.37077242 -2.1434734 -0.10671354 1.6742727
000260 4b f6 3a 40 23 d4 9b 3f 91 dd 47 40 f6 61 d5 bb
       2.9212825 1.2174114 3.1228983 -0.006511922
000270 26 fd 71 3f e3 15 8f 40 ae 40 ce 3f 5f f0 04 40
       0.945269 4.4714217 1.6113489 2.077171
000280 aa 5c 0b bd 8f 41 08 c0 a9 22 c3 bf da 1c bf 3e
       -0.03402392 -2.1290014 -1.5244952 0.373267
000290 6b 11 91 3f 17 f0 53 3f 25 97 05 c0 77 34 be bd
       1.133344 0.82788223 -2.0873501 -0.092873506
0002a0 70 6d 33 be 35 0e a5 bf 40 4b 49 c0 dd b1 69 3f
       -0.17522216 -1.2894961 -3.145218 0.9128702
0002b0 4c af ee 3e a1 01 fe 3f 51 a3 92 3f de e6 46 40
       0.46618116 1.9844247 1.145609 3.107841
0002c0 37 af e0 bf e0 f5 92 bf 13 9a f1 bf 84 93 ab bf
       -1.7553471 -1.1481285 -1.8875145 -1.3404393
0002d0 54 54 84 be 93 00 d2 3f f5 69 00 c0 d1 7f 95 3f
       -0.25845587 1.6406425 -2.006467 1.1679631
0002e0 d0 3a e7 bd 3d 4e cb 3f 89 b8 13 c0 f8 b8 45 3e
       -0.112905145 1.5883251 -2.3081381 0.19308841
0002f0 15 6e 5f bf eb b6 9e 3f 9f 50 b7 3f 8d 97 9d 3d
       -0.87277347 1.2399572 1.4321479 0.07694922
000300 c1 96 2f 40 d2 f5 c1 bf 8b af d3 3f c9 cf ae 3f
       2.7435763 -1.5153143 1.6537946 1.3657161
000310 bc 55 94 bf 67 56 ba 3e 0c 62 7a c0 67 fe 60 40
       -1.1588664 0.36394045 -3.9122343 3.5155275
000320 4d 59 13 3f 2b 30 37 40 99 03 96 3f 6e 87 0c 40
       0.5755814 2.862315 1.1719848 2.195766
000330 ce 81 87 40 9e a3 2a bf be 98 a8 40 1e 10 8a bf
       4.2345953 -0.6665591 5.2686453 -1.0786169
000340 f9 34 05 bf 15 2b 54 c0 b4 00 52 40 0e 38 cc 3f
       -0.52033955 -3.3151295 3.281293 1.5954607
000350 d4 ae 72 be ea 82 fa be 2d 98 0d bf b1 f4 6e bf
       -0.23699504 -0.48928005 -0.55310327 -0.9334212
000360 23 61 b4 bf 95 b4 a8 3f 82 39 42 c1 24 3c 38 3f
       -1.4092144 1.3180109 -12.13904 0.7196677
000370 0b 54 17 be 5a ec 12 c0 ae a7 39 3e 20 ea c8 3f
       -0.14778154 -2.2956758 0.18130371 1.5696449
000380 76 97 07 40 c7 e2 db bf 8e 6b ff 3f d8 49 73 bf
       2.1186194 -1.7178582 1.9954698 -0.9503455
000390 ef ac ec be fa ae 15 40 a4 50 dc 3c 6c 4c 87 bf
       -0.46225688 2.3388047 0.026893921 -1.0570197
0003a0 0f 89 0b 3d 7f 95 92 3d 37 3e 16 40 ea 61 b8 3f
       0.034066256 0.0715742 2.3475473 1.4404881
0003b0 ce ff fa bf 0c 6d 17 c0 18 32 93 40 7c cd 85 c0
       -1.9609315 -2.3660307 4.599865 -4.1813335
0003c0 4b 7f a8 3f 71 90 b5 bf a6 4f 03 40 b1 fd 9d 3f
       1.3163847 -1.4184705 2.0517364 1.2343045
0003d0 d4 c2 eb 3f 06 45 7a 40 87 ae a2 40 46 75 b4 40
       1.8418832 3.9104629 5.0838046 5.6393156
0003e0 64 71 25 bf 12 9d 06 40 77 ec 80 bf 3d ae bf c0
       -0.64626145 2.1033368 -1.0072163 -5.9900193
0003f0 c3 07 04 3e 2e 76 2f c0 1a 6a 56 c0 37 fb d0 bd
       0.12893586 -2.741588 -3.350226 -0.102041654

v.v_net.2.bias f4 [64]
000000 28 c9 6d 3f 07 f3 02 be 66 18 c3 bf 06 59 96 3f
       0.92885065 -0.1278802 -1.5241821 1.1745918
000010 3b 64 e8 3f 6d c7 b4 bf 1f a8 07 c0 78 4c 68 3e
       1.8155588 -1.412336 -2.1196363 0.2268542
000020 fe b1 ea bf 33 fe 70 be fa c0 8a 3f de c3 52 3f
       -1.8335569 -0.2353447 1.0840142 0.8233012
000030 ec 79 7a 3f d1 67 23 3f 09 e5 8f 3f b0 ee 9c 3f
       0.9784229 0.63830286 1.1241771 1.2260342
000040 28 51 fa be 27 7c 44 be 1c 66 a5 bf 3e 27 a8 3f
       -0.48890042 -0.19187985 -1.2921786 1.3136976
000050 34 5c be bf 15 3e b9 bf 6a fe 65 3f d7 80 36 bf
       -1.4871888 -1.4472071 0.8984133 -0.71290344
000060 d0 80 aa 3e d1 a1 d8 bf e2 2a 52 3e 30 37 6b bf
       0.333014 -1.6924382 0.20524171 -0.91881084
000070 dc 54 98 3d 07 bf 65 bf 25 2e c0 bf 13 29 32 3f
       0.07438061 -0.8974461 -1.5014082 0.69593924
000080 06 19 4c 3f e9 b5 7e bf 77 56 32 bf f5 c8 c6 3e
       0.7972568 -0.9949632 -0.69663185 0.38825193
000090 a8 61 93 bf 85 3a e4 3e ee 81 06 bf 62 7d e4 3f
       -1.1514177 0.44575897 -0.52542007 1.7850764
0000a0 68 ef c7 3f 75 ca c4 bf 02 ea b8 bc 21 7d e6 be
       1.5619936 -1.5374285 -0.022572521 -0.4501734
0000b0 11 bc 06 40 e5 c8 28 bf 0c 0c ce bf 34 33 04 3f
       2.1052287 -0.6593154 -1.6097426 0.5164063
0000c0 9e 63 27 bf 28 9d 8d bf a0 e6 8f 3e 3b cc 9a bd
       -0.6538638 -1.1063585 0.2810564 -0.07558485
0000d0 35 a8 57 3f bf 54 2b be fc 54 f8 bc fe dd dd be
       0.8424104 -0.16731547 -0.030313961 -0.4333343
0000e0 d4 ec 96 3f 1b 96 3e 3f cd 46 ee 3f c5 f9 30 bf
       1.1791024 0.7444779 1.8615357 -0.6913112
0000f0 04 ac b0 bf 94 f7 28 c0 ab 7d 26 3f 34 c2 82 3f
       -1.3802495 -2.640111 0.65035504 1.0215516

v.v_net.4.weight f4 [1, 64]
000000 47 fa d4 40 7f bb b1 c0 bb 16 d1 c0 35 ab f8 40
       6.6555514 -5.5541377 -6.5340247 7.7708993
000010 7d 76 c5 40 23 df bd c0 5c 26 d6 c0 48 38 70 c0
       6.170714 -5.9334884 -6.6921825 -3.7534351
000020 db d0 d8 c0 1a 43 9b c0 b2 0b ab 40 7a a1 ab 40
       -6.775495 -4.851941 5.3451777 5.3634615
000030 0a 69 bf 40 92 ea aa 40 ea 45 a3 c0 34 2f d7 c0
       5.981572 5.341134 -5.1022844 -6.724512
000040 03 7d 96 40 e1 98 64 c0 ef 43 09 c1 ad 2a 75 40
       4.70276 -3.571831 -8.579085 3.8307297
000050 dd 24 ab 40 48 c1 74 40 e5 ec 8f 40 ef b1 b7 c0
       5.34825 3.824297 4.497668 -5.7404704
000060 b8 a0 88 40 02 e9 d7 c0 ec ef 77 c0 fc d0 09 c1
       4.269619 -6.7471933 -3.8740187 -8.613522
000070 fc 9b a0 40 7f bb 91 c0 65 0c db c0 bc 7f ac 40
       5.019041 -4.5541377 -6.845263 5.3905926
000080 12 75 a2 c0 39 59 82 c0 da da 91 c1 bf b4 99 40
       -5.076791 -4.0733914 -18.231861 4.8033137
000090 e6 db b6 c0 65 ce 14 41 25 4e ca c0 be a3 a7 40
       -5.714343 9.300389 -6.322039 5.238738
0000a0 46 6a 8f 40 64 b5 d1 c0 e2 d9 c4 c0 55 cf 65 c0
       4.481723 -6.5533924 -6.151597 -3.5907795
0000b0 7f 4d d3 40 ca e6 c1 40 b1 68 d8 c0 92 87 f9 c0
       6.60321 6.0594225 -6.7627797 -7.797799
0000c0 07 4a 75 40 0a a7 d4 c0 df d4 48 40 b5 a9 06 c1
       3.8326433 -6.6453905 3.1379926 -8.416432
0000d0 24 9e c2 40 88 b7 95 c0 a6 c6 ea c0 e7 f7 85 40
       6.0818043 -4.6786537 -7.336749 4.1865115
0000e0 5b 73 ae 40 16 86 a0 40 df 9b 96 40 0e 84 d6 40
       5.4515815 5.016368 4.706527 6.70362
0000f0 bc be b2 c0 41 68 c6 c0 cf 02 9a c0 15 c1 a8 40
       -5.585783 -6.2002263 -4.812843 5.2735696
