model_wts/s0_d1_m0.0_b1.0.ckpt (torch, 206875 bytes, 11 tensors)

pi.logits_net.0.weight f4 [64, 282]
0	0x3e0f6c50	0.14006162
1	0x3d809c91	0.06279863
2	0xbdefdf2b	-0.11712488
3	0xbd4297af	-0.047507938
4	0x3d802b8e	0.062583074
5	0x3e13da97	0.14438854
6	0x3d4eab55	0.050456364
7	0x3dca72e3	0.09885194
8	0xbd96510f	-0.073396794
9	0x3d911840	0.070847034
10	0xbcd3a9bc	-0.025837772
11	0x3c9ce057	0.019149942
12	0x3dab3f47	0.083616786
13	0xbddc440b	-0.10755166
14	0x3dd4ba1b	0.10387059
15	0xbac1b375	-0.0014778214
16	0x3e27fc82	0.16404918
17	0xbbc1b94d	-0.005911982
18	0x3d38ec50	0.04514724
19	0x3e08e585	0.13368805
20	0x3e260740	0.16213703
21	0x3dcf0599	0.101084895
22	0x3daeda16	0.0853769
23	0x3e312253	0.1729825
24	0x3d9b2b77	0.0757665
25	0xbd7d2cb6	-0.061810218
26	0x3e5aaa21	0.21353962
27	0x3dd5c416	0.10437791
28	0x3c67c82b	0.014146845
29	0x3e0070f7	0.12543093
30	0x3dd7761b	0.10520574
31	0xbc887cd8	-0.016661093
32	0xbbfdb5e0	-0.0077426285
33	0x3dcedc19	0.10100574
34	0x3df1b268	0.118016064
35	0xbb878b78	-0.004136499
36	0x3c8a3bb3	0.01687417
37	0xbc8aa2c0	-0.016923308
38	0x3de58fb6	0.11209051
39	0xbd20c4dd	-0.039250243
40	0xbd85142d	-0.06497989
41	0xbd1d2b68	-0.038371474
42	0xbd6db7bb	-0.058036547
43	0xbdfd5d9a	-0.12371369
44	0x3d5fa8fa	0.054604508
45	0xbdca5e17	-0.098812275
46	0x3dfc16e5	0.12309054
47	0x3df6a624	0.120434076
48	0xbd0c4ae2	-0.0342511
49	0x3d4ab38b	0.04948763
50	0x3e4a731b	0.19770472
51	0x3e4c803c	0.19970793
52	0x3c815ff8	0.015792832
53	0xbd760863	-0.060066592
54	0x3d90f591	0.07078088
55	0x3d4eaa40	0.05045533
56	0x3d2bd4d9	0.041951034
57	0x3de85914	0.11345115
58	0xbde005bf	-0.10938596
59	0x3e03f31e	0.1288571
60	0x3e3f0aad	0.18656416
61	0xbd34e497	-0.044163313
62	0x3c860828	0.016361311
63	0x3c2648a0	0.010149151
64	0x3d8223be	0.063544735
65	0xbd9ae317	-0.07562845
66	0x3dddca87	0.10829645
67	0x3bc3311b	0.0059567816
68	0x3de9bd9e	0.1141312
69	0x3e4a6e6c	0.19768685
70	0xbc76526b	-0.015034298
71	0x3cf43ac7	0.029813183
72	0xbd37200f	-0.044708308
73	0x3e019014	0.12652618
74	0x3d342212	0.043977804
75	0x3dd55c81	0.10418034
76	0x3d2eec05	0.042705555
77	0xb91b5743	-0.0001481446
78	0x3aeb3ac7	0.0017946594
79	0xbdd7caf5	-0.10536758
80	0xbd81b7fb	-0.063339196
81	0x3e0dbfca	0.13842693
82	0x3dc67b51	0.096914895
83	0x3dcd3eda	0.100217536
84	0xbd6954e5	-0.056965727
85	0x3e059b5f	0.1304755
86	0xbc9081c9	-0.017640011
87	0xbeca7a79	-0.39546564
88	0x3c954af6	0.01822422
89	0xbeb82ed9	-0.35973242
90	0x3f133f99	0.5751892
91	0xbd57f4a5	-0.052723546
92	0x3d2f604a	0.042816438
93	0x3f31877f	0.69347376
94	0x3e950cf8	0.29111457
95	0x3e36124e	0.1778042
96	0x3e291e20	0.16515398
97	0x3ded59ab	0.115893684
98	0x3d7a364a	0.06108693
99	0x3cbc4403	0.02298165
100	0x3e8c9cbc	0.2746333
101	0xbe0c6766	-0.13711318
102	0x3f146853	0.57971686
103	0x3d88ffa1	0.06689382
104	0x39b3868b	0.00034241783
105	0xbd222599	-0.039586637
106	0xbd8cad4b	-0.068689905
107	0x3dd79737	0.10526889
108	0x3e6378d5	0.22214063
109	0x3ea621b1	0.3244758
110	0xbd880c62	-0.06642987
111	0x3ed20619	0.41020277
112	0x3e3e9720	0.18612337
113	0x3db8a9c0	0.09016752
114	0xbe6c5262	-0.23078302
115	0x3e8e00ef	0.27735087
116	0x3ddcb48c	0.10776624
117	0xbdd31666	-0.103070065
118	0x3e9c9c26	0.30587882
119	0xbd6f381c	-0.05840312
120	0xbe76d0e7	-0.24103127
121	0xbd2d1912	-0.042260237
122	0x3f285ebf	0.6576957
123	0x3f4df978	0.80458784
124	0x3e26a8d7	0.16275345
125	0xbe167fb2	-0.1469715
126	0x3f10ecd7	0.5661139
127	0xbde7b67c	-0.11314103
128	0x3daee512	0.085397854
129	0x3d800d65	0.06252555
130	0x3db00190	0.08594048
131	0x3f5fea60	0.87467
132	0x3e0a0b8a	0.13480964
133	0xbe3c87dc	-0.18411201
134	0xbef93028	-0.48669553
135	0x3de6e194	0.11273494
136	0x3e7a0fe0	0.24420118
137	0xbdaf0d6e	-0.085474834
138	0xbd730545	-0.059331197
139	0xbd479d9e	-0.0487343
140	0x3edc82d1	0.43068555
141	0xbdcb7ecd	-0.09936295
142	0xbe0f8d9f	-0.14018868
143	0x3d11a3d3	0.035556626
144	0x3db18308	0.0866757
145	0x3dcdfc73	0.100579165
146	0x3ed2f49b	0.41202244
147	0x3eb6b7f1	0.3568721
148	0x3db45bcc	0.08806571
149	0x3f0ebbfc	0.5575559
150	0xbda30db6	-0.079615995
151	0xbcc7fcc5	-0.024412522
152	0x3f1b8b1c	0.6075914
153	0x3f0aaa36	0.5416597
154	0xbe9db868	-0.30804753
155	0xbe64928c	-0.22321528
156	0x3ed86f62	0.42272478
157	0xbf0f9738	-0.56090117
158	0x3f67689c	0.90393996
159	0xbde71e1e	-0.11285041
160	0x3e80d294	0.25160658
161	0xbe6f5565	-0.23372419
162	0x3c4485c0	0.011994779
163	0x3da873e0	0.082252264
164	0x3ea8c583	0.3296319
165	0x3f0377fc	0.51354957
166	0xbce93567	-0.028467847
167	0xbac7a78e	-0.001523243
168	0xbe82f7ad	-0.25579587
169	0x3de444e7	0.111459546
170	0x3e138326	0.14405498
171	0x3ee159fa	0.4401396
172	0x3bcf372c	0.0063237157
173	0xbde14fa2	-0.11001517
174	0xbf01f023	-0.50757045
175	0xbf04d5a0	-0.51888466
176	0x3ec354f1	0.38150743
177	0xbc82ae51	-0.015952261
178	0x3f1e7618	0.61898947
179	0xbdf2cb93	-0.11855235
180	0x3ed90fd1	0.4239488
181	0x3e90e69a	0.28300935
182	0xbf2c71f3	-0.6736137
183	0x3d4ad62a	0.04952065
184	0xbf339635	-0.7015107
185	0xbda5b3a1	-0.08090902
186	0x3dce8f1e	0.10085891
187	0xbf07d781	-0.5306321
188	0xbf80b6bd	-1.0055767
189	0x3f096ecd	0.53684694
190	0xbee5d61a	-0.4488991
191	0xbf9501e4	-1.1641202
192	0xbccb0010	-0.024780303
193	0x3d1bae5c	0.03800808
194	0x3e9a0be7	0.30087206
195	0x3e8b25ed	0.27177373
196	0x3db22a65	0.08699492
197	0xbd8a2d71	-0.067469485
198	0xbeafe530	-0.34354544
199	0xbe057e36	-0.13036427
200	0x3df0278a	0.117262915
201	0xbebdcc8c	-0.3707012
202	0xbf9dba08	-1.2322397
203	0xbf03e55f	-0.5152187
204	0x3edce5ce	0.43144077
205	0xbebb15f0	-0.36540174
206	0x3cf276ca	0.029597659
207	0x3ecf7ee3	0.40526494
208	0x3d8338be	0.06407307
209	0x3ef37913	0.4755331
210	0x3e9b98fb	0.30390152
211	0xbf2268f3	-0.6344139
212	0x3ddf4a83	0.10902884
213	0xbd1579e0	-0.036493182
214	0x3e08ac53	0.13346986
215	0x3df1abe5	0.118003644
216	0x3f589656	0.84604394
217	0xbe88fed7	-0.26756927
218	0x3deffd59	0.11718244
219	0x3f3a4120	0.7275562
220	0xbdf770ef	-0.12082087
221	0xbdba5885	-0.09098915
222	0xbea810b7	-0.32825252
223	0x3f0b1a18	0.5433669
224	0x3e36218c	0.17786235
225	0x3eb3a089	0.35083416
226	0xbf990314	-1.1954064
227	0xbe1c1a3d	-0.15244384
228	0xbee0f780	-0.43938828
229	0xbcdec004	-0.02719117
230	0x3a8f7aea	0.0010946665
231	0xbdea3c19	-0.11437244
232	0x3ef58e92	0.47960335
233	0x3f610f14	0.8791363
234	0x3d93fe33	0.07226219
235	0x3d320c76	0.043468915
236	0xbe8bf6c4	-0.27336705
237	0x3f123e7f	0.5712661
238	0xbf343cd1	-0.704053
239	0x3e232ad8	0.15934312
240	0x3e227610	0.1586535
241	0x3e41836e	0.18897793
242	0x3f4f7d0d	0.8105019
243	0xbe368f2d	-0.17828055
244	0xbf28fac6	-0.6600765
245	0xbf36f51a	-0.71467745
246	0xbee50ea9	-0.44737747
247	0x3d8027f8	0.062576234
248	0xbe049425	-0.12947138
249	0x3de2243a	0.11042066
250	0x3df5d02f	0.120025985
251	0xbeca11ec	-0.39466798
252	0x3d93d34a	0.072180346
253	0x3e081d97	0.13292538
254	0x3dcdde9c	0.10052225
255	0xbe4fb845	-0.20285137

pi.logits_net.0.bias f4 [64]
0	0xbe3aca87	-0.1824132
1	0xbda947a0	-0.082656145
2	0x3c53d7c6	0.012929862
3	0xbd13b4b3	-0.036061
4	0xbdd35cb7	-0.10320418
5	0x3e49f89e	0.19723746
6	0x3e0fc47a	0.14039794
7	0xbe908c04	-0.28231823
8	0x3dfd5540	0.12369776
9	0x3d5983c1	0.053104166
10	0x3e67130e	0.22565863
11	0x3d923d84	0.071406394
12	0x3ea869bf	0.32893178
13	0xbf0c1a26	-0.547274
14	0x3e3c6db4	0.18401223
15	0xbe4b2c7d	-0.1984119
16	0xbe4dd846	-0.20102033
17	0xbdfd84af	-0.12378823
18	0x3e64f3af	0.22358583
19	0x3e346222	0.1761556
20	0xbdb216e8	-0.08695775
21	0x3b2fd87f	0.0026831923
22	0xbe70320e	-0.23456594
23	0xbd50ac5a	-0.050945617
24	0xbb959cbf	-0.0045658047
25	0x3e2a3ce7	0.16624795
26	0xbd9bbd85	-0.07604507
27	0xbd1aa02f	-0.03775042
28	0x3dd9a087	0.10626321
29	0x3dbe63d2	0.09296383
30	0x3da484d1	0.08033145
31	0x3b5bb79e	0.0033526192
32	0x3e22528a	0.15851799
33	0x3d597f04	0.053099647
34	0x3df70108	0.120607436
35	0xbc756fb0	-0.014980242
36	0xbe0ba236	-0.13636097
37	0x3e841eb0	0.25804663
38	0xbe5f14d8	-0.21785295
39	0x3ec721d0	0.38892984
40	0x3e772ff4	0.24139386
41	0x3e22d786	0.15902528
42	0xbe8d3bbd	-0.2758464
43	0x3d4b73ec	0.0496711
44	0xbe9b91d7	-0.30384704
45	0x3e6f8d00	0.23393631
46	0xbe0e7930	-0.13913417
47	0xbe3bd6f7	-0.18343721
48	0xbe7d7627	-0.24752103
49	0xbd8816d0	-0.06644976
50	0x3dc16d14	0.09444633
51	0x3e805bf5	0.25070158
52	0x3bb591af	0.0055410485
53	0xbd0ea8ac	-0.034828827
54	0x3e3a66f5	0.18203337
55	0xbe0fd112	-0.14044598
56	0x3e71da94	0.23618537
57	0x3da96c88	0.08272654
58	0xbcfc28c2	-0.030781154
59	0x3e3237c9	0.17404093
60	0xbba55d4f	-0.0050465236
61	0xbe45fbeb	-0.1933438
62	0x3e976756	0.29571027
63	0x3de687da	0.112563804

pi.logits_net.2.weight f4 [64, 64]
0	0xbf2ba1c7	-0.6704373
1	0x3e6e8c0d	0.23295613
2	0x3e448ce6	0.19194373
3	0xbf24d336	-0.6438478
4	0xbf13a457	-0.5767264
5	0x3f4c3a9d	0.79776937
6	0x3ef73d70	0.4828906
7	0x3cbb5cfe	0.02287149
8	0x3e083d0c	0.13304538
9	0x3e4c6ab1	0.19962575
10	0xbd824d92	-0.063624516
11	0x3be9d6c6	0.0071361987
12	0xbddb29d2	-0.10701336
13	0x3e991cb4	0.2990471
14	0xbf181002	-0.59399426
15	0x3d5df435	0.054187972
16	0xbdad5e98	-0.08465308
17	0xbf203ad6	-0.62589777
18	0xbddaa210	-0.10675442
19	0xbd1241b5	-0.035707194
20	0xbe8115c3	-0.25211915
21	0x3e9f60bf	0.311285
22	0x3d83784e	0.06419431
23	0xbeaf19ef	-0.34199473
24	0xbd1645ca	-0.03668765
25	0xbf104700	-0.5635834
26	0x3f4d0b48	0.8009534
27	0xbe107c9b	-0.14110033
28	0x3eeaec99	0.45883635
29	0x3ee03074	0.43786967
30	0x3f851578	1.0397177
31	0x3f1c898c	0.6114738
32	0x3bd1ae18	0.0063989274
33	0x3cf3d749	0.029765742
34	0x3db9521c	0.09048864
35	0xbf470371	-0.77739626
36	0xbf7b5961	-0.98183256
37	0x3f01b214	0.5066235
38	0xbf314734	-0.6924927
39	0x3eb58526	0.35453147
40	0xbcca90a4	-0.024727173
41	0x3d917b09	0.07103545
42	0x3e5f2c1e	0.21794173
43	0x3d92ef82	0.07174589
44	0xbd884d9b	-0.06655427
45	0x3ec8938e	0.39175075
46	0xbf8626a4	-1.0480542
47	0xbe82e556	-0.25565594
48	0x3e714dae	0.23564789
49	0xbe5858b5	-0.21127589
50	0x3f2b5f1d	0.66942006
51	0xbeedbcbb	-0.46433052
52	0xbf32297f	-0.6959457
53	0xbcb20490	-0.021730691
54	0xbee8043f	-0.4531574
55	0xbdf3be39	-0.119015165
56	0x3e04bf3b	0.12963574
57	0x3de4dfb1	0.11175478
58	0xbee8cac3	-0.45467195
59	0xbf4d5b5e	-0.8021754
60	0x3f2de709	0.67930657
61	0xbdf700e5	-0.120607175
62	0x3c44d553	0.012013751
63	0x3f06e28e	0.52689445
64	0x3e6642ef	0.2248647
65	0x3ec3aa7e	0.38216013
66	0xbe66b7cd	-0.22531052
67	0xbec624ad	-0.38699856
68	0x3f10c4a3	0.56550044
69	0xbf2e21b7	-0.68020195
70	0x3e1b4bf3	0.15165691
71	0x3f64b095	0.8933194
72	0x3e7fdb06	0.24985895
73	0xbe8840ed	-0.26612034
74	0xbeb1732d	-0.34658185
75	0xbe394c45	-0.18095501
76	0xbf6e2ca5	-0.9303687
77	0x3e1e8101	0.15478899
78	0xbeb15a15	-0.3463904
79	0x3eb7ab60	0.35872936
80	0x3e90a81c	0.28253257
81	0x3e576dfa	0.21038046
82	0xbf01eaf4	-0.50749135
83	0x3e0b1232	0.1358116
84	0x3e9f3eee	0.311027
85	0x3f032e98	0.5124297
86	0x3d1e1bad	0.038600612
87	0x3f36c713	0.71397513
88	0xbd592165	-0.053010363
89	0x3eaf7a3c	0.34272945
90	0xbf3ac106	-0.7295078
91	0x3da8bd6b	0.082392536
92	0x3ebba80b	0.36651644
93	0xbed12224	-0.4084636
94	0x3f8defe7	1.1088837
95	0x3d8ef145	0.06979612
96	0xbec4c4ed	-0.38431492
97	0x3ed5ad9b	0.41734013
98	0xbe8e2b00	-0.2776718
99	0xbe8a21e7	-0.2697899
100	0xbef09d89	-0.4699519
101	0x3cb116a9	0.02161725
102	0x3ec3bc25	0.3822948
103	0xbd8c1ef4	-0.06841841
104	0x3d60ac45	0.05485179
105	0x3e0a69d3	0.13516931
106	0x3ee3bb12	0.4447866
107	0xbebe8601	-0.37211612
108	0x3f769cc1	0.9633294
109	0xbeb8b5a1	-0.36076072
110	0xbed021d2	-0.40650803
111	0x3e9f4620	0.3110819
112	0xbcb0b946	-0.02157272
113	0x3ec3b0d7	0.38220856
114	0xbd2b6f9a	-0.04185448
115	0x3d34cfae	0.04414337
116	0x3e296bbf	0.16545008
117	0x3ef36541	0.47538188
118	0x3c025ea3	0.007957133
119	0xbf13ccdb	-0.5773446
120	0x3d9fc0c9	0.07800443
121	0xbda54064	-0.08068922
122	0xbed8c050	-0.42334223
123	0xbe0de49d	-0.1385674
124	0x3f294c97	0.6613249
125	0xbeb245a9	-0.3481877
126	0xbf2886ab	-0.65830487
127	0xbd112892	-0.03543908
128	0xbdf03f49	-0.11730821
129	0xbe16deed	-0.14733477
130	0x3ea01414	0.31265318
131	0xbee2bfa3	-0.44286832
132	0x3f8be1ed	1.0928322
133	0xbea7e93e	-0.32795137
134	0x3f2e2b2e	0.68034637
135	0x3e7fab46	0.2496768
136	0x3ebfbc78	0.37448478
137	0x3f2ab793	0.6668636
138	0x3eb15098	0.346318
139	0xbf5908f5	-0.8477929
140	0xbed2dd93	-0.41184673
141	0x3f1f2932	0.62172234
142	0xbe8fc8da	-0.28082925
143	0x3ef8a716	0.48564976
144	0x3d960235	0.0732464
145	0xbd89208b	-0.0669566
146	0x3c97d3b6	0.018533569
147	0xbef1058a	-0.47074538
148	0xbef18d43	-0.47178087
149	0x3d3089b9	0.043100093
150	0xbd656979	-0.05600879
151	0xbf4b4055	-0.7939504
152	0x3d1cbc59	0.03826556
153	0xbed508fe	-0.41608423
154	0xbecb8118	-0.39746928
155	0x3e2c0482	0.16798595
156	0x3f1e1e75	0.61765224
157	0x3dc6124a	0.09671457
158	0xbd8eeef7	-0.06979173
159	0x3d7f1ea4	0.06228508
160	0x3e9f5bb7	0.3112466
161	0x3ea97ab7	0.33101436
162	0x3e048f49	0.12945284
163	0x3dac6d19	0.08419246
164	0x3f6f3d94	0.93453336
165	0x3f2c7552	0.67366517
166	0xbbd991ee	-0.0066397106
167	0x3e836a66	0.25667113
168	0x3e9bd805	0.30438247
169	0xbd31e106	-0.04342749
170	0x3e566c48	0.20939744
171	0xbf466585	-0.77498657
172	0x3db1323f	0.08652162
173	0xbeb92ccb	-0.36166987
174	0x3f2d8b74	0.67790914
175	0xbd6f433a	-0.05841372
176	0x3c906443	0.017625934
177	0x3d8b4d16	0.06801812
178	0x3df0c973	0.117571734
179	0x3e2fa3e9	0.1715237
180	0x3e3719ee	0.17880985
181	0x3f33e2ec	0.7026813
182	0x3ed5b8ed	0.4174265
183	0x3f29f393	0.6638729
184	0x3e877590	0.2645688
185	0xbecdfa08	-0.4022982
186	0xbe8af097	-0.2713668
187	0xbd7bc606	-0.061468147
188	0xbea5d6d6	-0.3239047
189	0xbec727a4	-0.3889743
190	0xbdbeede8	-0.09322721
191	0xbe0b1a9c	-0.1358437
192	0xbe3c8a7a	-0.184122
193	0xbc85ad00	-0.016317844
194	0x3e0ec1d7	0.13941132
195	0xbe96a07f	-0.29419324
196	0x3daf3b03	0.085561775
197	0x3d077fbe	0.03308081
198	0x3ca0e251	0.019639166
199	0x3e29ad4f	0.16570018
200	0x3e7f8dce	0.24956438
201	0xbeb20b95	-0.3477446
202	0x3e8e7f49	0.27831486
203	0x3d075655	0.033041317
204	0x3ef4b41f	0.4779367
205	0xbe9688ea	-0.29401332
206	0x3e72510f	0.23663734
207	0x3e270b9f	0.16313027
208	0xbefca4a5	-0.49344364
209	0xbef75af5	-0.48311582
210	0x3f546f20	0.82982063
211	0xbf067a3f	-0.5253028
212	0xbeb6e135	-0.35718694
213	0xbe778838	-0.24173057
214	0xbdc6dc4e	-0.097099885
215	0x3faad6cb	1.33468
216	0x3f0c55ac	0.54818225
217	0x3f7721f9	0.96536213
218	0xbdd6d004	-0.104888946
219	0xbe6a49a7	-0.22879659
220	0xbe11de40	-0.14244938
221	0x3ecf78be	0.40521806
222	0xbe7f26a1	-0.2491708
223	0x3e531170	0.2061212
224	0xbca4df1e	-0.020125922
225	0x3efaf2a0	0.49013233
226	0x3e9c1233	0.30482635
227	0x3f38d10a	0.7219397
228	0xbe88a8f1	-0.26691392
229	0x3e3e94c1	0.18611433
230	0xbdaf6ce7	-0.08565693
231	0xbe228da4	-0.15874344
232	0x3f49e9e5	0.7887252
233	0xbf4f55ed	-0.8099049
234	0x3f52c703	0.8233492
235	0x3ebf3c33	0.37350616
236	0xbecb6f30	-0.39733267
237	0x3ea06522	0.31327158
238	0xbe8c3398	-0.27383113
239	0xbf067cf0	-0.5253439
240	0x3e0ca9a1	0.13736583
241	0x3daf23e5	0.08551768
242	0x3ede59d2	0.43427902
243	0xbe894c38	-0.26815963
244	0x3e9d6dac	0.30747736
245	0xbeac4c20	-0.3365183
246	0x3f55c90a	0.83509886
247	0xbf214109	-0.6298986
248	0x3f0ba49a	0.5454804
249	0x3ea7caf7	0.32772037
250	0xbf204b07	-0.6261448
251	0x3dbfc83d	0.09364364
252	0x3ee3bed4	0.44481528
253	0x3dcf61e1	0.10126091
254	0x3e38ae35	0.18035205
255	0x3d0500c7	0.032471444

pi.logits_net.2.bias f4 [64]
0	0x3dbaa769	0.09113962
1	0xbd478950	-0.048714936
2	0xbf1f5ea2	-0.62253773
3	0x3b2f0b6c	0.0026709689
4	0xbe105804	-0.14096075
5	0x3e4acb37	0.19804083
6	0xbe86ad55	-0.26304117
7	0xbf0df0d7	-0.5544562
8	0xbe3f499b	-0.18680422
9	0x3f4c2b7a	0.7975384
10	0xbe1f4d67	-0.1555687
11	0x3cfe2fb6	0.03102861
12	0x3e3d27fe	0.18472287
13	0x3e9f244d	0.31082383
14	0xbd71a12e	-0.058991604
15	0x3e101d78	0.14073741
16	0x3ef0e669	0.4705079
17	0x3f308642	0.6895486
18	0x3e7ab553	0.24483232
19	0x3ef3746e	0.47549766
20	0x3f33569d	0.70054036
21	0x3e6e51ea	0.23273435
22	0xbec47153	-0.3836771
23	0xbdcb5cb1	-0.09929789
24	0xbe75d6c3	-0.24007706
25	0xbdb7e549	-0.089792795
26	0xbdfb1f80	-0.122618675
27	0x3dee6d28	0.11641914
28	0x3eb1355a	0.34611017
29	0xbebf3b51	-0.37349942
30	0x3e8cb8a2	0.27484614
31	0xbda1932a	-0.078893974
32	0x3da97d54	0.082758576
33	0xbeabd7e7	-0.33563158
34	0xbea2e8fa	-0.31818372
35	0xbdd88926	-0.10573034
36	0xbf02d114	-0.5110028
37	0xbda2c4f7	-0.07947724
38	0xbce496d6	-0.027903955
39	0x3ea17c59	0.31540182
40	0xbe84808c	-0.25879323
41	0x3c32689f	0.010889201
42	0xbe470f04	-0.19439322
43	0x3da2d62a	0.07951005
44	0xbc85e2b7	-0.016343458
45	0x3e2af807	0.16696177
46	0xbe8664f6	-0.26248902
47	0x3e7714b6	0.24128994
48	0xbd365f9c	-0.044524774
49	0x3d45a0a6	0.04824891
50	0x3e9ad5a8	0.30241132
51	0xbe0c508b	-0.137026
52	0x3eb55105	0.35413375
53	0xbb836dc5	-0.0040108883
54	0xbdef3c62	-0.11681439
55	0xbe569463	-0.20955043
56	0x3d3c0d72	0.04591126
57	0xbe1929cf	-0.14957355
58	0x3e8a776e	0.27044243
59	0xbf3af810	-0.73034763
60	0xbea7f07f	-0.3280067
61	0xbe8bc3d9	-0.27297857
62	0x3e216a9a	0.15763322
63	0x3edbb685	0.4291269

pi.logits_net.4.weight f4 [87, 64]
0	0xbe0ac02a	-0.13549867
1	0xbf4a15f8	-0.7893977
2	0xbf1a04a6	-0.6016334
3	0xbee7b683	-0.45256433
4	0xbfa32e07	-1.2748421
5	0xbe1af3f3	-0.15132122
6	0x3f10e469	0.56598526
7	0xbecbfa19	-0.39839247
8	0xbeab0c23	-0.33407697
9	0x3edba256	0.4289729
10	0xbf18a9f2	-0.59634316
11	0xbe4e8232	-0.20166853
12	0xbf26594b	-0.6498
13	0xbf01406f	-0.5048894
14	0x3dd2f0e4	0.102998525
15	0xbe567a9c	-0.2094521
16	0x3eb443f6	0.352081
17	0x3e9eedd1	0.31040815
18	0x3f2eb58b	0.6824576
19	0x3eb6fc53	0.35739383
20	0x3f0764d8	0.5288825
21	0x3de75273	0.11295023
22	0xbdde4b60	-0.108542204
23	0xbe1ccb3c	-0.15311903
24	0xbe6a060d	-0.2285387
25	0x3e221a0e	0.15830252
26	0xbf366b96	-0.71257913
27	0x3e54da36	0.20786366
28	0xbe4fefbb	-0.20306294
29	0xbf803e5f	-1.0019034
30	0x3d8ce945	0.0688043
31	0x3f539eba	0.8266407
32	0xbf236579	-0.6382671
33	0xbe7ae798	-0.24502409
34	0xbe892ecf	-0.26793525
35	0xbec686ef	-0.3877482
36	0xbf0ce52a	-0.55037177
37	0x3e00f921	0.12595035
38	0xbe82b9d2	-0.25532395
39	0xbe562c1f	-0.20915268
40	0xbf8ea597	-1.1144284
41	0xbf029ac2	-0.5101739
42	0xbcc82da2	-0.024435822
43	0xbd9d3eba	-0.0767798
44	0x3dd6dffd	0.10491941
45	0x3f8be6f2	1.0929854
46	0xbf0ae930	-0.54262066
47	0xbece2369	-0.4026139
48	0xbf986d9a	-1.1908448
49	0xbea822a0	-0.32838917
50	0x3e5504b7	0.2080258
51	0x3edc95fd	0.43083182
52	0x3f599e70	0.8500738
53	0x3f175625	0.5911582
54	0x3ecf8ac0	0.40535545
55	0x3e686e23	0.22698264
56	0x3d9bd283	0.07608511
57	0xbf35c456	-0.7100271
58	0x3ebf76a9	0.37395218
59	0xbf1ab5bb	-0.6043355
60	0x3e0e2e9d	0.13884969
61	0xbe7e2be2	-0.24821427
62	0x3e9c48e0	0.3052435
63	0xbe1db918	-0.15402639
64	0x3f445f51	0.7670794
65	0x3e7583ee	0.23976108
66	0x3f28b174	0.6589577
67	0x3d79e0cb	0.061005395
68	0xba4e3123	-0.00078655983
69	0x3f53dc18	0.8275771
70	0xbe52dee1	-0.20592834
71	0xbed1e9e1	-0.40998748
72	0xbf17529d	-0.5911043
73	0x3d26e80d	0.040748645
74	0xbf30a3ec	-0.69000125
75	0x3f82fd05	1.0233465
76	0x3eb99c1f	0.36251923
77	0x3f1ece91	0.62033945
78	0x3ecc1f08	0.39867425
79	0xbde0d36a	-0.10977824
80	0x3eb8e91f	0.36115357
81	0x3e977276	0.29579514
82	0x3f22c87a	0.6358715
83	0xbe1590d1	-0.14606024
84	0x3ec82345	0.3908941
85	0x3ef4f381	0.4784203
86	0x3e2cc051	0.16870238
87	0x3ead69ae	0.3386969
88	0xbef2f0b8	-0.4744928
89	0xbf578c37	-0.84198326
90	0x3e9b280a	0.30303985
91	0xbf6262cf	-0.8843202
92	0x3ef35915	0.47528902
93	0xbf867d29	-1.0506946
94	0x3e4ab3b2	0.19795111
95	0x3e9f9f39	0.31176165
96	0x3f853efb	1.0409845
97	0x3deb73c8	0.11496693
98	0xbee1cbf2	-0.4410091
99	0xbe9b7f8c	-0.30370748
100	0xbea8079a	-0.328183
101	0x3f31c156	0.6943563
102	0xbe4a7867	-0.19772492
103	0x3ed6b520	0.41935062
104	0xbc6a2631	-0.014291332
105	0x3f2f1900	0.6839752
106	0xbe3abf25	-0.18236978
107	0x3e5a1542	0.21297172
108	0x3fb4c27a	1.412185
109	0x3f60c704	0.87803674
110	0x3cfe1001	0.03101349
111	0x3ead4ef1	0.3384929
112	0x3f66b678	0.90122175
113	0x3f3d4c63	0.7394468
114	0xbf06be35	-0.5263398
115	0xbec31823	-0.38104352
116	0x3d952227	0.07281905
117	0x3e57b6e2	0.21065858
118	0x3f93f296	1.1558406
119	0xbf810521	-1.007969
120	0x3eed3270	0.46327543
121	0xbeae0ef6	-0.3399579
122	0x3ea44e55	0.32091013
123	0xbe8f8a8b	-0.28035387
124	0xbef1fa41	-0.4726124
125	0xbf89daed	-1.0769936
126	0xbf813eb2	-1.0097258
127	0x3e99207d	0.299076
128	0x3cfaa08a	0.03059413
129	0x3ee4a85e	0.44659704
130	0xbf97bc6b	-1.1854376
131	0x3e41cffe	0.18926999
132	0x3e9c19ad	0.3048834
133	0xbeddd0b4	-0.4332329
134	0x3ee1a77e	0.440731
135	0xbee50d90	-0.4473691
136	0xbeeaea5b	-0.45881924
137	0x3e93ed81	0.2889214
138	0x3eee19f8	0.46504188
139	0xbf14c0c2	-0.58106625
140	0xbc97cda1	-0.018530669
141	0xbe873076	-0.2640416
142	0xbf2f901d	-0.68579274
143	0x3f313234	0.6921723
144	0x3f1c34bb	0.6101796
145	0x3eeaf002	0.45886236
146	0xbef1af6d	-0.47204152
147	0x3f05db75	0.5228799
148	0x3f79d7f2	0.9759513
149	0x3fd25370	1.6431713
150	0xbf16c373	-0.5889198
151	0xbe65f8df	-0.22458218
152	0xbe9e6b92	-0.30941445
153	0xbeffe903	-0.4998246
154	0x3f6c1e25	0.92233497
155	0xbf39c2eb	-0.72563046
156	0x3f14465b	0.57919854
157	0x3ee956b8	0.45573974
158	0x3e1d5095	0.15362771
159	0x3f47356e	0.778159
160	0xbeda2da6	-0.42612952
161	0xbf18062c	-0.5938442
162	0xbf3d38c4	-0.7391474
163	0xbe4603ce	-0.19337389
164	0xbddeefeb	-0.108856045
165	0x3f0a5899	0.5404144
166	0xbf00a951	-0.50258356
167	0xbf2495a4	-0.64290833
168	0x3eb89a30	0.36055136
169	0x3ea755f8	0.32682776
170	0xbdcb888a	-0.09938152
171	0x3f6417aa	0.8909861
172	0x3f7acd9f	0.9797
173	0x3d7bc5a3	0.061467778
174	0xbf53021f	-0.8242511
175	0x3e82e2db	0.25563702
176	0xbf1f308e	-0.62183464
177	0xbf5e8640	-0.869236
178	0xbf4e90c2	-0.8068963
179	0xbf6960fd	-0.9116362
180	0x3eec454a	0.46146613
181	0x3ed40cc3	0.41415986
182	0xbd010026	-0.031494282
183	0xbeb185b9	-0.34672335
184	0x3e131025	0.14361627
185	0x3f93276d	1.1496407
186	0x3f127367	0.5720734
187	0xbebbc001	-0.36669925
188	0x3f5da300	0.86576843
189	0xbecef8ed	-0.4042429
190	0x3f28aaf9	0.65885884
191	0x3f1e4532	0.61824334
192	0x3f744ec5	0.9543269
193	0x3dc25cd8	0.09490365
194	0xbdeab16d	-0.114596225
195	0xbf20a437	-0.6275057
196	0xc00b420c	-2.1759062
197	0xbf8d53e7	-1.104123
198	0xbf8f1df8	-1.1181021
199	0x3eb7da83	0.359089
200	0xbf3d29d6	-0.7389196
201	0x3f03231d	0.51225454
202	0x3f6b56d9	0.91929394
203	0x3f453c14	0.77044797
204	0x3e0a0b73	0.1348093
205	0x3fb708f0	1.4299603
206	0xbe99bf52	-0.30028778
207	0xbec73db9	-0.38914278
208	0x3f00fcba	0.5038563
209	0x3ebe8a69	0.37214974
210	0x3eb5ca97	0.35506126
211	0xbf2e16ce	-0.6800355
212	0xbf02abdf	-0.51043504
213	0x3f158c87	0.5841755
214	0x3b90fdef	0.0044248025
215	0xbe1795cb	-0.14803235
216	0xbf08c0f6	-0.53419435
217	0x3d872503	0.06598856
218	0x3eafde75	0.3434941
219	0xbf79bff8	-0.97558546
220	0x3ed4477d	0.4146079
221	0x3f634be9	0.88787705
222	0x3f07e8fc	0.5308988
223	0x3f4558c6	0.7708858
224	0x3eb5b127	0.3548672
225	0x3f96a245	1.1768271
226	0xbf32966d	-0.6976078
227	0x3f178932	0.5919372
228	0xbecac6ef	-0.396049
229	0x3f19e0ce	0.6010865
230	0x3fbada57	1.4597882
231	0x3ebc4741	0.36773112
232	0x3eec6cd3	0.46176776
233	0xbed93227	-0.42421076
234	0x3e93ca59	0.28865317
235	0xbf910e43	-1.1332477
236	0x3e86260a	0.26200897
237	0x3d3205b9	0.04346249
238	0x3f4fc2d9	0.8115669
239	0x3ec4559d	0.38346568
240	0xbd443810	-0.047905028
241	0xbeb1ce4d	-0.34727708
242	0xbf98881a	-1.1916535
243	0xbe9c794b	-0.3056129
244	0x3ea0d452	0.31411988
245	0x3f26fada	0.6522652
246	0x3ea01060	0.31262493
247	0x3f5d22e4	0.86381364
248	0x3eb99d2e	0.3625273
249	0xbf2f3d0b	-0.6845252
250	0x3ddebf0f	0.10876285
251	0xbf073ad9	-0.5282417
252	0xbf3b1840	-0.7308388
253	0xbf063426	-0.5242332
254	0xbf0f31ce	-0.5593537
255	0x3ed80058	0.42187762

pi.logits_net.4.bias f4 [87]
0	0x3f04eec2	0.51926816
1	0x3e323975	0.1740473
2	0x3ef551ed	0.47914067
3	0x3ede4f01	0.4341965
4	0x3e506f19	0.2035488
5	0x3e91e26e	0.28493065
6	0x3f008f76	0.50218904
7	0x3f23a5f6	0.6392511
8	0x3ed934cf	0.42423102
9	0x3efad92f	0.48993823
10	0x3db0c0bc	0.08630511
11	0x3ed94a28	0.4243939
12	0x3ee49ce6	0.44650954
13	0x3f1c25ee	0.60995376
14	0x3f058384	0.521538
15	0x3f2480c2	0.6425897
16	0x3ed3a5e1	0.41337493
17	0x3ecf2e0c	0.40464818
18	0x3e8f390f	0.2797322
19	0x3eed455a	0.46341974
20	0x3f159dee	0.58444107
21	0x3eccdc16	0.40011662
22	0x3ee42682	0.4456063
23	0x3eaf7549	0.3426917
24	0x3f041e99	0.5160919
25	0x3f0851cf	0.5324983
26	0x3ea27497	0.31729576
27	0x3e871e3b	0.26390252
28	0x3f05dd09	0.522904
29	0x3f0b5374	0.54424214
30	0x3d8123b6	0.063056394
31	0x3f16bda0	0.58883095
32	0x3dc92bde	0.0982282
33	0x3eaacc4e	0.33358997
34	0x3efd1745	0.49431816
35	0x3e9015bc	0.28141582
36	0x3f1fd35a	0.6243187
37	0x3f189908	0.5960851
38	0x3ee3d092	0.44495064
39	0x3d85c9ed	0.06532655
40	0x3e9a0b4e	0.3008675
41	0x3ee544ea	0.4477914
42	0x3ea6297f	0.32453534
43	0x3f112abe	0.56705844
44	0x3ea7905b	0.32727322
45	0x3f00857c	0.5020368
46	0x3ebd5198	0.36976314
47	0x3e9f442d	0.31106701
48	0x3e619bff	0.22032164
49	0x3f30ab18	0.6901107
50	0x3eebea56	0.46077222
51	0x3e95d35a	0.2926281
52	0x3eab7813	0.33490047
53	0x3f0141f0	0.5049124
54	0x3e931644	0.28727925
55	0x3ea07085	0.31335846
56	0x3f2af75b	0.66783684
57	0x3e5980aa	0.21240488
58	0x3e9a679f	0.30157182
59	0x3ed55553	0.4166666
60	0x3f5402d2	0.82816803
61	0x3f2bbc69	0.67084366
62	0x3ea0914e	0.3136086
63	0x3e60205b	0.21887343
64	0x3f0ece1b	0.5578324
65	0x3f05548d	0.5208214
66	0x3ef0ec20	0.4705515
67	0x3f308a82	0.68961346
68	0x3e85d1a2	0.261365
69	0x3d96448d	0.07337294
70	0x3e600c90	0.21879792
71	0x3ec59842	0.38592726
72	0x3eda116d	0.4259142
73	0x3f04e413	0.51910514
74	0x3f0cd7b2	0.55016625
75	0x3ebd5e66	0.36986083
76	0x3e9b5255	0.30336252
77	0x3f0961e7	0.5366501
78	0x3f23994f	0.63905805
79	0x3ee9a99b	0.4563721
80	0x3e0e6f73	0.13909702
81	0x3ef2527f	0.47328565
82	0x3e7dcb08	0.24784482
83	0x3f021127	0.5080742
84	0x3ed45863	0.41473684
85	0x3eeb258c	0.45927083
86	0x3eab3422	0.33438212

v.v_net.0.weight f4 [64, 282]
0	0xbee3df05	-0.44506088
1	0xbea3fe31	-0.3202987
2	0x3f01a2ac	0.5063884
3	0xbe976f00	-0.29576874
4	0xbf137839	-0.5760532
5	0xbeb039b9	-0.3441904
6	0x3f67d5f7	0.9056086
7	0x3f6ddd19	0.92915493
8	0x3f0732a7	0.52811664
9	0xbea11e4c	-0.31468427
10	0xbf121bfc	-0.5707395
11	0xbec3a37d	-0.3821067
12	0xbedeb783	-0.43499383
13	0x3f04f4e9	0.51936203
14	0xbec95d83	-0.39329156
15	0xbeb30a89	-0.34968975
16	0xbeba6dd1	-0.36411908
17	0xbf12e9db	-0.57388085
18	0xbf171fed	-0.5903309
19	0xbe883e5f	-0.26610085
20	0xbef3f4b1	-0.47647622
21	0x3f6674ad	0.90021783
22	0x3f4eb4b5	0.8074449
23	0xbebc1273	-0.36732826
24	0x3f467949	0.77528816
25	0x3efb88ff	0.49127957
26	0xbe948b37	-0.29012462
27	0xbe73b109	-0.23798002
28	0x3f5cd7d5	0.86266834
29	0xbeee9bc7	-0.46603224
30	0xbeae975d	-0.34099856
31	0x3ed8511a	0.42249376
32	0xbeaae5dd	-0.33378497
33	0xbea13682	-0.314869
34	0xbea50665	-0.3223144
35	0x3f55a0bf	0.83448404
36	0x3f69962d	0.91244775
37	0x3f0892dd	0.53349096
38	0xbf0f10cf	-0.5588502
39	0x3ee4693f	0.44611546
40	0x3ee0ff04	0.4394456
41	0xbf173f81	-0.59081274
42	0x3f02d11b	0.5110032
43	0x3f0501b1	0.51955706
44	0x3f5ca03d	0.86182004
45	0x3f003e5b	0.50095147
46	0xbf121e77	-0.57077736
47	0xbf1276e9	-0.5721269
48	0xbf210363	-0.6289579
49	0x3f6796fd	0.90464765
50	0xbe823a5b	-0.25435147
51	0xbece18ff	-0.40253446
52	0xbf13ab79	-0.5768352
53	0x3f086af7	0.53288215
54	0xbeb37ecd	-0.3505768
55	0xbf089154	-0.53346753
56	0xbeafa5f7	-0.3430631
57	0xbe838f08	-0.25695062
58	0x3ef96be6	0.48715132
59	0xbe6ae68d	-0.2293951
60	0xbe996967	-0.29963228
61	0x3ef5c01a	0.47998124
62	0x3f69d6b3	0.9134323
63	0xbf2eab21	-0.6822987
64	0xbea24ecf	-0.3170075
65	0x3f02933d	0.5100592
66	0x3ecb0370	0.3965106
67	0xbf1d07d9	-0.613401
68	0x3ed05462	0.4068938
69	0xbec26cfd	-0.37973776
70	0xbe9864d5	-0.2976443
71	0x3f577f87	0.84178966
72	0x3edebc43	0.43503007
73	0x3eaadd3c	0.33371913
74	0xbf1117e0	-0.56677055
75	0x3f6df8cd	0.92957765
76	0xbeca42d3	-0.39504108
77	0x3f6da0db	0.9282357
78	0xbe9928df	-0.29913995
79	0x3ef92698	0.48662257
80	0xbf263331	-0.6492186
81	0xbf243c7f	-0.6415481
82	0x3f57b095	0.8425382
83	0xbe5e806f	-0.21728681
84	0x3ed7898c	0.42097127
85	0xbedcf15d	-0.43152896
86	0xbf1f46c1	-0.62217337
87	0xbfbb1f55	-1.4618937
88	0xbfc1cf99	-1.5141479
89	0xbf387a35	-0.72061473
90	0xbeb9da99	-0.3629959
91	0xbe8237f5	-0.25433317
92	0xbf34041a	-0.7031876
93	0xbedc09d4	-0.42976248
94	0x3f0ba3eb	0.54546994
95	0xbf1bc69a	-0.60849917
96	0xbfbf7da3	-1.4960216
97	0xc031b866	-2.7768798
98	0x3fbed5e4	1.4909024
99	0x3e7ae27d	0.24500461
100	0xbf9884bd	-1.1915509
101	0xbf68d26b	-0.9094607
102	0xbe24043b	-0.16017239
103	0xbf789161	-0.9709683
104	0x407dccd1	3.965626
105	0xbfa9ae76	-1.3256366
106	0xbf7f81be	-0.99807346
107	0x3e0a97be	0.13534448
108	0xbe4a226a	-0.1973969
109	0x3f6436a1	0.8914586
110	0x400bba66	2.1832519
111	0xbf9fdb18	-1.2488737
112	0xbf27d89b	-0.6556489
113	0xc0a221d2	-5.0666285
114	0xbf005ea1	-0.5014439
115	0xbe3850a6	-0.17999515
116	0xc013885b	-2.3051975
117	0xbe6abf29	-0.22924484
118	0xbef8c836	-0.4859025
119	0x3f437e23	0.76364344
120	0x3efa7f39	0.48925188
121	0xbff340e4	-1.9004178
122	0xbfb4f606	-1.413758
123	0xbf0dca91	-0.55387217
124	0xbf90a688	-1.1300821
125	0x3f1158ec	0.5677631
126	0xbf54dee7	-0.8315262
127	0x3e34401d	0.17602582
128	0xc01d71b2	-2.4600644
129	0xbb9f5bff	-0.0048632617
130	0xbe9086ef	-0.28227946
131	0xbe37f7ef	-0.17965673
132	0x3d11cf57	0.035598125
133	0xbf18bc83	-0.59662646
134	0xc03c6ef7	-2.9442728
135	0xc05edbf6	-3.4821754
136	0xbf02424c	-0.5088241
137	0xc0095359	-2.1457121
138	0xbf697b36	-0.9120363
139	0xc023bc4f	-2.5583684
140	0xc0064af9	-2.098326
141	0x3f970dec	1.1801124
142	0xbfa71a98	-1.3054991
143	0xbf86aa01	-1.0520631
144	0xbf7b4216	-0.98147714
145	0xbee3eb44	-0.4451543
146	0xbed1fbed	-0.41012517
147	0xbfcd738e	-1.605089
148	0xc02f4c11	-2.7390177
149	0x3f06e337	0.5269045
150	0xbf25d9ad	-0.6478527
151	0xc044284d	-3.0649598
152	0xbefe7685	-0.49699798
153	0xbfc69ad4	-1.5516
154	0xbf43d1e3	-0.76492137
155	0x40199d48	2.4002247
156	0xbf896809	-1.0734874
157	0xbfb0fa08	-1.3826303
158	0xbbcc8163	-0.00624101
159	0x3f65972e	0.89683807
160	0x400c1dfa	2.1893296
161	0x3ea4fa5e	0.32222265
162	0xbf52b94d	-0.82313997
163	0xbfcf4118	-1.619174
164	0xbf3138af	-0.6922712
165	0x3ea106c6	0.3145048
166	0xbecec2a5	-0.40382877
167	0xc0438d27	-3.0554903
168	0xbefba5ba	-0.49149877
169	0x3f999699	1.1999084
170	0xbf3f6ae4	-0.7477248
171	0xbf8e3ab6	-1.1111667
172	0xc0230ad0	-2.547535
173	0xc016143f	-2.3449857
174	0xc0147ab5	-2.3199894
175	0x40015f95	2.0214589
176	0xbfc4e84a	-1.5383389
177	0xbfd45b59	-1.6590377
178	0x3f0e7312	0.55644333
179	0x40171a5f	2.3609846
180	0xbf2f5d19	-0.6850143
181	0x3fb1dc12	1.3895285
182	0xc0917795	-4.5458474
183	0xbf566de2	-0.8376142
184	0x3f51cf0f	0.8195657
185	0xc009ebd2	-2.1550183
186	0x40704d93	3.7547348
187	0xc01d48c6	-2.4575667
188	0x3f63de2c	0.8901088
189	0xbf065128	-0.52467585
190	0x3be150c4	0.006876083
191	0xbf2fa0e3	-0.6860487
192	0xbf9caaca	-1.2239621
193	0xbe965d54	-0.2936808
194	0xbf5a8208	-0.8535466
195	0xbfaaa9ec	-1.3333106
196	0x3c3997d7	0.011327705
197	0xc063c576	-3.558927
198	0xbf0a2512	-0.53962815
199	0xbf6d5142	-0.92702115
200	0xbfb526ca	-1.4152462
201	0x3e0b3981	0.13596155
202	0xc03b7096	-2.9287467
203	0x3ec81dce	0.3908524
204	0xbf1371d2	-0.5759555
205	0xbf2407bd	-0.6407431
206	0x3f81b3fc	1.0133052
207	0x3fa2d398	1.2720823
208	0x405e9971	3.4781153
209	0xbee51cb2	-0.44748455
210	0xbf851619	-1.0397369
211	0x40062c7c	2.096465
212	0x3f61b9f7	0.88174385
213	0x4023c72c	2.5590315
214	0xbea0fd6e	-0.31443352
215	0xbf3717b5	-0.7152055
216	0x3eb5d1e3	0.35511693
217	0xbff12b20	-1.8841286
218	0x401f8c47	2.4929368
219	0xbfa7d715	-1.3112513
220	0xbeee3a4b	-0.4652885
221	0xc03aa455	-2.91628
222	0xbeff152e	-0.49820846
223	0x3fb0a3af	1.3799952
224	0xbdcc28b7	-0.09968703
225	0xbfc3eebe	-1.5307233
226	0x404f5760	3.239708
227	0xbfb6d1f4	-1.4282823
228	0x3f5c00bb	0.85938615
229	0xbfa6b385	-1.3023535
230	0xbf1e6e0e	-0.6188668
231	0xbfd8292f	-1.6887568
232	0x3fa6d9c6	1.3035209
233	0x3fa19d9a	1.2626221
234	0xbebe54d5	-0.37174097
235	0x3f54cbd9	0.83123547
236	0xbd57683f	-0.05258965
237	0x3dc44642	0.09583713
238	0xc0294137	-2.6446054
239	0xbf223ac8	-0.63370943
240	0x40a3bed7	5.117046
241	0xc07773b8	-3.866438
242	0xbe09df9f	-0.13464211
243	0xbf8ba23a	-1.0908883
244	0xbf9a6bf7	-1.2064198
245	0xbefa28ce	-0.48859257
246	0x3ef83262	0.4847594
247	0xbf2ecd01	-0.6828156
248	0xc00d3ff3	-2.2070282
249	0xbfc38674	-1.5275407
250	0xbee04717	-0.43804237
251	0x3fefaa57	1.8723859
252	0xc010c019	-2.2617247
253	0xbf83c46a	-1.0294316
254	0x3f77ca72	0.9679328
255	0x3f1feed0	0.62473774

v.v_net.0.bias f4 [64]
0	0xc06a29cd	-3.6588013
1	0x3f75984a	0.959355
2	0xbfcf4f18	-1.6196012
3	0xbf4379af	-0.7635755
4	0xc07db623	-3.9642417
5	0xbfe5a83a	-1.7941964
6	0x3fc9b430	1.5758114
7	0xbdd3e92c	-0.103472084
8	0xbff36500	-1.9015198
9	0xbf885a47	-1.065255
10	0xbf495ba3	-0.7865545
11	0xbf1e31c0	-0.6179466
12	0x40331330	2.798046
13	0xbf523f24	-0.82127595
14	0xbfbeecb5	-1.4915987
15	0x3da1020e	0.0786172
16	0xc0136a05	-2.303346
17	0x3ff44fe5	1.9086882
18	0x3e307dd3	0.17235498
19	0xc04a91de	-3.165153
20	0x4070bc64	3.7614985
21	0x3f8f0a2b	1.1174978
22	0x3fb1b91a	1.3884614
23	0xbf9859d8	-1.1902418
24	0x3f897f6e	1.0742013
25	0xbf72261b	-0.94589394
26	0x3dd3d2d7	0.10342949
27	0x3ed5b51f	0.41739747
28	0x3fa330f1	1.2749311
29	0x3fa308c6	1.2737052
30	0x4059fb04	3.4059458
31	0x3f571c7d	0.84027845
32	0xc01fa403	-2.4943855
33	0x3fa83174	1.3140092
34	0xbb387927	-0.0028148384
35	0xbf8a3ae9	-1.0799228
36	0xbd704a31	-0.058664504
37	0xc016074a	-2.344195
38	0xc0015fc4	-2.02147
39	0x402849a9	2.6294959
40	0xbf906b1a	-1.1282685
41	0x3ff21a68	1.8914309
42	0xbfa7c5e0	-1.3107262
43	0xbff56c5c	-1.9173694
44	0xc01fc9f5	-2.4967015
45	0xc03a962f	-2.9154165
46	0x3eead678	0.45866752
47	0x3f200976	0.62514436
48	0xc029d15d	-2.6534035
49	0x3fb21936	1.3913944
50	0x400724e5	2.1116269
51	0xbfc2d208	-1.5220346
52	0x3ea74884	0.32672513
53	0xbfc3663c	-1.5265574
54	0xbf504425	-0.8135398
55	0xc089917b	-4.299009
56	0x3f3e1a04	0.74258447
57	0x3fc1ed87	1.5150613
58	0xbde06852	-0.109573975
59	0xbf28ee42	-0.6598855
60	0x3f4e3e72	0.80564034
61	0xbf6b0679	-0.9180675
62	0xbfa748cf	-1.3069094
63	0x40322ffb	2.7841785

v.v_net.2.weight f4 [64, 64]
0	0x401002b2	2.2501645
1	0xbfd771f9	-1.6831657
2	0x400f8355	2.2423909
3	0xc02a0cd2	-2.6570325
4	0x3f7ec387	0.995171
5	0xbf9f5bd5	-1.24499
6	0xc0f5833e	-7.672271
7	0x3fbb0afe	1.461273
8	0xbfee1a34	-1.8601747
9	0x3ffca698	1.973834
10	0xbfd94dae	-1.6976831
11	0x3fd3ad33	1.6537231
12	0x3fea5b52	1.8309119
13	0x404016b2	3.0013852
14	0xbfe98cae	-1.8246057
15	0xc0aab766	-5.3348875
16	0x4057f77e	3.3744807
17	0x3f1d7b4d	0.6151627
18	0x40417ef0	3.0233727
19	0x403d215f	2.9551618
20	0xc0ea105e	-7.314498
21	0xc0a534b6	-5.1626844
22	0xbf360f90	-0.71117496
23	0xc000cea1	-2.0126116
24	0x3efb9cce	0.4914307
25	0x405da9bc	3.4634848
26	0xc028be18	-2.6366024
27	0x3fa13580	1.2594452
28	0xbf750f1a	-0.9572617
29	0xc0a9084c	-5.282263
30	0xc0fe2e6a	-7.943166
31	0xc030da0d	-2.7633088
32	0xbfefe157	-1.8740643
33	0x408e068c	4.438299
34	0x400e4405	2.2229016
35	0x3ffb3690	1.9626026
36	0xc066fbf3	-3.6091278
37	0xbfd78911	-1.6838704
38	0x3f694f3c	0.9113653
39	0x3fd9cdc3	1.7015918
40	0x3ecb3e58	0.39696002
41	0x40820067	4.062549
42	0xbf0ca587	-0.54940075
43	0xbfa4773d	-1.2848889
44	0x4025521c	2.5831366
45	0x4054fa19	3.3277647
46	0x404b65b1	3.1780818
47	0x408a2ce3	4.3179793
48	0x3fc7d402	1.5611575
49	0xc063ec4e	-3.561298
50	0xbf9ce2fe	-1.2256773
51	0xbe51a673	-0.20473652
52	0xbf7a8504	-0.97859216
53	0xbfb9843c	-1.449348
54	0x3f2443d4	0.64166
55	0x3f9ec173	1.2402786
56	0xbd10a425	-0.03531279
57	0xbef427d8	-0.47686648
58	0x3f9fc055	1.248057
59	0x3faa28e8	1.3293734
60	0xbfb8819c	-1.4414554
61	0x3f7f42d2	0.99711335
62	0xbfd7e675	-1.6867205
63	0xc1085506	-8.520758
64	0x404fb476	3.2453895
65	0xc00298bb	-2.040572
66	0x40a18365	5.0472894
67	0x3e968dd4	0.2940508
68	0xbfd08b63	-1.6292537
69	0x3f7ce481	0.9878617
70	0x3ff7b19c	1.9351077
71	0xc0612b59	-3.5182707
72	0x40a0eb98	5.028759
73	0xbe2b8d1a	-0.16753045
74	0x3fc83c0e	1.5643327
75	0xc01f5ff2	-2.490231
76	0x3fa80763	1.3127254
77	0x3f9330be	1.149925
78	0xc0327916	-2.7886405
79	0x403edd72	2.982266
80	0x3f89b7ed	1.0759255
81	0x3f7f4ffa	0.9973141
82	0x3e9eec72	0.31039768
83	0x40b874c3	5.764253
84	0xbfc14d4d	-1.5101715
85	0x403b805e	2.92971
86	0x40b77343	5.73282
87	0x40044e06	2.0672622
88	0xc08aec9a	-4.341382
89	0x3fdef526	1.7418563
90	0x3f27512f	0.6535825
91	0xbfa9ba76	-1.3260028
92	0xc0abccfe	-5.3687735
93	0xc022fce1	-2.5466845
94	0x40109fd1	2.2597544
95	0x3eb2a8b5	0.34894338
96	0x3f77d664	0.9681151
97	0xc07a2e0f	-3.9090612
98	0xbf87ce53	-1.060984
99	0x404ffdd9	3.2498686
100	0x3e23102a	0.15924135
101	0x3ff5cdbd	1.9203411
102	0xbf805e8f	-1.0028857
103	0x3fa4326f	1.2827891
104	0x400b90f6	2.1807227
105	0x405f9f5f	3.4941022
106	0x3f0c4278	0.54788923
107	0x404b4536	3.1760993
108	0x407fb570	3.995449
109	0xbe6e8791	-0.23293902
110	0x403c0c13	2.938237
111	0x406e9f28	3.7284641
112	0x4050f92c	3.2652082
113	0xbf44ce07	-0.7687687
114	0xc0506f82	-3.256806
115	0x402502d7	2.5782983
116	0xc010b3d8	-2.2609768
117	0x405759a0	3.3648453
118	0xbf9aba25	-1.2088057
119	0x3eea523c	0.45765865
120	0xc02c6750	-2.6938057
121	0xc0626e92	-3.5379987
122	0xbfecb691	-1.8493215
123	0xc06e7746	-3.7260299
124	0x3ff34439	1.9005195
125	0xbe60a823	-0.21939139
126	0x409cec3a	4.9038363
127	0x3fcc1b89	1.5945903
128	0xbf3f331c	-0.7468736
129	0x3f05545a	0.52081835
130	0x40920206	4.562747
131	0xc00c729c	-2.1944952
132	0x3eab8928	0.3350308
133	0x3d9755f9	0.07389445
134	0x3fd4df5d	1.6630665
135	0x3e875936	0.2643525
136	0x3e94bfd9	0.29052618
137	0xbf50c8c1	-0.81556326
138	0xbfd14b56	-1.6351116
139	0xbf778b79	-0.96697193
140	0xbe65a0fe	-0.22424695
141	0xbe871db4	-0.2638985
142	0xbf0ae5f5	-0.54257137
143	0xbf791c1f	-0.97308534
144	0x401e929c	2.4776983
145	0xbf99cf6c	-1.2016425
146	0x3f5415dc	0.82845855
147	0xbfc77654	-1.5582986
148	0xbef31bc4	-0.4748212
149	0xbfff9ab5	-1.9969088
150	0xbb278cab	-0.0025566022
151	0x4048f61a	3.1400208
152	0x3f5d76e0	0.86509514
153	0x3f6247c1	0.8839074
154	0xc097474a	-4.7274523
155	0xbf6b9fe9	-0.9204088
156	0xbdfa7c97	-0.12230795
157	0x3cc9e7ed	0.024646724
158	0x3f838d3e	1.0277479
159	0xbdc89fae	-0.097960815
160	0xc04099f1	-3.0093958
161	0x400ec2c3	2.2306373
162	0x3e4e7c23	0.20164542
163	0xbf8c2479	-1.094863
164	0xc02fd4e5	-2.747369
165	0x3ced2137	0.028946502
166	0xbe88db6a	-0.267299
167	0x3ebf7fc9	0.3740218
168	0xc0239c6a	-2.5564218
169	0x3fde38a3	1.7361034
170	0xbfa95d54	-1.3231606
171	0x3fd5e8bd	1.6711651
172	0x401d4930	2.457592
173	0xbe43ccdc	-0.19121116
174	0xbd8f5eda	-0.070005134
175	0xc034955e	-2.8216166
176	0x3fc15d7e	1.5106657
177	0xbf9abdac	-1.2089133
178	0xbfd7075c	-1.6799121
179	0xbf4bfd9a	-0.7968384
180	0xbfb20cb0	-1.3910122
181	0xbef3a7df	-0.47589013
182	0xc051cf4e	-3.2782779
183	0xc0206ea4	-2.506753
184	0xc023e225	-2.5606778
185	0x3d0fad08	0.035077125
186	0xbebbaad4	-0.3665377
187	0x3f31b923	0.6942312
188	0x3e77b676	0.24190697
189	0xc020a081	-2.5097964
190	0x3e5093e0	0.2036891
191	0x4039f7a1	2.905739
192	0xbd0776ec	-0.033072397
193	0x409db0d4	4.9278355
194	0x4014da9f	2.3258436
195	0xbefa017d	-0.4882926
196	0x3d8c7fc8	0.0686031
197	0x3f9c85ef	1.2228373
198	0x4014990e	2.3218417
199	0xbd005623	-0.031332146
200	0xbe6d4b6e	-0.23173305
201	0xbee1766c	-0.4403566
202	0xba664a7e	-0.0008784904
203	0x3f0a15a8	0.53939295
204	0xc019ef93	-2.4052474
205	0x3fdcd8e1	1.7253686
206	0xc02ce0f0	-2.701229
207	0xc0a917c4	-5.284151
208	0xbf8de3c5	-1.1085135
209	0x3f2c8c46	0.6740154
210	0x3f8e8bb7	1.1136388
211	0x4030d984	2.763276
212	0x3fa82f16	1.313937
213	0x3f076e0b	0.5290229
214	0x3f23af6a	0.63939536
215	0xbe917cba	-0.2841547
216	0xbfb974d2	-1.4488776
217	0xbec73326	-0.3890621
218	0xc01079f3	-2.2574432
219	0x3e611662	0.21981195
220	0x3f87c071	1.0605603
221	0x3ec829b2	0.3909431
222	0xc090ae38	-4.521267
223	0xc02b0d88	-2.672701
224	0x4022c0d1	2.5430186
225	0xc04e35ff	-3.2220457
226	0xbf63c35a	-0.8896996
227	0x40ed1f31	7.4100575
228	0x40092dae	2.143413
229	0xbf83a032	-1.0283263
230	0x3f0666d7	0.5250067
231	0x3fb19d34	1.38761
232	0x3ffa1e1f	1.9540442
233	0x4057f224	3.374154
234	0x408474f9	4.139279
235	0x3f817606	1.0114143
236	0x3fecd880	1.850357
237	0x3e93daa4	0.28877747
238	0x3fa90c4f	1.3206881
239	0x40485262	3.1300282
240	0xbfadf93e	-1.3591688
241	0xc045894d	-3.0865052
242	0xbf4c9224	-0.7991049
243	0x3fd2d9bd	1.6472698
244	0x3e8df39a	0.27724916
245	0x40e43e25	7.132586
246	0x3f96decb	1.1786741
247	0x3e3f103d	0.18658538
248	0x3f9ff38e	1.2496202
249	0xc055a59f	-3.3382337
250	0x3f1cc44a	0.61237013
251	0x3f1ac6dd	0.6045969
252	0xbfb9c69c	-1.4513736
253	0x3f364845	0.71204025
254	0x41128559	9.157556
255	0xc042b058	-3.0420132

v.v_net.2.bias f4 [64]
0	0xbed03f45	-0.4067327
1	0xbf496280	-0.78665924
2	0x3e8dbb46	0.2768194
3	0xbceb57d1	-0.028728398
4	0x3f3d1358	0.7385764
5	0xbfa984b1	-1.3243619
6	0xbf1abe5b	-0.6044671
7	0xbf2f1e83	-0.6840593
8	0xbef8805c	-0.4853543
9	0xbdfb5f07	-0.122739844
10	0x3f2c2e06	0.67257726
11	0xbfc1d07b	-1.5141748
12	0xbfae2c34	-1.360724
13	0xbfa331a8	-1.2749529
14	0x3f127cbb	0.57221574
15	0x3ed2224d	0.41041794
16	0x3f26faa3	0.6522619
17	0x3f81947c	1.0123439
18	0xbe98833e	-0.2978763
19	0x3fd1f6dc	1.640346
20	0xbe6a9295	-0.22907479
21	0xbf5c2158	-0.8598838
22	0xbf660760	-0.89855003
23	0xbf0adb27	-0.5424065
24	0xbf578b40	-0.84196854
25	0x3f8fad85	1.1224829
26	0x3f220433	0.6328766
27	0x3fa8877d	1.3166348
28	0xbea924ec	-0.33035982
29	0xbf9220eb	-1.1416296
30	0x3f4f2410	0.809144
31	0x3f68c3ae	0.90923584
32	0xbf39e353	-0.72612494
33	0xbe8063f0	-0.25076246
34	0x3f411175	0.7541726
35	0xbf6eb8ea	-0.93250906
36	0x3f0145b0	0.5049696
37	0x3f3e108f	0.74244016
38	0xbff46793	-1.9094108
39	0x3f311cd0	0.6918459
40	0x3ecf370a	0.4047168
41	0xbed0fa4e	-0.40815967
42	0xbf0a5aa0	-0.5404453
43	0xbe2b612f	-0.16736291
44	0x3bff6f86	0.007795277
45	0x3ef62321	0.48073676
46	0xbfbbb9d6	-1.4666088
47	0xbf83f921	-1.0310403
48	0xbd962ba3	-0.07332542
49	0xbfbae55d	-1.4601246
50	0x3f35c20e	0.7099923
51	0x3efaa39c	0.4895295
52	0x40101b08	2.2516499
53	0x3ec798cb	0.3898376
54	0xbea9bac5	-0.33150306
55	0x4009b282	2.1515203
56	0xbf63d5e9	-0.88998276
57	0x3fdbb135	1.7163454
58	0x3f0d47ea	0.5518786
59	0x3eaf1b37	0.3420045
60	0xbf918156	-1.1367595
61	0x3de7e970	0.113238215
62	0xbfa9fdff	-1.3280638
63	0x3f3e5cf3	0.7436058

v.v_net.4.weight f4 [1, 64]
0	0x40982e27	4.755634
1	0xc061b63b	-3.5267475
2	0xc12dafe7	-10.855445
3	0x41105117	9.019797
4	0x4007ce22	2.1219563
5	0xc11630ab	-9.386882
6	0xc0b830cf	-5.755958
7	0xc106f075	-8.433705
8	0xc0d7083f	-6.7197566
9	0xc10394a4	-8.223789
10	0x40b955f5	5.791743
11	0x4029b094	2.6514025
12	0x40d83c74	6.7573795
13	0x40a1647b	5.0435157
14	0xc08ee3f2	-4.4653254
15	0xc09ae4b1	-4.8404164
16	0x40e56497	7.168529
17	0xc0778aca	-3.867846
18	0xc0a1f187	-5.0607333
19	0x41e3f156	28.49284
20	0x40a72524	5.223284
21	0x40bbbd39	5.8668485
22	0x407cafdd	3.9482338
23	0xc089774b	-4.295812
24	0x410221f5	8.13329
25	0xc0313eb6	-2.7694526
26	0xc09f7838	-4.983425
27	0xc09ba32e	-4.8636694
28	0x40b36f93	5.60737
29	0xc10ae152	-8.68001
30	0xc0b0ccff	-5.525024
31	0x4073d14a	3.809649
32	0xc113cf10	-9.238052
33	0xc0c8b9bd	-6.272673
34	0xc09c4d73	-4.8844543
35	0x4082dbc3	4.0893264
36	0xc0a573b2	-5.170373
37	0x40be7f14	5.9530125
38	0xc11bcb11	-9.737077
39	0x40bec04c	5.9609737
40	0x4093fff8	4.624996
41	0xc070db35	-3.7633793
42	0xc10e0b2d	-8.877728
43	0xc0abdb0c	-5.370489
44	0x40ae0d00	5.439087
45	0x40d40dc7	6.626682
46	0xc1038df0	-8.222153
47	0xc1104553	-9.016925
48	0x4073f7fc	3.8120108
49	0xc0ad19b0	-5.4093857
50	0x411b98c4	9.724796
51	0xc08f8921	-4.4854894
52	0x4109bbfb	8.608394
53	0xc093b761	-4.616135
54	0xc10a58df	-8.646697
55	0x40c3ed88	6.1227455
56	0x40778ccf	3.8679693
57	0x4112318b	9.137095
58	0x404baf4d	3.1825745
59	0x410e8b49	8.909005
60	0xc1131d59	-9.194665
61	0xc09c0a1b	-4.8762336
62	0xc109f672	-8.622667
63	0x40e2a345	7.0824304
