model_wts/s0_d3_m1.0_b0.0.ckpt (torch, 206875 bytes, 11 tensors)

pi.logits_net.0.weight f4 [64, 282]
00000000: 4b52 c7bc 0ea9 e6bc 16fc f9bb 32d7 d3bd
00000010: 6f11 b5bd a946 48bd b868 f63c 94b7 a03d
00000020: 20db 133d 3702 60be d2e3 a2bd cf0f 93bd
00000030: 4c6d a5bd cad7 fe3a 1c1d b7bd 0823 6bbd
00000040: 9b77 b3b9 9073 a3bd d9c5 d8bd c54d 2dbd
00000050: 44c8 13bb 5a4a a53d 9366 62bc 2d52 a6bc
00000060: 7677 f0bc 5a4f 433d e1c4 193d d9ad 92bd
00000070: 8a15 ccbb 7e95 1fbd 0c61 b4bd 401f be3d
00000080: 9e23 cabd 5efb bcbd 917e 6dbd d4cb c8bc
00000090: 5b73 65bb c495 bd3d 435a 1fbd 16dc 8f3d
000000a0: dc53 363d fe8e bcbd 64c4 523d d2f2 68bc
000000b0: 7ba5 36bd 4508 2f3c 2098 e4bc 3a5c fabc
000000c0: f21e b4bd ce78 ee3c d6d1 b13c 9ea8 103d
000000d0: ae42 1bbd 8a73 4a3d dc45 a5bc 1fe7 cdbd
000000e0: d4b9 48bd d918 80bd 7bb9 e638 1b17 41bd
000000f0: 4a1b 2d3c efcb 853d 6487 83bb fc60 32bd
00000100: 928c e0bc 38b7 0a3d 0ecf 49bd c38c 43bd
00000110: f80a 81ba 9661 083d 2812 d9bd 549c 1a3c
00000120: 48ae 843d f7f9 3a3c 053d 1fbc f6a0 ab3d
00000130: b2a2 45bd 281f a8bc e6bb 5dbd d946 873b
00000140: 8cb1 efbd 7fe6 4dbc f0bf 9c3d f332 9bbd
00000150: 4e27 573d aeec 0abd 3a1a 92bd b336 863e
00000160: 605a 84be 4028 a0bd c596 a23d 9b4a db3e
00000170: a630 bfbe d480 28be 1bba 72be 7b67 4f3e
00000180: 1f73 b2be 8ffb 053e 18df 67be 7108 00bf
00000190: c981 543e d649 273e d159 0f3d e5d5 99ba
000001a0: 4cde 49bf c214 d0be bc5b c3be b15f 11bf
000001b0: 5e59 f5bd f407 c5bc 4bb0 003f 840e c53e
000001c0: 36be 323d 3106 713e 2a2c 32be 285f 8dbe
000001d0: 4ab7 2937 9ffb 703d 4f86 103e 0b59 ce3e
000001e0: 6115 853f 5507 da3e b1d0 19be 1dfb fc3e
000001f0: 1a14 ce3d a0fe f7bd 9b61 e63d 393b bd3e
00000200: da98 eb3d 3a1d 8d3e c0a3 fc3e 3438 093f
00000210: c54a 803d c6d8 89be 9965 123f 062a 433e
00000220: fa47 12be c558 9d3e 6288 1b3d cf2e b73e
00000230: 4d18 f73e deb1 a13e b4e1 84bd 26d8 303f
00000240: 043a c23e 4957 05be daa9 a6be a07f 2bbc
00000250: 0c83 9d3e 50f6 a6bd 5789 3a3d 6024 813f
00000260: 17bc c53c 2da6 df3e 6e3c 0c3e 3eeb 0c3f
00000270: 83ef 27be 87d5 b23e 6435 56be b34b 043e
00000280: ea92 0c3e 97ae 8c3e 134a 29be 593a 33be
00000290: 6edc 10be 91a4 edbc 79a5 a93e c72c 963e
000002a0: c8d0 c13e 8535 81be 1d63 393e ffe5 9bbd
000002b0: c3c3 b4be 389a 8a3d a424 e33d de86 b43e
000002c0: fabb 2c3f 757f 09bf e593 713d 261f 763d
000002d0: dbb8 0fbf 7ec0 d03d de6b 5abf ce5e cbbe
000002e0: 6f9d 5ebe 9d49 6d3e a50f 11bf 5f09 08bd
000002f0: 86d6 68be 56ce e33d 54f6 15bf 5972 86be
00000300: 1ba5 31be a052 b0be bf4a 09be 591c d5be
00000310: 4f38 20bf 3e3f 183f 515e af3e c6a4 0cbd
00000320: 7aee c83d 4028 9f3e 8733 413f df26 60bd
00000330: 5237 3cbf 338f 3bbd f052 033e d849 863d
00000340: 24c1 2ebf 1ea9 3dbe f5c2 21be 63dd 40bf
00000350: b9a5 3b3f 69d7 95bf 7214 243f 9e57 8e3e
00000360: e327 1c3f 85e8 833e 13b9 023f a5c5 a8bf
00000370: 528c e83d 677b c03d ec90 9d3e 8dbf 56be
00000380: c9b1 a03c 1867 3e3e 2e8d 06bf cfc4 a43e
00000390: e5a6 473e 739b 853f 6a9f 1bbf 2cb1 063f
000003a0: ec8e 273d 34e4 1fbf b99c 2abf c9b0 3dbe
000003b0: 64ed 883d 55ef 8bbe 6623 963e 0388 f83e
000003c0: 59ca 1b3d 363c 3ebe 0316 3f3f ec17 d7bd
000003d0: 4153 f9bd fbaf 4fbe 8964 adbd bc51 c03d
000003e0: 30fa 803e f6b8 03bf c606 6abe 59d3 a83f
000003f0: 7936 efbd 8991 e9be b2e9 84be e90c 81bf
-0.024331233 -0.028156783 -0.007628928 -0.103437796 -0.08841216 -0.04889551 0.03007923 0.07847515
0.036097646 -0.21875845 -0.079536095 -0.071807496 -0.08077487 0.0019442972 -0.08941099 -0.057406455
-0.00034230654 -0.07981026 -0.105846114 -0.042310495 -0.0022549788 0.08070822 -0.013818401 -0.020302856
-0.029353838 0.047683097 0.037541274 -0.07162065 -0.0062281536 -0.038960926 -0.08807573 0.09283304
-0.09870075 -0.09227632 -0.05798203 -0.024511255 -0.0035011384 0.09257081 -0.03890444 0.070244
0.04451357 -0.09206961 0.051456824 -0.014218049 -0.04459141 0.010683124 -0.02790457 -0.030561555
-0.08794965 0.029110339 0.021706503 0.035317056 -0.037905388 0.049426593 -0.020174913 -0.100538485
-0.049005345 -0.06254739 0.00011001803 -0.047141176 0.010565588 0.06533038 -0.0040139426 -0.043549523
-0.02741078 0.033866137 -0.04926973 -0.047741663 -0.0009845188 0.03329619 -0.10599166 0.009436686
0.06478554 0.011412135 -0.009719138 0.0838031 -0.04825086 -0.020522669 -0.054134272 0.0041283187
-0.11703786 -0.012567162 0.07653797 -0.07578077 0.05252772 -0.03391712 -0.071339086 0.26213607
-0.258502 -0.07820177 0.07938913 0.42830357 -0.37341803 -0.16455394 -0.23703806 0.20254318
-0.34853455 0.13084243 -0.22643697 -0.5001288 0.20752634 0.1633676 0.034997765 -0.0011736719
-0.78854823 -0.40640837 -0.38155925 -0.5678664 -0.11979936 -0.024051644 0.50269 0.38487637
0.04363843 0.23537518 -0.1739966 -0.2761166 1.011586e-05 0.058833715 0.14113735 0.4030231
1.0397149 0.4258372 -0.15021016 0.49410334 0.10062428 -0.12109113 0.112490855 0.36959246
0.115037635 0.2756136 0.4934368 0.53601384 0.06264261 -0.26923198 0.57186276 0.19059
-0.1428527 0.30731788 0.03797186 0.357779 0.48260728 0.31581014 -0.06488362 0.69079816
0.37934887 -0.13021578 -0.3255146 -0.01046744 0.30764043 -0.08152449 0.045541134 1.0089226
0.02413754 0.4368147 0.13694927 0.5504645 -0.1639996 0.34928533 -0.20918804 0.12919502
0.13727918 0.2747695 -0.16532163 -0.17502727 -0.14146587 -0.029009135 0.33134058 0.29331037
0.378546 -0.25236145 0.18104215 -0.07612228 -0.35305604 0.06767696 0.11090973 0.35259145
0.6747433 -0.5371011 0.058978934 0.0600883 -0.5614144 0.10192965 -0.8532084 -0.39720768
-0.21739744 0.23172612 -0.56664497 -0.033212062 -0.22738084 0.1112334 -0.5857899 -0.26259115
-0.17348139 -0.34438038 -0.1340742 -0.4162319 -0.6258592 0.594715 0.34251645 -0.034336828
0.09811111 0.31085396 0.7546925 -0.05472457 -0.7352191 -0.045790862 0.12824607 0.06557053
-0.6826346 -0.18521544 -0.15797026 -0.7533781 0.7329975 -1.1706363 0.640937 0.27801222
0.6099836 0.25763336 0.5106365 -1.3185316 0.11354889 0.09398537 0.3077463 -0.20971508
0.019616025 0.18594015 -0.52559173 0.32181403 0.19497259 1.0438064 -0.6079012 0.5261409
0.040907785 -0.62457585 -0.6664539 -0.1852447 0.06685904 -0.27331033 0.29323882 0.4854127
0.03803477 -0.18577656 0.7464296 -0.105026096 -0.121740825 -0.20281975 -0.08466441 0.093905896
0.25190878 -0.51454103 -0.22854146 1.3189498 -0.11680312 -0.45618847 -0.25959545 -1.0082065

pi.logits_net.0.bias f4 [64]
00000000: e6bc b1bd 379e 2bbc d426 c2bd bbff b4bd
00000010: 5dc6 ae3d f58b 32be 72f7 3e3e 4853 bdbd
00000020: 3f79 433e 008d 8d3d c4d0 423e 7d84 713d
00000030: 4d35 9f3d 5e80 85be 1e20 793d 3625 3dbd
00000040: 532a a0bd 3f06 63bd 33b2 c7bb 5657 8abd
00000050: 87f8 78bd ae30 793e 0d91 82bd 82fb 8c3b
00000060: 44cc e03d 4c7a 823c b5b6 9e3c 321d c3bc
00000070: 1024 083e 86f2 ac3d 92df 923e f74c 853e
00000080: 68fd 82bd 6e56 bebe d111 aabe eb97 0c3e
00000090: fa52 883d 089c 4abd 279b 19be b7f5 503d
000000a0: 0381 7d3e 3c33 d33d 6e38 093e b7f5 9c3d
000000b0: 7db6 28be 4f42 c83d b5ca 543d 6d88 643e
000000c0: 64de 57be 0e89 0b3e df2b d73e e3cc b93d
000000d0: 3c08 a43e bf19 f1ba 8ec4 763d 92b7 c1be
000000e0: 434a a33e 5fd1 b1bb bb1d c73d d813 f93e
000000f0: f139 dd3d acf5 94bd 18bb 63bc 2e96 143e
-0.08678608 -0.010474733 -0.09480062 -0.08837839 0.085339285 -0.17436202 0.1864908 -0.092444
0.1908922 0.06911659 0.1902495 0.05896424 0.07773838 -0.260745 0.060821645 -0.046178065
-0.07820573 -0.05542588 -0.006094241 -0.06754939 -0.06078389 0.24334976 -0.063753225 0.004302443
0.109764606 0.015927456 0.01937423 -0.023817632 0.13295007 0.08444695 0.28686196 0.26035282
-0.0639599 -0.37175316 -0.33216718 0.13729827 0.066564515 -0.04946521 -0.15000592 0.051015582
0.24756245 0.103125066 0.13400432 0.07664054 -0.16475864 0.09778272 0.05195113 0.22317667
-0.21080929 0.13626501 0.42025658 0.09072282 0.32037532 -0.0018394514 0.060246043 -0.37835366
0.31892595 -0.0054265703 0.097224675 0.48647952 0.10802067 -0.07273421 -0.013899587 0.14510414

pi.logits_net.2.weight f4 [64, 64]
00000000: 7876 12bf fa8a 5abe 5b96 f9bd 2e2c 153f
00000010: fff7 dabe 8712 a7bd 25fb ddbe e84e fc3e
00000020: d50f a8be f064 00be e3e9 013f a5e2 40bd
00000030: f107 92bf 61ff e13c f5ee 1bbd 7d65 633e
00000040: 2e6c 40be e387 06bf 1ad1 36bc aea3 c73e
00000050: 6347 8abd d654 103f c24c 26bf 07a8 b63e
00000060: 0111 02bf cb79 d63c 1e03 563c 90cd 103e
00000070: 6452 a23f 5781 b03e 79ec 143f 7a67 e6be
00000080: c504 88bd 4f9e 59bf 9587 19be ef44 e33e
00000090: d350 043f a5a9 093f 7be7 6bbf bf4e 0f3e
000000a0: 1317 43be 53ac 873e 8e27 9abc f5ef 32bd
000000b0: 7ade 39bd 16bc c63e 9ee5 fbbe 7a90 0fbf
000000c0: 094a 0fbf 1bf4 84bd fe07 103f dd41 cdbe
000000d0: b93d 3f3f c21c 49be bc9d b23e e05b 07be
000000e0: f706 c13e c1fc 90bc 1aba 08bd 7700 193f
000000f0: 0b14 c53e d03b e8bd e804 f33e 8f77 edbd
00000100: def6 1d3e dbd2 07ba 2dff 00be 7420 a8be
00000110: 1131 b63e c55e 0e3f dced edbe 35b4 2c3f
00000120: 5535 b6be 8fe0 0d3d 7219 afbe c6a5 81bc
00000130: ba60 b53d 4547 983d 57f9 6d3e b9d9 0e3f
00000140: 5cda bfbe 81f8 193d bd49 cf3e 6e03 a1be
00000150: 3dd6 21bd d253 16bf beb3 afbe c228 33bd
00000160: e668 363d 5653 993d 8e1f e73d 0aee 243f
00000170: 1e1e 69bf e896 c2be 5492 88be a0ff d2be
00000180: 0281 42be 6ebe 363f b3aa bd3e bd75 22bf
00000190: 8b43 d23e a656 043c 9d0a 9d3f 2507 013b
000001a0: d691 b2be 3b23 11bf a48f cf3e 86e0 fcbe
000001b0: 3673 843e dd12 38bf d372 003f ef56 f3bd
000001c0: 245d 2e3f c055 43bf 6309 59bf d927 103e
000001d0: 6fd0 de3c 71bd 983e 6c19 cbbe 3969 c5be
000001e0: e4d1 acbe df53 23be 2699 363f 71df 1cbf
000001f0: ae69 21ba 285b c3bd 33fa fb3d 670e 103d
00000200: fc4c 493f b2cd 61bf bf1f e43d b4a5 793f
00000210: 5e40 a3be d1ba 7fbe 026d 873e ac24 a13e
00000220: 7abb febe 3788 ce3d b69d 943e 43ff d2be
00000230: f3d4 76be 08c0 693d 0cb6 ee3e d80d 073f
00000240: 787d a8be d385 c83d 3f81 ccbe 9238 143f
00000250: f800 5ebd b3b8 33bf cca4 0fbf 78bd 513e
00000260: c777 d9be 2c06 bdbe b0f5 453e a340 423e
00000270: 7b73 163e 18b9 fcbd 5e83 08bf 1e8c d1be
00000280: 37a7 b23d a96f 8c3e 108d 8a3e 766f 1bbf
00000290: ce3b 293f bb13 ad3e 3f43 0d3e 3c99 07bf
000002a0: 1245 c0bf 9792 5a3e a519 b73e be2e 8ebf
000002b0: b9ab de3e 3c4f 2bbf 2008 a33e 2df9 a33f
000002c0: ddb7 ebbd f20f eb3c 719b a4be 836b bebd
000002d0: cded 9abd db2e 683e 040f 323d e095 443e
000002e0: 9ff9 bdbe 6075 fdbe 665e 083f 4674 35be
000002f0: ff07 8b3e 4ee3 a1be e365 6e3e c152 e8be
00000300: 1807 ca3e d5bb da3e f138 173e e30f 83bd
00000310: 2e97 0dbe ae9b 3ebc 5e63 363e 5205 973d
00000320: c093 5c3f 52ee 6b3e 6a45 39be 447e 4f3f
00000330: bf71 f73e 8edd de3e 6261 38bf 3943 1a3e
00000340: 4ebc 1cbf c747 8bbe ac09 c8bc 1add c5bc
00000350: 8fa7 42bf 2537 4a3e 881a 313e 893d cc3e
00000360: 1da8 72bd 98a7 51bd 67f5 80bd 0fce 0fbf
00000370: 201c a5be 0b75 273e 2ba1 633e c95d de3e
00000380: 338b f7be 0204 babb 3fdf 043f 3665 5a3e
00000390: a163 eebe c5cf 3e3e 83f0 eabd 4ef8 113f
000003a0: f434 cfbd e50f 1abf 422f 153f 5468 033d
000003b0: f8e9 2e3e b47f dc3e 3560 1fbf 57d0 6cbe
000003c0: 444f 9fbe 54d8 013e d254 163f af38 853e
000003d0: 6c62 913e 3bde 3b3e 6d53 993b 02e1 0fbf
000003e0: efbc abbd 8777 e23e d6a0 293f ce5e a9bd
000003f0: 6760 6dbe 431c a83e 6db0 b0bf 9dcd 463f
-0.5721202 -0.21342078 -0.12186881 0.5827054 -0.4276733 -0.08157831 -0.4335567 0.4927895
-0.3282458 -0.12538505 0.5074751 -0.047091145 -1.1408674 0.027587594 -0.038069684 0.22206683
-0.18791267 -0.52551097 -0.011158252 0.38992065 -0.06751897 0.5637945 -0.64960873 0.3567507
-0.50807196 0.026181122 0.013062267 0.14140916 1.2681394 0.34473678 0.5817333 -0.4500082
-0.06641535 -0.85007185 -0.14993127 0.4438853 0.5168583 0.5377448 -0.92150086 0.13994883
-0.19051771 0.2649866 -0.01881769 -0.043685872 -0.045378186 0.38815373 -0.49198622 -0.5607983
-0.55972344 -0.06491872 0.56262195 -0.40089312 0.74703556 -0.19639876 0.34885967 -0.13218641
0.37700626 -0.017698647 -0.033380605 0.59766334 0.38491854 -0.11339533 0.4746468 -0.115950696
0.15426204 -0.0005181261 -0.12597342 -0.3283726 0.3558431 0.55613357 -0.46470535 0.67462474
-0.35587564 0.034637984 -0.341991 -0.015826117 0.0885634 0.074354686 0.23239647 0.5580097
-0.37471282 0.037590507 0.40485945 -0.3144793 -0.039510954 -0.5872165 -0.3431682 -0.04374004
0.044533633 0.07486598 0.112853155 0.6442572 -0.9106158 -0.38005757 -0.2667414 -0.4121065
-0.18994525 0.7138432 0.37044296 -0.63460904 0.41067156 0.008077299 1.2268864 0.0019688096
-0.3487689 -0.5669438 0.40539277 -0.49390048 0.2586915 -0.71903783 0.5017521 -0.11881816
0.6811087 -0.7630272 -0.8477995 0.140777 0.027198998 0.29832032 -0.39667833 -0.3855684
-0.33753884 -0.15949963 0.71327436 -0.61278445 -0.000615741 -0.09538871 0.12303581 0.035169985
0.78633094 -0.8820449 0.111388676 0.9751847 -0.31885046 -0.24973609 0.26450354 0.3147329
-0.49752408 0.10084575 0.29026574 -0.41210374 -0.24104671 0.0570679 0.46623266 0.527555
-0.32908225 0.0979115 -0.39942357 0.5789882 -0.054200143 -0.70203704 -0.56110835 0.20482433
-0.42474195 -0.3691877 0.19332004 0.1896997 0.1469249 -0.12339991 -0.5332545 -0.40927213
0.087233 0.2742894 0.27060747 -0.6071695 0.6610688 0.33804116 0.13795184 -0.5296819
-1.5021079 0.21344982 0.35761753 -1.1108015 0.4349039 -0.6691778 0.31842136 1.2810417
-0.115096785 0.028694127 -0.32149842 -0.0929785 -0.07564888 0.22674124 0.04347135 0.19197798
-0.37104508 -0.49503613 0.5326904 -0.17720136 0.27154538 -0.31618732 0.23281054 -0.45375636
0.39458537 0.4272143 0.14767815 -0.063995145 -0.13827202 -0.011633797 0.17811343 0.07374062
0.8616295 0.2304013 -0.18092886 0.8105204 0.4832897 0.43528408 -0.72023594 0.15064706
-0.6122483 -0.272032 -0.024418674 -0.024153281 -0.76036924 0.19747598 0.17295277 0.39890698
-0.059242357 -0.05118522 -0.06296807 -0.56173795 -0.3224802 0.16353242 0.2222945 0.43430927
-0.48348388 -0.0056767473 0.51903147 0.21327671 -0.46560386 0.18633945 -0.11471655 0.5701951
-0.10117522 -0.60180503 0.58275235 0.032081917 0.1708144 0.4306618 -0.62256175 -0.2312635
-0.31115162 0.12680179 0.58723176 0.2601981 0.28395402 0.18346493 0.0046791346 -0.5620271
-0.083856456 0.44231817 0.6626104 -0.08270036 -0.23181306 0.32834062 -1.3803841 0.7765749

pi.logits_net.2.bias f4 [64]
00000000: 5c8c 193f 4950 18be d269 12be a41d 0d3f
00000010: d85a 8cbd 4d8e 753d 06af 37be e8b5 acbe
00000020: 558b d5be c4ef d8bd ae36 e93b ce9a 7d3e
00000030: 05a4 0f3d be25 363e d97d f73d a8ef 4f3e
00000040: 1375 ae3e f599 2f3e 9a8b a93c f0ac 593e
00000050: 78ae 303e ccf6 5bbe 47b1 1a3f 74ea 693d
00000060: 1075 843e 700b 34bc a619 67bf 0c87 f3bd
00000070: 8913 4c3e 4f1f 2b3e 0294 4a3f 9dd7 c2bd
00000080: 7561 1e3e 9598 6fbd e86d d6be 1a51 d1bd
00000090: 4497 20bd 98dd c8bc be6b 293d b9e5 383f
000000a0: 9d17 adbe 029f 2a3e f39f fd3c a5cd febe
000000b0: 869a 143e bca0 62bd 17c9 febe 4980 f23d
000000c0: f0c4 8b3e 6e80 5cbd dc2b a13e 6068 723d
000000d0: bdf5 50bc 6c87 fb3d b13b 5fbd 6539 413e
000000e0: 3ae9 1f3e 4684 14bf f544 333d 492c b4be
000000f0: bea9 ebbe 19e0 c43c 5016 f63e c638 1e3f
0.59979796 -0.14874376 -0.1429818 0.55123353 -0.068532646 0.05995016 -0.1793786 -0.33732533
-0.41707864 -0.10592607 0.007117114 0.24766085 0.03506853 0.17787835 0.120845504 0.20306265
0.34073696 0.17148574 0.02069645 0.21257377 0.17254055 -0.21480864 0.60426754 0.057108358
0.25870562 -0.010989055 -0.9027351 -0.118909925 0.19929327 0.16711162 0.7913209 -0.09513781
0.15466864 -0.058495123 -0.41880727 -0.10220547 -0.03920676 -0.024519727 0.041362517 0.7222553
-0.33807078 0.16662219 0.030960059 -0.4976627 0.14512071 -0.05532907 -0.49762794 0.11840875
0.2729869 -0.053833418 0.31478775 0.05918157 -0.012753901 0.12281689 -0.054500286 0.1886955
0.15616313 -0.58014333 0.043766934 -0.35190037 -0.4602794 0.02403264 0.48063898 0.6180538

pi.logits_net.4.weight f4 [87, 64]
00000000: be31 b93c 62ee 283f 998a c53f 8ba9 493c
00000010: 77b6 64be 5809 193d 2c6a c23e e26a 7a3e
00000020: 6f73 9ebe 6c6a 64bf bf3b 163e 636b 333e
00000030: d4ac 823f 2bf1 8fbf 8ca0 423f 09ec 133f
00000040: 3660 023f 7834 87bf e05b 2cbf 494c 82bf
00000050: 6afc 333f dab8 78bd 9c75 0c3f 9da7 973e
00000060: 3415 36bf aaae 62bf c053 02bf 2934 683e
00000070: f43f 733f c4a6 00bf 896f 143f 5f77 843e
00000080: 8190 903f d8f0 87bf 0a09 e5be a893 b43f
00000090: 30ed 0abf 5a0d 0cbf a2bf 65bf 87f9 fd3e
000000a0: 1a5e 3bbf 146c ae3c 05f0 4a3f 2c77 cabe
000000b0: 1325 0abf d70b fb3e 99da 24bf 70ed 2f3f
000000c0: aeae e3bf 8ab6 433f b227 4f3f b687 a63e
000000d0: ae65 f8be 615b 763e 1f5f bbbe 5c55 37be
000000e0: d4c1 663f d124 1fbf 2bb4 0ebe c2a1 a7bf
000000f0: a2d8 16bf 66fa 8c3f a792 f23e f8a8 33bd
00000100: b7bc 103e feac 5cbe 9b3a 95bf d902 b83e
00000110: 29dc 32be dd8e e03d 9521 b3be a2fc ccbd
00000120: f191 14be 5a7f 443e f6b6 05bd 0fed 3eba
00000130: 2995 ce3d 9fbc a33f 0ddd 4e3d 10ed 85be
00000140: 469a 143f d064 223e eeca 00bf 5bac 29be
00000150: 3033 383d 584c 213f 9f6d 373f 50fe c23f
00000160: 08a5 323e 895f 1fbf 2cd2 02bf 9c41 0dbf
00000170: 926e ec3e d8fd b03f f8cb e03e 82ab fcbe
00000180: 19a6 f83e e9c4 06be 9a44 53be a358 d23f
00000190: 43ec a8be 6b03 6fbf 6666 22c0 9047 883d
000001a0: 4a2c c9be 9e53 0a3f 42d4 063f 0f3f 4dbe
000001b0: e091 873e 924e 813f 020d 4dbd cfff 46be
000001c0: 8a0b 493f 59fe dcbe 993e 543f dfca f13d
000001d0: c062 2c3f e27f a9be e478 6fbf 020d 72bf
000001e0: 1484 193f 90d8 df3e ca4c f33e 7e13 96be
000001f0: c510 4ebc ec39 2abf f49e 8c3e b41b 0fbd
00000200: 8b24 323e 3878 cabe acbe 39bf ab72 d53d
00000210: 4cd9 d8be a0dc 343f 91f7 9abe 34c2 37bf
00000220: 80dc 29bf 0ef9 4ebe 431a a33e 3b34 ee3e
00000230: 6a8d 8fbf 4ea7 b83f 0baa 603f c04c 763f
00000240: 4a50 f33d 2d87 843f f938 d73d dadb e8bd
00000250: b918 203f 8478 113f 24da 053f a51d 79bf
00000260: 4766 6c3f 18b3 6a3e 0156 9fbe e972 87be
00000270: 9ed4 213c 0b43 3c3f c0ab 9a3e 74ed a13b
00000280: 9654 28bf 7bdb 79bf 4bbc b3be b8ef 8ebf
00000290: 3de2 32bf a8d8 18bf 511d 0dbf 58ae 8f3e
000002a0: 3bcc 853e 1084 9f3c fe21 9f3e 841b 933b
000002b0: 79ed 9f3e b3ed 943f 66b0 07bf 214f 653f
000002c0: 9a65 2d3e 99bb 863f 27c2 bf3e cce4 76bf
000002d0: d2e4 0bbf 857f e03e f988 1e3f 8c16 f9be
000002e0: 8ab2 213f 2411 9dbe b5fc f83e b47f 223e
000002f0: 8c0d 66bf 7b4f 07bf 9be7 ca3e 5860 2f3e
00000300: 7d1e 883e 39cd 11bf ac89 eabe af0d 0e3e
00000310: 72ec 88bf 5178 a23f 3979 7cbe d8a9 3abf
00000320: 3760 c9be 7786 e8be f6bd a03f de05 1c3f
00000330: a5d1 603e de01 73be d8c9 b53f 5973 b33e
00000340: f7f9 313f a13e 00bf b692 9bbf af10 e6bd
00000350: 5e38 b23e 3bb4 333e cbab 063f b9ee c1be
00000360: a68c 1a3f 2dc5 88bf dc9a d6be e487 4d3f
00000370: a381 273f e1f6 893f 7874 2c3f 6b14 20bf
00000380: cbb3 9a3f 8730 09be fbf1 14bf 765d 963f
00000390: ffe8 68bf 4fac 223f 3445 e13e 52c9 123f
000003a0: 0ed8 49bf f6e1 253e 3ece 583f 9bbd 08bf
000003b0: 0558 0a3e cbbf 73bf e878 e1be 3bba 183f
000003c0: c691 bb3c b21e 133f ef41 cf3e 15bf 46bf
000003d0: 26b6 84be 1dc6 cebd c279 033f b36b 63bf
000003e0: 7caf 063f 7713 18bf 6533 8ebe 6082 5cbf
000003f0: c8eb 24bf 38d2 d2be 74d4 56bd c404 be3e
0.022606727 0.65988743 1.5432922 0.012308489 -0.2233523 0.037362427 0.37971628 0.24454835
-0.30947444 -0.89224887 0.14671229 0.17521434 1.0208993 -1.1245474 0.76026225 0.57782036
0.50928056 -1.0562887 -0.6732769 -1.017953 0.7030703 -0.060723163 0.5486696 0.29620066
-0.71126103 -0.88547766 -0.5090904 0.22676148 0.9501946 -0.50254464 0.5798269 0.25872323
1.1294099 -1.0620375 -0.4473346 1.4107561 -0.5426817 -0.5470787 -0.89745533 0.49604437
-0.7319046 0.02129177 0.7927249 -0.39544046 -0.5396282 0.4903247 -0.64396054 0.68721676
-1.7787683 0.7645041 0.80919945 0.32525414 -0.48515075 0.24058296 -0.3659601 -0.17903656
0.9013951 -0.6216555 -0.13935916 -1.309624 -0.58924305 1.1013916 0.47377512 -0.043862313
0.14134489 -0.21550366 -1.165851 0.35939673 -0.17466797 0.10964749 -0.3498656 -0.100091234
-0.14508797 0.19189206 -0.03264519 -0.0007283249 0.10087044 1.2791938 0.05050378 -0.26157427
0.580479 0.1585877 -0.50309646 -0.16569655 0.04497069 0.63007116 0.71651644 1.523386
0.17445767 -0.6225515 -0.51101947 -0.55178237 0.46178108 1.3827467 0.43905616 -0.493496
0.48564222 -0.13161053 -0.20631638 1.64333 -0.32992753 -0.9336459 -2.5375 0.066542745
-0.39291602 0.5403384 0.5266763 -0.20043586 0.2647848 1.0102103 -0.050061233 -0.1943352
0.7853323 -0.43162802 0.82908016 0.11806273 0.6733818 -0.3310538 -0.9354384 -0.945511
0.5996716 0.43719912 0.47519523 -0.29311746 -0.01257724 -0.6649463 0.27465022 -0.03493853
0.17396753 -0.39544845 -0.7255657 0.10422262 -0.42353284 0.7064915 -0.30267003 -0.71780705
-0.6635208 -0.20212194 0.31855974 0.46524224 -1.1215031 1.4426057 0.87759465 0.9621086
0.11880548 1.0353752 0.105089135 -0.11370058 0.62537724 0.5682452 0.5228598 -0.9731086
0.9234356 0.22919881 -0.31120303 -0.26454857 0.009877352 0.735398 0.3020916 0.0049416367
-0.6575407 -0.97600526 -0.35104594 -1.1166906 -0.6987646 -0.5970559 -0.5512286 0.280627
0.26132378 0.019472152 0.3108062 0.004489364 0.31235865 1.163504 -0.5300354 0.89573866
0.16933289 1.0526 0.37452814 -0.96442866 -0.5464603 0.4384729 0.61927754 -0.48650014
0.63163054 -0.3067714 0.486303 0.15869027 -0.8986442 -0.5285565 0.39629826 0.17126596
0.2658576 -0.5695377 -0.4580816 0.13872407 -1.0697157 1.2692968 -0.24655618 -0.7291541
-0.3933122 -0.4541509 1.2557971 0.6094645 0.21954973 -0.23731181 1.4202223 0.3504894
0.6952204 -0.50095564 -1.2154148 -0.11233651 0.3480863 0.17549221 0.52605885 -0.37877443
0.6037086 -1.0685173 -0.41915023 0.8028548 0.65432185 1.0778466 0.6736522 -0.62531155
1.2086118 -0.13397418 -0.5818173 1.1747272 -0.90980524 0.6354417 0.4399811 0.5733844
-0.788453 0.16199479 0.846897 -0.53414315 0.1351014 -0.9521453 -0.44037557 0.59659165
0.022896659 0.5746871 0.4047999 -0.7763532 -0.25920218 -0.10096381 0.5135766 -0.8883621
0.5261152 -0.594047 -0.27773586 -0.86136436 -0.64422274 -0.4117601 -0.052448705 0.3711301

pi.logits_net.4.bias f4 [87]
00000000: 6b22 093f 66dc d03e b150 5f3e e199 253f
00000010: d9b5 bc3e 25f0 a83e f438 0e3f 3256 083f
00000020: df36 223f e522 dc3e 8fb8 243d 62f7 c73e
00000030: 53d7 c73e a22a 213f 3b9b 063f 151c 883e
00000040: 3684 213f d920 9d3e d610 703e 60fa dc3e
00000050: 9713 593e 6e5b a83d a5b4 e83d a981 803e
00000060: 7a4a 073f 97fa 903e 8b32 c03e 323a 513f
00000070: bce3 8f3d c97d b53e ab01 a93e 51ba 273f
00000080: fec3 aa3e c76d b13e e97e cd3e 2d65 813e
00000090: 68db 1a3e e35b dd3e e019 1d3f e420 ce3e
000000a0: 8493 f63e 8a6d 7d3e d075 8a3e bcc7 0d3f
000000b0: 6578 a43e e7c7 103f 5c96 f63e c34d 053f
000000c0: 838f ea3e f751 0f3f c983 093f 3006 413f
000000d0: 8a11 b83e 55b0 083f 984c 233f 2a99 353f
000000e0: 9f02 333f 4b23 203f a665 fd3e 0b81 0e3f
000000f0: 9557 2a3f f6e2 233f 1caa 203f 04f5 863e
00000100: 89f3 f33e f8a0 e03e b34b 813e e07f 993e
00000110: 096e b23e b18a d73e 0bf1 a43e f87d 1c3e
00000120: e71f 303e d001 c03e a050 043f fa18 b13e
00000130: b166 a73e 0617 143f 8b91 163f 668d d03e
00000140: f65c df3e e3b7 be3e 1ab8 1d3e a60f 1c3f
00000150: 7443 143f f3f2 093f 3c05 8e3e
0.5356814 0.4079315 0.21808125 0.64687926 0.3685749 0.32995716 0.55555654 0.53256524
0.63364977 0.42995372 0.04021507 0.39055926 0.39031467 0.6295568 0.5258061 0.26583925
0.6309236 0.30689123 0.23443922 0.4315977 0.21198879 0.08220564 0.1136258 0.25098923
0.5284802 0.28316185 0.3753856 0.81729424 0.07025859 0.3544753 0.33009085 0.6551867
0.33352655 0.34654066 0.40135887 0.25272503 0.1512276 0.43234167 0.6136761 0.4025947
0.4815942 0.24748817 0.2704301 0.55382895 0.32123104 0.56555027 0.4816159 0.5207178
0.45812616 0.55984443 0.53716713 0.75400066 0.3595088 0.5339406 0.6378875 0.70936835
0.69925874 0.6255385 0.49491614 0.55665654 0.6653989 0.6401819 0.62759566 0.26358807
0.4764674 0.4387281 0.25253066 0.29980373 0.34849575 0.42098 0.3221515 0.15282428
0.1719967 0.37501383 0.51685524 0.34589368 0.32695535 0.5784763 0.5881583 0.40732878
0.4362561 0.3724967 0.1540226 0.6096138 0.57915425 0.53886336 0.2773837

v.v_net.0.weight f4 [64, 282]
00000000: 57bf 7e3a 8cfc 313e cc9b 2c3f 0b58 243f
00000010: 92a4 cfbf dcbb 95bf 695a 8e3f d85d 913f
00000020: 462c 323f 2033 cbbf 14fe b7be 3766 e53d
00000030: 27e2 343c 5eee 2f3f f404 9cbf d78a 163f
00000040: d2c4 a73d 077e 533f 5a78 d1bf 9e75 5c3e
00000050: a963 f9bc b4a9 8d3f ec3e 953e fcb1 98bf
00000060: 9e78 a83e d8bd 283f aedd 433e f142 793e
00000070: f0da 883f 76d3 a3bc 3c53 95bf d022 173f
00000080: 2c2c 243e 08fb 91bf 77e7 223e a53f 853f
00000090: 7e3a 8f3f 528c 333f 0c71 cdbf d22e 1d3f
000000a0: bc79 1b3f ea44 c2be 58ca 2d3f 1efb 2f3f
000000b0: 4c15 b13e 9037 2b3f bef7 cebf f023 cfbf
000000c0: eecc d5be ed3a 8e3f 3a7e 683e aa26 323d
000000d0: ee1c bbbe 7664 333f 1bfa 123e 1e31 cabf
000000e0: 37ac 1a3e 2ad4 653e 42af 273f e506 813e
000000f0: b921 3a3e 8cd9 253f cc5a 8f3f b71a f1be
00000100: 1a5c 353e 848c 2d3f 56ba b33d b6d5 cdbe
00000110: 909c e53e 2ac7 873d 5630 493e f52e 863f
00000120: 6a58 1a3f 9423 c03e d8f5 b5be c46b 913f
00000130: 0be8 ca3d ba3f 913f 117b 233f 9a8c 273f
00000140: 8e2c e0be 6206 d8bf 7947 863f 9339 873e
00000150: 10bf 163f e6a2 6d3c 4253 d2be 097f 00c0
00000160: d1f5 1ebd 2079 59bf dfec 23c0 6881 ec3f
00000170: d75d 0bc0 9dfc b7bc 2914 d3bd 77f0 913f
00000180: c712 6740 4a16 25c0 b482 85be ea7b 913d
00000190: d7c3 cf3e a13c 5440 8ca6 873f ef71 fc3f
000001a0: 92df 79bf 5bce ca3f 5a55 573f ff11 a03c
000001b0: 1ddc f63d 5d42 5fbf db70 453f ade9 ad3f
000001c0: 7976 a1bf a03f a73c d3d4 bdbe 3351 37bf
000001d0: fb7c 053f 3b1a 803f 1528 b0be 9d22 bf3f
000001e0: 4099 2540 a49b ff3f 48f7 043f 8a32 9abe
000001f0: 8478 e6bf 45c6 423f b660 7e3f 1365 09c0
00000200: 2068 8cbe 009a 42be dd9d 5a3f 8e28 0c40
00000210: 7e1a 0bbf b468 0940 6c72 0240 77d4 04c0
00000220: 74d0 333e 6779 4a3f 6883 43bd 4c40 93bf
00000230: 7f14 403e 88f9 6d40 7359 ff3f 6ef1 4940
00000240: 3ff7 963d d4bc 2940 a66b 28c0 c066 2f40
00000250: 1e15 0ac0 d54b 2c3e 6f90 1b40 3142 6240
00000260: 6713 913f 72eb 9e3e 41f3 03c0 b980 e7bd
00000270: 6d1e 463f 7fea 603f f321 b8bc 60ca 5cbf
00000280: eb10 79bf da7c 923f 93a6 f83e 92b6 2dbf
00000290: 7323 09be 972e 553f 1d58 d03f 0d90 bbbf
000002a0: f7e3 3240 fd0a 89bf 6a92 b1bf 31aa 0440
000002b0: 438b 2dc0 95b4 40c0 6643 403e 143e fc3e
000002c0: b8d6 24c0 faa7 d2bf e1d7 e13d 2a08 61c0
000002d0: 6cbf 81c0 2db1 cd3f 349a 97bb 9158 203f
000002e0: 9790 81bf 4329 8640 6ff7 b23e 12f9 26c0
000002f0: 1f2b 1840 9761 c7bf 48f4 f2bd fa33 113e
00000300: eb07 6ec0 3334 973f 7e66 0b40 016e a1bf
00000310: ad70 893d 6dbe 1dc0 665b 4f3f 7a72 e13f
00000320: 96a3 ec3f 7b50 d73f 4b19 85c0 01e2 7ec0
00000330: ae71 87bf c16a cd3e 8c73 ea3f a010 36bd
00000340: ae7e 8bbe dc9a 86bf 8ff1 1d40 0066 90be
00000350: fec8 a6bf 5b2f 223f 98ac f4bf 0f05 983e
00000360: 73ea 173e e459 983e 46ba afbf cba2 2abe
00000370: 3428 e3bf cc9f 9ac0 cbf0 3c3f fb17 313f
00000380: 18a7 80bf 85ff 993f 1e6b b43d e89b d0bf
00000390: 04c9 e5bf 23d1 c6bf b6a7 f6be b505 e23f
000003a0: 73da adbd e6a8 f2bf 10b8 37bf b37c ed3f
000003b0: c4bf 0140 dba5 a9be ecf3 87c0 8964 59bf
000003c0: 01cf 51c0 3c02 a8bf e0c5 0040 d914 883d
000003d0: 31f9 57c0 980e 32bf 00d5 2fbf b17c 0740
000003e0: 3d89 fd3f 3c6e cdbd 27cc 0a3e cb49 33c0
000003f0: daf8 dc3f 4d39 e33f 3d80 a13f 8e7c d9bf
0.0009717843 0.17381495 0.6742523 0.6419684 -1.6222098 -1.1697955 1.1121341 1.1356764
0.69598806 -1.5874977 -0.35936034 0.112011366 0.011040247 0.68723094 -1.2189012 0.588056
0.08191837 0.8261418 -1.6364853 0.21529242 -0.03044303 1.1067414 0.29149568 -1.1929317
0.32904524 0.6591468 0.19127533 0.24341942 1.0691814 -0.019998293 -1.1666026 0.59037495
0.16032475 -1.1404734 0.1590861 1.0410048 1.1189725 0.70135987 -1.6050124 0.6139957
0.60732627 -0.37943202 0.6788688 0.6874255 0.3458656 0.66881657 -1.6169355 -1.6182842
-0.4175791 1.1111733 0.22704402 0.043493904 -0.3654551 0.70075166 0.1435322 -1.5796239
0.15104757 0.22444215 0.655018 0.25200573 0.18176927 0.64785075 1.1199584 -0.47090694
0.17710915 0.67792535 0.08775775 -0.4020211 0.4484601 0.066297844 0.19647345 1.048308
0.6029116 0.37527144 -0.35539126 1.1361012 0.0990754 1.1347573 0.6385966 0.65448916
-0.43783993 -1.6876948 1.0490562 0.26411113 0.5888529 0.01450417 -0.41079146 -2.0077536
-0.038808648 -0.8495045 -2.5613325 1.8476992 -2.1776025 -0.022459323 -0.103065796 1.1401509
3.610521 -2.5794854 -0.2607628 0.07103713 0.405791 3.3162005 1.0597701 1.972227
-0.97606766 1.5844225 0.8411461 0.019539831 0.12053702 -0.8721064 0.7712533 1.3586937
-1.261428 0.020416081 -0.37076434 -0.71608275 0.5214383 1.0008005 -0.3440558 1.4932438
2.5874786 1.9969373 0.5193982 -0.30116683 -1.8005528 0.76083785 0.9936632 -2.146794
-0.2742319 -0.19004059 0.8539713 2.1899753 -0.543373 2.1470156 2.0382338 -2.0754678
0.17559987 0.79091495 -0.04773274 -1.1503997 0.18757819 3.7183552 1.9949173 3.1553607
0.07371377 2.6521502 -2.6315703 2.7406464 -2.157539 0.16825803 2.4306905 3.53529
1.1334046 0.31039006 -2.061722 -0.11303849 0.77390176 0.8785781 -0.022477126 -0.862463
-0.9729144 1.1444352 0.48564586 -0.67856705 -0.13392429 0.83274215 1.627689 -1.4653336
2.7951639 -1.0706478 -1.3872807 2.0728877 -2.7116249 -3.0110219 0.1877571 0.49266112
-2.5756054 -1.6457512 0.11027504 -3.5161233 -4.054617 1.6069695 -0.0046265367 0.6263514
-1.012225 4.192537 0.34954402 -2.608952 2.377632 -1.5576657 -0.11862999 0.14179984
-3.7192333 1.1812805 2.1781306 -1.2611696 0.06710944 -2.4647477 0.8099884 1.761306
1.8487422 1.6821436 -4.1593375 -3.9825442 -1.0581567 0.4012051 1.8316512 -0.04444945
-0.27245086 -1.0516009 2.4678686 -0.2820282 -1.3030088 0.6335351 -1.9115171 0.2969136
0.14835529 0.2975608 -1.3728721 -0.16663663 -1.7746644 -4.8320065 0.7380492 0.69177216
-1.0050993 1.2031103 0.088094935 -1.6297579 -1.795197 -1.5532573 -0.48174828 1.7657992
-0.084889315 -1.8957794 -0.7176523 1.855368 2.0273294 -0.3313435 -4.2485256 -0.8491903
-3.2782595 -1.3125682 2.0120773 0.066446014 -3.3745844 -0.6955352 -0.6868439 2.1169856
1.9807507 -0.10030791 0.1355444 -2.801379 1.7263443 1.7751862 1.261726 -1.6991136

v.v_net.0.bias f4 [64]
00000000: bf34 63c0 b034 a03f fe75 c03e 7d45 1b3e
00000010: 8210 2e40 7649 b93e a201 08bf efec 96c0
00000020: fae7 5dc0 12eb a2c0 68ca e0bf 9708 a240
00000030: 9b2f 5c3f 0e23 923f 5425 a3bf cdc1 09c0
00000040: f856 bfc0 c9f7 0840 d8b0 4f3f 887a d6c0
00000050: 5127 59be 3d7d f4be 28d9 dabe 9930 9d40
00000060: 7318 1340 d03f acbf bf29 1b40 8a79 8340
00000070: eb6a 67c0 9dc9 2140 ca02 0b40 1cc9 3b3e
00000080: a467 6fc0 602c c740 aa4d 8fbf 9c59 b53f
00000090: 21c3 68c0 e8fd 5140 f720 2140 531c d240
000000a0: b78c ad3e 446d 24c0 0739 aec0 ed69 d040
000000b0: 6454 8740 2b44 1b41 98cf 663f 71a9 15c0
000000c0: c824 81c0 abe3 46c0 b707 4c3f 4417 e0bf
000000d0: 84cc 023f f499 0541 558d c0bf d7cd 6940
000000e0: 725b 283f b55d bbbf 1693 e7be 55d0 a0bf
000000f0: bf6b f23f 1cd6 4c41 cfe9 9bbe 6209 73c0
-3.5500944 1.2516079 0.3759002 0.15163226 2.7197576 0.3618886 -0.5312749 -4.7164226
-3.4672837 -5.091195 -1.756177 5.0635486 0.8601014 1.1416948 -1.2745767 -2.1524537
-5.9793663 2.1401236 0.8112922 -6.7024574 -0.21206404 -0.477518 -0.42743802 4.9121823
2.2983673 -1.3456974 2.424423 4.1085863 -3.6159008 2.5279305 2.1720452 0.18338436
-3.7407007 6.224167 -1.1195576 1.4167972 -3.6369097 3.2811222 2.517637 6.5659575
0.3389642 -2.569169 -5.4444613 6.5129304 4.2290516 9.704143 0.9016051 -2.338467
-4.03574 -3.1076458 0.7969927 -1.75071 0.51093316 8.350086 -1.5043131 3.6531885
0.65764534 -1.4637972 -0.45229405 -1.2563578 1.8939131 12.802273 -0.3045182 -3.7974477

v.v_net.2.weight f4 [64, 64]
00000000: c6e8 f8c0 3449 06c0 0003 3f3f 8ae0 b43e
00000010: 7a7f 5cbe ac54 64be e563 a6bf 1508 883b
00000020: d3d9 92c0 ce2b aabf 628f e3c0 c013 35c0
00000030: 513c 753e 8c9d 1b40 c7dd ae3e 2eed 423f
00000040: 13a1 3840 a4fc f43e 0202 573f 77e8 8c3f
00000050: 175c be3f 3aa8 acbf 59ca 0740 14d5 afbf
00000060: a784 0a41 bff8 34bf 7063 12c0 9825 de3e
00000070: ec5f 66bf 50a4 7840 2776 903f 32fa f53f
00000080: 3021 d5bf d679 4341 f344 94be c864 9ebf
00000090: 8db1 0340 0629 b8be 942f 603f f767 dabf
000000a0: 04db 2840 66bf 173d 51bd e3bf b6be 58c0
000000b0: 54ad 7c3f 286f eebf 7ced be40 527a 2bbf
000000c0: de1a d23f d5c6 ca3f ccf7 0abe 4876 20c0
000000d0: 329d ef3e b850 91c0 95ee 0fc0 8f34 39c0
000000e0: 4e7a 04c0 662a a3c0 0a70 9b40 eafd fb3e
000000f0: b471 2740 7170 503f c71c fe3f 3afc 583f
00000100: f5e0 e1bd 309c 7f3e 5d49 c53e 4540 71c0
00000110: 5042 0dc0 b938 acbf d7bd 0040 9c48 c83d
00000120: f4fc 783e 3ade 9b40 3f47 6a3f 18f6 26c0
00000130: 4c20 033f 6bb2 e6bf 100f 493f dca0 70be
00000140: bbd5 323e 1087 0ebe 6e82 603f bb6c a440
00000150: b0c4 0440 bd54 81bf f0cc 4a40 ded3 86c0
00000160: f230 34bf ccba 8c3e cab8 2cc1 2ae4 fd3e
00000170: 8d99 3cc0 6303 e9bf 95c0 833f b8dd aa3f
00000180: 0551 0640 119a a2bf f193 053f ebc3 23c0
00000190: 1aee 0d40 2247 f6bf 03ed 573f 959a eabe
000001a0: 6be2 cb3f f823 353f b1fb 9bbe 7f0e edc0
000001b0: 197c e7c0 2310 28bf 3bec 3ec0 c555 5540
000001c0: 7e36 31c0 d8f0 1840 02b3 60c0 d8a7 1840
000001d0: 0cce 0840 eba8 aec0 d26a 973e 14a1 33bf
000001e0: 655e 2ec0 8e4b cc3f e440 463e 7e9f a9bf
000001f0: 985b 3a3e ad7c 3bc0 4908 2ec0 8a56 f33f
00000200: 1671 be3f e620 7f40 9cdf 8b3f 84bb e73e
00000210: de86 66be f20d 983f 344f a8be eb77 403f
00000220: fef7 1c40 cf61 acbf cca9 24bf 1d3b 74bf
00000230: 0c39 8fbf a678 73bc 0774 d8be 839b 39c0
00000240: e169 1040 080d 953d d48d f33f 987a 4a40
00000250: 18a1 8ac0 d79d 15bf 98cb 113f ef0a 02c0
00000260: d387 0940 a6f4 e33b c9fe 0bc1 cfef 3dc0
00000270: 8801 0ac0 82a6 4cc0 581b 3bbf a3bd 05be
00000280: 2c0e cf3f f19e f5bd eb0f 61c0 341a f43f
00000290: f234 3940 d9a4 bbc0 4e69 0d3f 9855 3f40
000002a0: efa9 2d40 79ab f23f 3489 16c0 b64d e0bf
000002b0: bfc8 03c0 2b41 aabf 525b 5f3f 4a4c 0a3e
000002c0: 2d85 01c0 5f53 0b40 bc14 bdbf 1d36 1b40
000002d0: 590c 203f c566 02c0 d201 4840 8999 0d3f
000002e0: 1fff 96c0 d0a3 42c0 be5a 8c3f daa4 433f
000002f0: 9619 c5bf 30c6 5cc0 9457 2e40 0376 b4bf
00000300: 59f7 a9bd 855c c8bf 3e2d 503e b80e 4140
00000310: 74cc 9b3f a4ff c540 a213 92bf 3fa4 5340
00000320: 9d88 fabf 56f1 09c0 d80a 93be 874e 553f
00000330: 172d 15bf 808c 7740 f9a6 efbe 61ed b43f
00000340: 0a23 323d bd61 af3f 19e0 ce3e 2a88 d33f
00000350: 6b6e 3a40 77f1 bd3e 2932 99bf 17f3 2a40
00000360: aedb 3040 d45c dcbf d86f 2341 dfcf 453f
00000370: f5fb 3a40 2fdc 4240 b6d2 8c40 de51 85c0
00000380: e474 adc0 cb13 d03e 34b5 b83e 9154 f03f
00000390: e6ce 1b40 a023 873e 0417 0b3e a6c7 debd
000003a0: b80a db3f dd86 8f3b d97d b5bf 8e47 1d41
000003b0: cafe 2abf c2c6 2840 2d73 353f 2101 ac3f
000003c0: ec68 463f 1c65 febe 54ff ab3f 8c91 67bf
000003d0: 94f8 65c0 72b6 28c0 5419 0d3f 2dd4 743f
000003e0: 09d6 a83f a0a8 54c0 834f 1140 75d6 92bf
000003f0: 08d4 4640 5377 3040 96d3 8140 1633 423f
-7.7784147 -2.098218 0.7461395 0.3532756 -0.21533003 -0.22297925 -1.2999235 0.004151354
-4.58909 -1.3294618 -7.111253 -2.8293304 0.2394879 2.431491 0.34153578 0.7614316
2.8848312 0.47849 0.8398744 1.1008443 1.4871854 -1.3488839 2.1217253 -1.3736901
8.657386 -0.70692056 -2.2873192 0.43388057 -0.89990115 3.8850288 1.1286057 1.9216979
-1.6650753 12.217245 -0.28958854 -1.2374506 2.0577118 -0.35968798 0.875726 -1.7062978
2.6383677 0.037047766 -1.779215 -3.38664 0.9870198 -1.8627672 5.96649 -0.6698352
1.6414449 1.5841929 -0.1357109 -2.5072193 0.46799618 -4.5411034 -2.248937 -2.893833
-2.069965 -5.0989256 4.8574266 0.4921716 2.616315 0.8142157 1.9852532 0.8475987
-0.11029235 0.24961925 0.38532534 -3.7695477 -2.2071724 -1.345481 2.011587 0.09779474
0.24315244 4.8708773 0.9151496 -2.6087704 0.51221156 -1.8023199 0.7853861 -0.23498863
0.17464344 -0.1391871 0.8769902 5.138273 2.0745049 -1.0103985 3.1687584 -4.2133627
-0.70387185 0.27486265 -10.7951145 0.49588138 -2.946872 -1.8204159 1.0293146 1.3348913
2.098695 -1.2703267 0.52178866 -2.558833 2.2176576 -1.9240458 0.84346026 -0.45821062
1.5928472 0.7075801 -0.30465463 -7.4080195 -7.2338986 -0.6564962 -2.9831684 3.33336
-2.768951 2.3897 -3.5109258 2.3852444 2.137576 -5.45812 0.29573685 -0.7016766
-2.7245114 1.5960557 0.19360691 -1.3251798 0.18199003 -2.9294846 -2.7192557 1.9010785
1.4878261 3.986383 1.0927615 0.4526025 -0.22512385 1.1879256 -0.32872927 0.7518298
2.4526362 -1.3467349 -0.6432159 -0.954027 -1.1189284 -0.014860308 -0.42276022 -2.9001167
2.2564623 0.07277876 1.9027658 3.1637325 -4.332165 -0.5844397 0.56951284 -2.0319173
2.148915 0.0069566546 -8.749703 -2.9677618 -2.1563435 -3.1976628 -0.730886 -0.13060622
1.61762 -0.11993206 -3.5165966 1.9070497 2.8938565 -5.863873 0.5523881 2.9895992
2.713497 1.8958579 -2.3521242 -1.7523715 -2.0591276 -1.3301138 0.8724872 0.13505664
-2.0237534 2.1769636 -1.4771953 2.4251778 0.6251884 -2.0375226 3.125111 0.553124
-4.7186427 -3.0412483 1.0965192 0.7642342 -1.5398433 -3.4495964 2.7240953 -1.4098514
-0.08299131 -1.5653235 0.20329759 3.0165234 1.2171769 6.187456 -1.1412241 3.3068998
-1.9572941 -2.155355 -0.2871921 0.8332295 -0.58271927 3.8679504 -0.46807078 1.4134942
0.043490447 1.3701702 0.40405348 1.6525929 2.9129894 0.37098286 -1.1968433 2.671087
2.7634082 -1.7215829 10.214806 0.7727031 2.9216282 3.044689 4.4007215 -4.1662436
-5.420519 0.406401 0.36075747 1.8775808 2.434503 0.26394367 0.13582999 -0.10877924
1.7112646 0.0043800906 -1.4179031 9.829969 -0.6679503 2.6371312 0.7087887 1.3437845
0.7750385 -0.49686515 1.3437295 -0.9045646 -3.593297 -2.6361356 0.5511677 0.95636255
1.3190318 -3.322792 2.270478 -1.1471697 3.1066914 2.757283 4.0570784 0.758592

v.v_net.2.bias f4 [64]
00000000: 535e 19bf 1fc6 69bf f29d 2cbf 50f9 7b3f
00000010: fd4a 7e3e b3f4 443e 5467 8fbf 374b 9c3f
00000020: b0ce 13bf 0bd7 e23f 1749 1dbf eafb b2bf
00000030: b64e 1640 29f1 6d3e 3eea 873f 29d7 51bf
00000040: 4bbb 503e 63aa dabf 6b4f 7f3f 98db cf3e
00000050: 74e7 e3bf f3d0 d33f 8e13 00bf f438 4240
00000060: 214f a7bf 33a6 223f d64c 6b3f 740d 863e
00000070: c031 333f 0c4b 8e3d f440 c8bd 3752 8f3f
00000080: 2914 05c0 af06 da3f 37aa 00c0 177b 913f
00000090: 4cdc 003f 816e 2ebf 59ae 1c3f 9cbf 0dbf
000000a0: 2cdf ce3d af1e acbf 6bd9 583f df85 34bf
000000b0: 7ac9 943e 94b1 313f e69c 0640 21e2 d73f
000000c0: fbd3 16bf 347b 063f 7aa0 383f 2d2c 5fbf
000000d0: cd8b 5c3f 65be 253f 0b71 95bf 45ae bd3d
000000e0: ed04 e43d 3e17 253f 3183 1bbe ed43 c5bf
000000f0: b6d6 bcbf c603 153f 1008 093f 7646 5dbe
-0.5990955 -0.91317934 -0.67428505 0.98427296 0.24833293 0.1923397 -1.1203408 1.2210454
-0.57737255 1.7721876 -0.6143965 -1.3983128 2.3485541 0.23236527 1.061836 -0.81968933
0.20383947 -1.7083248 0.9973056 0.40597224 -1.7805009 1.6548141 -0.5002984 3.0347261
-1.3071023 0.6353485 0.9191412 0.2618214 0.6999779 0.06947908 -0.09778014 1.1196965
-2.0793555 1.703329 -2.010389 1.1365689 0.50336146 -0.68137366 0.61203533 -0.553705
0.101011604 -1.3446864 0.84706753 -0.7051677 0.29059964 0.6941159 2.1033263 1.6865884
-0.58917207 0.52531743 0.7211987 -0.8717678 0.8615082 0.64743644 -1.1675123 0.09261755
0.11133752 0.6448859 -0.15186764 -1.5411354 -1.4753025 0.5820888 0.5352793 -0.2160891

v.v_net.4.weight f4 [1, 64]
00000000: 09d7 5941 b2c1 dbc1 67c1 b2c1 0b68 9941
00000010: c080 c340 6685 52c1 d3f3 82c1 50ed b6c1
00000020: e8b9 d5c1 1f6a efc1 b740 bc41 2a54 6741
00000030: 2fc0 9f41 a0bf 0d42 4ffc 42c1 0ccb a1c1
00000040: ccda 4541 af0b fac0 b232 ccc1 944e 7b41
00000050: 49c1 f741 0829 8141 7648 a541 a97f 00c2
00000060: 2ad0 5741 b1ac f5c1 b720 5ac1 5f7c 95c1
00000070: c75b 3641 337d b5c1 1d49 55c1 3753 2641
00000080: 77e3 31c1 58d1 a2c1 b7e1 11c1 fe61 8b41
00000090: 88dd 44c1 6635 9941 2cf4 6ec1 2bc9 68c1
000000a0: ae25 2141 6876 5dc1 c3c8 1341 556d 48c1
000000b0: badc 5141 6c63 9241 22ea b3c1 b5b2 c6c1
000000c0: cbd9 5a41 037e 9fc1 fbe0 1041 a27f c840
000000d0: 70e4 6341 0513 d4c1 18e1 9dc1 6ed5 d841
000000e0: b56b 3841 2f0c c541 d9f1 9741 048c 0242
000000f0: 9aed 20c1 f1a8 05c1 bcc6 44c1 fefd de41
13.614999 -27.469578 -22.344435 19.175802 6.1094666 -13.157568 -16.369055 -22.865875
-26.715775 -29.926817 23.531599 14.458048 19.96884 35.437134 -12.186599 -20.224144
12.365917 -7.813926 -25.524754 15.706684 30.969378 16.145035 20.660381 -32.12467
13.488321 -30.709322 -13.632987 -18.685728 11.397407 -22.686132 -13.33035 10.395316
-11.118033 -20.352219 -9.117606 17.422848 -12.304085 19.151073 -14.934612 -14.549113
10.071699 -13.841408 9.236514 -12.526692 13.116388 18.298546 -22.489323 -24.83726
13.678172 -19.93653 9.054927 6.26558 14.243271 -26.509287 -19.73491 27.104214
11.526296 24.630949 18.99309 32.636734 -10.058008 -8.353745 -12.298519 27.87402
