model_wts/s0_d1_m1.0_b0.0.ckpt (torch, 206875 bytes, 11 tensors)

pi.logits_net.0.weight f4 [64, 282]
0.11750344 -0.08675631 0.04334879 0.040356196 0.1330402 0.16288769 0.030830713 0.07922492
0.0870757 0.21819292 -0.12770915 -0.13040638 0.061058946 0.05292192 0.12237063 0.08638668
0.1414906 -0.13076484 0.1156047 0.09112059 0.13957791 0.081457935 -0.12103063 0.19148079
0.08966083 0.098660834 0.17097004 0.061809607 -0.005478152 0.10287353 0.12370587 0.1438103
-0.15729904 0.119505644 0.07544811 -0.023761831 -0.0027508705 0.1435481 0.18254848 0.12122097
0.09549203 -0.1402426 0.102434106 0.036759526 -0.15180366 0.06166104 0.1935484 0.19089176
-0.13612285 0.029861853 0.15513544 0.1771488 -0.08607897 0.100404374 -0.078774415 0.12091286
-0.10760484 0.07088304 0.05108729 0.086289756 0.14399521 0.11630752 -0.0032637892 -0.09172213
-0.086010195 0.08484406 0.06842311 -0.095914274 -0.1057301 0.17512755 -0.16459009 0.0101877125
0.11576272 -0.093334064 -0.05789196 0.084552385 -0.10685035 -0.019773357 0.08965886 0.055105634
-0.16520947 0.20888494 0.07728792 0.057649374 0.10350523 0.10791785 -0.11951174 -0.1365306
0.09424138 0.1510423 -0.49340868 0.39141658 0.3937437 -0.05516732 -0.048541084 0.17988205
0.30527112 -0.5028147 0.04412832 -0.26337302 0.30987722 0.11208378 -0.18627997 -0.55155605
0.26814312 0.15986781 -0.7454233 -0.35514176 -0.0016252184 0.07350795 0.051231988 0.06658023
0.0829463 -0.30113193 -0.18303818 -0.096716605 -0.3183197 0.4192514 0.15365177 -0.09988316
-0.0896023 -0.18191165 -0.13504063 -0.1253531 0.06575642 0.38763055 0.16071293 0.10725404
0.21335956 0.021163866 0.21180613 -0.01782738 -0.13462761 -0.24612999 -0.1133004 -0.073397785
0.04161925 -0.39751562 -0.26070803 -0.19325627 0.25612915 0.32920927 -0.1724361 0.085020624
-0.2906584 0.13369818 -0.18589719 -0.29898566 0.10457008 -0.07976072 0.028935786 0.0006368995
-0.26615593 0.3347203 0.008947274 -0.04457459 -0.2166534 -0.07003036 -0.06440622 0.13145971
0.34728843 -0.02057896 -0.25441158 -0.11309602 0.00030900142 -0.007566655 0.06348264 -0.3874099
-0.24567923 -0.09638927 -0.121432915 0.15023145 0.12974267 0.24497278 0.005567749 -0.32894838
-0.024443353 -0.009046084 -0.09363087 0.49689654 -0.46861893 0.29067564 -0.8212567 0.6277275
-0.2565032 0.29551932 0.13526882 0.2982183 0.3092642 -0.024276083 1.1331822 0.43873978
-0.53476685 -0.31111798 0.40853247 0.1414195 -0.68440664 -0.19373927 -0.107130036 -0.27702475
-0.01755534 0.729947 -0.7750566 -0.24673794 0.912171 -0.6555733 -0.06444466 -0.1703739
-0.041411035 0.3415115 -0.09210553 0.8838932 0.80678284 -0.0739066 -0.23050131 0.773161
-0.56806964 0.8341151 0.092941135 0.31593218 -0.22973463 0.4697191 -0.51193774 0.52753085
0.21063922 -0.19514251 -0.20907271 -0.4515544 0.20012444 0.1654956 -0.41229984 -0.09741729
0.30831212 -0.18782055 -0.18626267 0.044475585 -0.71570903 -0.51314574 -0.21732387 0.6965606
-0.21559934 0.65227675 -1.0468912 -0.70797884 -0.3529697 -0.15398422 0.3533532 0.73162085
-0.8103692 0.28375056 0.106196634 -0.050708484 0.40397182 0.43320146 0.43321663 -0.35758257
00000000: a5a5 f03d 4bad b1bd 808e 313d 8a4c 253d
00000010: b13b 083e 08cc 263e b190 fc3c ad40 a23d
00000020: bf54 b23d f76d 5f3e 30c6 02be 4089 05be
00000030: f218 7a3d a8c4 583d 749d fa3d 80eb b03d
00000040: e9e2 103e 38e7 05be 28c2 ec3d 6f9d ba3d
00000050: 83ed 0e3e 6bd3 a63d e8de f7bd 8a13 443e
00000060: 19a0 b73d b10e ca3d c512 2f3e 122c 7d3d
00000070: 1282 b3bb 5baf d23d 8159 fd3d 0243 133e
00000080: 0013 21be 60bf f43d 8a84 9a3d 2ca8 c2bc
00000090: f347 34bb 46fe 123e fded 3a3e b342 f83d
000000a0: 5391 c33d c29b 0fbe f9c8 d13d 2891 163d
000000b0: 6b72 1bbe 4990 7c3d 8d31 463e 2179 433e
000000c0: ca63 0bbe d8a0 f43c d3db 1e3e 7f66 353e
000000d0: 2c4a b0bd cfa0 cd3d 7b54 a1bd 29a1 f73d
000000e0: ed5f dcbd 212b 913d e840 513d afb8 b03d
000000f0: 7b73 133e a332 ee3d 4ce5 55bb d0d8 bbbd
00000100: 1d26 b0bd b9c2 ad3d 6a21 8c3d b46e c4bd
00000110: 0689 d8bd a354 333e 4e8a 28be 5dea 263c
00000120: 0115 ed3d ee25 bfbd 1f20 6dbd cd29 ad3d
00000130: 5bd4 dabd bcfb a1bc 109f b73d 72b6 613d
00000140: ac2c 29be efe5 553e 2149 9e3d c021 6c3d
00000150: 8dfa d33d 0904 dd3d 92c2 f4bd adce 0bbe
00000160: a001 c13d d5aa 1a3e 10a0 fcbe c167 c83e
00000170: c698 c93e 21f7 61bd 04d3 46bd 0033 383e
00000180: 7f4c 9c3e 77b8 00bf e6bf 343d d4d8 86be
00000190: 3aa8 9e3e 2e8c e53d 2dc0 3ebe c732 0dbf
000001a0: 0e4a 893e 63b4 233e 10d4 3ebf 24d5 b5be
000001b0: 4805 d5ba 568b 963d a2d8 513d 375b 883d
000001c0: c0df a93d f72d 9abe 5c6e 3bbe 5b13 c6bd
000001d0: cdfa a2be 1fa8 d63e e456 1d3e 8b8f ccbd
000001e0: 6981 b7bd 0c47 3abe 1748 0abe 905c 00be
000001f0: 4dab 863d 8377 c63e ee91 243e 02a8 db3d
00000200: ee7a 5a3e d85f ad3c b5e3 583e ba0a 92bc
00000210: d2db 09be 8009 7cbe 0a0a e8bd 9451 96bd
00000220: f278 2a3d 2b87 cbbe 867b 85be f9e4 45be
00000230: 5c23 833e 1e8e a83e 1793 30be 4b1f ae3d
00000240: 2ed1 94be 2de8 083e d55b 3ebe a614 99be
00000250: d728 d63d 9759 a3bd be0a ed3c 9af5 263a
00000260: 9745 88be 7660 ab3e 9697 123c d893 36bd
00000270: 64da 5dbe 146c 8fbd 69e7 83bd 609d 063e
00000280: cacf b13e 3595 a8bc 3c42 82be e39e e7bd
00000290: 7801 a239 b4f1 f7bb 3003 823d 975a c6be
000002a0: 5693 7bbe bd67 c5bd d2b1 f8bd 46d6 193e
000002b0: 43db 043e 25da 7a3e aa71 b63b ec6b a8be
000002c0: 6d3d c8bc 0736 14bc 8bc1 bfbd 3969 fe3e
000002d0: d2ee efbe 70d3 943e e13d 52bf c0b2 203f
000002e0: 6354 83be 4f4e 973e e983 0a3e 12b0 983e
000002f0: e157 9e3e a3de c6bc 1d0c 913f 80a2 e03e
00000300: 7be6 08bf db4a 9fbe 2b2b d13e 46d0 103e
00000310: 4635 2fbf 9663 46be fe66 dbbd 30d6 8dbe
00000320: 37d0 8fbc cedd 3a3f 1c6a 46bf dfa8 7cbe
00000330: 0a84 693f a7d3 27bf 90fb 83bd 7f76 2ebe
00000340: 9e9e 29bd 98da ae3e d3a1 bcbd d346 623f
00000350: 5289 4e3f 585c 97bd 8908 6cbe e1ed 453f
00000360: 036d 11bf 9188 553f ec57 be3d ddc1 a13e
00000370: 8e3f 6bbe 067f f03e 5a0e 03bf 430c 073f
00000380: cfb1 573e 70d3 47be 2817 56be 2332 e7be
00000390: 6ced 4c3e ae77 293e f718 d3be b782 c7bd
000003a0: 16db 9d3e 0854 40be a4bb 3ebe 082c 363d
000003b0: b538 37bf 855d 03bf 268a 5ebe cc51 323f
000003c0: 13c6 5cbe 9cfb 263f 8800 86bf 1a3e 35bf
000003d0: 72b8 b4be 0aae 1dbe b6ea b43e 814b 3b3f
000003e0: 5b74 4fbf c147 913e 9f7d d93d b3b3 4fbd
000003f0: 65d5 ce3e 95cc dd3e 92ce dd3e 1015 b7be

pi.logits_net.0.bias f4 [64]
-0.016139517 0.054663364 0.113711566 -0.30810997 0.044364426 -0.0013423851 0.041478682 -0.18878406
-0.16671266 0.05566609 -0.014836477 0.21579748 0.077095136 -0.058654685 0.014337436 -0.0887737
0.09915821 0.10948601 0.056411512 0.24939783 0.029117808 -0.057056114 -0.12212683 0.010497382
0.1897972 -0.009209672 0.041888535 -0.25003275 0.11133868 -0.105588906 -0.13169944 -0.26466036
-0.21499978 -0.005034736 -0.03135904 0.03902055 -0.1227901 0.10199574 0.032683283 0.057010997
-0.10871126 -0.065856256 0.15663013 0.2400733 -0.056999583 0.26174998 0.28736642 -0.08750094
0.20199026 0.05449806 -0.009741981 0.14741677 0.28308195 -0.05375825 0.20778339 -0.14007643
0.16490658 0.10766971 -0.07440481 0.06476854 0.2275293 0.017518653 -0.047352552 0.14844011
00000000: 0537 84bc b1e6 5f3d 9ce1 e83d 97c0 9dbe
00000010: 79b7 353d f8f2 afba 8de5 293d 9c50 41be
00000020: b9b6 2abe 2002 643d b214 73bc 04fa 5c3e
00000030: 0ee4 9d3d e53f 70bd 91e7 6a3c fcce b5bd
00000040: 7613 cb3d 343a e03d c20f 673d 2562 7f3e
00000050: 7888 ee3c acb3 69bd a21d fabd 36fd 2b3c
00000060: 325a 423e 2ae4 16bc 5093 2b3d 4b04 80be
00000070: 8905 e43d ff3e d8bd 38dc 06be 9081 87be
00000080: e728 5cbe 6dfa a4bb 5672 00bd 03d4 1f3d
00000090: 6079 fbbd 24e3 d03d e8de 053d 5d84 693d
000000a0: 02a4 debd a5df 86bd a663 203e c6d5 753e
000000b0: 6578 69bd 1804 863e b121 933e b133 b3bd
000000c0: 89d6 4e3e 5c39 5f3d d49c 1fbc 6cf4 163e
000000d0: 1ef0 903e 9c31 5cbd 2bc5 543e 3270 0fbe
000000e0: 45dd 283e f081 dc3d 8d61 98bd 5ea5 843d
000000f0: 71fd 683e 4783 8f3c c0f4 41bd af00 183e

pi.logits_net.2.weight f4 [64, 64]
-0.17094554 0.35300994 -0.14361139 -0.4525568 -0.10052465 0.080180116 0.4385627 0.105573095
-0.17585264 0.055756144 -0.48354355 -0.10564547 -0.42406794 -0.42036968 -0.09379751 0.05832812
-0.119473584 -0.23515962 0.29374617 -0.023394054 0.09890209 0.532014 -0.23870358 0.56200117
-0.23159939 0.052861255 -0.018482745 -0.27703348 0.3920466 0.47656628 0.56852776 0.18469155
0.41910842 -0.12032648 -0.3076399 0.5434759 -0.008645756 -0.676555 -0.6681176 -0.35063842
0.2987909 -0.26061246 0.053185236 1.0898681 -0.20750639 0.19842112 -0.3546549 -0.5938734
0.364055 -0.5587584 0.07336808 -0.11800638 -0.1252281 0.15030366 0.07310859 1.0549688
0.7361282 0.038446628 -0.09015444 0.5457882 0.4886187 0.23548122 0.2767056 0.11225901
0.47643754 -0.33066654 0.1355349 0.14561261 -0.1078985 0.6483244 -0.12189387 0.5219294
0.40993947 -0.020501833 -0.5141317 -0.8182315 0.19726741 0.2227113 -0.2913936 0.43254477
-0.2453688 0.09312693 0.3135126 0.039294433 -0.101326205 0.001891881 0.030577943 -0.5624704
0.0010456294 -0.40101355 -0.14586014 0.6500935 0.18437886 -0.48844832 0.053479306 -0.46087408
0.24215843 0.007942682 0.077504426 -0.39805833 0.020942025 -0.32385615 0.14090662 -0.34227654
-0.2506591 -0.4009628 0.09762194 -0.2559076 -0.15839562 -0.75338316 -0.41006017 -0.47409317
0.1672 -0.15282795 -0.3575798 0.37477463 -0.06882805 0.5342767 0.32148883 0.5513784
0.39068905 -0.4348117 0.59611976 -0.6228599 -0.6812912 0.40356222 -0.10923068 -0.9282816
0.4944583 -0.8291193 0.3056826 -0.061901547 0.3090479 0.049261246 -0.48669982 0.13243744
-0.11004771 0.02418922 0.3664828 -0.18741676 0.46912223 0.47573766 0.16029364 0.11252523
0.033650354 0.7679285 -0.6885207 0.7719434 -0.3021382 -0.4014563 -0.7118343 -0.041648567
0.013372423 -0.4421539 0.06913192 0.8179942 -0.4112696 -0.31434676 -0.2965945 -0.07765074
-0.10454511 -0.28562075 0.16523255 -0.042941812 0.3656527 -0.3257446 0.76793593 0.050160535
-0.21296142 0.40996262 -0.5092173 -0.28251842 -0.19646841 -0.88112676 0.42466342 0.3905355
-0.36091924 0.07152879 -0.39504 -0.27593905 -0.094183944 0.56796724 0.106993206 -0.08207209
-0.2567117 -0.15720844 0.14855592 0.5227204 -0.25641522 -0.16112605 -0.6856125 -0.5933
0.57612115 0.49316213 0.9766699 0.06424091 0.43323857 -0.42035875 0.1279462 -0.34329322
0.027272152 -0.026293814 0.16527437 0.47226804 -0.49474075 0.33004886 0.057944473 -0.13786198
-0.068699926 -0.11623508 -0.26688722 0.27103788 0.09470515 0.16485643 0.10653834 0.70546037
0.21435961 0.31135234 1.0319269 -0.35119334 -0.00768232 0.32881725 0.85215634 0.7353185
-0.6358131 0.14370878 0.030579602 -0.26061898 -0.7721313 -0.050945476 -0.37062368 0.08742789
0.41537604 -0.03352175 0.025187684 0.47857437 -0.14002721 -0.2122126 -0.09355571 -0.28041372
0.03258353 -0.054521278 1.111582 -0.2965625 0.08931659 0.51426697 0.7644247 -0.38619998
0.6323108 -0.173713 -0.1539513 0.006408221 0.53202194 0.4304717 -0.54983574 0.59382117
00000000: 590c 2fbe b8bd b43e dd0e 13be 86b5 e7be
00000010: dedf cdbd 7935 a43d 4a8b e03e b536 d83d
00000020: b712 34be 8e60 643d 0593 f7be a75c d8bd
00000030: 6f1f d9be b23a d7be e918 c0bd 77e9 6e3d
00000040: 91ae f4bd afcd 70be e665 963e e3a4 bfbc
00000050: 2e8d ca3d 1232 083f b66e 74be 4fdf 0f3f
00000060: 6428 6dbe 0b85 583d 2069 97bc 55d7 8dbe
00000070: 55ba c83e 7f00 f43e 098b 113f c81f 3d3e
00000080: 6195 d63e bb6d f6bd fa82 9dbe 3d21 0b3f
00000090: eea6 0dbc b532 2dbf c109 2bbf e186 b3be
000000a0: 1ffb 983e ff6e 85be c3d8 593d cc80 8b3f
000000b0: 8e7c 54be e82e 4b3e 5495 b5be 1608 18bf
000000c0: 6b65 ba3e ca0a 0fbf 0142 963d 54ad f1bd
000000d0: cc3b 00be 34e9 193e f5b9 953d 3809 873f
000000e0: e672 3c3f 367a 1d3d e4a2 b8bd c7b8 0b3f
000000f0: 3b2c fa3e fd21 713e 5bac 8d3e 0de8 e53d
00000100: 9fef f33e 204d a9be a9c9 0a3e 791b 153e
00000110: e4f9 dcbd 96f8 253f 7ea3 f9bd 2a9d 053f
00000120: 96e3 d13e 76f3 a7bc 239e 03bf 9f77 51bf
00000130: 7800 4a3e 6e0e 643e 8b31 95be 8276 dd3e
00000140: f541 7bbe 55b9 be3d b984 a03e 33f3 203d
00000150: 1d84 cfbd fef8 f73a 987e fa3c 0ffe 0fbf
00000160: 800d 893a a651 cdbe 5c5c 15be 876c 263f
00000170: d0cd 3c3e e615 fabe 1e0d 5b3d b0f7 ebbe
00000180: 61f8 773e 0622 023c a4ba 9e3d 4dce cbbe
00000190: 9c8e ab3c 79d0 a5be d349 103e df3e afbe
000001a0: 6456 80be ff4a cdbe 03ee c73d 5206 83be
000001b0: 7632 22be b8dd 40bf 68f3 d1be 57bc f2be
000001c0: 7a36 2b3e ee7e 1cbe b314 b7be 76e2 bf3e
000001d0: b8f5 8cbd 5cc6 083f 2f9a a43e 2327 0d3f
000001e0: 6508 c83e a49f debe 4e9b 183f bf73 1fbf
000001f0: 1a69 2ebf b59f ce3e 56b4 dfbd dda3 6dbf
00000200: a329 fd3e 2a41 54bf 6e82 9c3e 7a8c 7dbd
00000210: 873b 9e3e 29c6 493d b830 f9be ae9d 073e
00000220: b260 e1bd 7928 c63c a2a3 bb3e 2eea 3fbe
00000230: ca30 f03e e393 f33e 0424 243e a173 e63d
00000240: f4d4 093d f696 443f e542 30bf 159e 453f
00000250: dcb1 9abe ae8b cdbe c63a 36bf b097 2abd
00000260: 0218 5b3c ff61 e2be 0995 8d3d 1168 513f
00000270: ee91 d2be 0ff2 a0be 3cdb 97be 5a07 9fbd
00000280: bf1b d6bd e23c 92be b932 293e c1e3 2fbd
00000290: d536 bb3e ffc7 a6be 7397 443f 2275 4d3d
000002a0: 8f12 5abe 9fe6 d13e 115c 02bf 41a6 90be
000002b0: 042f 49be 8691 61bf 7c6d d93e 45f4 c73e
000002c0: 68ca b8be b07d 923d af42 cabe e247 8dbe
000002d0: 83e3 c0bd 4d66 113f 411f db3d 6915 a8bd
000002e0: b76f 83be 40fb 20be 0b1f 183e 01d1 053f
000002f0: db48 83be 3afe 24be 4d84 2fbf 82e2 17bf
00000300: ad7c 133f bf7f fc3e 0a07 7a3f bd90 833d
00000310: 72d1 dd3e 4339 d7be 5404 033e 21c4 afbe
00000320: d969 df3c 2066 d7bc af3d 293e 1ecd f13e
00000330: a94e fdbe 2afc a83e 2f57 6d3d b12b 0dbe
00000340: 8cb2 8cbd a80c eebd 71a5 88be 7ac5 8a3e
00000350: c6f4 c13d 20d0 283e c630 da3d 0d99 343f
00000360: 1681 5b3e 9369 9f3e 2e16 843f 9dcf b3be
00000370: f9bb fbbb bc5a a83e eb26 5a3f d53d 3c3f
00000380: a6c4 22bf 6528 133e 1382 fa3c da6f 85be
00000390: 66aa 45bf 34ac 50bd 63c2 bdbe 650d b33d
000003a0: 2bac d43e 1a4e 09bd 6756 ce3c b307 f53e
000003b0: 4b63 0fbe 434e 59be 239a bfbd 6392 8fbe
000003c0: 4f76 053d b451 5fbd 5248 8e3f 0ad7 97be
000003d0: 9eeb b63d 00a7 033f 56b1 433f 01bc c5be
000003e0: 1fdf 213f d2e1 31be 69a5 1dbe 0efc d13b
000003f0: 9732 083f c966 dc3e 09c2 0cbf aa04 183f

pi.logits_net.2.bias f4 [64]
0.23036951 -0.08242049 -0.05711185 0.42642432 0.10104789 -0.03550512 -0.18104137 -0.252051
0.22786541 0.31368586 0.24673943 0.1304473 0.23437682 0.23344177 -0.08703899 -0.008898519
0.36811724 -0.18752609 0.06034977 0.20055287 0.30172324 -0.22744122 -0.21554975 0.11155728
0.0005345792 0.10312701 -0.09127626 -0.044585906 -0.024060348 -0.4765549 0.5343026 0.04919448
-0.004455946 0.044281185 -0.1258429 -0.0250944 -0.14894673 -0.21505238 -0.006637887 0.5160936
-0.09789163 0.16818085 -0.15940998 -0.0559649 -0.07982413 -0.060903672 -0.4177948 0.20135237
0.40466407 -0.21965228 0.42321408 0.10434594 -0.17217436 0.06474648 -0.30769655 -0.2957542
0.007328279 -0.39449304 -0.17095408 -0.36274645 -0.19880866 -0.25073743 0.1155562 0.2903075
00000000: fce5 6b3e 13cc a8bd 1dee 69bd 4a54 da3e
00000010: 32f2 ce3d d16d 11bd e962 39be d40c 81be
00000020: 8d55 693e 6f9b a03e 43a9 7c3e fa93 053e
00000030: 7a00 703e 5c0b 6f3e 7f41 b2bd 18cb 11bc
00000040: dd79 bc3e d706 40be 5231 773d bb5d 4d3e
00000050: 787b 9a3e 5ae6 68be 13b9 5cbe 2578 e43d
00000060: 0123 0c3a 4134 d33d 0cef babd b69f 36bd
00000070: 351a c5bc 01ff f3be 0ec8 083f 2780 493d
00000080: 2f03 92bb 3060 353d f6dc 00be c592 cdbc
00000090: 7e85 18be b136 5cbe a282 d9bb b61e 043f
000000a0: 687b c8bd 9a37 2c3e 5f3c 23be 733b 65bd
000000b0: d57a a3bd 2176 79bd 33e9 d5be 512f 4e3e
000000c0: 2130 cf3e 87ec 60be 84af d83e 53b3 d53d
000000d0: 7a4e 30be cd99 843d 678a 9dbe 186d 97be
000000e0: 0f22 f03b fefa c9be 960e 2fbe e7b9 b9be
000000f0: 7f94 4bbe a860 80be bba8 ec3d 2fa3 943e

pi.logits_net.4.weight f4 [87, 64]
0.21660368 -0.19200306 -0.10916103 0.17699514 -0.5471609 -1.0301646 -0.0090458 -0.24751095
0.7334987 0.27982998 0.06272307 0.30565596 -0.9073203 0.02841859 0.5828336 0.9353854
0.96218246 0.021298535 -0.009287821 0.41878942 0.24041753 0.20774479 -0.08177043 0.33033586
-0.13492036 0.15070671 -1.1328177 -0.8685529 0.41498023 -0.6372397 0.36730734 0.36634654
-0.027088137 0.35985687 -0.41825086 1.0829899 -0.019706802 -0.4633726 0.59323084 0.789361
-0.7951275 0.63893384 -0.044286374 -0.83223677 -0.29742578 0.5265446 -0.18401389 0.07964762
-0.19323653 -0.74326587 -0.25837147 -0.45430616 0.18680197 0.41701555 -0.69842315 -0.80244803
0.16054852 -0.5944023 -0.26190746 -0.22295195 -0.34902334 -0.2413847 0.23568185 0.6281413
0.041225735 -0.047347456 -0.041295208 -0.25494486 0.76864356 0.4868862 -0.1933116 -0.43537113
-0.88506234 -0.14648136 -0.72245514 0.16539747 0.08666261 -0.99643546 -0.1351005 0.33708748
0.29816777 -0.7231296 -0.47660956 -1.0375752 -0.38537782 -0.116946414 0.23181456 0.4810166
1.2749821 -0.62333876 0.68009263 -0.3744719 0.38400024 0.48464027 0.4627967 -0.32887462
0.92657393 -0.61612 -0.2854871 0.34384713 -0.7507189 0.5175675 -1.7955729 0.5397566
0.2878898 0.34248236 0.21216345 0.96108866 0.17771193 0.9019861 0.6733621 0.60287285
0.55874735 0.48156798 0.20510118 -0.7482863 -0.094317 -0.06553298 -0.6004617 -0.5009652
1.2321492 0.77438825 0.60363686 0.35965165 -0.2772712 -0.24615037 -0.73538846 -0.3608096
0.36817777 -0.08110366 -0.011252235 -0.19931298 0.19424441 0.33918625 0.09483087 0.16867045
-0.28994742 0.13312997 0.017561927 -0.06041505 -0.07987763 -0.04893751 -0.12597734 -0.070135675
-0.15598738 0.62750745 0.4006217 -0.102241695 0.36742803 -0.08122268 0.13551366 -0.3751056
0.30160397 0.043176148 0.1441686 0.12362721 0.04869711 -0.2843063 0.13421437 0.028308678
-0.17823693 -0.21722335 -0.26539564 -0.4123731 -0.12867649 0.60091156 -0.35296735 -0.014858868
0.336496 -0.11360857 -0.14341654 0.4105521 0.10418305 0.38490713 0.34911862 0.12077744
0.26626915 0.0035495572 -0.090670295 -0.22185685 -0.24784094 0.25632566 0.32236722 -0.30757064
0.08562384 -0.29160914 0.39909098 -0.24078722 -0.15487637 -0.3733737 0.005206074 0.18677005
-0.53438246 -0.048307236 0.72911817 0.19949017 -0.021343714 0.09284459 0.13013442 -0.7306257
0.19098708 0.17454432 0.902572 -0.6028655 0.006587441 0.16731906 0.8594841 -0.59078825
-0.08077066 -0.84244573 -0.15980986 -0.22232625 0.30404785 -0.6127275 0.12980509 -0.08791202
-0.20219186 -0.04023855 -0.014337303 -0.15191266 -0.76830035 -0.5733611 -0.25304425 -0.31860477
-0.517582 0.7705472 -0.07728616 0.38766047 0.54703736 -0.11177147 0.18937057 -0.08707985
-0.005164694 0.1353484 0.21224274 0.6510841 -0.5559546 -0.7978323 -0.025316436 -0.3576801
0.57146144 -0.46528548 0.38811 1.1190089 -0.042139053 -0.98299897 -0.39611065 -0.10257741
-1.0325954 -0.36468327 -0.21194468 -0.44130465 0.5394225 0.9843579 -0.754021 -0.59756505
00000000: 5bcd 5d3e 739c 44be d18f dfbd 373e 353e
00000010: bd12 0cbf 6fdc 83bf d634 14bc 8373 7dbe
00000020: 92c6 3b3f e045 8f3e f474 803d f07e 9c3e
00000030: 2546 68bf 1ace e83c 9534 153f 6b75 6f3f
00000040: 9751 763f 447a ae3c f22b 18bc 916b d63e
00000050: 0330 763e 0dbb 543e 4177 a7bd c821 a93e
00000060: 9028 0abe dc52 1a3e 2c00 91bf 7c59 5ebf
00000070: 4a78 d43e 2422 23bf b50f bc3e c691 bb3e
00000080: f1e7 ddbc 293f b83e fa24 d6be 6a9f 8a3f
00000090: 2970 a1bc 2c3f edbe fadd 173f 9013 4a3f
000000a0: 7a8d 4bbf 2b91 233f a165 35bd 780d 55bf
000000b0: 3148 98be a0cb 063f 236e 3cbe 4b1e a33d
000000c0: ccdf 45be ac46 3ebf 4449 84be d19a e8be
000000d0: 0449 3f3e 1083 d53e dccb 32bf 3c6d 4dbf
000000e0: d566 243e c02a 18bf bc18 86be 844d 64be
000000f0: 30b3 b2be 8d2d 77be 9556 713e decd 203f
00000100: 51dc 283d 68ef 41bd 2a25 29bd 2288 82be
00000110: d3c5 443f 2649 f93e 7af3 45be f7e8 debe
00000120: 7293 62bf 36ff 15be d2f2 38bf f45d 293e
00000130: 2b7c b13d 6516 7fbf c957 0abe bb96 ac3e
00000140: 72a9 983e 051f 39bf 2b06 f4be 44cf 84bf
00000150: 3e50 c5be 9a81 efbd cc60 6d3e cf47 f63e
00000160: 9d32 a33f 2193 1fbf 8d1a 2e3f c8ba bfbe
00000170: ae9b c43e c522 f83e b0f3 ec3e 4162 a8be
00000180: f333 6d3f 0aba 1dbf 5d2b 92be bb0c b03e
00000190: 1d2f 40bf 4e7f 043f 55d5 e5bf 7d2d 0a3f
000001a0: 4b66 933e d959 af3e 6041 593e e809 763f
000001b0: 1efa 353e 90e8 663f 7561 2c3f e055 1a3f
000001c0: 110a 0f3f 1490 f63e 0b06 523e b18f 3fbf
000001d0: 4529 c1bd 2836 86bd dcb7 19bf 413f 00bf
000001e0: 11b7 9d3f 4f3e 463f f287 1a3f 4324 b83e
000001f0: 7ef6 8dbe d80e 7cbe 6b42 3cbf 09bc b8be
00000200: cc81 bc3e ad19 a6bd 4b5b 38bc b418 4cbe
00000210: 02e8 463e d2a9 ad3e b036 c23d f2b7 2c3e
00000220: fd73 94be 3953 083e 08de 8f3c c575 77bd
00000230: e296 a3bd b372 48bd 3400 01be 4ba3 8fbd
00000240: 28bb 1fbe 54a4 203f 4a1e cd3e 1864 d1bd
00000250: 871f bc3e 1458 a6bd 18c4 0a3e d70d c0be
00000260: d66b 9a3e 79d9 303d efa0 133e 4330 fd3d
00000270: 9f76 473d 9890 91be 7e6f 093e 9ae7 e73c
00000280: be83 36be cc6f 5ebe f0e1 87be 9122 d3be
00000290: c5c3 03be 57d5 193f 23b8 b4be 9c72 73bc
000002a0: 3449 ac3e 9cab e8bd c9db 12be e333 d23e
000002b0: ec5d d53d 8c12 c53e adbf b23e 2a5a f73d
000002c0: 6e54 883e b09f 683b 59b1 b9bd 712e 63be
000002d0: 04ca 7dbe 1e3d 833e 510d a53e e679 9dbe
000002e0: 8d5b af3d cb4d 95be a755 cc3e ed90 76be
000002f0: e997 1ebe d62a bfbe b797 aa3b a640 3f3e
00000300: 4acd 08bf cfdd 45bd 7da7 3a3f 2747 4c3e
00000310: 03d9 aebc 4e25 be3d f541 053e 490a 3bbf
00000320: 1e92 433e bfbb 323e f50e 673f 6555 1abf
00000330: 76db d73b b055 2b3e 2607 5c3f e63d 17bf
00000340: 166b a5bd 86aa 57bf 32a5 23be 7ea9 63be
00000350: 29ac 9b3e b6db 1cbf a0eb 043e 380b b4bd
00000360: 620b 4fbe 2ed1 24bd 02e7 6abc fe8e 1bbe
00000370: 55af 44bf cbc7 12bf 048f 81be 2a20 a3be
00000380: 4180 04bf 9542 453f 3548 9ebd 6f7b c63e
00000390: a40a 0c3f 71e8 e4bd 5cea 413e ec56 b2bd
000003a0: 983c a9bb c598 0a3e 2956 593e 73ad 263f
000003b0: 0a53 0ebf bd3e 4cbf 6a64 cfbc d921 b7be
000003c0: 4c4b 123f e639 eebe 5bb6 c63e af3b 8f3f
000003d0: 009a 2cbd d2a5 7bbf 04cf cabe 1b14 d2bd
000003e0: 162c 84bf c4b7 babe 0708 59be aff2 e1be
000003f0: 9817 0a3f e1fe 7b3f 8507 41bf 06fa 18bf

pi.logits_net.4.bias f4 [87]
0.3238178 0.38179815 0.09956167 0.70791024 0.061604097 0.25117815 0.3006823 0.26901847
0.3263059 0.5209297 0.43646207 0.27380094 0.3491969 0.46543723 0.30416912 0.37875935
0.4001724 0.5623533 0.2725951 0.24565686 0.39543793 0.11488369 0.33207414 0.046998013
0.56507564 0.5579811 0.3277964 0.55452967 0.17556307 0.4644937 0.12775868 0.19859014
0.01622246 0.2947863 0.6331603 0.12033283 0.344551 0.106507555 0.18919824 0.24475376
0.20143035 0.49656877 0.26693147 0.35687438 0.33141726 0.25675607 0.5430158 0.5474438
0.46774125 0.42672092 0.31724882 0.45537323 0.4415161 0.08070885 0.41609445 0.40930536
0.26925373 0.14809781 0.116744936 0.18861566 0.5583794 0.6538444 0.044100534 0.38254872
0.34407884 0.50207126 0.58043545 0.6991883 0.20740062 0.16471526 0.4046789 -0.053472325
0.09993126 0.3467367 0.15110819 0.38880783 0.25048625 0.15939023 0.67258537 0.33271182
0.26939824 0.5642133 0.028256057 0.5451639 0.09734237 0.7446411 0.6260406
00000000: 72cb a53e 0c7b c33e fde6 cb3d 9b39 353f
00000010: 9454 7c3d 6c9a 803e 08f3 993e cabc 893e
00000020: 9111 a73e a65b 053f f577 df3e a32f 8c3e
00000030: f0c9 b23e ca4d ee3e 0ebc 9b3e bfec c13e
00000040: 66e3 cc3e 63f6 0f3f 9691 8b3e 798d 7b3e
00000050: d776 ca3e 2448 eb3d 9f05 aa3e fd80 403d
00000060: cca8 103f d9d7 0e3f eed4 a73e a8f5 0d3f
00000070: cec6 333e 1ed2 ed3e 2cd3 023e 375b 4b3e
00000080: f7e4 843c 3bee 963e cb16 223f 0f71 f63d
00000090: fd68 b03e a220 da3d 2fbd 413e bba0 7a3e
000000a0: c243 4e3e 433e fe3e 3eab 883e 3db8 b63e
000000b0: 86af a93e 8875 833e 1503 0b3f 4725 0c3f
000000c0: c87b ef3e 2a7b da3e 706e a23e ae26 e93e
000000d0: 660e e23e ae4a a53d 550a d53e 7990 d13e
000000e0: a0db 893e f4a6 173e f817 ef3d 7724 413e
000000f0: f4f1 0e3f 5962 273f c3a2 343d 6ddd c33e
00000100: 1a2b b03e be87 003f 6b97 143f 01fe 323f
00000110: d460 543e 1eab 283e 1332 cf3e cc05 5bbd
00000120: c3a8 cc3d 7987 b13e 1bbc 1a3e d211 c73e
00000130: bc3f 803e 3137 233e 8e2e 2c3f 3459 aa3e
00000140: 91ee 893e 4870 103f 3f79 e73c dd8f 0b3f
00000150: 705b c73d cda0 3e3f 3244 203f

v.v_net.0.weight f4 [64, 282]
-0.21495382 -0.11493738 1.646967 -0.45501983 -0.08107246 -0.32290697 1.2375121 1.2610598
1.668702 -2.3793323 0.10435126 -0.1767385 -0.20488362 1.6599473 -0.37200487 -0.50893945
-0.1340117 -0.7073505 -0.09534762 -0.34089616 -0.24637489 1.2321191 0.07215461 -0.34604245
-0.07277812 1.6318616 -0.3649157 -0.3127739 1.1945455 -0.23592947 -0.3197205 1.5630871
-0.12842141 -0.2935977 -0.39711127 1.1663635 1.2443507 1.674076 -0.06387209 1.5867106
1.5800368 0.08427618 1.651585 1.6601418 0.12652908 1.6415285 -0.07579811 -0.07714599
0.046127103 1.2365491 -0.32914487 -0.1724296 0.09825646 1.6734682 -0.1452149 -0.03848687
-0.13769901 -0.33174452 1.6277329 -0.3041906 -0.37442723 1.6205674 1.2453365 -0.00720397
-0.11164753 1.6506416 -0.333346 0.061686844 -0.20097521 -0.14963336 -0.09228705 1.1736646
1.5756212 -0.2741522 0.1083219 1.2614832 -0.18967253 1.2601388 -0.45839104 1.6272043
0.02586889 -0.14656013 1.1744134 -0.2920867 1.5615653 -0.20141818 0.052915752 0.5099177
0.18527761 -0.41934213 -1.7050967 -0.67580104 -0.14250876 0.6235073 -0.6973088 0.2342868
-0.25973678 -1.5270989 -0.032581475 -2.7332156 -0.23528937 -2.1673777 -0.051137786 1.3180059
-1.664837 0.9406628 -0.6946349 -2.9957209 -0.8530185 -2.195863 0.7954371 0.6237891
0.556901 0.15653905 -0.5441097 1.3390826 -2.697066 -0.8885074 -0.62620014 -0.7867724
-1.7910116 -2.6343594 1.7156546 1.0697232 -0.79778033 0.06836621 0.48961475 -0.5076474
-0.5807945 0.8175742 0.1280492 -0.79269415 0.078917556 -0.29132363 -2.0706272 0.45679945
-0.029678239 -1.8519382 -1.0249548 0.7957073 -0.701241 -0.6015071 -0.16263382 -0.6862225
-1.8084569 -0.5980518 -2.746409 -2.0286057 -1.2253065 0.64424837 -1.2879891 -2.5949564
-0.4513089 -2.2139273 -0.51380974 -2.3374274 -0.5447554 -0.82343024 0.7748169 -0.2227988
-1.9279443 -0.42449355 0.5736984 -0.45943663 -0.5459217 -2.6144783 -0.6314295 -2.6373823
-0.2150144 0.3401637 -1.9229312 -0.16373067 -1.2944491 -1.3853898 -2.063877 8.592685
-2.6669862 1.8111875 2.068735 -4.2732615 -0.5911208 1.5059025 -1.4526244 -1.2282541
1.3958571 0.08328019 0.46410263 3.3460279 0.47630155 2.2367306 2.0427153 2.0608916
0.012892358 0.8331861 -0.6520648 -0.09993406 4.1670957 1.3681806 0.52562255 1.7263297
0.46129107 0.26807505 1.5010732 -0.5672674 -2.6967933 0.41907582 4.07228 2.1548991
-1.5605321 0.8665405 0.81804115 -1.0244141 1.602928 -0.61064047 -2.6360788 1.6643711
1.5595005 0.91583914 -2.895243 -2.279724 0.86184895 2.2263858 0.23454168 0.16454884
1.3417957 -1.6323498 -3.0946708 1.06231 -0.83458203 0.8892217 -0.52041376 -0.96575075
1.262312 -2.1816576 0.31156576 0.43388313 -0.18002181 0.20782281 4.164276 0.3157826
4.950824 1.478717 -0.16679467 -0.69417673 -1.1954545 -1.4715629 0.23945214 0.9740332
-1.8287268 -2.1707494 -1.652275 -0.9473023 -0.8405142 0.13460827 0.75164044 1.6176114
00000000: db1c 5cbe 4a64 ebbd d1cf d23f 5cf8 e8be
00000010: 5109 a6bd 1054 a5be cc66 9e3f 686a a13f
00000020: 0798 d53f fb46 18c0 1db6 d53d f0fa 34be
00000030: 03cd 51be 2779 d43f 6c77 bebe db49 02bf
00000040: 5d3a 09be ec14 35bf 9d45 c3bd f189 aebe
00000050: b349 7cbe 14b6 9d3f ccc5 933d 7a2c b1be
00000060: b20c 95bd d7e0 d03f 3bd6 babe e723 a0be
00000070: dee6 983f 7f97 71be 68b2 a3be 3d13 c83f
00000080: e780 03be 7052 96be 2b52 cbbe 664b 953f
00000090: e246 9f3f 1f48 d63f 5fcf 82bd 5519 cb3f
000000a0: a53e ca3f fd98 ac3d 2367 d33f 877f d43f
000000b0: d790 013e 9b1d d23f 0a3c 9bbd b8fe 9dbd
000000c0: c6ef 3c3d 3e47 9e3f ad85 a8be 6391 30be
000000d0: af3a c93d 3534 d63f 37b3 14be 68a4 1dbd
000000e0: f800 0dbe 6bda a9be 8d59 d03f dfbe 9bbe
000000f0: edb4 bfbe c16e cf3f 3067 9f3f 480f ecbb
00000100: 76a7 e4bd 3948 d33f 54ac aabe 58ab 7c3d
00000110: 72cc 4dbe 7d39 19be fe00 bdbd a43a 963f
00000120: f5ad c93f ad5d 8cbe dfd7 dd3d 4878 a13f
00000130: 8439 42be 3a4c a13f 3bb2 eabe 3b48 d03f
00000140: ffea d33c dc13 16be 2e53 963f 638c 95be
00000150: 5fe1 c73f 9140 4ebe 30be 583d f789 023f
00000160: 6ab9 3d3e 03b4 d6be 9c40 dabf 4c01 2dbf
00000170: d1ed 11be 2d9e 1f3f d482 32bf e1e8 6f3e
00000180: 38fc 84be fa77 c3bf 2774 05bd 01ed 2ec0
00000190: b2ef 70be 51b6 0ac0 db75 51bd 6bb4 a83f
000001a0: 6119 d5bf 47cf 703f 98d3 31bf e4b9 3fc0
000001b0: 6c5f 5abf 0589 0cc0 c4a1 4b3f a4b0 1f3f
000001c0: 1091 0e3f c64b 203e c64a 0bbf 0f67 ab3f
000001d0: bb9c 2cc0 3975 63bf a74e 20bf ea69 49bf
000001e0: de3f e5bf 5899 28c0 929a db3f b1ec 883f
000001f0: 553b 4cbf 9503 8c3d c9ae fa3e 2ef5 01bf
00000200: f3ae 14bf 8b4c 513f 541f 033e 01ee 4abf
00000210: 879f a13d 5f28 95be 2885 04c0 9ee1 e93e
00000220: c71f f3bc 500c edbf b831 83bf 79b3 4b3f
00000230: 8884 33bf 5ffc 19bf 7b89 26be 47ac 2fbf
00000240: 847b e7bf ec19 19bf 2ac5 2fc0 add4 01c0
00000250: d8d6 9cbf 76ed 243f d4dc a4bf c413 26c0
00000260: f611 e7be fcb0 0dc0 0989 03bf 6998 15c0
00000270: 1775 0bbf 53cc 52bf 665a 463f 5e25 64be
00000280: e1c6 f6bf 3857 d9be e6dd 123f 473b ebbe
00000290: 86c1 0bbf 9d53 27c0 5da5 21bf dfca 28c0
000002a0: bc2c 5cbe f029 ae3e 9c22 f6bf 03a9 27be
000002b0: 82b0 a5bf 7454 b1bf 9016 04c0 a37b 0941
000002c0: e7af 2ac0 fed4 e73f 2766 0440 8fbe 88c0
000002d0: b153 17bf 6ac1 c03f 99ef b9bf 6e37 9dbf
000002e0: 72ab b23f ce8e aa3d dc9e ed3e 5225 5640
000002f0: ccdd f33e 9826 0f40 d9bb 0240 a6e5 0340
00000300: 783a 533c af4b 553f b8ed 26bf 3aaa ccbd
00000310: d958 8540 8b20 af3f 338f 063f 5ff8 dc3f
00000320: 582e ec3e 2241 893e 2b23 c03f 7038 11bf
00000330: 4398 2cc0 1b91 d63e 1e50 8240 dee9 0940
00000340: 84bf c7bf 99d5 5d3f 256b 513f 0020 83bf
00000350: bf2c cd3f ef52 1cbf 84b5 28c0 1d0a d53f
00000360: b69d c73f 6f74 6a3f a94b 39c0 ffe6 11c0
00000370: 22a2 5c3f 1b7d 0e40 b22b 703e 7e7f 283e
00000380: f6bf ab3f d7f0 d0bf 160f 46c0 c6f9 873f
00000390: 2ba7 55bf 09a4 633f d639 05bf 713b 77bf
000003a0: 7193 a13f 47a0 0bc0 8c85 9f3e ee25 de3e
000003b0: a357 38be 81cf 543e c041 8540 42ae a13e
000003c0: 266d 9e40 9946 bd3f 39cc 2abe 91b5 31bf
000003d0: a704 99bf 2c5c bcbf f132 753e 3d5a 793f
000003e0: b813 eabf 8fed 0ac0 bf7d d3bf 6782 72bf
000003f0: f02b 57bf c0d6 093e 826b 403f e40d cf3f

v.v_net.0.bias f4 [64]
-1.2136593 -0.43636802 -1.0228208 5.6025333 -1.6392788 -1.0590382 -0.13859148 0.46515462
-0.8976778 -0.14530487 -3.268713 -1.5465035 -1.8707359 -8.757337 1.1315726 -2.46368
-1.2393411 0.04880443 -0.7808727 2.3075588 3.2838142 1.9240751 2.6679993 0.30813655
1.2720596 -1.9458177 5.5383434 -3.4250648 0.0059172106 -2.8148465 0.11539769 -2.2203372
-1.5381801 -1.6380492 2.8342297 -0.66269994 1.0971427 0.44140628 -0.58310294 -1.1886373
1.543824 -3.0182066 -1.7641009 -2.1762528 2.6114569 -0.9330792 -0.0449324 -0.86442375
0.61982334 -1.1801248 1.8254085 -0.9671978 -2.0546036 -0.20800917 1.2716756 7.3415704
0.9560612 -0.15230002 2.9912403 0.9843642 -0.88386863 -1.2204947 -0.6196264 0.49417633
00000000: 3059 9bbf a16b dfbe cbeb 82bf f447 b340
00000010: e3d3 d1bf 908e 87bf edea 0dbe bf28 ee3e
00000020: 36ce 65bf cdca 14be 9832 51c0 d4f3 c5bf
00000030: 4674 efbf 0d1e 0cc1 5fd7 903f efac 1dc0
00000040: bba2 9ebf 27e7 473d 46e7 47bf 0baf 1340
00000050: 032a 5240 1848 f63f 80c0 2a40 13c4 9d3e
00000060: d9d2 a23f 8e10 f9bf 1c3a b140 4334 5bc0
00000070: 29e5 c13b 7226 34c0 a055 ec3d 011a 0ec0
00000080: 16e3 c4bf 99ab d1bf 0564 3540 b4a6 29bf
00000090: 2c6f 8c3f 0100 e23e 3c46 15bf 4425 98bf
000000a0: 069c c53f 4c2a 41c0 0fce e1bf ba47 0bc0
000000b0: 1c22 2740 47de 6ebf 090b 38bd e04a 5dbf
000000c0: beac 1e3f 540e 97bf fca6 e93f 469a 77bf
000000d0: a07e 03c0 5b00 55be 44c6 a23f 25ee ea40
000000e0: 6dc0 743f 89f4 1bbe 7b70 3f40 4bff 7b3f
000000f0: 3745 62bf 2c39 9cbf d69f 1ebf ae04 fd3e

v.v_net.2.weight f4 [64, 64]
-0.86210626 4.9133577 -0.6918049 0.3348889 -2.9470103 -6.349663 4.2269144 -1.0317351
-0.9978333 3.3034854 -5.4007072 -0.23842435 -5.9361672 -1.9424706 0.50386804 3.3855996
2.2644324 2.376991 1.408433 1.1367775 2.2672837 -2.42473 1.854655 4.878971
0.27229849 -4.112413 -1.4778507 -1.30076 2.983703 -2.1983786 0.12026472 -3.778804
-0.951667 -0.26618212 -3.4262474 -1.1033895 -0.7120754 5.8240542 -3.046889 0.1804657
0.663509 2.6921532 1.0752643 -1.4576325 2.4746346 2.1159115 -0.73130625 3.9973466
0.031924617 -4.15712 1.7302511 -1.0968461 -6.670549 1.9830034 0.4394156 -0.10284088
-1.7958663 4.868743 -0.04182839 -3.8427224 -0.6418467 -1.2030209 -6.188486 -4.247882
-1.3976598 1.9215555 3.176275 2.1989677 -1.7808523 -1.1637753 -1.2577536 -4.4639263
2.4772322 1.5263286 -2.073368 -0.20548 -0.19203751 -1.8177621 -3.5147655 -1.265211
-0.46859682 -0.044047166 2.4203506 0.13020484 -0.25667867 -3.3015933 1.9383886 -2.6794996
1.9986919 -2.165618 -1.2217017 -1.674454 2.9859247 -7.2247534 1.1739167 -2.2738318
-0.91759 -1.446057 -0.7225897 -0.98473066 1.0136573 3.241691 -2.6513429 -2.2074013
-1.2405583 -1.9355733 3.2473128 0.44568226 4.6194644 1.1517109 2.0851336 -2.9595375
-4.300234 -5.4196744 1.8900273 2.3623757 -1.5853544 -0.7711977 -0.8483213 3.1271014
-0.028845498 -1.7865068 1.7697871 -2.1485522 -3.319656 -1.1432277 -0.8536603 -4.1463156
-4.5657473 -0.8311475 -0.08850525 -0.13199973 1.8292365 -1.042448 -0.73734087 -0.68987584
-2.1890419 -5.879585 1.6870606 -2.644472 0.098432615 0.26520833 -1.1742383 0.6202887
-1.0183191 -0.6159897 0.860075 -1.0089583 1.2588668 2.951735 -0.3371311 2.3077877
-1.7688407 10.591757 -2.4218676 -1.9507077 -0.4466472 -4.4012036 1.1861964 -3.1521904
0.8421088 0.38202438 -2.4821837 2.3864958 0.7092937 -0.12868412 0.4193645 -2.0720434
-0.3331587 -4.5399942 -0.69151276 -1.5221832 -2.5476434 -3.066941 0.9663851 -1.5207486
-3.6683187 -1.7008892 0.20914741 0.67836016 -3.3849878 2.1671567 1.9542956 -0.26327497
4.927096 -1.0005298 -0.18016826 -2.1151109 1.5512911 1.3321888 -0.9352333 -3.02839
-1.451861 0.46761033 1.2175106 -2.987057 1.7497241 -1.690875 0.31679055 1.3700125
-0.5780484 3.0945272 -2.2626147 -1.3743486 0.06289971 -0.33963832 -3.217852 -1.8143799
1.7970006 0.30054206 -3.5596642 1.6894575 -1.1009008 0.7251357 2.3435497 3.6305158
-0.6696297 -8.01777 -1.4169068 -1.7517488 1.3558694 1.3507258 0.722548 -2.5846488
-1.569008 -1.4684323 -4.0288806 -1.7896473 -7.056835 1.345484 3.5256429 -3.5287938
-0.46477905 -1.1293246 -0.9943401 -2.2324152 -0.668634 0.31994015 1.0325468 -2.424768
-2.0396435 -1.2637115 2.1313787 -2.0391574 -3.711455 -0.47689733 0.64896053 -1.1596919
1.4413955 -1.3845769 -4.2807646 1.1596373 -1.8048341 -1.9773769 3.0644827 1.3869944
00000000: ffb2 5cbf 3a3a 9d40 201a 31bf 8f76 ab3e
00000010: d19b 3cc0 7030 cbc0 e242 8740 e50f 84bf
00000020: 0172 7fbf 4e6c 5340 98d2 acc0 8325 74be
00000030: 15f5 bdc0 e0a2 f8bf 7ffd 003f aaad 5840
00000040: 76ec 1040 9f20 1840 8847 b43f ed81 913f
00000050: 2d1b 1140 c72e 1bc0 5665 ed3f 8820 9c40
00000060: b56a 8b3e e398 83c0 362a bdbf 4e7f a6bf
00000070: fdf4 3e40 3cb2 0cc0 594d f63d edd7 71c0
00000080: 73a0 73bf 0649 88be a347 5bc0 de3b 8dbf
00000090: 934a 36bf a75e ba40 3b00 43c0 00cc 383e
000000a0: badb 293f 3d4c 2c40 43a2 893f b493 babf
000000b0: 6a60 1e40 186b 0740 e336 3bbf 87d4 7f40
000000c0: 63c3 023d 2107 85c0 de78 dd3f 7465 8cbf
000000d0: 2375 d5c0 0ed3 fd3f 15fb e03e 3d9e d2bd
000000e0: f2de e5bf becc 9b40 3f54 2bbd 2aef 75c0
000000f0: 1150 24bf 97fc 99bf 1408 c6c0 a6ee 87c0
00000100: 84e6 b2bf 88f5 f53f 1748 4b40 e3bb 0c40
00000110: f8f2 e3bf 97f6 94bf 12fe a0bf 7cd8 8ec0
00000120: f98a 1e40 bc5e c33f 10b2 04c0 5969 52be
00000130: 7ba5 44be 6eac e8bf ebf1 60c0 6ff2 a1bf
00000140: eceb efbe cd6a 34bd 06e7 1a40 6b54 053e
00000150: 636b 83be 4e4d 53c0 1e1d f83f ec7c 2bc0
00000160: 23d5 ff3f 7c99 0ac0 b960 9cbf 8254 d6bf
00000170: 6419 3f40 2e31 e7c0 e742 963f 7686 11c0
00000180: 2ee7 6abf 6518 b9bf a3fb 38bf 4f17 7cbf
00000190: 86bf 813f de77 4f40 9aaf 29c0 1046 0dc0
000001a0: 9dca 9ebf dec0 f7bf f9d3 4f40 7730 e43e
000001b0: a7d2 9340 436b 933f d472 0540 1069 3dc0
000001c0: 849b 89c0 f96d adc0 6aec f13f 2a31 1740
000001d0: e5ec cabf 366d 45bf 962b 59bf 6e22 4840
000001e0: 654d ecbc 41ac e4bf 6288 e23f e181 09c0
000001f0: 3e75 54c0 4955 92bf 7b89 5abf 9eae 84c0
00000200: 9a1a 92c0 15c6 54bf 3e42 b5bd f02a 07be
00000210: 6c24 ea3f f06e 85bf 5fc2 3cbf b49b 30bf
00000220: 4319 0cc0 8f25 bcc0 9af1 d73f 073f 29c0
00000230: 0a97 c93d 63c9 873e 714d 96bf 3ecb 1e3f
00000240: 4858 82bf 80b1 1dbf e02d 5c3f 8c25 81bf
00000250: 8c22 a13f 3ae9 3c40 739c acbe cbb2 1340
00000260: 5f69 e2bf d677 2941 e1ff 1ac0 cab0 f9bf
00000270: f1ae e4be a9d6 8cc0 49d5 973f 7dbd 49c0
00000280: 7194 573f b398 c33e 19dc 1ec0 59bc 1840
00000290: 4694 353f c5c5 03be f2b6 d63e 5c9c 04c0
000002a0: c793 aabe a247 91c0 fb06 31bf e6d6 c2bf
000002b0: 970c 23c0 c348 44c0 0465 773f e4a7 c2bf
000002c0: bcc5 6ac0 bdb6 d9bf bd2a 563e 03a9 2d3f
000002d0: a4a3 58c0 b2b2 0a40 5c26 fa3f facb 86be
000002e0: c5aa 9d40 5c11 80bf 077e 38be fa5d 07c0
000002f0: b590 c63f 2a85 aa3f 736b 6fbf 24d1 41c0
00000300: 95d6 b9bf 9f6a ef3e 63d7 9b3f f12b 3fc0
00000310: f6f6 df3f 986e d8bf 5f32 a23e 925c af3f
00000320: fbfa 13bf bc0c 4640 aece 10c0 a8ea afbf
00000330: 90d1 803d 13e5 adbe 4af1 4dc0 9a3d e8bf
00000340: 1e04 e63f a6e0 993e 8ad1 63c0 2540 d83f
00000350: 51ea 8cbf 7ea2 393f b8fc 1540 5f5a 6840
00000360: da6c 2bbf c948 00c1 345d b5bf 4e39 e0bf
00000370: 218d ad3f 95e4 ac3f e8f8 383f e36a 25c0
00000380: 41d5 c8bf 97f5 bbbf 97ec 80c0 2a13 e5bf
00000390: 98d1 e1c0 d238 ac3f 22a4 6140 c2d7 61c0
000003a0: 85f7 edbe b58d 90bf 138d 7ebf e4df 0ec0
000003b0: 992b 2bbf 32cf a33e 7e2a 843f 662f 1bc0
000003c0: 8589 02c0 4cc1 a1bf 8268 0840 8e81 02c0
000003d0: 7b88 6dc0 e32b f4be 4722 263f c970 94bf
000003e0: a67f b83f d139 b1bf 06fc 88c0 ff6e 943f
000003f0: ce04 e7bf b01a fdbf 7c20 4440 0889 b13f

v.v_net.2.bias f4 [64]
1.1724894 0.51059854 -0.3855131 1.81819 0.42371303 -0.79510665 -0.49503705 -1.5646898
0.11960182 -2.1865735 0.8448052 0.03468866 -0.04510187 1.4435905 -0.30709997 -1.8809586
0.12046871 -1.3998175 -1.3109452 0.24635799 -0.85644394 1.5846255 1.3859469 -0.6831011
0.26357117 0.42584875 -0.8016606 -1.3076459 0.07824214 0.8222766 -0.3139478 -0.766111
-0.045698106 -0.48978856 -0.30037695 -0.4316967 -0.414985 -0.19755472 -1.0937644 1.1180587
1.2179376 -0.26644546 0.36273304 -0.8717238 0.90711105 0.82506025 -0.11937042 -1.7468833
0.27484557 -0.09139177 0.889526 0.9104568 0.5071049 -0.2635551 -1.1570461 1.8003606
-0.2954568 1.45907 0.29294387 1.047636 -1.4472284 -2.1039217 -0.6668043 0.32414243
00000000: 2214 963f 96b6 023f f961 c5be 73ba e83f
00000010: eaf0 d83e 1c8c 4bbf 7f75 fdbe c147 c8bf
00000020: cdf1 f43d d2f0 0bc0 2745 583f b215 0e3d
00000030: bdbc 38bd 93c7 b83f 353c 9dbe 40c3 f0bf
00000040: 4db8 f63d 382d b3bf 0dcd a7bf 4545 7c3e
00000050: e93f 5bbf 02d5 ca3f b566 b13f b7df 2ebf
00000060: cdf2 863e d908 da3e a139 4dbf f160 a7bf
00000070: 6a3d a03d b880 523f c4bd a0be da1f 44bf
00000080: f02d 3bbd 91c5 fabe 02cb 99be 5a07 ddbe
00000090: ea78 d4be c94b 4abe 7900 8cbf 8c1c 8f3f
000000a0: 61e5 9b3f 8a6b 88be 25b8 b93e 4a29 5fbf
000000b0: 6e38 683f 2637 533f 7b78 f4bd df99 dfbf
000000c0: 8fb8 8c3e 9c2b bbbd fab7 633f b213 693f
000000d0: a0d1 013f b2f0 86be 161a 94bf 3772 e63f
000000e0: 1d46 97be cec2 ba3f bdfc 953e f018 863f
000000f0: c83e b9bf a7a6 06c0 b0b3 2abf fff5 a53e

v.v_net.4.weight f4 [1, 64]
9.341439 -11.429686 -13.966426 11.393161 14.169119 -13.723772 -6.7963524 -8.853551
-14.934419 -14.42398 14.48624 10.60395 8.571724 7.8355017 -11.969808 -9.514646
10.878571 -11.414747 -10.631266 10.387029 8.8449955 6.4183025 13.387375 -7.339986
11.661179 -4.461293 -12.843423 -14.494016 9.075403 15.547422 -3.231847 3.6523597
-2.2492611 -12.804851 -10.364921 6.824134 -12.139207 1.4574635 -8.572627 8.536808
12.732385 -14.581904 -8.166257 -3.4145837 14.151672 6.554232 -9.032186 -8.096133
4.0642495 -10.07798 4.7083654 9.597874 6.8744154 -11.676021 -9.473174 47.04716
11.828766 13.67254 8.888725 13.386118 -8.928337 -11.624783 -9.329733 14.196509
00000000: 8976 1541 fedf 36c1 7b76 5fc1 634a 3641
00000010: b6b4 6241 9294 5bc1 b87b d9c0 25a8 0dc1
00000020: 61f3 6ec1 9fc8 66c1 a4c7 6741 c7a9 2941
00000030: c825 0941 6ebc fa40 5584 3fc1 fd3b 18c1
00000040: a00e 2e41 cea2 36c1 aa19 2ac1 4531 2641
00000050: 1a85 0d41 bc62 cd40 b032 5641 2ae1 eac0
00000060: 3094 3a41 eac2 8ec0 a97e 4dc1 7de7 67c1
00000070: da34 1141 3ec2 7841 95d6 4ec0 43c0 6940
00000080: e5f3 0fc0 abe0 4cc1 b7d6 25c1 4e5f da40
00000090: 313a 42c1 2a8e ba3f 7b29 09c1 c496 0841
000000a0: d9b7 4b41 7b4f 69c1 fda8 02c1 8a88 5ac0
000000b0: 406d 6241 45bc d140 d583 10c1 c389 01c1
000000c0: 550e 8240 683f 21c1 eeaa 9640 e490 1941
000000d0: 36fb db40 fbd0 3ac1 1f92 17c1 4b30 3c42
000000e0: a042 3d41 b9c2 5a41 3838 0e41 8a2d 5641
000000f0: 78da 0ec1 1cff 39c1 9646 15c1 e724 6341
