model_wts/s1_d1_m0.0_b1.0.ckpt (torch, 206875 bytes, 11 tensors)

pi.logits_net.0.weight f4 [64, 282]
0	0x3e6ede4f	0.23326991
1	0xbe1d3ced	-0.15355273
2	0xbe4e1c3e	-0.20127961
3	0x3e8c6bce	0.27425998
4	0xbe111f1c	-0.14172024
5	0xbd18bde9	-0.037290487
6	0x3de5ab4e	0.112143144
7	0x3e1e66ea	0.15468946
8	0xbe39cffa	-0.18145743
9	0x3cc0508f	0.023475913
10	0xbdfd1b6d	-0.12358747
11	0xbdfea182	-0.12433149
12	0x3e65b7e3	0.22433428
13	0xbe5a0d50	-0.21294141
14	0xbd9e6728	-0.07734519
15	0x3e76ba76	0.24094567
16	0x3e584911	0.21121623
17	0xbdd00453	-0.10157075
18	0xbd09a326	-0.033602856
19	0x3e6f9118	0.23395193
20	0x3e38bceb	0.18040816
21	0x3db51a76	0.08842938
22	0xbe060bad	-0.13090391
23	0xbdca1df2	-0.09868993
24	0xbdc22e9c	-0.09481546
25	0xbe3f5e90	-0.18688416
26	0x3e8078a9	0.25092056
27	0x3e7dbc28	0.24778807
28	0x3d878a8d	0.06618223
29	0x3e753ffd	0.23950191
30	0xbd66e193	-0.056367468
31	0xbe0872d0	-0.13325047
32	0xbdb42598	-0.08796233
33	0xbe0250b2	-0.12726095
34	0x3e229c52	0.15879944
35	0x3dc3efbe	0.095672116
36	0x3e34ed58	0.17668664
37	0xbe4c724c	-0.19965476
38	0xbd7678e5	-0.060173888
39	0xbe5ea054	-0.21740848
40	0xbe0674e2	-0.13130525
41	0xbe29444e	-0.16529962
42	0xbe148f98	-0.14507902
43	0xbe419116	-0.18903002
44	0xbe1bf2ce	-0.15229341
45	0xbe22f24a	-0.15912738
46	0xbdf02a92	-0.1172687
47	0xbd8b8fa5	-0.068145074
48	0xbe21132e	-0.15729973
49	0x3df16344	0.117865115
50	0x3e21f73a	0.15816966
51	0x3e325f9d	0.17419286
52	0xbddcc14d	-0.10779057
53	0xbe511c88	-0.2042104
54	0xbd8b2be0	-0.06795478
55	0xbd1b571b	-0.037924867
56	0xbe052dbb	-0.13005726
57	0x3e33e374	0.17567235
58	0xbe1d282c	-0.15347356
59	0x3e6f840e	0.23390219
60	0x3e352c4c	0.17692679
61	0xbe1aaea4	-0.15105683
62	0x3e246680	0.16054726
63	0xbdb2c54b	-0.08729037
64	0xbe24816d	-0.16064997
65	0xbe4c53ac	-0.19953793
66	0xbd9022b3	-0.07037868
67	0xbe068f4a	-0.13140598
68	0xbe29348c	-0.16523951
69	0x3e242cff	0.1603279
70	0xbdc24d1c	-0.09487364
71	0x3de2292a	0.11043008
72	0xbe248100	-0.16064835
73	0xbdeee777	-0.11665242
74	0xbdf6e3b9	-0.120551534
75	0x3e0cc9ac	0.13748807
76	0xbdd84d94	-0.10561672
77	0x3e1d9b78	0.15391338
78	0x3e43bdf8	0.19115436
79	0xbe2398be	-0.15976235
80	0xbe3a5798	-0.18197477
81	0xbe05b91b	-0.13058893
82	0x3e03169d	0.12801595
83	0x3e523346	0.20527372
84	0xbe1e79de	-0.15476176
85	0x3e2c21e9	0.1680981
86	0xbe45ad7a	-0.19304457
87	0xbd89382a	-0.067001656
88	0x3d9bb3a7	0.07602625
89	0xbe211d02	-0.15733722
90	0x3e18e385	0.14930542
91	0x3d699ad0	0.057032406
92	0x3d1eb309	0.03874496
93	0x3d734c93	0.0593992
94	0xbe8060d2	-0.25073868
95	0xbe75ee13	-0.240166
96	0x3e8cce2e	0.27501053
97	0x3d221e1a	0.03957949
98	0x3e8a23c1	0.26980403
99	0x3e2b9866	0.16757354
100	0x3e1517a3	0.14559798
101	0xbea9af34	-0.33141482
102	0xbe29ecfa	-0.16594306
103	0x3e3ba4c5	0.18324573
104	0xbe3fe1d2	-0.18738487
105	0xbe6d1d1a	-0.23155633
106	0x3e5e8d77	0.21733652
107	0x3efe8d82	0.49717337
108	0xbccfec41	-0.02538121
109	0xba6edc52	-0.000911181
110	0x3e040bcb	0.12895124
111	0x3e6c8826	0.23098812
112	0xbd761d95	-0.060086805
113	0x3e24551f	0.16048096
114	0x3deb5bc3	0.114921115
115	0xbe5327f0	-0.20620704
116	0xbd202ecf	-0.03910714
117	0xbdbe33fe	-0.092872605
118	0xbc8960e0	-0.016769826
119	0xbdb47fcd	-0.088134386
120	0xbe7813a0	-0.24226236
121	0x3da3184a	0.07963617
122	0x3dcb12ad	0.099156715
123	0xbc61a87e	-0.013773082
124	0xbe58bfa1	-0.2116685
125	0x3d1d71e8	0.038438708
126	0xbe6d59da	-0.23178807
127	0x3e35edd8	0.17766511
128	0xbe9468b1	-0.28986123
129	0x3c120afc	0.008913752
130	0xbf60d9a9	-0.87832123
131	0xbe109602	-0.14119723
132	0x3c4f0948	0.01263649
133	0xbc0c02b1	-0.008545564
134	0xbe1f0cac	-0.15532178
135	0x3e0642ba	0.13111392
136	0xbe0f0ffe	-0.13970944
137	0x3e641f66	0.22277603
138	0xbd8f9d22	-0.070123926
139	0xbe32a105	-0.17444237
140	0xbe506405	-0.20350654
141	0x3e5c0f3c	0.21490186
142	0x3cdbf980	0.02685237
143	0xbd6e7937	-0.05822107
144	0xbdc35cfb	-0.09539219
145	0xbd95b0e8	-0.07309133
146	0x3e1e6891	0.15469576
147	0x3da1b131	0.07895125
148	0xbde5a2fc	-0.112127274
149	0xbd470cf9	-0.048596356
150	0xbcc3c92b	-0.023899635
151	0xbdafcd21	-0.08584047
152	0xbe154fd5	-0.14581235
153	0x3e2e5ba3	0.17027144
154	0xbea1cb71	-0.31600526
155	0x3eb31921	0.3498011
156	0xbdd0248a	-0.10163219
157	0xbe4e61d3	-0.20154504
158	0x3e77932b	0.24177234
159	0xbf462ea8	-0.7741494
160	0x3de5756b	0.11204036
161	0xbe639ffd	-0.22229
162	0xbeb2517b	-0.3482779
163	0x3d417cea	0.047238268
164	0xbebd5dd2	-0.36985642
165	0x3e6ca436	0.23109517
166	0xbe1c7940	-0.15280628
167	0x3e1240ad	0.14282484
168	0xbf10c710	-0.56553745
169	0xbe7ec4b6	-0.24879727
170	0x3e0ca369	0.13734211
171	0xbe0959c2	-0.13413146
172	0xbd3aaf93	-0.045577597
173	0xbdc152d1	-0.09439624
174	0x3f0024da	0.5005623
175	0xbc944946	-0.018101346
176	0x3f173941	0.5907174
177	0x3e4993d8	0.19685304
178	0xbe8a38f5	-0.2699658
179	0xbb286e8c	-0.0025700657
180	0xbee4c096	-0.4467818
181	0xbe141381	-0.14460565
182	0xbe737432	-0.23774794
183	0x3e6d6dc0	0.23186398
184	0xbd4aa823	-0.049476754
185	0xbdef9ec2	-0.117002025
186	0xbe655ada	-0.22397938
187	0x3e72772d	0.23678274
188	0x3e7e9661	0.24862053
189	0xbec9e896	-0.3943526
190	0x3d8d2501	0.068918236
191	0xbc318ce6	-0.010836815
192	0x3f3c4627	0.73544544
193	0x3e474c3d	0.19462676
194	0x3eabf10d	0.33582345
195	0xbf1250f8	-0.571548
196	0xbf64c9ba	-0.8937031
197	0x3f135478	0.57550764
198	0x3f0cc96a	0.54994833
199	0x3f4f3489	0.8093954
200	0x3f911b51	1.1336461
201	0xbeb53404	-0.35391247
202	0xbd576d3c	-0.05259441
203	0xbf583f6e	-0.84471786
204	0x3e86d62d	0.26335278
205	0x3d9a3f90	0.07531655
206	0x3e845faa	0.25854236
207	0x3e70d2a2	0.2351785
208	0xbf6176af	-0.8807172
209	0x3e327a0b	0.17429368
210	0x3ce304a7	0.02771218
211	0x3f017f34	0.5058472
212	0xbf3f607a	-0.74756587
213	0xbe997d95	-0.29978624
214	0x3e801f46	0.2502386
215	0xbe25f098	-0.1620506
216	0xbeabdf2b	-0.335687
217	0xbcc07c40	-0.023496747
218	0xbe3ff261	-0.18744804
219	0xbe3fb99d	-0.1872315
220	0x3f2d8532	0.67781365
221	0xbe5f88cc	-0.21829528
222	0x3ec378d2	0.38178116
223	0xbf0e23e1	-0.55523497
224	0x3ec0509f	0.3756151
225	0xbed14be5	-0.40878215
226	0x3dbe3326	0.092870995
227	0xbd7e97c4	-0.062156454
228	0xbe48a634	-0.19594651
229	0x3f0d9a9b	0.55314034
230	0xbf5e6fdc	-0.86889434
231	0x3e5df872	0.21676806
232	0x3e9e7ba3	0.30953702
233	0xbe02c084	-0.12768751
234	0x3c95d692	0.018290792
235	0x3ec63581	0.38712695
236	0xbdd724e3	-0.105050825
237	0x3e7f62c3	0.24940018
238	0x3f6fd8ca	0.9369017
239	0x3f1376cf	0.5760316
240	0x3f5501f8	0.8320613
241	0xbd10106e	-0.03517192
242	0xbe283f90	-0.16430497
243	0x3ed17b26	0.40914267
244	0x3ed90a2b	0.4239057
245	0xbf7343b1	-0.95025164
246	0xbeb1e6b9	-0.3474634
247	0x3d7df882	0.062004574
248	0x3ee2e1c7	0.4431288
249	0x3ef44edd	0.47716418
250	0xbf05117e	-0.51979816
251	0x3dc27b68	0.09496194
252	0xbdda23fa	-0.10651393
253	0xbd00566e	-0.031332426
254	0x3ec17618	0.3778541
255	0x3e6b0f1e	0.22954985

pi.logits_net.0.bias f4 [64]
0	0xbe1d2ad7	-0.15348373
1	0xbcb1863f	-0.021670459
2	0x3ebba156	0.36646527
3	0xbd8a3e8d	-0.06750212
4	0xbcaaba0d	-0.020840669
5	0x3d2826ba	0.041052558
6	0xbd12dd0f	-0.03585535
7	0xbefece14	-0.497666
8	0xbd193de9	-0.037412558
9	0x3e348e96	0.17632517
10	0x3d7814b4	0.06056662
11	0x3d66ea74	0.056375936
12	0x3e4d0e89	0.20025076
13	0xbe9f5ce4	-0.31125557
14	0x3b55002e	0.0032501328
15	0x3de6c569	0.11268122
16	0x3e8e8a85	0.27840057
17	0xbd4d7567	-0.05016079
18	0x3e8b56c6	0.2721464
19	0x3d2347a2	0.039863236
20	0xbd63f791	-0.05565602
21	0x3db1d22c	0.08682665
22	0xbd7b7867	-0.06139412
23	0xbe1b938b	-0.15193002
24	0x3e2b4c16	0.16728243
25	0x3de22e60	0.110440016
26	0x3dcc2bba	0.09969278
27	0x3e510f8b	0.20416085
28	0xbdd750be	-0.10513447
29	0xbd271490	-0.040791094
30	0xbd8b1c1a	-0.06792469
31	0x3b44373d	0.002994015
32	0xbcddfc81	-0.027097942
33	0xbb99196f	-0.0046722214
34	0x3e576cd6	0.21037611
35	0xbde1126d	-0.109898426
36	0x3c850f1a	0.016242553
37	0x3e7e9ed4	0.24865276
38	0x3da935fa	0.08262248
39	0x3d89ebd2	0.06734432
40	0xbe04fa08	-0.12986004
41	0x3e964bdf	0.2935476
42	0xbdd08ba6	-0.10182886
43	0xbe5da1c5	-0.21643741
44	0x3f069e35	0.52585155
45	0x3d5b5d5a	0.053555824
46	0xbd635806	-0.055503868
47	0x3eb4240a	0.35183746
48	0xbd5c5d7a	-0.053800084
49	0xbe18c84f	-0.14920162
50	0xbdffa19d	-0.12481997
51	0xbe13be35	-0.14428027
52	0x3de3cd97	0.111231975
53	0xbe07c860	-0.13260031
54	0xbd5dbd92	-0.054135866
55	0x3de3c0ca	0.11120756
56	0x3e47700f	0.1947634
57	0x3e111061	0.14166404
58	0x3e9b8109	0.30371884
59	0x3e0d2cd0	0.13786626
60	0x3d150615	0.036382753
61	0xbe6f4329	-0.23365463
62	0x3c9d4506	0.019197952
63	0x3e4f4705	0.20241936

pi.logits_net.2.weight f4 [64, 64]
0	0x3e9abbd5	0.3022143
1	0x3eb4bfb3	0.35302505
2	0xbe86301f	-0.26208588
3	0x3e63e4df	0.22255276
4	0x3e488d46	0.19585142
5	0x3ea379b9	0.31928805
6	0xbf2da258	-0.6782584
7	0xbdf85bda	-0.12126894
8	0xbeb43d53	-0.35203037
9	0xbedb348e	-0.42813534
10	0x3ecede28	0.40403867
11	0xbe217a88	-0.15769398
12	0xbede9037	-0.43469402
13	0x3e7e13b3	0.24812202
14	0x3f5a725c	0.8533075
15	0xbdf1f589	-0.1181441
16	0xbe456dc3	-0.19280152
17	0xbedcc3d5	-0.43118158
18	0x3f119af9	0.56877095
19	0x3db3ae35	0.08773462
20	0x3e7200e7	0.23633157
21	0x3df647b6	0.120253965
22	0xbdb491e7	-0.08816891
23	0x3ec7fa78	0.3905828
24	0x3e7e7f67	0.24853288
25	0x3d7815d5	0.060567696
26	0xbf2f44a2	-0.684641
27	0xbe315a15	-0.1731952
28	0xbf1d02e8	-0.6133256
29	0x3effe225	0.49977222
30	0xbf719926	-0.9437431
31	0xbf8c8b73	-1.0980057
32	0x3e8b6d3d	0.2723178
33	0xbec2431e	-0.3794183
34	0xbf1cb724	-0.6121695
35	0x3ef7908b	0.48352465
36	0xbd32e900	-0.043679237
37	0xbf2892cb	-0.6584899
38	0xbd5aab02	-0.053385742
39	0xbe2ea948	-0.17056763
40	0xbf0bb800	-0.54577637
41	0xbe8567bc	-0.26055706
42	0xbe20f54d	-0.15718575
43	0x3eda4f32	0.42638546
44	0xbed9f966	-0.42573088
45	0xbe96dfd3	-0.2946764
46	0xbd7fae38	-0.062422007
47	0x3f16f23d	0.58963376
48	0x3e8f66e6	0.28008193
49	0x3d67c913	0.056588244
50	0xbeea47c9	-0.45757893
51	0xbea074f6	-0.31339234
52	0x3e0e7bb7	0.13914381
53	0x3e80d94e	0.2516579
54	0xbed87132	-0.4227386
55	0xbed5b4bf	-0.4173946
56	0xbebd5729	-0.3698056
57	0x3dddc6b7	0.108289175
58	0xbe83f422	-0.25772196
59	0x3f93c345	1.1543967
60	0xbf0ebf6e	-0.5576085
61	0x3d23c7ae	0.03998535
62	0x3e3d6bd4	0.18498164
63	0xbe9ee8f4	-0.31037104
64	0x3da002ca	0.07813032
65	0x3ed129ec	0.40852296
66	0x3f685468	0.90753794
67	0xbe5a5eaa	-0.21325174
68	0x3f46c0d5	0.7763799
69	0xbed3692d	-0.4129118
70	0xbdd5af15	-0.10433785
71	0x3c6e30a1	0.014537961
72	0xbdb6fe39	-0.08935208
73	0xbec3f1aa	-0.38270313
74	0xbe704d4c	-0.23466986
75	0x3d938e9c	0.07204935
76	0x3d571c1e	0.05251705
77	0xbea042bf	-0.31300923
78	0xbe96a65f	-0.29423806
79	0x3ed60b43	0.41805467
80	0xbdb5f8d6	-0.08885352
81	0x3eaf650f	0.3425679
82	0xbeffe1b1	-0.49976876
83	0x3ac94b84	0.0015357588
84	0xbf0da20c	-0.5532539
85	0xbd8f3aca	-0.06993635
86	0x3d821421	0.063514955
87	0x3e8519c3	0.25996217
88	0xbe9b74fe	-0.30362695
89	0xbe4492da	-0.19196644
90	0x3ea4f755	0.3221995
91	0xbeb8f30b	-0.36122927
92	0xbf51c114	-0.8193524
93	0x3eac5a5a	0.33662683
94	0xbdc17b68	-0.09447366
95	0x3f07895b	0.5294396
96	0x3e8587c6	0.2608015
97	0x3bd4eb54	0.00649778
98	0xbcf0880f	-0.029361753
99	0xbe0f6f68	-0.14007342
100	0x3dab14e7	0.08353596
101	0x3eaafd13	0.33396205
102	0x3c23804a	0.009979317
103	0x3f1daa2e	0.615878
104	0xbe059dc7	-0.13048469
105	0xbe94b020	-0.29040623
106	0x3e8d1b71	0.2756
107	0x3e4fa0e7	0.20276223
108	0xbeaa0da6	-0.33213538
109	0xbdaf2424	-0.08551815
110	0x3d7d3d9d	0.061826337
111	0xbd3420dd	-0.043976653
112	0x3e6b82d1	0.22999121
113	0xbf5217dc	-0.82067657
114	0xbe95f5ed	-0.2928919
115	0xbe2c132f	-0.16804193
116	0x3df5d0eb	0.120027386
117	0xbdde73cf	-0.108619325
118	0x3f8c5ad6	1.0965221
119	0xbf5a8937	-0.85365623
120	0xbf589cca	-0.8461424
121	0x3e90d447	0.28286955
122	0xbda1cd56	-0.07900493
123	0xbf001422	-0.5003072
124	0x3faf73a5	1.3707167
125	0x3f636ab2	0.8883468
126	0xbe6653f4	-0.22492963
127	0xbd6629d2	-0.056192227
128	0x3e914290	0.28371096
129	0xbed79f03	-0.42113504
130	0x3da19c3c	0.078911275
131	0xbf452c7f	-0.7702102
132	0xbead2bb1	-0.33822396
133	0x3ea9d48c	0.33169973
134	0x3d9318af	0.071824424
135	0xbbb8b094	-0.005636284
136	0xbe5dfee5	-0.21679266
137	0x3e5412b0	0.20710254
138	0x3e5e7e9e	0.21727988
139	0x3eec2076	0.46118516
140	0x3ef2b608	0.47404504
141	0x3db2c6e0	0.08729339
142	0x3ce84333	0.028352356
143	0xbe9456da	-0.28972512
144	0x3eee6876	0.46564072
145	0xbe86b7ce	-0.26312107
146	0x3f210d32	0.6291076
147	0x3e9ac687	0.3022959
148	0xbdf1d96c	-0.11809048
149	0x3efb8195	0.491223
150	0xbe885a9e	-0.26631635
151	0xbed59a1a	-0.41719133
152	0xbede62c1	-0.43434718
153	0x3ddf9670	0.109173656
154	0x3ef6c9fc	0.48200977
155	0x3e9fb176	0.3119008
156	0x3f90d6d9	1.1315566
157	0x3dc52857	0.09626835
158	0xbd570e65	-0.052503962
159	0x3cd2f49e	0.025751408
160	0xbf45c441	-0.77252585
161	0x3f2b5249	0.6692243
162	0x3ef5f6f3	0.4803997
163	0x3e2dfa47	0.16990004
164	0xbf135df3	-0.5756523
165	0x3f22f95a	0.6366173
166	0xbea44beb	-0.3208917
167	0xbf0f654a	-0.5601393
168	0xbe51ae6e	-0.20476696
169	0xbe0c8a5e	-0.13724658
170	0x3f00ee3c	0.50363517
171	0x3eb3698d	0.35041466
172	0xbf215d96	-0.63033426
173	0x3e068fed	0.13140841
174	0x3f7f9331	0.9983397
175	0x3d8f7d35	0.07006303
176	0xbeb5381f	-0.3539438
177	0x3f0fa414	0.5610974
178	0x3ef9fab9	0.488241
179	0x3f5f130e	0.8713845
180	0x3ead9f38	0.33910537
181	0xbc109964	-0.008825634
182	0xbe5dcf9d	-0.2166123
183	0xbdc906e4	-0.098157674
184	0x3f804f67	1.0024232
185	0x3e757b21	0.23972751
186	0xbebbe004	-0.36694348
187	0xbf0b8223	-0.5449545
188	0xbd44876b	-0.047980707
189	0xbe168a12	-0.14701107
190	0x3ef9b217	0.48768684
191	0x3f1858e9	0.59510666
192	0x3eeff6d9	0.46868017
193	0xbcf4f6b4	-0.029902793
194	0x3ef73dd9	0.48289374
195	0xbed158d9	-0.40888098
196	0xbefff05f	-0.49988076
197	0xbf4d1c4f	-0.8012132
198	0xbf06f4ec	-0.5271747
199	0xbd875d6f	-0.06609618
200	0x3ede1098	0.43372035
201	0xbdb94f3f	-0.09048318
202	0x3e00bdb1	0.12572362
203	0x3f991bf8	1.196166
204	0xbf21c8f5	-0.6319726
205	0xbcef1b1c	-0.029187731
206	0x3ee1b046	0.44079798
207	0x3dd12d23	0.10213687
208	0x3ee14384	0.43996823
209	0x3f0b685c	0.54456115
210	0xbe045b1e	-0.12925383
211	0xbeacfe66	-0.3378784
212	0xbf62c8e2	-0.8858777
213	0x3e86abc5	0.26302925
214	0x3e34ff3c	0.17675489
215	0xbde68c3f	-0.112572186
216	0xbda9d802	-0.08293153
217	0x3f8ce7cd	1.100824
218	0xbf051d2e	-0.5199765
219	0x3f0dabda	0.5534035
220	0x3eca83d8	0.39553714
221	0x3f2aedc1	0.66769034
222	0xbc39c55c	-0.011338558
223	0x3e4999a3	0.19687514
224	0x3ea821f8	0.32838416
225	0x3d6aaaa0	0.057291627
226	0x3e98d7be	0.29852098
227	0xbe280939	-0.16409768
228	0xbe77d5cc	-0.24202651
229	0x3d528cb6	0.051403724
230	0x3e996f64	0.29967797
231	0xbe248d48	-0.1606952
232	0xbf2e4ed1	-0.68089014
233	0xbf660c9c	-0.8986299
234	0x3f036980	0.51332855
235	0xbec07926	-0.3759243
236	0xbd81365e	-0.06309198
237	0xbdd41047	-0.10354667
238	0x3e867409	0.26260403
239	0x3dbccbc2	0.09218551
240	0xbf0dc412	-0.55377305
241	0x3ec0a7f2	0.37628132
242	0xbdfcac9a	-0.12337609
243	0xbe38d0bd	-0.18048377
244	0x3df2a7a4	0.11848381
245	0x3e374ed0	0.17901158
246	0xbd89b143	-0.06723263
247	0x3eee23e7	0.46511766
248	0x3e4bc238	0.19898307
249	0x3f1cdffb	0.6127927
250	0xbea24107	-0.31690237
251	0xbdd55f17	-0.104185276
252	0xbdfc3d99	-0.12316436
253	0xbf2a0fc8	-0.6643033
254	0x3e593b59	0.21214046
255	0xbe700934	-0.2344101

pi.logits_net.2.bias f4 [64]
0	0xbe04506e	-0.12921306
1	0xbd59eca7	-0.053204205
2	0x3e8cd49b	0.27505955
3	0x3ecc5326	0.39907187
4	0xbd792068	-0.06082192
5	0xbdb1a5a0	-0.086741686
6	0xbe5aea7b	-0.2137851
7	0x3e9213ee	0.2853083
8	0x3dbf1b9e	0.093314394
9	0x3cfe1c6a	0.031019408
10	0xbec85404	-0.391266
11	0xbf1d9984	-0.6156237
12	0x3e1d3d75	0.15355475
13	0x3ab379fd	0.0013692972
14	0xbd29106b	-0.041275423
15	0x3ec805a5	0.39066806
16	0x3e3c6480	0.18397713
17	0xbde49bc0	-0.111625195
18	0x3ec66e4d	0.38756028
19	0x3e7dcb4d	0.24784584
20	0xbce2be4c	-0.027678631
21	0xbe29ce9f	-0.16582726
22	0x3ebe4963	0.37165365
23	0x3e88bad5	0.26705042
24	0xbe8aa569	-0.27079323
25	0x3e0be51d	0.13661619
26	0x3e6a0652	0.22853974
27	0x3e8dc809	0.27691677
28	0xbe18df5b	-0.14928953
29	0x3dc8dfa0	0.09808278
30	0x3e98cd50	0.2984414
31	0xbbde771d	-0.0067891018
32	0x3bb5f52f	0.00555291
33	0xbc9744ff	-0.018465517
34	0x3e4546e4	0.19265324
35	0xbe532703	-0.2062035
36	0x3e55042a	0.2080237
37	0x3d8dcfa4	0.0692437
38	0xbe5773a5	-0.21040209
39	0xbde07ab4	-0.10960904
40	0xbbb5699a	-0.0055362703
41	0x3b140cae	0.0022590565
42	0x3e0770e3	0.13226657
43	0xbdeeb1c7	-0.11655002
44	0x3ecaf9a0	0.39643574
45	0xbd3e82a4	-0.046511307
46	0x3e0452d8	0.12922227
47	0xbe70c4e8	-0.23512614
48	0xbbc7a162	-0.0060922364
49	0x3ee774e1	0.4520636
50	0x3e0a4458	0.13502634
51	0x3e0a8d07	0.1353036
52	0xbd2e02d9	-0.042483184
53	0x3e3587b4	0.17727548
54	0xbe4113d2	-0.18855217
55	0xbe816f63	-0.25280294
56	0x3c437dd5	0.011931856
57	0x3e45620f	0.19275688
58	0x3f257957	0.64638275
59	0x3e90a5c3	0.28251466
60	0x3df28bd7	0.118430786
61	0xbd42c0d5	-0.04754718
62	0x3edadfa0	0.42748737
63	0xbd08d699	-0.03340778

pi.logits_net.4.weight f4 [87, 64]
0	0x3f11d345	0.56962997
1	0xbe610f87	-0.2197858
2	0xbe4d35a5	-0.20039995
3	0xbf47d1c8	-0.78054476
4	0x3f7e526c	0.99344516
5	0xbf554e3d	-0.8332251
6	0x3f5ad3fa	0.854797
7	0x3df81d2f	0.12114941
8	0xbce158d0	-0.02750817
9	0xbda5b0c5	-0.08090357
10	0xbedffe67	-0.4374878
11	0xbecc649b	-0.39920506
12	0xbf0b5df0	-0.5444021
13	0x3f50e1cb	0.8159453
14	0xbe71d0a3	-0.23614745
15	0x3ea7b864	0.32757866
16	0x3eecc119	0.46241072
17	0xbea1d949	-0.31611088
18	0x3f375c4c	0.7162521
19	0x3d8f62b1	0.07001246
20	0x3ebffa24	0.3749553
21	0xbf1608a1	-0.58606917
22	0x3e97e479	0.29666498
23	0x3ed159ae	0.40888733
24	0xbe7fd348	-0.24982941
25	0xbf3ff71c	-0.74986434
26	0xbe76366e	-0.24044201
27	0x3ed173ad	0.40908566
28	0xbe170ada	-0.14750233
29	0x3e0fc655	0.14040501
30	0x3f1ca37a	0.61186945
31	0x3e986e8f	0.2977185
32	0x3e06de14	0.13170654
33	0xbfc67173	-1.5503372
34	0x3f150e3f	0.5822486
35	0xbf169386	-0.5881885
36	0xbed55f0e	-0.41674083
37	0x3e7fbc46	0.24974164
38	0xbec336f0	-0.3812785
39	0xbe4b206f	-0.19836591
40	0x3e33fb83	0.17576413
41	0x3f309120	0.68971443
42	0x3e3b82b4	0.18311578
43	0x3eae2c92	0.3401838
44	0xbebd4f2a	-0.3697446
45	0xbecff102	-0.40613562
46	0x3f0b8e88	0.5451436
47	0xbf47cf8d	-0.7805107
48	0xbef13d8d	-0.47117272
49	0x3f1c4140	0.61037064
50	0xbd8b3286	-0.06796746
51	0x3fa71c5d	1.3055531
52	0xbdd49bb6	-0.10381262
53	0x3f444f15	0.7668317
54	0xbe8cbb52	-0.27486664
55	0x3f576700	0.8414154
56	0xbf013154	-0.50465894
57	0x3ecc8211	0.39942983
58	0x3ed4cf74	0.41564524
59	0xbed4965d	-0.41520968
60	0xbf2c2962	-0.67250645
61	0x3db96895	0.090531506
62	0x3dd57afe	0.104238495
63	0x3dd88b91	0.10573495
64	0x3ec14e99	0.37755278
65	0xbf9371a7	-1.1519059
66	0x3f46c65b	0.77646416
67	0x3f19048f	0.5977258
68	0x3f623aec	0.8837116
69	0x3f3104a4	0.69147706
70	0xbe92dcd7	-0.28684112
71	0xbf85f5d3	-1.0465645
72	0xbda85364	-0.082190305
73	0x3ee51e20	0.44749546
74	0xbf0b8112	-0.5449382
75	0xbf36e620	-0.7144489
76	0xbe647ce7	-0.22313271
77	0xbed7372f	-0.4203429
78	0xbe52a48e	-0.20570585
79	0xbf35f817	-0.7108168
80	0xbe25ff37	-0.16210638
81	0xbe7bfa42	-0.24607185
82	0x3e83d8e3	0.2575141
83	0x3f09366e	0.5359868
84	0x3eb489cf	0.3526139
85	0x3e514874	0.20437795
86	0x3f074f09	0.52854973
87	0xbe815348	-0.2525885
88	0x3df4411b	0.119264804
89	0xbf983cb4	-1.1893525
90	0x3e19c225	0.15015467
91	0x3ecbde34	0.39817965
92	0xbf3288a5	-0.69739753
93	0x3f2b95cd	0.6702545
94	0x3e3aaf93	0.18231039
95	0x3e488246	0.19580945
96	0x3e7c0629	0.24611725
97	0xbec9821c	-0.39357078
98	0x3b24ba42	0.0025135432
99	0x3f539bed	0.826598
100	0xbf03c387	-0.51470226
101	0xbf071009	-0.5275884
102	0xbdebf498	-0.11521262
103	0x3f358d14	0.70918393
104	0x3e5af49e	0.21382377
105	0x3eb44c91	0.35214666
106	0x3f10b45e	0.5652522
107	0xbec6303d	-0.38708678
108	0xbe0d5b60	-0.13804388
109	0xbe795eaa	-0.24352518
110	0xbdaa1739	-0.083052106
111	0x3e777490	0.24165559
112	0x3f31b516	0.6941694
113	0x3e7f5f7e	0.24938771
114	0xbec14fb7	-0.3775613
115	0x3ec470f5	0.3836743
116	0xbf1b0a3d	-0.605625
117	0xbe54cf69	-0.20782246
118	0xbf342d5d	-0.7038172
119	0xbdfa31f4	-0.12216559
120	0xbe40a647	-0.1881343
121	0x3f3877c2	0.72057736
122	0x3f48cbc5	0.7843593
123	0xbe748480	-0.2387867
124	0x3f452ab9	0.77018315
125	0xbf340840	-0.7032509
126	0xbe97fa0f	-0.29682967
127	0x3e38451c	0.17995113
128	0x3e11844f	0.14210628
129	0x3e2830c7	0.16424857
130	0x3eda9249	0.42689732
131	0x3f1b7ff4	0.60742116
132	0x3e5ffc07	0.21873485
133	0xbeb96570	-0.36210203
134	0xbf17509f	-0.59107393
135	0x3f1c3bc9	0.61028725
136	0x3e162f1b	0.14666407
137	0xbe884420	-0.26614475
138	0xbf5f4c0b	-0.8722541
139	0xbf19e8ad	-0.6012066
140	0x3f0914c8	0.53547335
141	0x3f23f885	0.64051086
142	0xbe5afecd	-0.21386261
143	0x3f49e15b	0.7885949
144	0x3f464085	0.774422
145	0xbf406c42	-0.7516519
146	0x3ecbfb06	0.39839953
147	0xbdc40a78	-0.09572309
148	0x3e596308	0.21229184
149	0xbebbb22e	-0.36659378
150	0xbd1e56dc	-0.038657054
151	0x3f9df98f	1.2341784
152	0xbcf60cc4	-0.030035384
153	0xbecb760f	-0.3973851
154	0x3f86b9f8	1.0525503
155	0x3eebf00e	0.46081585
156	0x3eda4e0d	0.42637673
157	0x3edd756d	0.4325365
158	0x3e553d2f	0.20824121
159	0xbf488478	-0.7832713
160	0xbf9aec54	-1.2103372
161	0x3d99a617	0.07502382
162	0x3f8f045c	1.1173205
163	0xbd8bac03	-0.06819918
164	0x3ccaef86	0.024772417
165	0xbea38cb3	-0.31943282
166	0xbecd56e9	-0.4010537
167	0x3f79140c	0.97296214
168	0xbf9cb474	-1.224257
169	0xbe8ce506	-0.2751848
170	0x3f3e5793	0.7435238
171	0xbee38b4f	-0.44442222
172	0x3f9d809d	1.2304875
173	0xbf8b0f5c	-1.0864062
174	0x3e72198a	0.23642555
175	0xbfb7f456	-1.437144
176	0x3e02bf0f	0.12768196
177	0x3ede776e	0.43450493
178	0xbe87fc39	-0.26559618
179	0x3f4f177f	0.8089523
180	0xbf79e4d0	-0.97614765
181	0x3f0003fb	0.50006074
182	0x3e032aa6	0.12809238
183	0x3ceb55bc	0.028727405
184	0xbec9b712	-0.39397484
185	0x3d13b7f3	0.0360641
186	0x3e5343c6	0.20631322
187	0x3ece3ecd	0.40282288
188	0x3f0e2da4	0.5553839
189	0xbeb7fc41	-0.35934642
190	0xbee425b0	-0.44560003
191	0x3e056b9b	0.1302933
192	0xbe23d1ed	-0.15998049
193	0x3eced393	0.40395793
194	0x3f9ea153	1.2392982
195	0x3f01ec9b	0.50751656
196	0x3cff109b	0.031135848
197	0x3f10ade6	0.5651535
198	0x3de0e2d3	0.10980763
199	0xbeb2c9fd	-0.3491973
200	0xbe97f986	-0.2968256
201	0x3f082325	0.53178626
202	0xbe37c811	-0.17947413
203	0xbefd8a2c	-0.4951948
204	0x3f8d700f	1.1049823
205	0x3dd0a26e	0.10187231
206	0x3e18aff3	0.1491087
207	0x3edaf6a3	0.42766294
208	0xbf203bc1	-0.6259118
209	0xbf2df496	-0.67951334
210	0x3ec30ee6	0.38097304
211	0x3eb7a7de	0.3587026
212	0x3f37d317	0.7180647
213	0xbf944601	-1.1583863
214	0x3f895655	1.0729471
215	0x3f52f341	0.82402426
216	0xbe3caf06	-0.18426141
217	0x3f0275f6	0.50961244
218	0xbf0c78fd	-0.54872113
219	0x3f01b319	0.50663906
220	0xbf482979	-0.7818828
221	0x3b928006	0.004470828
222	0x3efe721f	0.49696442
223	0xbf8bcfb5	-1.0922762
224	0xbe0919bb	-0.13388722
225	0xbe4f1893	-0.20224218
226	0x3e8bb141	0.27283671
227	0x3e7e1f31	0.24816586
228	0xbe443cab	-0.19163768
229	0xbf67d701	-0.90562445
230	0x3decebbd	0.11568401
231	0x3e3d3852	0.18478516
232	0x3f461fb5	0.7739213
233	0xbf21251a	-0.6294724
234	0x3f5608c7	0.83607143
235	0x3ea8e5ad	0.3298773
236	0x3eb6b189	0.35682324
237	0xbf542c4d	-0.828801
238	0x3e741e9e	0.23839805
239	0xbf2083d1	-0.62701136
240	0x3e7ab187	0.24481784
241	0x3f416156	0.7553915
242	0x3f687553	0.9080402
243	0xbd8c4c3b	-0.06850477
244	0xbeb17434	-0.34658968
245	0xbf0743ce	-0.52837837
246	0xbec9ae99	-0.3939102
247	0xbee03dd0	-0.4379716
248	0xbe67e8dc	-0.22647423
249	0x3f5ec85d	0.8702448
250	0x3f1e2a56	0.6178335
251	0x3f496a35	0.78677684
252	0x3ef712a3	0.48256406
253	0xbfa539b7	-1.2908238
254	0x3e24ec96	0.16105875
255	0xbf5b2a51	-0.85611445

pi.logits_net.4.bias f4 [87]
0	0x3e9095ca	0.2823928
1	0x3f015290	0.50516605
2	0x3ecdaf40	0.40172768
3	0x3efac261	0.48976424
4	0x3ed2104c	0.4102806
5	0x3f10fb71	0.5663367
6	0x3ee01dfd	0.4377288
7	0x3eab0320	0.33400822
8	0x3f63f4bd	0.89045316
9	0x3f0ec012	0.55761826
10	0x3f1e664c	0.6187484
11	0x3eb767a1	0.3582125
12	0x3ec21014	0.37902892
13	0x3ebafca8	0.36520886
14	0x3ee80fb8	0.45324492
15	0x3ed0aa0e	0.4075474
16	0x3e6d9687	0.23201953
17	0x3f04b4b6	0.51838243
18	0x3ee81781	0.45330432
19	0x3ecc8297	0.39943382
20	0x3e93f902	0.28900915
21	0x3f0ee468	0.5581727
22	0x3f1d8eba	0.6154591
23	0x3ec41092	0.38293892
24	0x3ea60ad3	0.32430133
25	0x3f02258d	0.5083855
26	0x3e9a278e	0.30108303
27	0x3eb63108	0.35584283
28	0x3f06220d	0.5239571
29	0x3ed02c5d	0.40658846
30	0x3e94e458	0.29080462
31	0x3e5d790d	0.21628208
32	0x3e9c8048	0.3056662
33	0x3ebfae46	0.37437648
34	0x3e95ebf7	0.2928159
35	0x3eb3c1d7	0.35108826
36	0x3f0c9ca5	0.5492652
37	0x3eac8fc0	0.33703423
38	0x3e6e5edc	0.23278373
39	0x3f024901	0.50892645
40	0x3e56d3e9	0.20979275
41	0x3eb6ccc2	0.35703093
42	0x3ed853ab	0.42251334
43	0x3e888b03	0.26668558
44	0x3eb8498a	0.35993606
45	0x3f2af99c	0.66787124
46	0x3eaacd45	0.33359733
47	0x3e294963	0.16531901
48	0x3d6f12cc	0.058367535
49	0x3ef01ea3	0.46898374
50	0x3f1bcbcd	0.6085785
51	0x3f11d73f	0.56969064
52	0x3f06eb7e	0.5270308
53	0x3ee7602f	0.4519057
54	0x3e1e459c	0.15456241
55	0x3e7efd39	0.24901284
56	0x3e4a0606	0.1972886
57	0x3f1ffd5b	0.62495965
58	0x3efb2c0f	0.49057052
59	0x3ec36ca7	0.38168833
60	0x3f0b4d52	0.54414856
61	0x3f1df5c9	0.61703163
62	0x3ebcfa32	0.36909634
63	0x3ee82473	0.4534031
64	0x3f001ee3	0.5004713
65	0x3f0b4e15	0.5441602
66	0x3f069aa6	0.52579725
67	0x3e7273e9	0.23677029
68	0x3ec069e9	0.37580803
69	0xbc89fe98	-0.016845033
70	0x3e868014	0.2626959
71	0x3f358ba1	0.7091618
72	0x3ed7faab	0.42183432
73	0x3ee2b4ba	0.44278508
74	0x3e82e2cd	0.2556366
75	0x3ee5bb59	0.44869497
76	0x3ec99483	0.39371118
77	0x3f09fb0e	0.53898704
78	0x3ecfe083	0.40600976
79	0x3efd6d0e	0.49497265
80	0x3ea24608	0.31694055
81	0x3e9a5d4f	0.30149314
82	0x3f00a42e	0.5025052
83	0x3eca7bf6	0.395477
84	0x3f07c8ba	0.5304066
85	0x3f1133df	0.56719774
86	0x3eaee37e	0.34157938

v.v_net.0.weight f4 [64, 282]
0	0xbff29b63	-1.895367
1	0x3ebc8733	0.368219
2	0x3fe86556	1.8155925
3	0xc00f6ef0	-2.241146
4	0x3eeb3ad6	0.45943326
5	0x3e98c7d7	0.29839966
6	0xbfd0dd69	-1.6317569
7	0xbfcf225b	-1.618236
8	0x3fef42e0	1.8692284
9	0x3edfedec	0.43736207
10	0x3f193139	0.5984073
11	0x3ee0f1f7	0.43934605
12	0xbff0d495	-1.8814875
13	0x3fefec2e	1.8743951
14	0x3ea1a48f	0.3157086
15	0xc00e8cfc	-2.227355
16	0xbff0d4c5	-1.8814932
17	0xbe22a12c	-0.15881795
18	0x3ece5ce3	0.40305242
19	0xbff32b91	-1.899767
20	0xbff8c04d	-1.9433686
21	0xbfcdd143	-1.6079487
22	0x3f0d5323	0.5520498
23	0x3e92b419	0.2865303
24	0x3ed7d6da	0.42156106
25	0x3fe9868a	1.8244183
26	0xbff8c9a7	-1.943654
27	0xbff4105b	-1.9067491
28	0xbfc9bb9f	-1.5760382
29	0xbffc275b	-1.969951
30	0x3ebba173	0.36646613
31	0x3feaf278	1.8355246
32	0x3eb20310	0.34767962
33	0x3ea04895	0.31305376
34	0xbff88909	-1.941682
35	0xbfc92f43	-1.5717548
36	0xbfc523f9	-1.5401603
37	0x3febc07e	1.8418119
38	0x3eff408f	0.49853942
39	0x3fe489b8	1.7854528
40	0x3fef6b10	1.8704548
41	0x3f163401	0.586731
42	0x3ff1176e	1.8835275
43	0x3fe5f5c8	1.7965631
44	0x3f045553	0.51692694
45	0x3ff141dc	1.8848224
46	0x3ee8dee6	0.45482558
47	0x3eff8bab	0.49911246
48	0x3f0621d9	0.523954
49	0xbfc8e877	-1.5695943
50	0xbff7107d	-1.9301907
51	0xbffae1ad	-1.9600121
52	0x3f094a3b	0.5362889
53	0x3ff107f2	1.883055
54	0x3ee697b3	0.45037612
55	0x3eeef390	0.46670198
56	0x3ec66aa7	0.38753244
57	0xbff7b0c9	-1.9350826
58	0x3fea9920	1.832798
59	0xbff41de1	-1.9071618
60	0xbff51763	-1.9147762
61	0x3fef25e0	1.8683434
62	0xbfd2a797	-1.6457394
63	0x3f0c9bb7	0.549251
64	0x3ed97259	0.42470053
65	0x3fe9490e	1.822542
66	0x3ea4db70	0.32198668
67	0x3f18e823	0.5972921
68	0x3ee3caba	0.44490606
69	0xbff79ab5	-1.9344088
70	0x3edb5270	0.42836332
71	0xbfc76d05	-1.5580145
72	0x3fee51ee	1.8618753
73	0x3ec8845b	0.3916348
74	0x3f037949	0.5135694
75	0xbfcd8f53	-1.6059364
76	0x3ee158f3	0.44013175
77	0xbfcf10df	-1.6177024
78	0xc012cfb1	-2.2939265
79	0x3fe9ecc6	1.8275383
80	0x3f05feeb	0.523421
81	0x3ef83185	0.4847528
82	0xbfc5de17	-1.5458401
83	0xbff813af	-1.9381007
84	0x3fe8016a	1.8125432
85	0xbff9d801	-1.9519044
86	0x3f1c8677	0.6114268
87	0x3e64562e	0.222985
88	0x3eef9e99	0.46800688
89	0x3d61e8be	0.0551536
90	0x4031a951	2.7759593
91	0x3f93944f	1.1529635
92	0xbd9f83de	-0.077888235
93	0xbe0298c8	-0.12753594
94	0xc024e8a6	-2.5766997
95	0xbec7436f	-0.38918635
96	0xbf8ab6a7	-1.0836991
97	0xbf8994d1	-1.074854
98	0x3e350c9f	0.17680596
99	0x3f00ab5f	0.5026149
100	0xbf0460e7	-0.5171036
101	0x3fe1aacf	1.7630252
102	0x3fb81964	1.4382749
103	0xbed74d3a	-0.42051107
104	0xbe9cb1da	-0.3060444
105	0xbf376037	-0.7163119
106	0xbd588052	-0.05285675
107	0x3ffc8441	1.9727861
108	0xbf6eb1c3	-0.9323999
109	0x3fbfe189	1.4990703
110	0xc020714a	-2.5069146
111	0xbf2c713b	-0.67360276
112	0xbc287446	-0.010281628
113	0xbee6fafb	-0.45113358
114	0x3ecf9f16	0.4055106
115	0xbd48a50a	-0.04898552
116	0x3e76bc3e	0.24095246
117	0xbf4572a8	-0.77128077
118	0x3d004127	0.031312134
119	0xc00e2460	-2.2209702
120	0xbfc8bf68	-1.5683413
121	0xbe1f9d61	-0.15587379
122	0xbf879c1b	-1.0594515
123	0x3efc4afd	0.49275962
124	0xbdd7f9e6	-0.10545711
125	0x3f4ffc33	0.812442
126	0x3d0f202b	0.034942787
127	0x3e59bb80	0.21262932
128	0xbfdced27	-1.7259873
129	0xbcb7bf66	-0.022430133
130	0xbf42e436	-0.7612947
131	0x3fa68aba	1.3011086
132	0x3e194948	0.14969361
133	0xc0563106	-3.3467422
134	0x3f56278b	0.8365409
135	0xbf9b9159	-1.2153732
136	0xbefc72fa	-0.4930647
137	0xbf1fdbb5	-0.6244462
138	0xbea93ae9	-0.33052757
139	0xbbe87950	-0.0070945397
140	0x3db232aa	0.0870107
141	0x3f794693	0.9737331
142	0x3e1727e0	0.14761305
143	0xbf2cc058	-0.67480993
144	0xbe7c2068	-0.24621737
145	0x3f0cc71f	0.54991335
146	0x3fdc0d8f	1.7191638
147	0xc01af714	-2.4213305
148	0x3fa6d89d	1.3034855
149	0x3e9919b2	0.29902416
150	0xbf84d444	-1.0377278
151	0xbe5a8238	-0.21338737
152	0x3e66f6ea	0.22555128
153	0x3ea30884	0.31842434
154	0x3ec2d80d	0.3805546
155	0x3c9d4133	0.019196128
156	0xbdd33765	-0.103133
157	0xbf52e876	-0.8238596
158	0xbdf68bbf	-0.12038373
159	0x3f0a10ad	0.53931695
160	0x3ff554cb	1.9166502
161	0xbf54d1c7	-0.83132595
162	0x3f7d508d	0.98951036
163	0xbee4f37d	-0.44717017
164	0x3ecb8e7c	0.39757144
165	0x3fe92aa8	1.8216143
166	0xbf89811f	-1.074253
167	0xbfe2d9df	-1.7722739
168	0xc01fb8e8	-2.4956608
169	0x3edd190d	0.43183175
170	0xbd0c8ae3	-0.03431214
171	0x3ec290e5	0.3800117
172	0xbf06c998	-0.5265136
173	0xbf56f2a9	-0.8396402
174	0x3f14e5d6	0.581632
175	0xbf0c2fcd	-0.5476044
176	0xc0018ab9	-2.024092
177	0x405b2107	3.4238908
178	0xc04538ea	-3.0815988
179	0x40a059dd	5.0109696
180	0xc08e963b	-4.4558387
181	0x3f843bec	1.0330787
182	0xc037c8ef	-2.871639
183	0x3e3eb21c	0.18622631
184	0x401b4dfe	2.4266353
185	0xc0223576	-2.534513
186	0x4055ea80	3.3424377
187	0x3fe919f8	1.821105
188	0x3f93c5cd	1.1544739
189	0x3fba4caa	1.4554646
190	0xc03e3dd7	-2.9725244
191	0xc08c98e1	-4.393662
192	0x3fa4b94d	1.2869049
193	0x403207eb	2.7817333
194	0xbe7c35da	-0.24629918
195	0x406f6009	3.7402365
196	0xbf0ca9e9	-0.5494676
197	0x3feb931b	1.8404268
198	0x3fcebebc	1.6151958
199	0xbff4dba7	-1.9129533
200	0xbf8e0eea	-1.1098301
201	0xc06cd38c	-3.7004118
202	0xbff48e11	-1.9105855
203	0x3ec60da4	0.38682282
204	0xbc8f1fe8	-0.017471269
205	0xbedc9f0e	-0.430901
206	0xbf97451d	-1.1817967
207	0xbd2d2fcf	-0.042281922
208	0x3f6c31cf	0.922635
209	0xbea6c987	-0.32575628
210	0x3f25019f	0.644556
211	0x3f7a9642	0.97885525
212	0x3e8ee4fd	0.2790908
213	0x3e9cd11d	0.3062829
214	0x3f64a6aa	0.8931681
215	0xc04f9f29	-3.2440894
216	0xbfd78354	-1.6836953
217	0x3f1dae32	0.61593926
218	0x3f721c9d	0.9457491
219	0xbf41a61a	-0.75644076
220	0xbf93dfd8	-1.1552687
221	0xbed6bf97	-0.41943046
222	0x3e544897	0.20730816
223	0x3f2399ae	0.6390637
224	0x3ca6a9f3	0.02034471
225	0xbf482304	-0.7817843
226	0xbf5762f3	-0.8413536
227	0x3f1e390c	0.61805797
228	0x3f0db002	0.5534669
229	0xbf754089	-0.958016
230	0x3e3513f0	0.17683387
231	0xbf1d406c	-0.61426425
232	0xbe19fa0a	-0.15036789
233	0xbf8c4058	-1.0957136
234	0x4025d23a	2.5909562
235	0x3e9b31f0	0.30311537
236	0x3df2c933	0.11854782
237	0x40040ba9	2.0632117
238	0xc04afafe	-3.1715693
239	0x3fd1b38c	1.6382918
240	0xc047071d	-3.1098092
241	0x3f8ddf40	1.1083755
242	0xbd26338f	-0.040576514
243	0xbcc3222f	-0.023820011
244	0xc0a1ab68	-5.0521736
245	0xbea78570	-0.32718992
246	0xbf1cf6c9	-0.61314064
247	0xbf313fc1	-0.69237906
248	0xbfddb206	-1.7319953
249	0xbfe71827	-1.8054246
250	0x3f092572	0.5357276
251	0x3fa50dba	1.2894814
252	0x4085daeb	4.1829734
253	0x403562e9	2.834162
254	0x3e5b35b2	0.21407202
255	0xbff1aaf9	-1.8880302

v.v_net.0.bias f4 [64]
0	0xbfcee9c9	-1.6165096
1	0x3ff2da45	1.897286
2	0x3f31af1d	0.69407827
3	0x3fd9d8db	1.7019304
4	0x4013dfaa	2.3105264
5	0x4021384f	2.5190618
6	0xbf430854	-0.7618458
7	0x3f83f360	1.0308647
8	0xbf9ff893	-1.2497734
9	0xbf8209da	-1.0159256
10	0x3fa89aca	1.3172238
11	0xbf4792e4	-0.7795851
12	0xbf30185b	-0.68787163
13	0x4048c8e8	3.1372623
14	0x3ffaaac6	1.9583366
15	0x3e384cbe	0.17998025
16	0x3eb7676c	0.35821092
17	0xbf530df0	-0.8244314
18	0x4008824e	2.1329532
19	0x401b8c61	2.430443
20	0xc086528b	-4.197576
21	0xbe8db42a	-0.27676517
22	0xbfec305d	-1.8452259
23	0xbe5c1768	-0.21493304
24	0x3e80fa7b	0.251911
25	0x3f0b5555	0.5442708
26	0x40956a9c	4.669264
27	0x3f2563c8	0.6460538
28	0xbfd4fbd4	-1.6639352
29	0x3d8ce441	0.068794735
30	0xbf09fed5	-0.5390447
31	0x3ecf5bb1	0.40499642
32	0x3e45ec5a	0.19328442
33	0x3f4e7adb	0.8065621
34	0xbf991fa1	-1.1962777
35	0x3f0833b6	0.53203905
36	0xc05d0ed9	-3.4540312
37	0x3e91a80b	0.2844852
38	0xbf71ad7b	-0.94405335
39	0xc078acf1	-3.8855555
40	0x40a09231	5.0178456
41	0xbfe917d2	-1.8210394
42	0x3faa9346	1.3326194
43	0xc077f9f5	-3.8746312
44	0x3e29baab	0.16575114
45	0xbe99c5b1	-0.3003364
46	0xbf6f6d3e	-0.93526065
47	0xbfb3d6fd	-1.4049984
48	0x3f45a389	0.7720266
49	0x3e5b8a7f	0.21439551
50	0x404f6639	3.2406142
51	0x3f2c3dbe	0.6728171
52	0x3dcf2d63	0.10116079
53	0x40a05035	5.009791
54	0x3f50dad0	0.8158388
55	0xc08928bc	-4.2862225
56	0x3e9eb80f	0.309998
57	0x400ee555	2.2327473
58	0xbff18b9a	-1.8870728
59	0x3ea003cc	0.31252897
60	0x3ea19f1e	0.3156671
61	0xc011c4ec	-2.2776442
62	0x3d6cd534	0.057820514
63	0xc0839ff1	-4.113274

v.v_net.2.weight f4 [64, 64]
0	0x3ed5966a	0.4171632
1	0x3e1daaca	0.15397182
2	0xbf029ba4	-0.5101874
3	0x3ec2153e	0.37906832
4	0xc0aca1e3	-5.3947616
5	0x3f6ddccb	0.9291503
6	0x3f9a2edc	1.204555
7	0xc0217ed6	-2.5233665
8	0xbf959bcf	-1.1688174
9	0x3f115811	0.56775004
10	0x401a49b8	2.4107494
11	0xc12cb15a	-10.793299
12	0x3f666229	0.8999353
13	0xc03f5860	-2.989769
14	0x3dd55184	0.104159385
15	0x3f6a6ee7	0.91575474
16	0xbef171b9	-0.47157076
17	0xbf9ca866	-1.2238891
18	0x403d87b6	2.9614081
19	0xc0559e07	-3.3377702
20	0x3fa475ad	1.2848412
21	0x4093633a	4.6058626
22	0xbf90be78	-1.1308126
23	0xbf000749	-0.50011116
24	0xbe42e6de	-0.19033381
25	0x3f9f70e5	1.2456328
26	0x4069b225	3.651498
27	0x3f551f38	0.8325076
28	0x3fb3c1d7	1.404353
29	0xbf31d9b7	-0.6947283
30	0x3f6f4c9f	0.9347629
31	0xbfa51b53	-1.2898964
32	0x400df8a4	2.2183008
33	0x3ff1c0ea	1.8886998
34	0xbda0044f	-0.07813322
35	0xbec54646	-0.38530177
36	0xbf6a5633	-0.9153778
37	0x3fd7ae75	1.6850115
38	0xc00456fb	-2.0678089
39	0xbe538660	-0.20656729
40	0xc08aa246	-4.332309
41	0x3f3028c2	0.6881219
42	0xbe8c28f3	-0.27374992
43	0x3ff924e8	1.9464388
44	0xbf589366	-0.8459991
45	0xbefc222d	-0.49244824
46	0x3eeb96e9	0.46013573
47	0xbfd24cc6	-1.6429679
48	0x3f39c8ba	0.7257191
49	0xbf9162ec	-1.1358314
50	0xc00cdccd	-2.2009766
51	0x3eae5cda	0.34055215
52	0xc082ff20	-4.093643
53	0xbfeb48f8	-1.8381643
54	0x400049fb	2.0045154
55	0x3f36c6f6	0.7139734
56	0xbf7605ad	-0.9610241
57	0x3f1c99b6	0.61172044
58	0xbf2700f9	-0.6523586
59	0xbeaf1f64	-0.34203637
60	0xbef66792	-0.48125893
61	0xbfb62b7b	-1.4232019
62	0xbff4ef39	-1.9135505
63	0xc008bd65	-2.1365597
64	0xbf6f081d	-0.93371755
65	0x3efdff3d	0.49608794
66	0xbfaba979	-1.3411094
67	0xc01bdc90	-2.435337
68	0xbfe56504	-1.7921453
69	0x40421d52	3.0330396
70	0xbede5d9e	-0.434308
71	0xc035d975	-2.8413975
72	0xc07034ce	-3.753223
73	0x3fa12d3c	1.259193
74	0x3f7adf3f	0.97996897
75	0xbfa8e045	-1.3193442
76	0x3f1dc6d3	0.61631507
77	0xbfbdc621	-1.4826089
78	0x3fc3984f	1.5280856
79	0xc0971a14	-4.7219334
80	0x400a2267	2.1583498
81	0x3fcc8960	1.5979424
82	0x4085479c	4.1649914
83	0x3d96f402	0.073707595
84	0x3fd59fdf	1.6689414
85	0xbfa79f26	-1.3095443
86	0xbfd0ea8a	-1.6321576
87	0x3f4e3db2	0.8056289
88	0xbf6934de	-0.91096294
89	0x3ec9d278	0.39418387
90	0xbdb5c15c	-0.08874771
91	0xbf905597	-1.127612
92	0x3e21edf7	0.15813433
93	0xbfa419ed	-1.2820412
94	0x4054f087	3.3271806
95	0x3f6ef3b4	0.9334061
96	0x4034354b	2.8157527
97	0x3f3a6d92	0.7282344
98	0xbe8aa1c2	-0.27076536
99	0xbf0937fc	-0.5360105
100	0xbf52ab31	-0.8229247
101	0x40babeaf	5.835777
102	0x3f83d2c0	1.0298691
103	0xbd63afc9	-0.055587564
104	0xbf8e9f1e	-1.1142309
105	0xc03edfdb	-2.982413
106	0x400912b9	2.1417677
107	0xbea7d531	-0.3277984
108	0x3faf2768	1.3683901
109	0xbe529a52	-0.20566681
110	0x4081ccd2	4.0562525
111	0x3f8b64f5	1.0890185
112	0xc02abf8e	-2.6679416
113	0x4021b88c	2.5268888
114	0xbf89bced	-1.076078
115	0xbe38a84f	-0.18032955
116	0xbfd3fc97	-1.6561459
117	0xc0b62119	-5.6915402
118	0xbfca1e5b	-1.5790514
119	0x3efb00a9	0.4902394
120	0xbf1e4b0d	-0.6183327
121	0x40e88730	7.2665024
122	0xc0af1575	-5.4713693
123	0x40943d44	4.6324787
124	0xc09faa7c	-4.989561
125	0x3e769594	0.24080497
126	0xc0244f39	-2.5673354
127	0xbc47ee94	-0.012202878
128	0x4032e054	2.794942
129	0x3e8c582d	0.27411023
130	0x402c7511	2.6946452
131	0x3f47bb7a	0.7802044
132	0xc053f3ed	-3.311763
133	0x3f1c6f71	0.61107546
134	0x3eefbe6d	0.4682497
135	0x403fd50f	2.997379
136	0x3f92d217	1.1470364
137	0xc002989a	-2.040564
138	0xbf9f2df2	-1.2435896
139	0x4052a6be	3.2914271
140	0xbdf756ef	-0.12077128
141	0xc048fb33	-3.140332
142	0xbe4f4a9a	-0.20243302
143	0xbf997ade	-1.1990621
144	0xbfce2dd7	-1.6107739
145	0x4007dc96	2.1228385
146	0x3f123a04	0.57119775
147	0x3e2000f8	0.1562537
148	0x401b840f	2.4299352
149	0x3e210712	0.15725353
150	0x3fe3055c	1.773601
151	0x400acc74	2.1687288
152	0xbfe2bedd	-1.7714497
153	0xbf45e8fc	-0.7730863
154	0x3f2637e8	0.64929056
155	0x3f106f05	0.564194
156	0xc00d35bc	-2.2064047
157	0x3fcc06e0	1.5939598
158	0x3ef03c8f	0.46921203
159	0xba0e0eaf	-0.0005419058
160	0xbcd0e822	-0.025501315
161	0xbfd38c6f	-1.6527232
162	0x3f82ae9a	1.0209534
163	0x404c20aa	3.1894937
164	0x40075b7d	2.114959
165	0xbe9d3d34	-0.30710757
166	0x3ded3177	0.115817
167	0xbf190e6c	-0.5978763
168	0xbfbcc023	-1.4746135
169	0x4044d735	3.0756352
170	0xbf81d9c2	-1.014458
171	0xbff1bd85	-1.8885962
172	0x40a856c7	5.260593
173	0xc053ca36	-3.309217
174	0xbfb8418f	-1.4395007
175	0xbfd3b23b	-1.6538767
176	0x3f2ec4d5	0.6826909
177	0xbf4adf88	-0.7924733
178	0xc029ea8b	-2.6549404
179	0xc03291bf	-2.7901456
180	0x4075807a	3.8359666
181	0xbfab6f32	-1.3393309
182	0xc03431b8	-2.8155346
183	0x3fcb44ad	1.5880333
184	0xbff6ac62	-1.9271357
185	0xbd27d6e7	-0.04097643
186	0xc0051e7f	-2.0799863
187	0xbd4a172d	-0.04933851
188	0xbfd5d84c	-1.6706634
189	0x3f8575e7	1.0426606
190	0x3fa25794	1.2682977
191	0xbfd2c3a4	-1.6465955
192	0xbfa77d1a	-1.3085053
193	0x3f1e7099	0.6189056
194	0xbfe9654a	-1.8234036
195	0x404b5749	3.1772025
196	0x3ff4b645	1.9118124
197	0xbfd41055	-1.6567484
198	0xc03c4255	-2.9415486
199	0xc0a898b6	-5.2686415
200	0xbfc6f7e4	-1.55444
201	0x3fcad975	1.5847613
202	0x3e10492c	0.14090413
203	0xbfb700b2	-1.4297087
204	0xc0214bd2	-2.5202527
205	0x40684da1	3.629738
206	0x3e869ddf	0.2629232
207	0x3f8f0698	1.1173887
208	0x3fad9eae	1.356405
209	0x3ef65878	0.4811437
210	0x3f217ad4	0.63078046
211	0xbfdc1862	-1.7194941
212	0xc0d38e48	-6.6111183
213	0xc0274451	-2.6135447
214	0xbfb9466f	-1.447462
215	0xbf79c905	-0.97572356
216	0x3ffc9f6e	1.9736154
217	0x3ec1ba06	0.37837237
218	0x40c4ab10	6.1458817
219	0x40076290	2.1153908
220	0xbd958a56	-0.07301776
221	0xbfbd1f4a	-1.4775174
222	0x3faf15b8	1.3678503
223	0x3f1df1bb	0.61696976
224	0x3e794164	0.24341351
225	0x3fb0c415	1.380984
226	0xbe93d44a	-0.288729
227	0x3f1ecf0f	0.62034696
228	0x3f18352f	0.5945615
229	0xbeaf4a92	-0.3423658
230	0x3ef75fa5	0.48315158
231	0x3fc2af02	1.5209658
232	0xbf38ef4f	-0.72240156
233	0xc05975b7	-3.3978097
234	0xbe482ab5	-0.19547541
235	0xbf0970f2	-0.53687966
236	0x3fba7f10	1.4570026
237	0x4020ac4f	2.510517
238	0xbecf99f5	-0.40547147
239	0x3f58ff55	0.84764606
240	0x3ea25ea0	0.31712818
241	0x3f1c516e	0.6106175
242	0xc00f3661	-2.237694
243	0x3fd293c9	1.645135
244	0x3fbec2b8	1.4903173
245	0x3fc5ace1	1.5443383
246	0xbf2697f6	-0.65075624
247	0xbf9fa84f	-1.2473239
248	0x3f87a6d7	1.059779
249	0x4064531f	3.5675733
250	0xbf8c953e	-1.0983045
251	0x400b50ee	2.1768146
252	0xbe82fecf	-0.2558503
253	0x3ebebbaf	0.37252566
254	0xbf92bf86	-1.1464698
255	0xbf7d05ee	-0.98837173

v.v_net.2.bias f4 [64]
0	0x3e833bcb	0.25631556
1	0x3da14bab	0.07875761
2	0xbfba6d0f	-1.4564532
3	0x3ef24440	0.47317696
4	0xbf71b750	-0.9442034
5	0x3fcbd579	1.5924522
6	0x3f6475d3	0.89242285
7	0x3f48852c	0.78328204
8	0x3f88f58e	1.0699937
9	0x3e7f6565	0.24941023
10	0x3f2da5f3	0.67831343
11	0x3e352083	0.17688183
12	0x3e7e9073	0.2485979
13	0xbc2f1746	-0.010686701
14	0xbebc2c4c	-0.36752546
15	0x3e6595e8	0.22420466
16	0xbef286e3	-0.47368535
17	0xbea55b78	-0.32296348
18	0x3f31426d	0.6924198
19	0xbf59f682	-0.85141766
20	0x3c9ecbb3	0.01938424
21	0x3f8798a6	1.059346
22	0xbdc29584	-0.09501174
23	0x3e9fae79	0.311878
24	0x3e066750	0.13125348
25	0xbf0aa6a3	-0.5416052
26	0x3e55577e	0.20834157
27	0x3db83ec6	0.08996348
28	0xbe5e29ab	-0.21695583
29	0xbe50ae9b	-0.20379107
30	0x3e860181	0.26173022
31	0x3d5547b8	0.05207035
32	0xbf8fbfb0	-1.1230373
33	0xbf13747a	-0.57599604
34	0x3eee7ee1	0.46581176
35	0x3f70554e	0.93880165
36	0x3c7bfe42	0.015380444
37	0x3d9a4379	0.07532401
38	0xbe6ae732	-0.22939757
39	0x3ed278a2	0.4110766
40	0xbea75309	-0.32680538
41	0xbe9e0733	-0.30864868
42	0xbf07a027	-0.5297875
43	0x3f3a684d	0.728154
44	0xbe12d9c4	-0.14340883
45	0xbf12520a	-0.5715643
46	0x3fb4da28	1.4129076
47	0x3f3e8951	0.7442828
48	0x3f8f95db	1.1217607
49	0xbf090cdb	-0.5353524
50	0x3e35b9eb	0.17746703
51	0x3f0bf921	0.54677016
52	0x3f2a1f35	0.6645387
53	0xbfb9d4f7	-1.4518117
54	0xbf85e676	-1.0460956
55	0x3f865223	1.0493816
56	0x3a0ca2a4	0.00053648115
57	0x3f93d7a7	1.1550187
58	0x3ef6e949	0.48224857
59	0x3f36a03e	0.7133826
60	0xbf982263	-1.1885494
61	0x3f842569	1.0323917
62	0xbf15e558	-0.58553076
63	0x3f7bea82	0.98404706

v.v_net.4.weight f4 [1, 64]
0	0xc0b9f48d	-5.8111024
1	0x40d752cb	6.7288566
2	0xc0d8ba60	-6.772751
3	0x411c364d	9.763257
4	0xc0f86f9e	-7.763625
5	0x4092e1dc	4.5900707
6	0x41124446	9.141668
7	0x40a202fe	5.0628653
8	0x40ad534c	5.416418
9	0x40dc8d02	6.892213
10	0xc0cb1449	-6.346226
11	0x40d55607	6.6667514
12	0xc0a140f9	-5.039181
13	0xc040996f	-3.0093648
14	0xc09a421f	-4.8205714
15	0xc0a29e1b	-5.0818
16	0xc1062aab	-8.385417
17	0xc0db97b1	-6.862267
18	0x40a2c67f	5.0867305
19	0xc0861cc6	-4.1910124
20	0xc0a94ac8	-5.2903786
21	0xc08e3cb0	-4.444908
22	0x40dc7d69	6.890309
23	0xc0510d87	-3.2664506
24	0xc02fde5f	-2.7479475
25	0xc0cc2faf	-6.3808208
26	0x40d877f5	6.764643
27	0xc0d715ae	-6.7213964
28	0x40ada6d1	5.4266133
29	0xc071bde8	-3.777216
30	0x40ffdfdf	7.996078
31	0x408d8095	4.421946
32	0xc08948ff	-4.2901607
33	0xc0b0acba	-5.521085
34	0xc0b1d556	-5.557292
35	0x40e5e059	7.183636
36	0xc043a9bb	-3.0572345
37	0x40b375e5	5.6081414
38	0xc0f7647c	-7.731016
39	0x40dc5614	6.8855076
40	0x40c1944c	6.0493526
41	0xc0dca466	-6.895068
42	0x40a1acba	5.052335
43	0x410066b0	8.02507
44	0xc1132f64	-9.19907
45	0xc0f8c08b	-7.773504
46	0x4107d0e9	8.488503
47	0x40f1d21f	7.5568995
48	0x40f91f71	7.785088
49	0x405dfdd1	3.4686167
50	0x41013e87	8.077765
51	0x40e3ac17	7.114757
52	0xc061b440	-3.5266266
53	0xc0f751d7	-7.72874
54	0xc0d60c36	-6.6889906
55	0x410fa3a2	8.977449
56	0x410353a0	8.207916
57	0x41177137	9.46514
58	0x40867dfe	4.20288
59	0xc0ab8672	-5.360162
60	0xc0e40451	-7.125527
61	0x41ee6589	29.799578
62	0xc1002d32	-8.011034
63	0xc0cb94cb	-6.361913
