model_wts/s1_d3_m1.0_b0.0.ckpt (torch, 206875 bytes, 11 tensors)

pi.logits_net.0.weight f4 [64, 282]
0	0xbd81b33b	-0.063330136
1	0xbe3ad0fa	-0.1824378
2	0x3dd11d44	0.1021066
3	0xbd9dc552	-0.077036515
4	0xbd2a100d	-0.041519213
5	0x3d2beb51	0.041972462
6	0x3cda0a0f	0.026616124
7	0x3d8da580	0.06916332
8	0x3df9b63b	0.12192961
9	0xbe717500	-0.23579788
10	0xbe082543	-0.13295464
11	0xbe1ce4b2	-0.15321615
12	0xbd93fffb	-0.07226559
13	0x3db93aa6	0.090443894
14	0x3afb65d6	0.001918013
15	0xbde1fe41	-0.11034823
16	0xbdaedd82	-0.08538343
17	0xbe1da5b1	-0.15395238
18	0x3d8864d1	0.06659854
19	0xbd95537f	-0.07291316
20	0xbdedf5f0	-0.116191745
21	0x3b3e3184	0.0029021213
22	0xbcc4e7b7	-0.024036271
23	0xbc9f24e0	-0.019426763
24	0x3d437f25	0.047728676
25	0x3dee98ca	0.11650236
26	0xbd652767	-0.05594578
27	0xbd71fb23	-0.059077393
28	0xbc9e77a0	-0.019344151
29	0xbd69e033	-0.05709858
30	0x3cbb8fbe	0.02289569
31	0x3e2e38af	0.1701381
32	0xbdef4f4e	-0.11685048
33	0xbd44993f	-0.04799771
34	0xbe179df3	-0.14806347
35	0x3c26379d	0.010145095
36	0x3dbab12f	0.09115826
37	0x3dd47168	0.10373193
38	0x3d23f415	0.040027697
39	0x3db014da	0.08597727
40	0x3e3036a1	0.1720834
41	0xbe32db9a	-0.17466584
42	0x3e221bf9	0.15830983
43	0x3dea3397	0.11435621
44	0xbd3a1164	-0.04542674
45	0x3e13b909	0.14426054
46	0xbc8bd046	-0.017067086
47	0x3d034df3	0.03205676
48	0xbe2aaa82	-0.16666606
49	0x3d047542	0.03233839
50	0xbe184301	-0.1486931
51	0xbdfab0c9	-0.1224075
52	0xbdeff0ee	-0.117158756
53	0x3dcb1ca2	0.09917571
54	0xbdc65638	-0.09684414
55	0x3d7f15a2	0.06227649
56	0xbe22c1d0	-0.15894246
57	0xbe065793	-0.13119344
58	0x3e198365	0.1499153
59	0xbd956d85	-0.0729628
60	0xbe050ec7	-0.12993918
61	0x3e1bfceb	0.152332
62	0x3d99a441	0.07502032
63	0xbdc5f574	-0.09665957
64	0xbe42156c	-0.18953484
65	0x3dd4aeb6	0.10384886
66	0x3d93996e	0.07206999
67	0xbe1026af	-0.14077257
68	0xbd9b14f6	-0.07572357
69	0xbe0b8ab3	-0.13627128
70	0xbdfd762d	-0.12376056
71	0x3ccc01ad	0.024903143
72	0x3e122a5f	0.14273976
73	0xbcde4f5e	-0.027137455
74	0xbe05097b	-0.12991898
75	0x3d54d5ff	0.051961895
76	0xbe09bb37	-0.13450323
77	0x3d8c0e99	0.06838722
78	0xbe23fa63	-0.16013484
79	0x3e131299	0.14362563
80	0xbe43ef00	-0.1913414
81	0xbcf8f0b1	-0.030388208
82	0x3d2e0841	0.04248834
83	0xbdd00ff5	-0.101592936
84	0x3e18317d	0.14862628
85	0xbe039623	-0.12850241
86	0xbe4f4450	-0.20240903
87	0xbe524340	-0.20533466
88	0x3ea578aa	0.32318622
89	0x3de50751	0.11183036
90	0xbf09e464	-0.5386412
91	0xbed3248a	-0.41238815
92	0xbe72e8b2	-0.23721579
93	0x3e8440e6	0.25830764
94	0xbd9ec7a4	-0.07752922
95	0x3ca21c1f	0.0197888
96	0xbf05687b	-0.5211255
97	0xbe1463ef	-0.14491247
98	0x3edf52bd	0.43617812
99	0x3f89048f	1.0704516
100	0x3ec8f040	0.39245796
101	0xbed592b5	-0.4171349
102	0xbd64e42a	-0.055881657
103	0xbda200af	-0.07910287
104	0x3d0dd23e	0.03462433
105	0xbf5c6834	-0.860965
106	0x3f282d58	0.6569419
107	0x3da719f6	0.081592485
108	0xbbc8d79d	-0.0061292187
109	0x3edeac8e	0.43491024
110	0x3db33ea9	0.08752186
111	0x3e42d590	0.1902678
112	0x3f2bc339	0.6709476
113	0x3e1ac099	0.15112533
114	0x3ea69d3a	0.3254183
115	0x3eb5bdc1	0.35496333
116	0xbdac74df	-0.08420729
117	0xbebd9ce0	-0.3703375
118	0xbd15f520	-0.036610723
119	0xbe5df4fd	-0.21675487
120	0x3f030b70	0.5118933
121	0x3eef4df4	0.4673916
122	0x3ee1ead7	0.4412448
123	0x3ee5e226	0.448991
124	0xbe341258	-0.17585123
125	0x3e7158c9	0.23569025
126	0x3f4a6078	0.7905345
127	0x3e912711	0.28350118
128	0xbe4afa40	-0.19822025
129	0x3ead7b1b	0.33882985
130	0x3dc7d41d	0.09757254
131	0x3eaa2beb	0.33236632
132	0x3dbc64a5	0.09198884
133	0x3ece9440	0.4034748
134	0xbe64e398	-0.22352445
135	0xbf00c236	-0.5029634
136	0x3cf4d65e	0.029887374
137	0x3ea0550c	0.31314886
138	0xbd9f2b45	-0.07771925
139	0x3d50ed33	0.05100746
140	0x3e8854f5	0.26627317
141	0x3ea1c84f	0.31598136
142	0xbe84d29f	-0.2594194
143	0xbea35ceb	-0.31906828
144	0xbea98301	-0.3310776
145	0x3e76bdbe	0.24095818
146	0x3f291f90	0.66063786
147	0xbe828f5f	-0.25500008
148	0x3e06753f	0.13130663
149	0x3eba369b	0.36369786
150	0xbe7a8a05	-0.24466713
151	0x3c75b307	0.014996297
152	0xbe9d2f14	-0.3069998
153	0x3e2a1e4f	0.16613124
154	0xbe894c79	-0.26816157
155	0x3eb2d473	0.3492771
156	0x3ea4b8ed	0.32172337
157	0x3ed3630c	0.41286504
158	0x3f2e7923	0.6815359
159	0x3e8bc1e6	0.2729637
160	0xbde85d6b	-0.11345943
161	0xbd7a256b	-0.06107084
162	0x3ef39095	0.47571245
163	0x3f18c4a1	0.5967503
164	0xbe315d05	-0.1732064
165	0xbdea885d	-0.114517905
166	0xbe964412	-0.2934881
167	0xbd202a25	-0.039102692
168	0xbf2ce6d1	-0.675397
169	0xbcee9a35	-0.029126266
170	0xbeec13ca	-0.46108848
171	0x3e89cc06	0.2691347
172	0x3e39052a	0.18068376
173	0x3d72e3ea	0.059299387
174	0xbe930ba1	-0.2871981
175	0x3f17c756	0.5928854
176	0x3ea8ef92	0.32995278
177	0x3f3ecda3	0.74532527
178	0xbdf8663e	-0.12128876
179	0xbe9085dc	-0.28227127
180	0x3d98a15a	0.0745265
181	0x3f05a88b	0.522103
182	0xbdb89007	-0.09011846
183	0xbf2ead44	-0.6823313
184	0x3efdbbac	0.49557245
185	0xbed5e7f7	-0.41778538
186	0xbf391b3c	-0.7230718
187	0x3e01e110	0.12683511
188	0xbec869fd	-0.39143363
189	0x3d71d474	0.0590405
190	0xbe559ce3	-0.20860629
191	0x3d459573	0.04823823
192	0x3dbbc262	0.09167935
193	0x3f6a9397	0.91631454
194	0xbf06eee2	-0.52708256
195	0x3f13af8b	0.5768973
196	0x3f89d286	1.0767372
197	0x3f269096	0.6506437
198	0x3df6f4c4	0.12058404
199	0xbf326453	-0.6968433
200	0x3def5810	0.116867185
201	0xbe286d19	-0.16447867
202	0x3eaa148d	0.33218804
203	0x3f4d77e3	0.8026106
204	0x3e094b04	0.13407522
205	0x3e4b77af	0.19869874
206	0xbede83e7	-0.43460009
207	0xbcd5add9	-0.026083874
208	0x3d7c8cf5	0.061657865
209	0xbe96d02d	-0.294557
210	0x3e016392	0.1263564
211	0x3f2f9658	0.6858878
212	0xbe9e2e8d	-0.3089489
213	0x3e69169a	0.22762528
214	0x3f1eedd5	0.6208165
215	0x3e49c36a	0.19703451
216	0xbdb0fe5a	-0.08642264
217	0xbee141eb	-0.43995604
218	0xbe876673	-0.2644535
219	0xbeacce03	-0.33750924
220	0xbd7de2f9	-0.061984036
221	0xbeb4ac88	-0.3528788
222	0x3ec036a7	0.37541696
223	0xbde45247	-0.11148506
224	0x3cb9eb73	0.022695279
225	0xbeab5598	-0.3346374
226	0xbf895891	-1.0730153
227	0xbdb090f8	-0.086214006
228	0xbe66da5b	-0.22544234
229	0xbdcd4461	-0.10022808
230	0x3e02ecd3	0.12785654
231	0xbf4127c3	-0.75451297
232	0x3f1c5742	0.61070645
233	0xbd83d694	-0.06437412
234	0x3ecc4298	0.39894557
235	0xbe1c3ca6	-0.1525751
236	0x3e53ebd5	0.20695432
237	0x3e99e92e	0.30060714
238	0xbf37d721	-0.71812636
239	0x3f4355e2	0.7630292
240	0x3ea61430	0.32437277
241	0x3e585c9c	0.21129078
242	0xbe84a6d0	-0.25908518
243	0x3ca2f954	0.01989428
244	0x3dde0ebd	0.10842655
245	0x3e5d41f2	0.21607187
246	0xbee41800	-0.4454956
247	0xbf8b4ce0	-1.0882835
248	0xbf0ab760	-0.5418606
249	0xbf3eccde	-0.7453135
250	0xbbeef923	-0.007292883
251	0xbd72f1b5	-0.05931254
252	0x3f90292b	1.1262563
253	0x3f6cdd31	0.9252501
254	0xbd6d9675	-0.058004815
255	0x3f13c759	0.57726055

pi.logits_net.0.bias f4 [64]
0	0xbe533fcd	-0.20629807
1	0xbdffe0d4	-0.124940544
2	0x3e8da30a	0.2766345
3	0xbdae4c17	-0.08510607
4	0x3cd6cc0c	0.026220344
5	0x3d410f21	0.04713357
6	0x3e3cac92	0.18425205
7	0xbebc2ebb	-0.36754403
8	0xbe367d77	-0.17821299
9	0x3e450644	0.19240671
10	0xbdee4837	-0.11634868
11	0xbe6c1146	-0.23053464
12	0x3d8faffb	0.070159875
13	0x3dfa8d04	0.12233928
14	0x3de7585d	0.11296151
15	0xbc9cc86a	-0.019138534
16	0xbd6a0ba5	-0.05714001
17	0x3de1bf1b	0.110227786
18	0xbc122b6d	-0.008921486
19	0x3e007469	0.12544407
20	0x3c9d8eec	0.01923319
21	0x3ea93930	0.33051443
22	0x3db3d73e	0.087812886
23	0x3e207d83	0.15672879
24	0x3dcf82ac	0.101323456
25	0x3dd95fb2	0.106139556
26	0xbcc03b79	-0.023465859
27	0xbcffbc36	-0.031217676
28	0xbdb7c66b	-0.08973392
29	0x3e3c6097	0.18396221
30	0x3d282610	0.041051924
31	0x3de24ae2	0.11049439
32	0x3e577628	0.21041167
33	0x3c7c651b	0.015404965
34	0xbe06475e	-0.13113162
35	0xbc50f748	-0.012754269
36	0xbdf8ad11	-0.12142385
37	0x3d4ece9e	0.050490014
38	0x3ddef3b3	0.10886326
39	0xbdbfa8ac	-0.093583435
40	0x3cd37221	0.025811257
41	0xbd94d296	-0.072667286
42	0xbdfd6ab2	-0.12373866
43	0xbdf141c9	-0.11780126
44	0xbd82f40c	-0.063942045
45	0x3d65660d	0.056005526
46	0xbdf30e3a	-0.11867948
47	0x3e1b30ec	0.15155381
48	0xbe521999	-0.20517577
49	0x3e1c2829	0.15249695
50	0xbe0004c1	-0.12501813
51	0xbe8dde02	-0.2770844
52	0x3e89cb3d	0.2691287
53	0xbd536612	-0.051611014
54	0x3b93cc2c	0.004510423
55	0x3d9ce6b8	0.076611936
56	0xbe0bb30a	-0.13642517
57	0x3e5e2090	0.21692109
58	0x3d40ed47	0.047101285
59	0x3a7ac340	0.00095658377
60	0xbd9dab5b	-0.07698699
61	0xbe737d55	-0.23778279
62	0xbccc93fc	-0.024972908
63	0xbda719b2	-0.08159198

pi.logits_net.2.weight f4 [64, 64]
0	0xbeee64ac	-0.46561182
1	0xbd8cd3af	-0.06876313
2	0x3f18d8c0	0.59705734
3	0x3db1d3f8	0.08683008
4	0x3e9b42ac	0.30324304
5	0xbf032c4a	-0.51239455
6	0x3dc9f399	0.09860916
7	0xbe53de69	-0.20690311
8	0x3e38bac7	0.1804
9	0x3f7fe75e	0.99962413
10	0xbf5a4379	-0.85259205
11	0xbf179cb4	-0.59223485
12	0x3e26cf96	0.16290125
13	0xbf1ee958	-0.62074804
14	0x3ebbfedd	0.36717883
15	0x3ee60215	0.44923463
16	0x3ca3971b	0.019969514
17	0x3e596529	0.21229996
18	0x3c85c48e	0.016329076
19	0xbebc30dd	-0.3675603
20	0xbf0f053d	-0.5586737
21	0x3f2b1035	0.66821605
22	0xbe114b46	-0.14188871
23	0x3de5e6dc	0.112256736
24	0xbf0c2ff1	-0.5476065
25	0xbd393396	-0.04521521
26	0x3e898a4f	0.26863334
27	0x3ec1995f	0.37812325
28	0x3ca045fe	0.019564625
29	0x3ec44c7e	0.3833961
30	0xbeb95143	-0.3619481
31	0xbe0a05c5	-0.13478763
32	0x3e001fc0	0.12512112
33	0xbd7c54ba	-0.06160424
34	0xbd682647	-0.05667713
35	0xbecbcaad	-0.39803067
36	0x3e783359	0.24238338
37	0x3e58f7cf	0.21188281
38	0x3f03b129	0.514422
39	0x3e3947a9	0.18093742
40	0x3f6469f2	0.8922416
41	0x3f6584e1	0.8965588
42	0x3ce5a66d	0.02803346
43	0xbd082a87	-0.033243682
44	0x3f34a1d8	0.70559454
45	0xbeed6761	-0.46367934
46	0xbd7bd8a6	-0.06148591
47	0x3ed47ddf	0.41502282
48	0x3dcf00bb	0.10107561
49	0xbec067bd	-0.37579146
50	0xbe507165	-0.20355757
51	0xbdc76450	-0.0973593
52	0x3f35d2ac	0.71024585
53	0xbe2c21da	-0.16809788
54	0xbf101825	-0.5628684
55	0x3e943fbc	0.28954875
56	0xbe5d7c11	-0.21629359
57	0x3e84b69b	0.25920567
58	0x3e6a0f57	0.22857414
59	0xbd8acd5b	-0.0677745
60	0xbe79dde4	-0.24401051
61	0xbd57ce56	-0.05268701
62	0xbd2d5e7d	-0.04232644
63	0x3ef9da20	0.4879923
64	0x3ed885d3	0.422896
65	0x3f0f8873	0.5606758
66	0x3efc3668	0.4926026
67	0x3fb2ee51	1.3978978
68	0x3dd21ea4	0.102597505
69	0xbef45b86	-0.47726077
70	0xbf9acff5	-1.2094713
71	0x3df0c92c	0.117571205
72	0x3e18d6c9	0.14925684
73	0xbf30b426	-0.69024885
74	0x3e6f5994	0.23374015
75	0x3e8f825d	0.28029147
76	0xbd63f28c	-0.055651233
77	0xbf7dacf8	-0.99092054
78	0x3d73d515	0.059529383
79	0xbf206d65	-0.6266692
80	0x3ed47d3c	0.41501796
81	0xbd94afc8	-0.0726009
82	0x3dbcff12	0.09228338
83	0x3e6059a4	0.21909195
84	0x3ccb33d6	0.02480499
85	0x3a971c8b	0.0011528892
86	0x3e9e3a0c	0.3090366
87	0xbd9d3f0d	-0.076780416
88	0xbedca515	-0.43094698
89	0xbf2a9925	-0.6663993
90	0x3e3db5a7	0.18526326
91	0x3ed3a383	0.41335687
92	0x3d981dfc	0.07427594
93	0xbe9ce9a3	-0.30647
94	0xbeec57dc	-0.4616078
95	0xbdae954f	-0.08524572
96	0x3e86043a	0.261751
97	0xbe7b7d1a	-0.24559441
98	0x3f3699dd	0.71328527
99	0xbf023279	-0.50858265
100	0xbde71d01	-0.11284829
101	0xbd755a06	-0.059900306
102	0xbf2bb4bb	-0.6707265
103	0xbeec1b1d	-0.46114436
104	0xbe8b916d	-0.2725939
105	0xbf070ddd	-0.5275553
106	0x3eb8457a	0.35990506
107	0xbee72fd6	-0.45153683
108	0x3e9a00b7	0.3007867
109	0xbf50208e	-0.81299675
110	0x3cba9d71	0.022780152
111	0x3c97f450	0.018549114
112	0xbd0ca416	-0.034336172
113	0xbc81309a	-0.015770245
114	0xbe2ceda8	-0.16887534
115	0xbe45eb3d	-0.19328018
116	0x3e3c752b	0.18404071
117	0x3ee4a8ac	0.44659936
118	0x3e0da6aa	0.13833109
119	0x3ed19d6d	0.4094042
120	0xbe4f75c6	-0.20259771
121	0xbe6098a6	-0.21933231
122	0x3eadf7fc	0.3397826
123	0xbef57367	-0.47939608
124	0x3f27e335	0.65581065
125	0xbe9e649f	-0.30936143
126	0xbe6c379a	-0.23068085
127	0xbea2ae8f	-0.31773803
128	0xbe912129	-0.28345612
129	0xbef35617	-0.4752662
130	0x3e95db2d	0.2926878
131	0xbeb3c2ff	-0.35109708
132	0x3da066cf	0.07832109
133	0x3ec15b3e	0.37764925
134	0x3f3638c3	0.7118036
135	0x3d0c4d90	0.034253657
136	0x3e509079	0.20367612
137	0x3f61d5ea	0.8821703
138	0x3d5b4d30	0.05354041
139	0x3dad3d08	0.084589064
140	0x3f4ca135	0.7993348
141	0x3f97e465	1.1866575
142	0x3f056ab6	0.5211595
143	0xbe7fda3f	-0.24985598
144	0x3f32c36c	0.6982944
145	0xbe3109b2	-0.17288855
146	0x3ef4b146	0.477915
147	0x3f8260ab	1.0185751
148	0xbc95c1ab	-0.018280825
149	0x3e9fb63b	0.31193718
150	0x3ead7db1	0.33884957
151	0x3f2cdb22	0.6752187
152	0x3f48c3ba	0.78423655
153	0xbefd6e42	-0.49498183
154	0x3e8788f8	0.26471686
155	0xbe139529	-0.14412369
156	0x3de0da7b	0.10979172
157	0xbedf112c	-0.4356779
158	0xbe65b7de	-0.22433421
159	0xbf2cf5c1	-0.6756249
160	0xbe01caf5	-0.12675078
161	0xbcc9fda1	-0.024657072
162	0xbeec4bad	-0.46151486
163	0xbe0e1140	-0.13873768
164	0xbd8df095	-0.06930653
165	0xbf2ba999	-0.6705566
166	0x3f279111	0.6545573
167	0x3ed1ecaf	0.41000888
168	0x3f0f53c8	0.55987215
169	0xbf23ce8c	-0.6398704
170	0xbd657dbc	-0.056028113
171	0xbeb9a93d	-0.3626193
172	0x3e6847f2	0.22683695
173	0xbe706d0a	-0.23479095
174	0xbf1ac086	-0.6045002
175	0x3d63e427	0.055637505
176	0x3c849d01	0.016188147
177	0xbe2e16f5	-0.17000945
178	0x3f37492b	0.7159602
179	0xbe8fadb4	-0.28062212
180	0x3e9830c9	0.2972472
181	0xbe91738a	-0.28408462
182	0x3dad5cbc	0.08464953
183	0x3cfe255b	0.031023672
184	0xbea62b8a	-0.32455093
185	0x3e2fba76	0.17160973
186	0xbd7472aa	-0.059679665
187	0x3dc82cc0	0.097741604
188	0x3e798469	0.24366917
189	0xbe1538c2	-0.14572433
190	0x3e5da260	0.21643972
191	0xbd31bfeb	-0.043395918
192	0x3d04292d	0.03226583
193	0xbf5d030b	-0.8633277
194	0x3d966774	0.07343951
195	0x3e4f68a6	0.20254764
196	0xbe308271	-0.1723726
197	0xbd7f6871	-0.062355462
198	0x3e175c17	0.14781223
199	0xbe1a6c5e	-0.15080401
200	0x3ca023ff	0.019548414
201	0xbf1930c6	-0.5984005
202	0xbe6fdb18	-0.23423421
203	0x3ecd787d	0.40130988
204	0xbe0f604c	-0.14001578
205	0xbd81c529	-0.063364334
206	0xbed36e52	-0.41295105
207	0x3e9c0136	0.30469674
208	0x3f879d4d	1.0594879
209	0x3e943966	0.28950042
210	0xbef1f02d	-0.47253552
211	0xbed603e1	-0.41799834
212	0x3cf587c8	0.029971972
213	0xbe31b8fd	-0.17355724
214	0x3ed2536b	0.41079268
215	0xbe1548c2	-0.14578536
216	0x3ed05b28	0.40694547
217	0x3e53f422	0.20698598
218	0xbe319094	-0.17340308
219	0xbee775f4	-0.4520718
220	0xbe2aba18	-0.16672552
221	0x3e81a74a	0.25322944
222	0xbe704aef	-0.23466085
223	0x3f528696	0.8223661
224	0xbdedf874	-0.11619654
225	0xbfa1bddf	-1.2636069
226	0x3ef9e19e	0.48804945
227	0xbdb5ef9a	-0.08883591
228	0xbee67116	-0.45008153
229	0x3e849086	0.25891513
230	0xbe736c48	-0.23771775
231	0xbeaddadc	-0.3395604
232	0x3e43ea56	0.19132361
233	0xbf42ef04	-0.7614596
234	0x3f2c0c58	0.67206335
235	0x3f1836d8	0.59458685
236	0xbebc85e1	-0.36820891
237	0x3ea90ef0	0.3301921
238	0xbecf8b01	-0.4053574
239	0xbec38334	-0.38186038
240	0x3e08ef68	0.13372576
241	0x3dd4bb28	0.1038726
242	0x3ec48cf4	0.3838879
243	0xbc9ae964	-0.018910117
244	0x3e1e0e77	0.15435205
245	0x3f0d354d	0.55159456
246	0xbe077fa4	-0.13232285
247	0xbc9e42af	-0.019318907
248	0xbeb2b4c4	-0.34903538
249	0xbef4fe2f	-0.47850177
250	0x3dd86124	0.10565403
251	0xbe6571fd	-0.22406764
252	0x3f380ce2	0.7189466
253	0x3ee74f07	0.4517748
254	0x3ee01726	0.4376766
255	0xbe894223	-0.2680827

pi.logits_net.2.bias f4 [64]
0	0x3e9e9c28	0.30978513
1	0xbdb542a0	-0.08850598
2	0x3e07295b	0.1319937
3	0xbed9f054	-0.42566168
4	0xbf086d08	-0.5329137
5	0x3d0b3c72	0.033993192
6	0x3dac4d14	0.08413139
7	0xbdcbd875	-0.09953395
8	0xbec9a7d4	-0.39385855
9	0x3bca171c	0.0061673056
10	0xbefc3192	-0.4925657
11	0x3dd4c9d3	0.103900574
12	0x3ebb7376	0.36611527
13	0x3d3fe22e	0.04684656
14	0x3c7b59e0	0.015341252
15	0x3e19317f	0.14960288
16	0x3e722e64	0.23650509
17	0xbf026977	-0.50942177
18	0x3db4ad03	0.08822062
19	0x3f04d484	0.51886773
20	0x3dc94112	0.09826864
21	0x3d3e2a16	0.046426855
22	0xbdc2b4e5	-0.09507159
23	0x3c77a9e4	0.015116189
24	0x3eece31d	0.46267024
25	0x3f2642ce	0.64945686
26	0xbe54c5ea	-0.20778623
27	0x3e79473d	0.24343581
28	0xbe7e11a0	-0.24811411
29	0xbe173761	-0.14767219
30	0xbc865978	-0.016400084
31	0xbf8fb088	-1.1225748
32	0xbe7d39d1	-0.24729086
33	0x3dd57526	0.10422735
34	0x3eb158ff	0.3463821
35	0xbee464d3	-0.44608173
36	0x3e40bb65	0.18821485
37	0x3e03c6a6	0.12868747
38	0xbeb0749a	-0.3446396
39	0x3e6b1561	0.22957374
40	0xbd7cb4dc	-0.06169592
41	0xbe73aeef	-0.237972
42	0x3e0e09ea	0.1387097
43	0xbe8384f4	-0.25687373
44	0x3f229942	0.635151
45	0xbe0248e2	-0.12723115
46	0x3db36008	0.08758551
47	0xbea14f89	-0.31505993
48	0xbd1fa2c1	-0.038973574
49	0x3ec08d00	0.37607574
50	0xbd8cf81e	-0.06883262
51	0x3e2cd9a7	0.16879903
52	0xbe78070f	-0.24221443
53	0x3ead7602	0.33879095
54	0xbe9080a7	-0.28223154
55	0x3c731af8	0.014837973
56	0xbf21625c	-0.6304071
57	0x3da84b95	0.08217541
58	0x3ecbfd1d	0.39841548
59	0x3e810dc9	0.2520583
60	0x3ee7fd44	0.45310414
61	0x3df1e05e	0.11810373
62	0x3e7fbee2	0.2497516
63	0x3d3a3d4e	0.04546862

pi.logits_net.4.weight f4 [87, 64]
0	0x3e33bc67	0.17552339
1	0x3f34f440	0.70685196
2	0x3f1b4776	0.60655916
3	0xbeb21583	-0.34782037
4	0xbed34041	-0.4125996
5	0xbf9b819b	-1.2148927
6	0x3e4002cd	0.18751068
7	0x3f50ee65	0.8161376
8	0xbf3d718d	-0.7400139
9	0x3fb493c8	1.4107599
10	0xbebfd4bd	-0.37466994
11	0xbf3f44a1	-0.74714094
12	0x3eb8cea7	0.36095163
13	0xbe6099e8	-0.2193371
14	0xbf58c4ef	-0.84675497
15	0x3ed878fc	0.42279804
16	0xbe3b4a6d	-0.1829011
17	0xbf01ad96	-0.50655496
18	0x3f4c7279	0.7986217
19	0x3eeb55d3	0.45963916
20	0x3f08420b	0.53225774
21	0xbf53104a	-0.8244673
22	0x3f8c1c5b	1.0946153
23	0x3f5e651c	0.8687303
24	0x3e9d93f6	0.30776948
25	0x3e1300bf	0.14355753
26	0xbfaa8832	-1.3322814
27	0x3e2110ca	0.15729061
28	0x3f33563f	0.70053476
29	0x3f88be4e	1.0683076
30	0x3eae45d8	0.34037662
31	0xbee1d19a	-0.44105226
32	0xbe0335c3	-0.12813477
33	0x3d84ccbd	0.06484363
34	0xbdcc8e83	-0.099881195
35	0xbe938d40	-0.28818703
36	0x3f7f9f98	0.99852896
37	0xbf7fcc6c	-0.999213
38	0xbf1650ac	-0.58716846
39	0x3ec656af	0.3873801
40	0xbc62e160	-0.013847679
41	0xbead7be4	-0.33883584
42	0x3f5f65c7	0.87264675
43	0x3e312369	0.17298664
44	0x3e944a32	0.28962857
45	0xbedeecd1	-0.43540052
46	0x3fa2d827	1.2722214
47	0xbf04760b	-0.5174262
48	0xbf3494da	-0.7053963
49	0x3effab4a	0.4993537
50	0xbcffe45f	-0.031236826
51	0x3e636642	0.22206977
52	0xbf15f2d3	-0.58573645
53	0x3edfe489	0.43729046
54	0xbee85956	-0.45380658
55	0xbf1597a8	-0.58434534
56	0xbf08b51a	-0.5340134
57	0xbf8e178b	-1.1100935
58	0x3e95bad4	0.292441
59	0xbda92117	-0.082582645
60	0x3ee7bf25	0.4526302
61	0xbe9e092c	-0.30866373
62	0x3f375715	0.7161725
63	0xbf2b83d6	-0.6699804
64	0x3de1525b	0.11002036
65	0xbf36648d	-0.7124718
66	0x3e89cdf0	0.2691493
67	0xbea0243e	-0.3127765
68	0xbe63746b	-0.22212379
69	0xbec4850a	-0.3838275
70	0xbf655df6	-0.895965
71	0xbf3fc784	-0.7491381
72	0x3eff7c9b	0.49899754
73	0xbf4591f1	-0.77175814
74	0xbe9b8969	-0.30378273
75	0xbecfb82a	-0.40570194
76	0x3e3f559c	0.18685001
77	0x3f4b6fad	0.7946728
78	0xbf141195	-0.5783933
79	0x3f2674f0	0.6502218
80	0x3f935098	1.150897
81	0xbd54e45c	-0.051975593
82	0x3e93eabe	0.28890032
83	0x3e65f794	0.22457725
84	0x3e86d022	0.26330668
85	0xbee98329	-0.4560788
86	0x3ea2440e	0.31692547
87	0x3f1ffa5c	0.62491393
88	0xbdc3043a	-0.095222905
89	0x3ef34c21	0.4751902
90	0x3c569682	0.013097407
91	0x3e2202b7	0.15821348
92	0xbf7e15c2	-0.9925195
93	0x3e03ce98	0.12871778
94	0xbf1d9013	-0.61547965
95	0xbe0e0b1b	-0.13871424
96	0xbd91d52d	-0.07120738
97	0x3f01555c	0.50520873
98	0xbe4c51d3	-0.19953088
99	0xbe12d02b	-0.14337222
100	0x3e87b3aa	0.2650426
101	0xbeaf2671	-0.34209016
102	0x3dbeeddc	0.09322712
103	0xbf82ef7e	-1.0229337
104	0xbf9175e8	-1.1364107
105	0xbec0a2dc	-0.37624252
106	0x3f2f2c9c	0.68427444
107	0x3ec52321	0.38503364
108	0x3e92a7e7	0.28643724
109	0xbf566864	-0.8375304
110	0x3e983d2c	0.2973417
111	0xbc9e2283	-0.019303566
112	0x3ec2d7e5	0.3805534
113	0x3efa3dfc	0.48875415
114	0x3e8aeff2	0.2713619
115	0xbf8135fc	-1.00946
116	0xbf269203	-0.65066546
117	0x3f1c478f	0.6104669
118	0xbf0a12d9	-0.5393501
119	0x3d3968c6	0.045265935
120	0xbe9c8fac	-0.30578363
121	0x3f8eaf2b	1.1147207
122	0x3f40bd46	0.7528881
123	0xbe838d88	-0.25693917
124	0x3ea1ce9a	0.31602937
125	0xbd440423	-0.047855508
126	0x3f15d8a9	0.5853372
127	0xbd343925	-0.04399981
128	0x3ebc152f	0.36734912
129	0xbe86f0de	-0.26355642
130	0xbf0c3fed	-0.54785043
131	0xbead0cb8	-0.33798766
132	0xbe9673b6	-0.29385155
133	0xbea06149	-0.31324223
134	0xbdafd74f	-0.08585989
135	0x3cd00eda	0.025397707
136	0xbf166b8c	-0.58757854
137	0x3f8c4cb4	1.0960908
138	0x3df5b2ac	0.119969696
139	0xbeea79bc	-0.45796
140	0x3eda79e0	0.42671108
141	0xbfb0d48e	-1.3814867
142	0xbf82ab20	-1.0208473
143	0x3f872ab7	1.055991
144	0xbd86ad4d	-0.06576023
145	0x3ee379ac	0.44428766
146	0x3f346e53	0.7048084
147	0x3f1f66cf	0.6226625
148	0xbe51effd	-0.20501705
149	0x3eb4904a	0.35266334
150	0x3e480ff1	0.19537331
151	0xbead706d	-0.33874837
152	0x3ef345f8	0.4751432
153	0x3e9d7eef	0.30760905
154	0xbea7f76c	-0.32805955
155	0xbefca79e	-0.49346632
156	0x3e31a601	0.17348482
157	0x3ee6cd01	0.4507828
158	0x3e805b98	0.2506988
159	0xbef68b64	-0.48153222
160	0xbf54488b	-0.8292319
161	0xbe0e8e3f	-0.1392145
162	0xbdab2c53	-0.083580635
163	0x3eef83a3	0.46780118
164	0x396af8c3	0.0002240865
165	0xbd90edab	-0.070765816
166	0xbf0d05bb	-0.5508687
167	0x3f1292a2	0.57254994
168	0xbf0a66a9	-0.54062897
169	0xbf01a1bd	-0.5063742
170	0x3f0880c9	0.5332151
171	0xbe93f240	-0.2889576
172	0x3ece841a	0.4033516
173	0xbd5de317	-0.054171648
174	0xbe79c4ef	-0.2439153
175	0xbe9787cc	-0.29595792
176	0xbf5bba77	-0.858314
177	0x3f1726a2	0.59043324
178	0xbf40f9db	-0.7538125
179	0xbdb842d3	-0.08997121
180	0xbe101f54	-0.1407445
181	0x3f0a6ffa	0.5407711
182	0x3c7b7a77	0.015349022
183	0xbf352059	-0.70752484
184	0xbe7d78ca	-0.24753109
185	0xbf66fd8b	-0.90230626
186	0x3ea212f9	0.316551
187	0x3f54f75a	0.8318993
188	0x3f285150	0.65749073
189	0x3ee530c6	0.44763774
190	0xbee5d44e	-0.44888538
191	0xbe9107ae	-0.28326172
192	0x3f2cd5b6	0.67513597
193	0x3d8fd129	0.07022316
194	0xbe1ec5a2	-0.15505078
195	0xbf321252	-0.69559205
196	0xbf3b65c7	-0.73202175
197	0xbf743621	-0.95395094
198	0xbeb9db83	-0.36300287
199	0xbe6a07cd	-0.22854538
200	0xbf88fc82	-1.0702059
201	0x3f0a3f18	0.54002523
202	0xbd03509b	-0.032059293
203	0x3fb8e2ba	1.4444191
204	0x3f53d932	0.8275329
205	0xbfb39b5c	-1.4031787
206	0x3f1778e2	0.5916883
207	0xbf20f3b2	-0.6287185
208	0x3e6a100a	0.22857681
209	0xbf4d298a	-0.8014151
210	0xbf51ea3d	-0.81998044
211	0x3f0edf82	0.55809796
212	0xbf1e4cb3	-0.61835784
213	0xbf8f7586	-1.120774
214	0xbeaf436b	-0.34231123
215	0xbe4be2e7	-0.19910775
216	0x3e9188d2	0.28424698
217	0x3f0ffc7c	0.56244636
218	0xbf07513c	-0.5285833
219	0x3f21e8fb	0.63246125
220	0x3fe0b7f2	1.7556136
221	0x3ec654e5	0.38736644
222	0x3e18a753	0.14907579
223	0xbf4e32f3	-0.8054649
224	0xbeabd90e	-0.33564037
225	0x3e675f0a	0.22594848
226	0x3f44e0bb	0.7690541
227	0xbeb4e209	-0.353287
228	0xbf3f042b	-0.74615735
229	0xbea42203	-0.320572
230	0x3ebd3171	0.36951783
231	0x3e9a66b6	0.30156487
232	0x3e193130	0.1496017
233	0xbf0a4713	-0.540147
234	0x3dd6482e	0.10462986
235	0x3e8b9cbe	0.27268022
236	0x3f264ac8	0.6495786
237	0xbe687857	-0.22702156
238	0xbf09cdf9	-0.53829914
239	0xbe7b0e5f	-0.24517201
240	0xbf4d39a2	-0.80166066
241	0x3f0f40e2	0.5595838
242	0xbf134d6a	-0.5754
243	0x3f900414	1.1251245
244	0x3f5d1816	0.8636488
245	0x3e2554c4	0.16145617
246	0xbf4724e7	-0.77790684
247	0x3e91bb98	0.28463435
248	0xbf4b8d9e	-0.79512966
249	0xbf090d02	-0.53535473
250	0x3e58907e	0.2114887
251	0xbf12dfbe	-0.57372653
252	0xbd64793c	-0.05577968
253	0x3fc9f837	1.5778874
254	0xbf112050	-0.5668993
255	0xbf009da7	-0.5024056

pi.logits_net.4.bias f4 [87]
0	0x3eba1edd	0.36351672
1	0x3d95e91d	0.073198535
2	0x3ea7b72f	0.32756945
3	0x3f4d7123	0.8025076
4	0x3f11c279	0.56937367
5	0x3e7dbef6	0.24779877
6	0x3ec0aa85	0.37630096
7	0x3f084ca3	0.5324194
8	0x3f0c0a92	0.5470363
9	0x3e6ea292	0.23304203
10	0x3e805bc6	0.25070018
11	0x3f2b1d16	0.66841257
12	0x3ecc010a	0.39844543
13	0x3ec5b71f	0.38616273
14	0x3e8e7400	0.27822876
15	0x3f040222	0.51565754
16	0x3f395127	0.72389454
17	0x3ea3ec4c	0.32016218
18	0x3f320b0f	0.69548124
19	0x3eb9f7a7	0.36321756
20	0x3e2f3941	0.17111684
21	0x3f0f1fd6	0.5590795
22	0x3ee1fb41	0.44137004
23	0x3efddada	0.49581033
24	0x3e875dda	0.2643879
25	0x3ebd3bd1	0.369597
26	0x3e89feb7	0.26952145
27	0x3eb2e3e2	0.34939486
28	0x3eb0fc9a	0.3456772
29	0x3ef98b5d	0.48739138
30	0x3f0288e6	0.5099014
31	0x3eb1c326	0.347192
32	0x3e046b3a	0.12931529
33	0x3f201b5b	0.6254174
34	0x3ef5f257	0.48036453
35	0x3f02176a	0.5081698
36	0x3f1da9cd	0.6158722
37	0x3ed074c1	0.40714076
38	0x3e992dd0	0.29917765
39	0x3f215cce	0.63032234
40	0x3e930217	0.28712532
41	0xbd4ea390	-0.050448954
42	0x3eba9862	0.36444384
43	0x3ec4e809	0.3845828
44	0x3ef77a16	0.48335332
45	0x3f1a53e6	0.6028427
46	0x3ef30e53	0.47471866
47	0x3eff03c4	0.4980756
48	0x3df3f2ee	0.119115695
49	0x3eec8bcf	0.46200415
50	0x3f77537d	0.9661177
51	0x3ef4c649	0.4780753
52	0x3e336873	0.17520313
53	0x3f015bb5	0.5053056
54	0x3e36b349	0.1784183
55	0x3f3fe6b3	0.74961394
56	0x3e98ff3c	0.29882228
57	0x3e768f1a	0.24078026
58	0x3f0dc974	0.5538552
59	0x3f5262f7	0.8218226
60	0x3ece841b	0.40335163
61	0x3f0293b7	0.51006645
62	0x3e44ce19	0.19219245
63	0x3f130232	0.57425225
64	0x3f381187	0.71901745
65	0x3f278c0c	0.6544807
66	0x3f2aa8b4	0.6666367
67	0xbd22cf4a	-0.039748468
68	0x3edd6b53	0.43245944
69	0x3eae4822	0.34039408
70	0x3ef941e8	0.48683095
71	0x3e8c33a9	0.27383164
72	0x3ee208d8	0.44147372
73	0x3eeee459	0.4665859
74	0x3e7ef561	0.24898292
75	0x3eeba147	0.46021482
76	0x3f0f860d	0.5606392
77	0x3e4a411b	0.19751398
78	0x3e837922	0.25678355
79	0x3e825a79	0.2545965
80	0x3ec62dab	0.38706717
81	0x3ec4fe76	0.38475388
82	0x3eef571d	0.4674615
83	0x3ee23970	0.44184446
84	0x3f204c6d	0.62616616
85	0x3e33a0e1	0.17541839
86	0x3e44ccbd	0.19218726

v.v_net.0.weight f4 [64, 282]
0	0xbe74993b	-0.23886578
1	0x4046247e	3.0959773
2	0xbef5a7dd	-0.47979632
3	0xbed8e964	-0.42365563
4	0x40184a30	2.379528
5	0x4019d4cc	2.403613
6	0xbfe84c6f	-1.8148326
7	0xbfe6913b	-1.8013071
8	0xbeda320d	-0.4261631
9	0x3fc1fceb	1.515531
10	0x404d172e	3.2045398
11	0x404ab1aa	3.1670938
12	0xbe66619b	-0.22498171
13	0xbed78cdb	-0.42099652
14	0x401af05c	2.4209204
15	0xbed1da3c	-0.40986812
16	0xbe6662ff	-0.22498702
17	0x403c8b16	2.9459891
18	0x4014ae5a	2.3231416
19	0xbe3ad841	-0.18246557
20	0xbe92df40	-0.2868595
21	0xbfe54015	-1.7910181
22	0x3f00af58	0.50267553
23	0x4019125a	2.391745
24	0xbea46907	-0.3211138
25	0xbef122eb	-0.47096953
26	0xbe67c751	-0.22634627
27	0xbe41ff6f	-0.18945096
28	0xbfe12a61	-1.7591058
29	0xbea07b38	-0.31344008
30	0x401e2ff6	2.4716773
31	0xbeeb72e5	-0.45986095
32	0x4044d3fa	3.075438
33	0x401ac4d4	2.4182634
34	0xbe65c159	-0.22437038
35	0xbfe09df9	-1.754821
36	0xbfdc927f	-1.7232207
37	0xbee83acd	-0.4535736
38	0x401acad8	2.4186306
39	0xbf028b63	-0.5099394
40	0xbed990f7	-0.42493412
41	0x404c57e6	3.192865
42	0xbed2dfed	-0.41186467
43	0xbeff6663	-0.49882802
44	0x3eef642c	0.46756113
45	0xbed2363d	-0.41057006
46	0x4017feb6	2.3749213
47	0x401ad442	2.4192052
48	0x40485368	3.1300907
49	0xbfe05725	-1.7526594
50	0xbe59fcad	-0.21287794
51	0xbe9b6496	-0.30350178
52	0x40491d8e	3.1424289
53	0xbed31ddf	-0.41233727
54	0x404b665e	3.178123
55	0x4018c14c	2.386798
56	0x404760ea	3.1152902
57	0xbe5effbf	-0.21777247
58	0xbeecd853	-0.46258792
59	0xbe426b7d	-0.18986316
60	0xbe4a35ed	-0.19747134
61	0xbedaa605	-0.42704788
62	0xbfea1697	-1.8288144
63	0x4049f1ea	3.1553903
64	0x4049c1a0	3.152443
65	0xbef218a5	-0.47284427
66	0x3ef65399	0.48110655
67	0x404d04e4	3.2034235
68	0x3fa5118e	1.2895982
69	0xbe8e4901	-0.27790073
70	0x4049fdac	3.156108
71	0xbfdedba9	-1.7410785
72	0xbeddf533	-0.43351135
73	0x3f9e3ff0	1.2363262
74	0x4047a950	3.119709
75	0xbfe4fe1d	-1.7890049
76	0x404abe84	3.1678782
77	0xbfe67fbd	-1.8007733
78	0xbef3f15e	-0.47645086
79	0xbeef89b3	-0.46784744
80	0x40484ab0	3.1295586
81	0x4019e912	2.4048505
82	0xbfdd4cb7	-1.7289037
83	0xbe62176d	-0.22079249
84	0xbef7377f	-0.48284528
85	0xbe973e1e	-0.2953958
86	0x404dec50	3.2175484
87	0xc007352d	-2.1126206
88	0xc05de00e	-3.4668002
89	0xbf87a711	-1.059786
90	0xbfb59f56	-1.418925
91	0xc027dfef	-2.6230428
92	0xc0314b94	-2.770238
93	0x3f9e9cbd	1.2391583
94	0xbebb82bb	-0.36623177
95	0xc0392825	-2.8930752
96	0xbf98532d	-1.1900383
97	0xc056b952	-3.355061
98	0xbf70c353	-0.9404804
99	0xbf80e3c8	-1.0069513
100	0xbd049cfb	-0.03237627
101	0x3e9d9762	0.30779558
102	0xc00501ea	-2.0782418
103	0xc0092cb6	-2.143354
104	0x3fed0e9a	1.8520081
105	0xc0201d9f	-2.501808
106	0xc058497f	-3.3794858
107	0xbfb1ee3b	-1.3900827
108	0x3e659a53	0.22422151
109	0x3f9d56d3	1.2292122
110	0xc04ba338	-3.181837
111	0x3ff7c2e8	1.9356356
112	0x3f8bccf7	1.0921925
113	0xc001466b	-2.019923
114	0xbfcdebeb	-1.6087621
115	0x3fa7e81f	1.3117713
116	0xbea78ef7	-0.3272626
117	0xc0c524be	-6.160735
118	0xbfc06162	-1.5029719
119	0xbf0e2bd8	-0.5553565
120	0xbfde5b7b	-1.7371668
121	0xbf8a038e	-1.0782335
122	0xbd84fdf0	-0.06493747
123	0xc01b7d10	-2.4295082
124	0xbfc59c8f	-1.5438403
125	0xbf6acf70	-0.91722775
126	0xbf38b655	-0.72153217
127	0xbf94c4aa	-1.1622517
128	0xc03126fc	-2.7680044
129	0x4001fe0b	2.0311306
130	0x3f71a42d	0.9439114
131	0xbf9dc664	-1.2326169
132	0xbeb691c9	-0.356581
133	0xc03b9777	-2.9311197
134	0xbfee8a1d	-1.8635899
135	0xc08e3bb7	-4.4447894
136	0x3f21dc7a	0.63227046
137	0xbda56b03	-0.080770515
138	0xc0ade4ac	-5.434164
139	0xc081c5f6	-4.055415
140	0xbfbbfd74	-1.4686723
141	0x3f3dbd32	0.74116814
142	0xc0136720	-2.3031693
143	0xc059f7cd	-3.4057496
144	0xbfb02109	-1.3760082
145	0xbe7ce46d	-0.24696513
146	0xbf0aec86	-0.54267156
147	0xc030e39d	-2.7638924
148	0x3e352147	0.17688476
149	0x3fe295b7	1.7701939
150	0xc01b0e44	-2.4227457
151	0xc0c393b1	-6.1117787
152	0xbed800d2	-0.42188126
153	0xbe9b7545	-0.30362907
154	0xbfb44128	-1.4082384
155	0x3f193732	0.59849846
156	0xc08401c9	-4.125218
157	0xc010aad8	-2.2604275
158	0x401e61be	2.4747157
159	0x3f011b1a	0.5043198
160	0x401e0587	2.4690874
161	0xc08099ba	-4.0187654
162	0xbf8a92f5	-1.0826098
163	0xc00419f7	-2.0640848
164	0xbdaf0f8a	-0.08547886
165	0x3b14e90d	0.0022721917
166	0x3f9b7f5c	1.2148242
167	0xc0281a0f	-2.6265905
168	0xc0224742	-2.5355992
169	0x3fc424f2	1.5323775
170	0xc04e68cb	-3.225146
171	0x3d8552f0	0.0650996
172	0xbfb7f5f5	-1.4371935
173	0xc00a39da	-2.159781
174	0xbf0dd2f6	-0.55400026
175	0x40969ece	4.7068853
176	0xc0d69f7b	-6.706968
177	0xbdcd1e91	-0.10015596
178	0xbf5960c3	-0.8491327
179	0x400be90f	2.1860998
180	0xc0b5e52d	-5.6842256
181	0xc072e9fe	-3.7955317
182	0x3e42f92b	0.19040363
183	0xbfba36e7	-1.4548005
184	0x402a1f2b	2.6581523
185	0xc0d0f4c0	-6.5298767
186	0x4007204f	2.111347
187	0xc05a49f8	-3.4107647
188	0xbdab41d3	-0.08362164
189	0xbf2213c7	-0.6331143
190	0x3fe26bd1	1.7689153
191	0xc031006c	-2.7656507
192	0xbd0f1ce3	-0.034939658
193	0xbeac1699	-0.3361099
194	0xbf90a3dd	-1.1300007
195	0x3f63a7dc	0.8892801
196	0x3f68f86b	0.91004056
197	0xbfee9bc7	-1.864129
198	0xbe503e08	-0.20336163
199	0x3f464e8a	0.7746359
200	0xc03ce041	-2.9511874
201	0x3f89434d	1.0723664
202	0x400294c9	2.0403311
203	0x3d810fd2	0.063018456
204	0x3edc8f49	0.43078068
205	0x3f0196a0	0.5062046
206	0x3ede340e	0.4339909
207	0xc005d7b6	-2.091291
208	0xbfe86d8b	-1.815843
209	0x3fadcae0	1.3577538
210	0xbff0d7fa	-1.8815911
211	0xbe0df8d8	-0.13864458
212	0x3f92093c	1.1409068
213	0xbe05993f	-0.1304674
214	0xc010c0da	-2.2617707
215	0x3fbafde1	1.4608728
216	0x3fded7a1	1.7409555
217	0x3f04c927	0.51869434
218	0xbf09409e	-0.53614223
219	0x401b202d	2.4238389
220	0x3e7184a8	0.2358576
221	0xbf1116fe	-0.5667571
222	0xc02db0bb	-2.7139118
223	0x3dab96eb	0.08378395
224	0xbf8c6b83	-1.097031
225	0x3ec40519	0.3828514
226	0x3fa0ef84	1.2573094
227	0x403f912b	2.9932353
228	0x3ea788d1	0.3272157
229	0xbf9560f8	-1.1670218
230	0xbeebd2c0	-0.46059227
231	0x3e047ef5	0.12939055
232	0xbed1fbd5	-0.41012445
233	0x40475d6e	3.1150775
234	0x3fded1fb	1.7407831
235	0x3f663c14	0.8993542
236	0xbf58053b	-0.8438298
237	0xc00aa1a3	-2.1661155
238	0xc03e0114	-2.9688158
239	0xbf5b40c0	-0.85645676
240	0xbea3b5cf	-0.31974646
241	0xbfc294e9	-1.5201694
242	0x3f484a21	0.7823811
243	0xc03eb46c	-2.979762
244	0x4016acc0	2.3542938
245	0xbf88d23c	-1.0689158
246	0x3f973ada	1.1814835
247	0xbfab9b59	-1.3406783
248	0x3f8f6c72	1.120497
249	0x3f6da9c1	0.9283715
250	0x3f6e5094	0.930917
251	0xbf684352	-0.9072772
252	0xbf97ef0b	-1.1869825
253	0x3faa4e39	1.3305122
254	0x3fa44cf3	1.2835983
255	0x3ef143a1	0.4712191

v.v_net.0.bias f4 [64]
0	0xbffce425	-1.9757124
1	0xbe0df4f8	-0.1386298
2	0xbfd8c702	-1.6935732
3	0xc062f4d8	-3.546194
4	0xc066510e	-3.5986972
5	0xc019167b	-2.391997
6	0x401a7b18	2.413763
7	0xc013aa34	-2.3072634
8	0x3fb4a3d5	1.4112498
9	0xc0f7f717	-7.7489123
10	0x40ab0f3f	5.345611
11	0x3f3f70cc	0.7478149
12	0xbfc97b4a	-1.574075
13	0x3e11f807	0.14254771
14	0x3fbf2a5a	1.49348
15	0x3f846c55	1.034556
16	0x3eeffac8	0.46871018
17	0xbf719e06	-0.9438175
18	0xbfda1047	-1.7036217
19	0x3fad89d0	1.3557682
20	0x4059f734	3.405713
21	0xbf059a84	-0.521889
22	0x3ff5e99c	1.9211917
23	0xbf449bf3	-0.7680046
24	0xc03879e9	-2.8824408
25	0x3fd05c08	1.6278086
26	0xbf0e4b3d	-0.55583555
27	0xbeaab205	-0.33338943
28	0xbfc37fbe	-1.5273359
29	0x3ced2ee7	0.028953029
30	0x3fdc9d0c	1.7235427
31	0x40843eac	4.1326504
32	0x40b9c84f	5.8057017
33	0x3f0e7d7a	0.5566021
34	0xc11598c8	-9.3498
35	0x3fbcf270	1.4761486
36	0xbed2babc	-0.41158092
37	0xc0e59f7c	-7.1757183
38	0x40b2628b	5.574529
39	0x40ca0526	6.3131285
40	0x3fb6d462	1.4283564
41	0x406e041d	3.719001
42	0xbfbc79f9	-1.4724723
43	0x3f319111	0.6936198
44	0xbead4bb5	-0.33846822
45	0x4004044c	2.0627623
46	0x400b098e	2.1724582
47	0xc00cd8e1	-2.2007372
48	0x405660f2	3.349667
49	0x3f9560cf	1.1670169
50	0xbf0fb822	-0.5614034
51	0xc005818b	-2.0860317
52	0xc08f169e	-4.471511
53	0x3faced82	1.3509982
54	0xc01b719a	-2.4288087
55	0xbf075322	-0.52861226
56	0xc09971bb	-4.795133
57	0xbfed2a2b	-1.8528494
58	0x40e6c994	7.2121067
59	0xbf043168	-0.5163789
60	0x3f06f898	0.52723074
61	0xc080cf22	-4.025285
62	0xbc3bb028	-0.011455573
63	0x40b2d7e6	5.588855

v.v_net.2.weight f4 [64, 64]
0	0xc000424c	-2.0040464
1	0xbe45bb4c	-0.1930973
2	0xbd7e540f	-0.062091883
3	0xc02aa363	-2.6662223
4	0xbfd64d92	-1.6742423
5	0x3f93d8d1	1.1550542
6	0xc07a1321	-3.9074175
7	0x40963929	4.6944776
8	0x40c38bda	6.1108217
9	0xc096077e	-4.6884146
10	0x3fc7aae1	1.5599023
11	0x3f0d6adb	0.55241174
12	0xbe66c4e7	-0.2253605
13	0x406f7352	3.7414136
14	0xc0210d24	-2.516427
15	0xbe21d170	-0.1580255
16	0x3fcb2504	1.5870671
17	0x3eb587d6	0.35455197
18	0xc0c9ae90	-6.302559
19	0x3ffad98a	1.9597638
20	0xc0992549	-4.7858014
21	0xc0730cd4	-3.797658
22	0xc0219323	-2.5246055
23	0x402de6b5	2.7172062
24	0x406796eb	3.6185863
25	0xbf56ed31	-0.83955675
26	0x40b808e6	5.751086
27	0xc0361827	-2.8452241
28	0x3f9e76e9	1.2380038
29	0xbf6a05ee	-0.914153
30	0xc0922f29	-4.568257
31	0xbfbdeefd	-1.4838558
32	0xbf89433e	-1.0723646
33	0x40b1cab0	5.555992
34	0x400e0353	2.218953
35	0xc041fac6	-3.030931
36	0xc008175f	-2.1264265
37	0x3f2d031f	0.6758289
38	0x3f980220	1.1875648
39	0x40c854de	6.26036
40	0x400d9111	2.2119792
41	0x40c68412	6.203622
42	0xc03d4006	-2.9570327
43	0xbed1fbc5	-0.41012397
44	0x4033f35f	2.8117292
45	0x3f8a758d	1.0817124
46	0x4000fd6d	2.015468
47	0xbef14e17	-0.4712989
48	0xc025982e	-2.5874133
49	0x40656459	3.5842497
50	0xc04fba0a	-3.24573
51	0x3fae10a1	1.3598825
52	0x3f4b7213	0.7947094
53	0xc000775c	-2.007285
54	0x4016b695	2.354894
55	0x408fab09	4.4896283
56	0xc064cdd0	-3.5750618
57	0x3e9831b2	0.29725415
58	0xbfb329b2	-1.3997099
59	0x3fe618f9	1.7976371
60	0x40bd702b	5.9199424
61	0xbfe17cce	-1.7616212
62	0xbf4a0052	-0.7890674
63	0x40496252	3.146626
64	0x3ecb11e3	0.39662084
65	0xc028582d	-2.6303818
66	0x4025777e	2.5854182
67	0x40833df8	4.1013145
68	0xbfb4e625	-1.4132735
69	0xc01a6cca	-2.41289
70	0x3fb8684a	1.4406826
71	0xc04a6fe7	-3.16308
72	0x40c6acfc	6.2086163
73	0xc00875ce	-2.1321902
74	0x3fe6ea04	1.8040166
75	0x3fba556e	1.4557321
76	0x3f8a4b0e	1.0804155
77	0xbedefeb0	-0.43553686
78	0x3f499d5c	0.78755736
79	0x3f4d7f01	0.8027192
80	0xbfc75f22	-1.5575907
81	0x3fe8bbab	1.8182272
82	0x40086597	2.1312006
83	0x3f752ffc	0.95776343
84	0x3fcb17e3	1.5866665
85	0x3f11ba47	0.5692486
86	0xbfc17e06	-1.5116584
87	0x3f8e740a	1.1129162
88	0x3fbe05e6	1.484555
89	0x3d631de3	0.055448424
90	0xbf695d0b	-0.911576
91	0x3fd4431c	1.658298
92	0xbf89a916	-1.0754726
93	0xc043580b	-3.0522487
94	0x406ba40f	3.6818883
95	0x3fcd80d8	1.6054945
96	0x402e41e7	2.7227724
97	0xbf455304	-0.77079797
98	0xbf8272a2	-1.0191233
99	0xc06e91de	-3.727653
100	0xbf445196	-0.7668699
101	0xbfe3e18c	-1.7803206
102	0xbf03a54e	-0.5142411
103	0x402ae897	2.6704462
104	0xbfc1f596	-1.5153072
105	0x401a3023	2.409188
106	0xbfb4ef0e	-1.4135454
107	0x40057fc8	2.0859241
108	0x3f4088fc	0.7520902
109	0x4005b29a	2.089026
110	0xc04210fb	-3.0322864
111	0xbfb50ec1	-1.4145128
112	0xc01a4bab	-2.4108684
113	0x404e28f1	3.2212489
114	0x3f70fee0	0.9413891
115	0x405e9bf9	3.4782698
116	0xc07d70d1	-3.9600108
117	0x40b28745	5.5790124
118	0xc02fe696	-2.7484488
119	0xbf946c7e	-1.1595609
120	0xbf8b50c5	-1.0884024
121	0x40b43747	5.6317477
122	0x3f443c73	0.7665474
123	0xbf77a19a	-0.9673096
124	0xbef7e8aa	-0.48419696
125	0x40a176a6	5.0457335
126	0xbe151271	-0.14557816
127	0xc009f842	-2.1557775
128	0xbff436b1	-1.907919
129	0xbf270816	-0.65246713
130	0xbf159b11	-0.5843974
131	0x400e2508	2.2210102
132	0xc0c81f22	-6.2538004
133	0x409872e4	4.7640247
134	0xc04b9fcc	-3.1816282
135	0xc0b3c4bd	-5.617766
136	0x4079414f	3.8946111
137	0x406fd827	3.747568
138	0xc076b019	-3.8544981
139	0xbd730d24	-0.059338704
140	0xc011c123	-2.2774131
141	0xc04b1f2a	-3.173777
142	0xc040e9a4	-3.0142603
143	0xc07395d8	-3.8060207
144	0xc0e996aa	-7.2996416
145	0x3f28c955	0.6593221
146	0x3f2ca888	0.6744466
147	0xc03c001e	-2.9375072
148	0xc00857a3	-2.130349
149	0xc0437a8a	-3.0543542
150	0x4067d319	3.6222594
151	0xc0570946	-3.359941
152	0x405f09da	3.4849763
153	0x409048a2	4.5088663
154	0xbfa8471d	-1.3146702
155	0xbf9324ff	-1.1495665
156	0xbf4fcfbd	-0.8117636
157	0x40c87e5e	6.2654257
158	0x407918c5	3.8921368
159	0x3fb9ca53	1.451487
160	0x4000bfd8	2.0117092
161	0x4053e003	3.3105476
162	0xbf33d76e	-0.70250595
163	0x405c6c22	3.4441
164	0xbfa97068	-1.3237429
165	0x403b6652	2.9281201
166	0x4057afb0	3.370098
167	0xbfb9ad69	-1.4506046
168	0xc0b1577d	-5.5419297
169	0x4088c0a6	4.2735167
170	0xbfb4928c	-1.4107223
171	0xc058df02	-3.3886113
172	0xbf68ec7a	-0.90985835
173	0x41064f3f	8.394347
174	0xbf96b201	-1.1773072
175	0xbfd33ced	-1.6502968
176	0x4026f032	2.6084104
177	0x409ece2b	4.962667
178	0x4092b86b	4.585012
179	0xbf9e9118	-1.2388029
180	0xbf5b7c7a	-0.8573681
181	0x40403dcf	3.0037725
182	0x3f9e3378	1.2359457
183	0x407cd880	3.950714
184	0xbefea9ef	-0.49739024
185	0xbf3843d7	-0.71978515
186	0xc0bab37a	-5.8344088
187	0xbfa4b5d9	-1.2867996
188	0x4043d228	3.059702
189	0xbff1027c	-1.8828883
190	0x404f4617	3.238653
191	0xc07a3173	-3.9092681
192	0xbff726b1	-1.9308683
193	0x3fcd3605	1.603211
194	0xc0b447d4	-5.633768
195	0x3f44c1ce	0.7685822
196	0xbe8806f8	-0.26567817
197	0x3e97588f	0.29559752
198	0x406334e6	3.5501037
199	0x4088b6fd	4.2723374
200	0xbfa07404	-1.2535405
201	0x3fa8e2c7	1.3194207
202	0xbf210dda	-0.6291176
203	0xc02bf56d	-2.6868546
204	0xbd739a27	-0.059473183
205	0xbef21ec2	-0.4728909
206	0xbef887d8	-0.4854114
207	0xbf79daf1	-0.97599703
208	0xc005b068	-2.088892
209	0xbfbf981e	-1.4968297
210	0x3f551abb	0.8324391
211	0xbf9e8c1a	-1.2386506
212	0x3fb5cd4b	1.4203275
213	0xc002bc3f	-2.0427396
214	0x3da125b6	0.07868521
215	0xbe5024f0	-0.2032659
216	0x407d9766	3.9623656
217	0xbe4f5dec	-0.20250672
218	0xbfa0ab05	-1.2552191
219	0xbea30fd6	-0.3184802
220	0x40d07fa4	6.515581
221	0x402f32ca	2.737475
222	0x3f40a752	0.7525531
223	0xc00edf5d	-2.232383
224	0xc00dfc37	-2.218519
225	0x3fc20431	1.5157529
226	0xbf74753c	-0.95491385
227	0x3f64ce28	0.8937707
228	0x3fac4c20	1.3460732
229	0x4039c1ae	2.9024463
230	0xbfa20dd5	-1.2660471
231	0xc0bd8663	-5.9226546
232	0x3fb244aa	1.3927205
233	0x4064601a	3.5683656
234	0xbecd8129	-0.40137604
235	0x3f3503b6	0.7070879
236	0xbfeede1f	-1.8661536
237	0x3f863095	1.0483576
238	0x3fc52568	1.540204
239	0x3f574726	0.8409294
240	0x3f7b521e	0.98172176
241	0x3f15d4c8	0.58527803
242	0xbfd50a47	-1.6643761
243	0xc0855fd9	-4.16795
244	0x406862ab	3.6310222
245	0xbd7f4886	-0.062325023
246	0x3f36a09a	0.7133881
247	0x3fba99c1	1.4578172
248	0xbd29d7fa	-0.041465737
249	0x3f6ebddb	0.93258446
250	0xbff5255d	-1.9152027
251	0xbf78822e	-0.9707364
252	0x3fc81683	1.563187
253	0x3f84543f	1.033821
254	0x403b7302	2.9288945
255	0xbf63f2cf	-0.8904237

v.v_net.2.bias f4 [64]
0	0xbfd68240	-1.6758499
1	0x4046d022	3.1064534
2	0xbf7b1376	-0.9807657
3	0xbfb05d47	-1.3778466
4	0x3ea8ccde	0.329688
5	0x40259ee7	2.5878236
6	0x3f5b593e	0.8568305
7	0xbf345376	-0.7043985
8	0x3fd2945c	1.6451526
9	0x3e85d3cc	0.2613815
10	0x3f8ea462	1.1143916
11	0xbfd540fb	-1.6660455
12	0xbfc3a438	-1.528449
13	0xbfe28740	-1.7697525
14	0xbfdb0609	-1.7111217
15	0xbf9ef686	-1.2418983
16	0xbf924e25	-1.1430098
17	0xc0368f4a	-2.8524957
18	0x3ec07b68	0.37594151
19	0x3fc1be65	1.5136229
20	0xbeb1d4dd	-0.34732714
21	0xbefec6b9	-0.49760988
22	0xbeb59cdf	-0.35471246
23	0xc0408e5d	-3.0086892
24	0xbf21b2a9	-0.6316324
25	0x3e6d10f4	0.23150998
26	0x3ff1420b	1.884828
27	0x3e177061	0.14788963
28	0x3fcd23d4	1.6026559
29	0xbeb01971	-0.3439441
30	0x3f108d43	0.5646555
31	0x3f97e546	1.1866844
32	0x3ee87a3f	0.45405766
33	0x3e921445	0.2853109
34	0xbfa39f42	-1.2782977
35	0xbf44f881	-0.76941687
36	0x3e2f676c	0.17129296
37	0xbf457d6a	-0.7714449
38	0xbf54aef0	-0.83079433
39	0x3d777b41	0.06042028
40	0xbfebb232	-1.8413756
41	0x3f670036	0.90234697
42	0x3f050cfd	0.51972944
43	0x3f1fac7c	0.62372565
44	0xbfd94c54	-1.6976418
45	0xbe756ab3	-0.23966484
46	0x3fcccdf2	1.600035
47	0xbfafa2dd	-1.3721577
48	0xbf272e8c	-0.653054
49	0x404b8f6f	3.1806295
50	0xbfd0a97f	-1.6301726
51	0x3fb4777a	1.4098961
52	0xbf617c06	-0.8807987
53	0xc020dc3e	-2.5134425
54	0xbece105b	-0.40246853
55	0x3f915c2d	1.1356255
56	0xbed002b2	-0.40627056
57	0x3fbbc2e2	1.4668849
58	0x3f2a6566	0.6656097
59	0xc0079818	-2.118658
60	0xbf32d33c	-0.6985357
61	0xbe379e19	-0.17931403
62	0x3f47de7c	0.7807386
63	0x3f3ea369	0.74468094

v.v_net.4.weight f4 [1, 64]
0	0x4143bbe6	12.233374
1	0x417a0291	15.625627
2	0xc18bee03	-17.491217
3	0xc15740e0	-13.453339
4	0x41b83316	23.024944
5	0x4152369a	13.13833
6	0x41ceb94a	25.840473
7	0x415953dd	13.582974
8	0x41bd44e2	23.658634
9	0x4151a136	13.101858
10	0xc1c44af1	-24.536592
11	0xc17ba9a7	-15.728919
12	0xc11c96fc	-9.786861
13	0xc167fe8d	-14.499646
14	0xc15bd6a4	-13.7399025
15	0xc1955a28	-18.669022
16	0xc181b5ee	-16.213833
17	0xc1906a2e	-18.051846
18	0x418a7381	17.306398
19	0xc1b6497a	-22.785877
20	0xc1afb978	-21.96556
21	0x4173c054	15.234455
22	0xc1d60045	-26.750132
23	0xc18f7d31	-17.936129
24	0xc16fa893	-14.978656
25	0xc1b9d717	-23.230024
26	0x417b901b	15.722682
27	0xc1b0779c	-22.058403
28	0x416a8749	14.658029
29	0xc18c8e30	-17.569427
30	0x41c4e12e	24.609951
31	0x418cdba0	17.607239
32	0xc14cb093	-12.793109
33	0xc1f2fb12	-30.372593
34	0xc1928060	-18.312683
35	0x4185e5a8	16.737137
36	0xc188a754	-17.081703
37	0xc1551c6c	-13.319439
38	0xc14df72f	-12.872848
39	0x416d11e0	14.816864
40	0x41600aa7	14.002601
41	0xc207c14a	-33.93876
42	0x4165b8d0	14.35762
43	0x4141743b	12.090877
44	0xc1bd4f5e	-23.663754
45	0xc18ae4f8	-17.361801
46	0x411cfc6f	9.811629
47	0x41e3fa07	28.497084
48	0x41e46424	28.548897
49	0x41ed7feb	29.68746
50	0xc17e2f27	-15.886512
51	0x418d08e2	17.629337
52	0xc1662f03	-14.386477
53	0xc1fb6889	-31.426043
54	0xc17cd874	-15.802845
55	0x417bf176	15.74645
56	0x417d69ac	15.838299
57	0x41a2bad4	20.341225
58	0x419293cd	18.322168
59	0xc15ef3cc	-13.934521
60	0x412f6962	10.963228
61	0x419b29c7	19.3954
62	0x41cb1d8f	25.389433
63	0xc1c6d0fe	-24.852047
