model_wts/s1_d2_m1.0_b0.0.ckpt (torch, 206875 bytes, 11 tensors)

pi.logits_net.0.weight f4 [64, 282]
000000 46 19 46 3d f2 33 76 3e 4c e6 52 be 03 78 aa 3d
       0.048363946 0.24043253 -0.20595664 0.08323672
000010 1a f4 56 3c 48 d4 08 3e 68 2d 10 be cb 37 c9 bd
       0.013119722 0.13362229 -0.14079821 -0.09825095
000020 be 99 3e be 97 a6 94 bd f2 ea 8b 3e 49 10 8a 3e
       -0.18613335 -0.07258337 0.27327687 0.2696555
000030 26 81 21 3d 7e d7 5e be 09 a1 bf 3d ec 7c 4c 3d
       0.039429806 -0.21761891 0.09356887 0.049923822
000040 61 8c d7 3c 0a 15 54 3e 89 4a f8 3d 99 6e 8c 3d
       0.026312055 0.20711151 0.121235915 0.06857032
000050 16 53 93 bb fc 75 28 be b6 ab f9 3d a9 ea 93 3d
       -0.0044959886 -0.16451257 0.121909544 0.07222492
000060 00 4d 19 bd 62 28 44 be 6b 2e af 3d 43 c4 a8 3d
       -0.03742695 -0.1915603 0.085537754 0.08240559
000070 f0 3d 3f be 4e a0 5f 3d 55 97 ea 3d c6 3c 0d be
       -0.18675971 0.054596238 0.114546455 -0.13792714
000080 5b af 9c 3e bd cd 32 3d 83 a5 d7 bb 5e 0b 21 be
       0.30602536 0.04365324 -0.00658101 -0.15726992
000090 82 2b 9c bd 2a 3c 51 be 55 df c1 3d 70 6a 63 be
       -0.07625486 -0.20433107 0.09466425 -0.22208571
0000a0 dc 3e 0b be d1 1e 6d 3e 86 59 19 be 04 5b 46 be
       -0.13598198 0.23156287 -0.14975557 -0.19370657
0000b0 52 dc cd 3d 10 bc 27 be eb e3 19 3d 87 8c b1 3d
       0.100517884 -0.16380334 0.037570875 0.086693816
0000c0 fc 4f 75 3e 7f 51 0a be 7d 49 ec bb a2 7d 2f bc
       0.23956293 -0.13507651 -0.007210909 -0.010711106
0000d0 8d 01 94 3e 92 e6 55 be d5 ed a6 3e 59 70 ef 3d
       0.28907433 -0.20888737 0.32603326 0.116913505
0000e0 94 21 87 3e 80 9b 28 3c f8 f1 21 be 8f 54 8c 3d
       0.26392806 0.01029098 -0.1581496 0.06852066
0000f0 5d 28 3d 3c 66 78 1f be b6 38 bd bd 95 80 9e 3e
       0.011545268 -0.15573272 -0.092393324 0.30957475
000100 77 ef 6e 3e 82 1d 51 be 30 95 3e bb 02 ea 87 3e
       0.23333536 -0.20421413 -0.0029080622 0.2654572
000110 ec 2e d1 3d 67 55 c9 bc 8f 25 99 3e 6c ee 11 be
       0.10214028 -0.024576856 0.29911467 -0.14251107
000120 ba 4a 29 be ca 58 1a 3e eb 78 8d 3e c3 72 ec bd
       -0.16532412 0.15072933 0.27631316 -0.115453266
000130 5b a5 93 3e c2 ce ca bd 5b b6 0d 39 86 62 28 be
       0.28837094 -0.09902717 0.0001351474 -0.16443834
000140 a3 0b 5c 3e 15 a9 c6 3c 44 d9 ff bd 0a 65 23 3d
       0.21488814 0.024250546 -0.12492612 0.03989128
000150 ba 43 23 be 47 ad 89 bc 5d b6 50 3e cc 86 30 3e
       -0.15943804 -0.016806258 0.20382066 0.17238921
000160 9a 80 e9 be 68 60 04 3d 29 0d 23 3d 1c 97 eb be
       -0.45605928 0.032318503 0.039807472 -0.46013725
000170 25 a9 bd 3e 0e 11 7d 3c a8 95 b5 bc 70 46 52 bd
       0.3704311 0.015445961 -0.022166088 -0.051336706
000180 55 e3 dd 3d 1f 90 a5 be 51 f0 32 be fb 33 46 3c
       0.10834376 -0.32336518 -0.17474486 0.012097354
000190 70 11 2a 3e 75 f8 66 3e d7 d1 65 3d 83 40 7c be
       0.16608214 0.22555716 0.056108322 -0.24633984
0001a0 59 a7 ab bc eb 7a ea be fd c0 07 be 9a 3e 08 be
       -0.020953821 -0.45796904 -0.13257213 -0.1330513
0001b0 8c 10 ef 38 9b 06 c3 bd b2 31 b2 be 6c 85 1f be
       0.0001139949 -0.09522744 -0.3480354 -0.1557824
0001c0 53 bd 1f 3e 54 e6 ff be e1 67 78 bd 4f 56 78 3d
       0.15599565 -0.49980414 -0.06064594 0.060629185
0001d0 b0 8f 26 be 9c 74 7c 39 10 0d 18 be 7c e2 99 bd
       -0.1626575 0.00024076033 -0.14848733 -0.075139016
0001e0 13 e1 97 be 94 20 9c 3e 23 cb fe 3d 51 be 8f bc
       -0.29663906 0.30493605 0.12441089 -0.017546805
0001f0 ab f9 46 3d ad 7e 0d 3e 44 ac f6 3d 0a 3d 0f 3d
       0.048577946 0.13817854 0.12044576 0.03497032
000200 6f 00 3f 3e 4e 3c 6a 3d 08 64 22 3e bb 75 b3 3c
       0.18652509 0.057186417 0.15858471 0.021906724
000210 70 42 71 3e a1 60 41 3e fc a0 03 bf b0 2a 7b be
       0.235605 0.18884517 -0.5141752 -0.24528003
000220 5b 74 09 3e fd 0d 8d be c7 30 da bd f5 68 ec be
       0.13423292 -0.27549735 -0.10653835 -0.46173826
000230 f1 ce a2 3c a7 bc a8 bd 6b 76 3b be d4 ed 8c be
       0.019874068 -0.082391076 -0.18306892 -0.27525198
000240 69 6e 27 bf a1 24 31 3c eb 70 8f be f9 cf 6f be
       -0.6540285 0.010811956 -0.28015837 -0.23419179
000250 f3 8b 74 3d 9d e2 85 3d b9 5a 02 bf 01 af a6 3e
       0.05970378 0.06537364 -0.5091968 0.32555392
000260 84 ca 43 be 99 2c 73 be d3 2d a8 be bf 9c 92 3d
       -0.19120222 -0.23747481 -0.3284746 0.07158803
000270 c9 5c 16 bf db db 2c bf b9 80 01 3c 6e af 93 bd
       -0.5873533 -0.6752297 0.007904225 -0.07211195
000280 2c 18 6a be 08 9a 43 be fb e8 54 3d 22 30 1a 3e
       -0.22860783 -0.19101727 0.05198 0.15057424
000290 8b 25 ec bc 52 b9 01 be ee 33 a7 3d 40 fa bc 3e
       -0.028826496 -0.1266835 0.08164202 0.36909676
0002a0 0b 6a a0 be b7 00 b6 bd fd 21 df bc a6 cd 8d bc
       -0.31330904 -0.08886855 -0.027237887 -0.017309975
0002b0 c6 54 ea be d3 11 b0 3b ad 6e 3a 3d 0f 85 29 be
       -0.45767802 0.0053732186 0.045515705 -0.16554664
0002c0 18 ac d4 3d 80 87 f3 3c 9a a8 32 3e 75 32 05 3f
       0.10384387 0.029727697 0.17447129 0.52030116
0002d0 00 f6 aa 3d 76 81 20 bd d1 2d 85 bf 00 57 42 be
       0.08347702 -0.039185964 -1.0404607 -0.189785
0002e0 ad 5b 01 bf a9 c6 13 be 16 1d c1 be bf e9 22 3f
       -0.5053051 -0.14431252 -0.37717503 0.6363792
0002f0 6e 02 79 be f8 5c 16 3f 36 33 87 bf 8a 6b 0c bf
       -0.24317333 0.5873561 -1.0562503 -0.5485159
000300 84 c8 72 bf df 70 c9 bc b1 fc a4 3d 36 60 61 be
       -0.9483721 -0.024589954 0.080560096 -0.22009358
000310 f3 f0 04 bf b6 04 53 be b7 96 fe 3b 66 73 8b 3d
       -0.5193016 -0.20607266 0.0077694315 0.0680912
000320 c8 fe 19 bf b3 f4 02 be 55 fc 67 3e 33 ca ba 3d
       -0.6015439 -0.12788658 0.22654851 0.09120598
000330 02 74 da 3e 92 1d 3f be 8c c0 03 bf 3f 8e 32 bc
       0.42666632 -0.18663624 -0.5146568 -0.010898172
000340 a2 35 20 3f 9c 16 d3 bd b5 b6 1f be d3 4f a8 3e
       0.6258184 -0.10307047 -0.15597041 0.328734
000350 16 cd 64 3e fc 68 2c 3e 1c 1b 25 bd 05 35 bf 3e
       0.22343859 0.16836923 -0.040309057 0.37345138
000360 89 22 b3 3e 5c 54 2c be 6a f0 f1 bd d6 1f 1e bf
       0.34987286 -0.16829056 -0.118134335 -0.6176733
000370 77 9f e3 3e 1e 83 09 bf 4f f3 06 3e 67 85 b7 3d
       0.444576 -0.53715694 0.13178752 0.08960991
000380 c0 80 01 be 0e 84 7c 3d a0 5a c4 3d c5 ab bf be
       -0.1264677 0.061649375 0.09587598 -0.37435737
000390 fe be 5b bd 6d ed 96 be df 9b 02 bf 51 b0 0b 3f
       -0.05364894 -0.29478016 -0.5101909 0.5456591
0003a0 25 33 87 3c 08 d5 0d 3d 81 ac 11 bf d3 20 1c 3e
       0.01650388 0.03462699 -0.56903845 0.15246896
0003b0 07 ee 03 3e 75 4b 4a be e2 ad b3 3e a1 00 d7 bc
       0.12883769 -0.19755347 0.350936 -0.026245417
0003c0 c0 92 3c 3f a0 b7 00 3e cd 84 2e be 4c 18 30 3e
       0.7366142 0.12570047 -0.17042847 0.17196769
0003d0 14 30 83 bd 64 d2 4b 3e 8c 0b f3 3e 79 f0 55 3f
       -0.064056545 0.19904476 0.47469747 0.8357006
0003e0 1a 86 88 3f 3b f3 a0 3e 7e 09 08 3e c7 d2 e8 bd
       1.0665925 0.3143557 0.13284871 -0.113683276
0003f0 fb 72 ab 3d bc a2 7d bb 63 68 d0 be b6 b8 83 3e
       0.0837154 -0.0038701734 -0.4070464 0.2572686

pi.logits_net.0.bias f4 [64]
000000 92 23 69 be 87 e2 8d 3d f4 5c e7 3d d5 42 37 3e
       -0.22767475 0.06927972 0.11297026 0.17896588
000010 b3 73 28 be ea 39 20 3c d4 a6 0d 3c 93 3f a4 bd
       -0.16450386 0.009779433 0.008645732 -0.08019938
000020 f0 e8 88 be 99 b0 81 3d 98 e5 0c 3e fa 20 be 3d
       -0.26740217 0.063325115 0.13759458 0.092836335
000030 24 91 20 3e 8a 94 0a 3c e9 13 96 3c 02 c7 8d be
       0.15680367 0.008458266 0.01832004 -0.27690893
000040 80 5c 7b 3d a7 53 2b be 94 96 43 3e 9b bb 23 3d
       0.06136751 -0.1673113 0.1910041 0.039973836
000050 46 c3 ab bd 2d 71 22 3d 88 06 22 3e d0 31 b7 bd
       -0.08386855 0.039658714 0.15822804 -0.08945048
000060 a8 d4 ef 3d 33 8a f1 bb 2d da 82 3c 81 7f 09 3e
       0.11710483 -0.007371211 0.015973175 0.13427545
000070 09 48 0a be 1c aa 6e be de f8 90 3d 5c 42 e0 3d
       -0.13504042 -0.23307079 0.07078718 0.10950157
000080 b3 68 6d be 7a d1 a5 3d 3c 29 8a be 02 2d ba bd
       -0.23184471 0.08096595 -0.26984584 -0.09090616
000090 ab 35 d8 bd 13 b7 c4 3d 01 19 e0 3d 48 2d 3a bd
       -0.10557111 0.09605231 0.10942269 -0.04545334
0000a0 d3 51 85 3d 09 94 80 3d 9e d0 1b be af 09 32 be
       0.06509747 0.062782355 -0.152163 -0.17386506
0000b0 01 2e 0d 3e b2 26 2d bd 6e af 2d bd cf 24 58 3e
       0.1378708 -0.04227323 -0.04240363 0.21107791
0000c0 6a 2a df bc d5 9c 82 3e f1 a3 d2 3c 6c 86 7f bd
       -0.027241904 0.25510278 0.025712939 -0.062384054
0000d0 96 0f 75 3e ff ea 0b bd 1b 4e 92 3e 96 88 c1 3e
       0.23931727 -0.034159657 0.28575215 0.3779952
0000e0 d0 f3 9c 3e 3f 4a af 3d 5a db d0 bd ed 1d ac bc
       0.30654764 0.08559083 -0.10198088 -0.021010363
0000f0 c7 c1 2a be 7f 14 ea 3d 0f b5 dd 3d 66 3f 21 bd
       -0.16675483 0.114296906 0.1082555 -0.039367102

pi.logits_net.2.weight f4 [64, 64]
000000 f2 b9 2f bf d1 52 dc be 41 70 d9 3e 34 25 4b bf
       -0.68643105 -0.43031934 0.42468455 -0.7935364
000010 f9 f9 ac be b3 43 f5 bd f5 c7 82 be f6 9a 25 be
       -0.33784464 -0.11975803 -0.2554318 -0.16172394
000020 81 90 a1 3d 85 bd 88 3c d5 0a 41 3f d8 60 c3 3d
       0.0788889 0.016691932 0.75407153 0.09539956
000030 d6 83 f9 3e 2e ff ce be e5 18 a0 3d 1b 47 e3 bd
       0.48733395 -0.40429062 0.07817248 -0.11097547
000040 6d ec 77 bd 68 57 b8 be df 11 2d 3f ee e2 17 3b
       -0.060528208 -0.36004186 0.67605394 0.0023176032
000050 75 34 95 3e 47 aa 57 3f 31 fe 6f 3c 40 ac 99 bf
       0.29141584 0.842442 0.014648006 -1.2005692
000060 8c 79 8d 3c 18 dc be bd 2e b7 45 be 8b 87 12 3f
       0.017269872 -0.09319323 -0.19308159 0.5723807
000070 a8 a2 6c bf da 03 50 3d 5b ad 82 3e bf fe 68 be
       -0.92435694 0.050784923 0.25522885 -0.22753428
000080 7e 21 a5 3e 7f 47 c0 be 74 78 4c be b7 89 e6 be
       0.32252115 -0.37554547 -0.19967824 -0.45026943
000090 fe e7 60 bf cb 45 e4 3e e7 65 6d 3e 17 d8 41 be
       -0.8785399 0.44584498 0.23183404 -0.18930088
0000a0 23 00 01 be 3b 18 22 3f 40 5d 20 be f0 50 bf 3c
       -0.12597708 0.6331822 -0.15660572 0.023354024
0000b0 af 42 bf bd 08 94 f6 be 2b 03 5f 3f 1f d4 26 3f
       -0.09338891 -0.48159814 0.8711421 0.6516742
0000c0 b5 ce 90 3e ce 37 3a be b4 0f dc 3d 19 ce 09 be
       0.28282705 -0.1818535 0.10745183 -0.13457526
0000d0 e4 22 b2 3e 43 a0 fd be 57 a1 23 3d f6 cc 81 3e
       0.34792244 -0.49536332 0.039948788 0.25351685
0000e0 ea 53 be 3e f6 85 01 be ef fe cc 3c de ab 99 3e
       0.37173396 -0.12648758 0.025023906 0.30013937
0000f0 93 4c 3d bd 5c 87 89 be 4f 25 8d bd 30 68 23 3e
       -0.046215605 -0.26861084 -0.06891882 0.15957713
000100 9e 20 23 3e 30 82 89 3d da d6 b9 be 7d d9 00 3e
       0.15930411 0.067142844 -0.3629673 0.12582965
000110 d6 b1 62 be 84 bb 53 bf 95 b9 54 bf 50 b7 04 bf
       -0.22138152 -0.82708 -0.83095676 -0.5184221
000120 21 c4 8d bc 8f db 76 3e 9f 4b 96 3e 41 87 c2 be
       -0.017305436 0.24107192 0.2935457 -0.37993816
000130 5a 77 af bd ab 54 02 be 77 16 fd be eb 11 a4 be
       -0.085676864 -0.12727611 -0.49431202 -0.3204492
000140 28 fc 04 be 3e b9 15 be fd a1 41 3e 81 b3 38 be
       -0.12986815 -0.14621446 0.1890945 -0.18037225
000150 52 06 e7 3b 89 80 78 3e aa 5f 6a 3e 0c 10 35 3f
       0.007050314 0.24267782 0.22888055 0.7072761
000160 b9 7d 0e be a9 b6 99 bd 63 2c e4 3c 37 81 ee 3e
       -0.13915147 -0.07505543 0.027853196 0.46582958
000170 62 52 1e bd b6 06 0e be 80 84 6b be 0f 3f bc 3e
       -0.038652785 -0.13869748 -0.22999763 0.3676686
000180 37 d8 e6 3c 79 e7 35 3f 69 bb 6f 3e 3f 4f 02 3e
       0.028179271 0.71056324 0.23411335 0.12725542
000190 7a dc b4 3c 54 45 ae 3d 9d 6b 9b 3d 36 23 26 3e
       0.022077788 0.08509317 0.07588885 0.1622437
0001a0 a9 8a b7 be da da d1 be 55 15 60 3f ee 2c ff be
       -0.35847977 -0.40987283 0.8753255 -0.49838966
0001b0 9a 7f e8 be 6d 00 1b bf d2 e5 2e 3f d4 fa 68 3e
       -0.45409852 -0.60547525 0.6831943 0.22751933
0001c0 97 ac b3 3e 0e 32 35 bf fb 00 96 3d a5 36 5e 3e
       0.35092613 -0.707795 0.07324406 0.21700533
0001d0 03 a7 6d bf 1c fe c9 3d 80 58 43 be bb b6 0f bf
       -0.92832965 0.09862921 -0.19076729 -0.561382
0001e0 3d 10 0f bf 2a e9 04 bf 8b c4 f5 be 39 ab 3a 3e
       -0.5588415 -0.5191828 -0.48001513 0.18229379
0001f0 d6 80 ad 3e 44 15 2c 3e 37 8b 12 bf 27 3e 81 bf
       0.33887357 0.16804987 -0.57243675 -1.0097092
000200 3a 15 61 3d b3 06 6a 3e ce 26 5b 3d e0 ce c3 be
       0.054951884 0.22854118 0.053503804 -0.3824377
000210 41 cc 2b 3d 12 40 90 3f 1a 95 03 bf 54 e2 2e 3e
       0.04194284 1.1269553 -0.51399386 0.17078525
000220 e9 52 ff be 23 89 f5 3e 81 34 8a bd 66 90 c8 3e
       -0.49867943 0.4795619 -0.067482956 0.39172667
000230 b8 a9 66 be 41 37 bf be d0 38 10 be 31 09 3a bf
       -0.2252568 -0.37346843 -0.14084172 -0.72670275
000240 6f 4a d2 3c 22 6f 24 bf b0 13 b6 3e 6e 84 6d bc
       0.025670258 -0.64232075 0.35561895 -0.014496906
000250 ec 57 60 3e 1b db 65 3f 84 18 c5 3e de a4 9b bd
       0.2190854 0.89787453 0.38495266 -0.07599805
000260 da 78 a9 3e 6b b0 0d bd 2d c8 f6 3e 43 cb fd 3d
       0.33100015 -0.034592073 0.48199597 0.12392285
000270 db 50 ac 3e a0 8c e6 bd ed 04 56 3d 67 72 b0 3e
       0.33655438 -0.11257291 0.05225079 0.34462282
000280 fe db 46 bc 5d 6d 01 3f c9 e7 2e bf c2 1a 9e be
       -0.012137411 0.505575 -0.68322426 -0.3087979
000290 99 19 df 3e 32 d2 10 3e a0 e5 57 3e 5f 54 3e 3f
       0.43574217 0.14142683 0.21083689 0.7434749
0002a0 12 8d b9 3e 9e 4d 34 3f e4 42 5c 3f 8f 2d 86 bf
       0.3624044 0.70430934 0.86039567 -1.0482653
0002b0 0c 3e f2 be 99 11 70 3d aa 77 a7 bd aa 57 15 3e
       -0.47312963 0.058610532 -0.08177121 0.14584222
0002c0 59 3c 81 be 43 36 bf bd 7c b2 5a 3e 32 4a 0d bf
       -0.25241354 -0.093365215 0.21357149 -0.5519134
0002d0 de a7 c9 be 08 1e 16 3e cd 23 54 3e dc 0c 8e be
       -0.39385885 0.14659894 0.20716782 -0.27744186
0002e0 fb 53 94 3e 6c 25 90 3e d9 09 1a 3e 31 54 79 3d
       0.28970322 0.2815355 0.15042819 0.060871307
0002f0 d0 91 ea 3c 80 19 8f 3e 0f 0f 97 3f 62 cf f9 3e
       0.028633982 0.27949142 1.180147 0.48791033
000300 71 d8 ef 3e 4a 43 e3 be c4 d8 ff bc d9 b2 01 bd
       0.4684482 -0.44387275 -0.031231292 -0.031664703
000310 89 ea 58 3d 01 74 12 be 03 d5 5d bc 56 78 02 3d
       0.052958045 -0.14302064 -0.0135395555 0.031853043
000320 63 7e 33 3e 0d e5 be bd af d9 8b 3e ce f0 03 3f
       0.17528681 -0.09321032 0.27314517 0.51539314
000330 e5 b5 03 bf 66 75 85 be be 1a 97 3e f8 4a b6 3e
       -0.51449424 -0.2606613 0.2951259 0.35604072
000340 08 5a 8d bd 1b c2 10 3f 3b d5 fb be eb 8d 68 be
       -0.06901938 0.5654618 -0.4918612 -0.22710387
000350 52 9d 6f bf 94 87 a7 be a7 2b 4e 3e 2a 8c 9a bc
       -0.93599427 -0.32720625 0.2013384 -0.018865664
000360 86 fb c1 bd e6 14 48 3f 48 79 c7 3e 60 05 12 be
       -0.094718024 0.7815689 0.38959718 -0.14259863
000370 04 30 b4 be 1b a7 7f 3f 46 49 3b be e8 1f 93 bc
       -0.35192883 0.9986436 -0.1828967 -0.01795955
000380 29 b3 a4 3e 41 1a 61 3e f9 2f 55 3e eb 37 79 3b
       0.32167938 0.21982671 0.20819081 0.0038027714
000390 5c f7 d6 bc bb 09 e3 3d ea 20 a8 3e 38 32 34 be
       -0.026240997 0.1108584 0.3283761 -0.17597282
0003a0 34 30 d2 3d df 08 4d be 1e fb ae 3d 49 51 4c 3f
       0.102631 -0.20022915 0.085439906 0.7981153
0003b0 dc f3 17 3e 82 8b dc bc ad b0 48 3e 57 5e 9a 3e
       0.14839119 -0.026921991 0.19598646 0.301501
0003c0 b4 b1 8a 3e d2 b4 02 bf 2b 2c f7 be 26 31 02 3f
       0.27088702 -0.5105716 -0.48275885 0.50856245
0003d0 5d 9f 77 be 2b 89 c7 3e 01 41 02 bf f7 ed 76 be
       -0.24181886 0.38971838 -0.5088044 -0.24114214
0003e0 d7 f0 42 bd 5b b3 c2 3e 26 c4 ea be 8a 7e e5 be
       -0.047592964 0.38027462 -0.45852774 -0.44823104
0003f0 6a bc 97 3e 3a 76 e7 bc 64 7c 9b bf 80 2b 03 3f
       0.29635936 -0.028254617 -1.2147336 0.5123825

pi.logits_net.2.bias f4 [64]
000000 2a 35 6d bd 8c 98 97 be 4e 39 7a bd fe d2 6c be
       -0.05791203 -0.29608572 -0.061089806 -0.23127362
000010 6f 96 ff 3d 7c f6 c9 bd 8f f7 e9 be 2a ff 36 3f
       0.12479865 -0.09861466 -0.45696685 0.714831
000020 fd 4e 11 bd d3 ed 60 bc ef 83 45 bd c5 c1 d2 be
       -0.03547572 -0.013728577 -0.048221525 -0.4116346
000030 a8 03 2e 3e 94 cb 04 3f 93 7c d6 3d 98 d7 cc 3c
       0.16993582 0.51873136 0.104729794 0.025005147
000040 d1 d1 2e 3e f9 46 55 bd 9a 84 a9 3e 6c d0 15 3f
       0.17072226 -0.052069638 0.3310898 0.5852115
000050 8e d7 8d 3e 91 cf a8 3d 35 19 cd 3d 76 13 36 3e
       0.27703518 0.08242715 0.100145735 0.17780861
000060 ce dd cb 3e e4 39 96 3d 20 5c b2 3c 17 b6 10 3f
       0.3981766 0.073352605 0.021772444 0.5652785
000070 07 34 a9 be 1e 49 22 3e 4b c5 e0 3e 14 28 86 be
       -0.33047506 0.15848204 0.43900523 -0.26202452
000080 af b1 25 be e2 94 92 3e 39 1c 00 3d 01 ff 18 be
       -0.16181062 0.28629214 0.031276915 -0.14941026
000090 70 50 eb 3e 39 91 ae be f5 59 3f bf d6 79 27 be
       0.45959806 -0.3409517 -0.7474664 -0.1635507
0000a0 30 a4 df be 05 f4 cd bd bf 95 96 3e 52 bf f8 3d
       -0.43679953 -0.10056309 0.29411122 0.121458665
0000b0 5a b3 04 3e fb 65 c6 be 53 52 82 3f 70 cb 63 be
       0.12959042 -0.3874968 1.0181373 -0.22245574
0000c0 87 8d b2 3d 5a 5c 40 be 68 e7 17 be 7a 43 08 be
       0.087184004 -0.1878523 -0.14834368 -0.1330699
0000d0 ae 94 e8 be 28 00 90 3d 91 0c 55 bf 3d 98 2e bf
       -0.45425934 0.0703128 -0.832223 -0.6820105
0000e0 a7 31 49 be 03 a3 4a be 0b 07 ec 3e 76 ad 1d 3e
       -0.19647847 -0.19788747 0.46099123 0.15398201
0000f0 da b2 ff 3e 05 19 b9 be 3e a5 12 bf 33 27 42 bf
       0.4994114 -0.361519 -0.5728339 -0.75841063

pi.logits_net.4.weight f4 [87, 64]
000000 5e e7 00 bf 7d d3 13 bf 5f 9b d0 be b1 b1 f6 bd
       -0.5035304 -0.5774458 -0.4074354 -0.12045611
000010 1b 30 26 3f fb d7 f0 be 32 7c 81 3d 35 97 c5 bd
       0.64917153 -0.4703978 0.063225165 -0.09647981
000020 14 c7 bd be 60 cd 0f 3d a6 59 9b bf ae 70 0a bf
       -0.37065947 0.03510797 -1.2136734 -0.54078186
000030 2f 12 aa 3e 38 f5 bd 3e 3e b4 b6 bd 52 55 03 3f
       0.33216998 0.3710115 -0.08921097 0.51302063
000040 fb 04 92 bf 82 f1 1d 3f 58 06 7a 3e 2b 96 39 3f
       -1.140777 0.61696637 0.24416482 0.72494763
000050 95 55 ff 3e 19 ca c8 3e 31 8d e3 3e 42 8d a2 be
       0.4986998 0.39216688 0.44443658 -0.31748396
000060 4e 75 50 3f a6 52 0f bf 78 71 19 be a4 ef 01 bf
       0.8142899 -0.55985487 -0.14984691 -0.5075629
000070 78 18 26 3f 3e 71 7a 3f 0d bf eb bd f8 1f 04 3f
       0.64881086 0.97829044 -0.115110494 0.5161128
000080 7f 59 2f 3e 8e d6 ea be 73 e1 17 bf a1 ca fd 3d
       0.17123984 -0.45866817 -0.59328383 0.12392164
000090 33 51 8c 3d 7b 32 22 bf 13 aa 33 bf a2 70 be 3d
       0.06851425 -0.6335828 -0.7018139 0.09298827
0000a0 10 06 2b bf 57 9d 24 bf 8b 1f 01 bd f1 bc 00 3d
       -0.66806126 -0.6430258 -0.031524222 0.03143019
0000b0 dc e3 af 3e 1c 3b 3d bf 00 cd 17 3f 89 f9 5f bf
       0.3435353 -0.7391832 0.5929718 -0.87490135
0000c0 a6 3a 83 3f 31 7a e8 3d 8e 54 95 bf ba 1f f0 be
       1.0252273 0.11351431 -1.1666429 -0.46899205
0000d0 e5 90 69 bf 71 96 50 bc 98 be 2f bf 64 c0 f6 be
       -0.91236717 -0.0127311805 -0.686502 -0.48193657
0000e0 ff 16 13 bf 58 81 c8 3d aa e5 c8 3e 29 df 75 3e
       -0.57456964 0.09790295 0.3923772 0.2401091
0000f0 57 ac 46 3f 87 3a 07 3f 0f b4 20 be b9 34 0e bf
       0.7760672 0.5282368 -0.15693687 -0.555492
000100 d4 8f d7 3d c1 60 af be 4a 50 02 3f a3 61 1b 3e
       0.1052548 -0.34253505 0.5090376 0.15173964
000110 2c 73 2c 3f 7b 65 2b bf 59 a9 d3 be d3 5f 67 3e
       0.6736324 -0.6695172 -0.4134014 0.22595148
000120 6f 67 c6 bc dc 44 bd 3e 9a c8 22 3d c8 05 b3 be
       -0.024219243 0.36966598 0.03974209 -0.34965348
000130 35 ad 2c 3f 2c dc 18 3f 7a 4a a2 bf b4 2f c4 3f
       0.6745179 0.59710956 -1.2678978 1.5327058
000140 6b 50 93 be 44 69 02 3f 9c 6c 96 3f 51 17 ef 3e
       -0.28772292 0.5094187 1.1751895 0.46697477
000150 31 2e 6d be 2c 5b 3b 3f d8 5c da 3e af a6 a6 3f
       -0.23162152 0.7318599 0.4264896 1.3019618
000160 c8 ef 79 3e 64 00 a3 3c f9 8d 62 3c 0b ed 97 3f
       0.24407876 0.019897647 0.013827794 1.1869215
000170 1a 3b b9 3e a9 3e ae 3f c0 59 1e be c6 8d 82 be
       0.36177903 1.3612872 -0.15463924 -0.2549879
000180 f4 aa 74 3c cf 7d 46 be 2c 63 82 bd ce e3 2f be
       0.0149333365 -0.1938393 -0.06366572 -0.17176744
000190 1c a6 39 3e c0 c5 cc be 2a 99 02 bf 78 e8 c3 be
       0.18129772 -0.3999462 -0.5101496 -0.38263297
0001a0 ae a0 25 bf aa 58 f5 3c c7 3b e3 3e 28 2b 66 3f
       -0.646983 0.029949505 0.44381544 0.899096
0001b0 df 4a 46 3e 85 5d 50 bf 6c 90 31 3f 78 c0 5c bf
       0.19364499 -0.813927 0.69360995 -0.86231184
0001c0 5f c6 a2 3e 7d 5f c9 3e cc cf 91 bf dd f9 52 3e
       0.3179197 0.39330664 -1.139154 0.20603128
0001d0 46 e4 cd be cd 79 fc bd 1b 22 2a bf bc 49 27 bf
       -0.4021322 -0.12327919 -0.6645829 -0.65346885
0001e0 e8 19 30 bf b4 83 02 40 6e db 1b be a7 d7 25 3f
       -0.6878953 2.0392885 -0.15220425 0.64782184
0001f0 0f 37 83 3e a8 b5 37 3f 2f 04 22 bf 98 05 4b bf
       0.25627944 0.7176156 -0.63287634 -0.7930541
000200 a9 f2 28 bf cc ef 2d 3d ac 77 4a be 85 f9 a9 3c
       -0.6599527 0.042465016 -0.19772214 0.020748863
000210 3d 2a 06 3f fd 7f db be e1 7e 83 3e 0a 5e fa 3e
       0.524082 -0.42871085 0.25682738 0.4889987
000220 cf 83 13 bf 15 b4 78 3e fd f8 7d bf 2a b7 34 bf
       -0.57623 0.24287446 -0.9920805 -0.70591986
000230 91 a3 bc bd 3a e3 e4 3e fe 85 5e 3d 4e 94 26 3f
       -0.09210885 0.4470461 0.054327004 0.65070045
000240 c4 54 a2 be a2 5e 28 3f f8 a1 50 be f7 a1 22 3f
       -0.31705296 0.657694 -0.20374286 0.6352839
000250 1f 79 0e 3f e0 e5 f0 3e bb e7 8c 3b b1 ee 04 3f
       0.55653566 0.4705038 0.0043000854 0.51926714
000260 61 9f 2a 3f 3b 45 4e bf 84 8a 5f 3e 6e 49 01 bf
       0.6664944 -0.8057439 0.21830183 -0.5050267
000270 87 48 02 bf 2a 93 e6 3d 98 c2 ef bd 38 dc 24 3f
       -0.5089192 0.11258538 -0.11707038 0.6439853
000280 37 01 16 bc ea bc 1f bf 9c c0 5d be 8d 48 28 3f
       -0.009155563 -0.62397635 -0.21655506 0.65735704
000290 7b c3 31 bf d7 14 0e bf 26 66 1d bf 45 42 86 3d
       -0.69438905 -0.5550055 -0.6148399 0.06555609
0002a0 4f f0 8a be b7 40 30 be 61 32 e9 bc f4 0e 07 3f
       -0.27136466 -0.17212187 -0.028466405 0.5275719
0002b0 f0 de b1 bc 2d 8e 1a bf 67 1a 2c 3f 45 3c 93 3e
       -0.02171275 -0.60373193 0.67227787 0.2875692
0002c0 a9 49 36 3d 1d d1 bb be 39 1f 60 bf dd dc 55 3e
       0.04450384 -0.36682978 -0.8754764 0.20885034
0002d0 f1 5c 00 bf 0b 4a fc 3e 87 34 08 bf 0f db 90 be
       -0.5014182 0.4927524 -0.5320515 -0.28292128
0002e0 80 73 08 bf 4b d4 2e bf 7a c3 32 be 6a c4 2d 3f
       -0.5330124 -0.68292683 -0.17457381 0.6787783
0002f0 d1 3a 8c 3e 65 08 60 3e 01 03 0d 3e ba fe bc be
       0.27388623 0.21878202 0.13770677 -0.3691309
000300 ce 33 84 3f 31 3f 45 bf 6c ee 00 3f b8 a6 57 be
       1.032831 -0.7704955 0.503638 -0.21059692
000310 ee 42 cb 3f 2d 82 9c bf e1 e4 17 bf 7d 37 bb 3e
       1.58798 -1.2227226 -0.59333616 0.36565772
000320 d7 3d 47 3e 09 1c c0 3e a7 8b 14 bf a4 91 bd 3e
       0.19457184 0.3752139 -0.5802559 0.37025177
000330 a1 e6 4e bf 9b 46 e3 3c 8c 9c 4d 3f 16 5f 56 3f
       -0.8082066 0.027743628 0.80316997 0.8373884
000340 58 af 64 3f 63 25 71 bf e6 5c 81 3f f5 a5 07 bf
       0.89330053 -0.9419767 1.0106475 -0.52987605
000350 3b f8 e7 3e 10 36 a3 3d f2 41 44 3f 9a 2c 6a be
       0.45306572 0.07969296 0.76663125 -0.22868577
000360 fd d1 d5 3e 32 68 46 bf bb df 84 bf c8 f0 8c 3e
       0.4176177 -0.7750274 -1.0380777 0.27527452
000370 86 cd 10 bf 44 ad fa 3d 5b d5 2c 3f c5 d9 2c be
       -0.56563604 0.12240079 0.67513055 -0.16879947
000380 db b3 2b be a5 03 c5 3e 2a f0 5a 3f a4 a6 6b 3f
       -0.16767828 0.38479343 0.8552271 0.9205115
000390 4f 0f c7 bd 58 6e 1a bf f3 bd 0e 3e 39 b0 3e 3f
       -0.09719717 -0.6032462 0.13939647 0.74487644
0003a0 ad 0e 85 bd 0b 64 3c bf ef 00 52 3e f2 b7 05 3f
       -0.0649694 -0.73590153 0.20508169 0.52233803
0003b0 02 10 79 3e 48 24 22 bf 34 f1 d4 3e dc c5 4c bf
       0.24322513 -0.6333661 0.41590273 -0.7998941
0003c0 e7 d2 81 3f cf 0c 98 3e 8c 85 31 bf 15 95 74 3d
       1.0142487 0.29697272 -0.693444 0.05971249
0003d0 b2 e4 f3 3e c2 4a 91 3f 9a dc d5 be 50 8f c8 be
       0.47635418 1.1350939 -0.41769868 -0.3917184
0003e0 8b d1 44 bf 04 4f a5 3f 2c 25 41 3f cd 2f 80 be
       -0.7688224 1.2914739 0.75447345 -0.2503647
0003f0 c6 0d 6a 3e 60 23 fd be 76 9c 4b bf 81 5c 1c bf
       0.22856817 -0.4944105 -0.79535615 -0.6107865

pi.logits_net.4.bias f4 [87]
000000 64 7a ea 3e 9b a1 fe 3e 34 2a 10 3f a4 5c 06 3f
       0.45796502 0.4973267 0.56314397 0.5248511
000010 74 ea 30 3f e3 55 24 3f e1 62 90 3d d5 05 c0 3e
       0.6910775 0.6419355 0.0705011 0.3750445
000020 ed e6 8c 3e 72 82 44 3e b4 df 01 3f f6 ed c7 3e
       0.27519932 0.19190386 0.5073197 0.39048737
000030 97 01 2e 3f 8b 06 93 3e f6 e3 46 3e 44 3d ae 3e
       0.67971176 0.2871593 0.19422898 0.34031117
000040 be b4 a9 3e 4d e3 0b 3f ec 72 f7 3e a5 16 bf 3e
       0.33145708 0.5464371 0.48329866 0.37321964
000050 ad fd e8 3e b5 63 eb 3e 8c d4 83 3e cc f0 e3 3e
       0.4550604 0.45974508 0.25748098 0.4451965
000060 79 62 a0 3e fc e4 93 3e 3e bc 0d 3d 74 54 a1 3e
       0.3132513 0.2888564 0.03460335 0.31509745
000070 ae a5 ac 3d 3d 61 35 3f e7 de 28 3f b1 36 82 3e
       0.084300384 0.708515 0.6596512 0.2543235
000080 39 f0 bc 3e 0a 80 a8 3e 7c 1b e1 3e c2 08 95 3e
       0.36902025 0.32910186 0.4396628 0.29108244
000090 f9 46 ad 3e cf 1f a3 3e 01 0a 94 3e 64 5f 2f 3f
       0.3384321 0.31860206 0.28913882 0.6850493
0000a0 16 bc 56 3e 9b 28 06 3e 89 b2 56 3d 88 13 b3 3e
       0.20970187 0.13101427 0.05241636 0.3497584
0000b0 31 15 c4 3e b8 4c c6 3e ce e2 f0 3e 51 8c 15 3f
       0.38297418 0.38730407 0.47048038 0.5841723
0000c0 75 ba bf 3e f6 cd fd 3e 8e 77 1a 3f c7 88 38 3f
       0.37446943 0.49571198 0.60338676 0.72083706
0000d0 76 2c cb 3e 1d f5 dc 3e 5c 6b b8 3e 65 2d f2 3e
       0.39682359 0.43155757 0.3601941 0.47300258
0000e0 96 43 9f 3e a5 c8 9a 3e 28 b3 02 3f 9c 92 e4 3e
       0.3110625 0.30231205 0.5105462 0.44643104
0000f0 e2 60 1a 3f 49 23 5b 3e b9 d1 89 3e 32 56 fc 3e
       0.6030408 0.21400179 0.26917818 0.49284512
000100 19 42 88 3e 6e b3 42 3f 83 cd 40 3f b0 d1 08 3f
       0.26612929 0.7605504 0.75313586 0.5344496
000110 a5 2a 16 3f 6b 61 b7 3e f2 f9 d8 3e a1 d2 a3 3e
       0.5865882 0.35816512 0.42378193 0.31996635
000120 63 cf 0a 3f 22 ed f8 3e a1 b0 85 3e 7d 63 89 3d
       0.54222697 0.48618418 0.2611132 0.06708429
000130 1b e6 14 3f f3 77 bd bb 44 8f 49 3e 16 f9 73 3e
       0.58163613 -0.0057821213 0.19683558 0.23825487
000140 cb 0a b8 3e c6 f7 91 3e 2d c0 9e 3e 1b 24 ea 3e
       0.35945734 0.2850935 0.31005993 0.4573067
000150 43 37 d4 3e 2a 0c c7 3e 88 be 3d 3f
       0.4144841 0.38876468 0.7411885

v.v_net.0.weight f4 [64, 282]
000000 3e 1a 61 bf 03 67 76 be 54 f2 e5 bf e8 1d 3e bf
       -0.8793067 -0.24062733 -1.7964578 -0.74264383
000010 e2 30 8e bf 08 20 86 bf b9 a0 c1 bf a5 e5 bf bf
       -1.1108668 -1.0478525 -1.5127174 -1.4991957
000020 ec 14 df bf bd b2 58 bf 15 04 8b be 0f 95 2d be
       -1.742826 -0.8464773 -0.27151552 -0.16951393
000030 84 8c 5d bf 90 6b de bf bc e8 83 bf 5c 96 3a bf
       -0.86542535 -1.7376575 -1.03054 -0.7288568
000040 e2 8c 5d bf 11 e4 1b be 5c 68 95 bf 5a da 40 bf
       -0.86543095 -0.15223719 -1.1672473 -0.7533318
000050 2c 64 6d bf 95 94 be bf b5 50 a6 bc fc a4 87 bf
       -0.92730975 -1.4889094 -0.020302156 -1.0597224
000060 80 8b 5e bf 28 d1 e4 bf b2 16 4c bf 04 a4 42 bf
       -0.8693161 -1.787633 -0.7972213 -0.7603152
000070 05 7f ba bf 52 32 74 bf e6 d2 7a bf 3c 65 e3 bf
       -1.4570013 -0.9538928 -0.97978055 -1.7765269
000080 9e b7 85 be d2 3f 84 bf 96 95 4b bf 9b f2 b9 bf
       -0.2611665 -1.0331976 -0.79525125 -1.4527162
000090 21 e7 b5 bf 3e 97 e2 bf 80 2f 89 bf 4c ce e9 bf
       -1.421116 -1.7702405 -1.0717621 -1.8266082
0000a0 a6 ec de bf f5 fd 90 be 4e 40 dd bf 0e 62 e8 bf
       -1.7415969 -0.28318754 -1.7285249 -1.8154924
0000b0 44 07 63 bd de 15 dd bf dc c7 8e bf ae 1c 89 bf
       -0.05542685 -1.7272298 -1.1154742 -1.0711877
0000c0 9c 22 b1 be d3 ab b9 bf 34 a4 48 bf ec a6 71 bf
       -0.34596717 -1.4505562 -0.78375554 -0.9439533
0000d0 24 d1 aa be cc 4f dd bf 2c 4a 22 be ac 42 8d bf
       -0.33362687 -1.7289977 -0.15848607 -1.1035972
0000e0 b3 a0 62 be f6 e4 49 bf 9c be e3 bf 0c bf 42 bf
       -0.22131614 -0.7886499 -1.7792544 -0.76072764
0000f0 ea b1 44 bf f4 31 df bf ef 6a c3 bf 00 2e a4 be
       -0.76833975 -1.743712 -1.5267009 -0.32066345
000100 07 96 3c be a6 0e e5 bf 3a b0 5a bf 5b 96 8b be
       -0.18416606 -1.7895095 -0.8542515 -0.2726315
000110 22 5b 3b bd d4 18 6b bf 09 d6 38 be 45 30 b8 bf
       -0.045741208 -0.9183476 -0.18050398 -1.4389731
000120 e2 05 e0 bf ef c8 ca bd 54 73 b6 be a5 52 be bf
       -1.7501795 -0.09901606 -0.35634863 -1.4868971
000130 02 c7 2c be 25 d4 bf bf be a1 4b bf f4 6a e4 bf
       -0.1687279 -1.4986616 -0.79543674 -1.784514
000140 60 68 b1 be 20 f3 8a bf 47 a1 b6 bf c8 aa 4a bf
       -0.34649944 -1.0855446 -1.4267968 -0.7916684
000150 40 56 e6 bf aa 93 6f bf 94 59 84 be 00 62 12 bf
       -1.7995071 -0.9358469 -0.25849593 -0.57180786
000160 10 63 5a 40 cb 5a b4 be 88 48 1f 3e 83 c7 1d 40
       3.4122963 -0.3522552 0.15555012 2.4653022
000170 b4 21 b9 bf 23 1d c8 be 53 28 e8 be 79 4d 2f 3f
       -1.446341 -0.3908473 -0.45343265 0.6847759
000180 d5 7d 31 bf ab b7 e5 3f be 7c 6a 3f 3a 17 06 c0
       -0.6933263 1.7946676 0.9159659 -2.0951676
000190 34 b7 55 3f da 29 84 bf 93 9e 4d bf b7 db 27 40
       0.8348267 -1.0325272 -0.8032009 2.6227853
0001a0 15 ab 05 3f 31 f1 a8 3f 33 7c 60 bf ca 56 49 40
       0.52214175 1.3198606 -0.8768951 3.1459222
0001b0 df 16 64 bc a3 1b 0b bf 1b 98 9f 3e cd ce 5c 3f
       -0.0139214685 -0.54339045 0.31170735 0.8625305
0001c0 66 47 53 3f f6 4c 41 3f a6 5b 57 3e 46 a7 86 3e
       0.8253082 0.7550806 0.21031055 0.26299495
0001d0 a8 9d 00 40 56 c1 86 c0 a9 45 0d be c4 bb b0 bf
       2.0096226 -4.2111006 -0.13796104 -1.3807302
0001e0 e1 af 80 bf b1 df a2 be ff f0 ca bf e4 b6 e5 be
       -1.0053674 -0.31811288 -1.5854796 -0.44866097
0001f0 4f ea 13 3e d4 81 9e 3f 86 72 b5 3f 61 96 49 3e
       0.1444485 1.238337 1.4175575 0.19686271
000200 0d 04 ec 3f d9 35 a6 3f 53 11 12 3f 83 23 60 bf
       1.8438736 1.2985183 0.57057685 -0.87554187
000210 b2 c1 0a bf bb 26 e5 bf 5f b1 04 40 1c 1f d7 3f
       -0.54201806 -1.7902445 2.0733259 1.6806369
000220 d1 09 e6 3e 0e a8 fb be 18 85 42 bf 0a c5 a6 3e
       0.44929364 -0.49151653 -0.75984335 0.32572204
000230 f1 fa 39 3e 96 c3 06 3f d8 e6 15 bf e7 96 2c 40
       0.18162133 0.5264219 -0.58555365 2.6967103
000240 9d 42 1d 3d ec a7 6b 3e 62 90 b2 be 80 a2 66 40
       0.038393606 0.23013276 -0.3487578 3.6036682
000250 63 09 6d 3f 69 25 8d be 47 33 90 40 fc 52 e0 be
       0.9259245 -0.27567604 4.5062594 -0.43813312
000260 18 1c 5a bf 1e 6a a9 bf 14 1f 2f 3f cd cd 1e bf
       -0.8519912 -1.3235509 0.68406796 -0.6203278
000270 fd eb b1 3d 5d 48 fc 3f f7 f5 b8 be 28 ca 1b 3f
       0.08687589 1.9709584 -0.36125156 0.6085534
000280 df 91 b0 bf 27 5f dc 3f d5 51 57 be 00 8b b4 bd
       -1.3794516 1.7216538 -0.2102731 -0.08815575
000290 f2 06 c8 be 3b fb b8 bf 12 b0 bf 3e f8 f1 32 bf
       -0.390678 -1.445167 0.37439018 -0.69900465
0002a0 2a b0 e7 3f 66 aa fc 3e 61 9a aa 3e d2 9e 99 3f
       1.8100636 0.49348754 0.33320907 1.2001593
0002b0 92 7b 47 40 17 97 ff 3f ab e2 91 be f5 b2 82 3f
       3.1169171 1.9967984 -0.28493246 1.0210863
0002c0 56 6b 7e bf 65 17 0a 3f c9 4e d1 c0 34 53 ca bd
       -0.9938253 0.5394195 -6.5408673 -0.09879151
0002d0 7b 6e b9 3f 75 49 4f 3c f3 fd 69 c0 a4 75 b5 c0
       1.4486841 0.012651791 -3.6561248 -5.6706104
0002e0 cb 7c 28 40 94 2c 63 bf 3e 35 89 c0 64 3e 3f c0
       2.6326168 -0.88739896 -4.2877493 -2.988183
0002f0 db 1f a4 be e7 54 95 c0 1a d7 cd bf 0d cd 48 c0
       -0.32055554 -4.666614 -1.6081269 -3.1375153
000300 95 dd 60 bf 63 18 cf bf 60 ac 10 bf cc 35 4f 40
       -0.8783811 -1.6179317 -0.56513023 3.2376585
000310 c6 ef 1a bf 0b 0b f5 bf 19 32 80 3f 2c f1 f4 be
       -0.60522115 -1.9143995 1.0015289 -0.4784025
000320 e7 f3 45 bf 83 c3 05 bf cd 84 10 c0 8f b5 10 c0
       -0.7732529 -0.5225145 -2.2581055 -2.2610815
000330 42 70 a3 3f 07 f5 12 bf 64 7d 13 bf cb b3 0a bf
       1.2768633 -0.5740513 -0.57613206 -0.5418059
000340 cf 41 75 3f 43 dc 06 40 71 ad 7b bf 0a c8 b2 3d
       0.9580354 2.1071937 -0.98311526 0.08729561
000350 19 fe 56 c0 92 df cb be ed a0 52 3e 80 b6 97 3f
       -3.359259 -0.39819008 0.20569201 1.185257
000360 84 a2 7a 3e ce f6 5c c0 d1 ae 3e 40 75 14 c3 bf
       0.24476057 -3.4525638 2.97942 -1.5240618
000370 69 75 dc bd da 9b 57 40 2a 0a 7d be 49 e6 d4 3e
       -0.10764582 3.3688874 -0.24710909 0.41581944
000380 1a 0c 67 3f 7b 0e 12 40 b2 a4 bc 3f 57 d4 01 3f
       0.9025284 2.2821338 1.4737761 0.5071463
000390 2a cb 4d bf 41 4d 46 3f 43 c1 bb 3f 61 39 17 bf
       -0.8038813 0.7746163 1.4668354 -0.5907193
0003a0 6f 11 6a be 58 31 7a bf cc 1a 0c c0 c8 d1 e0 bf
       -0.22858213 -0.9773154 -2.1891356 -1.756402
0003b0 75 98 ad be 6b e6 a6 3f 7a b0 d6 be 6c 80 f9 bd
       -0.33905378 1.3039068 -0.41931516 -0.12182698
0003c0 30 85 21 c0 1b d3 f7 be b4 70 c9 bf 24 26 15 be
       -2.5237541 -0.48403248 -1.5737519 -0.1456533
0003d0 d9 a4 c8 3c 38 31 9a bd 49 5a aa 3e 23 b1 75 3f
       0.024492668 -0.07528919 0.33272007 0.95973414
0003e0 88 54 6c 3f 58 3d 90 3f c2 64 9c 3f ca fd 4c be
       0.92316484 1.1268721 1.2218249 -0.20018688
0003f0 50 f2 16 c0 13 36 51 3f 3b 3e a9 3e 50 9b 58 be
       -2.3585396 0.81723136 0.3305529 -0.21152997

v.v_net.0.bias f4 [64]
000000 83 d3 71 40 4f ff e0 c0 aa 80 10 be 2e c3 f3 3f
       3.7785347 -7.0311656 -0.14111581 1.9043939
000010 7c 82 d5 c0 a6 33 98 bf 6f 94 1f 40 19 be f7 3f
       -6.6721783 -1.1890762 2.4934347 1.9354888
000020 5b 8e 25 3f 28 6b 44 c0 2f 08 c3 3f 51 32 6a 40
       0.6467034 -3.0690403 1.5236872 3.659321
000030 0e 02 e4 bf 1d e8 8c 40 18 ff 76 be 16 6b ca 3f
       -1.7813127 4.403334 -0.24120748 1.581393
000040 69 fe 67 3f a2 f9 b4 c0 f4 6d 48 be a0 84 ec bf
       0.90622574 -5.6554728 -0.19573194 -1.8477974
000050 39 75 28 c0 ed 5a 81 c0 b0 6f f2 3f 1d 22 83 3f
       -2.6321547 -4.0423493 1.8940334 1.0244786
000060 9b 6a 3a c0 f0 88 5a bf b7 aa 5e c0 a8 2a b1 40
       -2.9127567 -0.853652 -3.4791696 5.536457
000070 61 0a 18 be 6f d2 90 40 b5 25 d7 be 41 7f 23 bf
       -0.14847709 4.5256877 -0.42020956 -0.6386605
000080 8f cd b5 3b eb 91 88 c0 48 b1 00 40 41 6d 3f 3f
       0.005548186 -4.2678123 2.0108204 0.74776083
000090 71 d0 d2 bf 98 31 26 c1 12 07 b0 3f 93 89 02 be
       -1.6469861 -10.387108 1.3752158 -0.12747793
0000a0 f8 1f 5b 40 af 26 28 c0 f7 cd 9f bf 74 61 ca 3e
       3.4238262 -2.627361 -1.248473 0.39527476
0000b0 cc 23 5a 3d 83 d5 61 40 aa 02 19 bf 40 4f 85 3f
       0.053256795 3.5286567 -0.5976969 1.041481
0000c0 14 b3 a2 3f 58 2f 4e c0 45 ee ec bf de 9a e8 3f
       1.27109 -3.2216396 -1.8510214 1.8172262
0000d0 71 00 83 40 0c 9f 74 40 df 65 19 40 78 e7 0d 3f
       4.093804 3.8222075 2.3968427 0.5543132
0000e0 60 d6 77 c0 b7 e0 a5 bf 0e c3 61 c0 b7 cd 28 3f
       -3.8724594 -1.2959203 -3.5275302 0.65938896
0000f0 45 ff 8b bf a7 47 02 c0 1c 0d 94 3f 84 16 43 40
       -1.0937277 -2.0356233 1.1566501 3.0482492

v.v_net.2.weight f4 [64, 64]
000000 4b ba 97 3f f2 3d 6e bf 30 d8 33 c0 3b 96 d8 3f
       1.1853727 -0.9306327 -2.81007 1.6920847
000010 bb 75 13 40 09 57 4b 3d a7 48 87 3f 01 a0 00 bf
       2.3040607 0.04964355 1.0569047 -0.50244147
000020 3a 84 e7 3d 59 5e a6 3f 82 cf 13 40 1d c8 c9 be
       0.11304517 1.2997543 2.3095403 -0.39410487
000030 23 25 05 bf de 12 32 3f 44 6b 05 40 7b e1 b3 40
       -0.5200979 0.6956004 2.084672 5.6212745
000040 b7 b6 68 bf cf 1c d2 bf 27 b3 da bf 65 94 ca bf
       -0.909038 -1.6415042 -1.7085923 -1.5826536
000050 c3 49 11 40 51 43 69 c0 d5 0d d9 3f de 51 03 bf
       2.270127 -3.6447337 1.6957346 -0.51296794
000060 07 85 1c c0 e4 56 1c c0 2e db 77 bf 4c 42 f8 3f
       -2.4456193 -2.4428034 -0.96818817 1.9395232
000070 57 d0 09 40 ad 22 7b c0 e6 f4 9a 3f 3c 4f 50 40
       2.153341 -3.9239914 1.2105987 3.254836
000080 ec 40 2e c0 d9 b9 84 3e ed 3f 86 3f 37 ce 91 c0
       -2.7227125 0.2592304 1.0488259 -4.5564227
000090 56 51 50 40 e7 95 53 c0 d2 e8 3f c0 7d 1a 57 c0
       3.2549644 -3.3060243 -2.9985852 -3.3609917
0000a0 a7 7a d9 bd ed 58 9d c0 a9 2b 0f 40 28 cd 76 c0
       -0.10619097 -4.917105 2.2370398 -3.8562717
0000b0 35 cf 59 c0 24 ac cd 40 6c 99 f4 3f a5 83 45 c0
       -3.403272 6.4272633 1.9109321 -3.08616
0000c0 54 95 16 40 70 5b 30 c0 db bd a6 be 02 c6 e7 bf
       2.3528643 -2.755581 -0.32566723 -1.8107302
0000d0 0d b5 d4 3f 61 0c 99 3f 8a a4 21 c0 e3 e5 55 be
       1.6617752 1.1956903 -2.5256677 -0.20888476
0000e0 ad 77 ec 3f 1d 1d 5e bc 79 c7 80 c0 bf 07 89 bf
       1.8474022 -0.013556746 -4.0243497 -1.0705489
0000f0 29 ff a4 40 40 fb 54 bf 79 91 8c bf cb a6 a0 c0
       5.1561475 -0.8319588 -1.0981895 -5.0203605
000100 73 05 24 3f e4 cd 4c c0 cb 01 fe bf 01 e7 f8 3f
       0.64070815 -3.2000666 -1.9844297 1.9445497
000110 f5 f9 25 c0 fc b4 be bf db 49 19 40 b2 11 8f c0
       -2.5933812 -1.4898982 2.3951328 -4.47091
000120 5b 71 c9 3f 7e 4b 2f 40 af 7d 96 bf 6a 8b ac be
       1.5737718 2.7389827 -1.1757106 -0.33700114
000130 0b 4a 84 bf ec 2e 2d 40 32 70 c0 3f 4f b8 26 c0
       -1.0335096 2.705989 1.5034239 -2.6049993
000140 6d 15 10 40 e2 7c 0c be 50 d5 7c 40 b7 36 ba bf
       2.2513077 -0.13719514 3.9505196 -1.4547948
000150 1f 37 ba be 3c df c0 bf b4 27 39 c0 1c 86 49 c0
       -0.3637018 -1.5068126 -2.8930483 -3.1488104
000160 dc f3 83 3f 63 9b bb 3f 0f 52 40 bd 34 2f 2b 40
       1.0308795 1.4656795 -0.046953257 2.674756
000170 d5 e6 fa bf 9d 08 22 bf 84 4a f3 be 62 59 08 c0
       -1.9601694 -0.6329439 -0.47517788 -2.1304555
000180 e9 2c 4c be 54 5c c6 be ef 5f 74 c0 f7 82 42 3f
       -0.19939007 -0.38742316 -3.8183553 0.75981086
000190 49 2e 74 3f 8f 1c 4a 3e 08 99 b1 3f a4 d0 b0 3f
       0.95383126 0.19737457 1.3874826 1.3813672
0001a0 29 63 74 41 c9 e2 8e 3f ad f4 ec be 14 4a f8 3f
       15.274209 1.1162959 -0.46280423 1.9397607
0001b0 dc d8 05 40 cc cc 5d be a1 61 25 bf c8 ea 11 c0
       2.091361 -0.21660155 -0.64602095 -2.279955
0001c0 40 ec b8 be 03 e1 54 3f 44 fb bc be 82 1e 63 3e
       -0.36117744 0.8315584 -0.3691045 0.22179607
0001d0 c9 91 18 c0 d2 1a 74 c0 f5 e1 b9 3d 1a c2 64 c0
       -2.383898 -3.814137 0.09076301 -3.574347
0001e0 24 4e 1c c0 55 a9 83 bf 3f f2 72 bf b9 7e 6e 3f
       -2.4422693 -1.0286051 -0.9490089 0.93162113
0001f0 24 ef 96 be 8e 1e 1f 40 84 7d 7b 3e 60 31 98 40
       -0.29479325 2.48624 0.24559599 4.756027
000200 82 85 72 3f aa a3 99 3f 0f 16 58 3e 37 53 04 c0
       0.94734967 1.2003071 0.21102165 -2.067579
000210 ca eb 19 3e 7a f7 af bf d6 f0 3e 40 fd 97 53 40
       0.15031353 -1.3747399 2.9834495 3.3061516
000220 95 8f c8 c0 36 61 31 3f 41 0c 83 c0 00 9d 83 3f
       -6.267527 0.6928896 -4.095246 1.0282288
000230 6c f7 7f 3f 9f af 37 40 c1 11 8d bf ab c6 11 40
       0.9998691 2.870094 -1.1021043 2.2777507
000240 8d d0 00 40 eb 67 66 bf 6a 07 0d 3f d8 50 dc 3f
       2.012729 -0.90002316 0.5508944 1.7212172
000250 43 44 83 c0 40 b7 09 bf 27 0e 94 3f 8d 15 38 40
       -4.1020827 -0.5379524 1.1566819 2.8763154
000260 c4 95 ff bd ee b7 10 40 88 c5 c9 bf 79 02 9d bf
       -0.124797374 2.2612262 -1.5763407 -1.226638
000270 be 25 99 be a3 55 8a 40 cb 7b dd bf 05 9b ba c0
       -0.29911608 4.3229537 -1.7303404 -5.8314233
000280 da 46 4f 3f ec 19 a3 3f 24 e2 60 40 a1 21 29 40
       0.80967486 1.2742286 3.5138025 2.6426775
000290 1f 04 07 c0 41 6f 6f bf eb 11 27 c0 e9 cb a2 3e
       -2.1096265 -0.93529135 -2.6104686 0.31796196
0002a0 e8 07 7a bf 46 fa e3 be bb ba 1c 40 d5 d0 47 40
       -0.97668314 -0.4452688 2.4488971 3.122121
0002b0 e2 a9 7d 3f 05 b5 db 3b b8 70 93 be a9 a5 85 bf
       0.99087346 0.006704929 -0.28796935 -1.044118
0002c0 b4 db 69 bf 69 55 37 bf 11 95 00 c0 51 77 1a 40
       -0.91350865 -0.716147 -2.0090983 2.4135325
0002d0 b6 c2 80 bf 26 82 c3 bf d9 e3 05 40 53 0c 57 3f
       -1.0059421 -1.5274093 2.0920317 0.8400318
0002e0 24 32 b6 c0 a0 ac 1d c0 66 07 00 3f 98 ab bb bf
       -5.6936207 -2.4636612 0.5001129 -1.4661741
0002f0 5c 6f 65 bf be 6c 35 3f 26 64 84 3f 6f 33 24 c0
       -0.89623046 0.7086905 1.0343063 -2.5656393
000300 51 f3 82 3f 44 d2 90 bf 0f 95 0c be 04 e1 aa 40
       1.0230504 -1.1314168 -0.13728736 5.3399677
000310 22 92 c9 bf 56 21 07 bf 1f 36 92 c0 e4 e3 dc be
       -1.5747721 -0.5278524 -4.5691066 -0.43142617
000320 58 13 4d 3f d0 48 b7 3e bf f9 db 3f 76 25 05 c0
       0.8010764 0.3579774 1.7185591 -2.0804114
000330 a5 db 40 c0 bb 5e 6b c0 5b 28 25 40 25 ba 33 bf
       -3.013406 -3.677657 2.580588 -0.7020591
000340 f6 aa 20 c0 db 26 2c 40 88 c5 28 c0 cd eb 04 bf
       -2.5104346 2.6898715 -2.6370564 -0.51922303
000350 66 47 bd be c6 42 e2 bf 89 58 af 3f b5 15 4c 3f
       -0.36968535 -1.7676628 1.3698894 0.7972062
000360 5d 4d ca be 9f 44 d9 bf 3c 8c 1f 40 61 bc 20 40
       -0.39512148 -1.6974066 2.4929342 2.5114977
000370 a7 dc 49 be 9a 73 90 bf af 16 90 3d bd 27 71 3f
       -0.19713078 -1.1285279 0.070355766 0.9420126
000380 92 cb a2 40 1b 8b 24 c0 76 dc 43 40 05 b0 a2 be
       5.08735 -2.5709903 3.0603309 -0.31774917
000390 3a ff 8a 3d 2e 46 30 40 4f d8 20 3f 94 27 29 bf
       0.06786962 2.7542834 0.6283006 -0.66076016
0003a0 ad bf 58 3f b4 99 60 3e 4f 3c 0f c1 ca 2b fa bd
       0.84667474 0.21933633 -8.952224 -0.12215383
0003b0 4c aa 0e c0 4c 2b 22 40 e5 06 06 40 fb 48 92 c0
       -2.229144 2.5338926 2.0941708 -4.5714087
0003c0 ac 9f 47 3f 65 5f cf 3f b6 d7 96 3f d5 7a c9 3f
       0.77978015 1.6200987 1.178458 1.574061
0003d0 c2 a2 9f be b9 d7 38 be 7c ed 27 c0 9c 82 10 3f
       -0.31178862 -0.18051042 -2.62387 0.56449294
0003e0 3d c0 76 40 f2 29 69 3f 31 95 92 c0 a1 7b 25 40
       3.8554833 0.9107963 -4.580712 2.5856707
0003f0 e2 46 57 40 e7 53 5a bf 7c 57 05 c0 67 f4 90 40
       3.3637013 -0.85284275 -2.0834646 4.5298343

v.v_net.2.bias f4 [64]
000000 84 e9 11 3e 6e d2 51 3f 4e 65 29 c0 70 a2 0e 40
       0.14249235 0.81961715 -2.6468081 2.2286644
000010 02 03 3d c0 e4 ad 0b 40 c6 4c 19 40 f2 e8 19 3e
       -2.9533086 2.1824884 2.3953109 0.15030268
000020 b5 af 28 bf a3 7b f9 be 1c 93 72 bf 8f 5f 32 40
       -0.6589311 -0.4872714 -0.9475572 2.7870824
000030 be 3c 81 bd 9c 0c 05 3f 6a 26 87 3f 48 45 c0 bf
       -0.06310414 0.51972365 1.0558598 -1.5021143
000040 f7 df aa bf 75 e8 68 3f 77 19 1e bf c8 66 09 bf
       -1.3349599 0.909797 -0.61757606 -0.53672457
000050 80 1e c8 bf f1 c5 bd 3f 77 0a 67 40 cb ab ce bf
       -1.5634308 1.4826032 3.6100137 -1.6146177
000060 2b 1b 23 c0 85 b4 bc bf c8 fc 11 40 83 89 6f 3e
       -2.5485332 -1.474259 2.2810535 0.233923
000070 68 b7 91 3f 53 18 80 bf f7 1e b4 3f 0d ef e9 bf
       1.1384096 -1.0007423 1.407195 -1.8276078
000080 51 8e 3b bf ec 54 dc 3f aa d6 33 3f 6b 4e 25 3f
       -0.7326403 1.7213416 0.70249426 0.6457278
000090 40 42 d1 bf a8 54 4e be ce fe 6b 3e ae 57 b8 3f
       -1.6348343 -0.20149481 0.23046419 1.4401758
0000a0 b8 23 3e 40 c5 38 88 bf 07 de d0 3f e6 00 b9 3f
       2.97093 -1.0642325 1.6317757 1.4453399
0000b0 f5 93 2a bf 80 0b 8c bf d6 60 ce 3f 41 64 2a 40
       -0.66632015 -1.094101 1.6123302 2.662369
0000c0 d7 aa dd 3f 9a 1e 03 40 7b 55 3c 40 2b de 4e 40
       1.7317761 2.0487428 2.9427173 3.23231
0000d0 97 a9 32 c0 37 0a e6 3b 07 de c2 bf e9 8f 54 be
       -2.791601 0.0070202607 -1.5224007 -0.20758022
0000e0 41 a9 2d 3f 9f 7b 60 3f 57 c6 10 bd f3 e8 f3 bf
       0.67836386 0.8768863 -0.0353454 -1.9055465
0000f0 bf ad e9 bf 73 9b 8b bf 38 84 0c bd 95 5c f8 bf
       -1.8256148 -1.0906814 -0.03430578 -1.9403254

v.v_net.4.weight f4 [1, 64]
000000 2f c2 3c c1 d8 29 9e 41 bf d4 b8 c1 df 3a b9 41
       -11.797408 19.770432 -23.10388 23.153746
000010 44 00 7d c2 91 33 7c 41 ee 88 4d 41 dc 1b 8f 41
       -63.25026 15.762589 12.84593 17.888603
000020 af 34 2d 41 62 63 b4 41 46 a5 3f 41 06 03 b8 41
       10.825362 22.548527 11.97785 23.001476
000030 7a 36 81 c1 7c 30 37 c1 09 ea a2 c1 fa 9e dc c1
       -16.1516 -11.449337 -20.364275 -27.577625
000040 65 06 cc c1 e0 81 7e c1 7e 06 1b 41 f4 df 79 c1
       -25.503122 -15.906708 9.689085 -15.617176
000050 53 11 91 c1 b7 5e 29 c1 4c e8 9a 41 84 9a ca c1
       -18.13346 -10.585624 19.363426 -25.325447
000060 4e 5c cc c1 6d dd c2 c1 dc 36 37 41 53 2b 90 c1
       -25.54507 -24.358118 11.450893 -18.021154
000070 12 ec 3a 41 8d 93 9a c1 4c 69 36 41 8f ad 9a 41
       11.682634 -19.322046 11.400707 19.334745
000080 16 1c b9 c1 d8 52 98 c1 ab 9e 44 c1 d5 83 1c 41
       -23.138714 -19.040451 -12.288737 9.782186
000090 f4 5b ea c1 44 d3 4c 41 92 b8 a4 c1 67 4a 6f 41
       -29.294899 12.8015785 -20.590122 14.955665
0000a0 3a b5 b4 41 53 04 60 c1 a7 8b bd 41 6a 86 bc 41
       22.58849 -14.001056 23.69319 23.565632
0000b0 b9 1a 80 c1 40 bc 8a c1 83 28 4e 41 1c 29 c5 41
       -16.013048 -17.341919 12.884891 24.645073
0000c0 c0 c2 7a 41 79 3a ba 41 76 ce ba 41 86 cd b7 41
       15.672546 23.278551 23.350811 22.975353
0000d0 b7 a0 be c1 b0 4a 55 c1 d5 fc 83 c1 e7 9e 68 41
       -23.828474 -13.330734 -16.498453 14.5387945
0000e0 03 51 82 41 25 8c 67 41 73 7f 85 41 44 26 96 c1
       16.289557 14.471715 16.687231 -18.768684
0000f0 5c ad 64 41 e7 09 5b 41 11 0a b8 c1 be 58 cd c1
       14.292324 13.689918 -23.004915 -25.668331
