model_wts/s1_d3_m0.0_b1.0.ckpt (torch, 206875 bytes, 11 tensors)

pi.logits_net.0.weight f4 [64, 282]
00000000: ae72 0f3e 9708 563c 55dd 8dbd 53f8 103e
00000010: bdbf 5bbe 24d5 c1bd 9782 b93d a252 083e
00000020: 3289 4abd c579 1abe 9070 373d 8c32 2d3d
00000030: 8c4c 063e d3bf a5bd c1ee 09be 71b7 dd3d
00000040: 4ebb f13d bdd9 d3bb c613 dabd 2a0f 233e
00000050: 89a2 b23d 6ff1 883d 5cfd 3b3e 05ca 1fbe
00000060: fc79 233d 74c3 60bd 326f 343e 323a 313e
00000070: c4c2 363d 5ed4 153e 46e7 e8bd dd80 a2ba
00000080: 5915 a13d e70b 3dbe 9135 ac3d d8c6 973d
00000090: 56d8 1e3e 2589 8abd 633f 08be 9de5 aebd
000000a0: 77d6 383a 4666 493b 961a 56bc c28d 69bd
000000b0: e615 263e be22 debc 67b6 42be 1569 10be
000000c0: 176c 353c bd3a c53d 41eb aa3d 75e7 a53d
000000d0: bc24 783d 21de 93bd e00e ca3d 54ed e2bd
000000e0: aabe 153d 4fc3 ce3d 40d1 afbc 2802 233e
000000f0: e154 d13d 3a05 9cbc ea51 0e3e d40d a63d
00000100: e27d c33b e34b 8abd 0589 88bc f069 173d
00000110: e613 a43d 0782 893d fced 923d 8f00 b63d
00000120: 1598 eabc 0bcb 033e 0ce0 433d e86a ed3d
00000130: 8eda 793d 2687 073e 9d7f 6f3d 6456 e3bc
00000140: ccde 5ebc c159 50be 6b04 da3d a4b1 053e
00000150: 685f babc e76b 993d b819 cabc e5f0 6cbd
00000160: f156 7bbe 92d2 7bbe cdde 25be 95ba b83b
00000170: 352e e13d f8bf 7e3e 347c 8dbe c994 a2be
00000180: 24d9 853d b48e c83d a5e5 80be 2908 94be
00000190: 1193 4d3e c4e2 543e 1ea3 07bf 09f1 8abe
000001a0: 664c d83d 1619 1bbe 180d e2be c1db ddbe
000001b0: dbec 4dbc 6153 5dbe 2625 a73e 2c9b 6ebd
000001c0: 45a6 e73e 2309 96be c1a4 9cbd 8239 b3be
000001d0: 19ec fe3d e92d b43e f571 813d 52fb 95bb
000001e0: 58fa c5bb f8ea d1bd 1fb8 adbd 9fa4 dabe
000001f0: cb18 913e a411 dbbc 3471 d5be 9d29 7a3e
00000200: 5349 603b e860 4dbe 28fb 443d db8d 903e
00000210: 6d00 64be d903 983d 6483 0b3d 831b 633c
00000220: 4de9 1bbf 2a0d 9b3d ed5a 91be 4fbc 4abe
00000230: 8e41 31be a689 5bbe 0be6 94be e0b0 ed3d
00000240: 0eaa 89be 6bd1 653e e072 e3be cd98 a8bd
00000250: 3d75 323d 6770 613e f124 ccbe aae3 33be
00000260: 3acd 01bf 6251 50be 9a2c 913d 9a61 90bf
00000270: 02e7 4fbe d99d 42be 5f0c 47be 87d5 a03d
00000280: eabd 53be 951a 273e 5315 4dbd cbbd 523e
00000290: 1083 babe 3720 ebbe ca7e 94be 2afb 723e
000002a0: 8e2d 1abe 8439 a3be 64f1 d4be 0853 4a3e
000002b0: 0457 883e fe0b dbbb 8734 ec3e 7b0a a8be
000002c0: 9d5b c4be 2a0b 513e 0760 99be 3e3b 4a3d
000002d0: 4c3f bb3e aa0e a93e a85e b3bf 20da f2be
000002e0: 5b84 b6be 5274 903e f8c4 7f3e 77f0 b83c
000002f0: 34fe f03d b30f 0c3f b443 773f 3de3 8fbd
00000300: ef3f 81bf 8ae0 193f 1a2f 593e 281a 933f
00000310: 9ed5 033f e20a c03e 2106 1dbf 487b e33d
00000320: 399f 663f fecd 8b3e 3f23 1f3f 586f 043f
00000330: f488 c93f 0493 31bf ac5b b43e 7351 823f
00000340: e4a3 bdbe e878 6f3c 85dc 7d3e 4ee7 383e
00000350: ae1b 37bf ec47 c73e e721 363f 8dd6 d6bf
00000360: fb69 6e3f b686 b83e 6ac9 04bf 90c5 a2be
00000370: 4fa4 85bf ee36 e1be 7289 563f a643 89be
00000380: ee17 b33e 53db 22be 082d 23bf ea6c 17bf
00000390: 2d80 983d 6721 d1be eb00 cabe 4bef bfbe
000003a0: cf44 443f 1713 aebb a9a5 f93e 4dc9 163e
000003b0: 10ec c63d fc61 56bd 5e55 a33d d6a0 ab3e
000003c0: f9ad 1b3e ce64 12bf 6ba1 3c3d 7e95 d9bc
000003d0: 06a4 4d3f f2f9 5ebe 4de0 74be 3ea7 aabe
000003e0: 7838 20be 4718 7fbe 9642 cf3d 5e46 0dbf
000003f0: c5a2 7fbe f15e 54be 2518 adbe 77eb 843d
0.1400859 0.013063571 -0.06926981 0.14157228 -0.21459861 -0.094644815 0.09058111 0.13312772
-0.049447246 -0.15085514 0.044785082 0.042284533 0.13115138 -0.08093228 -0.13469984 0.10826004
0.11803304 -0.0064651654 -0.10648303 0.15923753 0.08722407 0.06686675 0.18358368 -0.15604408
0.039911255 -0.0548739 0.17620543 0.17307356 0.044619337 0.14631793 -0.11372237 -0.0012398023
0.078654 -0.18461572 0.084086545 0.07410973 0.15512213 -0.067644395 -0.1330543 -0.08539889
0.0007051001 0.0030731126 -0.013067862 -0.057019956 0.16219291 -0.027116176 -0.19014893 -0.14102586
0.011073134 0.09630344 0.08345652 0.081007876 0.060581908 -0.07220102 0.098661184 -0.11080423
0.036558785 0.10095846 -0.021462083 0.15918791 0.102212675 -0.019045461 0.13898435 0.08108106
0.005965934 -0.067527555 -0.016666899 0.036966264 0.08011608 0.06714254 0.07174298 0.08886825
-0.028636971 0.12870423 0.04782109 0.115926564 0.060999446 0.13235149 0.05847131 -0.027751155
-0.013602924 -0.20346738 0.10645374 0.13056046 -0.022750571 0.07491284 -0.024670467 -0.057846922
-0.24544884 -0.24592045 -0.16198273 0.0056374767 0.109951414 0.24877918 -0.27633822 -0.3175414
0.06535557 0.097928435 -0.25175205 -0.28912476 0.20075633 0.20789629 -0.5298327 -0.2713702
0.10561447 -0.15146288 -0.44150615 -0.4333172 -0.012568678 -0.21613838 0.3264553 -0.058253452
0.4524404 -0.29303846 -0.07648612 -0.35004812 0.12447376 0.35191277 0.06320564 -0.004577079
-0.006041806 -0.10249895 -0.08482384 -0.4270372 0.28339228 -0.02674181 -0.4168793 0.24429937
0.0034223392 -0.20056498 0.048091084 0.28233227 -0.22265787 0.07422609 0.03406085 0.01386154
-0.60902864 0.0757087 -0.28389683 -0.19798397 -0.17310163 -0.21439227 -0.2908176 0.11606002
-0.26887554 0.22443168 -0.4442358 -0.082322694 0.04356884 0.22015534 -0.39871934 -0.17567316
-0.50703776 -0.20343545 0.07088585 -1.1279786 -0.20302966 -0.19005527 -0.19438313 0.07853227
-0.20677915 0.16318734 -0.050069164 0.20580213 -0.36428118 -0.45923015 -0.29002982 0.23728624
-0.1505644 -0.31879818 -0.41590416 0.19758236 0.26628888 -0.006684779 0.46133825 -0.32820496
-0.38351145 0.20414415 -0.29956076 0.049372904 0.3657173 0.33019 -1.4013262 -0.4743204
-0.35647854 0.28213745 0.24977481 0.0225756 0.117672354 0.54711455 0.9658768 -0.07025764
-1.0097636 0.60108244 0.21209374 1.1492357 0.5149783 0.37508303 -0.61337477 0.111074984
0.90086704 0.27305597 0.62163156 0.517324 1.574492 -0.69364953 0.3522619 1.0181106
-0.370391 0.014616229 0.24791153 0.18056986 -0.7152661 0.3892206 0.7114548 -1.6784226
0.93130463 0.36040276 -0.51869833 -0.31791353 -1.0440768 -0.4398722 0.83803475 -0.26809424
0.34979194 -0.15903978 -0.6374059 -0.59150565 0.074463226 -0.40845796 -0.39453825 -0.37487254
0.76667494 -0.0053123343 0.487592 0.14725228 0.09712994 -0.05233954 0.07975267 0.33521146
0.15203084 -0.57185066 0.046052378 -0.026560541 0.80328405 -0.21775034 -0.23913689 -0.3333072
-0.15646541 -0.24911605 0.10120122 -0.55185497 -0.24964435 -0.20739342 -0.33807483 0.06490224

pi.logits_net.0.bias f4 [64]
00000000: d276 63bd 89c6 d5bc 9e60 a93e b772 1abe
00000010: 799e ba3c 4dab 733e e317 433e a2ac 0fbb
00000020: 0623 5d3e f138 aa3c 3233 2e3e f658 953d
00000030: e5ac a93b b0bc 113e 325a 4cbe ca46 9cbe
00000040: 4a49 563d 60c3 3bbe 7651 ac3e 82d8 483e
00000050: 978a a83d efd6 8ebd 2c34 eb3b c9e2 0d3e
00000060: 4548 a3bd 2faf 3ebe f128 79be 703e 1f3e
00000070: 6990 7dbe e164 133e 4aa4 47be 24bf 15be
00000080: ae86 08be e47d 28be b353 00bf bc28 9dbe
00000090: 587f 2b3e 4abb 963e 607c f53b 1794 1cbe
000000a0: d374 28bc 71a4 463e a4be fc3b 2aac 56bd
000000b0: 1046 be3d 9ed5 be3d e7ad 053d 60c3 993e
000000c0: a291 d4bd b86d d33d 5e34 b23d 1dd5 57bd
000000d0: 543e dd3d 292c b6be d61b 57be c7e2 18be
000000e0: ad87 ec3d e529 1d3e 7243 1f3d c217 0abe
000000f0: 7fa4 e5bd 3055 a1be 98d5 483e 0b86 3f3e
-0.055533238 -0.026095646 0.33081526 -0.15082823 0.022780644 0.23795815 0.19052081 -0.0021922966
0.21595392 0.020779105 0.17011717 0.072923586 0.0051780813 0.14232135 -0.19956282 -0.30522758
0.052315988 -0.18336248 0.336559 0.19613841 0.08229559 -0.06974589 0.00717785 0.13856043
-0.07972769 -0.18621515 -0.24332024 0.15551162 -0.2476212 0.14393951 -0.19496265 -0.14623696
-0.13332626 -0.16454273 -0.50127715 -0.3069514 0.16747797 0.29439765 0.0074916333 -0.15290867
-0.010281759 0.19398667 0.007713156 -0.052410282 0.09290707 0.09318088 0.03263655 0.30031872
-0.1037934 0.103236616 0.087013945 -0.052693475 0.10802904 -0.35580567 -0.21006712 -0.14930259
0.115493156 0.15348013 0.03888268 -0.13485625 -0.11213016 -0.31510305 0.1961273 0.18703477

pi.logits_net.2.weight f4 [64, 64]
00000000: 43da 4bbf 5a72 14be 0b1a 8dbe cc49 1bbf
00000010: e5d1 dfbe 1240 913e 7dd9 3a3f 14d2 eebd
00000020: 1de5 26bb 9db9 7e3e e20f 993e d0e3 9bbf
00000030: 3d24 d5be 4903 823d 5088 49be 4d7e 18bf
00000040: a6c0 7abc 0070 c23d 48bc d03b 061b 35bf
00000050: aa09 ec3e c5ec 853e e1cd bc3e af10 453e
00000060: 1efc 82be bbc3 903e 4cfa b63e 62ea 00bf
00000070: e8be a8bd 2e1b d8bd 58bb 213d ea4a c6bf
00000080: 1631 1d3c ae21 0e3d 9e14 fe3e a97c 813e
00000090: 7bab dabd 3ded 57be 51a3 8c3f c1e9 fe3d
000000a0: 938e 3c3e 668e febe c5c4 833d 4ffb b9bd
000000b0: a1e8 28bf f0f4 6a3f dac6 803f 49c8 05be
000000c0: 5608 a73e 70d7 a0be e994 d53e 74b2 2c3e
000000d0: db33 cc3e 688a 2c3e 2119 40bf 2baf d33e
000000e0: 9c7a 9b3c 426f 233f 1bdf 073f bfd9 853e
000000f0: 9cd2 29bf be95 b9be c18b 553e b275 273f
00000100: 7765 4f3f 7bbd b2bd 91d6 243e 08ab 313e
00000110: 425e 683f 72a2 313c 4c8a 58bf 1907 ddbe
00000120: a9a0 753e e850 f9be db1b 69bc caf8 e6bd
00000130: 4eab 2fbf f218 3c3f 7ee7 f4bd 3188 883d
00000140: d69f 1c3e 2c92 353f 0337 fdbe 6bd9 c53c
00000150: 1cd4 b6be 8720 473f a594 b1be f162 9fbe
00000160: 215a 0abf d476 6bbd 0c30 d63d 352f 873e
00000170: 62ab e93d 05f3 4f3e 6ba6 d73d 46d1 fb3e
00000180: 6b6d c83e 58cf c7bd 58f5 f23e 50df 0c3f
00000190: 85d9 a0be c69c d9be 270d 29bf 9f86 88be
000001a0: 30e7 9dbe 4bf0 a4be f922 a23e 02b0 a7be
000001b0: 0cf4 2cbf 7788 adbe def9 afbc a8b6 a9bd
000001c0: 6623 9f3e b2a2 2abe 8fe8 cebe d776 863e
000001d0: daad 933e dc78 353e 0f14 023f e341 7bbe
000001e0: 5077 43bf 80da 94be c121 2cbc aa5c 4fbe
000001f0: 3c1c 303f 6b79 b03e 3277 04bf 3433 e1be
00000200: 22c9 69bf b85b 3cbf 03fc 963e b069 6b3e
00000210: f3b4 a9bd 74a1 0c3f c88f e33d 0d4a 8abe
00000220: 71f4 05bf e6a3 543f 24cf 123f 4c0e 03be
00000230: 410b cd3e ca11 023d 71b1 4e3e 6c13 33bd
00000240: b7de 0e3f a97c e2be d4c9 5b3d 372b 82be
00000250: 3ca6 fdbc c65f bb3e bb50 d0be 1914 47be
00000260: 9a9f b83b c908 41bf 36d3 a5be 22e6 bfbe
00000270: 450d 0bbf 1afe c9bf a9c6 cbbe b973 8cbe
00000280: c0b4 23bf a5e8 5dbe f881 1cbf ee22 8cbe
00000290: 7898 25bf 0d7e 94be b255 583e d52c f63d
000002a0: c7f7 493d 2810 963d 5592 0abc 988c 893d
000002b0: 163d f03e df3a 2b3f 3a84 0a3e 3159 513e
000002c0: e63a 5ebe e53d e1bd 406c fc3e 5a25 b1be
000002d0: a1b6 2f3e 1a7b 31bd fd59 2fbf 688a 94be
000002e0: 03e7 143f aa9a 273f 8426 8ebe 2525 db3e
000002f0: ed54 a03c af6a a5be f8e9 233f 0b65 2a3f
00000300: a1bc 743e dc2e 323f 71b0 283d 5178 02bf
00000310: 6f91 a33e 49ab c6be 5d28 1d3e 3628 083f
00000320: 315b d43e c471 e3be d7de abbe a7f5 a93d
00000330: 269e 88be 16cc 54bf ec84 073e 672a de3d
00000340: fceb b0bd b23b ff3e 7f71 03bf a2ab 9abd
00000350: e0d2 383f 5f8c d1be 5d83 9f3e b3a6 4d3f
00000360: 1975 1b3f 9b62 2d3f 482f 67bd 8883 72be
00000370: 02a2 f83e 165f 183f 36ff 88be 64a3 a23d
00000380: 1169 143f 3b15 fc3e f54a f53e 4c15 a03d
00000390: d8c6 dd3e 850f 0c3f 7ee3 073f 43d7 2fbe
000003a0: 4c64 eabd aed2 4abf ffa9 8abe f865 5f3e
000003b0: 8833 8c3d 9388 1cbf 7614 d33d 381c 9dbe
000003c0: 2a29 c13e 5c13 21be b7f4 7abe 228a cbbe
000003d0: efeb 25bf b3a1 adbe 5476 533e bec2 4c3f
000003e0: 7e9d 38bf 8df1 4dbe b49b 753e 9743 49be
000003f0: c5a6 59bf 9ba0 0c3e 589e 4bbc 3563 953e
-0.79629916 -0.14496747 -0.27558932 -0.6065948 -0.43714824 0.28369194 0.7298811 -0.11661163
-0.0025466152 0.24875493 0.2989493 -1.2178898 -0.4162921 0.06348283 -0.19680905 -0.5956772
-0.01530472 0.094940186 0.006370101 -0.7074436 0.46101123 0.26157203 0.36875823 0.19244646
-0.25582975 0.2827433 0.35737836 -0.5035764 -0.082395375 -0.10552059 0.039485306 -1.5491612
0.0095942225 0.03470009 0.49625105 0.2529042 -0.106772386 -0.21086593 1.098734 0.12446929
0.18413763 -0.49718016 0.06434015 -0.090811364 -0.65979964 0.91779995 1.0060685 -0.13064684
0.32623547 -0.31414366 0.41715172 0.1686495 0.39883313 0.16849673 -0.75038344 0.4134458
0.018979363 0.6384164 0.53074807 0.2614269 -0.6633699 -0.36247057 0.20854093 0.65413964
0.810142 -0.08727547 0.16097476 0.173504 0.90768826 0.010841953 -0.84586024 -0.43169478
0.23987068 -0.4869454 -0.014227833 -0.112779215 -0.68620765 0.73475564 -0.11958216 0.066666014
0.15295348 0.70926166 -0.49456033 0.024151525 -0.35708702 0.7778401 -0.3468372 -0.31130174
-0.54043776 -0.05748637 0.10458383 0.26403204 0.11409642 0.20307548 0.105297886 0.491831
0.3914598 -0.097563446 0.47452807 0.5502825 -0.31415954 -0.4250242 -0.66035694 -0.26665208
-0.30840445 -0.3221458 0.31667307 -0.3275147 -0.67559886 -0.33893177 -0.02148145 -0.08286792
0.31081694 -0.16663626 -0.40411803 0.26262543 0.28843576 0.17721885 0.50811857 -0.24536853
-0.7635393 -0.29072952 -0.010506094 -0.20250192 0.6879308 0.34467635 -0.5174438 -0.43984377
-0.9132253 -0.7357745 0.29489145 0.22989535 -0.082864664 0.5493386 0.111114085 -0.2700962
-0.52326113 0.8306259 0.5734732 -0.12798423 0.4004765 0.031755246 0.20184876 -0.043719694
0.55808586 -0.44235733 0.053659275 -0.25423595 -0.030963056 0.36596507 -0.40686592 -0.1944126
0.0056342604 -0.7540403 -0.32387704 -0.37480265 -0.5431712 -1.5780671 -0.39800003 -0.2743204
-0.6394768 -0.21670778 -0.61135817 -0.273704 -0.64685774 -0.2900242 0.2112644 0.1202027
0.049308565 0.073273 -0.00845774 0.06716269 0.46921605 0.66886705 0.13527003 0.2044418
-0.21702155 -0.109981336 0.49301338 -0.3459881 0.17159511 -0.04333029 -0.68496686 -0.29011846
0.58164996 0.65470374 -0.2776376 0.42801777 0.019571746 -0.32307956 0.64028883 0.6656043
0.23900081 0.6960275 0.041183893 -0.5096484 0.31946895 -0.38802555 0.15347429 0.5318636
0.41475824 -0.44422734 -0.3356845 0.082988076 -0.26683158 -0.8312391 0.132343 0.10847931
-0.086387604 0.4985023 -0.51345056 -0.075522676 0.7219677 -0.40927407 0.3115491 0.8033249
0.6072555 0.67728585 -0.056441575 -0.23682988 0.48561102 0.5952009 -0.2675721 0.079413205
0.5797282 0.49234948 0.4790875 0.07816562 0.43315768 0.5471118 0.530815 -0.1717196
-0.11444911 -0.7922772 -0.27082822 0.21816242 0.06845766 -0.61145896 0.10306637 -0.30685592
0.37726718 -0.15730041 -0.24507414 -0.39753824 -0.6481313 -0.3391243 0.20650607 0.79984653
-0.72115314 -0.20111676 0.23985177 -0.1965469 -0.85020095 0.13733141 -0.012427889 0.2917725

pi.logits_net.2.bias f4 [64]
00000000: 7551 85be 3461 d2bc d0cb 19bd 0d76 5d3e
00000010: 3e46 e7bd c813 243e a2e8 cdbe f240 8fbe
00000020: 81f3 cbbe b808 833e 1a77 abbe 520c fdbe
00000030: 67ad a73d 1870 0f3e 5fd2 48be 4a09 c03d
00000040: 5f5b 813e 45d9 a8be 47dd ef3e 3285 463e
00000050: b57b f23e 0620 3abe 1ad6 403e b911 e83e
00000060: 5373 7a3d b1de 323e 9c97 913b 2c9d bb3d
00000070: a05f d7be f52a db3e 7ad1 083f 3536 663d
00000080: 32b9 56be cefc 3a3e 0679 2e3d 8bb1 cdbe
00000090: fb41 cf3c b893 653d 7dec 1abf 84d3 15be
000000a0: 2e32 5e3b 86f3 52bf 0436 d63d 5a7f 1bbe
000000b0: 40ed 463e 6205 40be 7bc1 fd3e 5c9b 3fbd
000000c0: 8663 473d 93db ea3e 1037 07be 291a 303c
000000d0: 0f1f b2be f22b 3b3f 33ba 00bc 0d69 37bd
000000e0: 22f2 97be c91d b93d ed79 3a3e dabb 003e
000000f0: 8a59 2c3e df57 5dbe dfc3 843c f8e9 403d
-0.2603871 -0.025681116 -0.037547886 0.21627064 -0.112926945 0.16023171 -0.40216547 -0.27979237
-0.39834216 0.2559259 -0.33489305 -0.49423462 0.08187371 0.14007604 -0.196115 0.09376772
0.25265023 -0.32978263 0.4684851 0.19386747 0.47360006 -0.18176278 0.18831673 0.4532602
0.061145138 0.17467763 0.004443122 0.091608375 -0.42065144 0.4280621 0.53444636 0.05620404
-0.20969084 0.182605 0.042595886 -0.40174517 0.025300017 0.05604908 -0.605171 -0.14631468
0.003390442 -0.8240284 0.104595214 -0.151853 0.19426441 -0.18752053 0.49561676 -0.04677902
0.048678897 0.45870647 -0.13204598 0.010748425 -0.3478932 0.7311393 -0.007856893 -0.04477792
-0.2967692 0.09038884 0.18210573 0.1257166 0.16831031 -0.21615551 0.01620668 0.04709813

pi.logits_net.4.weight f4 [87, 64]
00000000: b143 04bf 705d efbe 203e 12bf 922f abbe
00000010: 63e0 bdbe d665 d03d 6287 33bf 9b44 35be
00000020: df76 10bf 3e4e 0e3f 78f1 27be 1c6c 51bf
00000030: 3203 5abf f63e 3a3e 1ae5 4bbd ae1d 48be
00000040: 5dbe eabe a087 f0be 0536 ad3f e776 1c3f
00000050: 609a 9e3d cd9a 3cbe 9a2f 2cbf 328f 2dbe
00000060: 1730 1b3f ed81 aebe eed2 6fbe 7b7a 6ebf
00000070: bb15 18bf 992e 203f e9fc 003f 828e 26bf
00000080: 972e 243f cdba b6bd 0630 7dbe 353a 97bf
00000090: 2bd4 573e 3515 4abe 8692 0fbf 2e38 6c3f
000000a0: 5452 08bf 0ead 0ebf 1615 713f d1fc 053f
000000b0: 2a9f f93e cfe0 86bf 6c8d 4a3f 382f 2cbe
000000c0: 0cd9 68be 712a c63e 679e 763f 9572 97be
000000d0: d071 84be 5b51 323f 74c7 cabe ba94 643f
000000e0: 6022 4cbf b786 fb3e 0742 d93e 0cc4 f03e
000000f0: 9b1e f53c d972 2abf e932 85bf 0375 9e3f
00000100: 068c 5f3e 1e3a 4bbf a101 353e caea eabe
00000110: 44b7 43bf 9a2e f13c 1285 b4be ec81 e63e
00000120: b5d0 f2be df4d 293f a821 8a3e 65f7 0cbf
00000130: 28e8 223e 7fe8 573d d851 34be a477 13be
00000140: c131 1bbf 3998 73be 6021 113f 9b1c 153f
00000150: 5bfe c4be 849f 17be bc16 fd3e 2e8d f2be
00000160: bd54 0b3f b073 1b3f 2e27 73bf b5d2 2c3e
00000170: 32d2 32bf 8a57 bc3e 0570 2b3f 1dc9 a23d
00000180: a281 f3be 6c86 3c3f 2fcc 653f 581b 3a3e
00000190: 1582 dfbe 8591 213e 06d4 e5be 6a28 5f3f
000001a0: d2ff 0ebf e179 f9be 0270 89bc ea21 fdbd
000001b0: 2522 383f cd31 e1bd 4ad6 cc3e 0a30 46bf
000001c0: 6040 1fbf 6e9c 83bc 413e f33d 994c 77be
000001d0: 74b2 15bf f844 eb3e 1491 fabe 2dd9 2b3e
000001e0: 1e04 a2be b4e5 853e 459c 433f 2cbc 0f3e
000001f0: ce03 8dbe 6cdc 8a3f 2015 abbe a29f 1abf
00000200: 8b56 a43c c649 d83e 27c4 9bbe d943 9cbe
00000210: f81b f33b db7e e73e 2dd3 c7be 3dfb 713f
00000220: 60d9 49bf c80e 203e a829 ecbe 7244 483d
00000230: 965d 063f 43a0 243f b755 5d3e d25a 593f
00000240: cc97 6d3e ff77 d2be ea67 1c3e 34cb 303e
00000250: 2b3e 493f 9bfa 0cbf ced8 d33e db34 423f
00000260: 19ac 973e fb87 bebf 6849 09bf 6c93 97be
00000270: 34d6 27bf 6719 613e f21e 013f 3513 2f3f
00000280: 4ce6 d53d ce6c 613e 2fd8 893f 8a18 7d3e
00000290: 5582 f9bd a95d 1e3f e5a8 27be 47c5 2dbe
000002a0: 5e2b 543e 0913 06bf e216 b5be 807a 523e
000002b0: 8e42 c03e 91e5 b53d 51d2 1c3f 70cf 4bbe
000002c0: 10e8 b23d d841 843d 21fa 82bf 559f aabe
000002d0: dd1f 0abf f147 c93e 049f 663f 4be9 44bf
000002e0: 2c11 20bf 8027 a53e 02d3 4bbe 5699 edbe
000002f0: f1d3 09be 7ed6 673f 16b0 f73e a6d3 05be
00000300: 307c 923f 87a4 c13e 12f3 67be 67a1 b93e
00000310: 7854 8bbe 2b8a 71bf dfa4 943f d0c5 a4be
00000320: 46e5 2dbf 24e3 293f 5e92 193f 5c37 b23d
00000330: bb6f d23e 90d8 f3be d6ad 6e3e 92b0 043f
00000340: 9169 01be a5ee 44bf 5812 433e 3667 cd3e
00000350: ef7c a13e 93a9 e9be 14fe 723f 3cba 4f3f
00000360: 3394 e93d 752c d93e 9391 c93d c3d3 a83e
00000370: 07fe ddbe a147 0c3f 9f34 4d3f 62e7 1dbf
00000380: 728e c73d 0464 453f a8ff 9fbd 454a d3be
00000390: d0bd 6bbe 4cb2 4abe 952f 9abe 0e03 723d
000003a0: 27fe 9fbe 2025 ffbe 1435 ea3e 5c92 0e3f
000003b0: 4b14 4b3f 18dd c3bb bb67 15bf a37b fabd
000003c0: 85af 193f c9d5 633e 61b2 07bd 4dfb 283e
000003d0: 59c2 8bbe 8085 813e 13d3 afbf 646b 803f
000003e0: 9a5d 40bf 4500 a83e 6f4e dabd 109d f23e
000003f0: 50e7 2e3f cb02 14bf c6ae 74bf 7d1b 843d
-0.5166579 -0.46750975 -0.57126045 -0.3343473 -0.37085256 0.10175674 -0.7012845 -0.17701952
-0.5643138 0.5558814 -0.16400707 -0.81805587 -0.85161126 0.1818808 -0.049779035 -0.19542572
-0.4584836 -0.46978474 1.353211 0.6111893 0.077442884 -0.18418427 -0.67260134 -0.16949156
0.60620254 -0.340835 -0.23420307 -0.9315564 -0.5940816 0.625711 0.5038591 -0.650612
0.6413359 -0.08922348 -0.2472535 -1.1814638 0.2107703 -0.19734652 -0.5608295 0.92273223
-0.5325062 -0.5573281 0.941728 0.5233889 0.48754245 -1.0537356 0.7912204 -0.16814888
-0.22739047 0.38704255 0.9633545 -0.29579607 -0.25868082 0.6965539 -0.39605296 0.8928944
-0.7973995 0.49126217 0.42433187 0.47024572 0.02992182 -0.66581494 -1.0406162 1.2379459
0.21830758 -0.79385555 0.17676403 -0.45882255 -0.76451516 0.029441167 -0.35257775 0.45020998
-0.47424856 0.66134447 0.26978803 -0.55064994 0.15908873 0.05271196 -0.17609346 -0.14401108
-0.60622793 -0.23788537 0.5669155 0.58246773 -0.38475308 -0.14806944 0.49431407 -0.47373337
0.54426175 0.607234 -0.9498166 0.16877253 -0.6985198 0.36785537 0.66967803 0.079485156
-0.4755984 0.7364261 0.89764684 0.18174493 -0.43653932 0.15778168 -0.44888324 0.8717104
-0.558591 -0.487258 -0.016777042 -0.12359984 0.719271 -0.10995827 0.4000724 -0.7741705
-0.62207603 -0.016065802 0.11877108 -0.24150313 -0.5847542 0.45951056 -0.4893881 0.16782065
-0.31643766 0.26151812 0.76410323 0.14036626 -0.27541965 1.0848517 -0.33414555 -0.6039983
0.020060798 0.42243785 -0.3042309 -0.30520514 0.0074191056 0.4521397 -0.39028302 0.94523984
-0.7884731 0.15630639 -0.4612553 0.0488934 0.5248655 0.6430704 0.21614729 0.84904206
0.23202437 -0.41107175 0.15274015 0.17265016 0.78610486 -0.55069894 0.41376346 0.758619
0.29623488 -1.4885248 -0.53627634 -0.2960466 -0.65561223 0.21982346 0.50437844 0.6838868
0.10444316 0.22014162 1.0769099 0.24716392 -0.12183062 0.61861664 -0.16373022 -0.16969787
0.20719668 -0.52372795 -0.3536902 0.20554543 0.37550777 0.08881677 0.6125842 -0.1990335
0.08735669 0.06457871 -1.0232583 -0.33324686 -0.5395487 0.393127 0.9008639 -0.76918477
-0.625262 0.322567 -0.19904712 -0.4640605 -0.13459755 0.90561664 0.4837653 -0.13069019
1.1444149 0.37820837 -0.22651318 0.36255953 -0.27212882 -0.9435145 1.1612815 -0.3218217
-0.6792797 0.66362214 0.59988964 0.08701965 0.4110087 -0.47626162 0.233085 0.51831925
-0.12637927 -0.7692664 0.19049966 0.40117806 0.3154063 -0.45637187 0.9491894 0.81143546
0.1140522 0.4241673 0.09842219 0.3297406 -0.4335787 0.547968 0.8015842 -0.6168119
0.09743966 0.77105737 -0.078124344 -0.412676 -0.23021626 -0.19794577 -0.30114427 0.059084944
-0.3124859 -0.49833012 0.4574362 0.55692077 0.7932784 -0.005977284 -0.58361405 -0.12230613
0.60033447 0.22249521 -0.0331291 0.16502114 -0.27296713 0.25297165 -1.373629 1.0032773
-0.75142825 0.32812706 -0.10659491 0.47385454 0.68321705 -0.5781676 -0.95579183 0.064505555

pi.logits_net.4.bias f4 [87]
00000000: 35f5 ed3e 0b62 b33e c636 053f f19e f43e
00000010: 3a64 0f3f 0b8c fa3e 70ac 7b3e 79a5 1b3f
00000020: f33d 573f 349c e93e eca8 c33d 3685 043e
00000030: 0ef2 143f 7131 983e 36f4 103f d39f ea3e
00000040: 52e6 c23e 5ce4 223f 00ec d53e d7fa a83e
00000050: 3227 023f 9ed6 333f d1d0 0e3f 749c d33e
00000060: 7087 8b3e eadb 173f 3cdd 783e 9430 1d3f
00000070: 3033 b63e 8176 0b3e 0ab5 8a3e 48e8 dd3e
00000080: a994 203e 4e23 863e 7210 803d 18b0 743e
00000090: 02c3 293f 66bf bf3e aced ef3e 610a 1b3f
000000a0: 3250 c53e 5a52 cf3e 7069 1a3f 03da ba3e
000000b0: 7861 e73e 2d34 ff3e f512 0d3f 9795 b23e
000000c0: 4eed 943e 9116 253f ccb4 db3e e0ae b73e
000000d0: 01f4 f03e 9c02 f83e 28aa b43e d5f5 bb3e
000000e0: 76d0 983e 5e32 373f c622 c73e d3fc 753e
000000f0: 2fa4 b83e 633a fb3e e6a8 f23e be3f bd3e
00000100: 5c9f b63e 1edf 1f3f 8c5e 533e a0db 823e
00000110: ba06 0f3f 4624 e13e 8557 013f 641e 423f
00000120: dff8 193f 6266 fb3e 4701 d93d 4b08 dd3e
00000130: f114 d23e a23f c23e ab95 c73e e4fe 173f
00000140: 534b 793e 6890 db3e 927c 1d3f f373 f23e
00000150: aa59 293f f38e df3d 5c15 b93e
0.4647614 0.35035738 0.520367 0.47777513 0.5601231 0.4893497 0.24577498 0.60799366
0.840789 0.45626986 0.09553704 0.12941441 0.58181846 0.2972522 0.56622636 0.4582506
0.38066345 0.636297 0.41781616 0.33003876 0.5084106 0.70249355 0.5578738 0.41330302
0.27251768 0.5931994 0.24303144 0.6140225 0.35585928 0.13619424 0.27091247 0.4334128
0.1568171 0.2619881 0.06253137 0.238953 0.66313183 0.37450713 0.46861017 0.6056271
0.38537747 0.40492517 0.60317135 0.36494455 0.4519155 0.49844494 0.5510705 0.34879753
0.290873 0.6448756 0.42911375 0.35875607 0.4706116 0.4843949 0.3528607 0.36710992
0.29846543 0.7156123 0.38893718 0.24022226 0.36062762 0.49067983 0.47394484 0.36962694
0.35668457 0.62449825 0.20641536 0.25558186 0.5586964 0.43972987 0.5052417 0.7582762
0.6014537 0.4910155 0.10595947 0.4317039 0.41031602 0.37939173 0.38981375 0.5937331
0.2434514 0.4288361 0.61518204 0.47354087 0.6615244 0.10915937 0.36149108

v.v_net.0.weight f4 [64, 282]
00000000: 2fdc 86be 8747 07be fec4 113c a112 e23e
00000010: 3ff5 3dbd 1995 563d 2742 99bc b6e8 a9bb
00000020: ee10 803d 2158 413f cd31 8abe a2cd 79bd
00000030: d681 7fbe 10a7 8a3d 7abf 8e3d 5122 e93e
00000040: 4a83 7fbe b46f d13e e273 d2bd f75e 68bd
00000050: 0970 9fbe 7e32 a73b 82f0 a93e 43f7 253d
00000060: 27b6 f13e fc2d 913c 7b11 cebd 597d 82bd
00000070: 6d99 173d 170c adbe d6b4 f63d 7c2d ec3c
00000080: e250 1cbe 724e 893d 1b08 cabd 6224 293d
00000090: 6649 953d d4d5 0f3d b33b eebb 9206 aebc
000000a0: 3e95 823d 0b2c 90be 385b 9d3d 9105 26bc
000000b0: 24f5 973e 4c02 a03d f7d3 50bd d568 dbbb
000000c0: e550 b0be b6fd 313d 077e b2bd 7bf5 a7be
000000d0: bfff a9be 6663 9c3d 629f 4cbd ed2f 20bd
000000e0: cd01 e7bd bf83 bcbd e2d6 d53c 7955 83bd
000000f0: e5eb 92bd dc80 7c3d 71e6 05bd 295c a3be
00000100: 17e9 9abd 80ce 813c 5f2a 143f 0dc4 8abe
00000110: ef7b cf3e 75d9 9abe ad68 93bd 9d6e 613d
00000120: 8002 623d 3535 b43e dfa1 b5be ee1f e93b
00000130: 6296 76bd 476b 98bb 470c c73e b4bc aa3c
00000140: 9f96 b0be 027b acbc eea6 893d 91b2 c2bd
00000150: c3a0 bf3b cfce a3be d787 83be 2bda 353d
00000160: 81a4 1fbd bfea bb3b 4b67 c8be 40f1 a5be
00000170: d9f4 c1be 107f 3d3d a7b4 f03d bfdb a2bd
00000180: c855 55be 6911 e23d b5ec 8cbd daf9 b93c
00000190: 8f5b 043e 5074 dbbd 835a 94bd 8462 6dbd
000001a0: 8711 763c 09ea bcbd bd2c 883e 2ec9 22be
000001b0: 78e2 3fbd cff7 9b3e d45c 83be bf45 fcbd
000001c0: c2fa 16be 3c2e 66be 913c a73e 0fde b53d
000001d0: 6b5b 3abf 4b0d 67be 6d0e 003c e847 c1bd
000001e0: 040d 4ebe 2e7a 07be 79c2 c63e 8836 fabd
000001f0: 8c43 4c3d 4093 d4ba 304b 10be 55c2 35bd
00000200: e4ce c7be 4352 143e 4e43 1e3d 1931 a13d
00000210: dd25 89be 6735 7abe c414 55be 95cd 92be
00000220: e744 5ebd 85a8 eabd 3c31 8e3e 51b2 71be
00000230: 73d1 943c e446 9cbe f4fa 423d ecea a2bd
00000240: 805b 193e 9f86 323a 7eac efbb deef 52be
00000250: 5f58 573c babe c9bd 707f 423e 978a f9bd
00000260: 8ab0 5ebd a8bb c43d 63b7 b0bd 75a1 b73e
00000270: 7154 3d3d e345 c9bd 406c 273e 0af9 0cbe
00000280: 5c69 69be a37d b33d d81f 5dbe 08b2 46be
00000290: 295f 14bd a126 3b3e e1ba 3cbc 23a3 85be
000002a0: 1204 8f3c e743 803b f6f7 debd f152 94bd
000002b0: dffc 13be bc79 dcbe 396b 0040 8b6e dcc0
000002c0: ee09 bac0 1637 c9bd 4a69 333f 401b 18c0
000002d0: 34dd b8c0 eb46 c0c0 28ba c040 c7dd e440
000002e0: b37c 5b3f d8f8 2abf 67d2 c3c0 8bf1 38be
000002f0: 1c97 0b41 d2ff b33f c7a4 36be e895 6b40
00000300: 26a5 3f3f 8a3e 9e3e e475 60bd 6393 683e
00000310: 0334 2bbf c277 c03e 2faa 503f 7df6 4d3f
00000320: 445a cb3d eee7 ab3e 1c71 ff3e 0fb2 163e
00000330: b361 a33e f378 b13e 7030 8c3e 54b1 94be
00000340: 7186 833e af55 dd3e 67f2 e33e 577a 173f
00000350: 49a3 813e 6ee6 903e 304e d23e adb3 d33c
00000360: 33ad efbc ee73 023f a4c2 c63e db32 dd3c
00000370: 579b 9abd c5bc 3fbf ecc2 173e b1e0 1b3e
00000380: deeb db3e c0c0 173e 44b9 c43e f60c 143f
00000390: 1146 433e d9eb f03e eb2c 08be d983 e1bc
000003a0: 9da3 a73d 68b3 e63b d395 553e c1e0 b7be
000003b0: 107a 923f cabc ba3e 0a57 793d de74 b73d
000003c0: da7c af3e cb65 013f 2198 b0bf 6de6 cb3e
000003d0: 9811 653f 1d50 123f 71e3 293e bcf0 0c3f
000003e0: 2b1a a13d 7401 04be d78d 553d 5acb 773f
000003f0: dc7d 6e3e 40ce 203c fac3 e73e ef8a 2e3f
-0.26339862 -0.1321088 0.008897064 0.44154838 -0.046376463 0.052388284 -0.018708302 -0.005185212
0.06253229 0.755251 -0.2699112 -0.060987122 -0.24951872 0.06770146 0.06970115 0.45533994
-0.24952427 0.40905535 -0.10276009 -0.05673119 -0.31140164 0.0051024547 0.33191305 0.04051901
0.47209284 0.017722122 -0.10061928 -0.063715644 0.037011553 -0.33798286 0.120462105 0.028830282
-0.1526523 0.067044154 -0.09864827 0.041294463 0.0728939 0.03511603 -0.0072703003 -0.021243367
0.06376122 -0.28158602 0.07683414 -0.010133163 0.29679215 0.07812938 -0.050983395 -0.0066958466
-0.34436718 0.04345485 -0.08715444 -0.32804474 -0.3320293 0.07636146 -0.049956687 -0.039108206
-0.1127964 -0.09204816 0.02610344 -0.06412787 -0.071738996 0.061646327 -0.03269047 -0.3190625
-0.075639896 0.015845537 0.57877153 -0.271027 0.4052424 -0.30244032 -0.071977 0.05503713
0.055178165 0.35196844 -0.3547506 0.007114402 -0.06020201 -0.0046514603 0.38876554 0.020841934
-0.34489915 -0.021054748 0.067212924 -0.09506715 0.0058480217 -0.3199372 -0.25689575 0.044397514
-0.038975243 0.005734771 -0.39141306 -0.32410622 -0.37882116 0.046263754 0.11753207 -0.079520695
-0.20833504 0.11038477 -0.06881086 0.022702146 0.12925552 -0.10715544 -0.07243826 -0.05795528
0.015018827 -0.09224326 0.26596633 -0.15897056 -0.046846837 0.304625 -0.2565676 -0.123179905
-0.14744094 -0.22478575 0.32663396 0.08880245 -0.7279574 -0.22563665 0.007815939 -0.09437543
-0.20122153 -0.13230202 0.38820246 -0.12217432 0.049869105 -0.00162182 -0.14091182 -0.044374783
-0.39025033 0.14484505 0.038638406 0.07870693 -0.267867 -0.24434434 -0.20808703 -0.28672472
-0.05426493 -0.11457924 0.27771938 -0.23603179 0.01816628 -0.30522835 0.04760261 -0.07954964
0.1497631 0.0006810221 -0.007314264 -0.20599315 0.013143628 -0.09850831 0.18993926 -0.12184637
-0.05436758 0.09606105 -0.08628728 0.3586537 0.046223108 -0.09827783 0.16349888 -0.13766876
-0.22794098 0.08764198 -0.21594179 -0.19403851 -0.036223564 0.18276455 -0.011519165 -0.26101026
0.017457996 0.0039143446 -0.108871385 -0.07242382 -0.14451931 -0.43061626 2.0065444 -6.888494
-5.813712 -0.0982496 0.70082533 -2.3766632 -5.7770023 -6.008657 6.022724 7.1520724
0.8573715 -0.66785955 -6.119434 -0.18060891 8.724392 1.4062445 -0.17836295 3.6810246
0.7486137 0.3090709 -0.05479993 0.22712474 -0.6687624 0.37591368 0.8150968 0.80454236
0.09929326 0.33575386 0.49890983 0.14716361 0.31910476 0.3466259 0.27380705 -0.2904154
0.25688508 0.43229434 0.44520876 0.5917105 0.2531989 0.28300804 0.41075277 0.025842512
-0.029257393 0.50958145 0.38820374 0.027001789 -0.0754916 -0.74897414 0.1482045 0.15222432
0.4295339 0.14819622 0.38422596 0.57832277 0.19069697 0.47054937 -0.13298385 -0.02752869
0.08185504 0.00704043 0.20857935 -0.3591366 1.14435 0.3647216 0.060874023 0.089578375
0.34274942 0.5054595 -1.3796426 0.39824238 0.8947997 0.57153493 0.16590668 0.5505483
0.07866319 -0.1289118 0.052137222 0.96794665 0.23290199 0.009814799 0.45266706 0.68180746

v.v_net.0.bias f4 [64]
00000000: e7b0 99c0 6876 f23f 3191 f2bf 1a42 8dbe
00000010: f2f1 773f 94d1 29c0 0688 5640 8f9e bd40
00000020: a030 2540 92ad 35c0 a2b7 3940 935b babf
00000030: b2ec 26c0 282a a640 8ee4 38c0 6103 e9be
00000040: cc2b 2f40 c541 36c0 0552 adbf e3c2 ea3f
00000050: ef08 64bf 70ad 00c0 7c80 8240 1f64 2d40
00000060: 0870 3840 ecd9 b3bf c04a 01c0 7955 8bc0
00000070: 41ac 0b41 accc 6ac0 298e 8740 5ef7 f03f
00000080: 8f05 7a40 937f bf40 db07 0ec0 a92d 2ac0
00000090: c3da b440 6774 a640 be05 3b40 68ea 6f3e
000000a0: ff29 97c0 4636 9540 e564 3ac0 bcb7 27be
000000b0: f4f2 bdbf 268c 0a3f 2773 17bf 2e80 5fc0
000000c0: 3793 7b40 8b44 aec0 00fd 6840 9c6f f9bf
000000d0: f2b5 b5c0 62d9 ac40 4aae b540 5608 0f40
000000e0: d2cb 05c0 c752 13c0 8b97 61c0 3848 4740
000000f0: 11ca 8640 07ce c7bf 7746 1d40 4456 a33f
-4.8028445 1.8942385 -1.8950559 -0.27589494 0.96853554 -2.6534166 3.3520522 5.9256053
2.5810928 -2.838719 2.901833 -1.4559196 -2.6081967 5.192646 -2.8889499 -0.4551039
2.7370481 -2.8477643 -1.3540655 1.8340725 -0.8907613 -2.0105858 4.078184 2.709236
2.8818378 -1.405088 -2.0201874 -4.3541837 8.729554 -3.6687422 4.2361035 1.882549
3.9065893 5.984323 -2.2192295 -2.6590369 5.6517043 5.2017093 2.9222255 0.23429263
-4.7238765 4.662875 -2.912408 -0.16378683 -1.4839768 0.541201 -0.59160084 -3.4921985
3.9308603 -5.445867 3.640442 -1.9487185 -5.67846 5.401536 5.6775255 2.2348838
-2.0905652 -2.3019273 -3.5248744 3.113783 4.2121663 -1.560975 2.4574258 1.2760701

v.v_net.2.weight f4 [64, 64]
00000000: 24d5 8440 143c 913d 9b2d 9dc0 5efa da3f
00000010: 6b77 1640 794c 6740 264a 0b3d 6052 92c0
00000020: 2eac 0240 5d10 b9bf c925 7dbe ab09 32c0
00000030: 1978 e83f b503 7ebf 1696 e040 131a 1f3f
00000040: cb7c 20bf eb6d 0a40 d98e 28bf 29c8 a93f
00000050: e924 80bf 8134 5b40 0439 59bf c28f babf
00000060: 0b90 99be 06af 283f 3e26 e4be cb4d d23f
00000070: 1415 773f a077 fc3f 7be3 dabf 9836 02bf
00000080: fc48 aebf 1565 613e 7e45 773f 181f aebe
00000090: b136 55bf 1d8f 29bf a25a a2bf 3fd0 b6bf
000000a0: edaf e03f 4026 7cbf 2802 343f 010a 9d3e
000000b0: 33db 663e 7e3d b940 3106 fa3f e1a6 0fc0
000000c0: cb62 c43f 154e c83f 8fde 7dbf 07c4 8fbe
000000d0: 5942 963f 9c3a 0140 e9ba 62be 561b d3bf
000000e0: a051 6abd 1fe1 1fc0 d033 94be 7dd7 0dbe
000000f0: 736b 59bf 1c22 5e3f 975c 833f f660 553f
00000100: 8643 b7c0 0e44 b53f 3da9 0c40 7e31 f5be
00000110: 8c7b c93e edf2 78bf cc6a 2440 1be5 3d3e
00000120: 6aba 14c0 fcb3 3e3f 5c70 bb3d fed1 c13f
00000130: 8222 a6be 5ec4 ba3f 4d10 e5c0 f2d6 ca3e
00000140: 0547 f6be 8bbe 583f c235 1e3f 909f c53f
00000150: 8dc2 913e acab 40bf 6122 a2be 5c8a 2abe
00000160: c418 a23f 1b35 f1bf 5759 a1bf 1b99 6d3e
00000170: 42d0 8740 0dea 47bf a1b6 2f3e 6b3d a63e
00000180: 7f3c 673f 49c9 0540 3096 cfbf 6479 9dbf
00000190: 93c4 d53e a52e c23f 35d8 413f 59f4 fcbe
000001a0: dc14 ad3e 55d1 1840 6781 0a3e f3d1 f5be
000001b0: 5dda 60c0 a8d2 08bf d04e a4bf 68e1 c33f
000001c0: f030 0940 d323 a5bf d083 773f 73c3 cfbf
000001d0: 7dc8 80bf b069 83bf 7ad3 0ebf e265 ba3f
000001e0: c639 c6be 6bba ff3f 343d 323f 5d7f 1e3f
000001f0: 849a a83f e270 3ac0 9f53 eebf 3e85 0c3f
00000200: 9557 9540 2c6c 34bf d695 88c0 f703 05bf
00000210: 3aba 373e f191 0ec0 5e1a f1be 96b2 223e
00000220: 007a d53f 5b68 d5be 4f9a 3f3f 119c b6bf
00000230: cf53 5c3d df36 0abf 61c7 7b40 c2e4 afbd
00000240: e35b be3d da21 bc3e b138 1d3f ee34 cebe
00000250: 33ba ccbe c0d0 743f 3462 233f ebbc a0be
00000260: 6add 0e3f 1fbc 48be 0bf2 86bd 2a20 90bf
00000270: ff6c 0bbf a82d e3be 4a0a 26c0 ad3a 46bd
00000280: 8a67 7f3e 1871 cfbe 47f9 25c0 1c05 3f40
00000290: f0b6 ef3d 0233 b43e 8f0e ba3e 2d9b 0dbf
000002a0: 1248 763c 4260 cd3e e86e 0cbf 36ac acbe
000002b0: a216 6b3e 13e0 353e 4fd5 98be ef97 40bf
000002c0: 2398 ed3d cf1d 0d3e cee9 58bf 2bae 0940
000002d0: 0563 2ebe a4d6 a23f 5723 38be ce27 f13a
000002e0: 8155 f2bd 62fa 523f 277c ba3f 935f bdbe
000002f0: abdc afbc c1c3 bdbe c97d 133f f483 54bf
00000300: 3af1 31bf 4bff 2240 e13b 6a40 5d7c 39bf
00000310: 59b2 83bf 8000 94be 55a1 f93e 89ab 3b40
00000320: 9704 013f a2f4 073f cff4 84bf b2f4 3c40
00000330: e128 84bf 200f dfbf bf23 c1c0 b63d 83bf
00000340: 3834 4abf 0080 a8bf 112f 373f 3b7b 873e
00000350: 75db e73d 2107 1ac0 8821 1c3f 53de 463f
00000360: 15e6 aebf 7c13 c7bf a6fe 223f 6f09 9ebf
00000370: 88cd 03c0 9d54 aa3f 1ac5 ce3f 0e85 adbf
00000380: 0ded 463e d9a9 3dbf 4b93 8abe d180 bebf
00000390: b235 2040 cc07 8e3d 7b8a f6bf a8e6 0c40
000003a0: 8506 01c0 2fa1 5cbf a698 91c0 0e69 e3be
000003b0: 7981 50c0 6180 cebe d853 fabe 3fb8 4b3d
000003c0: df01 d83e f9de a5bf 4d19 64be dfd4 0b40
000003d0: 6f2f 3ebe fced 2dbf 0e53 b5bf 8a50 f43f
000003e0: 9ff5 02bf e39f e2be ac76 b0be 43dd 1dbe
000003f0: c215 c1be 330b 6ebf 411b 1dbf 849b c03f
4.151018 0.07091537 -4.911817 1.7107656 2.3510387 3.6140425 0.03400626 -4.5725555
2.041759 -1.4458119 -0.24721445 -2.78184 1.8161651 -0.99224406 7.018321 0.6214916
-0.6269042 2.1629589 -0.6584297 1.3264209 -1.0011264 3.4250796 -0.84852624 -1.4575121
-0.2999271 0.65892065 -0.44560426 1.642999 0.9651654 1.9724007 -1.7100672 -0.50864553
-1.3616023 0.22011216 0.9659041 -0.34008098 -0.8328658 -0.66234 -1.2683909 -1.4282302
1.7553688 -0.98495865 0.7031579 0.30671695 0.22544555 5.7887564 1.953314 -2.2445605
1.5342649 1.5648829 -0.9916772 -0.28079244 1.1738998 2.0192022 -0.22141613 -1.6492717
-0.05720675 -2.4981153 -0.2894578 -0.13851734 -0.8492958 0.86770797 1.0262631 0.83351076
-5.7269926 1.4161394 2.1978295 -0.47889322 0.3935207 -0.97245675 2.5690184 0.18544428
-2.3238778 0.74493384 0.0915229 1.514221 -0.32448202 1.4591177 -7.15824 0.39617115
-0.4810106 0.84665745 0.6180078 1.543932 0.28468743 -0.7526195 -0.31666854 -0.16654342
1.2663808 -1.8844332 -1.2605389 0.23202936 4.244172 -0.7809151 0.17159511 0.32468733
0.90326685 2.0904105 -1.6217709 -1.230267 0.41751537 1.5170485 0.7572053 -0.49405172
0.33804977 2.3877766 0.13525926 -0.4801174 -3.5133278 -0.53446436 -1.2836552 1.5303164
2.143612 -1.2901558 0.96685505 -1.6231521 -1.0061184 -1.0266628 -0.5579144 1.4562342
-0.38715953 1.9978765 0.6962464 0.6191309 1.3172154 -2.9131398 -1.8619269 0.5489081
4.666941 -0.7047756 -4.2682905 -0.51959175 0.17942134 -2.2276576 -0.4709043 0.15888438
1.6677856 -0.4168118 0.7484483 -1.4266378 0.053790864 -0.53989977 3.9340441 -0.08588554
0.0929487 0.36744577 0.6141463 -0.40274757 -0.3998581 0.9563103 0.6382172 -0.31394133
0.558066 -0.19603013 -0.06589135 -1.1259816 -0.5446319 -0.4437077 -2.594378 -0.0483958
0.24941841 -0.4051597 -2.5933397 2.9846869 0.117048144 0.35195166 0.36339232 -0.55314904
0.015031831 0.401125 -0.5485673 -0.33725137 0.22957852 0.17761259 -0.29850242 -0.7523183
0.116012834 0.13780902 -0.8473176 2.1512554 -0.1702996 1.2721753 -0.17982231 0.0018398704
-0.11832715 0.82413304 1.4569138 -0.3698698 -0.021467527 -0.3706341 0.5761381 -0.83013844
-0.6950871 2.5468318 3.6599047 -0.7245539 -1.0288802 -0.2890663 0.487559 2.9323447
0.5039763 0.53107655 -1.038721 2.952435 -1.0324975 -1.7426491 -6.0356135 -1.0253208
-0.7898593 -1.3164062 0.7155619 0.26461205 0.11321155 -2.406685 0.60988665 0.7768299
-1.3663965 -1.5552821 0.6366981 -1.2346629 -2.0594196 1.3307072 1.6153901 -1.355623
0.19426365 -0.7408729 -0.270655 -1.4883062 2.5032773 0.06935081 -1.9261011 2.2015781
-2.016023 -0.86183447 -4.549884 -0.44416088 -3.2579024 -0.4033232 -0.48892093 0.049736258
0.42188928 -1.2958671 -0.22275276 2.1848676 -0.18572782 -0.6794126 -1.4165971 1.9087079
-0.5115604 -0.4426261 -0.3446554 -0.15416436 -0.37711912 -0.9298584 -0.6136971 1.504746

v.v_net.2.bias f4 [64]
00000000: 4055 8cbf f317 7ebe 3980 d03f b1ae 6ebf
00000010: 575e 053e 1094 cab9 e206 93be f99b 32bf
00000020: 39be c9bf 91cb 0ebf 0d60 a3be 3926 1fbf
00000030: cf58 963f 201f 773f ba5a de3e 5223 7fbe
00000040: de7b 9a3f f2b4 963f a55d b9bf e989 963f
00000050: ebcb 313f de85 403e b713 6e3e f9dc f43e
00000060: 7e44 3b3f 1ced d93f 5ae2 68bf 7e7f b13f
00000070: c5e9 ef3d 113a 353f ed81 41bf 9fd8 073f
00000080: 8fe1 0e40 e632 0e3e 230e 1640 7573 4abf
00000090: 1fb7 b63e 53d8 b13e 0e09 ab3f 194f 5ebf
000000a0: f1d7 8fbf be1d ed3f c9c6 44bf 296f e23d
000000b0: 47b5 843e 56a0 d03f f53d d5bf 47c0 1bbf
000000c0: 2358 12be cf7d 65bf 102c b6bf 1869 2cbf
000000d0: 0003 9c3f 7b56 3440 6b13 bc3d 6a4a 5bbf
000000e0: 5d5d 06bf 9735 f0bf 2499 9abf 0f3b 503f
000000f0: 445d 02be 6448 1d3f e544 09be cd6f 833f
-1.0963516 -0.24813823 1.628913 -0.9323531 0.13024269 -0.00038638758 -0.2871619 -0.69769245
-1.5761176 -0.5577937 -0.31909218 -0.621677 1.1745852 0.9653187 0.43428594 -0.24915817
1.2069051 1.177397 -1.4481703 1.1760837 0.6945178 0.18801066 0.23249708 0.4782484
0.73151386 1.7025485 -0.90970385 1.3867033 0.1171451 0.7079173 -0.75588876 0.5306491
2.232517 0.13886604 2.3446128 -0.79082423 0.35686585 0.34735355 1.3362138 -0.86839443
-1.1237775 1.8524702 -0.7686582 0.11056358 0.25919554 1.6298931 -1.6659533 -0.60840267
-0.14291434 -0.89645094 -1.4232197 -0.6734786 1.2188416 2.8177783 0.09183391 -0.8566042
-0.5248621 -1.8766354 -1.2077985 0.81340116 -0.1273089 0.61438584 -0.13405187 1.0268494

v.v_net.4.weight f4 [1, 64]
00000000: 953e 68c0 1845 0541 b510 9cc1 4103 d540
00000010: e509 a5c0 8503 3440 9df6 f140 cd5a bcc0
00000020: 6286 b341 7cd7 bb40 fb20 4dc0 dcb9 1a40
00000030: d27e d4c0 ab5a aac0 4ca2 82c0 6504 9bc0
00000040: bc24 10c1 0528 f83f b33c 90c0 1b7f 1440
00000050: 05aa ad40 24c1 84c0 6695 4840 ccb2 04c0
00000060: d7a6 93c0 6b6c 4bc1 842c 8f40 837b f9c0
00000070: 438a 6440 8e70 84c0 e58b 9540 5d00 1940
00000080: 6333 9fc1 3be0 cabf 5751 4e40 a1f6 1841
00000090: 3376 f7c0 19da 6e40 73ff 8140 fccc 0241
000000a0: 01a9 0841 5851 00c2 84fd 2f41 857b 923f
000000b0: 4110 30c1 7aa4 c7c1 e4cd 33c0 f5f8 b73f
000000c0: c4f2 a140 03fc f640 f9f7 5541 d440 db41
000000d0: 2b9f 02c1 0b68 5d40 b29f b9c0 5338 6f40
000000e0: 96c1 4c40 6134 35c0 0c76 1a40 d6e0 9840
000000f0: aa82 39c0 1c87 6c40 0dd6 a9c0 c37c d7c0
-3.6288197 8.329369 -19.508158 6.656647 -5.157458 2.8127148 7.561354 -5.886084
22.440617 5.8700542 -3.205138 2.417594 -6.640481 -5.323568 -4.0823116 -4.8442864
-9.008968 1.9387213 -4.5074096 2.320258 5.4270043 -4.1485767 3.1341186 -2.073413
-4.614116 -12.713969 4.474184 -7.796327 3.5709388 -4.1387396 4.673327 2.3906472
-19.900091 -1.584968 3.2237146 9.560212 -7.7331786 3.7320616 4.062433 8.175045
8.541261 -32.079437 10.999393 1.1443945 -11.003968 -24.95531 -2.8094416 1.4372851
5.0608845 7.718263 13.37304 27.406654 -8.163859 3.4594753 -5.800744 3.7378128
3.1993155 -2.831322 2.413455 4.777446 -2.8986 3.6957464 -5.3073792 -6.7339797
