model_wts/s1_d2_m0.0_b1.0.ckpt (torch, 206875 bytes, 11 tensors)

pi.logits_net.0.weight f4 [64, 282]
0	0xbea54ddc	-0.32285964
1	0xbd29fccb	-0.041500848
2	0xbd1c1aeb	-0.03811161
3	0xbe9dcc77	-0.30820057
4	0x3c5b019f	0.013367086
5	0x3ddb2e17	0.1070215
6	0xbe2b339e	-0.16718909
7	0xbdff4478	-0.12464231
8	0xbc95d0c0	-0.018288016
9	0x3d826f76	0.06368916
10	0xba2d2117	-0.0006604357
11	0xbc492bba	-0.012278492
12	0xbea9e0e5	-0.33179393
13	0xbd4bdf43	-0.049773466
14	0x3d8925ce	0.06696664
15	0xbeaedaba	-0.3415125
16	0xbeb09849	-0.34491184
17	0x3b99eb2c	0.004697224
18	0x3df8cd2c	0.121485084
19	0xbeb2cf9a	-0.34924012
20	0xbec05e3e	-0.375719
21	0xbe437c2f	-0.19090341
22	0xbd003366	-0.031299017
23	0x3d3adeb2	0.045622535
24	0xbd090b9a	-0.03345833
25	0xbcc24639	-0.023715125
26	0xbeaa1f92	-0.3322721
27	0xbeabba0c	-0.3354038
28	0xbe5a4411	-0.21315028
29	0xbea21cf6	-0.3166272
30	0x3db41c2c	0.08794436
31	0x3cf51770	0.029918402
32	0x3cc5588d	0.024090076
33	0x3c8baf69	0.017051416
34	0xbed949f5	-0.42439237
35	0xbe3c117d	-0.18366046
36	0xbdd2380c	-0.10264596
37	0xbd15727b	-0.03648613
38	0x3dc262bc	0.09491488
39	0xbd5e2a91	-0.054239813
40	0x3d02830b	0.031863254
41	0xbd2d908d	-0.042374182
42	0x3c94328d	0.01809051
43	0xbcd3daad	-0.025861109
44	0xbd57d029	-0.05268875
45	0x3b8475a8	0.004042346
46	0x3d1ae976	0.037820302
47	0x3db21002	0.086944595
48	0xbd0ccb71	-0.034373704
49	0xbe255798	-0.16146696
50	0xbed99c88	-0.42502236
51	0xbec38cda	-0.381934
52	0x3c77fc8b	0.0151358945
53	0xbd281c6c	-0.04104273
54	0x3d34a03b	0.04409812
55	0x3deff301	0.11716271
56	0xbc937df9	-0.018004404
57	0xbed0a688	-0.40752053
58	0x3c1edd33	0.009696293
59	0xbeb2d61b	-0.34928975
60	0xbed00225	-0.40626636
61	0x3c467656	0.012113174
62	0xbdf34578	-0.118784845
63	0x3d11f76f	0.03563636
64	0xbd470db9	-0.04859707
65	0xbd14f7e7	-0.03636923
66	0x3b89242e	0.004185221
67	0xbc0aecaa	-0.008479277
68	0xbd9394ba	-0.07206102
69	0xbecaa664	-0.3958007
70	0x3c8cbb01	0.017179014
71	0xbe2cf496	-0.16890177
72	0x3b25405c	0.0025215363
73	0xbcc04862	-0.023472015
74	0x3b1baf73	0.00237557
75	0xbe113f90	-0.14184403
76	0x3bd2e53c	0.0064360183
77	0xbe006dae	-0.1254184
78	0xbec85885	-0.39130035
79	0x3b5f4dc5	0.0034073454
80	0xbd71dcef	-0.05904859
81	0x3cc8b10a	0.024498481
82	0xbe1af2b8	-0.15131652
83	0xbec17e89	-0.3779185
84	0x3c09c18b	0.008407961
85	0xbec6abd2	-0.38802963
86	0xbd8f9920	-0.07011628
87	0xbe6ba868	-0.2301346
88	0xbdb6173f	-0.088911526
89	0xbe444363	-0.19166331
90	0xbe33984c	-0.17538565
91	0xbe8ec1ed	-0.2788233
92	0xbeb3a858	-0.35089374
93	0x3d8f52d5	0.06998221
94	0xbe8dc7d4	-0.2769152
95	0xbe1cb129	-0.15301956
96	0xbee23905	-0.44184127
97	0x3e14107d	0.14459415
98	0xbf42323f	-0.7585792
99	0x3e6ee554	0.23329669
100	0x3e610892	0.21975926
101	0xbe05a6c9	-0.13051905
102	0xbf1281a7	-0.57229084
103	0x3e534cb1	0.20634724
104	0xbecb9ba0	-0.3976717
105	0xbeb628b1	-0.3557792
106	0xbe669210	-0.22516656
107	0xbf02c62f	-0.51083654
108	0xbe9d2f92	-0.30700356
109	0xbf87066b	-1.0548834
110	0x3d11ddac	0.035611793
111	0xbf3ddbf6	-0.7416376
112	0x3dfb6ff0	0.1227721
113	0xbedfda92	-0.43721443
114	0x3d166978	0.036721677
115	0xbdeb9122	-0.11502291
116	0x3e02d027	0.12774716
117	0x3e64c656	0.22341284
118	0xbe62a854	-0.22134525
119	0xbedd6734	-0.432428
120	0xbd8f82b6	-0.07007353
121	0xbe4e0515	-0.20119126
122	0xbec4eca7	-0.384618
123	0x3da76f87	0.08175569
124	0xbe817d58	-0.25290942
125	0x3d62d73d	0.05538105
126	0xbe06c7f9	-0.13162221
127	0x3c45638f	0.012047662
128	0xbd80b000	-0.06283569
129	0x3e0b57b7	0.1360768
130	0xbefde8cb	-0.4959167
131	0xbf8b0760	-1.0861626
132	0x3eb0836b	0.34475264
133	0xbec13272	-0.377338
134	0x3e8a381b	0.2699593
135	0xbe91dcd9	-0.28488806
136	0xbe336895	-0.17520364
137	0xbe451084	-0.19244581
138	0x3db1357b	0.08652779
139	0x3e0bd671	0.13656022
140	0xbec26635	-0.37968603
141	0xbd9f887e	-0.07789706
142	0xbca7784a	-0.0204431
143	0x3e7be0c5	0.24597462
144	0x3d57cc07	0.05268481
145	0x3d4b31d5	0.04960807
146	0x3ea92353	0.33034763
147	0xbe6be99a	-0.2303833
148	0xbe7b2580	-0.24526024
149	0xbe02da30	-0.12778544
150	0xbf210785	-0.629021
151	0x3d5c5e8c	0.053801104
152	0xbf405cf5	-0.7514184
153	0x3c7f16cd	0.015569401
154	0x3e94166a	0.2892335
155	0xbf3119d9	-0.69180065
156	0x3e2db4fb	0.1696357
157	0x3e2139bc	0.1574468
158	0xbc580843	-0.0131855635
159	0xbe332c28	-0.17497313
160	0xbe95446f	-0.29153773
161	0xbea221a1	-0.31666282
162	0xbec93f93	-0.39306316
163	0xbdd90137	-0.10595935
164	0xbe8d0d6e	-0.2754931
165	0xbf1f78e3	-0.62293833
166	0xbedfb567	-0.43693087
167	0xbc0d52d1	-0.008625702
168	0x3d1ff1b6	0.039048873
169	0x39bc7062	0.00035941886
170	0xbd94368d	-0.07236967
171	0x3d849fff	0.06475829
172	0x3da07d25	0.078363694
173	0x3d67b569	0.05656949
174	0xbd5ffb01	-0.054682735
175	0xbd68df2d	-0.056853462
176	0xbead2418	-0.338166
177	0xbed24ac1	-0.41072658
178	0x3de3ed59	0.11129255
179	0x3e67bb99	0.22630157
180	0xbdc70a4f	-0.09718763
181	0xbe13da85	-0.14438827
182	0xbe31e22c	-0.17371434
183	0x3ea89543	0.32926378
184	0x3ccdfaad	0.025143946
185	0x3ca97899	0.020687388
186	0xbfbaca15	-1.459292
187	0x3ee0450c	0.4380268
188	0x3ccd4eb0	0.025061935
189	0xbf26188c	-0.64881206
190	0xbed16e68	-0.40904546
191	0xbe8765e3	-0.2644492
192	0x3e1c776b	0.1527993
193	0xbd73e4f4	-0.05954452
194	0xbd9296ed	-0.07157693
195	0xbe85a4f9	-0.26102427
196	0x3f1ba99c	0.6080568
197	0x3e65476d	0.22390528
198	0x3e9a71a1	0.30164817
199	0x3c4eb6e0	0.012616843
200	0x3f0ae774	0.5425942
201	0x3e78612c	0.24255818
202	0xbe54bbd9	-0.20774783
203	0x3f0ccbf3	0.549987
204	0xbe810647	-0.25200102
205	0xbdd2a25e	-0.10284875
206	0x3e154fd2	0.1458123
207	0x3e11265e	0.14174792
208	0xbeb40c80	-0.35165787
209	0x3dada854	0.08479372
210	0x3ee363ef	0.4441218
211	0x3ec3fe09	0.3827975
212	0x3d8e402d	0.06945834
213	0x3e64da03	0.2234879
214	0x3f85238d	1.0401474
215	0xbf294646	-0.66122854
216	0x3ef6cb6f	0.48202083
217	0xbed55896	-0.41669148
218	0x3ebc0bc2	0.3672772
219	0xbe654a87	-0.22391711
220	0xbf32dae1	-0.6986523
221	0xbc2f2c66	-0.010691738
222	0x3e2a416c	0.16626519
223	0x3d16b1ac	0.036790535
224	0x3f003e1a	0.5009476
225	0xbf085555	-0.53255206
226	0xbf219d2d	-0.63130456
227	0xbf202f67	-0.6257233
228	0x3dddada7	0.10824137
229	0xbe347954	-0.17624408
230	0x3f20cd87	0.6281361
231	0xbe87a298	-0.26491237
232	0xbd95d1b4	-0.07315388
233	0xbf50b988	-0.815331
234	0xbd6b47fd	-0.0574417
235	0x3f2174e4	0.63068986
236	0x3d39fce1	0.04540718
237	0x3efcc7ed	0.4937128
238	0x3ec390c8	0.38196397
239	0xbe073746	-0.13204679
240	0x3ea7a1f2	0.32740742
241	0xbd9776c1	-0.073956974
242	0x3e2137ad	0.15743895
243	0xbd7f215a	-0.062287666
244	0xbe1b58d5	-0.15170605
245	0xbf465239	-0.7746921
246	0xbe9364c5	-0.2878782
247	0xbea6c03a	-0.32568532
248	0x3e076280	0.13221169
249	0x3ee259cf	0.44209144
250	0x3ea5a534	0.32352602
251	0xbe0e6fd6	-0.1390985
252	0x3e9746b1	0.2954612
253	0x3f37a1e2	0.7173139
254	0x3f34a954	0.70570874
255	0x3efd7c5b	0.49508938

pi.logits_net.0.bias f4 [64]
0	0xbee272f1	-0.44228318
1	0x3c5f57d7	0.0136317825
2	0x3e5ecf0f	0.21758674
3	0x3d9a262e	0.075268134
4	0xbeb53736	-0.35393685
5	0x3df2376c	0.11826977
6	0x3c8c8ea9	0.01715787
7	0xbe3ea4ef	-0.18617605
8	0x3e3ca20f	0.18421195
9	0x3e05f582	0.13081935
10	0x3da1e545	0.07905058
11	0xbe0e454a	-0.13893619
12	0x3db39943	0.08769467
13	0xbd1def16	-0.03855809
14	0x3e3783b2	0.17921332
15	0xbd92f0cf	-0.07174837
16	0x3db8d0e2	0.09024216
17	0xbea584e1	-0.3232794
18	0x3d5996bf	0.05312228
19	0x3de721c3	0.112857364
20	0x3d51bd4a	0.05120591
21	0x3e691109	0.22760405
22	0x3e3d5973	0.18491153
23	0x3d63e147	0.055634763
24	0x3d45e003	0.048309337
25	0xbd07b93f	-0.03313565
26	0xbd8d9ca0	-0.069146395
27	0x3e0c47e6	0.13699302
28	0xbe6dff5e	-0.23241946
29	0xbd8d60b0	-0.06903207
30	0xbcdac17f	-0.026703594
31	0xbe7fbea8	-0.24975073
32	0x3e0444a9	0.12916817
33	0x3d554f74	0.052077726
34	0xbe24170e	-0.1602442
35	0xbcaf1bd5	-0.021375576
36	0x3ae4f900	0.0017469227
37	0x3e782c61	0.24235679
38	0xbe60ed32	-0.21965483
39	0x3c9eec3b	0.019399753
40	0xbbb00582	-0.0053717503
41	0x3e12bb55	0.14329274
42	0xbde52ce1	-0.111902006
43	0xbd93861c	-0.07203314
44	0x3e8e1a7f	0.2775459
45	0x3dc898d8	0.09794778
46	0x3daef8a0	0.08543515
47	0x3d5493b3	0.05189867
48	0xbda63fb7	-0.081176214
49	0x3e30532b	0.17219226
50	0x3e8c3397	0.2738311
51	0xbd2cd0be	-0.04219126
52	0x3cf5deeb	0.030013522
53	0xbe9b8d12	-0.30381066
54	0xbda0d401	-0.078529365
55	0x3eb9c8c8	0.36285996
56	0x3e9400e1	0.2890692
57	0x3c1eead6	0.009699544
58	0x3dfeaa54	0.12434831
59	0xbe525f52	-0.20544174
60	0xbe51096b	-0.20413749
61	0xbe58d88b	-0.21176355
62	0x3dc0cc04	0.09413913
63	0x3d4fdda2	0.050748475

pi.logits_net.2.weight f4 [64, 64]
0	0xbe91535a	-0.28383905
1	0xbe1fd54f	-0.15608715
2	0xbc68d52c	-0.01421098
3	0x3dec5796	0.11540143
4	0xbf8d4365	-1.1036192
5	0xbd07d408	-0.033161193
6	0xbe6f8fde	-0.23394725
7	0xbf5e6ffb	-0.8688962
8	0x3f2a83fc	0.6660764
9	0x3ed6162e	0.41813797
10	0x3f213102	0.62965405
11	0xbe4321ba	-0.19055834
12	0x3caa8569	0.020815568
13	0xbe7b888f	-0.24563812
14	0xbc828e80	-0.01593709
15	0x3d07a51f	0.033116456
16	0x3dc5368f	0.09629547
17	0xbef3236b	-0.4748796
18	0x3edecb92	0.43514687
19	0x3d6063d3	0.0547827
20	0x3ba259de	0.0049545607
21	0xbe43272d	-0.19057913
22	0xbe205e89	-0.15661062
23	0x3e5d2cc5	0.2159911
24	0x3e888e80	0.2667122
25	0x3e4d717d	0.20062824
26	0x3f2b07f6	0.6680902
27	0x3dc627f9	0.09675593
28	0xbef10dcd	-0.47080842
29	0xbe2405c1	-0.1601782
30	0x3e02a717	0.12759052
31	0xbcdb5e46	-0.026778352
32	0xbdf51dc8	-0.11968571
33	0xbd9201eb	-0.07129272
34	0x3db5c2fa	0.088750795
35	0x3e80a445	0.25125328
36	0x3da310aa	0.07962163
37	0x3dd1e619	0.10248966
38	0xbd5d8c52	-0.054088898
39	0xbe940ad8	-0.28914523
40	0x3e3671d9	0.17816867
41	0x3f152037	0.5825228
42	0x3e063714	0.13106948
43	0xbd2f370c	-0.042777106
44	0xbdc4edcd	-0.096156694
45	0x3ded9d6e	0.11602293
46	0xbe25c9d1	-0.16190268
47	0x3fd51dff	1.6649779
48	0x3ebe0739	0.37114885
49	0xbf2599ae	-0.6468762
50	0xbd9fb28a	-0.077977255
51	0x3ee4c3f8	0.44680762
52	0x3d0d6ec7	0.034529474
53	0x3e3f3a5d	0.18674608
54	0x3e1d88d1	0.15384223
55	0x3e6659e6	0.22495231
56	0x3ea8628f	0.32887694
57	0x3eb2e751	0.34942105
58	0x3f90e4ac	1.1319785
59	0x3f171e03	0.5903017
60	0x3dbb7d2a	0.091547325
61	0xbea2a2fc	-0.31764972
62	0xbe84eec6	-0.2596342
63	0x3eeb4d86	0.45957583
64	0x3f4c6ee6	0.7985672
65	0xbe7e677b	-0.24844162
66	0x3e8c9ef1	0.27465013
67	0xbe5fd76c	-0.2185952
68	0x3dea2067	0.114319615
69	0xbed489ae	-0.4151129
70	0xbea1adc9	-0.315779
71	0xbed64dea	-0.4185632
72	0x3e203ef9	0.15649022
73	0xbdf35a5c	-0.11882469
74	0x3d0cc1f9	0.034364674
75	0xbe75824f	-0.2397549
76	0xbf7c04aa	-0.98444617
77	0x3df54a9d	0.11977122
78	0x3e41df9f	0.18932961
79	0xbedf3cdb	-0.43601117
80	0x3da7047f	0.081551544
81	0xbeb39829	-0.35077026
82	0xbf0e98d9	-0.55701977
83	0x3f364b3a	0.71208537
84	0x3f27569e	0.6536654
85	0xbebe6677	-0.3718755
86	0x3f2d31f8	0.6765437
87	0xbd0b4db8	-0.034009665
88	0xbe80540b	-0.2506412
89	0xbd57b77d	-0.052665222
90	0x3c10aca4	0.008830223
91	0xbf8976bd	-1.0739361
92	0xbefcc426	-0.493684
93	0xbe89e202	-0.26930243
94	0xbf34d5e5	-0.7063888
95	0x3e012912	0.12613323
96	0x3e8392ae	0.25697845
97	0x3ed5e035	0.4177262
98	0x3e771271	0.24128129
99	0x3e9ed085	0.31018463
100	0xbe88f49e	-0.26749128
101	0x3e055297	0.13019787
102	0xbf816f33	-1.011206
103	0x3efe26c4	0.4963895
104	0xbede3fdb	-0.43408093
105	0xbf69590a	-0.9115149
106	0x3f9ba98c	1.2161117
107	0x3f32770d	0.6971291
108	0x3e68d08e	0.22735807
109	0xbed8abe2	-0.42318636
110	0x3f423295	0.7585843
111	0x3d89e24c	0.06732616
112	0x3e266262	0.16248468
113	0xbd67549e	-0.05647718
114	0xbe37698a	-0.17911354
115	0x3de65476	0.112465784
116	0xbd9022aa	-0.07037862
117	0xbe428f25	-0.18999918
118	0x3da2e6a3	0.07954147
119	0x3c97c581	0.018526794
120	0xbf79a4c2	-0.97517025
121	0xbe18bc1b	-0.14915507
122	0xbf02b76f	-0.5106115
123	0xbf0c46be	-0.54795444
124	0xbde68261	-0.112553366
125	0x3eb7b417	0.35879585
126	0xbcb9c449	-0.022676604
127	0xbf5867cb	-0.84533376
128	0x3e9174fc	0.28409564
129	0x3f26a364	0.65093064
130	0x3e87966c	0.2648195
131	0xbf6d3d0a	-0.92671263
132	0xbe336a57	-0.17521034
133	0x3f62e192	0.88625443
134	0xbf19f860	-0.60144615
135	0x3e84b20c	0.2591709
136	0xbf71d20a	-0.9446112
137	0x3f2a7f21	0.66600233
138	0x3f03dbdd	0.5150736
139	0x3ea332a1	0.31874564
140	0x3d5aa0c5	0.053375978
141	0x3eabdb72	0.3356586
142	0x3f14c0f1	0.58106905
143	0xbe74ebf0	-0.23918128
144	0x3eab1176	0.3341176
145	0xbf39c31c	-0.7256334
146	0x3f3105e9	0.69149643
147	0xbf182b54	-0.59441113
148	0x3ef9e5b8	0.48808074
149	0x3ebed7e9	0.372741
150	0x3dcc330d	0.09970675
151	0xbedf0dc8	-0.43565202
152	0xbe8758a9	-0.2643483
153	0xbf244d77	-0.641807
154	0x3eced486	0.40396518
155	0xbe5e1331	-0.21687008
156	0x3f255465	0.645819
157	0xbed72860	-0.4202299
158	0x3f440fac	0.76586413
159	0x3eba8cd3	0.36435565
160	0x3e230fd3	0.15924005
161	0xbeaf21d3	-0.34205493
162	0xbe6ca636	-0.2311028
163	0xbe076fbd	-0.13226219
164	0xbf503a0c	-0.8133857
165	0x3f040142	0.5156442
166	0x3e5334ca	0.20625606
167	0x3e1668d9	0.14688434
168	0xbf11c3e8	-0.56939554
169	0x3de9a1da	0.11407824
170	0x3e36c59e	0.17848822
171	0xbf28563e	-0.65756595
172	0xbe13cd89	-0.14433874
173	0xbebba386	-0.36648196
174	0xbdb5d1d8	-0.08877915
175	0xbeb0e2d8	-0.34548068
176	0x3da1225b	0.07867881
177	0x3e99a59a	0.30009156
178	0x3e8d45b9	0.27592257
179	0xbd1a37b6	-0.037650786
180	0x3eeb0499	0.45901945
181	0xbc1f79fa	-0.009733671
182	0xbe72edbc	-0.23723501
183	0xbeaefa92	-0.34175545
184	0xbdb1b810	-0.08677685
185	0x3ee47306	0.44619006
186	0xbf63a232	-0.88919365
187	0xbe481873	-0.19540577
188	0xbd1271ba	-0.03575299
189	0x3e19a6de	0.15005061
190	0xbde97548	-0.11399323
191	0xbee7c13a	-0.45264608
192	0x3e6d3847	0.23166
193	0xbe92000d	-0.28515664
194	0x3fa54da6	1.2914321
195	0x3f585fad	0.8452099
196	0xbdc4ae4c	-0.09603557
197	0xbe3afe85	-0.18261154
198	0x3ee632ff	0.44960782
199	0xbec92498	-0.3928573
200	0x3ee53932	0.447702
201	0xbf0ff651	-0.56235224
202	0xbf427165	-0.75954276
203	0x3f3beba5	0.7340644
204	0xbe61c294	-0.22046882
205	0x3d66d3a6	0.056354187
206	0x3dd34d9b	0.103175364
207	0xbd237ab3	-0.039911937
208	0x3e0cea9e	0.13761374
209	0x3ec7f826	0.3905651
210	0xbd3a607e	-0.04550218
211	0x3f54e8e4	0.8316786
212	0xbf426241	-0.75931174
213	0xbf3b7c1d	-0.73236257
214	0x3f1f6c20	0.6227436
215	0x3e47ce47	0.19512282
216	0xbe5126f8	-0.20425022
217	0x3ec75962	0.3893538
218	0x3f69f626	0.9139122
219	0xbf029382	-0.5100633
220	0xbe5e408b	-0.21704309
221	0x3d19efd5	0.037582237
222	0x3e0eb266	0.13935241
223	0x3d449a8a	0.047998942
224	0xbe529a0f	-0.20566581
225	0x3f8b164d	1.0866181
226	0xbf04fb48	-0.51945925
227	0x3ee40040	0.4453144
228	0x3d50e1c2	0.05099655
229	0xbd5a1524	-0.053242818
230	0xbe218805	-0.15774544
231	0x3ecef9f1	0.40425065
232	0x3eae6116	0.34058446
233	0xbebbe78a	-0.36700088
234	0x3eb806a6	0.35942572
235	0xbeb404cc	-0.3515991
236	0xbef763f1	-0.48318437
237	0xbefea85f	-0.49737832
238	0x3e272274	0.16321737
239	0xbe5767b6	-0.21035656
240	0x3f0bb2a1	0.5456944
241	0x3d2f1961	0.042748813
242	0xbf07f348	-0.5310559
243	0x3e16a7af	0.14712404
244	0xbf2665b2	-0.64998925
245	0x3eaa5e31	0.33274987
246	0x3c1b66ce	0.00948496
247	0x3e3fc1e8	0.18726313
248	0xbe294a99	-0.16532363
249	0xbeaa7d99	-0.33298948
250	0xbf38718c	-0.7204826
251	0xbf1befed	-0.6091297
252	0x3e8f0364	0.27932274
253	0x3e5bd358	0.2146734
254	0xbe3e374f	-0.18575786
255	0xbecb9c72	-0.39767796

pi.logits_net.2.bias f4 [64]
0	0x3d0e0ece	0.034682088
1	0xbd59b3d6	-0.05315002
2	0xbe5a3589	-0.21309485
3	0x3e57e1fd	0.21082301
4	0x3db3ffca	0.08789022
5	0x3f1891e9	0.5959764
6	0xbe5d0528	-0.21583998
7	0x3d9e2c86	0.07723336
8	0x3e880c4b	0.2657188
9	0xbedd67f5	-0.43243375
10	0xbe96f0f4	-0.29480708
11	0xbe20476d	-0.15652247
12	0xbd822c17	-0.06356066
13	0x3e86be57	0.26317093
14	0xbe94b1d5	-0.29041925
15	0x3d192f3b	0.037398558
16	0x3eb62900	0.35578156
17	0xbe37c101	-0.17944719
18	0x3ec11ad3	0.37715778
19	0x3e9dd0fa	0.308235
20	0x3f098424	0.53717256
21	0x3dc77736	0.097395346
22	0x3e0ce60a	0.13759628
23	0x3ec8d003	0.392212
24	0x3ce0d783	0.027446514
25	0xbe2f8d90	-0.17143846
26	0xbf0e6de6	-0.5563644
27	0x3f1e619b	0.61867684
28	0xbe230f55	-0.15923817
29	0x3f1e7103	0.6189119
30	0x3e02f28c	0.12787837
31	0xbca35102	-0.019936088
32	0xbd9ee599	-0.07758636
33	0x3e373a56	0.17893347
34	0x3e4f54e9	0.20247234
35	0xbe3c91f7	-0.18415056
36	0x3f334b54	0.70036817
37	0x3dd46e3c	0.10372588
38	0xbcb67355	-0.022271791
39	0xbe5d3250	-0.21601224
40	0xbe5cc5f9	-0.21559896
41	0x3d465c0f	0.048427638
42	0x3e8b96be	0.27263445
43	0x3ddfaff6	0.10922234
44	0x3da5c0e1	0.08093429
45	0xbe04d568	-0.12972033
46	0x3f10ff76	0.566398
47	0xbdd24e70	-0.10268867
48	0x3ba499e1	0.0050232266
49	0x3ea080f4	0.31348383
50	0x3bad895d	0.005295916
51	0xbd91907e	-0.07107638
52	0xbdb38566	-0.08765678
53	0x3ea70c2e	0.3262648
54	0xbf062cdd	-0.52412206
55	0x3e110897	0.14163433
56	0xbef28522	-0.47367197
57	0xbf538365	-0.8262237
58	0x3e246d97	0.1605743
59	0x3ef1dbc2	0.47237974
60	0xbe839604	-0.2570039
61	0xbe3549b9	-0.17703904
62	0xbe5f02d8	-0.21778429
63	0x3db9429a	0.09045906

pi.logits_net.4.weight f4 [87, 64]
0	0xbe85ca20	-0.26130772
1	0xbf7060ed	-0.93897897
2	0x3fc09e3f	1.5048293
3	0x3f4dea23	0.8043539
4	0x3ecab126	0.3958828
5	0x3f0aed01	0.5426789
6	0x3f177137	0.5915713
7	0x3e4dfa8e	0.2011511
8	0xbd64c54f	-0.05585223
9	0xbddf7c62	-0.10912396
10	0xbf35b342	-0.7097665
11	0xbf12f16f	-0.5739965
12	0xbf910e5d	-1.1332508
13	0x3f40e335	0.7534669
14	0xbe8ea725	-0.27861896
15	0xbf876b04	-1.0579534
16	0xbcfa4fc9	-0.030555623
17	0xbea27762	-0.31731707
18	0xbe03885e	-0.12844989
19	0x3f30b61f	0.69027895
20	0x3ea49665	0.32145992
21	0x3e19ed68	0.1503197
22	0x3f2e8374	0.6816933
23	0x3eab58ce	0.3346619
24	0x3e5d46a2	0.21608976
25	0x3ea76012	0.32690483
26	0xbf07f44b	-0.53107136
27	0x3ed65625	0.41862598
28	0xbf136d79	-0.57588917
29	0x3ec42d3c	0.3831576
30	0xbe95dc6d	-0.29269734
31	0x3f1ea5da	0.6197182
32	0xbf0a8305	-0.5410617
33	0x3ec03cc4	0.3754636
34	0x3f36d2f8	0.7141566
35	0x3e25fcae	0.16209671
36	0x3f706643	0.9390604
37	0xbe860f28	-0.26183438
38	0xbe31a14a	-0.17346683
39	0x3e308e71	0.17241837
40	0xbf2e565e	-0.68100536
41	0x3f76a298	0.9634185
42	0x3f20d0c9	0.6281858
43	0xbc22a65e	-0.00992736
44	0x3ef5351c	0.47892082
45	0x3f3d64c0	0.7398186
46	0x3f031d47	0.5121655
47	0xbd5dda9b	-0.054163557
48	0x3fa11ea3	1.2587475
49	0x3ee1d508	0.44107842
50	0x3e93dfd0	0.28881693
51	0xbec1dfa2	-0.3786593
52	0xbdd24b14	-0.10268226
53	0x3cf2f3f1	0.029657336
54	0x3d97a756	0.07404964
55	0x3f89b63a	1.0758736
56	0xbebb2f64	-0.36559594
57	0xbf2aec22	-0.6676656
58	0x3f672e88	0.90305376
59	0x3e63a921	0.22232486
60	0x3d7064f6	0.058690034
61	0x3f034336	0.5127443
62	0xbe942bb7	-0.28939602
63	0xbf9ec534	-1.2403932
64	0x3f188d9e	0.5959109
65	0xbf4d0f72	-0.8010169
66	0x3f2f6cc4	0.6852534
67	0xbecd3593	-0.40079936
68	0x3f102667	0.563086
69	0x3e09490a	0.13406768
70	0xbf4d8b7a	-0.8029095
71	0x3f21f906	0.63270605
72	0xbebfa889	-0.3743327
73	0xbeb0252d	-0.34403363
74	0xbef24cbb	-0.47324166
75	0xbefbeb3b	-0.49202904
76	0xbf3c8b51	-0.7365008
77	0x3e8dd25c	0.27699554
78	0xbe67aa10	-0.22623467
79	0xbf35a135	-0.7094911
80	0x3f53227e	0.82474506
81	0x3f4d258d	0.8013542
82	0x3f075fb6	0.5288042
83	0x3e6d7921	0.23190738
84	0x3edd7ee6	0.43260878
85	0xbe439ad6	-0.19102034
86	0x3ec70648	0.3887198
87	0x3f2716a2	0.6526891
88	0x3f030bda	0.5118996
89	0xbf4424e2	-0.7661878
90	0xbeaa832e	-0.33303207
91	0x3eec5f2c	0.4616636
92	0xbf769413	-0.96319693
93	0x3d82dc4c	0.063896745
94	0xbec721c3	-0.38892946
95	0xbde8f83c	-0.11375472
96	0xbefccf6e	-0.49377006
97	0x3ea11188	0.31458688
98	0x3e92deb0	0.28685522
99	0xbeab2b6c	-0.33431566
100	0xbcec172d	-0.028819645
101	0x3f363399	0.7117248
102	0xbf6f4759	-0.9346824
103	0x3f392a87	0.72330517
104	0xbdff5be3	-0.12468698
105	0xbeddde6d	-0.4333376
106	0x3ed7a687	0.42119238
107	0x3f319867	0.6937317
108	0x3e0ae1b2	0.13562658
109	0xbe8f02ca	-0.27931815
110	0x3e43b4c0	0.1911192
111	0xbe48ea97	-0.19620739
112	0x3f3d85b7	0.7403216
113	0x3e931c1d	0.28732386
114	0x3f3cd8d4	0.73768353
115	0xbf438aeb	-0.76383847
116	0xbf78887f	-0.97083277
117	0x3eab18a3	0.33417234
118	0xbed2f031	-0.41198877
119	0xbfa44380	-1.2833099
120	0xbec31cf7	-0.38108036
121	0xbdb280d1	-0.08715976
122	0x3f01be0e	0.50680625
123	0x3ecb52e3	0.39711675
124	0xbe55baa2	-0.20871976
125	0xbf6b6218	-0.91946554
126	0xbe9b4b2b	-0.30330786
127	0xbf5cb204	-0.8620913
128	0x3e6ddad4	0.23228008
129	0x3f29271b	0.66075295
130	0xbeae5714	-0.3405081
131	0xbf6d4b85	-0.9269336
132	0x3f37c342	0.71782315
133	0x3f44090a	0.7657629
134	0xbe2d5fa4	-0.16931015
135	0x3f576d48	0.84151125
136	0x3f089b68	0.5336213
137	0xbf06ffbd	-0.52733976
138	0xbecae469	-0.39627388
139	0xbf07bcce	-0.5302247
140	0xbf182a4d	-0.59439546
141	0x3f1b3550	0.60628223
142	0xbe8f62fc	-0.28005207
143	0x3f82d5e3	1.0221523
144	0x3ee3beaf	0.44481418
145	0x3efb211e	0.49048704
146	0xbea56fb0	-0.32311773
147	0x3f33ef28	0.702868
148	0x3ea24e38	0.317003
149	0xbf5c6700	-0.86094666
150	0x3e5bc768	0.21462786
151	0xbdf08921	-0.11744905
152	0xbe7e17f9	-0.24813832
153	0xbe92fcd2	-0.28708512
154	0xbec3578b	-0.38152727
155	0x3e9c39e9	0.30512932
156	0xbee3a519	-0.44461897
157	0x3f4f0e61	0.80881315
158	0x3eb0adee	0.34507698
159	0x3e253ce0	0.16136503
160	0xbf37a2f9	-0.7173305
161	0x3bc2c359	0.0059436974
162	0x3f24c6f5	0.64366084
163	0xbea7933b	-0.32729515
164	0x3b28a670	0.002573397
165	0xbf837814	-1.027102
166	0xbf7dccf6	-0.9914087
167	0x3f183f5b	0.5947167
168	0x3f08b35f	0.533987
169	0x3e42f7f0	0.19039893
170	0x3f8fd832	1.1237853
171	0x3f1554e4	0.5833266
172	0xbf4d7ef2	-0.8027183
173	0xbf944d28	-1.1586046
174	0x3ef5f92e	0.48041672
175	0xbf21fa93	-0.6327297
176	0x3f4394ac	0.7639873
177	0x3f47cd80	0.78047943
178	0x3eb510dc	0.35364425
179	0xbf421ba6	-0.7582344
180	0xbf9837a4	-1.189198
181	0x3ed75175	0.42054334
182	0xbeea849e	-0.45804304
183	0xbe10091f	-0.1406598
184	0xbdc2f7ce	-0.09519921
185	0x3ef4a68f	0.47783324
186	0x3f14743e	0.5798987
187	0x3f30ed6e	0.6911229
188	0xbf0fd308	-0.56181383
189	0xbe5e339b	-0.21699373
190	0xbefed4ea	-0.49771816
191	0xbd1714ba	-0.036885
192	0x3fac3b99	1.3455688
193	0x3f10603d	0.5639685
194	0x3f66461a	0.89950716
195	0xbc4751ee	-0.01216553
196	0x3eefa958	0.46808887
197	0x3e180ae5	0.14847906
198	0xbe31c705	-0.17361076
199	0x3dfe4723	0.12415912
200	0x3e18d0ef	0.14923452
201	0xbeb88b60	-0.36043835
202	0xbe99d254	-0.3004328
203	0xbf5e80d7	-0.86915344
204	0xbe63a260	-0.2222991
205	0x3ec5f922	0.38666636
206	0x3eb5522f	0.35414264
207	0x3ecd8b4a	0.40145332
208	0x3f234be9	0.63787705
209	0x3e0228d1	0.12710883
210	0x3e30e745	0.17275722
211	0x3f107129	0.5642267
212	0x3f214e23	0.6300985
213	0xbfac4c54	-1.3460793
214	0x3dd87c5a	0.10570593
215	0x3f0539b0	0.5204115
216	0xbe2c3ffb	-0.16821282
217	0x3f22ff25	0.6367057
218	0xbc16d289	-0.009205469
219	0x3ee3c76a	0.44488078
220	0x3ead428f	0.33839843
221	0x3e97f1a2	0.2967654
222	0x3e954bbf	0.29159352
223	0x3e341d31	0.1758926
224	0xbe4e47da	-0.20144597
225	0x3e975bb0	0.2956214
226	0x3f473214	0.7781079
227	0xbead7529	-0.3387845
228	0x3efe5cd1	0.49680188
229	0xbf242b93	-0.6412899
230	0x3c0e62a4	0.00869051
231	0xbf6f83d8	-0.9356055
232	0x3eff7659	0.4989498
233	0xbd5c7c8b	-0.05382971
234	0xbd12ff7c	-0.03588818
235	0x3ed70312	0.4199453
236	0xbf91b873	-1.1384414
237	0xbf3f2aa2	-0.7467443
238	0x3edf86c0	0.43657494
239	0xbf0c3855	-0.54773456
240	0x3f1fae9c	0.6237581
241	0xbe857dc0	-0.26072502
242	0xbdb9a91a	-0.09065457
243	0xbe615ee7	-0.22008859
244	0xbdeb03e8	-0.114753544
245	0x3db4679c	0.088088244
246	0xbf1d0dca	-0.61349165
247	0x3ef69283	0.48158655
248	0xbf606bfe	-0.87664783
249	0xbec0af82	-0.37633902
250	0x3f23ffa4	0.6406195
251	0x3e4b942f	0.19880746
252	0xbea71556	-0.32633466
253	0x3ec8737a	0.39150602
254	0xbed18374	-0.40920603
255	0xbf719e3c	-0.9438207

pi.logits_net.4.bias f4 [87]
0	0x3f038f67	0.5139069
1	0x3e57c3ba	0.21070758
2	0x3ea5e9ce	0.3240494
3	0x3ed40160	0.414073
4	0x3eb61c24	0.35568345
5	0x3f0dbcca	0.55366194
6	0x3edd8a91	0.4326978
7	0x3f26fc13	0.65228385
8	0x3f10d4f2	0.5657493
9	0x3f28cb21	0.6593495
10	0x3eb5ffc4	0.35546696
11	0x3e9e99a8	0.30976605
12	0x3ea26d43	0.31723985
13	0x3f3f16fa	0.74644434
14	0x3f182457	0.5943045
15	0x3f053bb5	0.5204423
16	0x3de303cb	0.11084708
17	0x3f090ea7	0.5353798
18	0x3f0c8482	0.5488969
19	0x3e6d9335	0.23200686
20	0x3edd57e9	0.43231133
21	0x3f438f78	0.7639079
22	0x3e971272	0.2950626
23	0x3efd39c1	0.49458125
24	0x3eb270fe	0.3485183
25	0x3ebfffd1	0.3749986
26	0x3ecdbb7c	0.40182102
27	0x3ebbafc2	0.3665753
28	0x3f1a6206	0.6030582
29	0x3eafdc64	0.34347832
30	0x3ed7f1ea	0.42176753
31	0x3f15515e	0.5832728
32	0x3ee6c6fa	0.45073682
33	0x3f19ee12	0.6012889
34	0x3ef00c4e	0.46884388
35	0x3ef1fd04	0.47263348
36	0x3f1ce6bf	0.6128959
37	0x3e33632a	0.17518297
38	0x3eb4880b	0.35260043
39	0x3edbf029	0.42956665
40	0x3ea39de5	0.319564
41	0x3e99c0d0	0.30029917
42	0x3e5d76e3	0.21627383
43	0x3e1e8bb3	0.15482979
44	0x3f1b41dd	0.60647374
45	0x3f0b0cdb	0.5431649
46	0x3f3d330b	0.7390601
47	0x3ec48874	0.38385355
48	0x3e75ed78	0.24016368
49	0x3f1e3386	0.6179737
50	0x3e4da523	0.20082526
51	0x3eaad9f3	0.33369407
52	0x3e8128cc	0.25226438
53	0x3f0756e3	0.52866954
54	0x3e641102	0.22272113
55	0x3eec15f4	0.461105
56	0x3eb2b4d4	0.34903586
57	0x3ecc796d	0.3993639
58	0x3f2e639e	0.68120754
59	0x3ebc9b04	0.36837018
60	0x3f03f41d	0.5154436
61	0x3efd87b7	0.49517605
62	0x3eaf51c5	0.34242073
63	0x3ee513a4	0.44741547
64	0x3f28e683	0.6597673
65	0x3f0f43ea	0.55963004
66	0x3ebf08ce	0.37311405
67	0x3eba2244	0.36354268
68	0x3ed78fc0	0.4210186
69	0x3ec07096	0.37585896
70	0x3e390220	0.18067217
71	0x3f75ca2a	0.960116
72	0x3f0683bb	0.52544755
73	0x3ec817ba	0.39080602
74	0x3eb63e7b	0.35594544
75	0x3e97e8ba	0.29669744
76	0x3e497800	0.19674683
77	0x3f0959df	0.5365276
78	0x3ef89ce9	0.48557213
79	0x3e93eaa3	0.2888995
80	0x3ee305bb	0.4434031
81	0x3ec40e6d	0.38292256
82	0x3ef9bb1a	0.4877556
83	0x3e750743	0.23928551
84	0x3ecf2fb8	0.40466094
85	0x3eb16728	0.34649014
86	0x3ef79457	0.48355362

v.v_net.0.weight f4 [64, 282]
0	0xbee3837d	-0.44436255
1	0x3f3ec0d1	0.74512964
2	0xbf9b58ca	-1.2136471
3	0xbf377f9a	-0.7167908
4	0xbf95bfc4	-1.1699147
5	0xbf9ba49c	-1.215961
6	0xbf0f4d27	-0.559771
7	0xbf0bd72f	-0.5462522
8	0xbf947bb6	-1.1600254
9	0xc011dde9	-2.2791693
10	0x3f540c83	0.8283159
11	0x3f50f603	0.81625384
12	0xbedc688c	-0.43048513
13	0xbf93d25e	-1.1548574
14	0xbf996d5c	-1.1986499
15	0xbf33f7d2	-0.7030002
16	0xbedc6948	-0.43049073
17	0x3f2ffefb	0.68748444
18	0xbf9cf6f6	-1.2262866
19	0xbf0061e9	-0.501494
20	0xbefc16f3	-0.4923626
21	0xbf09348b	-0.535958
22	0x3fa90910	1.3205891
23	0xbf9d2986	-1.2278297
24	0xbfa73134	-1.3061891
25	0xbf9a37ca	-1.2048275
26	0xbf0b9e64	-0.5453856
27	0xbf022b8b	-0.5084769
28	0xbf01098e	-0.50405204
29	0xbf04d9b6	-0.518947
30	0xbf92ee52	-1.147898
31	0xbf98cbe2	-1.193722
32	0x3f397ec7	0.7245907
33	0xbf99c47a	-1.2013085
34	0xbf0b1d14	-0.54341245
35	0xbeffe1b2	-0.4997688
36	0xbeefb420	-0.46817112
37	0xbf97fdee	-1.1874368
38	0xbf90be3e	-1.1308057
39	0xbf9f344e	-1.2437837
40	0xbf94536e	-1.1587961
41	0x3f510f5d	0.8166407
42	0xbf92a730	-1.1457272
43	0xbf9dc840	-1.2326736
44	0x3fa48a6e	1.2854745
45	0xbf927cb2	-1.1444304
46	0xbf9656b0	-1.1745205
47	0xbf90ab70	-1.1302319
48	0x3f40fcdb	0.75385827
49	0xbefec68c	-0.49760854
50	0xbf082bb8	-0.5319171
51	0xbf024e48	-0.509007
52	0x3f4425a5	0.7661994
53	0xbf92b6ae	-1.1462
54	0x3f53c913	0.8272869
55	0xbf94d176	-1.1626422
56	0x3f43b2dd	0.764448
57	0xbf096c50	-0.53680897
58	0xbf992532	-1.1964476
59	0xbf02466c	-0.50888705
60	0xbf04395a	-0.5165001
61	0xbf9498b4	-1.1609101
62	0xbf12e17b	-0.57375306
63	0x3f47776d	0.77916604
64	0x3f4d35e1	0.8016034
65	0xbf9a753e	-1.206703
66	0xbfc02cda	-1.5013688
67	0x3f53c367	0.82720035
68	0x3f804258	1.0020247
69	0xbef77f6b	-0.483394
70	0x3f4e25e5	0.8052657
71	0xbef8d89e	-0.48602766
72	0xbf956ca2	-1.1673777
73	0x3f72e125	0.94874793
74	0x3f3e544d	0.7434738
75	0xbf08b0ab	-0.53394574
76	0x3f51297b	0.8170392
77	0xbf0bb423	-0.5457174
78	0xbf450378	-0.7695842
79	0xbf99d182	-1.2017062
80	0x3f40da01	0.7533265
81	0xbf928200	-1.1445923
82	0xbef29c8b	-0.47385058
83	0xbf0a322c	-0.53982806
84	0xbf9bbca0	-1.2166939
85	0xbf003b26	-0.50090253
86	0x3f5761bf	0.84133524
87	0xbfa14573	-1.2599319
88	0xbf5b2135	-0.85597545
89	0x3f9519f3	1.1648544
90	0x3f917ecb	1.1366819
91	0xbfc5bb54	-1.5447793
92	0xbfc698bf	-1.5515364
93	0xbed4042f	-0.41409442
94	0xbf6940cb	-0.9111449
95	0x3d1183fc	0.03552626
96	0xbf8d6242	-1.1045611
97	0xc0180ca2	-2.375771
98	0xbfa057b2	-1.2526762
99	0xbf080c5b	-0.5314385
100	0x3f359485	0.7092975
101	0xbfae0e38	-1.3598089
102	0x3fca4cfa	1.5804741
103	0xbfbe6b5e	-1.4876516
104	0x3fc3fb13	1.5310997
105	0xbef62df4	-0.48081934
106	0xbe8e12b1	-0.27748635
107	0xbfda8481	-1.7071687
108	0x3eb50c3c	0.35360897
109	0x3f8da303	1.1065372
110	0xc0856021	-4.1679845
111	0x402602dc	2.5939245
112	0x3ff2bb01	1.8963319
113	0xc003dc6a	-2.060328
114	0x3f8bebd0	1.0931339
115	0x3f56d044	0.8391154
116	0x3f4e8511	0.80671793
117	0xbfaa6d07	-1.3314523
118	0x3fb31be8	1.3992891
119	0xbf9d8aab	-1.2307943
120	0xbf5aecb5	-0.85517436
121	0x3de7960c	0.11307916
122	0xbeb14df0	-0.34629774
123	0xbf78e846	-0.9722942
124	0x3ff233ed	1.8922096
125	0xbff483df	-1.9102744
126	0x3fd9da85	1.7019812
127	0xbed4502e	-0.41467422
128	0xc00cab47	-2.197954
129	0x3f337366	0.7009796
130	0x3f816268	1.0108156
131	0xbfb3e684	-1.4054723
132	0x3db690dc	0.089143485
133	0xbf5dece4	-0.8668959
134	0xbf0b3866	-0.5438293
135	0xbf79e7cf	-0.97619337
136	0xbf0c8b38	-0.5489993
137	0x3e371dae	0.17882416
138	0xbf5e9201	-0.86941534
139	0xbf30cf29	-0.690661
140	0xc02849fc	-2.6295156
141	0xc02c2979	-2.6900313
142	0xc04cbaec	-3.1989088
143	0x3e5ca16b	0.21545951
144	0x3f94fb3e	1.1639173
145	0x3e9cb51a	0.3060692
146	0xc0116f3d	-2.2724144
147	0x3f1ae128	0.6049981
148	0xbfb63d71	-1.42375
149	0x3d50e5df	0.051000472
150	0xbf8f63a5	-1.1202284
151	0xbe520bf0	-0.20512366
152	0x3eabe843	0.3357564
153	0xbee0ed04	-0.4393083
154	0xbfd5149e	-1.6646917
155	0x3d5b35fc	0.05351828
156	0xc01cac1f	-2.4480054
157	0x3fecddb1	1.8505155
158	0xbec2cb2c	-0.38045633
159	0xbda2c1de	-0.079471335
160	0x3fa8da6b	1.3191656
161	0xbf6c1d08	-0.922318
162	0xbeb12cde	-0.34604543
163	0x3eff9936	0.49921578
164	0x3f231c9c	0.6371553
165	0x3f45e62d	0.77304345
166	0xbdab2bbf	-0.08357953
167	0xc00fd785	-2.2475293
168	0xc019a7f8	-2.400877
169	0x3e037830	0.12838817
170	0x402b40b0	2.6758232
171	0xbf002224	-0.50052094
172	0xbefc3994	-0.4926268
173	0xbfa77a45	-1.3084189
174	0x3f713f69	0.9423738
175	0xbeedc046	-0.46435755
176	0x400e4407	2.222902
177	0xc02a2a75	-2.6588414
178	0x3f1c5df1	0.61080843
179	0xbd175d65	-0.036954302
180	0x403bc643	2.933976
181	0x3f6c01bf	0.92190164
182	0xbfd13a2a	-1.6345875
183	0xbf3d6ed4	-0.73997235
184	0x3f9d895a	1.2307541
185	0xc0b8471a	-5.7586794
186	0xc10107e7	-8.064429
187	0x3ed10cf2	0.4083019
188	0xbe2acccb	-0.16679685
189	0x402f7b43	2.7418983
190	0xbfff9cb0	-1.9969692
191	0xbf19bbeb	-0.60052365
192	0xbf8e17a8	-1.1100969
193	0xc025e473	-2.5920684
194	0xbf8dd5b7	-1.1080846
195	0x3fddeae3	1.7337307
196	0x3f938f18	1.1528044
197	0xc03d9673	-2.9623077
198	0xbeebc4d1	-0.46048597
199	0xbf0222ed	-0.5083454
200	0xbf0e7f76	-0.5566324
201	0x3f696b63	0.91179484
202	0x3fb61e5f	1.4228019
203	0xc049f7b8	-3.1557446
204	0x3f3ad6fc	0.7298429
205	0x3fc0f9da	1.5076249
206	0xbf7ca2eb	-0.98686093
207	0x3f89d6d3	1.0768684
208	0x3f530e40	0.8244362
209	0x3ff904d1	1.9454595
210	0x3f36686c	0.71253085
211	0x3f0a70d5	0.5407842
212	0xbf23fedf	-0.6406078
213	0xbf9738b9	-1.1814185
214	0x3fec693e	1.8469617
215	0xc043234d	-3.0490296
216	0x3f93e5d9	1.1554519
217	0xbe93355c	-0.28751647
218	0x3f56402d	0.83691674
219	0x4056d8df	3.3569868
220	0x3e909602	0.28239447
221	0xc007dd93	-2.1228988
222	0xc035548d	-2.8332856
223	0x3f99d247	1.2017297
224	0x4026b196	2.604589
225	0x3f9d86d2	1.2306769
226	0xc00cb6a1	-2.1986468
227	0xbeeb380a	-0.45941192
228	0xc0a20355	-5.0629067
229	0x3e9d622e	0.30738968
230	0xc036b2fd	-2.8546746
231	0x3d9bfc26	0.07616453
232	0xbf169fed	-0.5883778
233	0xbf01871a	-0.50596774
234	0x3fb1fb24	1.3904767
235	0xc0304532	-2.7542233
236	0x3f08a647	0.5337872
237	0xc00125af	-2.017925
238	0xbff4c9e2	-1.912411
239	0xbfda0989	-1.703416
240	0xbfb1712c	-1.3862662
241	0x3fc39a76	1.5281513
242	0xc011cf47	-2.2782762
243	0x4001c3c5	2.0275738
244	0x3fc04947	1.5022362
245	0xbfd27151	-1.6440831
246	0xbed13825	-0.40863147
247	0x3e8d0bf7	0.2754819
248	0xbec1d83b	-0.37860283
249	0xbf8e0bf0	-1.1097393
250	0x3f9d50ed	1.2290322
251	0xbe24c223	-0.16089682
252	0xbf901d20	-1.1258888
253	0xbdc3f1d5	-0.0956761
254	0x3f06bb50	0.52629566
255	0x3fb3ea5b	1.4055895

v.v_net.0.bias f4 [64]
0	0xc0ee03e4	-7.437975
1	0xbf4e42cc	-0.80570674
2	0xbfd30f92	-1.6489127
3	0x3f7ca091	0.98682505
4	0x401446c7	2.31682
5	0x40251d87	2.5799272
6	0xbe5716a5	-0.21004732
7	0x3e7a3dd6	0.24437651
8	0xbf0ed5fe	-0.55795276
9	0x3ffa81fd	1.9570919
10	0x3fc9ced1	1.576624
11	0x3eaffebf	0.34374043
12	0x3ef3bd38	0.476053
13	0xbf9fae59	-1.2475082
14	0xbef4edd1	-0.4783769
15	0x3fe9c081	1.8261873
16	0x3f7aaab0	0.979167
17	0x3f962613	1.1730369
18	0xbfad09ff	-1.3518676
19	0xbf52ee69	-0.82395035
20	0x407c536e	3.9425921
21	0x3fc58e4c	1.543405
22	0x3f926d25	1.1439558
23	0xc05f730d	-3.4913971
24	0xbffd3f4e	-1.9784944
25	0xc0a52232	-5.160424
26	0xbd46e4a7	-0.048557904
27	0xbff45d5a	-1.9090989
28	0x405556dd	3.3334267
29	0x3f29ca0d	0.6632393
30	0x401ebffb	2.4804676
31	0x401e71bb	2.4756916
32	0x40119ca0	2.2751846
33	0xc06adb68	-3.6696415
34	0xbf84fc7f	-1.0389556
35	0x401f4ab3	2.4889343
36	0xbfb7f49f	-1.4371527
37	0x3ebed1cc	0.37269437
38	0x3fd2e056	1.6474712
39	0x4007bd52	2.1209302
40	0xc0458d13	-3.0867355
41	0x405e0f7e	3.4696956
42	0x3ed51f4c	0.4162544
43	0x3fe91bcc	1.8211608
44	0xc0ce5857	-6.4482837
45	0xbe9d2a81	-0.3069649
46	0x3ffc9a54	1.9734597
47	0xbeb47747	-0.3524725
48	0xc02eddab	-2.7322795
49	0x3fb7de7b	1.4364771
50	0x4098c384	4.7738667
51	0xbf62ce2c	-0.88595843
52	0x40631d08	3.548647
53	0x404fe492	3.2483258
54	0x3ecc4a2d	0.39900342
55	0xbd845409	-0.06461341
56	0x404c25f2	3.189816
57	0xc00bcf4f	-2.184528
58	0x40b455e8	5.6354866
59	0x3f91d5cf	1.1393374
60	0x3f6cfbb2	0.92571557
61	0x3e2721c8	0.1632148
62	0xbf8aab82	-1.083359
63	0x40944d14	4.634409

v.v_net.2.weight f4 [64, 64]
0	0xc0249a55	-2.5719197
1	0x3fa5a01f	1.293949
2	0x3f008510	0.5020304
3	0x409da012	4.92579
4	0xc007b9eb	-2.1207225
5	0xc08d2784	-4.4110737
6	0xbfc9ea99	-1.5774719
7	0xbf1cb4b7	-0.6121325
8	0x4078c94e	3.8872867
9	0xbf826896	-1.0188167
10	0xc0823a30	-4.069603
11	0x40556f8a	3.3349328
12	0x3f0d2613	0.5513622
13	0x3f850b7a	1.0394127
14	0x3ee040c4	0.43799412
15	0x3fd93bbf	1.6971358
16	0x3d8799b6	0.06621115
17	0x3e21b8f2	0.15793207
18	0xbfd3ad6c	-1.6537299
19	0xbdd8ec95	-0.105919994
20	0xbdc3ee0c	-0.09566888
21	0xbfd5bbba	-1.6697915
22	0x3fb5b377	1.4195393
23	0x3eeaa182	0.45826346
24	0xbfee90b8	-1.8637915
25	0x3e9cb801	0.30609134
26	0xbfed2315	-1.8526331
27	0xbf26e22f	-0.6518888
28	0x3f2c4562	0.6729337
29	0xbd5c83be	-0.053836577
30	0x3fcdf5e8	1.609067
31	0x40695ec4	3.646409
32	0x401b7ec1	2.4296114
33	0xc00bb315	-2.1828053
34	0x3f91698d	1.1360337
35	0xc084a2b0	-4.1448593
36	0x3f0d0e20	0.5509968
37	0x405f5cb1	3.4900324
38	0x3f2d9518	0.67805624
39	0xbeb47cc0	-0.35251427
40	0x3e325fa0	0.1741929
41	0xc07717b1	-3.860821
42	0xbf79e6a9	-0.97617584
43	0x40a512b8	5.158535
44	0x4085044b	4.156774
45	0xc027711e	-2.6162791
46	0xc04343b4	-3.0510073
47	0x3ef6710b	0.4813312
48	0xbf24ff9d	-0.64452535
49	0x3e6d0c51	0.2314923
50	0xbf0af8f2	-0.5428611
51	0x3f7e0039	0.9921909
52	0x3f6e8a41	0.9317971
53	0x3f5fad3e	0.8737372
54	0xc0678d55	-3.6180012
55	0x3fc9fa72	1.5779555
56	0x3df1943e	0.11795853
57	0xc04aa75f	-3.1664655
58	0x402ca4cc	2.6975584
59	0xbfb0d8a9	-1.381612
60	0xc02aa230	-2.6661491
61	0x40300d54	2.7508135
62	0xbf09968c	-0.5374534
63	0x3ffd3682	1.978226
64	0xc048e9c7	-3.1392686
65	0x3f50d875	0.8158029
66	0x3fdd4034	1.7285218
67	0xbf76d29d	-0.9641512
68	0x3e9bced5	0.30431238
69	0xc09c9599	-4.8932614
70	0xc0b2d405	-5.5883813
71	0x3fa3fd22	1.2811625
72	0xbdc2bba3	-0.09508445
73	0x3f042324	0.5161612
74	0xbf8fefcd	-1.1245056
75	0x3f8b2d43	1.0873188
76	0xbff485a0	-1.9103279
77	0x3efef7b0	0.49798346
78	0x3dc8316a	0.0977505
79	0x3f57c4db	0.8428475
80	0xc006a48f	-2.1037939
81	0x3f9d54cc	1.2291503
82	0xbfb785d2	-1.4337714
83	0xc066bee3	-3.6054008
84	0x3fe8b160	1.817913
85	0xc00e7fea	-2.2265573
86	0xbf87757d	-1.058273
87	0xbeb1832c	-0.3467039
88	0x4077fd9e	3.8748546
89	0xbf6dfdf1	-0.9296561
90	0xc042d02f	-3.0439565
91	0x3fef04f3	1.8673385
92	0x3f974189	1.1816875
93	0x3fb65a2b	1.4246267
94	0xc015e9e2	-2.3424
95	0xbe32306a	-0.17401281
96	0xbf9eab32	-1.2395995
97	0xc062b7ea	-3.5424752
98	0xc04f8a7c	-3.2428274
99	0x40c6be7e	6.2107534
100	0xc0283427	-2.6281831
101	0x40c14abb	6.0403724
102	0x409a6a6b	4.8254905
103	0xc0169144	-2.3526163
104	0x3e34de63	0.17662959
105	0x4054f909	3.3277
106	0x408ebf0a	4.46082
107	0xbf279116	-0.6545576
108	0x3f71e80b	0.94494694
109	0x4097e4fa	4.7467012
110	0xbf3fd89b	-0.7493989
111	0x3fdf7c2a	1.7459767
112	0xbf96db8f	-1.1785754
113	0xc05e1a89	-3.4703696
114	0xc0535650	-3.302143
115	0x404c38fd	3.1909783
116	0x3e123655	0.14278539
117	0x40855153	4.1661773
118	0xbe6deadd	-0.23234124
119	0xc01f706c	-2.4912367
120	0xbf87a3a8	-1.0596819
121	0xbff95e88	-1.9481974
122	0xbfb1bad9	-1.3885146
123	0x3f7e2377	0.99272865
124	0xc1096a2f	-8.588424
125	0x4011f9b6	2.2808661
126	0xbf1f61c0	-0.6225853
127	0xc09c31b1	-4.881066
128	0x40289f35	2.6347172
129	0x3f028c96	0.5099577
130	0x405a3ab2	3.4098325
131	0x3f483f16	0.7822126
132	0x3fdb7032	1.7143614
133	0x40d1c090	6.554756
134	0x402466e2	2.5687795
135	0x3f5b73d9	0.85723644
136	0xc0089425	-2.134042
137	0x401f47e7	2.4887636
138	0xc11470ff	-9.277587
139	0xc02db713	-2.714299
140	0xc04efd8a	-3.2342248
141	0x3d4b048b	0.04956488
142	0xbeb6caf7	-0.35701725
143	0xbe5ad7c0	-0.21371365
144	0xbfc41f1a	-1.5321991
145	0x400bb19f	2.1827161
146	0xbfcfc8ed	-1.6233193
147	0x3fb120ff	1.3838195
148	0xc099ec56	-4.8100996
149	0xc00f5119	-2.2393248
150	0xc00170a0	-2.022499
151	0xc02cb064	-2.698266
152	0x3fb108b2	1.3830779
153	0x400b3cc0	2.175583
154	0xbfa4042f	-1.2813777
155	0x3fcd3eb5	1.6034762
156	0x3e4447be	0.19167992
157	0x402a82f4	2.6642427
158	0xbf32eae8	-0.6988969
159	0x3ea8e83c	0.3298968
160	0xc03dcfea	-2.965815
161	0x3d8b61bb	0.0680575
162	0x403c9f75	2.9472325
163	0xc03b97bd	-2.9311364
164	0x40591fa6	3.3925567
165	0x3f8772a9	1.0581867
166	0xc0937ddb	-4.609113
167	0x3f7e06d2	0.99229157
168	0xbea476df	-0.3212194
169	0xc035b941	-2.839432
170	0xbf4c21bb	-0.7973897
171	0xbf10a4be	-0.56501377
172	0xbf4637c4	-0.7742884
173	0x40823424	4.068865
174	0x401b1055	2.4228718
175	0x3fdd4534	1.7286744
176	0x4001f66c	2.0306654
177	0xbf696cf5	-0.9118188
178	0xc09ac644	-4.8367023
179	0x3f859ed5	1.0439097
180	0xbfb76b9e	-1.4329717
181	0xbfd603c9	-1.6719905
182	0xbe9528a7	-0.29132578
183	0xc04e84ef	-3.2268636
184	0xbec93d25	-0.39304462
185	0xbf248906	-0.6427158
186	0xbfe8f6e8	-1.820035
187	0x4039497b	2.89511
188	0x40193e0f	2.3944128
189	0xbff5bb6b	-1.919782
190	0xbfc115ce	-1.5084779
191	0xc0a71002	-5.220704
192	0x3cc1dc29	0.02366455
193	0xbe44afb4	-0.1920765
194	0x3f936bb5	1.1517245
195	0xc01be753	-2.435994
196	0x3fd2c42f	1.646612
197	0x3e1d86c6	0.15383443
198	0x3d802244	0.06256536
199	0x3fb67acc	1.4256225
200	0xbe77fb48	-0.2421695
201	0x3e26e6e2	0.16299012
202	0xbeb952a7	-0.3619587
203	0xbe53d09a	-0.20685044
204	0x3d0c655d	0.034276355
205	0x3d10b25d	0.03532635
206	0xbe1d3993	-0.15353994
207	0x3c6c3805	0.014417653
208	0xbe58ad07	-0.21159755
209	0x3da79747	0.08183151
210	0xbd9133b2	-0.07089938
211	0x40316658	2.7718716
212	0x3ba1c15b	0.00493638
213	0x3f4c512b	0.7981135
214	0xbf1b49c9	-0.6065946
215	0xbda8bf9c	-0.082396716
216	0xbaee70ab	-0.0018191537
217	0x3bc20f01	0.0059221988
218	0x3e2bc636	0.1677483
219	0xbec74f86	-0.3892786
220	0x3e763e7e	0.24047276
221	0x3e2f66f3	0.17129116
222	0x3e4565ac	0.19277066
223	0x3dc35087	0.09536844
224	0xbf27143b	-0.65265244
225	0x3ed9aaa4	0.42513
226	0xbd1410ab	-0.03614871
227	0x3e3f6fcd	0.18694992
228	0x3bb49f31	0.005512141
229	0x3e1dc67b	0.15407746
230	0xbcb80b04	-0.02246619
231	0x3ed255b5	0.41081014
232	0xbf79c987	-0.9757313
233	0x4166616b	14.398784
234	0x3d0542a4	0.032534257
235	0xbe1878aa	-0.1488978
236	0x3d21f1c5	0.03953721
237	0xbe7a5cab	-0.24449413
238	0x3ba6f666	0.005095291
239	0x3e94294d	0.2893776
240	0xbadb4b17	-0.0016730753
241	0xbd8fb827	-0.07017546
242	0xbdca3fab	-0.09875425
243	0xbe945545	-0.28971305
244	0xbd9d4356	-0.07678859
245	0xbe5cfa86	-0.21579942
246	0x3e9cc47a	0.3061865
247	0x3e9082ca	0.28224784
248	0xbd058991	-0.032601897
249	0x3c9d1073	0.019172883
250	0x3eeec1bf	0.46632192
251	0x3f75d7b3	0.96032256
252	0xbef967cd	-0.48712006
253	0xbddd4e0a	-0.108059004
254	0xbcdb71c4	-0.026787646
255	0x3e42a420	0.19007921

v.v_net.2.bias f4 [64]
0	0xbfb1e6d7	-1.3898572
1	0xbee3de29	-0.44505432
2	0x3f85619f	1.0420417
3	0x3f98c496	1.1934993
4	0xbfb6b528	-1.4274035
5	0xbecebf90	-0.40380526
6	0x3f10022a	0.562533
7	0x3f7d8599	0.9903198
8	0x3f9ebe3d	1.2401806
9	0x3f1bb997	0.6083006
10	0x3f6f6cde	0.93525493
11	0xbfb240d8	-1.3926039
12	0xc0098055	-2.1484578
13	0xbfb37f58	-1.4023237
14	0x3f6a587a	0.91541255
15	0xbec975cc	-0.39347684
16	0xbfa89288	-1.3169718
17	0xbf7ade57	-0.97995514
18	0x3f0ab0fa	0.54176295
19	0x3f905baa	1.1277974
20	0x4003b2e7	2.0577943
21	0xbf1df368	-0.61699533
22	0x3f9a1b4e	1.2039583
23	0xbe5e1311	-0.21686961
24	0xbea82cbc	-0.3284663
25	0xbf89b6ae	-1.0758874
26	0xbeebde90	-0.4606824
27	0xbf4ad1d0	-0.792264
28	0xbffc22fb	-1.9698175
29	0x3fba673e	1.4562757
30	0x3f97be83	1.1855015
31	0xbf963ebc	-1.1737895
32	0xbf24f09c	-0.6442964
33	0x3e9b72e6	0.30361098
34	0xbf4eea7e	-0.80826557
35	0xbeec8582	-0.46195608
36	0xbe39fc2e	-0.18162605
37	0x3fd3ed4f	1.6556796
38	0xbf6fa828	-0.9361596
39	0xbf9bddd7	-1.2177075
40	0x3f92bb31	1.1463376
41	0xbf91daef	-1.1394938
42	0x3f3808fa	0.718887
43	0x3f936298	1.1514463
44	0xbed15086	-0.40881747
45	0x3fad9272	1.3560317
46	0xbea70405	-0.32620254
47	0xbf80783a	-1.003669
48	0x3d1e9202	0.038713463
49	0x3e20ec21	0.15715076
50	0xbef18b0c	-0.47176397
51	0xbdf41460	-0.11917949
52	0xbd050996	-0.032479845
53	0xbeb837e5	-0.35980144
54	0xbda7c580	-0.08191967
55	0x3f512219	0.81692654
56	0x3faaa905	1.3332831
57	0xbf896164	-1.0732846
58	0xbeeca216	-0.46217412
59	0xbefe1841	-0.4962788
60	0xbdb58a79	-0.08864302
61	0x3f78e2f9	0.9722133
62	0x3e9b4fc8	0.30334306
63	0x4011de7b	2.2792041

v.v_net.4.weight f4 [1, 64]
0	0xc0e3bf76	-7.1171217
1	0x40b482a7	5.640949
2	0xc1031de5	-8.194798
3	0x41b7f02c	22.992271
4	0xc08ef97f	-4.467956
5	0x408e874e	4.4540167
6	0x40dcc5be	6.8991385
7	0x409d05ac	4.9069424
8	0x40cbc778	6.368099
9	0x40925407	4.5727572
10	0xc0af6bee	-5.481925
11	0x41141fd3	9.25777
12	0xc0b59164	-5.673998
13	0xc0c22aca	-6.0677233
14	0xc0bd5452	-5.916543
15	0xc10502a8	-8.3131485
16	0xc0d43f5a	-6.6327333
17	0xc0ee156c	-7.440115
18	0x40ad654c	5.4186153
19	0xc11ef61d	-9.935086
20	0xc1283e6f	-10.515243
21	0xc0c293d5	-6.080546
22	0x4097f8a8	4.7491035
23	0xc0c9f3c8	-6.3110085
24	0xc07b3419	-3.9250548
25	0xc098337d	-4.756285
26	0x409df3e2	4.936021
27	0xc0fdf15b	-7.9357123
28	0x4086e0dd	4.214949
29	0xc016fd5c	-2.3592138
30	0x40a6b28e	5.209296
31	0x40d561bf	6.668182
32	0xc0b86a33	-5.762964
33	0xc0de1c26	-6.940936
34	0xc09732dd	-4.724959
35	0x40b8b97b	5.7726417
36	0xc09e03bd	-4.9379563
37	0x40dd9d2b	6.9254355
38	0xc0d30f06	-6.595584
39	0x40af2abe	5.4739676
40	0x40e2c91a	7.0870485
41	0xc10707f5	-8.439443
42	0x40b48c0e	5.6420965
43	0x40951fa6	4.6601133
44	0xc0ba8245	-5.828402
45	0xc086ad5f	-4.2086635
46	0x40dece1a	6.962659
47	0x40acc975	5.399592
48	0x40ab054c	5.3443966
49	0x4072e28a	3.7950768
50	0x408a66b1	4.3250356
51	0x406b3cb7	3.6755807
52	0xc10b85fd	-8.720212
53	0xc0cbbfdc	-6.3671703
54	0xc0c4b24e	-6.1467657
55	0x40bb6720	5.8563385
56	0x40aeb4e5	5.459582
57	0x40ca5b85	6.323672
58	0x40417907	3.023012
59	0xc0b63d67	-5.6949954
60	0xc09c7408	-4.889164
61	0x409daf39	4.9276395
62	0xc082b6c1	-4.084809
63	0xc0867134	-4.2013187
