model_wts/s1_d1_m1.0_b0.0.ckpt (torch, 206875 bytes, 11 tensors)

pi.logits_net.0.weight f4 [64, 282]
-0.14711238 -0.09475374 0.05611641 -0.25122425 -0.12888798 -0.065014854 0.111660644 0.15420605
0.07593919 -0.14228125 -0.018194752 -0.06553078 -0.15604669 0.04445446 -0.105068974 -0.28453287
-0.16916437 -0.16015857 -0.0207695 -0.1926313 -0.19997245 0.08794543 -0.017807525 -0.12641379
-0.110714525 0.07051191 -0.17566338 -0.17879489 0.065699026 -0.14088021 -0.08409213 0.12414614
-0.029160129 -0.15498398 -0.26778114 0.09518884 0.17620067 0.057741392 -0.047341254 0.03998744
0.1260913 -0.059904892 0.11231844 0.068365544 -0.039198402 0.09826997 -0.104435734 -0.055312578
-0.05190518 0.117382795 -0.2684108 -0.20618823 -0.0023969533 0.053185765 -0.009152415 -0.025091588
-0.0712577 -0.25090966 0.103924036 -0.1926809 -0.24965525 0.10634072 0.1600625 0.018106217
-0.10185057 0.057858396 -0.11733934 -0.026013684 -0.07730526 -0.2200529 -0.0360713 0.1099477
0.09674896 -0.028717428 -0.015158556 0.13700536 -0.046814416 0.15342988 -0.3343192 0.097634956
-0.07658052 -0.117756315 0.12753236 -0.22130936 0.1026357 -0.21228379 -0.087647974 0.047017574
0.03984155 0.2019852 0.32792738 -0.5478435 0.44580585 0.25765976 0.10893324 0.020115621
0.5447104 -0.54839957 -0.51908016 0.0113308765 0.0730856 -0.018859006 0.14562576 -0.23190276
-0.2785083 -0.2654522 0.04844962 -0.49777633 0.28572306 -0.028317811 -0.076153256 -0.14410402
0.06275839 0.32905644 -0.00068806286 0.23721285 0.12576327 -0.03879278 -0.06801452 -0.5805585
-0.24609263 0.078800075 0.28506237 0.21324722 0.09518393 -0.4356212 -0.063971765 0.049172424
0.10651983 0.09647305 -0.049687486 0.15682636 0.035830915 -0.11110406 -0.1931823 -0.35250708
0.1839923 0.08738377 -0.058442846 -0.31782228 0.029434456 -0.30616307 -0.2007438 0.08952795
0.09241995 -0.060520217 -0.048312094 0.0031713846 0.0945909 0.24027342 -0.1279107 -0.26357752
0.063108765 -0.17372528 -0.39909688 -0.43416727 0.10203597 0.2638273 0.280607 -0.051137775
-0.24080756 -0.16506918 0.19128646 -0.2656157 0.07263238 0.00074950757 0.053277075 0.11127462
0.26117435 0.10976562 -0.01446442 0.062287297 -0.21320765 0.08017007 -0.06461349 -0.3668676
-0.47329858 -0.07925547 0.19012989 0.03898626 -0.3365429 -0.20163363 -1.2744222 -0.03923672
0.58274084 -0.14913017 -1.2789294 -0.1075607 0.2665943 0.4827706 -0.47183764 -0.1532947
-0.27471328 -0.036374707 0.28936765 -0.5023485 0.6527653 -0.6095335 -0.02742859 -0.21041548
0.18107623 -1.0280852 0.057694275 -0.06053392 0.29106706 -0.5071481 0.841615 -0.10573373
-0.15543504 0.57491803 1.0002416 0.044220805 -0.8030298 0.10402906 0.60430336 0.5265345
0.3243181 0.028974913 -0.41245538 0.24808523 0.024019158 0.44831932 0.17330986 0.31824026
1.1834171 0.8418958 -0.30725196 -0.26521027 0.4382737 -0.048068535 -0.24701971 0.42225093
-0.176466 0.48946676 0.15625651 -0.16771755 -0.30950686 0.032713756 0.21985942 0.26258874
-0.24181202 0.21564807 -0.15205492 -0.27925703 0.5167644 -0.16842864 -0.428529 0.56116545
-0.42058235 0.86963797 0.45648012 -0.5342534 0.17448685 0.4146595 0.94754475 0.5137977
00000000: a1a4 16be 400e c2bd 52da 653d 77a0 80be
00000010: 36fb 03be 8226 85bd 56ae e43d 31e8 1d3e
00000020: 0286 9b3d 2db2 11be 290d 95bc 0035 86bd
00000030: b4ca 1fbe e115 363d 672e d7bd 4bae 91be
00000040: 6d39 2dbe 9c00 24be cc24 aabc 2441 45be
00000050: 94c5 4cbe bc1c b43d 16e1 91bc 9e72 01be
00000060: 4cbe e2bd 8c68 903d 1ae1 33be 0216 37be
00000070: 368d 863d e742 10be 7f38 acbd 5540 fe3d
00000080: 39e1 eebc 1fb4 1ebe 9c1a 89be 5ef2 c23d
00000090: f36d 343e 3d82 6c3d e7e8 41bd dfc9 233d
000000a0: 141e 013e d55e 75bd 3607 e63d 3c03 8c3d
000000b0: 818e 20bd c441 c93d 67e2 d5bd 718f 62bd
000000c0: 879a 54bd 6466 f03d 246d 89be 0223 53be
000000d0: 3416 1dbb 51d9 593d 03f4 15bc e08c cdbc
000000e0: 8fef 91bd 3b77 80be 20d6 d43d 244e 45be
000000f0: a0a5 7fbe 2ac9 d93d 6de7 233e 7d53 943c
00000100: 0897 d0bd edfc 6c3d 9c4f f0bd a61a d5bc
00000110: 3852 9ebd 8c55 61be 80bf 13bd 422c e13d
00000120: 5224 c63d d040 ebbc 985b 78bc 224b 0c3e
00000130: 79c0 3fbd b91c 1d3e e32b abbe d6f4 c73d
00000140: 3fd6 9cbd 392a f1bd d897 023e ec9e 62be
00000150: aa32 d23d ec60 59be c880 b3bd 8095 403d
00000160: e530 233d 35d5 4e3e 19e6 a73e 793f 0cbf
00000170: aa40 e43e fbeb 833e 6418 df3d 84c9 a43c
00000180: 2472 0b3f ea63 0cbf 70e2 04bf 24a5 393c
00000190: e7ad 953d 347e 9abc eb1e 153e eb77 6dbe
000001a0: a498 8ebe 5ae9 87be 1c73 463d 8adc febe
000001b0: 4b4a 923e c1fa e7bc 3df6 9bbd 0190 13be
000001c0: 7987 803d 167a a83e 1e5f 34ba ede7 723e
000001d0: 16c8 003e 2ee5 1ebd 324b 8bbd 7b9f 14bf
000001e0: b5ff 7bbe ef61 a13d b2f3 913e 7b5d 5a3e
000001f0: cbef c23d be09 dfbe a103 83bd 0669 493d
00000200: 1227 da3d aa93 c53d 1b85 4bbd 1797 203e
00000210: 70c3 123d 878a e3bd 95d1 45be cf7b b4be
00000220: 7a68 3c3e 43f6 b23d c461 6fbd 9ab9 a2be
00000230: 8720 f13c 68c1 9cbe c88f 4dbe 6e5a b73d
00000240: ac46 bd3d 0ce4 77bd e7e2 45bd 01d7 4f3b
00000250: e0b8 c13d 3c0a 763e 06fb 02be a2f3 86be
00000260: 2b3f 813d 0ae5 31be 6d56 ccbe 2c4b debe
00000270: 3cf8 d03d 5f14 873e b9ab 8f3e d875 51bd
00000280: 4296 76be e507 29be 99e0 433e c8fe 87be
00000290: 49c0 943d 9a7a 443a 1039 5a3d f3e3 e33d
000002a0: a5b8 853e cccc e03d 2dfc 6cbc f720 7f3d
000002b0: 1b53 5abe 3530 a43d 1454 84bd 12d6 bbbe
000002c0: 3154 f2be b150 a2bd 69b1 423e 0eb0 1f3d
000002d0: 5a4f acbe 0c79 4ebe 4420 a3bf afb6 20bd
000002e0: 812e 153f 94b5 18be f5b3 a3bf c948 dcbd
000002f0: 0c7f 883e b52d f73e b494 f1be 49f9 1cbe
00000300: 38a7 8cbe a5fd 14bd ff27 943e e999 00bf
00000310: a01b 273f 630a 1cbf ecb1 e0bc 2877 57be
00000320: 0c6c 393e 4c98 83bf d550 6c3d 6af2 77bd
00000330: be06 953e 75d4 01bf 1574 573f ed8a d8bd
00000340: 5d2a 1fbe d42d 133f eb07 803f e020 353d
00000350: 5c93 4dbf 300d d53d a0b3 1a3f f7ca 063f
00000360: 060d a63e cc5c ed3c 5a2d d3be 0e0a 7e3e
00000370: d3c3 c43c 1c8a e53e 2478 313e 63f0 a23e
00000380: 367a 973f 7c86 573f 2150 9dbe a4c9 87be
00000390: 6965 e03e 83e3 44bd bcf2 7cbe 4631 d83e
000003a0: 81b3 34be 639b fa3e b501 203e 26be 2bbe
000003b0: af77 9ebe dcfe 053d d422 613e 0872 863e
000003c0: 929d 77be d9d2 5c3e 49b4 1bbe c7fa 8ebe
000003d0: ac4a 043f 8f78 2cbe 2768 dbbe 8aa8 0f3f
000003e0: 9256 d7be 98a0 5e3f c3b7 e93e d5c4 08bf
000003f0: aeac 323e 404e d43e 4b92 723f 3f88 033f

pi.logits_net.0.bias f4 [64]
-0.25457728 0.036702897 0.0609403 0.032087337 0.27246612 0.41071102 0.36215106 0.09428797
-0.028836498 -0.27325282 0.083624765 -0.011802928 0.20718378 -0.12809865 0.15874003 0.14155506
0.1483565 0.13688444 0.14507625 -0.166343 -0.12982245 0.18041149 -0.1392736 0.10840675
0.21150023 0.34924594 -0.11135343 0.14685732 -0.12165278 -0.07844854 0.11860283 -0.029855547
0.0025959017 0.07302051 -0.21705742 -0.38402012 -0.021852992 0.2089932 -0.08255383 0.14565271
0.15827812 -0.2578078 -0.18175314 -0.19742295 0.06506733 0.10577644 0.19766247 0.0383024
-0.110340685 0.036200967 0.30711788 -0.20251289 -0.07822391 -0.05367529 0.053873606 0.10627923
-5.226773e-05 0.08012821 -0.118588544 0.39992318 -0.027795946 -0.017439261 -0.16332977 0.09435728
00000000: f457 82be c755 163d 899c 793d 036e 033d
00000010: ae80 8b3e b748 d23e dd6b b93e 0d1a c13d
00000020: 853a ecbc cbe7 8bbe 7643 ab3d 1161 41bc
00000030: fc27 543e 4b2c 03be bf8c 223e cff3 103e
00000040: c4ea 173e 6f2b 0c3e de8e 143e d255 2abe
00000050: 2df0 04be cabd 383e bd9d 0ebe 5c04 de3d
00000060: 8493 583e 5dd0 b23e 440d e4bd c461 163e
00000070: 1825 f9bd a1a9 a0bd 0ae6 f23d 9f93 f4bc
00000080: 0120 2a3b c78b 953d 4d44 5ebe 499e c4be
00000090: 0c05 b3bc 5002 563e fc11 a9bd fc25 153e
000000a0: a913 223e 62ff 83be 7f1d 3abe 3e29 4abe
000000b0: 0542 853d 51a1 d83d 0868 4a3e fae2 1c3d
000000c0: 4cfa e1bd 7747 143d 8e3e 9d3e 8a5f 4fbe
000000d0: db33 a0bd 9fda 5bbd 92aa 5c3d eda8 d93d
000000e0: 0c3a 5bb8 421a a43d 8dde f2bd bbc2 cc3e
000000f0: 53b4 e3bc c8dc 8ebc eb3f 27be 643e c13d

pi.logits_net.2.weight f4 [64, 64]
-0.22752018 -0.60328066 1.0734855 -0.38229945 0.31989726 -0.15526931 -0.2552844 -0.47681227
0.09539334 0.010415743 -0.3333965 -0.5796528 0.6889381 0.030754017 0.059076767 -0.24598016
1.0697602 -0.35998863 0.73623013 0.8400062 0.13699822 0.7788977 -0.3051309 0.72038794
0.07719548 0.72284347 0.319163 0.25571936 -0.111491635 -0.23971243 -0.09021498 -0.07688919
0.3853148 -0.5000179 0.10869439 -0.33852658 -0.28467944 0.2930932 0.44076386 0.28861126
-0.010548016 0.3423803 -0.380997 0.7568054 0.048125483 0.3779976 -0.29077217 0.5820716
0.22084117 0.24537732 -0.2108089 0.0061528916 0.10728595 -0.52846664 0.2073822 0.6099921
0.04197748 0.13340701 0.23018667 0.46440917 0.1187274 -0.21236059 -0.32735047 0.4696339
0.6398407 -0.32807902 0.401865 0.07704886 -0.35742897 -0.5707203 -0.39768186 -0.1748586
0.38006482 0.084675685 0.34579477 0.51278204 -1.2682974 -0.524004 -0.7263149 -0.069563776
0.22018348 -0.28645784 -0.26743615 0.04481842 -0.41000345 -0.2402285 0.33834192 0.15955374
-0.45637774 -0.012457347 -0.5436678 -0.68714046 -0.3561198 0.06489314 -0.07774193 -0.21600461
-0.38746285 -0.0928765 0.56617 0.49453077 -0.22193536 0.06865128 -0.3805194 0.31080014
-0.5798741 -0.16086704 -0.13114001 -0.21100065 0.18972117 -1.0579809 0.049174137 -0.24257606
-0.16023198 -0.25609577 -0.6222279 0.19751003 -0.2110503 0.4822015 -0.16496338 -0.05479882
-0.25498575 -0.29199645 -0.23807955 0.32431218 0.18124706 0.06503258 -0.42338157 -0.62920743
-0.351178 -0.32939547 0.53690773 -0.045738537 0.10376765 -0.26306465 -0.32136247 -0.5701681
-0.36412567 0.12993509 0.35722703 -0.34473097 -0.18771267 -0.082642294 0.37829182 -0.09055955
0.24565664 0.40534166 0.5580388 0.30534548 -0.2833974 -0.22089432 -0.100506924 0.114606835
0.14084889 0.30819532 -0.33468395 -0.72916174 0.114823975 -0.39463624 -0.8215687 -0.19984844
-0.13687533 -0.5900011 -0.051245816 -0.1745633 0.4988307 0.7170122 -0.14668794 -0.3595753
-0.5888594 -0.26869175 0.060903165 -0.1339686 0.21357623 0.4786643 -0.4011748 0.6415127
-0.2695603 0.9587013 0.029093487 -0.33991733 -0.08798215 -0.73759 0.22674465 0.43546444
0.37532026 -0.6524272 0.456065 0.5717897 0.033007678 -0.16709955 0.93789876 -0.03234604
-0.25226623 0.09758454 -0.115491666 -0.59933555 0.18697304 0.1904802 0.25789997 -0.4524032
-0.1030651 0.06263089 -0.007776638 0.3085134 -0.3321895 -0.5630894 0.44560248 -0.32272056
-0.14704534 0.64794713 0.527725 -0.07959405 0.75942075 0.14619729 -0.6940755 0.7720449
0.1504566 0.064323954 -0.7386211 0.2921373 -0.77176857 -0.052554175 0.22335237 -0.7766873
0.07421482 0.5065729 0.05583382 0.34340292 -0.4281525 0.50901085 -0.4478073 0.528066
0.2184231 -1.1259649 0.6734962 -0.33206016 -0.44413573 0.21322116 0.10793778 0.3007552
0.08132836 -0.19680691 0.9169119 -0.40681407 -0.25171825 -0.3849577 -0.15412323 -0.0178954
-0.4151984 0.25066075 0.040664364 -0.29106092 -0.17681131 -0.380911 0.3910089 -0.28284386
00000000: 0dfb 68be 9a70 1abf f967 893f c1bc c3be
00000010: 93c9 a33e ebfe 1ebe a3b4 82be bd20 f4be
00000020: 955d c33d cba6 2a3c f2b2 aabe 2064 14bf
00000030: 3f5e 303f d9ef fb3c 7bfa 713d 39e2 7bbe
00000040: e7ed 883f 6e50 b8be 9479 3c3f a50a 573f
00000050: 4349 0c3e d765 473f 1e3a 9cbe 586b 383f
00000060: aa18 9e3d 450c 393f 5569 a33e a6ed 823e
00000070: ba55 e4bd 2d77 75be a2c2 b8bd 1478 9dbd
00000080: fb47 c53e 2c01 00bf 2a9b de3d 5b53 adbe
00000090: 81c1 91be 5010 963e cdab e13e dbc4 933e
000000a0: 96d1 2cbc 784c af3e 0a12 c3be 00be 413f
000000b0: 3a1f 453d e788 c13e 17e0 94be a502 153f
000000c0: 3024 623e 3144 7b3e 4ade 57be 329e c93b
000000d0: bcb8 db3d 9749 07bf 005c 543e 7128 1c3f
000000e0: 94f0 2b3d d99b 083e 0eb6 6b3e 0ac7 ed3e
000000f0: 5a27 f33d 0e75 59be 7b9a a7be db73 f03e
00000100: 9acc 233f f9f9 a7be 40c1 cd3e cbcb 9d3d
00000110: ee00 b7be ba1a 12bf f59c cbbe 220e 33be
00000120: db97 c23e 726a ad3d 030c b13e af45 033f
00000130: 9257 a2bf 2025 06bf c6ef 39bf 7477 8ebd
00000140: c777 613e 9aaa 92be 64ed 88be 8593 373d
00000150: f9eb d1be 76fe 75be 273b ad3e 0e62 233e
00000160: 58aa e9be e619 4cbc d02d 0bbf 70e8 2fbf
00000170: 5655 b6be b2e6 843d 2937 9fbd 5030 5dbe
00000180: 8861 c6be 0936 bebd 84f0 103f 2333 fd3e
00000190: 0643 63be 0b99 8c3d 70d3 c2be 3221 9f3e
000001a0: a172 14bf 54ba 24be 9149 06be 8e10 58be
000001b0: 4446 423e eb6b 87bf d26a 493d dc65 78be
000001c0: da13 24be fc1e 83be 544a 1fbf 1240 4a3e
000001d0: 921d 58be 1de3 f63e 29ec 28be ba74 60bd
000001e0: 7e8d 82be 8f80 95be 20cb 73be 3f0c a63e
000001f0: d498 393e cd2f 853d 78c5 d8be bd13 21bf
00000200: 9acd b3be 86a6 a8be c972 093f 5558 3bbd
00000210: 2284 d43d 69b0 86be 9f89 a4be 89f6 11bf
00000220: ae6e babe b40d 053e 76e6 b63e 9480 b0be
00000230: c037 40be 5d40 a9bd 77af c13e 4977 b9bd
00000240: 6a8d 7b3e f188 cf3e a1db 0e3f 3e56 9c3e
00000250: 7719 91be 1f32 62be 93d6 cdbd fdb6 ea3d
00000260: b13a 103e c7cb 9d3e b25b abbe 58aa 3abf
00000270: d528 eb3d c30d cabe 5452 52bf 12a5 4cbe
00000280: 0c29 0cbe 500a 17bf 22e7 51bd b9c0 32be
00000290: bd66 ff3e 1d8e 373f 5d35 16be 411a b8be
000002a0: 7dbf 16bf f791 89be 9975 793d 112f 09be
000002b0: bab3 5a3e 7d13 f53e c966 cdbe 2d3a 243f
000002c0: cf03 8abe 736d 753f 7755 ee3c a509 aebe
000002d0: fc2f b4bd b3d2 3cbf c02f 683e 32f5 de3e
000002e0: fa29 c03e 7805 27bf 5a81 e93e cf60 123f
000002f0: 0f33 073d 251c 2bbe 221a 703f 487d 04bd
00000300: 0a29 81be 67da c73d e586 ecbd 0e6e 19bf
00000310: dc75 3f3e 3e0d 433e 770b 843e 64a1 e7be
00000320: cc13 d3bd a044 803d 2bd3 febb 78f5 9d3e
00000330: be14 aabe a026 10bf 0226 e43e a13b a5be
00000340: 0e93 16be dddf 253f fc18 073f 3502 a3bd
00000350: 6669 423f beb4 153e efae 31bf bca4 453f
00000360: 4c11 1a3e 47bc 833d 4616 3dbf 0593 953e
00000370: a092 45bf 0c43 57bd 7cb6 643e fbd4 46bf
00000380: f1fd 973d c3ae 013f 01b2 643d 82d2 af3e
00000390: ce36 dbbe 894e 023f 0047 e5be 552f 073f
000003a0: 4eaa 5f3e 9e1f 90bf 3f6a 2c3f ca03 aabe
000003b0: c265 e3be a656 5a3e 7c0e dd3d 96fc 993e
000003c0: 7c8f a63d c087 49be bdba 6a3f ef49 d0be
000003d0: 37e1 80be 2d19 c5be 7bd2 1dbe 6099 92bc
000003e0: e294 d4be 9b56 803e ad8f 263d f005 95be
000003f0: 060e 35be c406 c3be 5232 c83e e9d0 90be

pi.logits_net.2.bias f4 [64]
0.098971575 -0.08334439 0.25652984 0.46851033 0.20294537 0.111659765 -0.12683526 -0.26604182
0.28387302 -0.20897442 -0.059204806 0.03995318 -0.07777802 -0.31516546 0.21252134 0.43305275
0.15135092 -0.0970924 0.015721027 0.32368994 0.3157935 0.15204377 -0.001923626 0.20161939
-0.2146448 -0.087907314 -0.075773336 0.14589559 -0.2523753 0.6271496 0.012740897 0.12290287
-0.00202498 0.34440112 0.21834359 0.014624028 0.14508928 -0.2279258 -0.3308204 -0.006990743
-0.027919458 -0.24536073 0.04856419 0.44917414 -0.18826957 -0.14151654 0.6418195 -0.17934792
0.12992689 0.1865523 0.0628155 0.016552066 -0.45261914 -0.0718411 -0.184545 -0.32844287
-0.0930034 0.3696849 0.3682103 -0.052788332 -0.21936794 0.0041224137 0.107141696 0.1388691
00000000: 9cb1 ca3d 77b0 aabd e157 833e 96e0 ef3e
00000010: e9d0 4f3e e0ad e43d 1ae1 01be a236 88be
00000020: ce57 913e 64fd 55be bd80 72bd f2a5 233d
00000030: 154a 9fbd 5e5d a1be 329f 593e 17b9 dd3e
00000040: bcfb 1a3e 61d8 c6bd 62c9 803c b0ba a53e
00000050: b0af a13e 5db1 1b3e 2e22 fcba 5075 4e3e
00000060: d9cb 5bbe c008 b4bd 0d2f 9bbd a765 153e
00000070: 5637 81be e08c 203f 32bf 503c 80b4 fb3d
00000080: 87b5 04bb 5855 b03e 7695 5f3e 9e99 6f3c
00000090: 4992 143e 6265 69be 4b61 a9be 9a12 e5bb
000000a0: 59b7 e4bc d83f 7bbe 3eeb 463d 27fa e53e
000000b0: bdc9 40be b6e9 10be 484e 243f fba6 37be
000000c0: 8e0b 053e 9107 3f3e 6aa5 803d 3398 873c
000000d0: b2bd e7be 6d21 93bd 5df9 3cbe aa29 a8be
000000e0: 9178 bebd 5747 bd3e 0f86 bc3e 9438 58bd
000000f0: fda1 60be 5015 873b 1b6d db3d b433 0e3e

pi.logits_net.4.weight f4 [87, 64]
0.7037243 -1.0746937 -0.15480368 0.55799264 -0.46928394 -1.5015752 0.35019743 -0.54266125
0.39143097 0.38698682 -0.54454213 -0.72651243 -0.5321777 -0.0883172 0.61178315 0.3511421
0.24244791 0.33308074 1.3697563 0.56948745 0.5006759 0.028561331 0.1257843 -0.060215153
0.21241274 -1.4529967 -1.1125275 -0.25167057 -0.3486218 -0.10240229 -1.4311568 0.6268086
0.2824043 0.41721576 0.41987148 1.0348864 -0.7899892 -0.60099983 -0.50107634 -0.025796661
-0.7301286 -0.45534626 0.69251555 0.26587462 1.0944369 -0.050897278 0.5457576 -0.09007033
0.2949813 -0.269345 0.10187444 0.55000794 -0.6343166 0.9040708 -0.6063193 0.8332351
-0.4998637 0.18087056 0.1670022 -0.012882431 -0.16706108 -0.32228306 -0.19526796 -0.62527597
0.38392425 -0.66278356 0.13702117 0.9919093 0.5448952 -0.2922862 -0.0626338 0.27460232
0.2863173 -0.8603791 -0.6119976 -0.75841993 -0.96122384 -0.6809476 0.21881518 0.40458557
-0.3151029 -0.2495353 0.44929105 0.9210103 0.21211787 0.7103047 1.2560312 -0.33950984
-0.2773212 0.68389755 -0.45720562 0.2795396 -0.5079122 0.39830574 -0.61369276 0.84203774
0.22821817 0.6558578 -0.135416 0.23998861 -0.4382215 -0.43858597 -0.30681467 0.45384505
-0.15236709 -0.8362871 0.08331268 0.29691994 -0.14020738 -0.7451783 0.50704926 -0.5978378
0.40080073 0.70644313 1.3612562 -0.56477886 -0.7869435 -0.5695742 -1.1617754 0.15833493
0.44545946 0.30707207 0.9526989 0.9134864 -1.1150718 -0.24353586 -0.4369439 -0.04196218
-0.39596516 -0.20532452 -0.04493588 0.46590328 0.9138449 -0.04502528 0.28162724 -0.64059305
-0.5280562 -0.05804982 0.7199882 0.30359846 0.5664901 -0.16220523 0.014754395 0.40586764
-0.5308818 0.029605685 -0.8113202 -0.84071493 -0.6362999 -0.82800627 -0.57002825 0.16282086
-0.024248717 -0.15794311 0.5478793 -0.011074259 0.9340669 -0.2596574 -0.41475073 -0.8068776
0.56387293 -0.6347421 -0.36909246 -0.06539937 0.45065403 0.19974095 -0.59768945 0.32232642
-0.07332611 -0.047102135 -0.30759317 0.07377857 -0.32171437 -0.43657526 0.557925 0.38988593
-0.17091036 0.42144904 -0.6675794 -0.6418812 -0.57176816 0.0104336105 0.9422069 -0.42622527
0.4150863 0.67075354 0.48915154 -1.030529 -0.5254612 0.57318866 0.72184426 -0.29583243
-0.29707116 1.0296876 0.24432054 0.24636857 -0.5243257 -0.11515051 0.2780996 -0.391227
0.4288678 -0.7195851 0.4098226 0.2537083 0.5537247 -0.6925977 0.39551377 -0.09808836
0.79480046 -0.12790926 0.2264189 0.41526407 -0.10328787 0.26547155 0.7912685 0.0025336172
-0.6261333 0.2784825 -0.5789532 0.7788437 -0.4037663 0.4582845 0.1110426 -0.19052263
-0.7601441 0.84170705 -0.13606086 0.6127045 0.1621899 -0.564944 0.022096947 0.5331423
0.76003486 -0.7824796 0.04587223 0.37320518 0.49886033 -0.100655 0.21617272 -0.62600374
0.6515402 0.88111365 0.37838614 0.32121655 -0.52489895 -0.5582012 0.28951177 -0.57765657
-0.15493637 0.23520756 0.27671003 0.6078614 0.11207834 -0.14922614 -0.38749415 0.7858761
00000000: 4727 343f 908f 89bf db84 1ebe 9bd8 0e3f
00000010: fc45 f0be 9e33 c0bf 144d b33e d9eb 0abf
00000020: a469 c83e 2323 c63e 1d67 0bbf b8fc 39bf
00000030: cc3c 08bf a6df b4bd d29d 1c3f e6c8 b33e
00000040: 4444 783e 8f89 aa3e 2d54 af3f eec9 113f
00000050: 4c2c 003f 74f9 e93c 99cd 003e 2aa4 76bd
00000060: ba82 593e ccfb b9bf 4d67 8ebf f7da 80be
00000070: 8e7e b2be 4bb8 d1bd 2530 b7bf 8776 203f
00000080: 4c97 903e 4e9d d53e 65f9 d63e 2877 843f
00000090: bb3c 4abf 20db 19bf 8a46 00bf 8553 d3bc
000000a0: b5e9 3abf 2523 e9be b348 313f b820 883e
000000b0: 8216 8c3f aa79 50bd c5b6 0b3f cb76 b8bd
000000c0: ca07 973e 96e7 89be 8ca3 d03d 52cd 0c3f
000000d0: 9362 22bf 2f71 673f be37 1bbf e54e 553f
000000e0: 23ee ffbe 2236 393e a002 2b3e d510 53bc
000000f0: 0f12 2bbe 4902 a5be 53f4 47be 1612 20bf
00000100: b891 c43e 2fac 29bf 474f 0c3e c5ed 7d3f
00000110: 407e 0b3f 89a6 95be 2646 80bd ad98 8c3e
00000120: 2e98 923e ce41 5cbf e0ab 1cbf cf27 42bf
00000130: c412 76bf 9552 2ebf 1611 603e d725 cf3e
00000140: 2b55 a1be 2f86 7fbe 7a09 e63e 55c7 6b3f
00000150: 6d35 593e 87d6 353f a1c5 a03f 3cd4 adbe
00000160: 0bfd 8dbe e913 2f3f db16 eabe d01f 8f3e
00000170: 8906 02bf bbee cb3e f81a 1dbf c98f 573f
00000180: 06b2 693e 4ce6 273f 7eaa 0abe 93bf 753e
00000190: 925e e0be 578e e0be d016 9dbe 615e e83e
000001a0: 1e06 1cbe e916 56bf d79f aa3d e405 983e
000001b0: 8692 0fbe 01c4 3ebf fbcd 013f e60b 19bf
000001c0: c135 cd3e 75d9 343f a53d ae3f 5995 10bf
000001d0: 2175 49bf 9dcf 11bf 0eb5 94bf 8d22 223e
000001e0: 4313 e43e 8d38 9d3e 13e4 733f 3fda 693f
000001f0: acba 8ebf 7761 79be 1cb7 dfbe 89e0 2bbd
00000200: f2bb cabe 9740 52be af0e 38bd e08a ee3e
00000210: bdf1 693f 6e6c 38bd 7231 903e e8fd 23bf
00000220: b12e 07bf a6c5 6dbd 2651 383f 4271 9b3e
00000230: 7f05 113f 2119 26be 6bbc 713c e2cd cf3e
00000240: dfe7 07bf 9f87 f23c aeb2 4fbf 1839 57bf
00000250: 8de4 22bf 38f8 53bf 5fed 11bf 83ba 263e
00000260: 3fa5 c6bc d7bb 21be d141 0c3f cf70 35bc
00000270: 021f 6f3f d1f1 84be 355a d4be 888f 4ebf
00000280: fa59 103f 757e 22bf b0f9 bcbe 1bf0 85bd
00000290: 20bc e63e e488 4c3e 2d02 19bf f807 a53e
000002a0: 002c 96bd 2bee 40bd da7c 9dbe 3819 973d
000002b0: bfb7 a4be cb86 dfbe 2cd4 0e3f 219f c73e
000002c0: 2003 2fbe 2bc8 d73e 7ce6 2abf 5452 24bf
000002d0: 665f 12bf bcf1 2a3c 7934 713f 333a dabe
000002e0: 3186 d43e 81b6 2b3f 1272 fa3e 60e8 83bf
000002f0: a084 06bf 7ebc 123f c9ca 383f 5977 97be
00000300: b619 98be cecc 833f 2a2f 7a3e 0b48 7c3e
00000310: 363a 06bf 08d4 ebbd 1263 8e3e e84e c8be
00000320: 8f94 db3e bb36 38bf 45d4 d13e 0ee6 813e
00000330: e7c0 0d3f 154e 31bf c880 ca3e 8de2 c8bd
00000340: 0b78 4b3f a5fa 02be 5bda 673e 7e9d d43e
00000350: 9788 d3bd e3eb 873e 9390 4a3f 0b0b 263b
00000360: 464a 20bf 4295 8e3e 4736 14bf 4d62 473f
00000370: 75ba cebe 44a4 ea3e 4d6a e33d 5d18 43be
00000380: ce98 42bf 1d7a 573f 8a53 0bbe 34da 1c3f
00000390: 1c15 263e 2ca0 10bf a804 b53c 047c 083f
000003a0: a591 423f 9550 48bf 85e4 3b3d c014 bf3e
000003b0: 9f6a ff3e 3524 cebd 625c 5d3e c841 20bf
000003c0: 57cb 263f aa90 613f d4bb c13e 7f76 a43e
000003d0: c75f 06bf 46e6 0ebf e33a 943e 4de1 13bf
000003e0: a4a7 1ebe 40da 703e f0ac 8d3e ce9c 1b3f
000003f0: 5489 e53d bdce 18be a265 c6be 2d2f 493f

pi.logits_net.4.bias f4 [87]
0.3506128 0.25761938 0.5638344 0.6221306 0.36534247 0.51458603 -0.06894245 0.10520069
0.14610162 0.50229126 0.30165687 0.1383298 0.40332755 0.17734113 0.52778405 0.56959146
0.17069227 0.5893349 0.42744365 0.55396146 0.4707583 0.30428588 0.24624878 0.24089575
0.23438035 0.13800518 0.010801863 0.52275395 0.11743538 0.7106683 0.45441413 0.6000214
0.19094335 0.31909946 0.41368318 0.08061559 0.20678423 0.21961634 0.061374 0.08294621
0.13675675 0.542192 0.08647321 0.012197458 0.5048349 0.29320297 0.42219737 0.57564604
0.37433875 0.2981198 0.7590046 0.24566883 0.37366542 0.35235786 0.40215978 0.5482935
0.5545096 0.4677416 0.15867314 0.6076637 0.30153555 0.30949777 0.03593121 0.46557978
0.40270165 0.26283568 0.6740096 0.52429867 0.25822407 0.12473585 0.51749724 0.05771524
0.38392824 0.70630217 0.20656268 0.25568032 0.25615445 0.36097565 0.020367363 -0.052068636
0.37581146 0.35514086 0.14750683 0.3124742 0.20646864 0.42782342 0.34008154
00000000: 8583 b33e b0e6 833e 7457 103f f343 1f3f
00000010: 2b0e bb3e e9bb 033f b331 8dbd 7673 d73d
00000020: aa9b 153e 2996 003f c572 9a3e 54a6 0d3e
00000030: f380 ce3e ea98 353e db1c 073f bfd0 113f
00000040: f4c9 2e3e a7de 163f e5d9 da3e 6bd0 0d3f
00000050: 3b07 f13e 5ccb 9b3e a428 7c3e 60ad 763e
00000060: 6701 703e 3b51 0d3e 4cfa 303c 34d3 053f
00000070: f681 f03d 5cee 353f f8a8 e83e 019b 193f
00000080: a786 433e 0161 a33e 48ce d33e c919 a53d
00000090: 3fbf 533e 1be3 603e 4e63 7b3d b4df a93d
000000a0: f609 0c3e 18cd 0a3f de18 b13d d9d7 473c
000000b0: dc3c 013f b31e 963e 412a d83e 8a5d 133f
000000c0: 54a9 bf3e 29a3 983e 204e 423f 9c90 7b3e
000000d0: 1351 bf3e 4068 b43e e3e7 cd3e f65c 0c3f
000000e0: 57f4 0d3f d47b ef3e 367b 223e d98f 1b3f
000000f0: de62 9a3e 7e76 9e3e 9b2c 133d 7960 ee3e
00000100: e92e ce3e 6692 863e e58b 2c3f 7038 063f
00000110: f235 843e 8275 ff3d b37a 043f d166 6c3d
00000120: 3e92 c43e 38d0 343f 2b85 533e 88e8 823e
00000130: ad26 833e cdd1 b83e 75d9 a63c ec45 55bd
00000140: 5c6a c03e 06d5 b53e 080c 173e 9efc 9f3e
00000150: 846c 533e ac0b db3e 2b1f ae3e

v.v_net.0.weight f4 [64, 282]
0.13857457 1.1640978 0.26955873 0.87203175 -0.06971854 0.2564594 0.7241688 0.7376911
0.32319182 1.0778362 0.8713996 1.2352191 0.15245445 0.32836092 0.27376845 0.8858232
0.15244873 1.4946415 -0.12610073 0.48712215 0.09057492 0.74797904 2.3355618 0.24459012
1.1942468 0.27838463 0.44323525 0.48013738 0.7798884 0.06399661 0.3245294 0.28949174
1.1435584 0.27111125 0.44520614 0.7841725 0.8157722 0.29577908 -0.0306091 0.23941599
0.32442087 0.8597229 0.3374912 0.25052673 2.3004427 0.33878595 -0.074324995 -0.030034306
0.7969412 0.78633237 0.4566997 0.073933214 0.809277 0.33701843 1.2462523 -0.062449973
1.1834108 0.45180562 0.28676438 0.47972545 0.4721143 0.32230577 0.7101869 0.8222422
1.2205675 0.2765069 1.0583405 0.8702833 2.2257087 0.09953477 1.2242293 0.7979148
0.3158379 2.172444 0.7865605 0.74999094 1.2360046 0.7382248 0.8192485 0.28150415
0.7964093 -0.044394564 0.8100919 0.44878736 0.2665092 0.082039215 0.88441604 0.8894231
-0.17561272 2.8236 0.4286731 -1.3302453 -2.9799254 -0.19450316 0.11908477 1.401533
0.63562995 2.5899997 -1.9426134 1.2668874 2.4034886 1.0379827 1.9340328 2.5420263
3.899456 0.7228559 1.9357938 3.222322 -0.07096086 -1.2426802 -0.062149893 0.638138
2.0242069 0.09623769 1.5057827 0.49710596 2.9059036 0.26663956 0.77769953 0.95282483
-1.7036145 1.1587254 0.28792816 -0.12606701 0.9976877 -1.5982468 2.432315 1.2974043
-0.003414193 0.83341414 0.87654567 -1.3525596 0.50071853 -0.9668093 1.4365755 0.82702774
-0.23955314 0.64595646 3.6319692 0.84434366 -0.06901944 0.72321373 -0.038212437 -0.5492059
2.0263016 1.0759324 1.765804 1.7173887 0.8100956 -0.17460936 5.237504 -0.36347252
1.7965302 -0.22442836 2.9054213 0.5240772 1.4035549 0.26068857 -0.33935553 0.81762284
-1.4472278 -2.6883998 0.8604867 1.0425346 -0.31397355 0.5606005 1.0861872 3.8643084
-1.2751269 -0.13605925 0.95570403 1.041528 0.6003862 -0.41972357 0.9143596 -2.0299547
-2.2826223 -5.77328 -0.19042249 1.5667304 0.4054256 1.1826552 -1.3935009 1.9144278
3.9638855 -3.0914278 -2.1525533 -0.7712701 -1.2254016 0.10778923 2.5732672 0.28126413
0.62947935 -2.3109398 0.7599747 -0.4161197 0.09974602 -1.1287322 0.008223981 -1.0681804
0.8748538 0.70250446 -2.0636346 -1.852041 -0.26610953 0.160815 -1.7064211 1.3462566
0.67099756 2.9144614 -1.8312922 1.2487605 4.9263067 -0.81746787 -0.858554 -1.3484612
-0.62336355 1.1578646 0.47082153 -0.38992697 1.5320652 2.4450214 0.26357386 -0.7728076
1.2126685 -2.9482687 0.2426338 -1.6714346 0.5362679 -0.022506956 -1.1030074 -0.60356104
0.898949 1.0154339 0.1606895 0.40248618 -2.0486655 -0.38552442 -1.782803 2.2148626
3.6390624 -0.64724624 2.0885165 2.9253151 -1.6559826 -1.1069509 0.87639445 0.69258004
0.045198992 0.36345732 -0.21828891 -0.37162486 0.91262394 -0.7477773 -0.7259047 0.64738935
00000000: 7ee6 0d3e 2801 953f 9a03 8a3e 793d 5f3f
00000010: 98c8 8ebd a54e 833e 2063 393f 53d9 3c3f
00000020: 6679 a53e 89f6 893f 0b14 5f3f a91b 9e3f
00000030: 051d 1c3e ec1e a83e 612b 8c3e 4fc5 623f
00000040: 851b 1c3e 6a50 bf3f 8d20 01be 1368 f93e
00000050: 587f b93d 8e7b 3f3f d879 1540 d575 7a3e
00000060: 14dd 983f 6e88 8e3e bbef e23e 91d4 f53e
00000070: c4a6 473f a810 833d b828 a63e 4338 943e
00000080: 1f60 923f 18cf 8a3e 0ff2 e33e 87bf 483f
00000090: 72d6 503f 5b70 973e efbf fabc 7729 753e
000000a0: 7e1a a63e cd16 5c3f a6cb ac3e 0a45 803e
000000b0: 743a 1340 5a75 ad3e b437 98bd 810a f6bc
000000c0: 5704 4c3f 144d 493f 8bd4 e93e 4c6a 973d
000000d0: c72c 4f3f ae8d ac3e 3285 9f3f 8bcb 7fbd
000000e0: 017a 973f 1153 e73e c8d2 923e 939e f53e
000000f0: f7b8 f13e 4305 a53e cfce 353f 777e 523f
00000100: 8e3b 9c3f 5092 8d3e b477 873f e3ca 5e3f
00000110: 0372 0e40 e3d8 cb3d 8cb3 9c3f 2544 4c3f
00000120: 81b5 a13e 5309 0b40 075c 493f 68ff 3f3f
00000130: 6635 9e3f 4dfc 3c3f 45ba 513f 5021 903e
00000140: 7be1 4b3f 13d7 35bd 2f62 4f3f 75c7 e53e
00000150: e573 883e 2d04 a83d 1769 623f 3bb1 633f
00000160: d2d3 33be ddb5 3440 0a7b db3e 7a45 aabf
00000170: 19b7 3ec0 d62b 47be b7e2 f33d 6f65 b33f
00000180: a5b8 223f 8ec2 2540 8ea7 f8bf 5e29 a23f
00000190: c2d2 1940 9edc 843f 638e f73f 8fb0 2240
000001a0: b090 7940 160d 393f 17c8 f73f 863a 4e40
000001b0: ed53 91bd 2510 9fbf e390 7ebd 035d 233f
000001c0: 9b8c 0140 4418 c53d 7dbd c03f ac84 fe3e
000001d0: 53fa 3940 fb84 883e 5117 473f 54ec 733f
000001e0: 0a10 dabf 1d51 943f 526b 933e b617 01be
000001f0: 7668 7f3f 5a93 ccbf 0dab 1b40 5811 a63f
00000200: a7c0 5fbb a15a 553f 4c65 603f ac20 adbf
00000210: 172f 003f d080 77bf b5e1 b73f 17b8 533f
00000220: 6b4d 75be 675d 253f 2f72 6840 e826 583f
00000230: 105a 8dbd 8924 393f a584 1cbd c298 0cbf
00000240: edae 0140 27b8 893f de05 e23f 65d3 db3f
00000250: 6d62 4f3f cccc 32be a299 a740 1219 babe
00000260: b4f4 e53f 8cd0 65be 6cf2 3940 ec29 063f
00000270: b0a7 b33f f978 853e 02c0 adbe bb4f 513f
00000280: c33e b9bf be0e 2cc0 db48 5c3f c671 853f
00000290: 24c1 a0be 8483 0f3f 2f08 8b3f d450 7740
000002a0: 5c37 a3bf 1e53 0bbe 05a9 743f ca50 853f
000002b0: e9b2 193f 02e6 d6be 7913 6a3f c7ea 01c0
000002c0: 7c16 12c0 b6be b8c0 1dfe 42be 9f8a c83f
000002d0: f293 cf3e 3f61 973f 3d5e b2bf f80b f53f
000002e0: 4db0 7d40 f4d9 45c0 6fc3 09c0 f571 45bf
000002f0: f6d9 9cbf 9ac0 dc3d 69b0 2440 da01 903e
00000300: 8f25 213f 70e6 13c0 b48d 423f a40d d5be
00000310: a447 cc3d 4c7a 90bf e0bd 063c 23ba 88bf
00000320: 6bf6 5f3f 55d7 333f 9712 04c0 ae0f edbf
00000330: 823f 88be b0ac 243e 026c dabf 2352 ac3f
00000340: 7fc6 2b3f 8986 3a40 c867 eabf 62d7 9f3f
00000350: 4ea4 9d40 9345 51bf 32ca 5bbf 609a acbf
00000360: c194 1fbf e834 943f 850f f13e 82a4 c7be
00000370: b61a c43f 3b7b 1c40 27f3 863e b8d6 45bf
00000380: b938 9b3f 6fb0 3cc0 ff74 783e 92f1 d5bf
00000390: da48 093f 8260 b8bc 592f 8dbf fa82 1abf
000003a0: 8621 663f bdf9 813f ca8b 243e ab12 ce3e
000003b0: 561d 03c0 7563 c5be e432 e4bf 4fc0 0d40
000003c0: 66e6 6840 eeb1 25bf 41aa 0540 5d38 3b40
000003d0: 3df7 d3bf 91b0 8dbf 635b 603f ed4c 313f
000003e0: 9422 393d 1417 ba3e 2187 5fbe 9d45 bebe
000003f0: b9a1 693f 556e 3fbf e4d4 39bf 4fbb 253f

v.v_net.0.bias f4 [64]
0.16071352 -0.58427614 1.9713736 -0.79484844 0.8554432 -1.7814841 -1.7599765 3.2261825
-0.49439603 2.4475574 -0.1187899 8.268439 1.3873124 1.5020752 -0.6152165 -0.9974272
-1.7822171 2.2791634 -2.2811944 -1.1177808 -0.4624135 -3.227541 0.22263615 -0.9274122
0.15017188 -2.3827293 -1.7074407 2.1673622 -1.4697195 -1.2329186 2.3657794 -0.48283273
1.1008599 -1.701716 -2.8535829 -0.25909898 1.052721 1.0486991 -0.86986804 0.43226537
-1.5777619 -1.5921352 -0.205677 0.034524743 1.1237419 0.408928 0.6723974 -1.2057048
-1.9479755 -0.26687714 -0.33009654 -0.31503177 1.0367544 1.4780335 0.91524273 -0.574648
2.2813118 0.7058359 1.5120133 0.15690458 -0.76052606 1.9625243 0.30164614 -2.309469
00000000: 1692 243e 1f93 15bf f855 fc3f 307b 4bbf
00000010: 53fe 5a3f ac07 e4bf e946 e1bf c679 4e40
00000020: 7a21 fdbe c8a4 1c40 1e48 f3bd 874b 0441
00000030: 7493 b13f 0044 c03f d47e 1dbf 6457 7fbf
00000040: b11f e4bf d0dd 1140 17ff 11c0 7113 8fbf
00000050: 76c1 ecbe 0890 4ec0 bbfa 633e e36a 6dbf
00000060: a8c6 193e a37e 18c0 6b8d dabf 10b6 0a40
00000070: c51f bcbf 47d0 9dbf ee68 1740 da35 f7be
00000080: fae8 8c3f d4d1 d9bf 1aa1 36c0 9fa8 84be
00000090: 90bf 863f c63b 863f acaf 5ebf e351 dd3e
000000a0: 1af4 c9bf 16cb cbbf fe9c 52be d169 0d3d
000000b0: c6d6 8f3f 035f d13e 3c22 2c3f 8954 9abf
000000c0: 4357 f9bf 1fa4 88be 6a02 a9be d84b a1be
000000d0: 5eb4 843f 3430 bd3f 594d 6a3f 221c 13bf
000000e0: 0301 1240 a9b1 343f a789 c13f 98ab 203e
000000f0: d6b1 42bf ff33 fb3f 5d71 9a3e 57ce 13c0

v.v_net.2.weight f4 [64, 64]
-0.285702 -0.45560953 2.4498274 6.1410723 -4.570564 -1.293719 -1.0465024 -0.44267905
-3.754256 -1.2761503 0.55715835 -1.6437536 -0.7978548 -1.0558816 0.60707045 0.074437164
2.7297728 -1.1755937 6.994254 0.007157513 -1.3546132 -1.1768812 -2.0025911 -0.20484374
-0.022424772 -1.1569308 -5.5702395 -1.56283 -2.440438 1.6079326 -2.4644666 -0.18225452
1.563633 -0.67659897 -2.834771 3.51246 -1.0361468 -4.770616 0.4286994 5.541145
-1.3258954 -4.0363936 -0.9843635 1.4287747 -0.9325363 -4.0890336 -0.39594442 -1.8628976
0.5291226 -1.9719921 2.8633277 -2.427756 3.916272 -3.347396 -3.6619473 1.9078518
-0.7595168 0.7610328 -1.0298326 -2.9730923 -1.0848149 -0.2070917 -1.3585188 -2.027246
-2.6283212 -3.92517 -3.2428737 1.3335059 -1.1488599 -1.5963813 1.2456483 -1.0891699
4.623843 -1.8853515 -1.916936 2.3165154 -1.7661697 1.732167 0.40537003 1.9663094
0.16312939 -1.1318022 -4.3123264 -3.318222 3.1249654 -2.1158776 -1.7381665 3.1549094
-1.2790571 -0.06073431 2.6805465 -2.3837526 0.18435295 -7.3441305 3.678662 0.370649
-1.9694747 -2.7591834 -5.5964026 -0.19541714 -0.5440286 -2.682667 2.0048923 2.8323681
1.2998797 -1.4324621 4.868271 -0.36072055 0.23031713 0.25316748 -1.5723028 0.6061922
-4.547578 -1.3964775 -0.036942586 -2.018278 -2.725504 -3.0159976 -1.7591172 1.7372462
-2.589122 0.2115985 -1.8857907 -3.8840666 3.0174112 -1.2498786 -0.9583847 0.027198212
1.7021207 -4.0284705 -3.9812586 0.20221359 -3.5890212 -1.0428482 3.7954774 -0.40634468
2.5137591 -6.3856754 -1.2143208 -0.81376356 -0.6794976 -2.894973 0.4163257 0.28703448
2.1285045 -0.32614017 5.954906 0.16872281 4.3972635 -3.284484 0.09141186 1.5210963
-6.1046286 2.5284548 -0.1502512 2.8202376 -0.94771135 -5.183408 3.0767484 2.918372
1.1841726 -2.5074365 -2.0136724 -0.696895 -2.194045 -1.2953315 4.102958 1.3428788
-2.0395944 0.069056384 4.9415607 6.061355 -2.5000522 -3.788438 -0.016680406 -1.5422657
0.6676714 -0.52950627 0.8578538 -1.8652167 -4.323628 -0.020661162 5.0776553 2.796177
-2.1527483 2.2867415 0.18104231 1.9758835 -0.43611738 3.006911 -4.5272355 1.4777095
2.4628222 -0.45041275 2.7455375 -0.6700543 -0.341653 -6.43861 -0.5113531 -0.18414176
-0.043957993 0.7716902 2.385544 -2.325082 -1.1723636 -0.4936411 2.257984 0.12617414
1.5179962 -0.59038246 1.7519164 1.695301 -0.95516974 3.174487 -1.5907371 2.3274333
-0.1977121 1.2990886 1.2961298 -5.0314956 5.223292 2.6061065 -4.0170307 2.9219453
2.072732 3.7061632 5.1280184 -1.1977564 -0.6430955 0.1317759 0.16915756 2.8043418
-0.32980144 1.601422 -8.239865 4.0653057 -3.805381 -2.2892513 -0.94619393 6.4509664
2.7686093 5.6431193 2.2327874 0.42408928 1.0535005 1.1035608 -5.1112776 0.24001196
0.7395299 0.28464118 -1.0048156 -6.1729937 0.6071358 -2.8514566 -2.122258 -1.5966026
00000000: 8847 92be a745 e9be f9c9 1c40 aa83 c440
00000010: 0f42 92c0 9698 a5bf caf3 85bf d4a6 e2be
00000020: bb45 70c0 e558 a3bf eea1 0e3f 8566 d2bf
00000030: 3640 4cbf 2127 87bf f868 1b3f 8372 983d
00000040: 99b4 2e40 db79 96bf eed0 df40 9289 ea3b
00000050: f763 adbf 0ba4 96bf 742a 00c0 8fc2 51be
00000060: 28b4 b7bc 4f16 94bf 673f b2c0 d00a c8bf
00000070: 2330 1cc0 bcd0 cd3f d2b9 1dc0 eea0 3abe
00000080: 2025 c83f 9735 2dbf e36c 35c0 25cc 6040
00000090: 75a0 84bf e3a8 98c0 7d7e db3e 0f51 b140
000000a0: f1b6 a9bf 232a 81c0 3fff 7bbf 17e2 b63f
000000b0: b3ba 6ebf 5dd9 82c0 3ab9 cabe 6e73 eebf
000000c0: 9474 073f 3d6a fcbf c340 3740 5b60 1bc0
000000d0: 33a4 7a40 bc3b 56c0 585d 6ac0 7d34 f43f
000000e0: b16f 42bf 0cd3 423f 8ed1 83bf 2547 3ec0
000000f0: 37db 8abf d90f 54be f2e3 adbf 66be 01c0
00000100: 6a36 28c0 fc35 7bc0 3e8b 4fc0 52b0 aa3f
00000110: d70d 93bf 3956 ccbf 6771 9f3f eb69 8bbf
00000120: 86f6 9340 3353 f1bf 295e f5bf ca41 1440
00000130: d911 e2bf a6b7 dd3f a98c cf3e 07b0 fb3f
00000140: 640b 273e e5de 90bf 94fe 89c0 c05d 54c0
00000150: 6fff 4740 8a6a 07c0 3d7c debf 09ea 4940
00000160: 25b8 a3bf 8ac4 78bd 138e 2b40 678f 18c0
00000170: 05c7 3c3e 1e03 ebc0 336f 6b40 b5c5 bd3e
00000180: bf17 fcbf 7696 30c0 bb15 b3c0 6e1b 48be
00000190: 7545 0bbf d1b0 2bc0 2850 0040 8545 3540
000001a0: 7562 a63f eb5a b7bf e0c8 9b40 5db0 b8be
000001b0: 41d8 6b3e 2b9f 813e 3841 c9bf 692f 1b3f
000001c0: c285 91c0 c6bf b2bf 1c51 17bd 772b 01c0
000001d0: a86e 2ec0 1b06 41c0 c12a e1bf 155e de3f
000001e0: 2db4 25c0 47ad 583e 9761 f1bf 8c94 78c0
000001f0: 441d 4140 06fc 9fbf b358 75bf c9ce de3c
00000200: 17df d93f 3be9 80c0 f1cc 7ec0 1411 4f3e
00000210: 86b2 65c0 0d7c 85bf 1ae9 7240 690c d0be
00000220: 6ee1 2040 7457 ccc0 dd6e 9bbf cf52 50bf
00000230: 8ef3 2dbf 3d47 39c0 a428 d53e 2ff6 923e
00000240: 6b39 0840 d8fb a6be 978e be40 acc5 2c3e
00000250: 62b6 8c40 fc34 52c0 2436 bb3d 49b3 c23f
00000260: 1e59 c3c0 34d2 2140 73db 19be c67e 3440
00000270: 369d 72bf 7ade a5c0 72e9 4440 9bc6 3a40
00000280: f892 973f d779 20c0 02e0 00c0 b667 32bf
00000290: 3c6b 0cc0 6ccd a5bf 6f4b 8340 74e3 ab3f
000002a0: b788 02c0 6f6d 8d3d 4421 9e40 9ff6 c140
000002b0: db00 20c0 c575 72c0 59a5 88bc f668 c5bf
000002c0: 83ec 2a3f b98d 07bf 4e9c 5b3f 6cbf eebf
000002d0: 295b 8ac0 9941 a9bc 277c a240 90f4 3240
000002e0: a1c6 09c0 f959 1240 2863 393e c0e9 fc3f
000002f0: c74a dfbe 3b71 4040 1ddf 90c0 9625 bd3f
00000300: e19e 1d40 809c e6be e3b6 2f40 ae88 2bbf
00000310: 24ed aebe 1809 cec0 09e8 02bf a88f 3cbe
00000320: 4c0d 34bd 7d8d 453f c1ac 1840 25ce 14c0
00000330: 0310 96bf 87be fcbe cf82 1040 cb33 013e
00000340: b34d c23f 4e23 17bf cc3e e03f a0ff d83f
00000350: 0186 74bf cc2a 4b40 469d cbbf abf4 1440
00000360: 0a75 4abe 8948 a63f 95e7 a53f 0302 a1c0
00000370: 3525 a740 73ca 2640 848b 80c0 2701 3b40
00000380: a4a7 0440 c731 6d40 ba18 a440 1550 99bf
00000390: e8a1 24bf 43f0 063e a437 2d3e 567a 3340
000003a0: bcdb a8be 65fb cc3f 7dd6 03c1 fc16 8240
000003b0: 5d8b 73c0 1883 12c0 c439 72bf 516e ce40
000003c0: e530 3140 6f94 b440 fde5 0e40 3b22 d93e
000003d0: 1bd9 863f 7b41 8d3f 968f a3c0 b2c5 753e
000003e0: d551 3d3f 7dbc 913e cc9d 80bf 2a89 c5c0
000003f0: 406d 1b3f 447e 36c0 13d3 07c0 795d ccbf

v.v_net.2.bias f4 [64]
0.6508917 -0.82947594 -0.4811305 -0.48518685 -0.022864344 1.2913982 0.4453404 -1.0464413
-0.9500384 1.1952531 -1.2031605 -0.11918243 -0.13208957 2.0731912 0.7244454 0.11321201
1.0147355 -0.0958902 -0.9434635 0.26741835 -2.135474 -1.6077945 0.73824555 0.73614854
0.06576036 0.83906066 -0.779353 0.19609778 -0.4755861 -1.6047492 -1.1521554 -0.33620298
-0.6283572 0.9439396 -0.8452654 -0.128778 0.5823683 0.49639088 0.689269 1.6669627
0.87823844 0.9569783 0.102650136 1.0220962 0.17599452 -0.6958151 -1.2412335 0.5580975
-0.9272995 0.55148107 1.0989387 -1.3655287 0.2904415 -0.43197522 -0.53139096 0.5967361
0.07297633 0.89295113 1.0084766 0.0089790365 0.3598159 1.4247038 0.65936536 -1.4216064
00000000: d7a0 263f 8958 54bf bd56 f6be 696a f8be
00000010: 014e bbbc 894c a53f a803 e43e caf1 85bf
00000020: b735 73bf 0efe 983f 2a01 9abf eb15 f4bd
00000030: 7d42 07be 2aaf 0440 4175 393f b3db e73d
00000040: dae2 813f 1562 c4bd d386 71bf 0feb 883e
00000050: 9bab 08c0 36cc cdbf a9fd 3c3f 3b74 3c3f
00000060: 5ead 863d aecc 563f ae83 47bf dbcd 483e
00000070: 0580 f3be 6c68 cdbf d479 93bf cc22 acbe
00000080: 04dc 20bf 07a6 713f 5063 58bf 61de 03be
00000090: 1716 153f f226 fe3e ef73 303f 095f d53f
000000a0: 3cd4 603f 88fc 743f 3c3a d23d 0cd4 823f
000000b0: e837 343e f020 32bf bde0 9ebf 7adf 0e3f
000000c0: 8063 6dbf dd2d 0d3f 06aa 8c3f a5c9 aebf
000000d0: c0b4 943e db2b ddbe 3d09 08bf b2c3 183f
000000e0: 9d74 953d 7298 643f c315 813f cf1c 133c
000000f0: ca39 b83e b25c b63f 2bcc 283f 33f7 b5bf

v.v_net.4.weight f4 [1, 64]
-9.957166 6.400133 -8.6796665 6.8340244 -10.482739 12.081103 12.051442 8.824732
7.4208016 7.6985383 -10.975551 10.980589 -7.4029636 -11.336628 -7.739054 -7.122978
-7.40242 -3.6176658 5.6714416 -8.342483 -6.5013604 -28.203077 8.400579 -8.949213
-9.49812 -8.659897 9.409765 -10.876359 7.4625034 -45.22967 8.928171 9.919056
-12.359875 -9.5524235 -11.962754 7.9573894 -9.490798 11.127235 -5.5101366 7.864536
7.1315255 -6.9219265 5.494961 8.408583 -13.440322 -11.708284 7.3217993 13.195938
7.0977154 7.6500854 10.800867 7.8185506 -9.24291 -11.365239 -0.36795303 13.321826
10.923012 13.224532 12.460997 -8.401681 -9.7956505 11.045605 -9.609425 -11.729405
00000000: 8d50 1fc1 e4cd cc40 eadf 0ac1 54b0 da40
00000010: 4db9 27c1 334c 4141 b5d2 4041 1a32 0d41
00000020: 3577 ed40 6d5a f640 db9b 2fc1 7eb0 2f41
00000030: 14e5 ecc0 d462 35c1 55a6 f7c0 70ef e3c0
00000040: a0e0 ecc0 d687 67c0 737c b540 cf7a 05c1
00000050: 250b d0c0 e79f e1c1 c668 0641 fa2f 0fc1
00000060: 4df8 17c1 f08e 0ac1 668e 1641 9105 2ec1
00000070: d4cc ee40 2feb 34c2 cad9 0e41 74b4 1e41
00000080: 0cc2 45c1 bad6 18c1 7167 3fc1 efa2 fe40
00000090: 4fda 17c1 2809 3241 0a53 b0c0 47aa fb40
000000a0: 7535 e440 6c80 ddc0 b8d6 af40 8e89 0641
000000b0: 8f0b 57c1 2255 3bc1 2e4c ea40 9022 5341
000000c0: 7c20 e340 80cd f440 5ad0 2c41 9131 fa40
000000d0: f6e2 13c1 05d8 35c1 5764 bcbe 3326 5541
000000e0: a8c4 2e41 af97 5341 3e60 4741 496d 06c1
000000f0: fcba 1cc1 ccba 3041 34c0 19c1 a5ab 3bc1
