model_wts/s2_d2_m0.0_b1.0.ckpt (torch, 206875 bytes, 11 tensors)

pi.logits_net.0.weight f4 [64, 282]
0.079679705 0.029927596 0.13349666 0.11951443 0.065392435 0.066653095 0.07617915 0.0348787
0.13076249 0.17253587 0.03526128 0.048055418 0.052924544 0.16586044 0.05645026 0.14725067
0.09122115 0.06587638 0.017060462 0.13270615 0.007692602 0.078978986 0.14374548 0.09471499
0.18565507 0.13284701 0.07257763 0.04209178 0.04927063 0.03708829 -0.0016187085 0.07851943
0.05811263 0.09166808 0.07836955 0.055725962 0.10919501 0.094306506 0.0267623 0.08452058
0.098467134 -0.027743312 0.14257598 0.14032193 0.16029331 0.14640489 0.06519263 0.04258781
0.03374134 0.08757125 0.10721178 0.106022336 0.070199944 0.15168235 0.02958018 0.03730259
0.031997025 0.11007833 0.12378006 0.13055171 0.105639204 0.06627186 0.10044429 0.08465413
0.096991986 0.11623058 0.2300562 -0.028425077 0.12693338 0.09505866 -0.010149684 0.13490328
0.07800478 0.16474764 0.025180431 0.093517765 0.04986719 0.027352968 0.10976478 0.07952397
0.07806071 0.032643933 0.023727333 0.08985869 0.14302745 0.039361507 0.021848662 -0.25820565
0.04072018 -0.21675469 -0.38826537 -0.17818202 0.00849315 -0.15771247 -0.0041197487 0.0373741
-0.14000496 -0.19413851 0.2771758 -0.24855042 0.11897563 0.33289745 -0.24546535 -0.12141575
0.18669285 0.02887611 -0.21171516 -0.3635168 -0.35882315 -0.11485418 0.025555702 0.300741
0.09558304 -0.11924212 -0.5460064 -0.12161082 -0.56283164 -0.19773598 -0.3185718 0.3286527
0.3942496 0.013559581 -0.14959931 -0.015709726 -0.0929283 0.1229175 0.073067956 -0.119238056
-0.6743475 -0.29800257 0.0341215 0.079387076 -0.29559258 0.0056337225 -0.05467205 -0.4392529
-0.41462 -0.5106841 -0.1390748 -0.23513225 -0.3886956 -0.18302333 0.09449395 0.10670474
-0.41106743 0.10035238 -0.35414305 -0.174864 0.043612223 -0.075751886 -0.32062697 -0.32446122
-0.014513447 0.048473492 -0.38236126 -0.31398478 -0.22355302 0.046577625 0.20422669 -0.105466485
0.24915975 -0.5605927 -0.12917213 0.065337315 -0.11108679 0.1633328 0.20233291 -0.4401502
-0.6139894 -0.36283186 -0.53017914 -0.3182847 -0.5441997 -0.1302324 0.06815143 -0.20043024
-0.31953228 -0.28133544 0.20275803 0.041535914 0.6350611 -0.13623242 0.33370253 0.3532127
-0.038575463 0.24814111 -0.7494639 -0.724892 -0.15205427 0.56066865 -0.053272016 -0.2371665
-0.17779087 -0.35581365 0.09358441 0.612982 0.0570036 0.29601172 0.3758125 0.7616633
0.12384083 0.30154026 0.28564268 -0.041453473 0.14870204 0.033791453 -0.92395055 -0.5585501
0.040311612 0.45094496 -0.1676264 1.161985 -0.022516964 -0.81036955 -0.23191255 0.57721716
-0.6179718 -0.56068695 0.761621 -0.066165455 0.5186995 0.32315314 -0.02703021 -0.11850954
-0.071181454 -0.8888934 0.065381885 0.8674369 -0.3013765 -0.12593216 -0.517461 0.1014485
0.4938657 -0.045506146 0.877433 -0.9282459 -0.62064224 0.16213097 0.23588298 1.0103294
-0.24938859 -0.8135769 0.5819254 0.60622716 -0.19497524 -0.42967635 0.6721165 -0.557053
0.00465032 0.20793019 -0.52417046 -0.120878264 0.7141604 0.3855538 -0.03394864 -1.2109532
00000000: 1d2f a33d b82a f53c 59b3 083e fbc3 f43d
00000010: 78ec 853d 6b81 883d d003 9c3d f8dc 0e3d
00000020: 9ae6 053e 3ead 303e 226e 103d c2d5 443d
00000030: 68c7 583d 52d7 293e 6338 673d e1c8 163e
00000040: 27d2 ba3d 32ea 863d 62c2 8b3c 1fe4 073e
00000050: 3912 fc3b bcbf a13d 0432 133e eff9 c13d
00000060: 5d1c 3e3e 0c09 083e 95a3 943d 6e68 2c3d
00000070: 00d0 493d e4e9 173d d82a d4ba cbce a03d
00000080: 8207 6e3d 79bc bb3d 3780 a03d e840 643d
00000090: a2a1 df3d c523 c13d 9c3c db3c 2019 ad3d
000000a0: 23a9 c93d f145 e3bc 70ff 113e 8db0 0f3e
000000b0: ee23 243e 2aeb 153e b783 853d 8e70 2e3d
000000c0: 5c34 0a3d 8e58 b33d da91 db3d 3d22 d93d
000000d0: fdc4 8f3d 9e52 1b3e 2252 f23c 9aca 183d
000000e0: 500f 033d bf70 e13d 6680 fd3d 59af 053e
000000f0: 5e59 d83d 8ab9 873d bcb5 cd3d 255f ad3d
00000100: bca3 c63d 4c0a ee3d da93 6b3e b5db e8bc
00000110: d3fa 013e 1dae c23d dc4a 26bc 1624 0a3e
00000120: f8c0 9f3d 9bb3 283e 3147 ce3c 3e86 bf3d
00000130: 8a41 4c3d 5513 e03c 5bcc e03d 77dd a23d
00000140: 4bde 9f3d a5b5 053d d35f c23c d507 b83d
00000150: ca75 123e 8839 213d f7fb b23c 8833 84be
00000160: 34ca 263d f1f4 5dbe b8ca c6be 5975 36be
00000170: da26 0b3c 617f 21be f5fe 86bb 9615 193d
00000180: 765d 0fbe 3fcc 46be fde9 8d3e 0084 7ebe
00000190: 7fa9 f33d 8971 aa3e 455b 7bbe d2a8 f8bd
000001a0: 692c 3f3e 988d ec3c dccb 58be e01e babe
000001b0: abb7 b7be ab38 ebbd 315a d13c b9fa 993e
000001c0: 0ac1 c33d 3635 f4bd 13c7 0bbf 180f f9bd
000001d0: bc15 10bf 4d7b 4abe d81b a3be 2b45 a83e
000001e0: 15db c93e 0129 5e3c 9030 19be afb1 80bc
000001f0: 3151 bebd 2cbc fb3d a7a4 953d 1533 f4bd
00000200: 0aa2 2cbf cb93 98be fcc2 0b3d b195 a23d
00000210: e957 97be 179b b83b cdef 5fbd c2e5 e0be
00000220: 1349 d4be 31bc 02bf a069 0ebe 82c6 70be
00000230: 1c03 c7be 786a 3bbe 0b86 c13d 0488 da3d
00000240: 6e77 d2be 8c85 cd3d 3d52 b5be 8c0f 33be
00000250: bba2 323d ce23 9bbd 3829 a4be c81f a6be
00000260: cfc9 6dbc 248c 463d dbc4 c3be 9dc2 a0be
00000270: 15eb 64be 2ec8 3e3d cd20 513e d0fe d7bd
00000280: bc23 7f3e 0183 0fbf b345 04be 92cf 853d
00000290: 7981 e3bd b740 273e 5c30 4f3e 5e5b e1be
000002a0: 692e 1dbf 19c5 b9be d2b9 07bf 36f6 a2be
000002b0: ac50 0bbf a45b 05be fa92 8b3d 963d 4dbe
000002c0: bc99 a3be 330b 90be cd9f 4f3e 9021 2a3d
000002d0: 5d93 223f 8380 0bbe 0fdb aa3e 4cd8 b43e
000002e0: 4e01 1ebd b418 7e3e dedc 3fbf 8692 39bf
000002f0: 1db4 1bbe fb87 0f3f c233 5abd c6db 72be
00000300: cf0e 36be 352d b6be 2fa9 bf3d 63ec 1c3f
00000310: 9b7c 693d d98e 973e 7f6a c03e 5efc 423f
00000320: 43a0 fd3d 7c63 9a3e c23f 923e 1ecb 29bd
00000330: 5945 183e e868 0a3d 0688 6cbf 24fd 0ebf
00000340: ca1d 253d 42e2 e63e 41a6 2bbe edbb 943f
00000350: 7f75 b8bc 6174 4fbf 7c7a 6dbe 81c4 133f
00000360: 6633 1ebf 2e89 0fbf 98f9 423f c181 87bd
00000370: 7ec9 043f 5474 a53e 756e ddbc 21b5 f2bd
00000380: 95c7 91bd 858e 63bf f0e6 853d 5810 5e3f
00000390: 054e 9abe 5cf4 00be 5378 04bf 3bc4 cf3d
000003a0: f7db fc3e a764 3abd 739f 603f 86a1 6dbf
000003b0: 69e2 1ebf a905 263e 4f8b 713e 7952 813f
000003c0: b95f 7fbe 9346 50bf 10f9 143f b431 1b3f
000003d0: 97a7 47be 8afe dbbe d40f 2c3f 079b 0ebf
000003e0: b661 983b a7eb 543e 0930 06bf 068f f7bd
000003f0: 37d3 363f 4f67 c53e bb0d 0bbd 8400 9bbf

pi.logits_net.0.bias f4 [64]
-0.16737376 -0.35870165 0.3763364 -0.23532653 0.29874638 -0.2833135 -0.24375601 0.17752218
-0.19384217 0.079702 0.1887775 -0.08349927 -0.23304784 0.25425395 -0.15324293 0.122054756
0.37577274 0.27110973 -0.06402537 0.22355287 0.13545918 0.13654037 -0.12485573 0.3044373
-0.043824825 0.041819327 -0.35768762 -0.092445396 0.18055037 0.026148587 0.17563443 -0.28804898
0.13351929 0.2399914 0.2642732 0.29130062 -0.13680087 -0.27632847 0.10835951 0.18040827
-0.030685998 0.23878425 0.2142211 0.077412054 0.20592955 -0.18438686 -0.17137735 -0.23147166
0.25657666 0.24162501 0.16578282 -0.033627 0.015657727 0.02081226 0.11484246 -0.21997328
-0.5002958 0.16262054 -0.17388114 0.11039824 -0.0954865 -0.07291769 0.15145434 0.13541369
00000000: 0764 2bbe bea7 b7be 2aaf c03e 70f9 70be
00000010: 49f5 983e 780e 91be 2d9b 79be 60c8 353e
00000020: 907e 46be cd3a a33d e44e 413e aa01 abbd
00000030: 18a4 6ebe 932d 823e b7eb 1cbe d8f7 f93d
00000040: 4965 c03e e5ce 8a3e bc1f 83bd 0beb 643e
00000050: d0b5 0a3e 3dd1 0b3e 5cb4 ffbd 35df 9b3e
00000060: a981 33bd be4a 2b3d d522 b7be 0354 bdbd
00000070: 32e2 383e 9035 d63c 83d9 333e 287b 93be
00000080: 48b9 083e 4ec0 753e d14e 873e 5b25 953e
00000090: 8715 0cbe ed7a 8dbe 97eb dd3d f2bc 383e
000000a0: 3461 fbbc dc83 743e c75c 5b3e 368a 9e3d
000000b0: 32df 523e e9cf 3cbe 8b7d 2fbe e806 6dbe
000000c0: 045e 833e 8c6c 773e f9c2 293e 77bc 09bd
000000d0: a244 803c 797e aa3c 8632 eb3d ad40 61be
000000e0: 6313 00bf 0086 263e e60d 32be 7918 e23d
000000f0: 6d8e c3bd df55 95bd d916 1b3e e3a9 0a3e

pi.logits_net.2.weight f4 [64, 64]
0.1502912 -0.22123 0.2727206 -0.784738 0.2044395 0.7292968 -0.15151972 0.32901478
-0.31313074 -0.14422268 0.48451266 0.30361325 -0.35857877 -0.11102054 -0.074138835 -0.64213973
-0.034869205 0.12911019 -0.47808954 0.26527116 -0.19286732 0.18732378 0.6671084 -0.053345267
-0.5037783 0.90362227 0.37711906 0.5225525 0.115491614 -0.12783042 -0.071061775 -0.45043984
-0.19938353 0.38471848 0.15631516 0.1839213 0.16842008 0.006135753 -0.0074195447 0.83589464
-0.1264717 -0.40653783 0.92042655 0.18945108 0.07389217 -0.32085875 -0.87647057 0.11315639
-0.016733317 0.09462492 0.45363975 -0.21020879 0.08495866 -0.25303003 -0.6850592 -0.022918297
-0.9196504 0.23656982 0.6803266 -0.29546365 0.1866648 0.26589364 0.33671582 -0.30308554
0.021386333 0.18892999 -0.2603854 -0.31394407 -0.26595837 0.93689466 -0.50540537 0.020681024
-0.054835748 -0.044252776 0.4750811 0.08963631 -0.09877318 0.25610647 0.14987618 -0.60754067
-0.13917238 -0.25703093 -0.23608774 0.31117377 -0.8383084 -0.30715874 0.8421208 0.2753155
-0.4585534 0.82778937 -0.08877747 0.02587855 -0.19060126 0.29926684 -0.01526353 -0.51352185
-0.091279425 -0.045788463 -0.15266155 -0.415773 -0.04698647 -0.16913897 0.48574632 -0.10178378
-0.08478798 1.0013393 0.18106504 0.31374937 0.34418303 -0.35781795 -0.3771766 0.1594333
0.1616006 0.82766193 0.62505406 -0.21862298 0.74429214 -0.30909538 -0.8405202 0.0021588444
0.185148 -0.27780402 0.3849096 0.59506065 0.2792335 0.42134964 0.97927016 -0.59629405
0.064188465 -0.09962025 -0.78627306 -0.14549486 0.23084727 -0.8834724 0.16237432 0.2759738
0.14235464 -0.021828502 -1.1557763 0.49972087 0.44917974 -0.010493113 0.116221435 -0.03956316
-0.31180254 -0.124354735 -0.30498573 0.71757984 0.3683963 -0.9155428 -0.40380305 -0.2590554
0.6170503 -0.42980185 -0.3191308 -0.5132695 0.088256195 -0.011947259 -0.3158363 0.0027180596
-0.6329335 -0.5537352 -0.24963203 0.23981093 0.40450796 0.08380511 -0.700353 0.18920921
-0.4616853 -0.51522726 0.24775831 0.330859 0.15618098 -0.1748389 0.15262406 -0.31298614
-0.3470625 -0.20277025 -0.21679132 0.47731522 -0.5468629 0.44739658 -0.33158997 0.229903
0.20343743 -0.36390385 -0.26073635 -0.07681893 -0.01846619 0.14582802 -1.6901653 -0.6469598
-0.14563408 0.14988896 -0.24013852 0.3025021 -0.3738595 -0.4808672 -0.31801775 0.47733632
0.6960427 0.29794657 0.3366112 -0.2803867 0.13347085 -0.92061365 -0.067905866 -0.22922261
0.7956724 -0.52434844 0.25674474 -0.6260598 0.4337295 0.42745945 0.3118036 -0.785595
0.23610856 -0.46838906 -0.88830066 0.38684756 -0.36647335 -0.61873007 -0.09335955 0.027476665
-0.1142915 -0.10906422 0.11532347 -0.2245222 0.4659598 -0.27571946 0.1303444 -0.22168157
-0.11889789 0.14114551 0.051636413 0.14747111 -0.0444356 0.14649464 -0.6343808 0.07866216
-0.06580619 0.2215042 -0.12602913 -0.3508734 0.28141373 0.12636475 0.9993117 0.40262705
0.35773095 0.044113968 -0.2044661 -0.3414775 0.40826666 0.6519777 0.20756558 0.81158626
00000000: f0e5 193e 1e8a 62be 09a2 8b3e 97e4 48bf
00000010: 9758 513e 32b3 3a3f fc27 1bbe a074 a83e
00000020: ac52 a0be 1caf 13be 0b12 f83e 3273 9b3e
00000030: a397 b7be bd5e e3bd 1ad6 97bd 4563 24bf
00000040: 03d3 0ebd 7635 043e 27c8 f4be 9fd1 873e
00000050: 037f 45be ced1 3f3e 9ec7 2a3f 9180 5abd
00000060: 9df7 00bf ca53 673f c015 c13e 00c6 053f
00000070: de86 ec3d fae5 02be d688 91bd 0da0 e6be
00000080: 322b 4cbe d2f9 c43e 1511 203e de55 3c3e
00000090: 5076 2c3e 6d0e c93b a71f f3bb 31fd 553f
000000a0: cc81 01be ba25 d0be 13a1 6b3f 77ff 413e
000000b0: c754 973d 9947 a4be 6060 60bf 8abe e73d
000000c0: 4f14 89bc b6ca c13d 7843 e83e f940 57be
000000d0: cefe ad3d 278d 81be 0a60 2fbf 27bf bbbc
000000e0: 356e 6bbf 5c3f 723e e229 2e3f 0347 97be
000000f0: 0f25 3f3e 3623 883e 0466 ac3e 072e 9bbe
00000100: 6432 af3c dd76 413e 3c51 85be 47bd a0be
00000110: b22b 88be 54d8 6f3f 3f62 01bf 406b a93c
00000120: 739b 60bd 6642 35bd d43d f33e 3e93 b73d
00000130: 9849 cabd 6320 833e 2479 193e c987 1bbf
00000140: 3483 0ebe 8f99 83be fcc0 71be 2b52 9f3e
00000150: 619b 56bf e943 9dbe 3b95 573f 27f6 8c3e
00000160: 83c7 eabe 01ea 533f f6d0 b5bd 41ff d33c
00000170: fa2c 43be 8139 993e e313 7abc 2b76 03bf
00000180: b5f0 babd af8c 3bbd 4f53 1cbe 33e0 d4be
00000190: e374 40bd c432 2dbe beb3 f83e 0474 d0bd
000001a0: 52a5 adbd e32b 803f 1d69 393e c2a3 a03e
000001b0: c238 b03e ea33 b7be 4b1d c1be 7c42 233e
000001c0: a17a 253e a7e1 533f 8b03 203f b4de 5fbe
000001d0: ee89 3e3f c041 9ebe 552c 57bf 667b 0d3b
000001e0: 7097 3d3e 543c 8ebe df12 c53e e555 183f
000001f0: b1f7 8e3e 24bb d73e 73b1 7a3f baa6 18bf
00000200: 3e75 833d b405 ccbd 3149 49bf 9bfc 14be
00000210: 3a63 6c3e 3f2b 62bf 7445 263e 704c 8d3e
00000220: 6ac5 113e b0d1 b2bc 7af0 93bf 6adb ff3e
00000230: e3fa e53e 4eeb 2bbc 8105 ee3d fb0c 22bd
00000240: 95a4 9fbe b2ad febd 1727 9cbe 50b3 373f
00000250: 719e bc3e 0361 6abf 46bf cebe e9a2 84be
00000260: 02f7 1d3f fd0e dcbe 1d65 a3be a165 03bf
00000270: aabf b43d 70be 43bc 4cb5 a1be 7921 323b
00000280: ee07 22bf 97c1 0dbf 8a9f 7fbe ff90 753e
00000290: ab1b cf3e 03a2 ab3d 564a 33bf 0fc0 413e
000002a0: 0462 ecbe efe5 03bf 5bb4 7d3e 5a66 a93e
000002b0: e8ed 1f3e f808 33be 7b49 1c3e b83f a0be
000002c0: 2db2 b1be 01a3 4fbe 8bfe 5dbe a962 f43e
000002d0: 35ff 0bbf 2a11 e53e 29c6 a9be b16b 6b3e
000002e0: e751 503e 9b51 babe 3c7f 85be 3e53 9dbd
000002f0: 6846 97bc f153 153e 5657 d8bf 289f 25bf
00000300: 1a21 15be 7e7c 193e dfe6 75be 8ee1 9a3e
00000310: 836a bfbe 3a34 f6be 39d3 a2be 6d65 f43e
00000320: db2f 323f 748c 983e 4e58 ac3e d88e 8fbe
00000330: 95ac 083e 56ad 6bbf 3b12 8bbd 55b9 6abe
00000340: 30b1 4b3f b33b 06bf 0c74 833e 7445 20bf
00000350: cb11 de3e f7db da3e b9a4 9f3e c11c 49bf
00000360: 71c6 713e b1d0 efbe ac67 63bf e210 c63e
00000370: 65a2 bbbe 1865 1ebf 4b33 bfbd be16 e13c
00000380: a911 eabd 105d dfbd b62e ec3d 26e9 65be
00000390: 4892 ee3e 1a2b 8dbe 0179 053e 7e00 63be
000003a0: bd80 f3bd 7388 103e b480 533d ab02 173e
000003b0: 1b02 36bd b102 163e c866 22bf a019 a13d
000003c0: 65c5 86bd ffd1 623e c80d 01be aea5 b3be
000003d0: 7615 903e c365 013e e4d2 7f3f 2225 ce3e
000003e0: 8328 b73e d9b0 343d 905f 51be 24d6 aebe
000003f0: 5408 d13e 03e8 263f 128c 543e 1ec4 4f3f

pi.logits_net.2.bias f4 [64]
0.1272956 0.16876315 -0.3646586 -0.05471726 -0.124111645 0.015567992 -0.5152377 -0.16090754
0.00019675861 -0.1489545 -0.09032453 0.25393263 0.10851236 0.29349583 -0.155754 -0.03668815
-0.071660355 0.3308592 -0.027684953 -0.016993761 -0.27692813 0.2640262 0.19977523 -0.18627377
-0.009444201 -0.10733102 -0.15575533 -0.046865154 0.22377367 0.20152947 -0.046016973 -0.08763641
0.20916806 0.10895012 0.3422741 0.05787341 -0.4294156 -0.11716364 -0.16247165 0.04505221
-0.23830745 -0.47624886 0.36303657 -0.10834228 -0.25057644 -0.14049861 -0.10000311 -0.27404445
-0.20985003 0.36162913 0.19829491 -0.55056596 0.05381222 0.24503897 0.083922036 -0.19852708
-0.06674922 -0.3633668 0.018992389 -0.42130414 -0.19673668 0.08082195 -0.059233293 -0.4563952
00000000: c759 023e 3fd0 2c3e 88b4 babe 351f 60bd
00000010: 3f2e febd e410 7f3c 9ee6 03bf f2c4 24be
00000020: fd50 4e39 8787 18be 11fc b8bd 7503 823e
00000030: ba3b de3d 1645 963e fa7d 1fbe 5046 16bd
00000040: aac2 92bd 6166 a93e 8ecb e2bc 8036 8bbc
00000050: 86c9 8dbe 712e 873e e191 4c3e 8dbe 3ebe
00000060: dabb 1abc 5ed0 dbbd 537e 1fbe adf5 3fbd
00000070: ed24 653e be5d 4e3e 4b7c 3cbd b87a b3bd
00000080: 2730 563e 3e21 df3d 8d3e af3e ab0c 6d3d
00000090: 5ddc dbbe 7ef3 efbd f85e 26be ab88 383d
000000a0: de06 74be e4d6 f3be eedf b93e 8fe2 ddbd
000000b0: 8e4b 80be dede 0fbe 6ece ccbd 8e4f 8cbe
000000c0: ede2 56be 7427 b93e d20d 4b3e e4f1 0cbf
000000d0: 346a 5c3d 7feb 7a3e 51df ab3d af4a 4bbe
000000e0: d1b3 88bd 370b babe ed95 9b3c 2db5 d7be
000000f0: 5775 49be fb85 a53d 9c9e 72bd a2ac e9be

pi.logits_net.4.weight f4 [87, 64]
0.9139917 -0.507544 0.32224563 0.40874603 0.36895105 -0.056007408 -0.2704129 -0.15719692
0.55945253 -0.49028522 0.2935378 -0.10803307 0.49655065 -0.18697183 -0.42507234 -0.24681322
-0.4914074 0.59625834 -0.10834296 -0.83413965 -0.7244023 0.49983636 0.55309725 -1.1600131
1.5239323 -1.0340731 -1.1476351 0.27070794 -0.09285169 0.08502817 0.15787254 0.65922636
-0.87124944 -0.8253898 -0.94311285 -0.16940925 -0.33505708 -0.8711333 -0.3064896 0.33281687
-0.10453581 -0.6080641 0.485985 -0.1323264 -1.2000653 -0.77381027 -0.5531616 -0.83944744
0.3600902 0.04968087 -0.2156832 -0.37504715 1.1645654 0.4985912 0.2789881 -0.16626906
-0.3974811 -0.23230802 0.54932797 -0.4620048 -0.5062969 -0.47713464 -0.9173658 -0.13370378
0.37875074 1.2444062 -0.6398095 -1.013532 0.85532564 0.2275099 -0.09142415 -0.4818643
-0.13666324 -0.06717106 0.41840976 -0.24664003 0.68697643 0.81539255 -0.12596665 0.09679598
-0.5256395 0.014216551 -0.71493834 -0.33439526 0.28326285 0.27349404 0.27686647 0.21853742
-0.2016565 0.38431957 -0.44858003 0.13345158 -0.57147664 0.359548 0.33436847 -0.5530765
1.1155232 -0.5093865 0.4852181 -0.3397464 0.5534958 -0.11475969 0.1939616 0.17425302
0.10372242 0.18710984 1.0372198 -0.38069698 0.07994088 0.5839717 -0.18724245 -0.794032
-0.56692845 -0.66503745 -0.07366522 -0.44241202 0.23987703 0.47512645 0.4666975 0.024917953
-0.6161959 -0.5276779 -0.11652221 -0.60592514 -0.75993305 0.13265301 1.2550856 -0.6174424
0.33307 0.29942426 -0.48653874 -0.031608205 -0.44356787 -0.37308723 -0.47256705 -0.031940654
0.18089315 -0.5752907 -0.4267518 0.15975937 0.53282094 0.12371231 -0.4151977 -0.73216486
1.094204 1.2428578 0.079409294 0.0691562 -1.0554076 0.56624156 0.107034355 -0.003606457
0.27883196 -1.1908472 -0.28053933 -0.49959302 -0.0808071 0.58511746 -0.000816597 0.6072443
0.43893632 0.02878073 0.27276087 -0.23338482 -0.6381719 -0.71076137 -0.90586984 0.08571528
-0.937686 -0.7113994 0.27414736 1.0776597 -0.59688234 -0.5663917 -0.30363166 -0.49624714
0.1554458 0.05602444 -1.0062337 -0.28331807 -0.21014082 0.42450443 0.35897955 -1.0293678
0.2652647 -0.508579 0.2845085 -0.41488037 -1.0293941 0.20508696 -0.20191862 -0.3258978
0.35291 0.10547822 -0.676708 -1.0373312 0.79217196 0.17262697 -0.77973473 -0.60514164
-0.16083242 -0.01759894 -0.074168675 -1.0023046 0.6567488 0.39652914 -1.0305244 1.3588997
-0.6804873 0.8999108 0.40109637 -1.0761917 -0.4827507 -0.07811903 0.83572745 -0.8376326
-0.63209236 -0.74979866 -0.7053058 0.5814084 0.2082668 0.44710708 0.28146818 1.2084998
0.528458 -0.53339386 0.47685218 -0.51724166 1.3875942 0.2775586 -0.7588787 0.50350636
0.72285146 0.07119729 0.25950596 -1.1340129 0.70829237 0.36272705 -0.25461257 -0.18885331
-0.17003419 1.3333454 1.4388773 -0.5881121 0.35769656 0.24138384 -0.11232576 0.46643063
-0.8322607 -0.44261056 0.8022822 -0.7021233 -0.0065416032 0.1859432 1.3903171 -0.75799614
00000000: 5cfb 693f 67ee 01bf 61fd a43e 2947 d13e
00000010: 27e7 bc3e 0668 65bd 8f73 8abe 3bf8 20be
00000020: 4838 0f3f aa06 fbbe 964a 963e 7140 ddbd
00000030: e33b fe3e 8b75 3fbe 15a3 d9be 9bbc 7cbe
00000040: c099 fbbe 63a4 183f eae2 ddbd 2d8a 55bf
00000050: 6e72 39bf 8dea ff3e c897 0d3f 4f7b 94bf
00000060: 3710 c33f 825c 84bf b5e5 92bf 3b9a 8a3e
00000070: 0729 bebd 4023 ae3d 57a9 213e 0fc3 283f
00000080: 340a 5fbf bf4c 53bf d86f 71bf 9e79 2dbe
00000090: 9a8c abbe 9802 5fbf 34ec 9cbe f966 aa3e
000000a0: df16 d6bd 17aa 1bbf 07d3 f83e 9280 07be
000000b0: bd9b 99bf 6e18 46bf 009c 0dbf 07e6 56bf
000000c0: be5d b83e 2b7e 4b3d 0fdc 5cbe 2e06 c0be
000000d0: 7b10 953f 5947 ff3e 87d7 8e3e 7042 2abe
000000e0: a582 cbbe 27e2 6dbe c2a0 0c3f e58b ecbe
000000f0: ac9c 01bf fe4a f4be 7cd8 6abf a5e9 08be
00000100: 9eeb c13e b448 9f3f 8eca 23bf 6bbb 81bf
00000110: 9ff6 5a3f 5bf8 683e 963c bbbd ebb6 f6be
00000120: 73f1 0bbe fb90 89bd ce39 d63e 348f 7cbe
00000130: b0dd 2f3f 91bd 503f 67fd 00be f93c c63d
00000140: 4f90 06bf 89ec 683c 3306 37bf db35 abbe
00000150: d407 913e 6907 8c3e 71c1 8d3e 46c8 5f3e
00000160: 0b7f 4ebe 89c5 c43e 48ac e5be 88a7 083e
00000170: 4b4c 12bf ad16 b83e 5832 ab3e 6c96 0dbf
00000180: 77c9 8e3f 2767 02bf 826e f83e 3df3 adbe
00000190: e7b1 0d3f 2107 ebbd df9d 463e 626f 323e
000001a0: 6c6c d43d b999 3f3e 9ec3 843f b7ea c2be
000001b0: 0bb8 a33d 2b7f 153f 7cbc 3fbe ae45 4bbf
000001c0: 3922 11bf e53f 2abf cadd 96bd d483 e2be
000001d0: 53a2 753e c643 f33e faf2 ee3e bc20 cc3c
000001e0: 04bf 1dbf e615 07bf 32a3 eebd e91d 1bbf
000001f0: f98a 42bf 31d6 073e a5a6 a03f b510 1ebf
00000200: 2788 aa3e 234e 993e 9b1b f9be 9b77 01bd
00000210: 541b e3be 4a05 bfbe 4ff4 f1be 34d4 02bd
00000220: 0e3c 393e 4046 13bf 367f dabe f697 233e
00000230: f466 083f e15c fd3d cb94 d4be 286f 3bbf
00000240: e00e 8c3f f715 9f3f 57a1 a23d c4a1 8d3d
00000250: 9917 87bf 35f5 103f d434 db3d 4f5a 6cbb
00000260: 10c3 8e3e ae6d 98bf daa2 8fbe a8ca ffbe
00000270: 317e a5bd 42ca 153f e610 56ba 5d74 1b3f
00000280: 43bc e03e 91c5 eb3c 50a7 8b3e 6efc 6ebe
00000290: 3c5f 23bf 75f4 35bf 16e7 67bf 7e8b af3d
000002a0: 310c 70bf 451e 36bf 0b5d 8c3e c1f0 893f
000002b0: 48cd 18bf 0cff 10bf 9c75 9bbe 1b14 febe
000002c0: 2f2d 1f3e e279 653d 44cc 80bf 110f 91be
000002d0: 282f 57be a558 d93e 2bcc b73e 53c2 83bf
000002e0: c6d0 873e 3c32 02bf 19ab 913e 336b d4be
000002f0: 30c3 83bf 5102 523e c1c3 4ebe 14dc a6be
00000300: 9fb0 b43e f704 d83d bc3c 2dbf 45c7 84bf
00000310: c8cb 4a3f 20c5 303e b29c 47bf 90ea 1abf
00000320: 41b1 24be a72b 90bc bfe5 97bd 844b 80bf
00000330: b020 283f de05 cb3e 39e8 83bf 6df0 ad3f
00000340: 6a34 2ebf 8e60 663f 815c cd3e a6c0 89bf
00000350: 1a2b f7be dffc 9fbd 3cf2 553f 176f 56bf
00000360: ced0 21bf cef2 3fbf ec8e 34bf 2ed7 143f
00000370: e443 553e 38eb e43e 991c 903e 1fb0 9a3f
00000380: 0649 073f 808c 08bf f825 f43e f369 04bf
00000390: b09c b13f 291c 8e3e e045 42bf cbe5 003f
000003a0: cb0c 393f e3cf 913d f7dd 843e 5627 91bf
000003b0: a652 353f 5cb7 b93e 945c 82be c362 41be
000003c0: 711d 2ebe 10ab aa3f 222d b83f 848e 16bf
000003d0: 0124 b73e 532d 773e 0c0b e6bd ffcf ee3e
000003e0: 0a0f 55bf da9d e2be 5e62 4d3f 5abe 33bf
000003f0: f25a d6bb e567 3e3e e9f5 b13f 090c 42bf

pi.logits_net.4.bias f4 [87]
0.3286156 0.3681824 0.54784036 0.59058744 0.2295084 0.24964213 0.7575222 0.5754457
0.4032381 0.59057087 0.19359529 0.25066385 0.5322788 0.37194493 0.22279263 0.40630782
0.2255231 0.6300839 0.68470645 0.45608306 0.3248072 0.43796715 0.16385446 0.40428233
0.37268358 0.35856864 0.21314682 0.09582102 0.48345226 0.43368343 0.37884274 0.4182735
0.57575387 0.33741224 0.4481221 0.34558487 0.25548157 0.5517353 0.6023489 0.4353768
0.47388875 0.15552345 0.5116815 0.36717382 0.33110932 0.6490347 0.2988075 0.4328691
0.3237178 0.8104205 0.5840577 0.37690768 0.3677217 0.52733237 0.5005706 0.3710057
0.52396613 0.58621925 0.47857895 0.2847168 0.784236 0.55467963 0.30110773 0.092884004
0.49913073 0.47283423 0.3147402 0.19072363 0.49937817 0.66930103 0.6504997 0.5315108
0.601051 0.2545907 0.4419699 0.7417406 0.4165823 0.42658573 0.46217084 0.34139556
0.28172445 0.5267069 0.6689713 0.3690626 0.5911142 0.34633145 0.5054165
00000000: 4e40 a83e 6782 bc3e 443f 0c3f bd30 173f
00000010: 4004 6b3e 30a2 7f3e faec 413f 6950 133f
00000020: 3975 ce3e a72f 173f d83d 463e 0357 803e
00000030: 6c43 083f 916f be3e c023 643e 9407 d03e
00000040: 87ef 663e 2e4d 213f ec48 2f3f b883 e93e
00000050: 214d a63e 3b3d e03e 77c9 273e 18fe ce3e
00000060: 62d0 be3e 4f96 b73e 2943 5a3e d03d c43d
00000070: 0e87 f73e c10b de3e adf7 c13e f227 d63e
00000080: 9b64 133f 4cc1 ac3e 4370 e53e 80f0 b03e
00000090: 7bce 823e 863e 0d3f 8a33 1a3f b5e9 de3e
000000a0: 8ca1 f23e 8a41 1f3e 8ffd 023f 35fe bb3e
000000b0: 2987 a93e 2327 263f 4cfd 983e 05a1 dd3e
000000c0: 57be a53e b877 4f3f ce84 153f 0bfa c03e
000000d0: 0546 bc3e 41ff 063f 6525 003f 76f4 bd3e
000000e0: a522 063f 7712 163f 4d08 f53e 67c6 913e
000000f0: b1c3 483f 7cff 0d3f cb2a 9a3e f839 be3d
00000100: 108e ff3e 5417 f23e a125 a13e 0e4d 433e
00000110: 7fae ff3e 5057 2b3f 2687 263f 1711 083f
00000120: 7ade 193f b659 823e e149 e23e b6e2 3d3f
00000130: 464a d53e 7269 da3e a8a1 ec3e 66cb ae3e
00000140: 303e 903e 43d6 063f b441 2b3f c6f5 bc3e
00000150: 4353 173f 5b52 b13e fa62 013f

v.v_net.0.weight f4 [64, 282]
-1.2340174 -1.9957341 -1.4694906 -1.1361367 -1.4575235 -1.42828 -1.462856 -1.4100316
-1.4764367 -4.7542257 -1.9143102 -1.9686562 -1.173134 -1.4985389 -1.350782 -1.1100075
-1.2745292 -1.9851396 -1.4397041 -1.1882987 -1.2470336 -1.4060395 -1.6841562 -1.3979093
-1.484852 -1.4569937 -1.2244596 -1.232533 -1.4599295 -1.1835226 -1.3432208 -1.4340118
-1.9215637 -1.3689936 -1.251409 -1.4705856 -1.3872688 -1.4200486 -1.401357 -1.5183223
-1.4166063 -1.9186682 -1.5004402 -1.4742724 -1.7195659 -1.4466974 -1.4544855 -1.4481231
-1.913687 -1.372612 -1.1949041 -1.225507 -1.9980177 -1.5214888 -2.0180018 -1.3837391
-1.9693177 -1.2581515 -1.4228102 -1.2123662 -1.2171464 -1.4811767 -1.4598911 -2.0099154
-1.9617109 -1.528956 -1.4013661 -1.9449214 -1.8220477 -1.1912572 -1.9616201 -1.4222119
-1.4651474 -1.7732838 -1.942781 -1.4443605 -1.9713252 -1.3833973 -1.212629 -1.4871389
-1.9266076 -1.4221336 -1.4093704 -1.2206722 -1.478773 -1.1933234 -1.9788316 0.33507332
-1.064212 0.13388406 0.0743499 -1.163624 2.60643 -1.53629 -0.96774775 -0.30110052
0.50135374 1.5980636 0.8666058 -2.2639928 1.6109598 -1.7059993 -0.3225828 -1.456439
2.0663447 -3.4945734 -4.797152 0.59114337 0.5492278 -0.3169506 0.37581673 -1.5498751
-0.78006524 2.3784533 -1.513 -0.82646036 0.3657085 2.0584116 -1.1117582 1.9160942
2.2760122 -1.2057089 -0.6053101 0.072482936 -1.5860814 0.9367619 1.0122222 1.1315998
0.03036071 -0.58492196 0.055367857 1.3374467 0.27177486 -1.0359037 0.025176564 2.2795453
-0.9858625 -1.8626771 0.22441173 2.6902738 0.36750805 1.7315798 1.4781656 0.9590865
-1.8631825 -0.4834064 -1.8781825 -0.15882348 -0.09607639 -0.741204 -1.7585471 -2.4430344
1.0399705 -0.4961457 -1.1253208 -0.011553824 0.17139046 1.5749179 1.1120626 -1.5665262
-0.47215503 -0.8896107 -0.6196825 1.5891497 -0.31224212 -1.5427749 0.50873584 -0.45077994
0.041097026 0.15094143 0.9960407 0.25564042 0.7097032 1.9490978 -1.6934693 1.0832478
-4.99518 -1.5413462 -0.43200725 -3.4457488 -4.755594 0.053776246 1.3592451 -2.3529372
3.9164362 -1.764071 1.5948329 -3.0307305 -1.5220146 2.3780785 -5.0950594 -5.0975304
-0.46337625 -0.18616563 -1.677493 0.023335313 3.7704234 -0.55244267 -3.184165 -0.99654317
1.5700388 0.69178003 1.7374675 0.66542023 -0.8672542 0.81290036 -0.47386393 -3.0098042
1.1464694 1.1199211 -2.018862 5.021899 0.54073006 0.07278355 -2.0822086 0.47692588
-5.7778897 -0.94205505 -2.102201 0.07081818 -1.2377888 -1.7716799 2.4625099 -0.06860269
2.2617428 2.2672305 -0.25235397 -0.037167717 3.6617465 -1.6332388 2.295347 0.6767512
1.1486332 1.5943224 4.317 -0.5251496 3.5709896 2.75265 -0.008260171 -1.2543225
2.6309834 -1.7828064 -1.6420339 -0.96935123 -0.9067255 1.7797093 3.0296295 -0.76787037
0.70470953 0.5667572 -0.66616666 -4.3312435 -0.07455537 0.0969059 -0.008431122 1.4769036
00000000: 48f4 9dbf 3774 ffbf 4518 bcbf ed6c 91bf
00000010: 2190 babf e1d1 b6bf de3e bbbf ea7b b4bf
00000020: e1fb bcbf 9e22 98c0 1e08 f5bf edfc fbbf
00000030: 4129 96bf 1fd0 bfbf 6de6 acbf ba14 8ebf
00000040: c623 a3bf 0e19 febf 3948 b8bf 2c1a 98bf
00000050: cc9e 9fbf 1af9 b3bf 6e92 d7bf b1ee b2bf
00000060: a10f bebf c57e babf 18bb 9cbf a4c3 9dbf
00000070: f8de babf ab7d 97bf a9ee abbf b38d b7bf
00000080: cdf5 f5bf 2f3b afbf 2c2e a0bf 263c bcbf
00000090: 0692 b1bf 27c4 b5bf ab5f b3bf 6358 c2bf
000000a0: 5b53 b5bf eb96 f5bf 6d0e c0bf f5b4 bcbf
000000b0: bc1a dcbf 612d b9bf 952c babf 195c b9bf
000000c0: b2f3 f4bf c0b1 afbf 9ef2 98bf 6add 9cbf
000000d0: 0bbf ffbf 25c0 c2bf f126 01c0 5d1e b1bf
000000e0: 9a12 fcbf 1c0b a1bf a51e b6bf d12e 9bbf
000000f0: 74cb 9bbf 3397 bdbf b6dd babf 74a2 00c0
00000100: 5819 fbbf d5b4 c3bf f75f b3bf 2ff3 f8bf
00000110: dc38 e9bf 1e7b 98bf 5e16 fbbf 0a0b b6bf
00000120: f389 bbbf f7fa e2bf 0cad f8bf cee0 b8bf
00000130: 6254 fcbf 2a13 b1bf 6d37 9bbf 915a bebf
00000140: 149b f6bf 7908 b6bf 4066 b4bf fd3e 9cbf
00000150: 6f48 bdbf d2be 98bf 5b4a fdbf bb8e ab3e
00000160: 1938 88bf e718 093e c344 983d a2f1 94bf
00000170: c0cf 2640 27a5 c4bf 51be 77bf d929 9abe
00000180: b858 003f 598d cc3f e1d9 5d3f 42e5 10c0
00000190: ee33 ce3f 2f5e dabf 9329 a5be 986c babf
000001a0: fe3e 0440 17a7 5fc0 4582 99c0 2c55 173f
000001b0: 319a 0c3f 5947 a2be 0d6b c03e 4f62 c6bf
000001c0: 5bb2 47bf 9438 1840 fca9 c1bf e892 53bf
000001d0: 253e bb3e 04bd 0340 184e 8ebf 9342 f53f
000001e0: 2faa 1140 ab54 9abf 9af5 1abf ef71 943d
000001f0: b704 cbbf a1cf 6f3f 7f90 813f 43d8 903f
00000200: 06b7 f83c 72bd 15bf 68c9 623d 7431 ab3f
00000210: 1326 8b3e 7e98 84bf 153f ce3c 12e4 1140
00000220: 7c61 7cbf 346c eebf 30cc 653e 722d 2c40
00000230: 042a bc3e 68a4 dd3f 8834 bd3f b186 753f
00000240: c47c eebf 0b81 f7be 4968 f0bf 9fa2 22be
00000250: b3c3 c4bd 8cbf 3dbf 1218 e1bf ad5a 1cc0
00000260: c11d 853f cf06 febe 830a 90bf 404c 3dbc
00000270: fb80 2f3e e996 c93f 1158 8e3f ee83 c8bf
00000280: 4ebe f1be 87bd 63bf 83a3 1ebf 4269 cb3f
00000290: 33de 9fbe a679 c5bf 833c 023f a1cc e6be
000002a0: 5b55 283d 6490 1a3e 86fc 7e3f 4de3 823e
000002b0: 1caf 353f 097c f93f 9ac3 d8bf dda7 8a3f
000002c0: 84d8 9fc0 d54a c5bf 0e30 ddbe 2687 5cc0
000002d0: d32d 98c0 7b44 5c3d befb ad3f 8696 16c0
000002e0: e4a6 7a40 14cd e1bf 7c23 cc3f 7df7 41c0
000002f0: 60d1 c2bf 7032 1840 ba0a a3c0 f81e a3c0
00000300: a73f edbe 34a2 3ebe 17b8 d6bf b329 bf3c
00000310: 9e4e 7140 e26c 0dbf 5cc9 4bc0 741d 7fbf
00000320: 08f7 c83f 7f18 313f 5665 de3f fb58 2a3f
00000330: 5f04 5ebf 3d1a 503f 4b9e f2be a2a0 40c0
00000340: 82bf 923f 9359 8f3f 0935 01c0 66b3 a040
00000350: 496d 0a3f 8b0f 953d e842 05c0 a12f f43e
00000360: 79e4 b8c0 852a 71bf 768a 06c0 1f09 913d
00000370: dd6f 9ebf 68c6 e2bf c399 1d40 917f 8cbd
00000380: 65c0 1040 4e1a 1140 8a34 81be 2d3d 18bd
00000390: 0e5a 6a40 f80d d1bf f7e6 1240 913f 2d3f
000003a0: 6a06 933f c212 cc3f dd24 8a40 3470 06bf
000003b0: 188b 6440 6b2b 3040 ab55 07bc a48d a0bf
000003c0: 0862 2840 0033 e4bf 2b2e d2bf 6727 78bf
000003d0: 2a1f 68bf 84cd e33f 73e5 4140 2793 44bf
000003e0: d867 343f 0017 113f e689 2abf 8c99 8ac0
000003f0: 7cb0 98bd 9a76 c63d b022 0abc 2d0b bd3f

v.v_net.0.bias f4 [64]
3.1075518 -3.0849726 2.1528835 2.567835 -1.1542478 1.223363 2.1295063 0.4632705
-1.7557313 1.9901718 0.7958633 1.5396168 5.611219 1.5704877 -2.2863798 -0.54901505
-2.0945578 -2.3967357 0.7440772 -1.005612 0.6421624 -0.3838071 -4.337704 1.9150352
-0.51185936 2.700154 0.15321197 1.9513422 3.0661433 0.7188332 1.4374224 1.3783318
-1.4762633 2.9489386 -1.3620595 -3.6769223 0.61800385 3.9591186 -2.2462587 4.4024434
0.43200013 1.9143816 1.4305612 -1.1113771 3.0355618 -2.46646 -1.9251124 2.1448452
-0.95665437 -1.1481899 -1.5609075 -2.7960336 1.4067014 4.458342 -1.1766187 -2.1689918
0.6399124 0.8759391 -1.5655451 1.8086414 0.3141302 -3.10903 -1.3553963 3.1610885
00000000: 21e2 4640 3170 45c0 d8c8 0940 6957 2440
00000010: 64be 93bf 2997 9c3f d549 0840 ca31 ed3e
00000020: cebb e0bf f3bd fe3f b2bd 4b3f 2a12 c53f
00000030: 1b8f b340 be05 c93f 0c54 12c0 408c 0cbf
00000040: 3c0d 06c0 1e64 19c0 d87b 3e3f e5b7 80bf
00000050: c164 243f 5d82 c4be 79ce 8ac0 e01f f53f
00000060: 3709 03bf 53cf 2c40 99e3 1c3e 95c5 f93f
00000070: b13b 4440 7405 383f 75fd b73f 2d6d b03f
00000080: 32f6 bcbf 69bb 3c40 f757 aebf b252 6bc0
00000090: 8035 1e3f 3362 7d40 b4c2 0fc0 d1e0 8c40
000000a0: 1f2f dd3e 750a f53f a11c b73f 9b41 8ebf
000000b0: a546 4240 7bda 1dc0 156a f6bf 2545 0940
000000c0: 4de7 74bf e3f7 92bf d1cb c7bf 37f2 32c0
000000d0: cb0e b43f bdaa 8e40 719b 96bf c3d0 0ac0
000000e0: 4dd1 233f 8b3d 603f c863 c8bf 9081 e73f
000000f0: acd5 a03e 59fa 46c0 a07d adbf 464f 4a40

v.v_net.2.weight f4 [64, 64]
2.1276498 -4.6680727 -2.3815598 -0.61205137 0.2944515 -3.0673108 3.4619486 -0.67457867
-0.7083013 1.585416 -1.1282147 -2.503761 -0.6058104 -0.15313983 -1.3060993 -1.1489636
0.8049717 -0.9218385 1.286722 -1.7101903 -0.50983 0.1374836 0.79955596 1.9007477
-2.1430202 1.0082616 0.3155969 2.3177884 -0.5165334 1.9860429 3.1777663 2.5797455
-0.9552702 1.0974802 0.43545905 -0.42069548 3.2470038 0.710299 -2.0580995 6.029355
-6.7892976 2.8810942 1.4879799 0.06571584 -3.6992595 -0.80795264 0.21481426 -1.6299007
-2.7083685 -0.13254182 1.2227503 0.20889173 1.3232641 -2.2437027 -1.6275158 -1.9491516
2.9038384 -0.44784582 -3.0204682 1.5743978 -2.3807404 -5.8432026 0.87293655 -0.9795421
-0.28889498 -0.1677085 1.5585241 -2.3114462 1.2844455 -0.94274396 -1.2073702 1.1771885
-0.8612806 -1.2089595 -1.9624528 0.9668391 0.46529892 -0.89032197 0.84784836 2.7331712
0.9280476 1.8637788 1.7258295 -0.07121363 -2.1721082 -2.3517923 1.5615525 -1.622503
1.4112631 0.7981013 -2.5503504 -1.1926378 1.9354562 -4.0555716 -0.7920489 -0.8278659
1.2165794 -1.496625 -1.0963151 3.4290133 -1.9861791 2.6486642 -1.306176 -1.1087861
1.3523287 -2.0830224 0.6051755 -0.079968795 5.186368 1.5843068 5.9797845 -0.2368124
1.3697119 1.2617009 -2.4580019 1.5798155 -0.4582949 0.7527251 2.5486948 -2.3194325
-0.8965279 1.8887911 1.2241374 -2.162882 0.7922008 6.9461436 -1.4487568 0.3484698
-0.35829538 3.2510757 0.7635372 2.8436267 2.3940823 1.4739388 -8.483959 -2.723573
2.5094798 -0.2709257 0.31504333 -0.47285578 -2.7099106 -3.5510337 -2.73657 4.0844345
0.88287246 -1.6423105 0.9668113 -1.5649959 -1.9625517 -2.1152685 -0.29111803 3.580806
-0.78321457 -2.6624973 -0.70906156 1.1404146 -2.6955256 -1.2138981 -1.7297568 0.78320646
3.4505224 0.41932985 -2.9646251 -2.4940648 0.89037555 -4.8463907 2.5856209 -3.483322
2.4152403 -4.4095435 4.0469127 1.8523332 1.7483686 -2.647523 2.3082414 -2.2299862
0.9873697 -1.1112183 -1.6740513 -1.2719629 -1.4088094 0.86775094 1.0428295 5.5460353
-0.16736594 1.1372869 -3.8189301 0.9069636 -3.862016 6.4009166 -1.7184289 -2.096142
1.0214199 -0.82680357 -1.1964352 2.9581206 -1.9158202 0.31208673 1.0374709 -0.121249475
1.4849848 -0.5966248 0.4050208 2.1134908 -1.4838065 -1.2840966 -1.0671053 -1.7737311
-1.3893011 0.28597358 -0.112217486 0.7029458 -1.9996419 4.2003894 0.4584513 -0.44740048
-0.72682315 -2.5246406 1.1358517 0.03928434 -0.879801 0.55961514 -3.4247813 -0.3006323
-1.9472523 1.7259607 1.0207822 0.56570345 0.6692948 -2.6138532 0.53258693 -1.9003286
2.1964805 -0.6587991 0.27343914 -1.7042356 -0.073163964 -0.83208746 -0.73433876 2.1626844
-0.49142808 -1.3651392 3.7671516 -1.1106092 0.7187729 -0.8962372 0.59854776 -0.22187507
0.11373987 -1.9659535 -0.32310745 -0.5144096 -1.5254768 -1.8585482 2.6636236 -1.645585
00000000: 6a2b 0840 da60 95c0 7a6b 18c0 66af 1cbf
00000010: 59c2 963e d24e 44c0 9190 5d40 30b1 2cbf
00000020: 3c53 35bf e9ee ca3f 5769 90bf 9f3d 20c0
00000030: 6416 1bbf b0d0 1cbe 432e a7bf 3d11 93bf
00000040: a012 4e3f 9cfd 6bbf 4eb3 a43f 84e7 dabf
00000050: 3884 02bf 80c8 0c3e b3af 4c3f b34b f33f
00000060: 3e27 09c0 b70e 813f eb95 a13e a556 1440
00000070: 883b 04bf a736 fe3f 8660 4b40 8d1a 2540
00000080: 968c 74bf 3b7a 8c3f 7df4 de3e 6665 d7be
00000090: e9ce 4f40 28d6 353f e7b7 03c0 7af0 c040
000000a0: ed41 d9c0 d963 3840 2076 be3f 0796 863d
000000b0: abc0 6cc0 fcd5 4ebf 45f8 5b3e 96a0 d0bf
000000c0: e955 2dc0 0bb9 07be 1583 9c3f b7e7 553e
000000d0: b860 a93f d398 0fc0 7052 d0bf cd7d f9bf
000000e0: 7dd8 3940 0c4c e5be 5a4f 41c0 de85 c93f
000000f0: 0d5e 18c0 84fb bac0 c578 5f3f 45c3 7abf
00000100: 0bea 93be c7bb 2bbe b87d c73f bcee 13c0
00000110: b668 a43f ab57 71bf 1b8b 9abf 1dae 963f
00000120: e37c 5cbf 2fbf 9abf a731 fbbf c482 773f
00000130: a93b ee3e 24ec 63bf 970c 593f 47ec 2e40
00000140: 8794 6d3f 4e90 ee3f fbe7 dc3f 74d8 91bd
00000150: d203 0bc0 c483 16c0 f4e0 c73f 2eae cfbf
00000160: 45a4 b43f 5e50 4c3f f138 23c0 5ba8 98bf
00000170: 07bd f73f 3ec7 81c0 b7c3 4abf 05ef 53bf
00000180: e0b8 9b3f 6891 bfbf 0e54 8cbf f474 5b40
00000190: 1e3b febf b783 2940 c630 a7bf b4ec 8dbf
000001a0: 1b19 ad3f 3d50 05c0 c8ec 1a3f aec6 a3bd
000001b0: baf6 a540 91ca ca3f 655a bf40 f37e 72be
000001c0: b852 af3f 6a7f a13f e74f 1dc0 6537 ca3f
000001d0: a1a5 eabe 98b2 403f d11d 2340 9571 14c0
000001e0: da82 65bf e8c3 f13f 89b0 9c3f a96c 0ac0
000001f0: accd 4a3f cf46 de40 dd70 b9bf a26a b23e
00000200: 7e72 b7be a011 5040 2d77 433f fbfd 3540
00000210: a538 1940 07aa bc3f 4cbe 07c1 054f 2ec0
00000220: 519b 2040 c6b6 8abe 5c4d a13e 271a f2be
00000230: 2d6f 2dc0 2344 63c0 f623 2fc0 b0b3 8240
00000240: ee03 623f 3b37 d2bf f280 773f c951 c8bf
00000250: e534 fbbf 8f60 07c0 6c0d 95be ed2b 6540
00000260: c080 48bf 5b66 2ac0 0f85 35bf 1bf9 913f
00000270: 7e83 2cc0 0361 9bbf ac68 ddbf 3880 483f
00000280: 5cd5 5c40 67b2 d63e 6bbc 3dc0 c29e 1fc0
00000290: a7ef 633f a215 9bc0 d07a 2540 bfee 5ec0
000002a0: 4c93 1a40 fb1a 8dc0 4f80 8140 4119 ed3f
000002b0: 8bca df3f 0471 29c0 3aba 1340 18b8 0ec0
000002c0: 43c4 7c3f 673c 8ebf 5047 d6bf aecf a2bf
000002d0: de53 b4bf ed24 5e3f 707b 853f 1f79 b140
000002e0: fa61 2bbe 9e92 913f 5a69 74c0 c42e 683f
000002f0: 452b 77c0 4fd4 cc40 7af5 dbbf 3127 06c0
00000300: e3bd 823f 66a9 53bf ca24 99bf d951 3d40
00000310: 9939 f5bf d5c9 9f3e d9cb 843f a551 f8bd
00000320: fb13 be3f 67bc 18bf e35e cf3e 6f43 0740
00000330: 5fed bdbf 475d a4bf e896 88bf 9f09 e3bf
00000340: 9ed4 b1bf 216b 923e 48d2 e5bd 42f4 333f
00000350: 44f4 ffbf 9769 8640 21ba ea3e ad11 e5be
00000360: 1511 3abf b693 21c0 9763 913f 9ee8 203d
00000370: a33a 61bf f042 0f3f 9e2f 5bc0 7aec 99be
00000380: 903f f9bf 48ec dc3f fea8 823f f1d1 103f
00000390: e756 2b3f 5f49 27c0 9e57 083f f83d f3bf
000003a0: 2393 0c40 0fa7 28bf 3700 8c3e 6424 dabf
000003b0: fdd6 95bd af03 55bf a0fd 3bbf 6c69 0a40
000003c0: 769c fbbe e2bc aebf 0319 7140 7128 8ebf
000003d0: 8001 383f cd6f 65bf 6d3a 193f 3833 63be
000003e0: 73f0 e83d 5da4 fbbf 576e a5be 59b0 03bf
000003f0: d342 c3bf e8e4 edbf cf78 2a40 87a2 d2bf

v.v_net.2.bias f4 [64]
0.2845029 -1.0258667 1.7207884 0.764622 -0.21603264 -1.2850145 -0.42180255 0.46754238
1.4885907 -0.60133576 -1.6870255 -0.07745542 1.3220389 -0.19474219 -0.8606012 -1.9694037
-1.3572627 -1.3204358 -0.8213633 -0.22840284 0.87225705 -1.527361 -0.27329266 1.0970284
0.5230027 -1.2335702 -1.7855635 0.5298875 1.434473 0.8948057 0.91612697 -0.3046639
-1.2566745 0.29694852 0.657075 -1.0451846 0.9939495 0.9010552 -0.27722976 -0.7316256
-0.28741014 1.0592791 1.2565889 -2.014481 -1.3225089 0.4176592 0.40103728 0.9586056
-2.6410315 -2.1109014 0.81255144 -0.30983728 2.0805578 0.3769107 0.121568196 -1.1935441
0.9048465 1.1914704 -1.324705 -2.0568051 0.3275867 -0.09572214 -0.6678708 0.44674087
00000000: 5daa 913e 9a4f 83bf cb42 dc3f 44be 433f
00000010: a937 5dbe 5b7b a4bf 81f6 d7be b761 ef3e
00000020: 248a be3f 24f1 19bf 74f0 d7bf f2a0 9ebd
00000030: 9238 a93f 7f6a 47be 5c50 5cbf 6c15 fcbf
00000040: c9ba adbf 0a04 a9bf dd44 52bf 6fe2 69be
00000050: 3d4c 5f3f 9180 c3bf 04ed 8bbe 6d6b 8c3f
00000060: 81e3 053f a1e5 9dbf 588d e4bf b5a6 073f
00000070: d09c b73f fd11 653f 4c87 6a3f e8fc 9bbe
00000080: b6da a0bf a309 983e 1136 283f 9cc8 85bf
00000090: 7973 7e3f 8eab 663f 0ff1 8dbe d14b 3bbf
000000a0: 6c27 93be 7596 873f e8d7 a03f 42ed 00c0
000000b0: f947 a9bf 6dd7 d53e c254 cd3e 2d67 753f
000000c0: a906 29c0 0219 07c0 5f03 503f fea2 9ebe
000000d0: dc27 0540 70fa c03e bff8 f83d 0ec6 98bf
000000e0: 05a4 673f 1a82 983f ef8f a9bf b2a2 03c0
000000f0: 72b9 a73e f809 c4bd 95f9 2abf 38bb e43e

v.v_net.4.weight f4 [1, 64]
5.165591 -7.6720095 -5.9162374 7.8441615 -7.5930533 -8.182872 -5.976359 -3.1255956
-7.6996703 -4.7873497 -7.180903 4.393836 -8.307866 -6.65689 -8.284319 -7.693954
-6.397031 -9.129594 -5.725135 -6.6069036 9.166117 10.59735 -3.453927 -3.3725657
13.967298 -18.840698 -9.569219 5.361191 8.65034 -5.9725075 -5.6838403 11.207672
-11.120826 -5.7173877 3.8324583 -6.211666 -7.4973564 7.490954 5.7555437 7.399792
-6.400922 7.3626885 -13.636105 -8.668178 5.056035 3.2184622 -5.1571965 6.2859125
3.4403415 3.7280173 7.4312315 -5.417091 -4.2478604 4.5028563 4.1386766 -11.675692
3.1629357 -5.199665 5.552461 -7.705892 -9.681381 -8.836434 -3.3211012 6.1898155
00000000: 854c a540 1a81 f5c0 d151 bdc0 5f03 fb40
00000010: 4bfa f2c0 0bed 02c1 553e bfc0 c209 48c0
00000020: b363 f6c0 f831 99c0 f5c9 e5c0 4e9a 8c40
00000030: 05ed 04c1 3e05 d5c0 928c 04c1 df34 f6c0
00000040: 7ab4 ccc0 d112 12c1 4e34 b7c0 c16b d3c0
00000050: 6aa8 1241 bf8e 2941 240d 5dc0 1ed8 57c0
00000060: 0d7a 5f41 c0b9 96c1 851b 19c1 e08e ab40
00000070: cb67 0a41 c81e bfc0 05e2 b5c0 a052 3341
00000080: e7ee 31c1 d7f4 b6c0 ff46 7540 f8c5 c6c0
00000090: 58ea efc0 e5b5 ef40 6a2d b840 19cb ec40
000000a0: 5ad4 ccc0 259b eb40 7c2d 5ac1 dbb0 0ac1
000000b0: 0acb a140 49fb 4d40 c107 a5c0 3226 c940
000000c0: 8e2e 5c40 d697 6e40 a6cc ed40 cf58 adc0
000000d0: 79ee 87c0 6617 9040 0a70 8440 a2cf 3ac1
000000e0: 8a6d 4a40 a863 a6c0 c3ad b140 ab96 f6c0
000000f0: f0e6 1ac1 0962 0dc1 ec8c 54c0 f812 c640
