model_wts/s2_d2_m1.0_b0.0.ckpt (torch, 206875 bytes, 11 tensors)

pi.logits_net.0.weight f4 [64, 282]
000000 2c 85 1a bd a5 c4 0a 3e ae cc 16 3d 6e 76 56 bd
       -0.03772466 0.13551576 0.03681629 -0.052359037
000010 4e 3b 06 be ae 1e 10 be 69 65 8e bd f4 f9 e2 bd
       -0.1310856 -0.14074203 -0.06952936 -0.11082831
000020 ef 99 0b 3d 4c 3f 93 be 7e 5d 1e 3e d9 54 1d 3e
       0.03408235 -0.2875923 0.15465352 0.15364398
000030 9c 0d 84 bd 62 ad 8d 3d 1c 91 1a be 07 b8 c9 bc
       -0.06447908 0.06917836 -0.15094417 -0.024623884
000040 ab 80 d6 bc 29 5d df 3d ba b8 37 be 0a 4f 1b 3c
       -0.0261844 0.10906441 -0.17941561 0.009479294
000050 5f b0 e0 bd 66 a9 88 bd 48 31 5a 3d a9 c5 e6 bd
       -0.1097114 -0.06672935 0.053269655 -0.112681694
000060 fd 70 4c 3c 74 23 14 3d a4 75 4f bd d8 29 a6 bd
       0.01247811 0.036166623 -0.0506493 -0.0811345
000070 c2 80 c5 bd 65 7c a4 bd 76 07 56 be c6 c7 94 bc
       -0.09643699 -0.08031539 -0.20901284 -0.018161666
000080 eb a0 27 3e 9f 02 ed bd 06 bc 37 bd 60 48 b8 bd
       0.16369979 -0.115727656 -0.044857047 -0.089981794
000090 12 8f 15 bd 7d 9c 1b bb 7e c9 2d be ff 3c 47 bc
       -0.036513396 -0.0023744397 -0.16971394 -0.012160539
0000a0 d7 26 ea 3a d0 b2 bb 3d 92 fc 3b 3d 90 c0 32 3d
       0.0017864358 0.09164965 0.045895167 0.043640673
0000b0 70 fc 8e 3d 86 aa 4b 3d b0 6f 06 be fe 94 1d be
       0.069817424 0.04972317 -0.13128543 -0.15388867
0000c0 0c cf 1c 3e c2 21 6e bd 74 33 83 bc 89 7d 3a bc
       0.15313357 -0.058137663 -0.016015746 -0.011382469
0000d0 28 24 42 3e c4 47 61 3d 8d 69 0a 3e 74 fe 22 be
       0.18959105 0.05500008 0.13516827 -0.15917379
0000e0 29 e3 0c 3e 82 6f 57 bc 51 ff dd 3c 49 04 f0 3b
       0.1375853 -0.013149144 0.027099283 0.0073247296
0000f0 1e 15 90 bc 55 1d f9 bc 32 67 39 bd 5e f1 50 3e
       -0.017588194 -0.030409494 -0.04526443 0.20404574
000100 2f 71 4f 3e b3 26 a0 3c e2 0b b5 3d 3c 4d ba 3d
       0.2025802 0.019549703 0.08840157 0.090967625
000110 5f 16 e4 3d 3f 10 b7 bc 18 76 c3 3d a9 08 31 bc
       0.111370794 -0.022346614 0.09544009 -0.010805287
000120 12 ff 98 bc f2 c3 18 3e b6 0a 14 3e 78 c6 55 bd
       -0.018676315 0.14918497 0.14457211 -0.052191228
000130 bb 2f 1f 3e 64 63 f2 bd 51 65 7e bd a9 8c 8c bc
       0.15545551 -0.118353635 -0.06210834 -0.017156916
000140 dc 30 4a 3e 9c c3 27 be 30 d0 f9 bd c6 ac 08 bd
       0.19745201 -0.16383213 -0.12197912 -0.033367895
000150 e8 d5 3d 3d 4f d4 9f bd a0 a1 10 3e 65 a9 46 3d
       0.046346575 -0.078041665 0.14124155 0.04850139
000160 60 0e d5 be 0e ce c6 bd a7 52 65 be a9 2e 01 be
       -0.4161253 -0.097072706 -0.2239481 -0.12615456
000170 df 53 c9 be 96 41 5b be 0a d6 19 be 49 4c 8f be
       -0.393218 -0.21411738 -0.15023056 -0.27987888
000180 36 2a 0e bf f9 b9 9d bd c7 c1 38 3e 9e e5 1e be
       -0.5553316 -0.07701487 0.1804267 -0.1551728
000190 53 99 6f 3c 91 a4 eb 3e 8e 50 ca be f3 dd 41 3e
       0.014623958 0.46023992 -0.39514583 0.18932323
0001a0 a6 f5 00 3e 08 40 65 3e a5 38 61 3d 1d a6 f0 3d
       0.12593707 0.22387707 0.05498566 0.117504336
0001b0 83 84 cf bd 06 1f 27 3e c6 58 bb 39 ed 6e a7 be
       -0.101326965 0.16320428 0.0003573356 -0.32701817
0001c0 a5 40 b4 be 4d ac 0d 3e 61 60 28 3d f5 e3 38 be
       -0.3520557 0.13835259 0.04110754 -0.18055709
0001d0 c9 50 c1 bd e5 cc f4 3e 63 62 16 bd 78 ea e2 bc
       -0.09439237 0.47812572 -0.036714923 -0.027699694
0001e0 da 4f 87 be cb d5 35 be ea 4a 26 be 6e d3 54 39
       -0.2642811 -0.17757337 -0.16239515 0.00020296659
0001f0 a0 a1 fe bd 99 24 01 bc 69 9f 1e be 90 a2 dd bd
       -0.12433171 -0.007882261 -0.15490498 -0.10822022
000200 c4 c6 e8 be 10 f6 8f be 15 51 36 3e a1 5f f8 bc
       -0.45464146 -0.28117418 0.17804368 -0.030319037
000210 11 9c 5e bd f6 52 56 3e d9 2a 14 bf ba 10 42 3e
       -0.054348055 0.20930085 -0.5787788 0.18951693
000220 db 2d e1 bd a2 64 a5 3e 6e b7 c1 3e 72 b5 79 be
       -0.10995074 0.3230334 0.37835258 -0.24385622
000230 20 27 10 be cc ad af bd be 8e 5e be 4e 76 b5 bd
       -0.14077425 -0.08578071 -0.2173414 -0.088604555
000240 6c a3 15 3c b4 52 c3 bd 58 f0 89 3e 3d 7a 6d 3e
       0.009133201 -0.09537259 0.2694118 0.23191161
000250 b5 b4 e3 bd 44 bb 80 be 5f 64 d7 3e 84 c0 b2 be
       -0.111184515 -0.25142872 0.42068765 -0.34912503
000260 4c 37 13 be 00 e5 f3 bc a9 bb 97 be ff 5b 49 3e
       -0.14376563 -0.029772282 -0.2963536 0.19664
000270 69 f9 99 be b4 7d 82 bd 41 c3 ba bd d5 44 9f bd
       -0.30073097 -0.06371632 -0.09119273 -0.077768005
000280 d7 d5 9b 3e 69 65 b2 3d 4f 5a ae bd d2 00 d5 bd
       0.30436584 0.08710749 -0.08513319 -0.10400547
000290 a4 d4 cd bd d2 49 a7 3d 98 b7 63 be 9f 40 1f be
       -0.100503236 0.08168377 -0.22238004 -0.15551995
0002a0 78 78 75 be 62 47 c2 bd 32 35 64 3d 8d ee 13 ba
       -0.23971736 -0.094862714 0.055714794 -0.0005643152
0002b0 00 6c 3e 3e 22 74 ae 3e 55 3c 3d 3e f4 ca 4a 3e
       0.18595886 0.34072977 0.18480046 0.19803983
0002c0 a1 25 5d be df 58 f5 be 42 66 dd bc 9d 5b 32 3f
       -0.21596386 -0.47919366 -0.0270263 0.6967104
0002d0 0e 88 25 bf 4a 83 0c 3e 75 32 a9 be 19 37 dd 3d
       -0.6466073 0.13721958 -0.33046308 0.10801525
0002e0 c0 56 5a 3e f9 81 1a 3e aa 0b 1c 3b f0 09 5e 3f
       0.21322155 0.15088643 0.0023810663 0.86733913
0002f0 58 1a 23 bf 1d f6 21 3e 25 a1 0a 3f a2 81 09 bd
       -0.6371207 0.15816541 0.5415214 -0.033570893
000300 29 84 16 3d 38 4d 18 3f ec 8d f6 be 27 2c 83 3f
       0.03674713 0.59492826 -0.48155153 1.0247849
000310 5f be 0e 3f d2 8b 3a bf ed c4 e0 be a3 34 71 3e
       0.55759233 -0.728696 -0.43900242 0.23555236
000320 67 17 c3 bc 84 2f a0 3e d5 ff 1b be 09 36 ec 3d
       -0.02381487 0.31286252 -0.15234311 0.11533744
000330 02 db a1 3e 83 66 7d 3f 8d 6c 76 3d 9e 20 77 be
       0.31612402 0.98984545 0.060162116 -0.24133536
000340 fe 18 6f 3e f3 6e da be 2d 5f 75 3e 41 6f c7 3e
       0.23349378 -0.42662773 0.23962088 0.38952067
000350 3b f9 b9 bd 94 ee 96 be d0 0e 8b 3b 65 0d 02 be
       -0.0908074 -0.29478896 0.004243709 -0.12700422
000360 39 ad 75 3f d2 d7 cb bd 89 67 10 be e7 5b b8 3e
       0.9596744 -0.09953274 -0.14101996 0.36007616
000370 e6 b2 d8 3e 5e 66 f5 be 3c 4b 8d 3e 89 32 ea 3e
       0.4232399 -0.47929662 0.27596462 0.4574168
000380 23 7d c9 bd 6b 9f 92 3d e2 fd a5 3e 5d 91 18 3e
       -0.09838321 0.07159313 0.3242026 0.14899202
000390 51 68 5f bd 48 51 0f bf df 70 cb 3e be 24 31 bf
       -0.054542843 -0.559834 0.3973455 -0.6919669
0003a0 3f ba 2f 3e ff 1e 81 be 43 92 2f bf 7d 5f 0f bf
       0.17160891 -0.2521896 -0.6858255 -0.5600508
0003b0 ed 31 1a 3f 4e 67 0a be ba 06 53 be f9 be 45 3e
       0.6023243 -0.1351597 -0.20608035 0.19311132
0003c0 c3 53 d9 be 73 c0 2e be 4d f1 4f bf f2 65 26 bf
       -0.42446718 -0.17065601 -0.8122757 -0.64999306
0003d0 ec ab 1b 3f 49 4b 1d 3c cc a0 c4 be 76 cf 72 3e
       0.60809207 0.009600469 -0.38403928 0.23711953
0003e0 52 32 1c 3f 2b e4 08 bf d0 93 89 3e 41 bd 5b be
       0.6101428 -0.53473157 0.26870584 -0.21458913
0003f0 e1 8c f6 be 5e d2 bd 3d 2b 52 3b bd fb 6f 64 3f
       -0.48154357 0.0926864 -0.04573266 0.8923337

pi.logits_net.0.bias f4 [64]
000000 ec 8a 21 3e ba b4 8c be a5 9e 2f 3e cb 9c bf be
       0.1577565 -0.27481633 0.17150362 -0.3742431
000010 65 37 6b 3e 8a 9a 18 3e d6 46 b9 be bf ff 2d 3e
       0.2297035 0.14902702 -0.36186856 0.1699209
000020 02 6a 14 be bf 17 66 be c1 91 ed 3d 64 92 ba bd
       -0.14493564 -0.22469996 0.11600066 -0.09109953
000030 1b 46 fe bd f9 b4 ae 3e 17 ac 32 bd 30 ee 99 3e
       -0.12415715 0.34122446 -0.04362115 0.30064535
000040 f1 96 86 bd 73 a5 5a 3e d1 b0 1b be 8a a5 3b 3c
       -0.065717585 0.21352176 -0.15204169 0.011453042
000050 c6 5d 64 bd d1 3e b9 3d 35 98 5c be e5 7a a6 3d
       -0.05575349 0.090451844 -0.21542437 0.08128909
000060 48 8c 53 be dc a2 68 3e 29 5b dd 3d ea 18 f3 bd
       -0.20658982 0.22718376 0.10808403 -0.11869986
000070 40 3a 41 3d b0 4c 88 bd fb 97 6d 3e bd 07 fe bd
       0.047174692 -0.06655252 0.23202507 -0.1240382
000080 2d f8 80 3d 92 83 3d 3e 7c ea aa 3d 8e 53 15 be
       0.06297336 0.18507221 0.083455056 -0.14582655
000090 d4 64 c1 bd f5 46 be be 90 b6 3e 3e d5 64 97 3e
       -0.094430596 -0.3716351 0.1862433 0.29569116
0000a0 19 98 0b 3e 8c ba 1f bc e3 07 5a be ad 4a 1b be
       0.1363224 -0.009749066 -0.21292071 -0.15165205
0000b0 d9 e4 22 be 95 c2 36 3d 2a b6 ab bd 7e c9 a9 3d
       -0.15907611 0.04461916 -0.083843544 0.08290385
0000c0 1f 4d 52 3e 5f e9 8e be df 94 aa bc 71 0a f9 3c
       0.20537232 -0.27912423 -0.02082294 0.030400487
0000d0 4a 37 e4 3d d8 82 9d be 41 0e 2c 3d 13 36 7e bd
       0.11143358 -0.30763888 0.04200578 -0.062063288
0000e0 aa 31 11 be 5b 61 69 3e f9 92 7c 3d ae df 07 3d
       -0.14179102 0.22791044 0.0616636 0.033172302
0000f0 56 fc 5f bd 0a d1 5a be d8 c4 93 3e ab 5a 4d be
       -0.054684006 -0.21368805 0.28861117 -0.20054118

pi.logits_net.2.weight f4 [64, 64]
000000 fc 97 14 be dd ab 09 3f 79 0c 00 bf 7f 72 14 be
       -0.14511102 0.5377787 -0.5001903 -0.14496802
000010 cc 29 11 bf 2d 00 a6 be 00 40 59 be 99 b7 70 3f
       -0.567044 -0.3242201 -0.2121582 0.9403015
000020 f5 f6 c2 3e 9a a1 0a be b6 97 56 3f ec d3 e6 bb
       0.38079038 -0.13538209 0.8382524 -0.007044306
000030 2c b7 f0 be 40 12 85 be e9 56 1a bd d2 61 46 3e
       -0.4701475 -0.25990486 -0.03768054 0.19373253
000040 42 44 04 3e 0e cc 54 3f 1d 7e db be d1 fc 25 3e
       0.12916663 0.8312386 -0.42869654 0.16209723
000050 af 3f 10 be 61 0e 9d be 08 05 3a 3f 0b 8e 87 be
       -0.14086793 -0.30675033 0.7266393 -0.26475558
000060 25 b7 01 bf 66 3e fa 3e 50 14 2d 3f 1a 88 13 3e
       -0.5067008 0.4887573 0.6760912 0.14407387
000070 0f ce b8 3e 89 6e 1b 3f 9c c7 4c 3f e5 92 f8 be
       0.3609471 0.6071554 0.7999208 -0.48549572
000080 d8 df 20 3f c9 87 ae 3e ca 8f 02 bf f4 a4 19 3f
       0.6284156 0.3408797 -0.51000655 0.60017323
000090 07 7c 01 bf aa 24 9d bd 9d 8a f3 bc 4b af 2a 3f
       -0.50579876 -0.07673009 -0.029729182 0.66673726
0000a0 52 ae 54 be 76 97 6c be 8a f3 fc 3d 31 58 30 3f
       -0.20769623 -0.23104653 0.12351139 0.6888457
0000b0 ad 88 66 3e c2 d5 fe 3d 78 97 0a bf 12 21 9e 3e
       0.22513075 0.12443115 -0.5413737 0.30884606
0000c0 f4 0d 94 3e 19 b9 09 3e 60 05 95 3e 62 1a 4b be
       0.28916895 0.13449515 0.29105663 -0.19834283
0000d0 80 f3 b5 be 33 59 1a bf 43 04 56 bc 02 33 3b 3e
       -0.35537338 -0.6029236 -0.0130625395 0.18281177
0000e0 84 2e a3 be 3a 21 50 3e 43 51 1a be 3b 70 83 3e
       -0.31871426 0.20325175 -0.15070061 0.25671563
0000f0 c1 c7 32 3f a8 ab 19 3d d7 5c c7 3e 51 dd 54 3e
       0.6983605 0.03751722 0.3893802 0.2078755
000100 28 4b 10 be ea ba 4b 3f 77 e7 e3 3e 5b 8e 39 3e
       -0.1409117 0.79582083 0.4451253 0.1812071
000110 64 04 ba bd 87 dd 72 3d 21 87 61 3e 59 26 d2 3e
       -0.09082869 0.059293296 0.22024204 0.41044882
000120 46 2c 02 3e 97 3c 8d bf f6 7b 35 3c 91 a9 3c 3f
       0.12712201 -1.1034116 0.011076918 0.7369624
000130 49 4f 14 3f 8a 5e 58 bf 8b 7b b6 bc 8f 26 9b be
       0.5793348 -0.84519255 -0.022275707 -0.30302855
000140 1f 11 85 be 54 32 fd 3d f8 7b 2c 3e 3c 03 1e bf
       -0.25989625 0.12363115 0.16844165 -0.61723685
000150 99 7c 1a be 5a 5d bd be 14 1c 56 3e 03 3f af 3e
       -0.15086593 -0.36985284 0.20909148 0.34227762
000160 3b a3 86 3e ee 57 1c bf 61 31 18 be ae 09 14 3f
       0.2629641 -0.6107167 -0.14862587 0.5782727
000170 bc 76 2d 3f 58 f0 06 3f e1 6b 97 be ba bd 3e be
       0.677593 0.52710485 -0.29574493 -0.18627062
000180 3e 61 75 3e 68 3a db be 4b ec 80 bf 92 c5 1f 3e
       0.23962876 -0.42817998 -1.0072111 0.15602711
000190 aa 8f dc bc f2 b5 52 3f 63 9f 20 be 1d ca 3b 3e
       -0.026923973 0.82308877 -0.15685801 0.18338819
0001a0 a8 c4 e5 bd 21 79 f8 3e d8 96 ce bd 93 70 18 3e
       -0.1121915 0.48529914 -0.10087365 0.14886694
0001b0 d7 ce f2 3e f9 0c 8d be c4 52 c7 3e 89 bb 35 be
       0.4742343 -0.2754896 0.38930333 -0.1774732
0001c0 ff 83 77 3e c9 0c 43 3e 50 e0 e0 be 1a 90 b5 3e
       0.24171446 0.19047846 -0.43921137 0.35461503
0001d0 24 2a 09 be ca fb 50 3f 51 7c f9 be ed ae 16 3d
       -0.13394982 0.816342 -0.48727658 0.036787916
0001e0 c4 b7 82 bd ba 61 a1 bc a0 a4 52 3e 66 e3 ad be
       -0.06382707 -0.01969992 0.20570612 -0.33962554
0001f0 91 e0 28 3f b0 37 ca 3e aa 3d aa bd 20 5f 74 be
       0.6596766 0.3949561 -0.08312543 -0.23864412
000200 8b 07 c6 be 53 2c 8a ba 15 b1 35 bc 9b e6 a9 3d
       -0.3867763 -0.0010541774 -0.011089583 0.08295938
000210 45 27 27 3e 75 73 c0 bd 52 be 1d 3e 96 d1 27 bc
       0.16323574 -0.09397022 0.15404633 -0.01024284
000220 9a e1 93 3f b7 8d 97 be a7 b9 16 bf 77 5d 16 3e
       1.1553223 -0.29600307 -0.58877033 0.14684092
000230 71 13 29 3f ed c3 38 3e ba 76 31 3f 80 50 55 bf
       0.6604529 0.1804349 0.6932179 -0.8332596
000240 75 9f 13 3d fc e3 77 bd 8e 49 f4 3e a8 26 b0 3e
       0.036040742 -0.060520157 0.47712368 0.34404492
000250 ca c2 6b 3e ce 50 0e 3f 20 c1 43 be fe 5f a2 be
       0.23023525 0.5559205 -0.1911664 -0.3171386
000260 e1 28 03 3f 5f 5e fb 3e 28 77 ed 3e 56 6a 76 3e
       0.5123425 0.49095437 0.46379972 0.24064001
000270 c9 a3 fd 3d d9 34 80 3d 3c 59 c0 3e fc 35 2e 3e
       0.12384755 0.0626008 0.3756808 0.17012781
000280 38 93 a4 be a8 ef 41 3e 51 91 3f bd 73 c7 da be
       -0.3214357 0.18939078 -0.046769444 -0.42730293
000290 e5 0f dc 3d ff 7f f9 be 2c f4 cf 3d 08 6d f6 3d
       0.10745219 -0.48730466 0.10153994 0.12032515
0002a0 13 92 5d bf 6d 1f ac bd 86 b6 2d 3d 02 29 88 3d
       -0.86551017 -0.084044315 0.042410396 0.066484466
0002b0 5d 8e 3f 3e 38 aa c8 b9 b3 ac e0 3e 54 eb e8 bd
       0.18706651 -0.00038273796 0.4388176 -0.1137301
0002c0 22 e2 8f bf d4 49 26 3e 6a a5 17 be d2 7d 4a bf
       -1.1240885 0.162391 -0.14809194 -0.79098237
0002d0 f4 3b d9 be da 4e 30 be f0 81 32 bf 21 b1 08 3e
       -0.42428553 -0.1721758 -0.6972952 0.1334882
0002e0 f3 b0 37 3e c3 d2 01 be 96 14 d3 be 23 71 7a 3e
       0.17938595 -0.12678055 -0.41226643 0.2445722
0002f0 f3 dd be be f8 83 94 3e f5 da 13 bf ba 6f 0c 3e
       -0.3727871 0.29006934 -0.57755977 0.13714495
000300 af d0 51 be 03 02 13 3e a1 d8 ae 3e ed d7 48 3e
       -0.20489763 0.14356236 0.3414965 0.19613619
000310 77 2c 56 3b cf 1b 3d 3e ad eb 17 3f 7c 3c 94 be
       0.0032680312 0.1846764 0.5934399 -0.28952396
000320 51 0c ae bd 0e ab 1f 3d d3 17 0d bf 81 12 9d 3e
       -0.08498443 0.03898149 -0.5511448 0.3067818
000330 89 ec aa 3e af 24 36 bf 66 71 37 bf 5b c6 e8 3d
       0.33383587 -0.71149725 -0.7165741 0.11365958
000340 3c ab 85 3e 85 48 13 3c c9 a0 c0 3e 6f 5c 20 3d
       0.26107204 0.008989458 0.3762267 0.03915065
000350 54 95 0a 3f 5e 74 e3 be b1 13 5b bd 2c 91 d7 3e
       0.54134107 -0.4442472 -0.053485576 0.42102945
000360 a6 31 60 3e 4a 74 5f bf a7 2f f5 bd f8 82 a7 3e
       0.2189394 -0.8728682 -0.119719796 0.3271711
000370 c0 d5 07 be 46 00 0b be 3f c3 9a be 15 b9 6c 3f
       -0.13265133 -0.13574323 -0.30227086 0.9246991
000380 06 72 28 bf 8b 3f a3 bd d3 e0 0b 3e bf 2f 53 bd
       -0.65798986 -0.07971104 0.13659982 -0.051559206
000390 e4 f0 e0 3e 07 48 40 3f 56 88 c8 3e 78 7d 1b bf
       0.43933785 0.75109905 0.39166516 -0.60738325
0003a0 ca 87 f6 3d c1 ca a8 be f4 0d 7c bf 66 0d 65 be
       0.120376185 -0.3296719 -0.9845879 -0.22368392
0003b0 03 eb 5a 3e 7e 48 75 be a6 01 65 3f 13 4e f6 be
       0.21378712 -0.23953435 0.8945564 -0.4810644
0003c0 8d 38 02 bf f2 d2 26 3f 34 00 aa 3e 40 78 09 3f
       -0.5086754 0.65165627 0.3320328 0.5369911
0003d0 9c d1 47 be ed c0 f6 3d 95 ea 2c 3f ff 83 ad 3d
       -0.19513553 0.120485164 0.67545444 0.08472442
0003e0 d3 c5 df 3e 9f cf 66 be 2f f7 2f 3f 39 84 4f 3e
       0.43705615 -0.22540139 0.6873655 0.20265283
0003f0 b1 48 1f be 36 6f cf 3d 48 2d 87 be 1e a3 b6 3e
       -0.15555073 0.10128634 -0.26401734 0.35671324

pi.logits_net.2.bias f4 [64]
000000 8f c6 20 3e 35 90 5e bd 4d 0a 32 bf eb 79 08 be
       0.15700744 -0.054336745 -0.6954697 -0.13327758
000010 1a 71 a3 bd 29 f1 11 be b3 af 5d be 99 78 7f be
       -0.07980557 -0.14252152 -0.21649055 -0.24948348
000020 fb d6 86 3e 73 02 3c be 38 29 7c be 9e 6a 01 3f
       0.26335892 -0.1836031 -0.24625099 0.5055331
000030 3b 93 02 bd c4 d2 43 3e 52 5a d1 be 9c 3d 9b 3d
       -0.03187869 0.1912337 -0.4088922 0.075801104
000040 5c b8 79 3e 6d ea 43 3f 03 12 51 be 4d 18 b1 be
       0.24386734 0.7652958 -0.20417027 -0.34588853
000050 96 06 1c bc 28 bd c9 3e e9 3d 65 3e fc e6 c9 be
       -0.009523055 0.39402127 0.22386898 -0.3943404
000060 81 b7 5a bf b7 dc 4a 3d 26 c6 29 bf 36 e1 be 3d
       -0.85436255 0.049526896 -0.66317976 0.09320299
000070 d5 32 86 3e 31 48 5c bb 08 04 96 3e 5d fa 6c bd
       0.26210657 -0.0033612365 0.2929995 -0.057855953
000080 de da b0 3e d0 b2 97 be c6 86 47 3e 2d ca a5 be
       0.34541982 -0.2962861 0.19485006 -0.3238081
000090 fe 9a 1b bf b4 0a fd bd c2 bf dc bc 74 77 de be
       -0.60783374 -0.12355557 -0.026946906 -0.4345051
0000a0 e6 13 12 be d1 bd f2 be 5d 18 02 3f a9 6b b4 3c
       -0.14265403 -0.47410443 0.50818425 0.022023993
0000b0 ef c8 09 bd 7a ff f8 bd e2 0a a4 bd 67 00 a3 be
       -0.03363889 -0.12158103 -0.08009888 -0.31836244
0000c0 50 ea d3 be 13 4d 81 3e 92 94 35 3f 8d 09 96 3d
       -0.41389704 0.25254115 0.70929825 0.073260404
0000d0 7a 80 85 bd 06 71 bd be 7c e8 d5 3c 38 ac 36 be
       -0.065186456 -0.37000293 0.026111834 -0.17839134
0000e0 d9 5a 77 3d 6f 55 f0 be fd 43 79 3e 49 b8 a8 be
       0.060389373 -0.4694018 0.24342342 -0.32953098
0000f0 52 0b be be b9 1d 37 be 6b 7b a1 be 6e 6b be be
       -0.37118012 -0.17882432 -0.31539473 -0.37191337

pi.logits_net.4.weight f4 [87, 64]
000000 f0 74 13 3f a5 ca f5 3e 70 bd 07 bf 8e ba a2 be
       0.5760031 0.48006168 -0.53023434 -0.31782955
000010 c5 6c 67 bf 7d b4 01 bf d7 d1 c0 bf 5e 67 aa bf
       -0.90400344 -0.5066603 -1.5064038 -1.3312795
000020 44 02 43 3e 93 bb e8 be 97 5d 42 bf 3f d4 26 bf
       0.19043833 -0.45455608 -0.75924057 -0.6516761
000030 fe f2 14 bc 59 16 44 bf f3 25 5f bf c0 73 5c bf
       -0.009091137 -0.765966 -0.8716728 -0.8611412
000040 7b 5a 30 3f 88 50 39 3e ff 6f b8 be ec bf a5 be
       0.6888806 0.18097126 -0.36022946 -0.32372987
000050 a9 8e ae be e5 b1 1b 3f 73 c2 23 3f 37 26 51 be
       -0.34093216 0.6081832 0.6396858 -0.20424734
000060 6e 76 ed be 19 c8 2c bf c2 89 0f bf 1e 7c 1f 3f
       -0.46379417 -0.67492825 -0.56069577 0.6229876
000070 a0 e5 49 3f 3f 8c 80 3c 69 79 58 3f 52 14 28 3f
       0.78866005 0.015691875 0.8456026 0.65656006
000080 c1 2b 70 3e 61 d4 4f bf cb 41 f4 bd 75 aa 04 3f
       0.23454191 -0.8118344 -0.119266115 0.51822597
000090 9a d7 18 3f ff a1 f7 be 35 b0 10 bf 24 45 fb 3d
       0.5970398 -0.4836578 -0.5651887 0.12269047
0000a0 18 d2 ef 3e 96 cf 5f bf ee 88 4e bf 69 38 ca 3e
       0.46839976 -0.87426126 -0.8067769 0.39496163
0000b0 ab 4d 4d be 69 1b 3a be 29 50 03 3e 20 f1 59 bf
       -0.20049159 -0.18174519 0.12823547 -0.8513355
0000c0 7f 69 14 bf 15 a1 3e bf 04 9b 25 3f da 09 81 3f
       -0.57973474 -0.7446454 0.6468966 1.0081131
0000d0 50 a2 b8 bf 35 cc e6 bd 8c 9f 04 3e 97 d5 20 3f
       -1.4424534 -0.11269418 0.12951487 0.6282591
0000e0 b4 01 e6 be 06 d8 17 be d3 7b c1 be b0 f2 2b bf
       -0.44923174 -0.148285 -0.37789783 -0.67167187
0000f0 73 de 13 be 3a ea aa 3d 1f 45 22 bf 44 d2 4e bf
       -0.14440326 0.083454564 -0.6338672 -0.8078959
000100 9e 96 83 3f 77 4b cc be 58 59 d4 be 49 17 50 bf
       1.028034 -0.39901325 -0.41474414 -0.8128553
000110 6d 4d 0b 3c f2 69 0b bf 1b cb 3a be cc 24 f6 bb
       0.008502346 -0.54458535 -0.18241541 -0.0075117107
000120 ba 02 3d 3f 44 0f 8b 3d 9d 50 8b 3d 3b a6 11 3f
       0.73832285 0.06790021 0.06802485 0.5689427
000130 f8 20 41 3f bc ba 70 3f 56 69 3d be 58 93 9a 3d
       0.7544093 0.94034934 -0.18497214 0.07547635
000140 b7 fa bd 3d 91 d2 e3 bd d0 b8 47 be b6 d2 09 bf
       0.09276336 -0.11124147 -0.19504094 -0.53837144
000150 5e 06 c0 be 70 52 d8 3d a8 6a 7c 3e 47 c0 1e bf
       -0.37504858 0.10562599 0.24650061 -0.6201214
000160 f5 0d 97 bd f0 d6 00 3e 6d ae ed be 77 0f 60 be
       -0.07375709 0.12581992 -0.4642214 -0.218809
000170 74 bf de bd b4 a6 a7 3d f4 c7 82 3f aa 52 1a 3f
       -0.108763605 0.08186093 1.0217271 0.60282385
000180 a3 c5 88 3f b3 4a 8f 3e fc 7a 80 3f 54 65 a3 bf
       1.0685314 0.27986678 1.0037532 -1.2765298
000190 7d 98 04 bf ae cc 60 bf 4b ad 1c bf b9 e0 31 be
       -0.5179518 -0.87812316 -0.61201924 -0.17370881
0001a0 cd 95 3b bf 6a a1 b9 be c9 60 56 3f 7b b1 14 bf
       -0.7327545 -0.36255962 0.8374143 -0.58083314
0001b0 8a 8a 52 3e 85 2e e8 be 13 ba 35 bf 22 19 9d be
       0.20560661 -0.45347992 -0.7098705 -0.30683237
0001c0 fa e7 b9 be 61 ea 1c 3f d2 fc 86 3d 45 65 7e bf
       -0.36309797 0.61295134 0.065911904 -0.99373275
0001d0 7d b8 f8 be 97 56 9a bf 13 03 1c 3f 5d 34 2d bf
       -0.48578253 -1.2057675 0.6094219 -0.67658025
0001e0 bc f8 d2 be df 6a d6 be fe 20 27 3f ce 34 fe be
       -0.41205394 -0.4187841 0.6528472 -0.49649662
0001f0 84 65 c5 be 64 dd 9b be c0 f3 a1 3e f9 30 08 bf
       -0.38554013 -0.30442345 0.3163128 -0.53199726
000200 77 c0 91 3e 89 7e 06 3f 49 32 7b 3e 9a 43 3b be
       0.28467152 0.5253683 0.24530901 -0.18287507
000210 81 c6 4a 3d 28 e1 b5 3d ce 94 6a be 1e ac ab 3d
       0.049505714 0.08880836 -0.22908327 0.08382438
000220 1b 2a ca 3e 27 53 aa be 8a ce e2 be ac 1a 3a be
       0.3948525 -0.33266565 -0.44298202 -0.18174237
000230 82 25 3e bf 12 d5 27 be bc 6a 4a be 2c a1 13 3e
       -0.7427598 -0.16389874 -0.19767278 0.14416951
000240 22 0f f8 3e 63 29 d3 bc 39 0d 22 be 1e 65 81 3e
       0.48449045 -0.02577657 -0.15825357 0.2527246
000250 75 06 c9 bd de cf 26 3f 01 bd a8 be 93 49 7b be
       -0.09815685 0.6516093 -0.329567 -0.24539785
000260 5c 25 ca 3d f9 3b 9d be 09 b9 00 be f1 bd 5c 3e
       0.09870407 -0.30709818 -0.12570585 0.21556832
000270 74 a8 32 3f 29 c3 71 3e 10 5f 05 3f 8a 50 09 be
       0.6978829 0.23609604 0.5209818 -0.1340963
000280 70 a9 fa be 46 48 5b be 93 ce cb 3d a6 88 f2 be
       -0.48957396 -0.21414289 0.0995151 -0.4736988
000290 61 83 62 3d 80 cf b1 be 1c 29 ef be 4f 8b 53 be
       0.055301074 -0.34728622 -0.4671105 -0.20658611
0002a0 f5 e5 5f 3e b1 10 c7 3d ab e0 b8 3e 42 5a d6 3e
       0.21865065 0.097199805 0.36108908 0.41865736
0002b0 6e 58 31 bd 64 92 8f 3e 3f e6 3d 3e c3 19 52 be
       -0.043297224 0.28041375 0.18544863 -0.2051764
0002c0 df ba a6 3e b1 a0 12 3f 6a f0 ec bd e0 9b e9 3e
       0.32564446 0.57276446 -0.11569293 0.45626736
0002d0 e3 a9 8b be a9 16 b2 be 51 9d 6e 3c 8c a5 c6 bc
       -0.2727805 -0.34782913 0.014563874 -0.02424886
0002e0 df a5 b8 bd c4 1d 03 bf a0 70 52 3f ec 46 89 3d
       -0.090160124 -0.51217294 0.822031 0.067029804
0002f0 a9 9e 4b 3e 36 9c 23 3d df ad de 3c 16 79 c7 be
       0.19884743 0.039943896 0.027182518 -0.3895957
000300 e1 1a 9a 3e 43 31 96 3f 53 8c d9 be f7 28 b2 bd
       0.30098632 1.1733783 -0.4248987 -0.0869922
000310 d1 e9 c5 be 47 38 85 bf 06 0d 07 3f 0c f3 bf be
       -0.3865495 -1.04078 0.5275425 -0.37490118
000320 80 c3 f5 3d 9f b7 68 bf 31 e7 14 bf a6 1d a6 3e
       0.12000179 -0.90905184 -0.5816527 0.32444495
000330 7b 14 25 bd 66 82 55 be 48 e3 c3 be 7f 9f e0 be
       -0.040302735 -0.20850524 -0.3825934 -0.43871686
000340 47 42 c7 3e 64 16 15 3f 08 94 0d bf 10 0c 36 bf
       0.38917753 0.5823729 -0.55304 -0.71112156
000350 09 4c f4 3e 2c 9a cb be e3 4e 90 3f 06 c8 4d bf
       0.4771426 -0.3976606 1.1274074 -0.80383337
000360 14 c1 58 bf 18 a3 24 bf 30 d4 09 bf ac 71 bd 3e
       -0.84669614 -0.6431136 -0.538394 0.37000787
000370 68 2f 10 3f 13 67 d4 bd dd 28 9b 3e 9d 34 03 be
       0.56322336 -0.10371222 0.30304614 -0.12813039
000380 54 01 1a bf 2a 40 33 bf b9 3c 05 be 35 a8 05 bf
       -0.60158277 -0.7001978 -0.13011445 -0.5220979
000390 c9 de 87 3e f8 d6 ff 3e dd 7e 71 bf 71 42 db be
       0.2653716 0.49968696 -0.94334203 -0.42824128
0003a0 cc 9a 2d 3f 94 6d fb 3e af 6f 4a 3f ef 4d 4c 3f
       0.67814326 0.4910704 0.79076666 0.7980642
0003b0 ec a5 f3 3e 4a 98 cb 3e 97 85 ae be 98 39 26 bf
       0.47587526 0.39764625 -0.34086296 -0.6493163
0003c0 d8 b5 cb bd b5 e0 da 3e 53 99 21 3e fe bc 6f 3f
       -0.09946793 0.42749563 0.15781145 0.93647754
0003d0 76 5a ee 3e 80 d8 8f be 63 ba 03 bf 43 28 0f bf
       0.4655339 -0.28094864 -0.5145628 -0.5592081
0003e0 f4 cc 11 3f de bc 8c bf 48 a4 c0 3e 03 77 8e 3d
       0.5695336 -1.0995138 0.37625337 0.069562934
0003f0 41 fe f1 be 43 d4 14 3f bd 39 f6 be 00 73 27 bf
       -0.47264293 0.58136386 -0.48090926 -0.6540985

pi.logits_net.4.bias f4 [87]
000000 03 f1 0a 3f 0f 77 a1 3e 26 f1 ac 3e 84 cd ff 3e
       0.54274005 0.31536147 0.33777732 0.49961483
000010 f2 13 f6 3e da 51 c1 3e 4b 9d 06 3f 52 53 ec 3e
       0.48062092 0.3775776 0.5258376 0.46157318
000020 01 91 46 3e 64 e0 08 3f 69 d5 13 3f c3 ac ac 3e
       0.19391252 0.5346739 0.57747513 0.33725557
000030 b6 56 e0 3e 2a ac 17 3f 6b 4c 99 3e c9 98 23 3f
       0.43816155 0.59247077 0.29941115 0.63905007
000040 d0 fd 32 3f 4b 11 1c 3f eb fa c6 3e 6a 37 f1 3e
       0.6991854 0.60963887 0.3886331 0.4711259
000050 f0 07 9c 3e 0a 1d a1 3e 1f 7e d6 3e b0 4a 0c 3f
       0.30474806 0.31467468 0.41893098 0.54801464
000060 9a e3 8f 3e 94 a0 0e 3f 5c ab 0e 3f 04 be cf 3e
       0.28103334 0.5571377 0.55730224 0.40574658
000070 a1 d4 96 3e 85 47 e9 3e 2f 0e 99 3e 62 fe a1 3e
       0.29459098 0.45562378 0.29893634 0.3163939
000080 53 7f 1e 3f 1c bc 07 3f ed 6a b7 3e a1 04 84 3d
       0.6191303 0.5302141 0.35823765 0.064461954
000090 3e 4a 9e bc 32 40 df 3e 76 a9 24 3f 48 a9 0f 3f
       -0.01932251 0.43603665 0.64321077 0.5611768
0000a0 58 18 08 3f 0b 36 9b 3e 8e 3a 9b 3e 66 98 dc 3e
       0.53162146 0.3031467 0.3031811 0.4308502
0000b0 85 09 d7 3e e7 3b bd 3e 5c 58 22 3f c2 f4 f8 3e
       0.4199945 0.36959764 0.63416076 0.48624235
0000c0 a8 27 dc 3e f4 06 fc 3e 76 b4 52 3e b1 2b 1a 3f
       0.42999005 0.49224055 0.20576653 0.6022292
0000d0 e2 72 c8 3e 85 00 b1 3e 2d 28 f1 3e c5 ba 39 bd
       0.3915015 0.3457071 0.47100964 -0.045344133
0000e0 21 db 4c 3f cf b4 02 3f f5 57 56 3e ac a6 4e 3e
       0.80021864 0.5105714 0.2093199 0.20180768
0000f0 b3 0b 37 3f f3 90 96 3e 31 08 a1 3d 18 85 89 3e
       0.71502227 0.29407462 0.078628905 0.26859355
000100 c2 ba c1 3e ab 2b 32 3f 31 be ae 3e 56 a6 83 3e
       0.37837797 0.6959788 0.3412948 0.25712842
000110 b3 39 8e 3e 62 2d 0c 3f 6b 96 0e 3f 2f db 0d 3f
       0.27778396 0.5475675 0.5569827 0.5541257
000120 0c 5f 2c 3e 5c 6c 98 3e 22 b0 14 3f 27 0f 6f 3e
       0.16833133 0.29770172 0.5808126 0.23345624
000130 5f 8c 4a 3e 9e 33 18 3f e1 47 ea 3e fa 5c 27 bd
       0.1978011 0.5945376 0.45757964 -0.040860154
000140 bd e9 db 3e ea 34 3e 3f 17 70 04 3f 43 1d d6 3e
       0.42951766 0.7429949 0.51733536 0.418192
000150 89 e7 1c 3e 7c 69 d3 3e 08 15 6a 3e
       0.15322699 0.41291416 0.22859585

v.v_net.0.weight f4 [64, 282]
000000 ec 17 be 3d d9 6d 13 bf 1c 6c 49 3f a1 56 28 bf
       0.092819065 -0.5758949 0.78680587 -0.65757185
000010 32 bd f5 3e b4 82 db 3e 41 55 88 3e 6c 61 a3 3e
       0.47995907 0.42873156 0.26627544 0.31910264
000020 92 a4 47 3f 04 f9 3a 3f 80 bb 0e bf 4f 7f 0c bf
       0.7798549 0.7303622 -0.5575485 -0.5488176
000030 5d 64 1d 3e 84 fc 41 3f a3 96 01 3f 0d a6 21 bf
       0.15370317 0.75775933 0.5062048 -0.63144
000040 11 39 56 3d 04 f6 64 bf 17 dd fe 3e 17 21 26 bd
       0.052300517 -0.8943789 0.49778053 -0.0405589
000050 e2 6e a3 3d b6 6c a5 3e c9 2a b7 be cc 0e eb 3e
       0.079801336 0.32309502 -0.3577483 0.45909727
000060 6f 7e 0b 3f ec 9e 4c 3f b0 23 9d bd 0c ac ad bd
       0.544898 0.79929996 -0.076728225 -0.08480081
000070 be d4 89 3e 62 c1 12 3e 30 86 03 3f 5c 80 52 3f
       0.26920122 0.14331582 0.5137663 0.8222711
000080 33 71 00 bf 1e dc f9 3e 50 55 d4 bd b3 5f 84 3e
       -0.5017273 0.4880075 -0.103678346 0.25854263
000090 82 09 af 3e 46 13 56 3f b5 3f 09 3f aa eb 3c 3f
       0.3418694 0.8362316 0.53612834 0.73797095
0000a0 de f4 56 3f 64 d9 0f bf ce 7f 41 3f aa 32 48 3f
       0.8396739 -0.56191087 0.7558564 0.7820231
0000b0 bf 49 c9 be d8 41 4f 3f 32 4b f7 3e 25 8d fa 3e
       -0.39314076 0.80959845 0.48299557 0.4893581
0000c0 a0 92 0e bf fa 8a b6 3e 35 30 41 bd a4 85 cf 3d
       -0.5569248 0.35652906 -0.047165114 0.10132912
0000d0 5c 2a 24 bf 02 1c 3c 3f 65 21 19 bf 41 c2 0d 3f
       -0.64127135 0.73480237 -0.5981658 0.5537453
0000e0 c9 aa 0c bf e4 23 e2 bd 58 5e 55 3f f5 5c 84 bd
       -0.549481 -0.11042002 0.8334708 -0.06463043
0000f0 3c 28 8e bd fe 6d 46 3f ca d9 89 3e bc 35 27 bf
       -0.06941268 0.77511585 0.26923972 -0.6531637
000100 29 b8 0a bf 5e 32 3a 3f 9a 93 bd 3e 62 92 16 bf
       -0.54187256 0.72733104 0.37026674 -0.5881711
000110 80 2f 1a bf 0a d6 0a 3e 41 b2 0a bf 42 25 9d 3e
       -0.6022873 0.13558212 -0.54178244 0.30692488
000120 c6 88 4a 3f c4 b3 0d bf 56 06 16 bf 9c cd 91 3e
       0.7911495 -0.55352426 -0.5860342 0.2847718
000130 4d 2e 0d bf f8 04 b1 3e 39 ec 3b bf 76 e7 44 3f
       -0.55148774 0.34574103 -0.7340732 0.7691568
000140 fa e1 11 bf e8 ed 03 3f 12 b8 a3 3e d8 62 95 bd
       -0.5698544 0.5153489 0.31976372 -0.072942436
000150 7a 0b 47 3f 7b b8 08 3e a6 40 1f bf 6a b8 38 c0
       0.77751887 0.13351624 -0.6220802 -2.8862557
000160 0f b4 a7 3e 28 da 29 bf 6f a7 e4 3f c0 94 06 c0
       0.3275456 -0.66348505 1.7863597 -2.102829
000170 37 7f 88 40 99 f5 50 3d 84 12 48 be 05 b0 fa 3f
       4.265529 0.05101547 -0.19538313 1.9584967
000180 b1 5a fe 3e f4 5f de 3f 11 2c 57 3f 87 41 ef 3f
       0.49678567 1.7373033 0.84051615 1.8691872
000190 86 92 a4 3d 11 c0 ff 3f 91 ed 2c be bd 4a 83 bc
       0.0803576 1.9980489 -0.168875 -0.016026849
0001a0 17 fa a3 3f 5d 22 dd 3f c0 ad 1a 3f ea 52 fc bf
       1.2810696 1.7276112 0.6042137 -1.9712803
0001b0 e3 3d 23 3f b9 66 4e bf d2 1b 3e 40 3e 45 a2 3f
       0.63766307 -0.8062549 2.970448 1.2677381
0001c0 6a 0e c4 3e 51 0a 85 40 c4 50 3d 40 d6 96 8b bf
       0.38292247 4.1575093 2.9580545 -1.0905406
0001d0 19 fb 7f 3f 47 4d b1 3f 39 18 21 bf de e0 16 40
       0.9999252 1.3851708 -0.62927586 2.3574748
0001e0 57 97 26 3b 27 e0 ec 3f 83 e0 f2 3d 64 d3 7a bf
       0.0025419795 1.8505906 0.118592285 -0.97978806
0001f0 2b a7 42 3d 76 23 05 c0 38 01 0e be b2 31 a4 bf
       0.047522705 -2.0802894 -0.13867652 -1.2827666
000200 6d 61 88 bf 66 75 a1 3f ca 99 90 3f ae ec 14 3f
       -1.0654732 1.2613952 1.1296933 0.58173645
000210 68 55 92 3f 8b ce af 40 17 ae 41 40 76 c7 1d 3f
       1.1432314 5.493963 3.0262506 0.6163248
000220 fa a1 2b bf a1 58 6c bf fe d6 a0 40 85 48 a2 40
       -0.6704403 -0.92322737 5.026244 5.0713525
000230 01 ea d7 bf a8 5b e8 bf a2 9e d7 bf a7 97 ff 3f
       -1.6868287 -1.8152971 -1.6845286 1.9968156
000240 f2 94 1f 40 0e 5d 07 3e f4 6b b3 bf 0a 00 b0 3e
       2.493466 0.13219091 -1.401732 0.3437503
000250 5e 17 b0 bf 7c ef 7e be 89 a8 55 be 87 2a e9 bf
       -1.3757131 -0.24896044 -0.20865072 -1.8216103
000260 d8 fa 21 40 b3 53 02 40 40 d8 8d bf c7 06 b8 bf
       2.5309353 2.0363586 -1.1081619 -1.4377068
000270 84 c0 11 be 1b b9 9c 3e 17 06 65 3e 9a 11 0f bf
       -0.14233595 0.30609974 0.22365604 -0.5588623
000280 8e 5c 39 bf ca 33 a4 bf fb 79 9b bf 5e 7d 26 c0
       -0.7240685 -1.2828305 -1.21466 -2.6014018
000290 79 a9 69 3e e2 9b e5 3e 1d 1b ca bf 16 de 07 40
       0.22818555 0.44845492 -1.5789524 2.12293
0002a0 8b 04 4b bf 14 8a 30 3f b4 6b b6 bf 98 24 1c 40
       -0.7930381 0.6896069 -1.4251618 2.4397335
0002b0 c8 9d a9 3f 35 8c fd bf 9c 5f 71 3f 75 c3 26 c0
       1.3251276 -1.9808413 0.94286513 -2.6056798
0002c0 a0 11 c4 c0 8f dc 27 3f 7d 6b 74 3f d6 85 c9 3f
       -6.1271515 0.6557092 0.95476514 1.5743968
0002d0 e1 ae 5d bf 85 60 a7 3f f2 8a 70 c0 5f 48 62 3e
       -0.8659497 1.307633 -3.7584805 0.2209792
0002e0 ad 1d 10 c0 92 85 87 3e 03 33 be bf eb 57 0b c0
       -2.2518113 0.26469094 -1.4859318 -2.177241
0002f0 f9 f2 c6 bf 5b 2e 07 c0 be fe c3 3e 52 9e 56 c0
       -1.5542899 -2.1122043 0.3828029 -3.353413
000300 58 2c db bf e1 b4 61 c0 dc 6c b6 3e 0e df f1 3e
       -1.7122908 -3.526665 0.35629928 0.4724049
000310 ea 19 b5 bf 43 d7 02 40 eb 71 80 bf 20 d7 db bf
       -1.4148533 2.0443885 -1.0034765 -1.7175026
000320 13 c1 d1 3f 6a 2d 81 bf c4 cd fe 3f eb 25 fc 3f
       1.6387047 -1.0091984 1.9906545 1.9699072
000330 fb 06 5c 3f 8c a8 0d 3e 4e 95 01 40 c2 7c 95 bf
       0.8594815 0.13833827 2.0247378 -1.1678698
000340 33 56 a3 3f c9 4c a3 3f 65 ec d9 3f ff d8 48 be
       1.2760681 1.2757808 1.7025267 -0.19614027
000350 01 21 97 bf 00 a1 7a 3f 4f c6 0c 3f 00 e6 c3 3e
       -1.1806947 0.97901917 0.54990095 0.38261414
000360 d1 45 b1 3f d5 1c b6 3d ec 81 2a 40 84 64 08 40
       1.3849431 0.08892218 2.6641798 2.131135
000370 b7 78 5b c0 00 d5 2b be d0 65 3a 40 e2 b0 9a 3e
       -3.4292428 -0.16780472 2.9124641 0.30213076
000380 ce 73 72 3f 75 f7 a6 bf 8d 3f d9 3d 05 44 2c c0
       0.94707954 -1.3044268 0.106078245 -2.6916516
000390 8f 7d 41 3e 54 35 07 be 9e bf c9 bf 86 76 a3 be
       0.18895553 -0.13203937 -1.5761602 -0.31926364
0003a0 3a 5b 38 bf 75 a8 57 bf f7 22 e1 be 06 2b fb be
       -0.720142 -0.8424142 -0.4397199 -0.49056262
0003b0 68 cc a4 3f 31 b8 00 3f db 05 66 40 5e db bc 3f
       1.287488 0.50281054 3.5941074 1.4754446
0003c0 42 5b 24 bf 8f 1a 8c 3e ce 4b 2e c0 c6 3a 78 40
       -0.6420175 0.27364013 -2.7233768 3.8785872
0003d0 fc 5b 06 c0 b7 a1 17 be af a8 8d 3e 3a e2 28 3f
       -2.0993643 -0.14807783 0.27667758 0.65970194
0003e0 03 ee 2d 40 c1 1c 7e 3f b7 a1 57 3e 21 6f 1a c0
       2.717652 0.99262625 0.21057783 -2.4130328
0003f0 10 a1 cd 3f 76 c1 85 3f 64 da b0 3e a9 67 17 c0
       1.6064777 1.0449665 0.3454162 -2.365702

v.v_net.0.bias f4 [64]
000000 5a 7b d7 bf 50 e2 91 be 1e e5 0b 40 6b af ad 40
       -1.6834519 -0.28492975 2.1858592 5.4276633
000010 2b 1f 95 3f 24 7a 4b c0 ea d3 35 c0 33 0c 18 40
       1.1650137 -3.1793299 -2.8410592 2.3757446
000020 98 61 ce 3f aa 62 14 c0 8d 09 c8 3f 96 95 a4 c0
       1.6123533 -2.318522 1.5627915 -5.14326
000030 4c 9c 7a bf 67 d7 1d 40 0d d5 e2 bf a7 53 0b 40
       -0.9789474 2.466272 -1.7721268 2.1769807
000040 62 d5 12 3f 94 50 0d bf 8c 1f 7d c0 4d 6c e1 3f
       0.57356846 -0.5520108 -3.9550505 1.7611176
000050 e2 df 41 3f 61 a8 bb 3f 14 45 0e c0 02 f9 04 c0
       0.75732243 1.466076 -2.2229662 -2.0776982
000060 c6 77 1a bf 51 b0 c7 3f d0 4f 8b 3f d9 fa 67 40
       -0.6033901 1.5600682 1.0883732 3.6246855
000070 c5 ae 8e bd cc c7 77 3c db 82 b3 3f 07 c3 a4 bf
       -0.069669284 0.015123319 1.4024309 -1.2872018
000080 57 51 77 bf 01 9b 35 bf c1 83 cf c0 2d 9a dd 3f
       -0.9660849 -0.7093964 -6.4848332 1.7312676
000090 dc de b4 3e 16 00 f0 3f 07 22 c9 bf 4c 9c e9 3e
       0.35326278 1.8750026 -1.5713509 0.45627058
0000a0 2b a4 55 40 56 f0 98 bf 7c 61 be be 98 f0 da 3f
       3.338145 -1.1948345 -0.3718375 1.7104673
0000b0 2e 1d 48 bf 78 ad 98 40 df cc 58 bc 4f 42 c0 40
       -0.78169525 4.7711754 -0.013232439 6.0080943
0000c0 ac f0 16 bf 49 f6 75 bf 61 6a 89 40 11 16 19 bf
       -0.58960986 -0.96078926 4.2942357 -0.59799296
0000d0 c9 a4 ea bf 7b d6 94 bd 21 9a 0a bf b7 90 86 3f
       -1.8331538 -0.072674714 -0.5414143 1.0512913
0000e0 b1 c5 13 bf cb aa 85 be 3f 47 ae bf cd ff 19 40
       -0.5772353 -0.26106867 -1.3615493 2.4062378
0000f0 75 91 4b 40 08 0a a9 be 35 53 19 c1 56 68 d9 bf
       3.180753 -0.33015466 -9.582814 -1.6984966

v.v_net.2.weight f4 [64, 64]
000000 b0 9e a1 40 66 74 68 3f 09 39 a3 3d f0 eb 52 40
       5.050621 0.9080261 0.07969863 3.2956505
000010 0b 92 0c c0 69 30 6b bf 24 01 6f 40 76 47 0b bf
       -2.1964138 -0.91870743 3.7344446 -0.54405916
000020 d2 16 65 c0 37 b8 95 3f 28 cb 26 c0 e7 85 3d 3e
       -3.5795178 1.1696843 -2.6061497 0.18508111
000030 30 e2 80 bf 4b 51 ab 3f da 5d e2 bf 54 14 36 40
       -1.0069027 1.3384184 -1.7684891 2.8449907
000040 5d 5f 35 40 2c 99 1a bf 61 5f e4 3f 34 68 b0 3f
       2.8339455 -0.6038997 1.7841607 1.37818
000050 69 e8 3e bf bd 36 6f c1 7e c4 cb 3f 0c 09 83 40
       -0.7457338 -14.950864 1.591934 4.0948544
000060 e0 75 28 40 8c 0f fb bc a1 07 c8 3f b3 79 a0 40
       2.6321945 -0.030647062 1.5627328 5.014856
000070 b1 46 9c 3f b0 61 58 40 0f d3 50 3d 25 7d 20 c0
       1.2209073 3.3809624 0.05098253 -2.5076382
000080 6f 61 1f 40 91 94 08 40 25 05 97 3f d1 46 a7 40
       2.4903219 2.1340678 1.1798445 5.2273946
000090 8b 3d 81 3f cd cd 4f 40 6f 81 6f c0 6d 99 1d c0
       1.0096906 3.246936 -3.742275 -2.4624894
0000a0 0f 82 25 40 4d 9c e2 bf d2 20 00 c0 6b 68 ad 3f
       2.5860631 -1.7703949 -2.0020032 1.3547491
0000b0 eb e5 b8 3f a6 9a 2b c0 47 2d 0c c0 36 2d 9b bf
       1.4445165 -2.681314 -2.1902635 -1.2123172
0000c0 bb 49 8a 3e 42 d0 2b 40 d3 c8 be 40 7b 10 8b 40
       0.27009377 2.684586 5.9620147 4.345762
0000d0 bf 00 48 be 93 67 b4 bf a6 47 a1 3f b6 87 35 40
       -0.19531535 -1.4094108 1.259999 2.8364081
0000e0 8f 06 0a c0 03 a3 11 40 80 d8 8c bf 76 ee d6 bf
       -2.1566503 2.2755744 -1.100357 -1.6791523
0000f0 49 f7 15 c0 4d 9e 0d 40 05 d1 66 40 ba 2a e5 3e
       -2.343218 2.212787 3.6065075 0.4475916
000100 36 17 3c 40 34 6f 61 c0 69 67 0a 40 a3 c1 77 be
       2.9389167 -3.5224123 2.1625617 -0.2419496
000110 dd 7c 93 40 05 56 b8 3f c0 0b 62 3f a3 10 4c 40
       4.608992 1.4401251 0.8829918 3.1885154
000120 fa d2 f4 3f cd 4a 07 40 8d 0c 04 c0 53 5d 91 3f
       1.9126885 2.1139405 -2.063266 1.1356605
000130 9c 11 15 3f e4 97 43 3f 1c 47 53 c0 9d 19 13 40
       0.58229995 0.7640364 -3.3012152 2.2984383
000140 c5 00 54 c0 4a 6f e8 bf cb 6a a5 3f 7a 4f 44 40
       -3.312547 -1.8158963 1.2923216 3.0673509
000150 11 77 bb bf b0 12 9b 3e c1 82 07 c0 d8 5c f4 be
       -1.4645711 0.30287695 -2.1173556 -0.47727084
000160 9f 6d b9 be 62 af 39 3e d6 72 16 40 84 6c 07 bf
       -0.36216447 0.1813331 2.350759 -0.52899957
000170 e8 80 f6 bf 4a 32 fd 3d 4f 79 ca bf 3b 0f 1e 40
       -1.9258089 0.123631075 -1.581827 2.4696796
000180 a5 f7 d8 bf ef 89 09 c0 a1 ce 24 c1 5a d2 2a c0
       -1.6950575 -2.1490438 -10.3004465 -2.6690888
000190 be d7 81 be c6 45 43 be 61 74 4b 40 e2 09 6c bf
       -0.2535991 -0.19069585 3.1789782 -0.9220258
0001a0 22 31 a5 3f bc 94 02 40 45 98 21 c0 9a 28 0c be
       1.2905619 2.040328 -2.5249188 -0.13687363
0001b0 9f 89 5d bf a6 6f 0b c0 64 f5 a4 c0 3f 3b 1c 40
       -0.8653812 -2.1786895 -5.154955 2.441116
0001c0 24 b5 28 c1 7f 0e f0 c0 f1 a2 11 c0 52 ac e6 bf
       -10.544224 -7.5017695 -2.2755702 -1.8021338
0001d0 4c e3 95 3f 5a 67 04 c0 af 83 0d bf c7 a8 11 c0
       1.170999 -2.068808 -0.5527906 -2.2759264
0001e0 f5 ad 48 bf 77 38 0f c0 37 52 0e c0 4d 62 18 c0
       -0.7839044 -2.2378213 -2.223768 -2.3809998
0001f0 05 e5 60 40 e7 09 c0 bc ff 2e 82 bf 43 b6 dd bf
       3.5139782 -0.023442222 -1.0170592 -1.7321247
000200 1e 19 10 c0 d8 96 b8 3f 11 54 81 bf 13 4d 54 40
       -2.251533 1.4421034 -1.010378 3.3172042
000210 96 03 86 c0 b0 d6 a9 3d 6c ed a4 40 9f 1e bd c0
       -4.1879377 0.082929015 5.153982 -5.909988
000220 0b 04 48 3f 32 ca 37 40 dc 1c 7f 40 54 f9 7d 40
       0.7813117 2.871716 3.9861364 3.9683428
000230 6f b8 80 bf 81 48 50 40 28 86 d2 bb 97 83 ac bf
       -1.0056285 3.2544253 -0.006424684 -1.3477658
000240 90 90 6c 40 50 a0 0f 40 8e ab 17 3f 83 f3 ce bf
       3.6963234 2.2441597 0.59246147 -1.6168064
000250 b1 3d 14 40 b7 8d 0d bf 2e 23 1c 41 17 a4 16 3f
       2.3162653 -0.55294365 9.758589 0.5884413
000260 b6 85 f8 3f 55 ae 60 40 06 c4 1f bf 59 26 53 c0
       1.9415805 3.5106404 -0.62408483 -3.2992156
000270 d2 b9 05 c0 34 b8 90 40 ca 56 b8 c0 44 d5 3e c0
       -2.0894666 4.5224857 -5.7605944 -2.9817667
000280 04 6e 7a 40 80 8f 16 40 d4 3f 80 40 1e 5e 60 40
       3.9129648 2.3525085 4.0077915 3.5057445
000290 e6 d2 7f 3f d8 47 86 bf 69 e7 fe bf 2c 2f e7 bf
       0.9993118 -1.0490675 -1.9914371 -1.8061271
0002a0 5c b4 ef bf 03 08 a1 3e ec 8d 39 c0 96 b9 3e c0
       -1.8726916 0.31451425 -2.8992872 -2.9800773
0002b0 c4 10 4f 40 f3 15 36 3e 10 3f 5e 40 75 52 26 c0
       3.2353983 0.1778181 3.472599 -2.5987828
0002c0 5d b9 e8 be 33 34 93 40 b0 a1 4c 40 2f 5a a6 bf
       -0.4545392 4.600122 3.1973686 -1.2996272
0002d0 ce ee 21 3f 48 dc 9d 40 d4 10 e7 bf 88 2e 08 40
       0.6325501 4.93314 -1.805201 2.12784
0002e0 e7 d1 86 c0 06 76 97 3f ac 9b e1 3e ca ee 7a 40
       -4.213123 1.1832893 0.4406408 3.9208245
0002f0 e0 e2 8e 40 5f 25 15 c0 06 77 71 40 d8 cb d3 bf
       4.4651947 -2.330406 3.7728896 -1.6546583
000300 65 c9 80 c0 1a 53 b0 40 07 52 a2 3e 21 1a 01 40
       -4.0245843 5.510144 0.31703207 2.0172198
000310 39 57 4c c0 36 52 3a 3f 25 34 22 c0 cc a5 1b 40
       -3.1928236 0.72781694 -2.5344326 2.4319944
000320 68 92 11 40 17 a6 f4 3e 09 03 68 c0 d1 68 18 3f
       2.274561 0.47782966 -3.6251853 0.5953494
000330 94 c6 ba bf e0 c6 17 40 de ec 49 c0 f2 75 5c be
       -1.4591851 2.3715134 -3.1550822 -0.21529368
000340 be 9c 68 bf cd 70 09 c0 ec 74 f2 bf 98 0f 81 bf
       -0.9086417 -2.1475098 -1.8941932 -1.0082884
000350 21 7c ec be 64 a2 cb 3d fc 6d e3 bf a1 45 22 c0
       -0.46188453 0.09943083 -1.776794 -2.5354998
000360 cf 5a de be 74 14 ce be 6f e3 ad c0 89 e1 31 bf
       -0.43428656 -0.4024998 -5.434013 -0.69484764
000370 10 fc 50 40 a9 c5 37 3f d9 ae 8f 40 03 ce 7f c0
       3.2653847 0.7178598 4.4900937 -3.996949
000380 da b1 0a bf a7 b5 3d 40 ce f0 91 bf 2f a2 93 bf
       -0.5417763 2.9642122 -1.1401613 -1.153387
000390 47 fe ee bf f7 3f c7 3f 56 a3 16 40 b5 8d 01 40
       -1.8671349 1.5566396 2.3537192 2.024274
0003a0 0c e5 bf 40 59 be 86 bf 4e 9f f2 3f 3b dd 35 be
       5.99671 -1.052684 1.8954866 -0.17760174
0003b0 90 3d 48 3f 9b bf 92 40 06 ee 8d c0 2e e9 0e c0
       0.78218937 4.5858893 -4.4353056 -2.2329822
0003c0 70 8e 1b c0 d9 21 93 bf 32 0b 3e 3f d2 6a c0 40
       -2.4305687 -1.1494704 0.7423583 6.0130396
0003d0 5a a6 19 3f 8e 57 19 bf 45 a9 24 c0 ca a9 0c 3f
       0.6001946 -0.5989922 -2.5728314 0.5494658
0003e0 e4 a2 4c c0 1f 4d 53 bf bd 40 ee bf 4d 5c 02 40
       -3.197442 -0.8253955 -1.8613507 2.0368836
0003f0 f1 ab 27 c0 63 1c a2 40 f2 da 3e 3f 3a 20 0c 40
       -2.6198695 5.065965 0.74552834 2.189467

v.v_net.2.bias f4 [64]
000000 ea 83 50 bf e5 c7 48 3f b8 ee 2f c0 12 ff 85 bf
       -0.81451285 0.78430015 -2.7489452 -1.0468466
000010 05 fb fb bf 46 a4 13 c0 db 15 dc 3d fb 57 85 be
       -1.968598 -2.3069015 0.10746356 -0.26043686
000020 40 61 34 c0 67 24 21 c0 14 01 f1 bf b3 b0 dc 3f
       -2.8184357 -2.5178468 -1.8828454 1.7241424
000030 69 fe db 3f 65 7e d2 3e 17 f9 43 bf 10 0b 4f be
       1.7187015 0.41112056 -0.76551956 -0.20219064
000040 a4 74 e6 3d db 1e 0d 40 87 31 4b c0 96 40 f0 bf
       0.11252716 2.2050083 -3.174898 -1.876971
000050 69 67 93 bd 47 10 b6 bf f1 0d b7 bf 16 43 85 3e
       -0.07197458 -1.4223717 -1.430113 0.26027745
000060 9d 2f 11 3f d2 1d 0a bf 1c 12 eb bf f5 49 05 40
       0.5671328 -0.5395175 -1.8364902 2.082639
000070 d1 d6 54 bf dd d3 83 be 8b 16 39 c0 7f 17 c5 3f
       -0.83140284 -0.25747576 -2.892001 1.5397795
000080 2b e4 89 be c4 96 c6 bf 24 69 53 3f c0 5a e2 3e
       -0.2693189 -1.551476 0.82582307 0.44209862
000090 1c fc 6c be 0e 77 1b 40 44 8d 7b be 46 92 08 40
       -0.23143047 2.4291415 -0.24565607 2.1339278
0000a0 b2 ad 88 3e bf 93 4e 3f 69 9b 21 bf e3 8e 02 3f
       0.2669502 0.8069419 -0.6312776 0.5099928
0000b0 f8 49 ef 3d 77 17 35 bd 3b 71 18 c0 7a 0e 25 bf
       0.1168403 -0.04421183 -2.381911 -0.64475214
0000c0 c9 4f 04 40 95 e0 26 40 e8 0a 0b 40 46 33 a1 3f
       2.0673697 2.6074574 2.1725407 1.2593772
0000d0 a6 2f f4 bf bc e0 85 3f 5c 41 c2 3f f3 8f aa bf
       -1.9077041 1.0459208 1.5176196 -1.332518
0000e0 31 23 b0 3e af b6 aa bf f1 07 26 40 89 00 2b c0
       0.3440185 -1.3337001 2.5942347 -2.6719077
0000f0 51 47 a4 bf 02 4a 12 3f c1 8f 59 be 8e 17 b8 3e
       -1.2834264 0.57144177 -0.21246244 0.3595547

v.v_net.4.weight f4 [1, 64]
000000 75 e8 ac 41 a2 11 7f c1 6b 82 9d c1 b5 f1 92 40
       21.613504 -15.941805 -19.68868 4.5920053
000010 1e 0b 46 c1 8e dc 3c c1 bd 41 4c c1 44 a1 3b 41
       -12.377714 -11.803846 -12.766049 11.7268715
000020 60 b2 28 c1 cc a3 4c c1 4b 5c 5d c1 08 89 76 42
       -10.543549 -12.789989 -13.835032 61.63382
000030 72 fb 90 c1 05 c2 85 c1 f2 1b ab c1 50 8b 94 41
       -18.122776 -16.719736 -21.388645 18.568024
000040 16 63 57 c1 1f 57 44 c1 81 3a d2 c1 56 d3 b3 c1
       -13.461691 -12.27127 -26.278566 -22.478191
000050 e9 98 38 41 9e 6a b1 c1 39 66 74 c1 70 91 36 c1
       11.537332 -22.17706 -15.274957 -11.410507
000060 79 61 57 41 40 29 51 c1 82 36 9d c1 58 48 c2 41
       13.461297 -13.072571 -19.651615 24.285324
000070 ac 67 9c 41 2d 5f 91 c1 f1 1b 97 c1 2d b3 7c 41
       19.550621 -18.171473 -18.888643 15.793744
000080 2c 4b af c1 1c 7f 97 c1 99 e9 b7 41 e9 ad 5a c1
       -21.911705 -18.937065 22.989061 -13.667459
000090 a5 8f 58 c1 72 0d 7b 41 ac 9c 8e 41 c5 a7 66 41
       -13.535069 15.690783 17.8265 14.415959
0000a0 f3 84 ca c1 82 c2 b1 41 6e c2 7c c1 bd d7 a3 c1
       -25.314917 22.219975 -15.797468 -20.480341
0000b0 91 d1 7a 41 e4 eb 13 41 8b e0 54 c1 b7 34 96 41
       15.676164 9.2450905 -13.30482 18.77574
0000c0 8c e3 c6 41 70 1a c3 41 cc 24 88 41 b6 9d 39 c1
       24.861107 24.387909 17.017967 -11.601004
0000d0 00 5c b0 c1 d3 fe 1e 41 96 57 54 41 ea 6b 81 c1
       -22.044922 9.937213 13.271383 -16.177692
0000e0 ac 82 8f 41 8c 7d ca c1 ab fe e2 41 b6 bd b0 c1
       17.938805 -25.311302 28.37435 -22.092632
0000f0 ef b7 a7 c1 8b ae 35 c1 f9 ce b3 c1 7a 6b ad 41
       -20.964811 -11.355113 -22.47606 21.677479
