model_wts/s2_d3_m0.0_b1.0.ckpt (torch, 206875 bytes, 11 tensors)

pi.logits_net.0.weight f4 [64, 282]
0	0x3b70f62c	0.0036767824
1	0xbdcb64c1	-0.09931327
2	0xbd832ec7	-0.064054064
3	0x3c1bad23	0.009501728
4	0xbcce22c3	-0.02516306
5	0xbd1707ef	-0.0368728
6	0x3d1ed91d	0.038781274
7	0xbb24fb78	-0.00251743
8	0xbd88c84d	-0.06678829
9	0xbe0cccc9	-0.13749994
10	0xbd9d4458	-0.07679051
11	0xbda643e9	-0.081184216
12	0xbcbd0dd4	-0.023077883
13	0xbd01ce58	-0.031690925
14	0xbd40d2a3	-0.04707588
15	0x3d1885ba	0.037236907
16	0x3c795419	0.015217804
17	0xbda73142	-0.08163692
18	0xbd9684cb	-0.07349547
19	0x3d362b36	0.044474803
20	0xbd8be5f0	-0.068309665
21	0x3d2a5101	0.041581158
22	0xbcea1a54	-0.028577007
23	0xbc105ceb	-0.008811216
24	0xbdcf42d5	-0.10120169
25	0xbd848369	-0.06470377
26	0xbc803bdf	-0.015653549
27	0xbd3cfc2f	-0.04613894
28	0x3c428a5c	0.011873808
29	0xbd1f641b	-0.038913827
30	0xbdd75625	-0.10514478
31	0xbdf3c609	-0.119030066
32	0xbd91abd6	-0.07112853
33	0xbc42493b	-0.01185828
34	0xbc2191be	-0.009861408
35	0x3c96260c	0.018328689
36	0x3d93099e	0.07179569
37	0xbdd37143	-0.10324337
38	0xbd82a65e	-0.06379388
39	0xbde77bcd	-0.1130291
40	0xbdcaebbb	-0.09908243
41	0xbe0f26f1	-0.13979699
42	0xbd612d4d	-0.054974843
43	0xbd6a692d	-0.05722921
44	0xbc45189c	-0.012029793
45	0xbd517f1f	-0.051146623
46	0xbccfc599	-0.025362777
47	0xbd44797b	-0.047967415
48	0xbda06162	-0.07831074
49	0x3d4d81f8	0.050172776
50	0x3c9b7d5e	0.018980678
51	0x3cf5ea06	0.030018818
52	0xbd2b6ea8	-0.041853577
53	0xbd3be175	-0.04586931
54	0xbdcc1af5	-0.09966079
55	0xbd5a1feb	-0.053253096
56	0xbdc727d1	-0.09724391
57	0x3cb2f7f0	0.021846741
58	0xbd971531	-0.07377089
59	0x3d2d57d4	0.042320088
60	0x3c8e9bbc	0.017408244
61	0xbe066dab	-0.13127773
62	0x3d811df4	0.06304541
63	0xbce073d9	-0.02739899
64	0xbd0416f8	-0.032248467
65	0xbda68b1d	-0.081320025
66	0xbd8af8bf	-0.06785726
67	0xbe0fd9ad	-0.1404788
68	0xbce4e8ba	-0.027943004
69	0x3c9c1a18	0.019055411
70	0xbe0ebc19	-0.13938941
71	0x3dc7b018	0.09750384
72	0xbdf4d3bf	-0.1195445
73	0x3c21bfc6	0.0098723825
74	0xbdb1ea63	-0.08687284
75	0x3d65dcec	0.05611889
76	0xbda28df5	-0.079372324
77	0xbc2488c8	-0.010042377
78	0xb981b002	-0.00024735933
79	0xbdf1b74d	-0.1180254
80	0xbd0b3bba	-0.033992507
81	0xbd6d34fd	-0.05791186
82	0xbc5ff008	-0.013668068
83	0x3ad5687d	0.001628175
84	0xbd5f5421	-0.05452359
85	0xbd16149b	-0.036640745
86	0xbdb8bd15	-0.090204395
87	0x3ea01ee0	0.31273556
88	0x3dd0e831	0.10200537
89	0xbc8ebecb	-0.017424962
90	0xbe321797	-0.17391811
91	0x3e88f725	0.26751056
92	0x3da641de	0.08118032
93	0x3daa8eba	0.08328004
94	0x3eb7de8e	0.35911983
95	0x3ed563ca	0.41677696
96	0xbc9947b7	-0.018710954
97	0xbf15f68b	-0.5857932
98	0x3e38dc30	0.18052745
99	0xbb6a159c	-0.0035718447
100	0x3f266b6e	0.65007675
101	0xbe14e9d7	-0.14542328
102	0xbe861625	-0.2618877
103	0x3ea2fcf6	0.3183362
104	0x3e63990a	0.22226349
105	0xbd81394e	-0.06309758
106	0x3e3da081	0.18518259
107	0x3eb544f0	0.35404158
108	0x3e9db1c8	0.307997
109	0x3dfa3799	0.12217636
110	0x3ee0b24f	0.4388604
111	0x3dddbe7e	0.10827349
112	0xbe1b5909	-0.15170683
113	0x3e9ced5a	0.30649835
114	0x3ea4e8e7	0.3220894
115	0x3ef4bd2f	0.47800586
116	0x3ed08f94	0.4073454
117	0x3e9e9a90	0.30977297
118	0x3d3fba39	0.046808455
119	0x3e619d42	0.22032645
120	0x3e532d0d	0.20622654
121	0x3e457223	0.19281821
122	0x3e3d236a	0.1847054
123	0x3eb4da8c	0.35322988
124	0x3e875bad	0.2643713
125	0xbe6638db	-0.22482626
126	0x3dda5ba7	0.106620125
127	0x3e682d9f	0.22673653
128	0xbd7fb472	-0.062427945
129	0x3ec8075c	0.39068115
130	0x3de8472f	0.11341702
131	0x3e9ecf77	0.31017658
132	0xbd6ebdfc	-0.058286652
133	0xbe467471	-0.19380356
134	0xbe88d73c	-0.2672671
135	0x3c48df0a	0.012260208
136	0x3e811dc2	0.25218016
137	0x3f018564	0.5059416
138	0x3eab9a06	0.33515948
139	0x3e800df8	0.25010657
140	0x3e0fb482	0.14033702
141	0xbcaf5a4b	-0.02140536
142	0x3db4ec01	0.08834077
143	0x3f0fe1c5	0.5620387
144	0x3f03e995	0.5152829
145	0x3d3d6696	0.04624041
146	0x3d69785a	0.05699954
147	0x3e5763e3	0.21034198
148	0x3e2f4446	0.17115888
149	0xbe1c6901	-0.15274431
150	0x3d9c75e0	0.0763967
151	0x3dd4dd76	0.10393803
152	0xbe089c95	-0.13340981
153	0x3da1e539	0.07905049
154	0xbe0d0764	-0.1377235
155	0xbeb9d11e	-0.36292356
156	0xbd8735d5	-0.066020645
157	0xbef345dc	-0.47514236
158	0x3dc9791c	0.09837553
159	0xbc8c8683	-0.017153984
160	0x3e588275	0.21143515
161	0x3f025129	0.5090509
162	0x3eae15c0	0.3400097
163	0xbe06971f	-0.13143586
164	0xbe535cd3	-0.20640878
165	0xbec9f4b0	-0.39444494
166	0xbe3cc5e0	-0.18434858
167	0xbeb91c0e	-0.36154217
168	0xbe3dba54	-0.1852811
169	0x3e3e992b	0.18613116
170	0xbc1384dd	-0.009003845
171	0x3e27578d	0.16341992
172	0xbcbf4fa6	-0.023353409
173	0xbe176185	-0.14783294
174	0x3e809edf	0.2512121
175	0xbdb54c26	-0.08852415
176	0x3dd80e95	0.10549656
177	0xbe35c0ae	-0.17749283
178	0xbc1b97b1	-0.009496615
179	0xbf253e75	-0.64548427
180	0x3f8fedd2	1.1244452
181	0x3ddcdb5a	0.107840255
182	0x3ebb3e9c	0.36571205
183	0xbf944680	-1.1584015
184	0xbe247427	-0.16059934
185	0xbece49d4	-0.402907
186	0xbe6e7993	-0.23288564
187	0x3e07bc2d	0.13255377
188	0x3e7f02de	0.24903437
189	0x3f296386	0.66167486
190	0xbed74f39	-0.4205263
191	0xbd44fb03	-0.048090946
192	0xbf1a93de	-0.6038188
193	0xbdae1d12	-0.085016385
194	0x3e4cd583	0.20003323
195	0x3dffee4d	0.12496624
196	0x3e512e2f	0.20427774
197	0x3ec55096	0.38538045
198	0xbefd7ceb	-0.49509367
199	0xbece4b86	-0.40291995
200	0xbd2846b9	-0.04108307
201	0xbd6b1d89	-0.057401214
202	0xbf4222fa	-0.7583462
203	0xbeb242b3	-0.34816512
204	0x3e5ecee4	0.2175861
205	0xbebd4f8f	-0.3697476
206	0x3fd264c1	1.6436998
207	0xbdfdc9d2	-0.1239201
208	0x3dd16c65	0.10225753
209	0x3ed12911	0.40851644
210	0x3ef21bca	0.47286826
211	0x3e2e9bd3	0.1705163
212	0x3e3d1695	0.18465646
213	0xbe140b40	-0.14457417
214	0x3e7e8ad4	0.24857646
215	0xbddb3f29	-0.10705406
216	0xbf301be8	-0.6879258
217	0xbe3346f1	-0.17507531
218	0xbca17ac3	-0.019711858
219	0x3d8c2fed	0.068450786
220	0x3f558f9e	0.8342227
221	0x3e1fa0a8	0.15588629
222	0x3d3d4f54	0.04621823
223	0x3e8c18ba	0.27362615
224	0x3f981a3e	1.1883008
225	0x3d6cd153	0.057816815
226	0xbe1c5e6b	-0.15270393
227	0xbe1b105e	-0.15142962
228	0xbd23705f	-0.039902087
229	0x3ddd9faf	0.10821473
230	0x3dba4c6d	0.09096608
231	0x3f1db5bd	0.61605436
232	0xbf951a55	-1.1648661
233	0xbf0ad861	-0.5423642
234	0x3e34211d	0.17590757
235	0xbf869607	-1.0514535
236	0xbe2f4787	-0.1711713
237	0x3f33aa67	0.7018189
238	0x3e0be843	0.1366282
239	0x3cfcfc54	0.030882038
240	0xbecca09e	-0.3996629
241	0xbe47fa02	-0.19528964
242	0xbeb0c5ef	-0.3452601
243	0xbeddd761	-0.43328384
244	0x3e008d4b	0.12553899
245	0xbec97f39	-0.39354876
246	0x3eb83b4a	0.35982734
247	0x3f2f2093	0.6840908
248	0x3e15dfc2	0.14636138
249	0x3eec04f5	0.46097532
250	0xbed02d75	-0.4065968
251	0xbed7cdf8	-0.4214933
252	0x3db5712f	0.08859479
253	0xbe85b1d0	-0.26112223
254	0x3f00b696	0.50278604
255	0xbea471be	-0.32118028

pi.logits_net.0.bias f4 [64]
0	0x3d48b0d0	0.048996747
1	0xbe195857	-0.14975105
2	0xbda4d428	-0.08048278
3	0x3d9e2838	0.07722515
4	0x3d6f30de	0.058396213
5	0x3cfb00c2	0.03064001
6	0xbe5b3871	-0.2140825
7	0xbdb5d410	-0.08878338
8	0xbe6ba3c8	-0.23011696
9	0xbe353589	-0.17696203
10	0x3dd60ed0	0.10452044
11	0x3e1cd6a4	0.15316254
12	0xbe6f05e8	-0.23342097
13	0x3d7f9fe3	0.06240834
14	0x3b96722e	0.004591248
15	0xbc8124f4	-0.015764691
16	0xbc3373af	-0.010952874
17	0x3e1eb247	0.15497695
18	0x3d858dc2	0.06521179
19	0x3e0fba2b	0.14035861
20	0xbe82a2fa	-0.25514966
21	0x3e23f4d6	0.16011366
22	0x3d391c87	0.04519322
23	0xbdd0a21a	-0.101871684
24	0xbde1f8cc	-0.11033782
25	0xbd4feb7d	-0.05076169
26	0xbe418f1e	-0.18902251
27	0xbeb8edf2	-0.36119038
28	0x3e4fb4bc	0.20283788
29	0xbe4d4bec	-0.20048493
30	0x3eaa7700	0.33293915
31	0xbe46a635	-0.1939934
32	0xbd23bdd3	-0.039975952
33	0xbddc79fb	-0.107654534
34	0x3d451a9b	0.048121076
35	0xbabe7d57	-0.0014533204
36	0xbe98e07c	-0.29858768
37	0xbea4f7f9	-0.32220438
38	0xbdf1d434	-0.11808053
39	0x3e89d79c	0.2692231
40	0x3dad645d	0.084664084
41	0xbdeaba48	-0.114613116
42	0x3d9fc69e	0.07801555
43	0x3e3adacb	0.18247525
44	0xbdcfa09c	-0.10138056
45	0x3e12f1e1	0.14350082
46	0x3d83fd28	0.0644477
47	0x3c94bee8	0.018157437
48	0x3e008723	0.1255155
49	0x3d56ced1	0.05244333
50	0xbdba0028	-0.09082061
51	0x3e242f29	0.16033615
52	0x3e5314c0	0.20613384
53	0x3de30b9c	0.11086199
54	0x3cfa3e40	0.030547261
55	0xbe33872b	-0.17532031
56	0x3ead88ab	0.33893332
57	0x3dcb1aae	0.09917198
58	0x3ce7ae74	0.028281428
59	0xbd8e8c3b	-0.069603406
60	0x3e253528	0.16133559
61	0xbe89b9c1	-0.2689953
62	0x3dcf3b5f	0.10118746
63	0x3e788428	0.24269164

pi.logits_net.2.weight f4 [64, 64]
0	0xbe99be06	-0.3002779
1	0xbfa7998f	-1.3093737
2	0x3d617275	0.055040795
3	0x3e87bcca	0.26511222
4	0x3d95ccb1	0.073144324
5	0xbdeb52b4	-0.11490384
6	0xbec06232	-0.37574917
7	0xbd1cf01d	-0.038314927
8	0xbebb55f9	-0.3658903
9	0xbe22a55a	-0.15883389
10	0xbe382ca7	-0.17985784
11	0x3e96f857	0.29486343
12	0xbf29f1a2	-0.6638433
13	0x3e419e00	0.18907928
14	0xbdbd8cff	-0.092554085
15	0xbda0d335	-0.078527845
16	0x3d0c4c6e	0.034252577
17	0x3f0eff1f	0.55858034
18	0xbed074ec	-0.40714204
19	0x3e645fcc	0.22302169
20	0xbf566f83	-0.83763903
21	0x3f00bca8	0.50287867
22	0xbe698023	-0.22802787
23	0x3e8a15de	0.26969808
24	0xbea1f5bc	-0.31632793
25	0x3e4a99ec	0.19785279
26	0xbe44f8ac	-0.19235486
27	0xbf216645	-0.63046676
28	0x3de08276	0.109623834
29	0xbdc9500f	-0.09829723
30	0x3e4c4373	0.19947605
31	0x3d864ac6	0.06557231
32	0xbd9e9fb6	-0.07745306
33	0x3ea0a606	0.31376666
34	0xbd684d06	-0.05671408
35	0xbc3a039a	-0.011353398
36	0x3dc51594	0.09623256
37	0xbf9b5556	-1.2135417
38	0xbe79f546	-0.2440997
39	0x3f8485e9	1.0353366
40	0x3e19d5fa	0.15023032
41	0xbeb6a714	-0.35674345
42	0xbd4b9bdf	-0.049709197
43	0x3e04e3f2	0.12977579
44	0x3e98226a	0.29713756
45	0x3d5e9c58	0.05434832
46	0xbeaa6d6b	-0.33286604
47	0x3e218a99	0.15775527
48	0xbe9c9a7c	-0.30586612
49	0x3e574896	0.21023783
50	0xbee30d51	-0.44346097
51	0xbd3c53fc	-0.04597853
52	0x3ef099b8	0.46992278
53	0x3e80b3a9	0.2513707
54	0x3e596110	0.21228433
55	0x3dc2c8df	0.09510969
56	0x3f2c73f9	0.6736446
57	0x3d8fe9c9	0.07027013
58	0xbbf010f4	-0.0073262397
59	0x3f12c5eb	0.5733325
60	0x3ef04d96	0.46934193
61	0x3e0ba389	0.13636602
62	0x3e301ad4	0.17197734
63	0x3f197609	0.5994573
64	0x3ceee9f5	0.029164294
65	0xbd10b451	-0.035328213
66	0xbdc9bd92	-0.09850611
67	0x3d1bfe9d	0.038084615
68	0xbeff834c	-0.4990486
69	0x3ea31761	0.31853774
70	0x3f060ee4	0.5236647
71	0x3e3bcb74	0.1833933
72	0x3ec97705	0.39348617
73	0xbee6844f	-0.45022818
74	0x3e630062	0.22168115
75	0x3e9be106	0.30445117
76	0x3f13a530	0.5767393
77	0x3ec4600e	0.38354534
78	0x3f9d6c8d	1.2298752
79	0x3f4c5371	0.7981482
80	0xbf354e3d	-0.7082251
81	0x3e506d7a	0.20354262
82	0x3ea66dbf	0.32505605
83	0xbee399c9	-0.44453266
84	0xbe082d99	-0.13298644
85	0xbeadc869	-0.33941963
86	0x3e41e3c8	0.18934548
87	0x3e8ed8c9	0.2789977
88	0xbdf25858	-0.118332565
89	0xbdfb0d6f	-0.12258422
90	0x3ea53c60	0.32272625
91	0xbe38d1a6	-0.18048725
92	0x3d209c84	0.039211765
93	0xbe8a5f20	-0.270257
94	0x3daaae9c	0.08334085
95	0xbe382536	-0.17982945
96	0xbf997564	-1.198895
97	0x3e29e76a	0.16592184
98	0x3e88065f	0.2656736
99	0x3eabc0cf	0.3354554
100	0xbd9dbf5a	-0.07702513
101	0xbe1a9573	-0.15096073
102	0x3e11b2f3	0.1422842
103	0x3d74b5a6	0.059743546
104	0x3f2022f8	0.6255336
105	0x3f72b2a4	0.94803834
106	0xbdd87d2c	-0.1057075
107	0xbf7424b7	-0.9536852
108	0x3d8ae437	0.0678181
109	0x3e8c65a5	0.274213
110	0x3eec41a9	0.46143845
111	0x3e3ab293	0.18232183
112	0xbe3f8c93	-0.18705969
113	0x3d027456	0.031849228
114	0xbe86f1a0	-0.2635622
115	0x3c6343a0	0.0138711035
116	0x3d5fad76	0.054608785
117	0x3e8d19c2	0.27558714
118	0x3f118e7f	0.56858057
119	0x3bdb764c	0.0066974517
120	0x3ee99d9e	0.45628065
121	0xbec131aa	-0.37733203
122	0xbe40c22d	-0.18824072
123	0xba1394da	-0.00056297856
124	0x3f942d0e	1.157625
125	0x3d55bf28	0.052184254
126	0x3ee79b28	0.45235562
127	0xbe3dcec6	-0.18535909
128	0x3ecfdb62	0.40597063
129	0x3ee83c0a	0.45358306
130	0x3f3374a5	0.7009986
131	0x3f35ad03	0.7096712
132	0x3de873b7	0.11350196
133	0x3f5baa21	0.8580647
134	0x3ecbdebe	0.39818376
135	0xbf30463c	-0.6885717
136	0x3e87b0ad	0.2650198
137	0xbe044671	-0.12917496
138	0xbf7900ab	-0.97266644
139	0xbf3e4bd9	-0.74334484
140	0x3df72bcd	0.12068901
141	0xbf179a9f	-0.5922031
142	0x3e65ca1f	0.22440384
143	0x3eee6a25	0.46565357
144	0xbe97c3e4	-0.2964164
145	0xbf9f654a	-1.2452786
146	0x3e543d8b	0.20726602
147	0x3eb097bf	0.34490773
148	0x3ea34e7b	0.31895813
149	0x3e9f9377	0.31167194
150	0x3e42cda3	0.19023757
151	0xbddef9b0	-0.10887468
152	0x3f4de73c	0.8043096
153	0xbe83daa9	-0.25752762
154	0xbda24b00	-0.07924461
155	0x3edf0c66	0.43564147
156	0xbf1ba04d	-0.60791475
157	0xbeb8b64e	-0.36076587
158	0x3d973b7b	0.07384392
159	0xbef76371	-0.48318055
160	0x3d00984b	0.031395238
161	0xbea44f6e	-0.3209185
162	0xbf178758	-0.59190893
163	0xbb9457d8	-0.0045270734
164	0xbf2af906	-0.6678623
165	0xbe0d776a	-0.13815084
166	0x3e8a3500	0.2699356
167	0x3ce75593	0.028239047
168	0x3e849696	0.25896138
169	0xbefa5689	-0.48894146
170	0xbf965bee	-1.1746805
171	0xbd24b7b0	-0.04021424
172	0xbee08805	-0.43853775
173	0x3e085d60	0.1331687
174	0xbab1e3dd	-0.0013571937
175	0x3e7b2efa	0.24529639
176	0x3d5b71c4	0.053575292
177	0x3e876c2f	0.26449725
178	0xbe8fa0b8	-0.28052306
179	0xbd8c927b	-0.068638764
180	0x3e1619a2	0.14658216
181	0x3f1ca4fe	0.6118926
182	0xbe1d1434	-0.15339738
183	0xbefc11b8	-0.49232268
184	0xbebe1a29	-0.37129334
185	0xbe117edb	-0.14208548
186	0xbe61447e	-0.21998784
187	0xbdde6474	-0.10859004
188	0xbe1f5168	-0.15558398
189	0xbe371cec	-0.17882127
190	0x3d71eea5	0.05906548
191	0x3d95894f	0.0730158
192	0xbed0f189	-0.40809277
193	0x3e1da2b3	0.15394096
194	0xbf1c9337	-0.6116213
195	0x3ead8ab8	0.33894897
196	0xbea5eb34	-0.32406008
197	0xbead4119	-0.33838728
198	0x3f2ee5bc	0.68319297
199	0x3c553c07	0.0130148
200	0x3e051a08	0.12998211
201	0x3eae1b29	0.34005097
202	0xbec75c9e	-0.3893785
203	0x3d28d48a	0.041218318
204	0x3dfe0b59	0.12404508
205	0xbc441146	-0.011967009
206	0xbea4b7f2	-0.3217159
207	0xbe7ae8d7	-0.24502884
208	0x3e8a62a8	0.27028394
209	0xbd8cdd8d	-0.06878195
210	0x3e31d703	0.17367177
211	0xbeafd269	-0.34340218
212	0x3da41df3	0.08013525
213	0xbed20250	-0.4101739
214	0x3e20e429	0.15712036
215	0x3ead1f0f	0.33812758
216	0x3e86c501	0.26322177
217	0xbf0d6968	-0.5523896
218	0xbef51506	-0.47867602
219	0x3f14cef3	0.5812828
220	0xbec3bf0c	-0.38231695
221	0x3d5c4136	0.053773127
222	0xbd185c68	-0.0371975
223	0x3f059b39	0.52189976
224	0xbe8ca944	-0.2747289
225	0xbea9c781	-0.33160022
226	0x3e59e57d	0.21278949
227	0xbf3ff0b6	-0.7497667
228	0x3f321bf3	0.695739
229	0x3e17a072	0.14807299
230	0x3db79ecd	0.08965836
231	0xbd19c3c7	-0.037540223
232	0xbf4f9942	-0.8109323
233	0x3f11ead4	0.56998944
234	0xbeadeef1	-0.3397136
235	0xbf2bb93a	-0.6707951
236	0x3e9a7748	0.3016913
237	0x3f1c6d37	0.6110415
238	0xbdf58b2f	-0.11989438
239	0xbf462059	-0.7739311
240	0xbec3471c	-0.3814019
241	0x3df18730	0.11793363
242	0x3ef4fff5	0.4785153
243	0x3ed2883e	0.4111957
244	0xbd6fd459	-0.05855212
245	0xbf08e984	-0.53481317
246	0x3e68bd92	0.22728565
247	0x3f4045aa	0.751063
248	0x3f10cf8c	0.5656669
249	0xbf49fd1f	-0.7890186
250	0xbed0e85b	-0.40802273
251	0xbee7062f	-0.45121905
252	0x3e8f3dbb	0.27976784
253	0x3f4c2eba	0.797588
254	0xbf160ad3	-0.58610266
255	0x3edf435d	0.43606082

pi.logits_net.2.bias f4 [64]
0	0x3e69f543	0.22847466
1	0xbd56b078	-0.052414387
2	0xbdaf925b	-0.08572837
3	0xbdeb170d	-0.11479006
4	0xbcbc8531	-0.02301273
5	0xbdd9242e	-0.10602604
6	0xbe76666b	-0.24062507
7	0x3d8ca6d2	0.06867756
8	0x3f4f6171	0.8100806
9	0x3c8ee536	0.01744328
10	0x3e2637be	0.16232201
11	0x3ec25ece	0.37962955
12	0x3ed27fb6	0.4111306
13	0x3e9db5c5	0.30802742
14	0xbe28fd5c	-0.16502899
15	0x3c6baf56	0.014385065
16	0x3d3238b6	0.043511115
17	0x3e3cc5b7	0.18434797
18	0xbed01c9d	-0.4064683
19	0xbe14ef45	-0.14544399
20	0xbf052557	-0.520101
21	0x3ed90e04	0.42393506
22	0xbc24699f	-0.010034948
23	0xbcddb6fa	-0.02706479
24	0xbde2aea7	-0.110684685
25	0xbf29e997	-0.66372055
26	0xbe1264f6	-0.14296326
27	0x3e8c43ac	0.2739538
28	0x3dab4dd7	0.08364456
29	0x3e5b3628	0.21407378
30	0x3cc9652c	0.024584375
31	0xbc827b37	-0.015927894
32	0x3ee32aa9	0.44368485
33	0xbe385b98	-0.1800369
34	0x3cbcd3b0	0.02305016
35	0xbddb4976	-0.10707371
36	0xbf561e7e	-0.8364028
37	0xbe500e61	-0.20317985
38	0xbe128a07	-0.14310466
39	0x3c92bf07	0.017913355
40	0xbe960a90	-0.29304934
41	0xbeefa31c	-0.4680413
42	0x3db102de	0.08643125
43	0xbc4e8eec	-0.012607317
44	0xbe496abf	-0.19669627
45	0xbef78c14	-0.4834906
46	0xbe32d13b	-0.17462628
47	0xbf1e47a3	-0.6182806
48	0xbdd1686b	-0.10224994
49	0x3dac3d1e	0.08410095
50	0x3de78e11	0.11306394
51	0x3d3643db	0.044498306
52	0x3e6d7545	0.23189266
53	0x3e5240bc	0.20532507
54	0x3cba9e4a	0.022780556
55	0xbe946a57	-0.2898738
56	0xbedeec8d	-0.4353985
57	0xbd9ad393	-0.07559886
58	0x3e5ed382	0.21760371
59	0xbd7c4c5a	-0.061596252
60	0x3dea88ba	0.1145186
61	0xbebca045	-0.36841026
62	0xbee612cc	-0.44936216
63	0x3cb609b8	0.022221431

pi.logits_net.4.weight f4 [87, 64]
0	0x3e9f1917	0.3107383
1	0xbf103bc8	-0.5634122
2	0xbf20d408	-0.62823534
3	0x3e00cd49	0.1257831
4	0x3edf36e5	0.4359657
5	0xbf0c0e3d	-0.54709226
6	0xbf8cd5dc	-1.1002765
7	0xbf361a97	-0.7113432
8	0x3f3f9c5b	0.74847955
9	0x3df6937c	0.12039849
10	0xbe8942c9	-0.26808766
11	0xbdfc0088	-0.12304789
12	0x3e1dc412	0.15406826
13	0xbe358ac3	-0.17728715
14	0xbf10addc	-0.5651529
15	0x3ed51c9a	0.41623384
16	0x3e8de41e	0.27713102
17	0x3ea59770	0.323421
18	0xbf2b4f51	-0.669179
19	0x3eb6eed8	0.35729098
20	0xba57ea79	-0.0008236538
21	0xbef2b061	-0.4740019
22	0xbf20deea	-0.6284014
23	0xbf4a38fe	-0.78993213
24	0xbed6d3f1	-0.41958573
25	0xbf357c4e	-0.708928
26	0xbedc29a4	-0.4300052
27	0x3ea10e76	0.31456345
28	0xbf206dc1	-0.6266747
29	0xbf5552a5	-0.8332923
30	0x3c7003b4	0.01464932
31	0x3e9c3f4c	0.30517042
32	0x3e8c43f7	0.27395603
33	0xbe8138f6	-0.2523877
34	0x3ed27af4	0.4110943
35	0xbf0fa7f7	-0.5611567
36	0xbf1e5dce	-0.61861885
37	0xbf326aa9	-0.69694
38	0x3eb1450e	0.34622997
39	0x3f288c9e	0.65839565
40	0xbf824a06	-1.017884
41	0xbfa621ea	-1.29791
42	0xbe54a8d7	-0.20767532
43	0xbf044e62	-0.516821
44	0xbf31e3ca	-0.69488204
45	0xbec29cc8	-0.3801024
46	0x3f3a7551	0.7283526
47	0xbf083568	-0.5320649
48	0x3ec613c0	0.38686943
49	0x3e827d27	0.2548611
50	0x3eb1a450	0.34695673
51	0x3d7d5897	0.061852064
52	0xbc435f5f	-0.011924594
53	0xbe29adac	-0.16570157
54	0x3e3d720b	0.18500535
55	0xbf3a3410	-0.7273569
56	0xbf2f5b5e	-0.6849879
57	0xbe34b65f	-0.17647694
58	0xbf71512d	-0.9426449
59	0xbf249ff6	-0.6430658
60	0xbefd9952	-0.49531037
61	0xbec08bdd	-0.37606707
62	0xbf58b63c	-0.8465307
63	0xbeb83c14	-0.35983336
64	0x3f0ec4c6	0.55769
65	0xbeb1d806	-0.34735125
66	0xbe26f667	-0.16304933
67	0xbf381258	-0.7190299
68	0x3e898f4c	0.2686714
69	0xbe7d7f26	-0.24755535
70	0xbd97c385	-0.07410339
71	0xbe594eda	-0.21221486
72	0x3eeebfab	0.46630606
73	0x3e4e5aec	0.20151871
74	0x3f8dc174	1.1074662
75	0xbddd21dd	-0.107974745
76	0x3e8429a8	0.2581303
77	0x3ea08b50	0.31356287
78	0xbf2775c2	-0.6541406
79	0xbe411073	-0.18853931
80	0xbf6662ff	-0.89994806
81	0x3f243849	0.64148384
82	0x3df6c408	0.12049109
83	0xbe88ea5a	-0.26741296
84	0xbf0b3835	-0.5438264
85	0x3f76f811	0.9647227
86	0x3f014aca	0.50504744
87	0x3e063bf7	0.13108812
88	0xbf87ab39	-1.0599128
89	0xbe130325	-0.14356668
90	0x3d725396	0.059161745
91	0xbecef58d	-0.40421715
92	0x3f5afdd4	0.8554356
93	0xbec0644e	-0.37576526
94	0x3f5c5d10	0.860795
95	0xbe03a438	-0.12855613
96	0x3ee3fa7c	0.44527042
97	0xbedc65e8	-0.43046498
98	0x3f383d5e	0.7196864
99	0xbef7d746	-0.48406428
100	0xbf1a0220	-0.6015949
101	0xbf27869d	-0.6543978
102	0xbe45fd26	-0.1933485
103	0xbcb6ce51	-0.022315176
104	0xbe5ceee6	-0.21575508
105	0x3f174c33	0.59100646
106	0xbda97c04	-0.08275607
107	0xbf8ebc4f	-1.1151217
108	0xbf2926c7	-0.66074795
109	0xbe9ea8ce	-0.30988163
110	0xbec52a77	-0.3850896
111	0xbf169e37	-0.58835167
112	0xbc8f0d1f	-0.017462311
113	0x3d883163	0.06650045
114	0x3f02d6f4	0.5110924
115	0xbdafbd12	-0.08580984
116	0xbe139ff1	-0.14416482
117	0x3f0936df	0.5359935
118	0xbee0352c	-0.43790567
119	0xbf803954	-1.0017495
120	0xbf40e555	-0.7534993
121	0xbe776cc0	-0.24162579
122	0x3f02dd30	0.51118755
123	0xbe5b8583	-0.2143765
124	0xbec8f9f9	-0.39253214
125	0xbd863f37	-0.06555026
126	0xbea204af	-0.31644198
127	0xbe15f364	-0.14643627
128	0x3f196e15	0.59933597
129	0x3dcb893b	0.09938284
130	0xbebdf91c	-0.37104118
131	0x3f4aa14e	0.7915238
132	0xbeca466f	-0.39506862
133	0x3e0a9b2f	0.1353576
134	0xbf0476d4	-0.5174382
135	0x3f4acb37	0.7921633
136	0x3ee75d1e	0.4518823
137	0x3f9f89bb	1.2463907
138	0xbf06d4cc	-0.5266845
139	0xbd204ffb	-0.039138775
140	0x3eb74a7f	0.35799024
141	0x3f279cdb	0.6547372
142	0x3f2cc4b1	0.6748763
143	0xbe8db0a3	-0.27673826
144	0x3d632438	0.055454463
145	0x3e77a101	0.24182512
146	0xbe1c176c	-0.1524331
147	0x3dff06b9	0.12452454
148	0xbee65eab	-0.449941
149	0x3e8e69a4	0.27814972
150	0xbc13b189	-0.009014496
151	0xbe88a7b0	-0.26690435
152	0x3e84b031	0.25915673
153	0xbf29924c	-0.66238856
154	0xbed7a2e1	-0.42116454
155	0x3f342063	0.7036192
156	0x3e54ed59	0.20793666
157	0xbf7080b3	-0.9394638
158	0x3f24a7dd	0.6431864
159	0xbf91c026	-1.1386764
160	0x3d46dc5b	0.04854999
161	0x3f1fe96e	0.6246556
162	0x3e87f55e	0.26554388
163	0xbefeb3b6	-0.49746484
164	0xbee59b8c	-0.44845235
165	0xbdc24696	-0.094861194
166	0x3df8c8c8	0.12147671
167	0xbf17ee17	-0.5934767
168	0x3e745d0e	0.23863623
169	0xbf2e0045	-0.6796916
170	0x3f199c8e	0.6000451
171	0xbec83124	-0.3909999
172	0xbe7a4f3a	-0.24444285
173	0xbeae48c9	-0.34039906
174	0xbd839f2f	-0.06426846
175	0x3e0bdf0c	0.13659304
176	0xbe9dd2f8	-0.3082502
177	0xbe67dbe4	-0.22642475
178	0xbf83af54	-1.0287881
179	0x3f535ef3	0.82566756
180	0x3f0eafd3	0.55737036
181	0xbf562c6f	-0.8366155
182	0xbe4cb9a3	-0.1999269
183	0xbe8c0757	-0.2734935
184	0xbf4437e9	-0.7664781
185	0x3d513e36	0.05108472
186	0x3ec28ebe	0.3799953
187	0xbe97cc5e	-0.29648107
188	0x3f1bdc3d	0.6088293
189	0xbe34cde6	-0.17656669
190	0xbef25a86	-0.4733469
191	0xbf38906d	-0.72095376
192	0x3f1f1929	0.62147766
193	0xbeb03d7d	-0.34421912
194	0xbeac4b34	-0.33651125
195	0xbfc11918	-1.5085783
196	0x3f28ac98	0.6588836
197	0xbf4f6ef8	-0.810287
198	0xbef5fece	-0.48045963
199	0xbfab69f8	-1.3391714
200	0x3f0d1c02	0.5512086
201	0xbdf15a27	-0.11784773
202	0xbfa39714	-1.278048
203	0xbf313234	-0.6921723
204	0x3f3b179b	0.73082894
205	0x3e6d49c5	0.23172672
206	0x3e1a7ed5	0.15087445
207	0x3f896ee4	1.0736966
208	0xbe99efbb	-0.30065712
209	0xbda4f6e8	-0.08054906
210	0x3fbed45f	1.490856
211	0xbec29f00	-0.38011932
212	0xbec39a78	-0.38203788
213	0x3e734d0b	0.23759858
214	0x3f4a1a0d	0.78946
215	0xbf9132e6	-1.1343658
216	0xbf738ce3	-0.9513685
217	0xbf1ce9d8	-0.6129432
218	0x3ed4e0f8	0.41577888
219	0xbe10d548	-0.1414386
220	0x3f976eb9	1.1830665
221	0x3f5c27ef	0.85998434
222	0x3f5f363b	0.87192124
223	0x3f0feeca	0.5622374
224	0x3f16e233	0.589389
225	0xbfbb815f	-1.4648856
226	0xbf274686	-0.65341985
227	0xbec0ad04	-0.37632
228	0xbebaf357	-0.3651378
229	0xbed6e4df	-0.4197149
230	0xbf9de774	-1.2336259
231	0xbf461cb2	-0.77387536
232	0xbf1b5dff	-0.606903
233	0xbf1c4f2d	-0.6105831
234	0x3f535c2c	0.8256252
235	0xbec4736d	-0.38369313
236	0xbf790f3f	-0.9728889
237	0xbca7899c	-0.02045136
238	0xbf1f5332	-0.6223632
239	0x3d87726b	0.0661362
240	0xbe8ee247	-0.2790701
241	0x3f681283	0.90653247
242	0x3f121af8	0.570724
243	0x3f83b048	1.0288172
244	0x3fc863f0	1.5655499
245	0x3ec78caf	0.3897452
246	0x3f55707f	0.8337478
247	0xbf125702	-0.57164013
248	0x3f2bcb3c	0.67106986
249	0xbecb2bea	-0.3968194
250	0x3f4ce85d	0.8004206
251	0xbe8ed191	-0.2789426
252	0xbf390ff0	-0.72289944
253	0xbed68b5a	-0.41903192
254	0xbe0be588	-0.13661778
255	0xbf92056c	-1.1407905

pi.logits_net.4.bias f4 [87]
0	0x3f1c34dd	0.6101816
1	0x3ef52690	0.47880983
2	0x3f181a5e	0.59415233
3	0x3e94b0a1	0.29041007
4	0x3e9ca6b2	0.30595928
5	0x3ee5c49a	0.44876558
6	0x3effad31	0.49936822
7	0x3f263a9d	0.64933187
8	0x3e0f909c	0.14020008
9	0x3ef8e12a	0.48609287
10	0x3e8fb09e	0.28064436
11	0x3eb2f5d9	0.34953192
12	0x3e8c6bd3	0.27426013
13	0x3f207051	0.6267138
14	0x3dc4c6c0	0.09608221
15	0x3eff21bf	0.49830434
16	0x3e96c471	0.29446748
17	0x3ee5dbca	0.44894248
18	0x3ef09156	0.46985883
19	0x3f411056	0.7541555
20	0x3e381de9	0.1798016
21	0x3f2a0fb9	0.6643024
22	0x3e955f55	0.29174295
23	0x3eb13691	0.34611943
24	0x3f05717e	0.521263
25	0x3f0e2bca	0.55535567
26	0x3ea3d124	0.319955
27	0x3ea54e46	0.3228628
28	0x3eeb9b8e	0.46017116
29	0x3e86f673	0.263599
30	0x3edb3f1c	0.42821586
31	0x3ead0915	0.33795992
32	0x3f0ea479	0.55719715
33	0x3f131afe	0.5746306
34	0x3f009da2	0.5024053
35	0x3e15aedb	0.14617483
36	0x3ee4ca80	0.44685745
37	0x3ecb06df	0.3965368
38	0x3ea889e6	0.32917708
39	0x3f164aee	0.58708084
40	0x3f1c3bb6	0.6102861
41	0x3e874266	0.26417845
42	0x3f409518	0.752275
43	0x3e98efa9	0.29870346
44	0x3ef55a2d	0.4792036
45	0x3f0917b6	0.53551805
46	0x3deb7729	0.11497337
47	0x3edeca16	0.43513554
48	0x3e09cd35	0.13457187
49	0x3f358d28	0.7091851
50	0x3e946ffe	0.28991693
51	0x3f0cac5d	0.54950505
52	0x3e6ce926	0.23135814
53	0x3f171e34	0.5903046
54	0x3e942cef	0.28940532
55	0x3e9fbc74	0.31198466
56	0x3ee7eb22	0.4529658
57	0x3e2045c2	0.1565161
58	0x3f0d25fa	0.5513607
59	0x3e88c9c3	0.26716432
60	0x3f236afa	0.6383511
61	0x3ec297ea	0.38006526
62	0x3edbf633	0.42961273
63	0x3e4413ac	0.19148129
64	0x3eff9f15	0.49926057
65	0x3ebcc900	0.368721
66	0x3e68e76e	0.22744533
67	0x3eaa9428	0.3331616
68	0x3ecd94a0	0.40152454
69	0x3ebfc2a0	0.37453175
70	0x3eb7d181	0.35902026
71	0x3eec66d5	0.46172205
72	0x3f1d2b53	0.6139423
73	0x3f04c1a9	0.51858
74	0x3f0607d8	0.5235572
75	0x3f4ce73e	0.8004035
76	0x3eb01a2b	0.34394965
77	0x3efe9c43	0.49728593
78	0x3f1f15d0	0.6214266
79	0x3ebd253d	0.36942473
80	0x3f18d4b0	0.59699535
81	0x3ee5a998	0.44855952
82	0x3f23cf60	0.63988304
83	0x3ec4d2a7	0.38441965
84	0x3ea9d204	0.33168042
85	0x3e9dd13f	0.30823705
86	0x3e49b1b5	0.19696696

v.v_net.0.weight f4 [64, 282]
0	0xbf386b54	-0.7203877
1	0x3fb500f2	1.4140913
2	0xbf5fd925	-0.8744071
3	0xbf2b77cb	-0.66979665
4	0xbff463c1	-1.9092942
5	0xbfebb552	-1.841471
6	0xbf0fb55d	-0.56136113
7	0xbf022f6a	-0.508536
8	0xbf61a059	-0.88135296
9	0xc0295339	-2.6457045
10	0x3fce8386	1.6133888
11	0x3fb87866	1.4411743
12	0xbf28d553	-0.65950507
13	0xbf6748a2	-0.90345204
14	0xbfe1c9b2	-1.7639678
15	0xbf24c76b	-0.6436679
16	0xbf42ca62	-0.7609006
17	0x3fa7046e	1.3048227
18	0xbff21ba7	-1.8914689
19	0xbf242f57	-0.64134735
20	0xbf3bc074	-0.73340535
21	0xbf0129d2	-0.5045444
22	0x3fa2c574	1.2716508
23	0xbfe7d222	-1.8111002
24	0xbfee6465	-1.8624388
25	0xbf5ca623	-0.86191005
26	0xbf2d7175	-0.67751247
27	0xbf2f8285	-0.6855853
28	0xbf0ef597	-0.5584349
29	0xbf2b7e03	-0.66989154
30	0xbfe0d1f6	-1.7564075
31	0xbf56c3db	-0.838926
32	0x3fbe7f98	1.4882689
33	0xbfe41e76	-1.7821796
34	0xbf34578d	-0.7044609
35	0xbf11afff	-0.56909174
36	0xbef8b717	-0.48577186
37	0xbf5330df	-0.82496446
38	0xbfed3331	-1.8531247
39	0xbf6c58cf	-0.9232301
40	0xbf524f67	-0.8215241
41	0x3fcdf4dc	1.609035
42	0xbf67c538	-0.90535307
43	0xbf611295	-0.8791898
44	0x3f9e3d6e	1.2362497
45	0xbf5a0333	-0.8516113
46	0xbff4003f	-1.9062575
47	0xbff32fbf	-1.8998946
48	0x3fce97fc	1.6140132
49	0xbef13617	-0.4711158
50	0xbf25e021	-0.6479512
51	0xbf363db6	-0.71187913
52	0x3fc3ccb0	1.5296841
53	0xbf6d2853	-0.92639655
54	0x3fb22742	1.391823
55	0xbfeaf1ed	-1.835508
56	0x3fb862ac	1.4405112
57	0xbf36115d	-0.71120244
58	0xbf53e5c7	-0.8277249
59	0xbf2a589f	-0.66541475
60	0xbf2b91f3	-0.67019576
61	0xbf62d715	-0.8860944
62	0xbf0ef316	-0.5583967
63	0x3fc2472a	1.5177968
64	0x3fb95c0a	1.4481213
65	0xbf6f11c8	-0.9338651
66	0xbfe28d5b	-1.7699388
67	0x3fca9854	1.5827737
68	0x3fa38b02	1.2776797
69	0xbf2d78c3	-0.6776239
70	0x3fb95efa	1.448211
71	0xbf054d9a	-0.52071536
72	0xbf5ebc6b	-0.87006253
73	0x3fa9c8d0	1.3264408
74	0x3fcade7e	1.5849149
75	0xbf0af939	-0.54286534
76	0x3fb820e0	1.4385033
77	0xbef6bba5	-0.48190036
78	0xbf3f0cab	-0.74628705
79	0xbf645dd9	-0.892057
80	0x3fccf080	1.6010895
81	0xbfefdc05	-1.873902
82	0xbf020418	-0.50787497
83	0xbf2c794d	-0.6737259
84	0xbf62398d	-0.88369066
85	0xbf2e002e	-0.67969024
86	0x3fc64150	1.5488682
87	0xbf9f853e	-1.2462537
88	0xbe3977c2	-0.1811209
89	0xbec982d5	-0.3935763
90	0x3f688fe0	0.90844536
91	0xbef50105	-0.4785234
92	0xbdac002e	-0.08398472
93	0x3e2c1b86	0.16807374
94	0xbf42a059	-0.7602592
95	0x3f2e3a66	0.6805786
96	0xbf8634ac	-1.0484824
97	0xc017966b	-2.3685558
98	0xbfa31945	-1.2742087
99	0xbea3e5a1	-0.3201113
100	0xbebc9ee4	-0.36839974
101	0xbfd42335	-1.6573244
102	0xbed32581	-0.4123955
103	0xbf4f5454	-0.8098805
104	0xc01cefc4	-2.4521341
105	0xbf22323d	-0.6335791
106	0x3d8459a6	0.064624116
107	0xbf219d6f	-0.6313085
108	0x3e7f8a13	0.24955015
109	0x3de0de27	0.10979872
110	0x3ea46f53	0.32116184
111	0x3dd984e1	0.10621048
112	0xbeda7b9c	-0.4267243
113	0xbfea98d2	-1.8327887
114	0xbec34d52	-0.38144928
115	0xbfc25384	-1.5181737
116	0x3f67245c	0.90289855
117	0xbf40ea0b	-0.7535712
118	0xbee74dc1	-0.4517651
119	0xbe8ec2fe	-0.27883142
120	0xbf56bd27	-0.83882374
121	0xbdd016b1	-0.10160578
122	0xbebe3506	-0.3714983
123	0x3f93ee18	1.1557035
124	0x3d5060f3	0.050873708
125	0xbe7d0c86	-0.24711809
126	0x3f0e0166	0.55470884
127	0x3d5b04eb	0.053471487
128	0xc029f837	-2.6557748
129	0xbf3b5d83	-0.7318956
130	0x3f891310	1.0708942
131	0x3fc3ec13	1.5306419
132	0xbeac3d12	-0.33640343
133	0xbeee1b64	-0.46505272
134	0x3f95b3f6	1.1695545
135	0xbfa1b5f8	-1.2633657
136	0xbeceb727	-0.4037411
137	0xbdc5c110	-0.096559644
138	0x3f854cb1	1.0414029
139	0xc00c9612	-2.1966596
140	0xbe4bfb0a	-0.19919983
141	0xc02d40fe	-2.7070918
142	0xbf0d60b0	-0.5522566
143	0xbebda9a9	-0.37043503
144	0x3ed7b528	0.421304
145	0x3f32d9f2	0.6986381
146	0xbf359a25	-0.7093833
147	0xbfc82769	-1.5637027
148	0xbf853a77	-1.0408467
149	0xbee78c1c	-0.45224082
150	0xbffc6d11	-1.9720784
151	0xc0544447	-3.3166673
152	0xbe29d468	-0.16584933
153	0xbf4fca04	-0.81167626
154	0xc04cc6a8	-3.199625
155	0xbf071b16	-0.52775705
156	0xbf27d2eb	-0.6555621
157	0x3e2f4e7b	0.17119782
158	0xbc950b58	-0.018193886
159	0xbdf74005	-0.12072758
160	0x3fb5cf28	1.4203844
161	0x3ec9cdd0	0.39414835
162	0xbda42714	-0.08015266
163	0xc036696a	-2.850184
164	0x3e634549	0.22194399
165	0xbee08b49	-0.43856266
166	0xbf298662	-0.66220677
167	0xbff80733	-1.9377197
168	0x3efb7b3f	0.49117467
169	0x3f263a01	0.64932257
170	0x3e87c166	0.2651474
171	0xbd6b4be9	-0.05744544
172	0xc0800c2d	-4.0014863
173	0xc050eb8c	-3.2643766
174	0x3ece0ab0	0.4024253
175	0xbf0030c1	-0.5007439
176	0xc0601847	-3.5014818
177	0xbfb024e1	-1.3761255
178	0x3f775e1b	0.9662797
179	0xbf1f8e54	-0.6232655
180	0xc0a3eea7	-5.1228824
181	0xbf530635	-0.82431346
182	0xbf260288	-0.6484761
183	0x400ef9f9	2.2340071
184	0xbfcc05b3	-1.5939239
185	0x3e9d65ea	0.30741817
186	0xc099b5f2	-4.80346
187	0x4031815b	2.7735202
188	0xbf9b5a11	-1.2136861
189	0x3e982506	0.29715747
190	0xbfd81898	-1.6882505
191	0x3f6c2c41	0.92255026
192	0xbd4091ac	-0.047013924
193	0xbe9ca239	-0.30592516
194	0x3d98f5a9	0.07468731
195	0x3eca1b14	0.39473784
196	0xbd8ae0a0	-0.06781125
197	0x3f586621	0.84530836
198	0x3e8f070f	0.27935073
199	0xbf9b737e	-1.214462
200	0x3f315865	0.69275504
201	0xbf235e92	-0.6381618
202	0x3f94d0d2	1.1626227
203	0xbead2e45	-0.33824363
204	0x401a745a	2.4133515
205	0x3eb986c3	0.36235628
206	0x40504d7a	3.2547288
207	0x3f98572f	1.1901606
208	0xbf1d1942	-0.61366665
209	0xbfe3bb75	-1.7791582
210	0xbf3c2afd	-0.73503095
211	0xc02bbd82	-2.6834416
212	0xbeb8867b	-0.360401
213	0xbefc2cfe	-0.49253076
214	0xbe17c0e7	-0.1481968
215	0x3f5f0c58	0.8712821
216	0xbf12c7c4	-0.5733607
217	0xbe27ee60	-0.16399527
218	0xbea39945	-0.31952873
219	0x3f3cc0fe	0.7373198
220	0xbeb992aa	-0.36244708
221	0x3ed0c853	0.40777835
222	0xbec62bc5	-0.38705269
223	0xbf05a4cf	-0.522046
224	0x3fafbe8c	1.3730025
225	0xbf8ac3bb	-1.0840982
226	0x3d7afa67	0.06127396
227	0xc0237fa4	-2.5546656
228	0x3e862489	0.2619975
229	0x3d8213b3	0.063514136
230	0xbfc9d4fa	-1.576812
231	0x3faffd71	1.3749219
232	0x3f6ae629	0.91757447
233	0xc04be870	-3.1860619
234	0xbf8ae97c	-1.0852504
235	0x3edea5a0	0.43485737
236	0x3fbd13d9	1.4771682
237	0x400c51fa	2.1925035
238	0xc00833ee	-2.1281695
239	0x3f69936a	0.9124056
240	0xc09bf1b3	-4.8732543
241	0xbf16d782	-0.5892259
242	0xbf87f58e	-1.0621812
243	0xbf9b0af9	-1.2112724
244	0xc0aa98b1	-5.331139
245	0x3fb5a233	1.4190124
246	0xbf046767	-0.5172028
247	0x3f4029d5	0.7506383
248	0xbf98c5db	-1.1935381
249	0x3e371587	0.17879306
250	0x3fce3644	1.611031
251	0x3f35b24c	0.70975184
252	0xbf95b363	-1.169537
253	0xbf513ef5	-0.8173669
254	0xbef64f1e	-0.48107237
255	0xc05df198	-3.4678707

v.v_net.0.bias f4 [64]
0	0xc0b40284	-5.625307
1	0xc0a0584d	-5.010779
2	0xc09ce201	-4.9025884
3	0x41075aba	8.45965
4	0xc0ff196a	-7.9718523
5	0xbf974282	-1.1817172
6	0x40d330f5	6.599726
7	0x3e7fbf95	0.24975426
8	0x3fd140ab	1.634786
9	0x3ff3281f	1.8996619
10	0x40aec902	5.462037
11	0x40445623	3.0677574
12	0x40fee375	7.9652658
13	0x406c9c69	3.6970465
14	0x40b3fa87	5.624332
15	0xbf867bc5	-1.0506521
16	0xbfee932d	-1.8638664
17	0xbfdc6406	-1.7218025
18	0x4043b268	3.057764
19	0xbe0accdd	-0.13554712
20	0xbfbadf5e	-1.4599416
21	0x40c9c6eb	6.305532
22	0xbef322e2	-0.4748755
23	0xc02e902f	-2.7275503
24	0x402962e8	2.6466618
25	0x40de32ba	6.943692
26	0x409b9e2c	4.863058
27	0xc0c507f4	-6.157221
28	0xbfd4ab6f	-1.6614817
29	0xc09f1cda	-4.972272
30	0x40b68572	5.7037897
31	0x3f8c5961	1.0964776
32	0x40b964de	5.793563
33	0x3f05e58c	0.52303386
34	0xbf40bcb4	-0.7528794
35	0xc105f4c7	-8.37226
36	0xc092870c	-4.578985
37	0x40a4864a	5.1413927
38	0x410562af	8.336593
39	0x3f160a01	0.58609015
40	0x3ffeea51	1.9915258
41	0x3e238b79	0.15971173
42	0xc014a5f3	-2.3226287
43	0x3e10341e	0.14082381
44	0xc03c864a	-2.9456964
45	0xbf7dd21f	-0.99148744
46	0x3f6c9ac0	0.9242363
47	0xc0db3be4	-6.851061
48	0x3f640c99	0.8908172
49	0xbe93eb25	-0.2889034
50	0xc0bffa41	-5.9992986
51	0x3fafecad	1.3744103
52	0x3d94f138	0.07272571
53	0x3eb6cbfb	0.357025
54	0xc02c0b5f	-2.688194
55	0xc03ac857	-2.9184778
56	0xc0334ff6	-2.8017554
57	0xc0ae2e58	-5.443157
58	0xc0109519	-2.2591002
59	0xc0c7314e	-6.2247686
60	0x40d21d91	6.566109
61	0x3f71c6b6	0.94443834
62	0xc0fea073	-7.957086
63	0x4135a2f9	11.352288

v.v_net.2.weight f4 [64, 64]
0	0xbf63e47f	-0.8902053
1	0xbcbe5136	-0.023232084
2	0x40f91e8c	7.784979
3	0x3fe13e03	1.759705
4	0x4046d1d9	3.106558
5	0xc0528b01	-3.2897341
6	0x3e6d5c1a	0.23179665
7	0x3fd2e685	1.6476599
8	0x3ecadd5c	0.3962201
9	0xbef951ac	-0.48695123
10	0xc03c7d54	-2.9451494
11	0xbf06c017	-0.52636856
12	0x40227502	2.5383916
13	0xc0409680	-3.0091858
14	0xbfc08f8c	-1.5043807
15	0x3fb1a871	1.3879529
16	0x3e0ee935	0.13956149
17	0x3ef5b77a	0.47991544
18	0xc0512616	-3.2679496
19	0x3fd342ef	1.6504802
20	0x3d897232	0.06711234
21	0x3e961ed5	0.29320398
22	0xc00caaa5	-2.1979153
23	0x409a4cf1	4.8218923
24	0xc00e38fa	-2.2222276
25	0xbe8fac91	-0.28061345
26	0x3f841643	1.0319294
27	0xc009b277	-2.1515176
28	0x40431a42	3.0484776
29	0x3ff012af	1.8755702
30	0xbfc1bc38	-1.5135565
31	0x3f66f531	0.9021788
32	0xbef958d7	-0.48700592
33	0x400830dd	2.1279824
34	0x40143923	2.3159873
35	0x3fc46987	1.5344704
36	0x3f508b7e	0.8146285
37	0xc057fbb1	-3.374737
38	0x3f403b30	0.7509031
39	0x3e814789	0.2524989
40	0xbec1df48	-0.37865663
41	0xc011a00b	-2.2753932
42	0xc0e36702	-7.106324
43	0x3ea47b12	0.32125145
44	0x3f6fe679	0.9371105
45	0x3f0088e5	0.50208884
46	0xc0378f9f	-2.868141
47	0xbff35c6c	-1.901258
48	0xc0120834	-2.2817507
49	0xbf0da24e	-0.5532578
50	0x3d14462c	0.036199734
51	0xc04c4292	-3.1915631
52	0xbe81a300	-0.25319672
53	0x400db2a4	2.2140284
54	0xbf2f7352	-0.6853534
55	0x4016d21e	2.3565745
56	0x3f1cbfe2	0.6123029
57	0x3f352d59	0.7077232
58	0xbeb9b182	-0.3626824
59	0x3f688d43	0.9084055
60	0x3ffbbc8a	1.9666913
61	0xbffa406d	-1.9550911
62	0x3ee6a377	0.4504659
63	0x40233039	2.5498183
64	0x3e7fe126	0.24988231
65	0x40171627	2.360727
66	0x4016087c	2.3442678
67	0xc053feab	-3.3124187
68	0x402a15c1	2.6575778
69	0xc00d26db	-2.2054965
70	0xc021038b	-2.5158412
71	0xbfd3d79e	-1.6550176
72	0x3f4f8734	0.8106568
73	0x3c78a91b	0.015177037
74	0xc0acdd70	-5.402031
75	0xc04acb34	-3.1686525
76	0xbfda387b	-1.7048486
77	0xbfd7c5d5	-1.6857249
78	0xbfcb9e60	-1.5907707
79	0xbfaf6f77	-1.3705891
80	0xbfe77ba9	-1.8084613
81	0xc0544d85	-3.3172314
82	0x3f3aa441	0.7290688
83	0x4088739d	4.264113
84	0xbf4cb672	-0.7996589
85	0xbf2266f0	-0.6343832
86	0x3f391c50	0.72308826
87	0x401af159	2.4209807
88	0xbeb51810	-0.3536992
89	0xbfd72ae7	-1.6809968
90	0x3dfe1a00	0.12407303
91	0x3eb21be6	0.3478691
92	0x3ff5b03a	1.9194405
93	0xbf1ad85b	-0.6048638
94	0xbcc308f6	-0.023807984
95	0xbf88db1b	-1.0691866
96	0xc076f19e	-3.8584971
97	0x3fc06be7	1.5032929
98	0xbfb75e90	-1.4325733
99	0x3f379391	0.71709543
100	0x4005c43b	2.090102
101	0xc037d75d	-2.8725197
102	0xbf945eb5	-1.1591402
103	0xbf433ffd	-0.76269513
104	0xbfa32e99	-1.2748595
105	0xc0031a4d	-2.0484803
106	0x3fe6f491	1.8043386
107	0x3fc122c0	1.508873
108	0x3faa42c1	1.3301622
109	0xbfb6d84b	-1.4284757
110	0xbfcf3a42	-1.6189654
111	0x3ff2dce7	1.8973664
112	0xbea74de3	-0.3267661
113	0x3f3be4ac	0.733958
114	0x402f0bc8	2.735094
115	0xc012b4ac	-2.2922773
116	0xc0183b08	-2.378603
117	0x4007afd5	2.120107
118	0xbf6c4e08	-0.92306566
119	0x3fd8b83b	1.6931223
120	0x3f8e3079	1.1108543
121	0x3fd78e61	1.6840326
122	0x3f656055	0.89600116
123	0x404a6bd4	3.1628313
124	0x3e0e03b2	0.13868597
125	0xbf8a154e	-1.0787752
126	0xbf18eb53	-0.59734076
127	0xbfbe7536	-1.487952
128	0x3f10b528	0.5652642
129	0x3e2c6beb	0.16838042
130	0xbf73cc39	-0.95233494
131	0xbfb03e0a	-1.3768933
132	0xc070978d	-3.75925
133	0xbf9a023f	-1.2031935
134	0xbf3170ea	-0.6931292
135	0xbfed84dc	-1.855617
136	0xc077f9b4	-3.8746157
137	0x3f268306	0.65043676
138	0x40659e26	3.5877776
139	0x3f51023b	0.8164403
140	0x4089cd1b	4.3062873
141	0xbebf53b2	-0.37368542
142	0xbf90b572	-1.1305373
143	0x3fb31438	1.3990545
144	0x3ea3d861	0.32001022
145	0x3f06a41c	0.5259416
146	0xc02c56c0	-2.6927948
147	0xbf3ea967	-0.7447724
148	0xc0322c69	-2.7839606
149	0x40269ea8	2.6034336
150	0xc01f46ac	-2.4886885
151	0xc0993aae	-4.788413
152	0x403bc446	2.9338546
153	0x3e877c85	0.26462188
154	0xbfe523a9	-1.7901508
155	0xbf4102a7	-0.7539467
156	0xbfa70b55	-1.3050333
157	0xc0151e06	-2.3299575
158	0xbe385bed	-0.18003817
159	0xbf863f01	-1.0487977
160	0xbfba1dba	-1.4540322
161	0x40059158	2.086996
162	0x3f276706	0.65391576
163	0x3fb9b87a	1.4509423
164	0x3f3a9604	0.72885156
165	0xbfbd015d	-1.4766041
166	0x3ec7067d	0.38872138
167	0xbea433fd	-0.32070914
168	0x3f20acf7	0.62763923
169	0x403cb011	2.9482462
170	0x409a9583	4.830751
171	0x401c6689	2.4437582
172	0x3f52f62f	0.82406896
173	0xc072da49	-3.794573
174	0xc025ac6c	-2.5886488
175	0xbfdcbaf1	-1.724455
176	0xc05a8b56	-3.4147544
177	0xbe96cead	-0.29454556
178	0xc0082cef	-2.1277425
179	0x403a3472	2.909451
180	0x404565b6	3.084333
181	0xc0a70541	-5.2193913
182	0x401dd766	2.4662719
183	0x3fb0a660	1.3800774
184	0x3d846e5c	0.06466362
185	0xc03d9f1a	-2.9628358
186	0xc00f6c20	-2.2409744
187	0x3fac9d35	1.3485476
188	0xbf8d7701	-1.1051942
189	0xbebc875e	-0.36822027
190	0xbfe03965	-1.7517515
191	0x40121653	2.2826126
192	0x400f163a	2.2357316
193	0xbf4923a3	-0.7857
194	0xbe8ec68b	-0.2788585
195	0x40a49fed	5.144522
196	0x3ed73e46	0.42039698
197	0x4009af2c	2.1513166
198	0x3dfa6fc9	0.122283526
199	0xbf8c097a	-1.0940392
200	0x3fd9fe3e	1.7030714
201	0xbf2de286	-0.6792377
202	0xbfbec516	-1.4903896
203	0x3fd5424d	1.6660858
204	0x3fdb3d5d	1.7128102
205	0xbfb594a0	-1.4185982
206	0xc087b223	-4.240495
207	0x3f33b302	0.7019502
208	0x406488a6	3.5708404
209	0x4001c167	2.0274293
210	0xbf985d9e	-1.190357
211	0xbf144a50	-0.5792589
212	0xbf88bdc0	-1.0682907
213	0xbdce1968	-0.100634396
214	0xc0582a5d	-3.3775856
215	0x3fb0aa70	1.3802013
216	0xc02ac972	-2.6685452
217	0x3ff91d80	1.9462128
218	0xbfe62579	-1.7980186
219	0x3f4794d2	0.77961457
220	0x3e067f3f	0.13134478
221	0x3ef74cdb	0.48300824
222	0xbf8c1fb1	-1.0947171
223	0xbf3e0863	-0.7423155
224	0xbff2c265	-1.8965575
225	0x41034a02	8.205568
226	0x400d65ad	2.2093308
227	0xc00418b0	-2.0640068
228	0xbd32a15f	-0.043610927
229	0x3fb2c793	1.3967155
230	0xbfc78a43	-1.5589069
231	0x401aae3d	2.4168847
232	0x3fa6ea1c	1.3040195
233	0xc02d97f0	-2.7123985
234	0xc02b3f8d	-2.6757538
235	0x3f823b63	1.0174373
236	0xbf989b16	-1.1922328
237	0x3f9a2ffc	1.2045894
238	0x4007b471	2.1203883
239	0x40675896	3.6147819
240	0x3fea112c	1.828649
241	0xbee5eab3	-0.44905624
242	0x3f0e2411	0.5552378
243	0xbfb590cc	-1.4184813
244	0xbff4b7ec	-1.9118629
245	0xbea0e063	-0.31421193
246	0xbdc72c9d	-0.09725306
247	0x3fd997e7	1.6999482
248	0xbfccbbf7	-1.5994862
249	0xbe329e71	-0.17443253
250	0x3f351ac9	0.70743996
251	0xbf94c750	-1.1623325
252	0x3fa4b446	1.2867515
253	0x3f798eb4	0.9748337
254	0xc00be719	-2.18598
255	0xc057fde0	-3.3748703

v.v_net.2.bias f4 [64]
0	0xbfcfb441	-1.6226884
1	0xbea1cb5a	-0.31600457
2	0x3ffdfd8c	1.9843001
3	0xbfdbe672	-1.7179701
4	0xbe45b15a	-0.19305936
5	0x400d1c05	2.2048352
6	0x3f781377	0.969047
7	0x3f93f086	1.1557777
8	0x3fa5543c	1.2916331
9	0xbe766bc6	-0.2406455
10	0x3fcd4806	1.6037605
11	0xbfb0bc82	-1.3807528
12	0x3fae827b	1.363357
13	0x3fe37a78	1.777175
14	0x40325a3a	2.786757
15	0x3f0725fe	0.52792346
16	0x3fc42eff	1.5326842
17	0x3d00a914	0.031411245
18	0x3fb7df10	1.4364948
19	0x3fc2f661	1.5231439
20	0xbf92ffea	-1.1484349
21	0xbf95a7c2	-1.1691821
22	0x3e47865a	0.19484845
23	0x402bea11	2.6861613
24	0xbeffe529	-0.49979523
25	0x3f8c227e	1.0948026
26	0x3f331b0b	0.6996314
27	0xc010be8a	-2.2616296
28	0xbfbd341b	-1.4781526
29	0x404e4737	3.2230966
30	0x3fc1ff37	1.515601
31	0xbe8bf82f	-0.27337787
32	0x3f837692	1.027056
33	0xbe27f80d	-0.16403218
34	0xc00e4f3d	-2.2235863
35	0x3fb84bf2	1.4398177
36	0x3f58dcb9	0.84711796
37	0xbf9e28aa	-1.235616
38	0xbf0e8dc2	-0.55685055
39	0xbf604e9d	-0.87619954
40	0x3f10d8f4	0.56581044
41	0xbe4bc53d	-0.19899459
42	0x3ef86998	0.48518062
43	0x3f24ab69	0.6432405
44	0xbf8644c3	-1.0489734
45	0xc01cf361	-2.4523547
46	0x3f8b7f85	1.0898291
47	0xbfd1d947	-1.6394433
48	0xbf17de8b	-0.5932395
49	0xbe26e069	-0.16296543
50	0xbfe66de8	-1.8002291
51	0x3b51371d	0.003192372
52	0x3f8214a4	1.0162549
53	0xbf91d3a0	-1.1392708
54	0x3e9f7c46	0.311495
55	0x3f44cb89	0.7687307
56	0xbd868ea8	-0.06570178
57	0x3f8ed6b2	1.115927
58	0xc04063cc	-3.006091
59	0x3fce13d3	1.60998
60	0xbeddf3df	-0.4335012
61	0x401d8897	2.4614618
62	0x401bfd87	2.437349
63	0xbfbd45fe	-1.4786985

v.v_net.4.weight f4 [1, 64]
0	0x413fd121	11.988557
1	0xbf0dab3d	-0.55339414
2	0x410c17c6	8.755804
3	0x419ae998	19.36406
4	0x41156bc1	9.338807
5	0xc1961f85	-18.76539
6	0xc11c6def	-9.776839
7	0xc1642da8	-14.261147
8	0xc1b0e29d	-22.110651
9	0xbf198076	-0.5996164
10	0x40f71bc7	7.722141
11	0x40e355c1	7.104218
12	0xc06ca309	-3.6974509
13	0x403c2edf	2.9403608
14	0xc1807c6f	-16.060759
15	0xc0a595d8	-5.1745415
16	0xc097a050	-4.7383194
17	0xbfb40f30	-1.4067135
18	0xc1c4891f	-24.566954
19	0xbff2a0b7	-1.8955296
20	0x4124ba9b	10.295558
21	0x41fd525d	31.665216
22	0xc15d33ad	-13.825116
23	0x40394050	2.8945503
24	0x4063f6de	3.5619426
25	0xc12fedda	-10.995569
26	0xc1243e7e	-10.265257
27	0x41c1d41c	24.228569
28	0xc0b78118	-5.7345085
29	0xc1a59ed3	-20.70255
30	0xc18bf33a	-17.493763
31	0x40e32666	7.0984373
32	0xbfaf84bd	-1.3712384
33	0x41648b48	14.284004
34	0x40b2d93d	5.5890183
35	0xc19f3bd4	-19.904213
36	0x41446bae	12.276289
37	0xc06329a6	-3.549417
38	0x3f118805	0.56848174
39	0x418c0846	17.50404
40	0xc103f3fd	-8.247067
41	0xc0624e4f	-3.5360296
42	0x4093309c	4.599684
43	0x4153e322	13.242952
44	0x4027ebe4	2.6237726
45	0x41925f5c	18.296562
46	0xc09f9795	-4.9872537
47	0x41a520b9	20.640978
48	0x410019ee	8.0063305
49	0xc10ecd70	-8.925156
50	0x4210a0e1	36.15711
51	0x401daf1a	2.4638124
52	0xc18d060f	-17.627958
53	0x40329aa3	2.7906883
54	0x40010e22	2.0164876
55	0xc0cdbb31	-6.4291005
56	0xc0122e06	-2.284059
57	0xc0eca3c5	-7.3949914
58	0x410b82ad	8.719403
59	0xc1974639	-18.909288
60	0xc0f7a6ad	-7.739096
61	0xc05e37e1	-3.4721606
62	0xc11313a5	-9.192296
63	0xc06d7ebb	-3.71086
