model_wts/s2_d3_m1.0_b0.0.ckpt (torch, 206875 bytes, 11 tensors)

pi.logits_net.0.weight f4 [64, 282]
000000 46 04 15 3e 8e c2 a2 3e e9 f9 15 3e a1 4a ff bc
       0.14552411 0.31789058 0.14646114 -0.031163516
000010 72 46 80 3e f8 5b 1b 3e f7 3a 0e be 05 85 38 be
       0.25053746 0.15171802 -0.13889681 -0.18019493
000020 27 2d 13 3e dc d0 ba bc c2 38 dd 3e be 0a ac 3e
       0.14372693 -0.02280467 0.43207365 0.33601946
000030 6a 3d f3 3d 83 1d 37 3e 39 e9 10 3e 63 a8 60 bb
       0.11876948 0.17882352 0.14151467 -0.0034280054
000040 b4 d5 20 3e ce 35 1a 3e e6 0e 4f 3e d6 3f 0a 3e
       0.15706521 0.15059587 0.20220527 0.13500914
000050 5d 9a 96 3d f1 5c 0b be 86 09 45 be b5 18 38 3e
       0.07353661 -0.13609673 -0.19241914 0.17978175
000060 f1 d8 47 be 8b 4f 15 3e 03 5b 99 3d 8e d7 35 3d
       -0.1951635 0.14581124 0.07488062 0.044395022
000070 75 c8 29 be 55 ce d2 3d c9 e5 aa 3d 1b 5c bb 3d
       -0.16580375 0.10293261 0.08344609 0.09148427
000080 08 31 b1 3e ff f9 34 3e 93 37 a5 3d 36 2c 23 be
       0.3460772 0.17673491 0.080672406 -0.15934834
000090 d5 d7 d8 bd 8d b1 db 3d 0e fe 58 3e 81 a6 c7 3d
       -0.10588042 0.107272245 0.21190664 0.09748555
0000a0 e5 36 e4 3d 8a f6 bc 3e ff 45 1f 3e 11 f7 1c 3e
       0.11143283 0.36906844 0.15554045 0.15328623
0000b0 80 17 34 be 83 31 23 3e 3e 2c 80 3e 0a 33 69 3e
       -0.1758709 0.15936856 0.25033754 0.22773376
0000c0 8a 71 dc 3e 94 90 02 be 35 49 e0 3d c2 fd 2f 3e
       0.43055373 -0.12750465 0.10951463 0.17186645
0000d0 44 1c ef 3e 07 99 28 3e 06 95 a2 3e 5e c9 63 3e
       0.46701252 0.16464625 0.3175432 0.22244784
0000e0 cc d1 a3 3e 15 28 e6 3d bb 06 0c 3e 00 0b 08 3e
       0.31996 0.11238114 0.13674442 0.13285446
0000f0 b7 10 dd 3d 07 47 a2 3d c9 c3 ea bd 8a 82 f6 3e
       0.10794204 0.07923704 -0.11463124 0.48146468
000100 ea 18 c5 3e bb 4b 04 3e f4 02 28 bd 2a 9d bc 3e
       0.3849557 0.12919514 -0.04101844 0.36838657
000110 cb c3 8c bd ca c3 24 3e 7e 3d 8e 3e bf 31 a4 bd
       -0.06873282 0.16090313 0.2778129 -0.08017301
000120 47 4e ba 3d 2a 47 fd bc 4e 0f d8 3e 71 f3 f8 bd
       0.090969615 -0.030917723 0.42199177 -0.12155808
000130 40 f8 ac 3e 85 39 40 be 4b 94 27 bd d7 6a bd 3d
       0.3378315 -0.18771942 -0.040912908 0.09248894
000140 74 22 f3 3e 0c 04 5f 3e d1 ef 43 be 69 bf bc 3d
       0.47487223 0.21778888 -0.19134451 0.09216196
000150 4f bc 1f 3e 4b 76 d7 3d a2 5a d6 3e cc 1f ed be
       0.15599178 0.105206095 0.41866022 -0.46313322
000160 1a 16 5a 3e 81 d0 32 be d9 5b 0e 3d 73 35 15 3f
       0.21297494 -0.1746235 0.03475556 0.5828468
000170 d7 33 f1 bd ff f0 03 3e 83 8f 98 3e 79 aa 39 be
       -0.11777466 0.12884901 0.2979699 -0.18131436
000180 00 31 b3 3d e9 36 da be 71 e4 b4 3d f0 6c 80 be
       0.087495804 -0.42620018 0.08832634 -0.25083113
000190 ae 99 49 be f6 6a 14 3e b2 21 5b 3f e2 3b 99 be
       -0.1968753 0.14493927 0.8559829 -0.299285
0001a0 83 9c b1 be f9 a7 0b be e0 2a ce be 78 95 b5 3d
       -0.3468972 -0.13638295 -0.40267086 0.088663995
0001b0 21 03 86 3e e8 33 88 be bb 7e 03 3e 7a d4 2c bd
       0.26174262 -0.266021 0.12841313 -0.04219482
0001c0 d7 57 b6 be b9 0d a5 3e 15 24 09 3e db 1c a1 3b
       -0.3561389 0.32237032 0.1339267 0.00491677
0001d0 15 79 4f be fc 1e fe 3c bb 2f 11 be 49 de df 3d
       -0.20261033 0.031020634 -0.14178364 0.109310694
0001e0 5a 2d 13 be b0 c5 7d bd 8a 8d 62 3e 11 7e 05 3e
       -0.14372769 -0.061956108 0.22124305 0.13036372
0001f0 df 89 99 be 40 08 62 be 2f 4f e5 bd ab 76 1c 3e
       -0.29988 -0.2207346 -0.11196744 0.15279643
000200 06 12 6d bf ff 0b c4 be ff 20 ee be 7f 78 5c bf
       -0.92605627 -0.38290402 -0.4650955 -0.8612136
000210 7d 87 60 bd 37 31 bc 3e b8 47 83 3d 47 1c 38 bd
       -0.05481671 0.36756298 0.06410164 -0.044948842
000220 2c 7b f4 3e 5d 5a be 3e 49 ab cc 3e 75 43 15 bf
       0.47750223 0.37178317 0.3997443 -0.58306056
000230 64 e7 44 be 7c 2a 12 bf 00 8e 5c 3c 4d 5a 20 3c
       -0.19228894 -0.57096076 0.01346159 0.009787154
000240 f1 b6 a3 3e 16 a7 ea 3d 3e 0e 92 3e 8f b2 57 3e
       0.3197551 0.1145765 0.2852649 0.21064208
000250 93 85 dd 3d 15 e2 ee bd bd d2 0c be 49 cd e4 be
       0.10816493 -0.116642155 -0.13752265 -0.4468787
000260 58 f2 21 bf 31 9b 93 3d ca 7d 52 be 85 f2 29 bf
       -0.6326041 0.07207335 -0.20555797 -0.6638568
000270 6f c1 13 be 6d 3f 2f bf cd 43 4c 3e 7b 63 50 be
       -0.14429258 -0.68456155 0.19947739 -0.20350449
000280 1d 8e f6 be 2e 8f 0d bd fa 42 23 3e c0 06 7a be
       -0.481553 -0.034560375 0.15943518 -0.24416637
000290 6d c6 eb 3d 9b 2b 89 be 99 3d ec be cd 4c 67 3b
       0.11512456 -0.2679108 -0.46140745 0.003529358
0002a0 30 8a d6 be 65 2e fa 3d 60 cc ac 3e 05 af f1 be
       -0.41902304 0.1221588 0.33749676 -0.47203842
0002b0 61 0c 7e 3d d9 c2 b3 be ff a0 15 bf f8 a5 9e be
       0.062023524 -0.35109594 -0.58448786 -0.30986
0002c0 8b d9 56 be be a1 86 bd 68 2f 34 3f 17 f6 35 3e
       -0.20981424 -0.065738186 0.70384836 0.17769657
0002d0 c0 23 13 bf 7d 44 cc be 4c 8f 45 bf 9c c2 2c be
       -0.57476425 -0.39896002 -0.7717178 -0.16871113
0002e0 87 6d f0 be 01 a8 d0 3e a6 cf 4f bf a4 01 23 3f
       -0.46958563 0.40753177 -0.8117622 0.6367438
0002f0 65 3b 88 be 13 90 e5 3d 5a 4a ce be 35 58 3e bf
       -0.26607814 0.112091206 -0.402911 -0.74353343
000300 80 cc 13 be d4 54 96 bd e4 cb 45 3f b3 e4 dd 3e
       -0.1443348 -0.073403984 0.7726424 0.43338546
000310 2d 72 e8 bd 51 c7 c3 3e a5 0a ef 3d 79 f4 88 bb
       -0.11349902 0.38238004 0.11671952 -0.004179534
000320 bb a8 b8 be 2f 11 59 3f 0e be dd bd 93 1e 82 be
       -0.3606623 0.84791845 -0.10827266 -0.2541395
000330 98 45 0a bf 07 c9 c4 be ce 2b ff be 72 9b b8 be
       -0.5401244 -0.38434622 -0.49838108 -0.36056095
000340 ea 81 8c be 90 59 93 bd cb be 68 3f b7 01 da bd
       -0.27442867 -0.07194817 0.90916127 -0.10644858
000350 51 32 2f 3f 05 66 44 bf 9f 6a 6e bd 6e 6e 8e be
       0.6843615 -0.7671817 -0.05820715 -0.27818626
000360 a9 91 83 3f 9b ce 2b bf 41 d2 01 3f cd 54 ef 3d
       1.0278827 -0.6711213 0.50711447 0.11686096
000370 35 7d 81 be 35 59 33 bf 5b c3 4c 3e 81 04 00 3f
       -0.25290838 -0.70057994 0.19996397 0.5000687
000380 27 f7 4b bf b6 2f 6c 3e dd d3 1f be 12 66 0a 3f
       -0.79674 0.23065075 -0.15608163 0.54061997
000390 b2 d0 58 3e cc 9c 9f bd c8 7c 00 bf e8 e5 29 3e
       0.21173361 -0.077935785 -0.501904 0.16591609
0003a0 fb d8 63 bd 7e c6 54 bf fc cd 56 be a8 bb da 3c
       -0.05562685 -0.83115375 -0.20977014 0.02670081
0003b0 ec ce 62 be ff cb c6 3d c8 1d 85 3e 98 69 d4 bd
       -0.22149247 0.09706878 0.25999284 -0.10371703
0003c0 1e 91 1c be 4e ae 79 be 6e ef 2d be 8f 24 4a bd
       -0.15289733 -0.24382898 -0.16985866 -0.04935127
0003d0 e0 75 ec be b6 5f 29 3d 72 6b 32 3f 6a cf db be
       -0.4618368 0.041351043 0.696952 -0.42931682
0003e0 a7 9b 34 3e ff bb 25 bf 91 ab 2f bf a0 f3 3f bf
       0.17637502 -0.64739984 -0.68621165 -0.7498112
0003f0 58 7f 80 3e 3f f8 4c 3e 58 e0 9b 3e bc a4 a3 3e
       0.25097156 0.20016573 0.30444598 0.3196162

pi.logits_net.0.bias f4 [64]
000000 0d c4 9c be 80 32 e0 bd cc 1a 52 3e c2 e7 b8 be
       -0.30618325 -0.10947132 0.20518035 -0.36114317
000010 33 49 77 3e b2 5e a7 be 74 73 be bd 14 04 d7 be
       0.24149017 -0.32689434 -0.09299365 -0.419953
000020 dc 58 0b bd 27 f3 43 be fb e6 63 3e 02 d5 ac bd
       -0.03402029 -0.19135724 0.22256081 -0.084390655
000030 af cb 43 be 6e 65 88 3d 7a 82 0a be 1c 63 9d 3d
       -0.19120668 0.06659971 -0.13526335 0.07684919
000040 41 be a0 3e 2a cb 63 3e fa ca 3d be 8b df 4e be
       0.31395152 0.2224547 -0.1853446 -0.20202462
000050 3a 5c b3 be 6a 22 5e 3e 99 2a 4b be 68 23 f7 3c
       -0.350313 0.21692815 -0.19840468 0.03016825
000060 54 00 77 3c be 1a f8 3d f0 98 3a 3e d0 1a ca bd
       0.015075762 0.12114476 0.18222404 -0.09868395
000070 8f d6 66 be 35 1b d4 bd c7 67 b8 3e a0 64 af 3d
       -0.22542785 -0.10356752 0.36016676 0.085641146
000080 78 7d ae b9 ff a0 e4 3d 16 a9 86 3e 5b 82 88 bd
       -0.00033281348 0.1116352 0.26300877 -0.06665488
000090 65 11 07 bd c2 ee c8 bd ac d8 81 bd ee 57 11 3e
       -0.032975573 -0.098111644 -0.06340155 0.14193699
0000a0 96 88 66 3d 46 51 09 3e 8d 82 ba 3e 78 44 1c 3e
       0.056282602 0.1340991 0.36427727 0.15260494
0000b0 f4 68 e4 bd 9a 5b 2a be e3 8b 88 bc 4e 47 00 bf
       -0.11152831 -0.16636506 -0.016668266 -0.501088
0000c0 43 82 60 3e c3 b9 03 3e b0 fb b1 be 80 29 85 3d
       0.21924691 0.12863831 -0.34762335 0.06502056
0000d0 c0 1c a4 3e 61 36 86 bd 00 6a 7f b9 4c fe 70 be
       0.32053185 -0.06553341 -0.00024358183 -0.23534507
0000e0 a4 9b b3 3d c7 b0 56 3e 30 a9 a4 3e 65 23 b5 bc
       0.087699205 0.20965873 0.3216033 -0.022111604
0000f0 03 f1 34 be 72 81 ed bd d7 51 93 3d d8 e1 8f 3e
       -0.17670064 -0.11596955 0.07193344 0.28101993

pi.logits_net.2.weight f4 [64, 64]
000000 a1 91 9a bd 17 b9 8b be 66 95 d8 3e ff c1 da be
       -0.07547308 -0.2728965 0.42301482 -0.42726132
000010 21 d5 ac be 47 10 ac 3e bb cb 2e bf d5 44 87 bd
       -0.33756354 0.3360617 -0.6827962 -0.066049255
000020 a6 8a 7f 3d c5 16 54 bf 20 c1 83 be bf ff 6c bd
       0.062388085 -0.82847244 -0.2573328 -0.057861086
000030 48 4e fa 3d 66 92 c2 bc 37 8d fd 3e 10 d1 21 3f
       0.12221962 -0.023751449 0.495218 0.6320963
000040 64 99 78 3e 4e 5d b7 3e cf 98 9b be fe 2c 21 3f
       0.24277264 0.35813373 -0.3039002 0.6295928
000050 ab e5 c2 bf 77 92 88 3c 20 12 00 bf 1e bc 07 3f
       -1.5226339 0.016671402 -0.50027657 0.5302142
000060 d3 ee 8b be 9a 3f 3c 3f 25 37 03 3f 66 a3 fe be
       -0.27330646 0.7353455 0.5125602 -0.49734038
000070 b9 46 41 be 18 5d 74 bc 98 2d 86 3e 99 31 1b bf
       -0.18874635 -0.014914773 0.2620666 -0.60622555
000080 ef 1c 32 bd 0d c3 6f be 73 84 a4 3d 15 0a e6 3e
       -0.043484624 -0.2341425 0.08033075 0.44929567
000090 37 3f d5 bd 0b c2 9a be cd 7b e4 3d 27 15 ed 3d
       -0.10412448 -0.30226168 0.111564256 0.115763
0000a0 0f 54 a8 3e bb f3 70 3d 9d a8 7e be 54 7f 31 3e
       0.32876632 0.05882619 -0.24869008 0.17333728
0000b0 52 67 4d be 5e ab 06 bf 43 51 36 be 7d 34 8a bd
       -0.20058945 -0.52605236 -0.17804436 -0.067482926
0000c0 e6 71 4a be 56 3e ee 3d 0e b9 4e bf 1b d2 94 3e
       -0.19770011 0.116329834 -0.8075112 0.29066548
0000d0 41 e9 97 be 5d b8 29 bf e8 9d 7f be 36 d0 0f bf
       -0.29670146 -0.6629694 -0.2496258 -0.5617708
0000e0 44 34 e7 3d 1c 58 dd 3d 8c 8a 3f 3d aa 79 74 be
       0.11289266 0.10807821 0.046762988 -0.23874536
0000f0 34 ff ea 3e d4 62 f4 3d 5c d6 48 3f 86 48 ab 3e
       0.4589783 0.119329125 0.78452086 0.33453768
000100 71 03 bf 3e 18 40 83 3e fe e1 bd be 08 7c fd 3e
       0.37307313 0.25634837 -0.3708648 0.4950869
000110 80 de 96 3e 81 9a 81 3d c3 ee 03 3d 80 ad 4f bf
       0.2946663 0.063282974 0.032210123 -0.81124115
000120 92 18 f3 be df 37 2d bd 6a f4 5c be f0 31 d5 3e
       -0.47479683 -0.04228961 -0.21577612 0.41639662
000130 19 5d 1e 3f 2b e0 98 3d 64 84 c3 3e 94 7f 31 bf
       0.61860806 0.07464632 0.38186944 -0.69335294
000140 75 9e 3f 3d 6d 3c 37 bf 32 a8 e8 3e c4 f8 b6 be
       0.046781976 -0.7157658 0.45440823 -0.35736668
000150 89 fb 39 bf a9 c1 24 bd b7 c6 8e be 9b be f0 3e
       -0.7264944 -0.04022375 -0.27885982 0.4702042
000160 5a e2 9a 3e aa b0 62 be b1 f6 d0 3e cf 64 59 3e
       0.30250818 -0.22137704 0.4081321 0.21229862
000170 da 15 73 3e 97 d8 1b 3f 00 3f 01 3e 0d 8a 52 3e
       0.23738804 0.60877365 0.12621689 0.20560475
000180 55 d7 a8 be 0e 99 8b 3e de d8 27 bf 29 0f bf be
       -0.32976785 0.2726521 -0.6556529 -0.37316254
000190 74 b4 0b 3f cc 09 98 3d 96 04 c3 3e ae 6e 8b bf
       0.54572225 0.074237436 0.38089436 -1.0893152
0001a0 f0 3d ee 3e 05 a8 55 3e 27 77 76 3d bc 43 e2 be
       0.4653163 0.20864876 0.060172226 -0.44192302
0001b0 dd 4d 53 3e 52 6c 1b 3f 3e b5 50 3f 6a cb d5 be
       0.20635171 0.6071216 0.81526554 -0.41756755
0001c0 b1 ff 9a 3d 2b 26 03 bf 27 f5 81 3d d8 3f fa 3e
       0.075683005 -0.51230115 0.06345587 0.48876834
0001d0 a0 1d 81 be 5d e3 13 bf 67 b9 f9 bd 59 a7 42 bf
       -0.25217915 -0.57768804 -0.12193566 -0.760366
0001e0 d0 c8 35 bf b8 80 0f bf 1d 48 f3 be eb 7f 68 be
       -0.7100954 -0.56055784 -0.47515956 -0.22705047
0001f0 c5 e2 03 bf 9c 68 9a 3e 2d 0b 3b 3e 88 2b 46 bf
       -0.515179 0.30157936 0.18265982 -0.77410173
000200 5f b5 13 3e 58 02 08 bf 42 e5 83 be c8 3d 09 3f
       0.14424656 -0.53128576 -0.25760847 0.53609896
000210 d0 09 32 be 67 1e c7 3e 7f 56 56 3e c3 d6 36 3f
       -0.17386556 0.38890383 0.20931433 0.7142145
000220 bd 96 f3 3d e7 43 b7 be 69 86 6c bc 2c cd 3e be
       0.118939854 -0.35793993 -0.014436343 -0.18632954
000230 4d 7d 99 be 65 12 95 3e d4 87 52 3f bd 15 89 3e
       -0.2997841 0.29115596 0.8223851 0.26774397
000240 b5 3e be be 6d db 8f 3e 68 86 87 3e 1f a0 24 3e
       -0.37157217 0.28097096 0.2646973 0.16076706
000250 f3 2d 6c bd 62 63 ee be 8a e2 1c 3d ea 06 22 bf
       -0.057661008 -0.46560198 0.038301982 -0.632918
000260 d6 5a 1e 3f 2c 8f cc be 16 15 0c 3f 72 06 bd bc
       0.61857355 -0.3995298 0.54719675 -0.023074362
000270 68 58 26 3f 23 b2 15 3e bc a4 1c be 03 d6 08 bf
       0.6497865 0.14618735 -0.15297216 -0.53451556
000280 27 b4 22 3e 73 8a 84 3e f9 ab 09 bf 67 14 6c 3d
       0.15889035 0.25886878 -0.53778034 0.057636645
000290 70 4d a8 be bd a6 07 3e 5c 1c 19 3f 96 cd 7a 3e
       -0.3287158 0.132472 0.598089 0.24492487
0002a0 67 a0 76 3d 6f 8c 02 be 32 b0 ab 3d fd 8f 82 3f
       0.060211565 -0.12748884 0.08383216 1.0200192
0002b0 55 93 b7 be 2f 92 6c 3e de 85 93 3e 49 fe ee 3e
       -0.35854593 0.2310264 0.2881307 0.4667838
0002c0 51 05 e5 be b2 a4 3a bf 14 c6 6a bf 7e a7 1d 3f
       -0.4473062 -0.72907555 -0.91708493 0.615837
0002d0 10 bd 64 3f 32 4c 75 3e 1f a8 30 be 0e 4b fe 3e
       0.89350986 0.23954847 -0.17251633 0.49666637
0002e0 57 ea 45 3d 4d 50 ca be 07 58 89 3e 9c de 0b 3e
       0.048319187 -0.3951439 0.26824972 0.13659137
0002f0 04 d3 27 bd 99 23 79 bd 7e 4a d8 3e 80 8d 4a be
       -0.040972725 -0.060824964 0.42244333 -0.1978054
000300 c4 36 23 3e 4c 1f bb 3d dc 00 b9 3d a0 4b bf 3e
       0.1593886 0.09136829 0.09033367 0.37362385
000310 1e 2e da be 6f a3 c4 be 1a 11 d4 bd c5 3b 00 be
       -0.4261331 -0.3840594 -0.10354824 -0.125228
000320 d9 2b 2f 3f c6 f0 78 3f dc 48 58 bf 8d dc 3c be
       0.6842628 0.9724239 -0.84486175 -0.18443508
000330 db 10 ca be 7d 65 f9 be 4a 56 7b 3e e2 b5 bf be
       -0.39465985 -0.48710242 0.24544635 -0.37443453
000340 2c 73 7d 3d b0 80 28 3f d6 3b 4a bd 19 19 1c be
       0.061877415 0.6582136 -0.04937347 -0.15243949
000350 f7 c0 15 3f ab 29 ed bd f2 99 96 bd ed 49 0a be
       0.58497566 -0.11580213 -0.073535815 -0.13504763
000360 2d 0e c9 be e3 b9 02 bb ee 5e 16 bf b1 47 da bc
       -0.39268628 -0.0019947223 -0.587386 -0.026645513
000370 b9 81 14 3f 3a 78 99 3e 6d 53 00 3f 15 cb 71 3d
       0.5801044 0.29974538 0.501273 0.059031565
000380 3f a3 51 3f 0b 9a 4e bf e3 ab e6 3e fd bc e2 3e
       0.8188972 -0.807038 0.45053014 0.44284812
000390 e0 6d 3c be 7a 83 e6 bd 57 34 48 be 4c 6b 0c bf
       -0.18401289 -0.11255546 -0.19551216 -0.5485122
0003a0 c6 f1 80 bf fe c9 d0 bd 57 50 ae 3e d3 5e 94 bd
       -1.0073783 -0.10194777 0.3404567 -0.07244649
0003b0 48 eb e5 3c 8a 96 16 bf 27 65 ba 3c 6d c0 70 be
       0.028066292 -0.58823454 0.022753311 -0.23510905
0003c0 0b 42 87 bd 55 cb a1 bc ed 7c bb bb 82 56 20 3f
       -0.066043936 -0.019750277 -0.0057216794 0.62632
0003d0 35 e9 1d 3d f5 ea fb be 86 25 8c bd 6b c1 f5 3d
       0.03855248 -0.49202695 -0.068430945 0.11999782
0003e0 e9 2f 1a 3e 09 73 e8 be dc cb 10 3f a6 75 10 bf
       0.15057339 -0.45400265 0.56561065 -0.5642952
0003f0 a6 06 0e be 9e 1c cf 3e 10 d0 65 bf e4 9e ae 3c
       -0.13869724 0.4045152 -0.89770603 0.021316

pi.logits_net.2.bias f4 [64]
000000 2e a9 53 3d ca c0 2b 3d 0f 87 08 bf 16 e0 f5 bd
       0.051675014 0.041931905 -0.53331083 -0.120056316
000010 b6 9e 87 bd b4 b6 fd be 84 08 ee bd ab 58 24 3d
       -0.066220686 -0.49553454 -0.11622718 0.040123623
000020 b8 c5 0e 3e 6f cb 11 bf b6 bb 99 be 5e 4a e6 3e
       0.13942611 -0.5695104 -0.30026025 0.44978613
000030 9f 80 a9 3e 11 93 c3 3e 1e dd 4b be 69 f2 d0 be
       0.33105943 0.3819814 -0.19908568 -0.40809944
000040 6c 12 d1 3e b0 62 43 3e d5 0c b3 bc 59 27 9b be
       0.40834367 0.19080615 -0.021856705 -0.30303457
000050 dc 57 09 bf c1 21 89 3e 84 6f 37 3e 34 f7 bb 3e
       -0.5364969 0.26783565 0.17913634 0.3671204
000060 a5 fe 19 be f4 9a 0c bf aa 09 9f be d4 53 c7 be
       -0.15038545 -0.5492394 -0.3106206 -0.38931143
000070 44 ed 11 3f a7 4a 73 3e 89 c0 70 3e b3 15 34 be
       0.57002664 0.23758946 0.23510946 -0.17586403
000080 bf 77 ed 3d a7 56 13 be e7 79 45 bd 48 99 7b be
       0.115951054 -0.14388524 -0.04821196 -0.24570191
000090 e4 2a a9 be 3c 73 8e be b1 3d 21 3e 4d 08 7a bd
       -0.33040535 -0.27822292 0.1574619 -0.061043072
0000a0 92 0e e8 3e c7 20 36 be 34 79 05 3e 2b 85 68 be
       0.45323616 -0.17785941 0.13034517 -0.2270705
0000b0 d8 e5 c2 bd 48 71 08 bf b5 e2 65 3e 95 77 86 be
       -0.095164955 -0.53297853 0.22449763 -0.2626311
0000c0 bd 01 14 be 4e 4d 56 be 2b e5 38 3e c2 da 83 3e
       -0.14453788 -0.20927927 0.1805617 0.25752836
0000d0 1b f6 24 3e 4e 7f 8c 3e 0b c2 a3 3d eb c3 36 be
       0.16109507 0.27440876 0.07995995 -0.17848174
0000e0 bf f9 50 bd 86 7e eb bd bf a2 ef 3e 06 f5 34 bf
       -0.051019426 -0.11498742 0.46803853 -0.70686376
0000f0 21 0c ef b9 57 d5 6e 3d 7b 8d d7 be 74 87 28 bd
       -0.0004559467 0.058308925 -0.4210013 -0.041144803

pi.logits_net.4.weight f4 [87, 64]
000000 9d 6e 70 3f 4c fb 01 3f aa 40 a6 bd 2c 0f 4a bf
       0.9391878 0.50774074 -0.081178024 -0.789294
000010 06 d5 7e 3f fd 14 00 bf 76 a1 54 bf 94 b9 51 bf
       0.995438 -0.50032026 -0.8305887 -0.81923795
000020 9a b9 b2 3e 3f ea 27 be 0c 2b a2 be 03 17 1d 3f
       0.34907228 -0.16397952 -0.31673467 0.6136324
000030 69 2e d8 bd b3 e5 85 3e 96 51 79 bf 37 de 47 be
       -0.10555727 0.2615181 -0.97390115 -0.19518362
000040 66 96 c8 3e 43 63 f2 3c ef d2 e6 be 65 aa 90 3e
       0.39177245 0.029588347 -0.45082805 0.28255
000050 4b 73 ce be 28 a8 c2 3e ba ef d1 3d 5b 2f df bd
       -0.40322337 0.38018918 0.10250802 -0.10897704
000060 fc 59 6a 3e 31 10 e9 be b0 de 68 bf d2 23 1a be
       0.22885889 -0.45520166 -0.90964794 -0.15052727
000070 b5 ae e7 3e 55 c4 91 bf 08 b2 9b 3f e5 f0 cf 3e
       0.45250478 -1.1388041 1.2163706 0.40613475
000080 f9 bc 39 3e 89 3b fc be c0 21 91 be 21 aa 52 bf
       0.18138494 -0.49264172 -0.28346062 -0.82290846
000090 eb 7c 9e bf 99 b3 87 3f d2 27 11 3d 3b a7 66 be
       -1.2381872 1.0601684 0.035438366 -0.22524731
0000a0 dd 17 1b 3f bc b6 19 3e 67 f8 9d 3e f3 9e 06 bf
       0.6058329 0.15011114 0.30853578 -0.5258629
0000b0 9c bd 81 3d 48 c6 1a bf 9a 6b 91 3f 78 d9 94 bf
       0.06334993 -0.60458803 1.1360962 -1.1628866
0000c0 da c8 10 bf e6 c8 8f bf 8e 52 b5 3d 4d a2 61 3f
       -0.56556475 -1.1233184 0.08853637 0.88138276
0000d0 6a 64 f6 3e 0b d4 c6 be f0 97 17 3f b3 70 04 bf
       0.48123485 -0.3883365 0.59216213 -0.51734465
0000e0 65 3a 43 bd 62 0d 57 be eb 0d af 3f 95 69 09 bf
       -0.04766311 -0.21001199 1.3676122 -0.5367673
0000f0 6d 04 b8 3e 89 cd 63 bf 28 1d 2d 3e dc 39 e0 3c
       0.35940877 -0.88985497 0.16905653 0.02737134
000100 c7 17 b7 be 22 26 e2 be 89 85 10 bf 8e 77 a5 be
       -0.35760328 -0.44169718 -0.5645376 -0.32317775
000110 4d da 0c 3f 4c 28 a5 be 82 ca 9f 3f 46 79 19 bf
       0.550206 -0.32257307 1.2483675 -0.59950674
000120 83 0a 3a 3f 96 cb 01 bf 05 3f 38 bf da 84 7e be
       0.7267229 -0.5070127 -0.7197116 -0.24855366
000130 87 46 c2 3d 16 71 8c 3f 20 5c c5 be 5b fc 3b bf
       0.09486108 1.0972011 -0.38546848 -0.7343194
000140 9d 74 04 3f 9b 93 eb 3e b0 16 f7 bd 10 a3 7b bf
       0.5174044 0.46011052 -0.12064874 -0.9829569
000150 91 28 78 be ef 27 ac 3e 06 c8 20 bc f5 ff 87 bd
       -0.24234225 0.33624217 -0.009813314 -0.06640617
000160 89 1f 6a bf 90 4a 3a be ac 1a 53 be 9c 4b fb 3e
       -0.9145437 -0.18192506 -0.20615643 0.49081123
000170 95 0e cf 3d 23 f2 0c bf e6 08 97 3f 1a 22 1a bf
       0.10110203 -0.5505697 1.179959 -0.60208285
000180 6c 84 e0 3e 1f 3e 26 bf be 03 c2 bd 7d 32 83 bf
       0.4385103 -0.6493854 -0.0947337 -1.0249783
000190 25 71 af 3e 22 eb 03 3f 7d 2d 7f be 01 f7 06 bf
       0.3426601 0.5153066 -0.24919696 -0.5272065
0001a0 0c 9d bf 3e 5b e4 fd 3e 3b ef c5 3e 82 34 e9 be
       0.37424505 0.49588284 0.3865908 -0.45547873
0001b0 30 36 54 be 6c db 66 bf ec 23 8d be db 6a 10 bf
       -0.20723796 -0.9017856 -0.2756647 -0.5641305
0001c0 9c 2d ff 3e 57 f5 46 3f 50 6a 0c 3e 7a bf e5 bc
       0.49839485 0.7771811 0.1371243 -0.028045405
0001d0 31 31 a6 be 27 b6 76 be a8 3f 25 3e 2f e9 ec be
       -0.32459405 -0.24092923 0.16137564 -0.46271655
0001e0 89 f0 0e 3f 4c e2 63 3f 54 d4 0a 3f d0 f6 77 bd
       0.5583578 0.89017177 0.54230237 -0.060538113
0001f0 fa f3 24 bf 2e 44 79 3e 6c a4 4e 3f f4 83 a2 bf
       -0.6443478 0.24342415 0.8071964 -1.2696519
000200 18 41 1a bf 82 46 a5 bd 49 3e ae be 7c b0 99 3e
       -0.60255575 -0.08070089 -0.34031895 0.3001746
000210 46 d3 0e 3f c5 2f 16 bf a1 04 c8 3f 0f 85 c4 be
       0.5579113 -0.5866664 1.5626413 -0.38382766
000220 1b 1e 0c 3f bf 57 af be 42 ab 77 be e2 f0 b4 be
       0.5473344 -0.34246632 -0.24186423 -0.3534003
000230 91 9b 4f 3f c7 41 e1 3e 21 7f 10 bf b7 fd 45 bf
       0.8109675 0.43995497 -0.56443983 -0.77340263
000240 27 9e 9c 3e 84 0e 11 3f 03 0d 58 bf ea 79 c6 bd
       0.3058941 0.56662774 -0.84394854 -0.09691222
000250 4e 92 4a bf 3c b8 16 3f 27 9d 10 bf a0 6e 19 bf
       -0.79129493 0.5887487 -0.56489795 -0.59934425
000260 12 84 06 3f b3 ba d4 be a5 c5 11 bf 65 df 0a 3f
       0.52545273 -0.4154869 -0.56942207 0.54247123
000270 dd 20 60 bd d7 99 04 bf 31 59 1f 3e 30 9b 70 3d
       -0.05471884 -0.5179724 0.15561368 0.05874175
000280 9d 3b 99 3e 74 fe 88 bd ac 9c 28 bf 42 bb 2f bf
       0.29928294 -0.06689158 -0.6586406 -0.6864511
000290 a3 2d d5 3e 61 7b 8a 3e 98 02 20 be da 0c 26 3d
       0.4163638 0.27047256 -0.1562599 0.0405396
0002a0 2b 4c 15 3f 6b a6 56 3f 76 dd 15 bf 71 40 c2 be
       0.5831935 0.83847684 -0.5854105 -0.3793979
0002b0 6b 17 2c 3f 1a c8 88 be 02 65 58 bf 4a f0 2f bf
       0.67223233 -0.26715165 -0.84529126 -0.68726027
0002c0 51 3c ab 3f 36 6f 1c 3f 2d d2 f4 3e 4e 21 61 3f
       1.3377782 0.61107194 0.478166 0.87941444
0002d0 1b 05 9b 3f ae 98 08 3e de fb 3d bf 76 bc 64 bd
       1.2110933 0.13339493 -0.74212444 -0.055843793
0002e0 38 73 37 3e aa 84 d3 3e 2c ef 0b bd 38 bc 1c bf
       0.17915046 0.41312152 -0.03416364 -0.612247
0002f0 7d ad db be 82 6b 98 bc b1 01 69 3f c4 42 80 be
       -0.429058 -0.018605951 0.91018206 -0.25050938
000300 a8 76 43 3f 1f d9 39 bd 5f 66 52 bf 37 9b 2f be
       0.7635293 -0.04537308 -0.82187456 -0.17149054
000310 1b 8b 53 3f 39 d7 07 bf 21 8d f4 be 4b 06 56 bf
       0.82634133 -0.5306278 -0.47763923 -0.8360335
000320 c4 55 70 3e ef 9c 17 bf fc a1 db bd 9f 0d 0b bd
       0.23470217 -0.59223837 -0.107242554 -0.033948537
000330 e4 79 88 3e 51 44 fb 3e 7f 46 b8 bf 82 7b fc 3e
       0.26655495 0.4907556 -1.4396514 0.4931298
000340 1c 3c f3 3d 91 7e df 3d 61 12 49 bf a8 8f 05 bf
       0.11876699 0.109128125 -0.7854367 -0.5217233
000350 4d e8 d1 be 86 70 c5 3e 80 33 ab 3f 8d 5e 05 3f
       -0.40997544 0.3856241 1.3375092 0.520974
000360 a5 a7 81 bf 5a e6 8b be ad 8b ea be 36 00 14 3f
       -1.0129286 -0.27324182 -0.4580969 0.5781282
000370 d7 f6 31 3f 12 73 bf bf b1 4f 24 3e 7f f0 44 3f
       0.6951727 -1.4956992 0.16046025 0.7692947
000380 38 a4 c6 3d 1b b4 ea be 78 8a 90 bf 38 30 42 be
       0.09699291 -0.45840535 -1.1292257 -0.18963706
000390 23 73 88 3f 22 fd 89 bd c2 32 67 bf 0d 73 8b bf
       1.0660137 -0.067377344 -0.90311825 -1.0894486
0003a0 04 f8 03 3f 3c 72 05 bf aa bc 73 3f 4f 99 0f bf
       0.51550317 -0.5212743 0.95209754 -0.56093305
0003b0 37 54 08 3f 12 ec 58 bf 7f 6a 56 bf 05 21 76 bd
       0.532535 -0.84735215 -0.8375625 -0.060090084
0003c0 c0 a6 17 bf 70 d5 6f 3f 15 c4 f8 3e d0 8a 54 3f
       -0.59238815 0.93685055 0.485871 0.8302431
0003d0 8c aa ee bd f0 0a 6c bf a2 ef 10 3f f6 83 90 3f
       -0.11653623 -0.9220419 0.5661565 1.1290271
0003e0 ea e9 dd be 9b 4e ef bd b1 0d 16 3f 8c 8d c2 be
       -0.43342525 -0.11684915 0.5861464 -0.37998617
0003f0 3c a3 41 be 0a 89 29 bf 71 44 01 3e 0c 0e 35 bf
       -0.18909925 -0.6622473 0.12623765 -0.7072456

pi.logits_net.4.bias f4 [87]
000000 67 30 e4 3e 03 44 d1 3e d4 a1 1e 3f 7d f0 ab 3e
       0.44568178 0.408722 0.6196568 0.33581915
000010 29 94 05 3f 63 e8 8e 3e 6e 61 e3 3e 53 4b 77 3e
       0.521792 0.27911672 0.4441027 0.24149828
000020 4e 40 b7 3e 5f 62 f3 3e 72 68 39 3e 6a c0 bf 3e
       0.35791248 0.4753599 0.18106249 0.37451488
000030 64 58 db 3d 0a 24 a6 3e 8f 83 cc 3e df 53 fb 3e
       0.107102185 0.3244937 0.3994412 0.49087426
000040 b2 59 d8 3e c2 f6 bb 3e a2 60 e9 3e 03 b2 1d 3f
       0.42255932 0.367117 0.45581537 0.6159975
000050 e2 e2 76 3e 90 17 2c 3f af 72 a0 3e 96 9b 1d 3f
       0.24109986 0.67223454 0.31337497 0.6156553
000060 cf 3e ab 3e bd bb c1 3e fa c0 b2 3e df 07 18 3f
       0.33446357 0.37838545 0.34912854 0.5938701
000070 b4 05 2b 3f 27 0b 1c 3f c0 47 04 3f ee 49 0d 3f
       0.6680558 0.6095452 0.5167198 0.5519093
000080 e4 52 33 3f bb ea 0a 3f bc 5b 21 3f 5f b3 0a 3f
       0.70048356 0.5426442 0.630306 0.5417995
000090 ba 4f 8b 3e e4 c2 ec 3e b8 1e b8 3e a6 65 f1 3e
       0.27209264 0.4624244 0.35960937 0.47147864
0000a0 e7 54 02 3f 92 60 32 3e fe 26 24 3f f5 fd a3 3e
       0.509108 0.17419651 0.64122 0.3202969
0000b0 12 1c 82 3e 6a fc ab 3e 45 db d6 3e 99 51 e4 3e
       0.2541204 0.33591014 0.41964164 0.44593504
0000c0 51 20 98 bd 9d 2d ca 3e c1 8b c0 3e 5e 4e 03 3f
       -0.07428039 0.39487925 0.37606624 0.51291454
0000d0 54 12 f7 3e 8d e4 47 3f 95 22 fd 3e 46 52 ea 3e
       0.4825617 0.78083116 0.49440446 0.45765895
0000e0 c2 ef 66 3f 4c da a7 3e 4c 53 97 3e f3 dc e5 3e
       0.9020959 0.32783735 0.29555738 0.44895133
0000f0 4a e9 44 3f 96 f4 96 3e dc f9 80 3e 7f 00 29 3e
       0.7691847 0.2948348 0.25190628 0.16504095
000100 4e 97 d1 3e b3 c4 12 3f 6e f7 21 3e 78 5d 05 3e
       0.4093575 0.5733139 0.15817043 0.13023937
000110 49 92 e0 3e 64 a5 4a 3e fc 96 15 3f 39 b0 d6 3e
       0.43861607 0.19789654 0.5843351 0.41931322
000120 1e 58 2c 3f 98 a7 91 3e 40 25 ed 3e 36 55 9b 3e
       0.67321956 0.28448176 0.46317482 0.30338448
000130 a2 89 95 3e 22 a0 ea 3e c9 47 f7 3e 18 a3 b2 3e
       0.29206568 0.45825297 0.48296955 0.34890056
000140 d0 04 1e 3f bb e0 dd 3e 40 da 05 3f 89 47 1a 3f
       0.61726093 0.43335518 0.5228615 0.60265404
000150 08 5d b0 3e ea cd 19 3f 81 31 87 3e
       0.34445977 0.60079825 0.26404956

v.v_net.0.weight f4 [64, 282]
000000 a9 39 95 3e 3f 40 08 bf 4e cb 6e bf 51 72 c4 bc
       0.29145554 -0.5322303 -0.9327897 -0.023980292
000010 e0 88 fe be dd 2d 12 bf 9c 41 ab bd ea 48 fc bc
       -0.49713802 -0.5710123 -0.08362123 -0.030796487
000020 a0 92 70 bf 94 a1 87 bf fc 00 da be 68 51 01 bf
       -0.9397373 -1.0596185 -0.42578876 -0.5051484
000030 ad 63 b4 3e f8 3a 76 bf b4 ae fc be 40 fc 0c 3b
       0.35232297 -0.9618373 -0.49352038 0.0021512657
000040 74 7b 80 3e e5 e5 23 bf b4 68 f5 be 99 ac 53 3e
       0.25094187 -0.64022666 -0.47931445 0.2067131
000050 4f 8f 8e 3e 61 97 db bc 4f 94 7b bf 8f 67 0a bf
       0.2784371 -0.026805582 -0.98273176 -0.5406427
000060 12 02 9d bf 68 98 6b bf 35 a4 2e 3e 77 60 26 3e
       -1.2266257 -0.9202943 0.17054828 0.16247736
000070 ba 42 a5 bd 63 12 af 3e e8 cf f8 be 2f b6 65 bf
       -0.08069368 0.34193715 -0.4859612 -0.89731115
000080 fc 85 ea be 80 00 03 bf 9f 0b 13 3e 8e 15 bb bd
       -0.45805347 -0.5117264 0.14359902 -0.091349706
000090 bd 94 03 bc 5b 23 62 bf cc c6 e1 be 6c 4b 7b bf
       -0.008031067 -0.883352 -0.44096982 -0.9816196
0000a0 be 41 61 bf 98 3c dc be ac b7 76 bf c4 04 70 bf
       -0.8799094 -0.4301498 -0.9637401 -0.9375727
0000b0 0d 52 82 bf 92 f5 68 bf 98 fa fc be c4 b8 f9 be
       -1.018129 -0.9099971 -0.49409938 -0.48773777
0000c0 54 af d9 be 6e 25 d9 3b cf e9 4c 3e f1 94 99 3e
       -0.42516577 0.0066267764 0.20011066 0.29996446
0000d0 08 6f 02 bf 06 1b 7c bf 7b f3 0d bf b0 c1 d8 be
       -0.5095067 -0.98478734 -0.55449647 -0.42335272
0000e0 ed 7c 01 bf 2b 24 0c 3e 32 d8 62 bf 45 07 3b 3e
       -0.50581247 0.13685672 -0.8861114 0.18264492
0000f0 a1 21 36 3e 50 c9 71 bf b2 2e a5 bd 46 7a 05 bf
       0.17786266 -0.94447803 -0.08065547 -0.521397
000100 5d 14 ff be a2 04 7e bf cb 37 82 bf 88 ae e9 be
       -0.49820223 -0.9922582 -1.0173277 -0.4564097
000110 41 82 63 bf 55 1d ab 3e 8f 08 ff be a4 08 30 bd
       -0.88870627 0.33420816 -0.49811217 -0.04297699
000120 98 ae 6d bf 73 06 57 bf 26 96 e8 be 84 60 85 bd
       -0.92844534 -0.83994216 -0.45427054 -0.065125495
000130 7d 00 02 bf 10 4d 88 bb b2 c5 cd bd 0c 50 73 bf
       -0.50781995 -0.004159577 -0.10047473 -0.95044017
000140 d2 4d e0 be 0a 6a ec be 79 de f6 bc a1 84 32 3e
       -0.43809372 -0.4617465 -0.03013538 0.17433406
000150 cc 2b 71 bf a9 0e aa 3e 95 0a fb be 43 50 63 c0
       -0.94207454 0.3321431 -0.4903151 -3.5517738
000160 b1 87 9d 3f db bf ce bf bd e0 6b be 86 f6 06 c0
       1.2307035 -1.61523 -0.2303495 -2.1087966
000170 61 42 9c c0 71 cc ea bd 0f 06 85 3f 91 91 a6 3f
       -4.883103 -0.11464775 1.0392474 1.3013173
000180 e4 ef d6 be eb 70 16 3f 6b 9e b2 3f 70 be ba 3f
       -0.41979897 0.5876605 1.3954595 1.4589367
000190 55 0e 04 be 84 5b 7f 3f f7 8e de bf 64 f9 d8 3d
       -0.12896092 0.99749017 -1.738738 0.105944425
0001a0 94 b2 6a 3f ba 78 ef be 78 d0 d9 3f a0 9c 68 c0
       0.9167874 -0.46771795 1.7016745 -3.6345596
0001b0 2f 03 35 3f bf 1c a5 be a2 f3 2c c0 51 25 32 3f
       0.7070798 -0.32248494 -2.7023702 0.6958819
0001c0 de b5 99 bf f7 d8 88 c0 1c 38 83 bf 09 30 14 bf
       -1.2008626 -4.276485 -1.0251498 -0.57885796
0001d0 b7 83 bb bf 1b 5e 39 3f 3a 0a 03 c0 8b 28 8e 3f
       -1.4649571 0.7240922 -2.0474992 1.1106123
0001e0 3f 85 3d 40 56 93 1d 3f 34 1f 12 c0 12 ee bf 3e
       2.9612577 0.6155294 -2.2831545 0.3748632
0001f0 82 a8 36 be 27 e6 4b 3f 57 5c 82 bf 97 36 3b bf
       -0.17837718 0.7964806 -1.018443 -0.7313017
000200 76 72 a3 c0 9f 1b 0e bf ed 9f 14 bf bb a2 97 bf
       -5.1077223 -0.55510896 -0.5805653 -1.1846536
000210 32 75 58 bf bd a0 cf 3f e6 c6 d2 3e 31 16 71 3f
       -0.84553826 1.6220928 0.41167372 0.94174486
000220 e4 76 99 bf bb f7 30 c0 80 ae 28 c0 82 bf 1b 40
       -1.1989408 -2.7651203 -2.6356506 2.4335637
000230 52 eb 99 be 2b 54 ef 3d d3 3a 27 bf 8a 55 b4 be
       -0.30062348 0.11685976 -0.65324134 -0.3522151
000240 ca f1 be 3d 0d 6e a4 3f b3 2f 20 c0 4c 30 d2 bf
       0.09323461 1.2846085 -2.5029113 -1.6420989
000250 ff a3 84 3f 5d 40 d7 be 08 da 26 40 7d fd 61 c0
       1.0362548 -0.42041293 2.6070576 -3.5310967
000260 32 9d 91 bf b6 6b e9 be ce ab c6 3e f5 e1 00 c0
       -1.1376097 -0.4558999 0.38802952 -2.0137913
000270 ca a1 dc bf e7 8d 01 40 2d 6a 6a be 19 2b 50 bf
       -1.7236874 2.024286 -0.22892065 -0.8131576
000280 ae 0e c4 3f 71 68 d2 3f df d4 11 bf 23 2e dd bf
       1.531698 1.6438123 -0.5696544 -1.7279705
000290 63 b6 8f 3f 78 3c 6c c0 08 85 c3 bf 4a 78 b4 bf
       1.1227535 -3.6911907 -1.5274973 -1.4099209
0002a0 a4 ba 86 3f 18 ab f9 bd c1 da ad c0 7e 50 b1 3f
       1.0525708 -0.12190837 -5.4329534 1.3852689
0002b0 ae 3e 31 c0 73 ef 6d bf db 7a ea 3f bd 6b bb 3f
       -2.7694507 -0.92943496 1.8318743 1.4642254
0002c0 56 a3 59 40 93 c2 cd 3f 58 59 51 3d d0 e4 96 3e
       3.4005942 1.6075004 0.051110595 0.29471445
0002d0 1e b3 a8 40 a5 ca 0f bf d6 5c 4d bf 0c 52 14 3f
       5.271865 -0.56168586 -0.8021978 0.57937694
0002e0 e4 61 48 c0 4f ec 24 40 ab 9c c3 40 db 06 c8 3e
       -3.1309748 2.5769231 6.1128745 0.3906773
0002f0 06 78 a5 3d 32 ac 86 40 13 c7 c2 3f 6f 1e 4a 40
       0.08079533 4.20852 1.5217003 3.1581075
000300 fc b6 04 c0 a5 d3 00 c0 53 4a 25 40 38 88 ee 3e
       -2.0736685 -2.0129178 2.5826614 0.46588302
000310 05 55 65 c0 e2 f8 b0 c0 87 51 37 3f 09 d8 bb bf
       -3.5833142 -5.530381 0.71608776 -1.4675304
000320 91 de 4d be 16 eb 05 3f 15 46 82 3f 4e 2d 0e c0
       -0.20104434 0.5231184 1.0177637 -2.2215152
000330 d7 82 3c bf 2c 2f 95 3d a8 9c 66 c0 d6 53 8d c0
       -0.73637146 0.07284388 -3.6033115 -4.416484
000340 35 3f 9e 3d 8c 08 7b 40 8e f1 80 be 6f a4 e6 3e
       0.077268995 3.9223967 -0.25184292 0.45047328
000350 e1 3d 9e c0 d2 58 5e 3f cd 0c 20 40 35 ee fe 3e
       -4.9450536 0.8685428 2.5007813 0.49791113
000360 b1 14 4b bf 26 ba 8e be e4 25 c5 3e 01 5e e5 3e
       -0.7932845 -0.27876395 0.3850547 0.44798282
000370 06 4e 10 40 96 3c 1c 40 c7 1b 6f bf 73 bc 12 3f
       2.2547622 2.4411979 -0.9340176 0.573188
000380 41 8b d4 3d df 0b d5 bf a9 4a 01 40 a3 77 77 3f
       0.10378123 -1.6644248 2.020182 0.96666926
000390 91 d6 b7 3f 37 b6 44 3d 18 44 f7 3f b5 2c 63 bf
       1.4362355 0.048025336 1.9317656 -0.8874009
0003a0 4a cf 7b 3d 96 51 78 bf 47 5f ab 3f 44 2c db 3e
       0.061476983 -0.9699949 1.3388451 0.4280721
0003b0 f7 ba ab 3e 8f 7c e7 bf f2 81 07 bf d3 c4 87 3f
       0.3354108 -1.8084887 -0.52932656 1.0606941
0003c0 ad c7 a0 3f c9 87 b2 3f 4e 3b 54 40 49 83 f1 bf
       1.2560936 1.3947688 3.3161197 -1.886819
0003d0 a1 d5 9a 3f 2a c6 f6 3e e4 f4 d6 3e 3b ab 41 3f
       1.2096444 0.48198062 0.41983712 0.756519
0003e0 98 e3 19 40 ea 3b 25 3e e2 8c 60 3e bb b8 eb be
       2.4045162 0.16136137 0.21928743 -0.46039376
0003f0 21 41 dd be 15 4f 84 3f 87 50 28 bd 73 f2 95 3f
       -0.43213752 1.0336634 -0.04109242 1.1714615

v.v_net.0.bias f4 [64]
000000 05 0d cf 3f ae 28 21 bf 7d 96 55 3f 42 47 fa 3e
       1.6175848 -0.629527 0.8343275 0.4888249
000010 08 ca 8e bf 49 a9 a6 3f 31 d3 8c bf 46 4b fa 3f
       -1.1155405 1.3020412 -1.100195 1.9554222
000020 cf 63 91 c0 5e 9e 5a c1 86 8a 85 c0 4b 36 30 c0
       -4.5434337 -13.663664 -4.1731596 -2.7533138
000030 ac f1 93 c0 a3 d2 e3 bf 06 f4 85 c0 a2 0e 1d 40
       -4.623251 -1.7798656 -4.186038 2.454018
000040 0f 31 0f be 15 06 4f 40 30 f4 17 c1 8f 3f 24 40
       -0.13983558 3.2347462 -9.497116 2.5663793
000050 72 8f 46 bf 28 5f 8d bf 0f 06 a7 c0 17 c3 04 c0
       -0.7756263 -1.1044664 -5.2194896 -2.0744073
000060 08 31 fd 3f 61 ea fb c0 df 83 87 40 35 d0 a1 c0
       1.9780588 -7.8723607 4.2348475 -5.056666
000070 d2 87 f6 40 c6 dc 89 40 4b d2 a9 bf 6a 9e b4 40
       7.7040796 4.3082 -1.3267301 5.6443377
000080 c4 c7 c1 3f 1b 59 05 c0 33 ed 04 c1 fb cd 8f bf
       1.5139089 -2.0835636 -8.30791 -1.1234735
000090 73 fe 3e bf 00 13 a4 40 a3 b5 d3 bf 59 37 0f 40
       -0.7460701 5.1273193 -1.6539806 2.2377532
0000a0 92 3a b4 c0 6e 72 22 c0 98 ff a9 bf 5a 63 05 40
       -5.6321497 -2.5382342 -1.3281126 2.084189
0000b0 6a 03 27 40 27 da 64 40 89 5c b3 be fb bb da 3f
       2.6095834 3.575815 -0.35031536 1.7088617
0000c0 6d 0f 9e be f4 67 60 c0 0b 6f 29 c0 6c 4e 9a c0
       -0.30871144 -3.5063448 -2.6474025 -4.822073
0000d0 6a dd 48 40 98 07 03 40 06 a2 13 c0 64 2e 86 40
       3.138514 2.0473385 -2.3067641 4.193163
0000e0 d2 ed d3 3f 4e cf 1b 40 02 49 10 c1 41 f8 4b 41
       1.6556952 2.4345279 -9.017824 12.748109
0000f0 30 b5 56 c0 08 db f2 3e 78 98 92 40 ca e0 d5 40
       -3.3548088 0.47432733 4.581112 6.68369

v.v_net.2.weight f4 [64, 64]
000000 cf 62 c5 bd 6d 42 b2 bf c9 eb 88 c0 05 1c 18 c0
       -0.09637987 -1.3926522 -4.2787824 -2.3767102
000010 1c 5e 04 3e e1 db 3e c0 b9 e6 1c 40 50 9d a2 3f
       0.12926525 -2.9821703 2.4515822 1.2704258
000020 ca 46 bb 3f 25 c3 96 c0 ae 3a da bd 0c c2 64 40
       1.4630978 -4.7113214 -0.106557235 3.5743437
000030 54 18 47 bf 80 21 00 c0 ba f9 c6 3e 25 ef b8 bf
       -0.77771497 -2.0020447 0.388624 -1.4447981
000040 ab 84 40 c0 da cd 1c c0 3c 31 02 40 52 eb 11 bf
       -3.0080974 -2.4500642 2.034255 -0.56999695
000050 3d 56 68 c0 62 30 a9 bf ae 74 00 c0 b7 b8 49 40
       -3.6302636 -1.321789 -2.0071216 3.151899
000060 39 a6 1a bf 65 b8 0e c0 71 33 bf bc 71 f9 2c 40
       -0.60409886 -2.2300045 -0.023339959 2.7027247
000070 4b bb 0e 3f 20 fc d0 bf 27 18 39 bf 19 8d 52 40
       0.55754536 -1.6326942 -0.7230248 3.289862
000080 27 b8 da 3f 59 6d 82 c0 b0 5c b9 bf 3b f2 69 c0
       1.7087449 -4.075848 -1.4481411 -3.6554096
000090 5e f2 84 bf c4 19 be be 74 84 09 40 3b bd 8b 40
       -1.0386465 -0.37129033 2.1487093 4.3668494
0000a0 d0 f0 01 c0 d1 dc 16 3f 83 56 46 c0 9e aa 09 bf
       -2.030323 0.5893069 -3.0990303 -0.53775966
0000b0 6a c4 8d 3f 39 bc c0 bd 14 89 31 bf 58 31 d8 3f
       1.1075566 -0.094109006 -0.6934979 1.6890059
0000c0 bd 40 84 c0 d4 f2 a2 bf 4c 36 f4 be 2f 51 1a 3f
       -4.1329026 -1.2730355 -0.47697675 0.60280126
0000d0 54 36 51 c0 d1 7d ab c0 2a 40 95 3f 5a 4c 02 41
       -3.268941 -5.3591084 1.1660206 8.1436405
0000e0 98 60 2f c0 18 33 a1 c0 0a 1b 4c 40 d9 ed 1d 40
       -2.7402706 -5.037487 3.1891503 2.467642
0000f0 f8 5e b4 3e 40 ef dc 3f ba 22 84 c0 26 d5 c3 c0
       0.35228705 1.7260513 -4.129239 -6.119769
000100 d8 16 8b bf 26 91 6c 40 34 d6 5e 3f 78 d9 07 40
       -1.0866346 3.6963592 0.870456 2.1226482
000110 ab e9 e5 40 d0 40 64 3f 1f 1d 34 3e e7 66 3a 40
       7.184774 0.89161396 0.17589234 2.9125307
000120 8b 43 15 40 c5 83 1b 41 f8 44 3a 3f 0c ce d5 3f
       2.3322475 9.71967 0.7276149 1.6703506
000130 3a 2c 90 3f 10 35 8f 40 9a d6 16 40 ff c3 67 bf
       1.1263497 4.4752274 2.3568482 -0.9053344
000140 a9 a9 8a 3e 4d 4b cd bd 00 9d e4 3f 2e fa 8f 3f
       0.27082565 -0.10024128 1.7860413 1.1248224
000150 1a 89 82 40 35 58 48 be 6a 94 55 40 a7 62 35 40
       4.079236 -0.19564898 3.3371835 2.8341463
000160 91 f0 df bf 3d b1 0f 40 48 3f aa bf 81 59 2f bf
       -1.749529 2.2451928 -1.3300562 -0.6849595
000170 40 b2 00 c0 22 33 80 c0 a0 72 a4 3f 3d a1 55 c0
       -2.0108795 -4.006242 1.2847481 -3.3379662
000180 7d f3 c5 be cc 9e 42 3e 92 a2 4e be 22 c4 97 3f
       -0.3866233 0.19005889 -0.20179203 1.185673
000190 e9 ad 00 c0 3a 78 00 c1 fc 0d 14 40 81 11 6f c0
       -2.0106146 -8.029352 2.3133535 -3.7354434
0001a0 38 fa 5b 40 82 63 70 c0 5d 69 28 40 91 f7 2a c0
       3.4371471 -3.7560735 2.6314309 -2.6713603
0001b0 26 4c 8d c0 eb b0 79 c0 b5 75 c8 bf f2 1c 2b c0
       -4.4155455 -3.9014232 -1.5660921 -2.6736417
0001c0 1c 99 2f c0 d5 c1 9a 40 24 d8 b8 3f 44 2a 2b c0
       -2.74372 4.836161 1.4440961 -2.6744547
0001d0 79 90 98 3d f2 bc 37 40 00 d6 48 3f 65 e6 c2 be
       0.07449431 2.8709073 0.7845154 -0.38066402
0001e0 45 de 7e 3e c8 e2 9f 3f 14 f8 25 40 1e de 85 3f
       0.24889477 1.2491083 2.5932665 1.045841
0001f0 b6 75 05 40 25 a0 d5 3f 01 bd a9 3f 16 d2 48 bf
       2.0853095 1.6689497 1.3260804 -0.78445566
000200 ab 08 35 3f 9b a5 8b 40 59 1c ac 3f 3b 93 f8 3e
       0.7071635 4.3639655 1.3446151 0.48549828
000210 d0 1e 09 c0 21 49 ca bf 2d aa 1f c0 cb 60 24 40
       -2.1425056 -1.5803567 -2.4947617 2.5684078
000220 98 c0 a5 bf 0a 1d a2 c0 b6 aa 47 c0 fe 2e 2d c0
       -1.29494 -5.066045 -3.1197944 -2.7059932
000230 0b 9b a0 c0 26 23 ef 3e 1c 0f a5 c0 b0 6b e9 3c
       -5.018926 0.46706504 -5.1580944 0.028493732
000240 65 2a 00 40 0f 7e d7 3f 4f 9f 33 c0 e7 de 50 40
       2.0025876 1.6835345 -2.8065984 3.2636049
000250 b4 6d c4 bf 78 ab 0c 40 b4 29 3d bf 55 6f 78 40
       -1.5345979 2.1979656 -0.7389176 3.8817952
000260 a7 84 a4 bf 68 c7 47 c0 a2 05 3b 40 6a 73 d9 3e
       -1.2852982 -3.1215458 2.9222188 0.42470866
000270 22 5c aa 40 4a b4 12 40 f4 22 0c bf b0 09 7a 40
       5.3237467 2.292254 -0.54740834 3.9068413
000280 0f 33 cd 3f 3b a1 3e 40 51 5a c8 bf fa 10 39 bf
       1.6031207 2.9785907 -1.5652562 -0.7229153
000290 27 b9 99 c0 5a 90 03 3e 9f cc 8c 40 4e c8 ef 3d
       -4.8038516 0.12848035 4.399978 0.11708127
0002a0 84 6a 8e c0 63 74 ee bf ac df 28 3f 70 95 39 40
       -4.4505024 -1.8629268 0.65966296 2.899746
0002b0 c2 f7 37 40 e5 e1 2d 40 eb 34 04 40 82 92 95 3f
       2.874497 2.7169125 2.0657299 1.1685336
0002c0 de e4 f9 3f 4f 8e 3b c0 9e 5f 58 c0 99 3e 4e c0
       1.952297 -2.9305608 -3.380836 -3.2225707
0002d0 d9 1c cc bf 68 9f 46 c0 7d f0 8d c0 99 37 cf 40
       -1.5946304 -3.1034794 -4.4356065 6.475537
0002e0 ad fc e7 bf 39 ac 41 c0 df 94 d1 c0 2e ae e0 40
       -1.8123986 -3.0261366 -6.5494227 7.021262
0002f0 ef 9d b5 bf e9 35 36 40 73 f7 f4 be 18 0c c3 40
       -1.4188823 2.8470404 -0.4784504 6.0952263
000300 7c af 05 c0 93 7c 18 3f dd 8c df bf c4 83 25 c0
       -2.0888357 0.59565085 -1.7464863 -2.5861673
000310 66 7b 6a c0 87 06 82 c0 3e f8 b2 c0 eb 30 f9 3f
       -3.6637816 -4.063297 -5.592803 1.9468054
000320 a2 f5 54 c0 ff 8f 64 40 43 de dd 3d 3e 26 36 c0
       -3.3274922 3.5712888 0.10833409 -2.846084
000330 c2 5d 26 c0 2c 68 27 bf 4a dd ae 3f 12 bf 19 be
       -2.5994725 -0.6539333 1.3661282 -0.15014294
000340 98 a7 b7 3f 66 25 91 c0 e0 30 87 40 a8 7d 4c c0
       1.434802 -4.5358152 4.224716 -3.1951694
000350 86 96 03 3f 39 2a b4 40 1e 44 95 3f e5 66 95 40
       0.51401556 5.630154 1.1661413 4.6688104
000360 6d 4f 76 40 b9 9e 83 c0 5a df 0f 40 d3 01 24 c0
       3.8485978 -4.1131253 2.2480073 -2.5626113
000370 15 58 94 bf 9c 62 38 40 ac c0 24 c0 19 97 d3 3f
       -1.158938 2.8810186 -2.5742598 1.6530486
000380 aa 3f b2 be ec f9 d3 3e 6e c9 cf bf 51 8e 92 3e
       -0.34814197 0.41401613 -1.6233346 0.28624204
000390 94 7b cc bf 0d b6 a1 40 a2 24 32 c0 dd 69 0d 40
       -1.5975213 5.053473 -2.783486 2.2095864
0003a0 cf 97 3e c0 08 07 5d c0 92 e6 68 c0 11 b8 6e 3f
       -2.9780157 -3.4535542 -3.639073 0.93249613
0003b0 e4 e2 0c 40 66 21 f2 3f 5c 52 e3 bf 57 a1 1c 40
       2.2013483 1.8916442 -1.7759509 2.4473474
0003c0 92 62 02 40 5d 5b 23 3f 2d 66 6e be cf 2e 16 bf
       2.0372663 0.63811284 -0.23281164 -0.58665174
0003d0 7c 00 47 c0 9d 7f 4a c0 0e ef 80 3f f8 c1 fe 3f
       -3.1094046 -3.164039 1.0072954 1.9902945
0003e0 97 2d 6b be 04 88 13 c0 37 00 92 40 c8 9b b1 be
       -0.2296661 -2.3051767 4.562526 -0.34689164
0003f0 bd ce 3f 3f f2 ec b3 3f 49 01 a9 bf fe a4 5e c0
       0.7492483 1.4056685 -1.3203517 -3.4788203

v.v_net.2.bias f4 [64]
000000 4f ac 86 3f c3 34 96 be 1e 99 18 bd df b1 e9 3f
       1.0521334 -0.2933713 -0.0372554 1.8257407
000010 ff 7e b0 bf 1a 4b 8f 3f 91 da e9 bf 51 f8 bd 3f
       -1.3788756 1.1194794 -1.8269826 1.4841405
000020 4e 46 59 be 7c 6e 23 bf 7d e8 55 be 13 85 ea 3f
       -0.21218225 -0.6384046 -0.20889468 1.8321861
000030 0d 44 86 bf 27 95 42 c0 fe 59 5a bf 03 46 b7 3f
       -1.0489517 -3.0403535 -0.8529357 1.4318241
000040 7f d6 06 40 cb 27 f9 bf 85 71 01 bf b5 d8 74 3f
       2.1068418 -1.9465269 -0.5056384 0.9564317
000050 a2 50 94 3f b0 da 7d 3d 46 d4 14 40 78 4d 2d bf
       1.1587107 0.061976135 2.3254561 -0.6769633
000060 2f d8 28 bf 68 9e 3b bf b2 d0 6f be 18 74 08 3f
       -0.6595487 -0.73288584 -0.23419455 0.53302145
000070 93 d5 5e bd 8a b9 66 3e 41 30 a3 3d d3 b7 2f 3f
       -0.0544029 0.22531715 0.07968188 0.6863987
000080 a6 b9 bf bf 3e 72 f0 3e 67 67 06 40 82 1d 88 be
       -1.497853 0.4696216 2.1000612 -0.26585013
000090 64 ca b9 bf 89 5a 57 bf 98 d0 72 bf 52 af ba bf
       -1.451489 -0.8412252 -0.9484954 -1.4584754
0000a0 69 00 1a 3f 7e 18 8f 3f 90 e2 08 c0 ee 8e 19 c0
       0.60156876 1.117935 -2.1388283 -2.3993487
0000b0 23 66 26 c0 b7 6a 2c 3f 25 e0 46 3f ed 0d 8a bf
       -2.599984 0.67350334 0.7768577 -1.07855
0000c0 be 1e a9 3f 69 c2 90 be 91 cc ee 3f 6c 03 1e 40
       1.3212507 -0.28273323 1.8656179 2.4689589
0000d0 52 da 27 bf 4e 9f bf bc 5f 2d 46 bf 77 7f c0 be
       -0.65567505 -0.023391392 -0.7741298 -0.37597248
0000e0 c1 bd a0 3f 47 31 0e bf ec 50 b9 3d 0d 38 b3 bf
       1.2557908 -0.5554394 0.09048638 -1.400148
0000f0 a6 d1 a9 be 29 3a 91 3f fc 7a f9 bf 99 69 26 3f
       -0.33167762 1.1345874 -1.9490657 0.6500488

v.v_net.4.weight f4 [1, 64]
000000 39 e5 1f 41 d7 93 90 c1 33 94 fa 41 17 9f 31 41
       9.993463 -18.072187 31.322363 11.10134
000010 5d 33 4c c1 27 ac c7 c1 1f 6a 52 c1 7d 39 80 41
       -12.76254 -24.959059 -13.150908 16.02807
000020 d8 f2 9d c1 b3 62 4a c1 5f 3e 5b c1 08 66 92 41
       -19.743576 -12.6490965 -13.702727 18.29982
000030 ed 49 a0 c1 c0 11 9c c1 d0 7d 13 41 ad 3b 82 c1
       -20.036097 -19.508667 9.218216 -16.279139
000040 b4 41 02 c2 05 d8 58 c1 b1 9d 8c c1 0c 86 dd 41
       -32.564163 -13.552739 -17.576998 27.690453
000050 e6 9c 3c 41 5c 08 74 c1 66 d2 1c 41 b9 a8 6d c1
       11.788305 -15.252041 9.801367 -14.853692
000060 5b b6 73 41 f3 af b5 c1 d3 dc 47 c1 31 ec 37 41
       15.23202 -22.710913 -12.491412 11.495164
000070 41 f2 f0 41 7c 7a e2 c0 67 cc 41 c1 a8 3e 5e c1
       30.118288 -7.0774517 -12.112403 -13.890297
000080 7d b1 4e c1 0f 3f c0 c1 85 9b e4 41 12 79 f9 c1
       -12.918332 -24.03079 28.575937 -31.184116
000090 eb 26 79 c1 6c 18 70 40 2a 2c e8 41 84 05 6d c1
       -15.572001 3.7514906 29.021564 -14.813847
0000a0 bc 8a 15 c1 97 7e 1c 41 9f 37 39 c1 45 2a 7e c1
       -9.346371 9.780906 -11.576079 -15.88532
0000b0 f2 9e bb c1 6f 8a 9b 41 d7 29 06 c2 65 2f 68 41
       -23.45261 19.442595 -33.54086 14.511571
0000c0 1d ad 08 c2 4d 55 8d c1 1e 20 36 41 de 92 f5 c0
       -34.169056 -17.66665 11.382841 -7.674178
0000d0 63 6b b9 c1 79 a5 9e 41 49 25 c0 c1 d9 ba a8 c1
       -23.177435 19.830797 -24.018206 -21.091234
0000e0 62 4e 1c 41 cd 20 74 c1 21 c0 98 41 c2 bb c4 c1
       9.769136 -15.258008 19.093813 -24.591679
0000f0 ac e7 ca c0 47 9e 65 41 48 27 f8 bf 6d 70 68 41
       -6.3407803 14.351142 -1.9386988 14.527448
