model_wts/s2_d1_m0.0_b1.0.ckpt (torch, 206875 bytes, 11 tensors)

pi.logits_net.0.weight f4 [64, 282]
00000000: accb 9bbd c3f9 8fbe ab40 4dbd 2391 c9bd
00000010: 97de f93c 317a 503c b99a 0abe 1de5 34be
00000020: af73 58bd 49f7 47bd ee78 81be acb1 86be
00000030: d596 d2bd 5f63 91bc 2942 253b 9dc3 90bd
00000040: 1029 84bd e606 93be 2f0e 92bc ce23 1abd
00000050: d09c 17be ddbc 07be 4e55 97be ea0e 273d
00000060: 6553 ccbd 01ea 4fbd bd35 c8bd bb52 03be
00000070: 8928 26be ff05 f3bd a586 63bd 1f37 d7bd
00000080: 418b 81be 0e94 1a3d 3359 bcbd 7d8c 1fbe
00000090: 2d98 d1bd e5e2 b6bd 6829 05bc 75ed cabd
000000a0: 8d5d aebd 28bb a1be 8610 28bd 234c 31bd
000000b0: 49dc 8ebe e661 18bd 743b f83c e440 fc3b
000000c0: 2440 82be 4fe1 fdbd bf47 81bd f2b1 4bbd
000000d0: 702b 5fbe 65c4 02bd 5427 90be a31a 1e3b
000000e0: 7bea 8ebe 80d1 76bd 470d 75bd 0ef7 22bd
000000f0: 4880 84bd 4d4c f0bd 3984 e3bd aa5e 50be
00000100: 4a47 5bbe b2fc 89bd 30d1 6ebd 9014 a2be
00000110: 7f7d 9abe 7e99 78bd a07e a4be b4f1 9cbd
00000120: ef44 d8bd 4021 87be 6da2 86be b3b3 f1bd
00000130: 20c4 85be b199 3cbe e588 ddbd 8328 d5bd
00000140: f01e 57be d93a 13bb 1b50 40be a1d1 a4bd
00000150: 3037 26bd 1f5e eebd 3e57 88be 02c3 3a3d
00000160: 71e5 8ebe 6197 b43d 7dcb 49be a300 34be
00000170: 72b4 043e 3bf4 623e 79fd 963e cf91 063e
00000180: 8b2b 673d 45ca c7bc 02f7 a1be 562a 1bbe
00000190: 50fe ebbc 7768 8b3e ee04 50be dd7f 483e
000001a0: f724 4cbe 7331 a03e 1814 393c 9f5a aabd
000001b0: 93b7 863e 01e0 f0be 37db 76bc 700c a8be
000001c0: 4756 b1bd 8f40 e3bd 9222 0e3c 5279 fd3d
000001d0: 544b 08bd a348 413e 25b5 0f3d a6e1 213e
000001e0: 4a7a 623e 84b6 a33e b2af 0cbe aa15 e03e
000001f0: 4124 973e fc5d 2bbd dc10 2d3e 70d0 5d3d
00000200: 688d 18bd 8efd 863e 9a72 773d 4a39 183d
00000210: 805a 6a3e e8ff 9abd 14dc 493e 884a 65be
00000220: 0cb5 f03d 8538 2f3b 89cd 1bbe 60ce e23d
00000230: 2d7a f8bb 63a2 f43e 9f7b 07bb 928d ba3e
00000240: c1b2 fd3c 1784 b83e 1354 d0bc 06f5 2bbd
00000250: 2c2b 993e 0b9c f63e 1bd4 2d3d 4ab6 09be
00000260: 75de 8f3d 3bb0 28be 00cc 453d b7b1 b1bd
00000270: c620 8ebd 510e 1d3e 2eeb 173f 72fa 1b3e
00000280: e005 3bbe 4c3e 593b 45f1 74be 7edb 44bd
00000290: 9882 353e 3823 db3d 35e7 833c 4cac 2dbd
000002a0: 2087 2fbd a44b 753e 4f71 253e b703 5abd
000002b0: 9ebd d2bc b83e ebbc 67d0 28be 9b4f 263e
000002c0: d4ac 1cbf a14f 293e 2a02 1dbf dba9 163e
000002d0: 7e99 983d 33a1 a0be b212 5b3e 38b4 5f3e
000002e0: 9450 e03e 25e5 113e e14f 81be 0ef0 9abe
000002f0: bfd3 503e 2d30 0fbf f2e8 07be d80c 053f
00000300: e5e1 33be 1c81 403f e638 56bf 03ae a73e
00000310: 2788 14be 4d9c f5be 3d84 44be e96e b53c
00000320: c0ab 933e 54cd 0b3e 198c 85bf d258 883f
00000330: 5874 7c3f 6059 1f3d 8764 9e3d 6460 013f
00000340: 8eb3 c33d 4920 113f e8eb 9ebe 2713 0e3d
00000350: 8cb7 87bd bf08 733d 1aea d33e abc1 00bf
00000360: 1427 61be cbff 5c3e 15b8 a33e 73ca 5cbe
00000370: 5d47 8c3f 347b 213f 51f2 54bf bacf aa3d
00000380: c462 133f f319 81be 3e95 fa3d 93f0 08be
00000390: 6eb9 39be 218f ad3e 70bf 0abb 58f6 9abe
000003a0: 7c2b 08bf 47d7 88bf 4966 f2be b60a 94bf
000003b0: be22 3fbe 6a10 0b3f 6202 9fbe 51f8 a3be
000003c0: a238 aabc 4010 6cbe 1c31 a2be f079 ad3e
000003d0: 2f23 cfbe a0ea 863e 7119 d3be ea02 bfbd
000003e0: 00a6 23bf f6fa 15bf fec7 aabe a031 1b3f
000003f0: 7f62 5a3e 504e 2e3f 7876 adbe 30af debe
-0.07607207 -0.2812024 -0.0501105 -0.09842136 0.030501647 0.012724445 -0.13535585 -0.17665525
-0.0528447 -0.048819814 -0.25287575 -0.26307428 -0.10282675 -0.01774758 0.0025216436 -0.0706856
-0.064531446 -0.287162 -0.017829029 -0.037631802 -0.14805913 -0.1325564 -0.2955727 0.040785708
-0.09976844 -0.050760273 -0.09775875 -0.12824528 -0.162264 -0.11866378 -0.05554833 -0.105085604
-0.25301555 0.037738852 -0.09196701 -0.15580936 -0.10234103 -0.089299954 -0.008127548 -0.099085726
-0.08513937 -0.315881 -0.041031383 -0.0432855 -0.2790244 -0.03720274 0.030301787 0.0076981653
-0.2543956 -0.1239649 -0.063125126 -0.04973025 -0.21793914 -0.031925578 -0.28155005 0.0024124763
-0.2791327 -0.06025839 -0.059827115 -0.03978639 -0.0646978 -0.11733303 -0.11109204 -0.20348611
-0.21413913 -0.06737651 -0.058304965 -0.31656313 -0.3017387 -0.060693257 -0.32127857 -0.07663289
-0.10560023 -0.26392555 -0.26295796 -0.11801853 -0.26126194 -0.18418004 -0.10817126 -0.104081176
-0.21007895 -0.0022465496 -0.18780558 -0.08047796 -0.040579975 -0.11639046 -0.2662906 0.04559613
-0.27909425 0.08817936 -0.19706531 -0.17578368 0.1295946 0.22163479 0.2949026 0.13141559
0.05643801 -0.024388442 -0.31633765 -0.15152869 -0.02880779 0.27228138 -0.2031438 0.19580026
-0.19935976 0.31287727 0.011296295 -0.08318066 0.2631193 -0.470459 -0.015066913 -0.3282199
-0.08659034 -0.11096298 0.008675234 0.12376656 -0.033274963 0.18875365 0.035084862 0.15808734
0.22116962 0.31975186 -0.13738897 0.43766528 0.29519847 -0.041837677 0.16900963 0.05415386
-0.03724423 0.26365322 0.060412027 0.03716401 0.22886086 -0.075683415 0.1971286 -0.22391713
0.11753282 0.002673657 -0.15215124 0.11074519 -0.007582924 0.4778014 -0.002067305 0.36436135
0.030969026 0.36038277 -0.025430715 -0.04198172 0.2991575 0.48165926 0.042438608 -0.13448444
0.07024852 -0.16473477 0.048290253 -0.086764745 -0.06939845 0.15337493 0.5934323 0.15232256
-0.1826396 0.0033148704 -0.23920162 -0.048060887 0.17725599 0.10700077 0.016101459 -0.042400643
-0.042853475 0.23954636 0.16156505 -0.0532262 -0.025725182 -0.02871643 -0.16485749 0.16241305
-0.61201215 0.16534282 -0.6133143 0.14713232 0.07451151 -0.31372985 0.2139385 0.21846092
0.43811476 0.14247568 -0.25256255 -0.30261272 0.20393275 -0.55932885 -0.13272455 0.51972723
-0.1756664 0.75197005 -0.8368057 0.32749948 -0.14505063 -0.4797081 -0.1919107 0.022147613
0.28841972 0.13652545 -1.043338 1.0652106 0.98615026 0.038903594 0.07734018 0.50537705
0.09555732 0.5668989 -0.31039357 0.034686234 -0.06626806 0.059334513 0.41389543 -0.50295514
-0.21987563 0.21581952 0.3197638 -0.21561603 1.0959278 0.6307862 -0.83182245 0.08340402
0.5757258 -0.2521511 0.12235497 -0.13373022 -0.18137142 0.3389826 -0.0021171235 -0.3026607
-0.5319135 -1.0690697 -0.47343662 -1.1565769 -0.18665597 0.5432192 -0.31056505 -0.32025388
-0.020778958 -0.23053074 -0.31678092 0.33882093 -0.4045653 0.2635088 -0.41230348 -0.09326728
-0.6392517 -0.5858606 -0.33355707 0.60622597 0.21326636 0.68088245 -0.33879447 -0.43493032

pi.logits_net.0.bias f4 [64]
00000000: 1de5 e0bc e39c 0cbe 8317 e8ba 4f45 1bbe
00000010: 5c74 c93d 6270 29be d2ec d03c c449 e13d
00000020: febd b1bc 39ae e5bd bbb8 bb3e b49a f7bd
00000030: f946 07bd b87b 763e 3847 393d aa19 d03d
00000040: 8ee2 28be 9e2a f43d 839c 3fbd 3235 8a3e
00000050: 67e9 27be f06c 42be f6b9 a9be 23f4 ce3d
00000060: bca0 1fbe 29cf 6d3e f7ba 09be b85b 00be
00000070: 03d2 133e f2a5 ba3e 8b33 6f3e 68f7 2d3e
00000080: 4a56 2c3e 21da 82be d8f6 fbbd 8f86 5b3e
00000090: 2beb 80be f125 8ebe f7c5 ea3d ee8a ef3d
000000a0: 8f36 163e 75a7 f23d 9088 1b3e a20e 5c3d
000000b0: 1724 df3b fa5a e0bd cd67 b4bd 2edd 3cbe
000000c0: e9ea 313e 91d4 a63d 6718 413e 0cd0 d73d
000000d0: f4a7 8fbd bcc6 1cbe 9505 0fbd 21f8 94be
000000e0: 7b15 26be fcfd c43d 1b31 9fbd 3531 903d
000000f0: 2323 033e 4b64 92be 41aa 67bd 8ea2 f73d
-0.027453 -0.13731723 -0.0017707202 -0.15163158 0.09836647 -0.16546777 0.02550355 0.11000398
-0.02169704 -0.11214871 0.36664376 -0.12090054 -0.03302667 0.24070632 0.045233935 0.10161145
-0.16492674 0.11922191 -0.04678012 0.2699371 -0.1639763 -0.18986869 -0.3314969 0.10105159
-0.15588659 0.23223557 -0.13450228 -0.12534988 0.14435582 0.3645473 0.23359506 0.16988909
0.16829792 -0.25557044 -0.12302941 0.21438049 -0.2517942 -0.27763322 0.1146354 0.116964206
0.1466925 0.11848346 0.15188813 0.053724892 0.006809722 -0.109548524 -0.08808861 -0.18443748
0.17374767 0.081460126 0.18856965 0.10537729 -0.070144564 -0.15310186 -0.034917433 -0.29095557
-0.16219132 0.09618756 -0.07773038 0.070406355 0.12806372 -0.28592142 -0.05655885 0.12091552

pi.logits_net.2.weight f4 [64, 64]
00000000: 4a4f 7bbf e5f8 ac3d ab38 813e 447b f9be
00000010: 4a50 a53d bcaf 34be 2b5e 95bc d620 003f
00000020: ef3d 563e fad9 833e 7eb3 56be a60d 2a3f
00000030: 914e 22bf 00b7 11bd 7488 2dbd 9361 463e
00000040: 4823 0abe 32bc 0e3f 80fd 42bf 3859 10be
00000050: 6f37 cf3c 9f0e 38be 9472 41be fc3e 3e3e
00000060: 19da 24be e5fb 303f 9dcd 8d3e 2053 9a3e
00000070: fb4d 28be 3ab2 b53d 5e8e 69be 7706 a23b
00000080: de39 313e 1e44 1c3e e68a 13be acac c93e
00000090: 4e35 7cbd 92be abbe bf0b c33e e645 713f
000000a0: a5e4 503f 21b1 cb3f 5c9d bdbe 9589 92be
000000b0: a45a 9c3e 7449 913e e8ad 0ebf 5e5f 203e
000000c0: 2423 dc3d ecc1 83be 5145 adbe 9483 b93e
000000d0: bfb5 0e3e e589 793e e03b 59be 25cd 8ebc
000000e0: 6758 4abe eed1 9d3d 06e9 973e 4fdc 5c3e
000000f0: 9e5b 083e 9818 1cbd 8a0c db3c 19bd 2f3e
00000100: 6766 36be a522 a33e d75a 773e eb30 e13e
00000110: 871e b9bd a3fa 093f b7c2 f83e 20c4 053f
00000120: 531c 043e 4967 dcbe 2bbe c7bd 22e0 cbbc
00000130: 8f4b 99bd 95a8 ce3d 729d ae3e 3ffc 57bc
00000140: 3b49 a5be 17ae 323f 61a8 933f 61cd 04bf
00000150: d891 fabe 6b29 29be 0a30 973e 4427 803f
00000160: ca61 823d 01e4 9fbd 508b a0be 7df8 cf3d
00000170: b6ce 8d3f 4640 933f f557 0f3f 05ba 883d
00000180: 3aa8 683f 3fcb 12be ad3a 5abe f637 ca3e
00000190: c081 95bd 956d dd3d 8539 e53e 266d b83e
000001a0: 2628 e43e 89e7 cf3d b7fb b0be 3ac4 8f3e
000001b0: b37f b5bc 6f56 af3e e42a 30be f1a1 0cbe
000001c0: 1d8d f63e c5ca 653f 663a 0f3f 3a54 1a3f
000001d0: a007 503c fa3a a23d 9653 7bbf b1ae 9d3e
000001e0: 068d 6bbf 6583 283f a3d5 10be 167a debe
000001f0: 9805 fa3e 9fd9 ecbe 6ea7 79be 5557 9bbe
00000200: 843b c33e a4c7 9cbe 5096 8bbd 8927 f9bd
00000210: a64e 40bd 6f1e 5e3f 37c8 df3d 7847 21bf
00000220: 5293 8a3e 2f73 53be 0736 cdbe 19c8 f3be
00000230: 4773 be3e f087 80bf c342 e83e f083 75be
00000240: 08db 003d 375f 51bf 2d4e f13e 86d8 19bd
00000250: dda0 893d f0d4 b13e 5299 f13c b066 c03e
00000260: 57e9 8ebc 95b8 abbe 310b 51bf bfa6 693e
00000270: 7b1d cfbe c707 13bf 3ab9 d43e c151 1f3f
00000280: bbf8 21bf fd8f df3e 030b 88be ff00 05bf
00000290: c3b4 483b b8d1 13be 9e94 e83e 02a0 b0bd
000002a0: f39c 0fbe e6da ccbd 9818 f03e 6794 5e3d
000002b0: e6f5 2a3d d6be af3e 54ad ddbd f440 153e
000002c0: 7461 a9be b7b8 3abf fb05 5dbe 4712 cbbe
000002d0: 0989 b63e 6b24 a5bd 4d00 afbe 902d 103d
000002e0: 868c 513e 4e6e 51bd 06a2 c63d 6cc1 2cbe
000002f0: 7176 92be 4557 673e 1c17 c03d 59a2 dfbf
00000300: 3210 80bd 705d 3fbe e65d 84bd cbdc 8c3e
00000310: 08f7 f83e 0d75 913c 06b1 223d 0149 94be
00000320: 2768 a8bd b11b e9be 4e57 babe 9916 883e
00000330: 9426 603d e13b c33c b825 89be f078 a6be
00000340: 6be0 f7be f412 0dbd b04f 97be 4325 d6bc
00000350: 4d0e c63e 97ad 9dbd 9339 be3c dd35 993e
00000360: 23be fdbd d95e 8bbf b24f dfbe f34c ab3e
00000370: b7da 153b 5a6d 1b3e 15c9 e13e 6886 543e
00000380: 2bf6 643f 3e44 1ebe 204f c5bd bde9 84be
00000390: 948f 033f 71a2 893f a3d1 18bd d98c 98be
000003a0: 5dc8 ca3e 125f 58bf dc77 6f3e e895 6ebf
000003b0: 671c 44be d8c9 8e3e f8f8 fb3d 3760 1c3e
000003c0: 4a4b f5be 4fa3 9abd f9d9 8f3f 3271 b3bd
000003d0: 755f febe 0ef8 7fbe e2c9 883e 72b3 ea3d
000003e0: 7ff8 093f 1cbe a73e 8d47 c3bb 1656 9cbe
000003f0: 416b 87bf 1b96 473f 80cd e3be afdc d23e
-0.9816786 0.0844591 0.25238547 -0.48726857 0.080719545 -0.17645162 -0.01823338 0.50050104
0.20922063 0.2575224 -0.20966908 0.66427076 -0.6340113 -0.035574913 -0.04236646 0.19373159
-0.13490021 0.55755913 -0.7616806 -0.14096534 0.025294987 -0.17974328 -0.18891364 0.18578714
-0.16098823 0.6913436 0.27695933 0.30141544 -0.16435997 0.08871885 -0.22808215 0.0049446183
0.17307231 0.1526036 -0.14408454 0.3938955 -0.061574273 -0.3354383 0.380949 0.9424728
0.81598884 1.591343 -0.37034118 -0.28620592 0.30537903 0.28376353 -0.5573411 0.1566138
0.1074889 -0.25733888 -0.33841947 0.362332 0.13936518 0.24369009 -0.21214247 -0.017431805
-0.19760285 0.077060565 0.2966997 0.21568416 0.13316199 -0.038109392 0.026739378 0.17161979
-0.17812501 0.3186237 0.24155746 0.43982634 -0.09039026 0.53898066 0.48586056 0.5225239
0.1290143 -0.4304755 -0.097530685 -0.024887148 -0.07485115 0.10090748 0.34104496 -0.013182699
-0.32282433 0.6979689 1.153576 -0.51875883 -0.48939395 -0.16519706 0.29528838 1.0011983
0.06366308 -0.0780716 -0.31356287 0.10154817 1.1078708 1.150399 0.55993587 0.066761054
0.90881693 -0.14335345 -0.21311446 0.3949582 -0.073001385 0.10811917 0.44770446 0.36020774
0.4456188 0.10151584 -0.34567043 0.28079396 -0.022155618 0.3424563 -0.17203861 -0.1373365
0.48154536 0.89762527 0.55948484 0.6028477 0.01269713 0.07921405 -0.98174417 0.3079734
-0.9201206 0.6582549 -0.14143996 -0.4345252 0.48832393 -0.46259782 -0.24380276 -0.30340067
0.38131344 -0.30621064 -0.06815779 -0.12165744 -0.046950005 0.8676519 0.1092686 -0.6299968
0.2706552 -0.20649408 -0.40080282 -0.476136 0.37197325 -1.0041485 0.45363435 -0.23976111
0.031458884 -0.8178591 0.47129956 -0.03756001 0.06720135 0.3473277 0.029492054 0.37578344
-0.01744525 -0.33539262 -0.816577 0.22817515 -0.4045218 -0.5743374 0.41547567 0.6223412
-0.6327016 0.43664542 -0.265709 -0.51954645 0.003062532 -0.1443547 0.45425886 -0.08624269
-0.14024715 -0.10002689 0.46893764 0.054340746 0.041738413 0.34325284 -0.10824075 0.14575559
-0.33082163 -0.729381 -0.21584313 -0.39662382 0.35651425 -0.08063587 -0.34179917 0.0351997
0.20463762 -0.051130585 0.09698872 -0.1687066 -0.2860599 0.22591884 0.09379408 -1.747142
-0.06253089 -0.18687987 -0.06463222 0.27512202 0.4862597 0.01775601 0.039719604 -0.28961948
-0.082229905 -0.4552894 -0.36394733 0.2657974 0.05472429 0.023832263 -0.2678659 -0.32514143
-0.48413405 -0.034441903 -0.29552984 -0.026140815 0.38682786 -0.07699125 0.023220813 0.29923907
-0.12389781 -1.088832 -0.4361549 0.33457145 0.002286596 0.15178433 0.44098726 0.20754397
0.8943812 -0.1545572 -0.096342325 -0.25959578 0.5139096 1.0752698 -0.0373093 -0.29794958
0.3960599 -0.84520066 0.23385566 -0.9319749 -0.1915146 0.2788837 0.123033464 0.15271078
-0.47909003 -0.0755068 1.1238395 -0.08761825 -0.49682203 -0.24996969 0.26716524 0.11460008
0.538948 0.3276223 -0.0059594573 -0.30534428 -1.0579606 0.7796342 -0.44492722 0.41183993

pi.logits_net.2.bias f4 [64]
00000000: 26dd 773e 2e04 1c3e f80a 76be 226d 6ebe
00000010: 9331 663d f28c d2be c20c bbbe 0cdb 8abe
00000020: ef33 2f3e bd02 9cbe 23c9 07bf 3711 143e
00000030: d0bf 3fbe 37ab c73e 33c9 21bc c841 db3e
00000040: 474b b9bc 92f6 003f 6249 53be c968 cc3c
00000050: 3d36 cbba d8eb 173f 6c36 ea3e d763 14be
00000060: 46d5 ffbd 5bea e0be 6dc1 78be c1c5 743d
00000070: 59a8 cb3e 53ac 03be 1b2f 56be 92f8 973d
00000080: 516a 723c e185 123e b19f 663e 8cb4 a8be
00000090: d503 83bd 0d3e 72be 2755 b1bc 41fd 1f3e
000000a0: 622d 9abe 13ff 40bf 570e cf3d df91 023d
000000b0: ca02 413e f1a1 d03b a4d0 0dbf eea6 eabd
000000c0: b2f9 83be a3b9 073f 03a3 383e 3f40 64be
000000d0: 1531 123d 09d3 333e 7619 a03c 741d 40be
000000e0: 3003 91be 0782 0ebf 13f9 703e 4e7b f1bc
000000f0: 98dd cb3b 8854 fdbd 6bdf 57be 0d25 2a3c
0.24205455 0.1523597 -0.24027622 -0.23283818 0.05619962 -0.41123158 -0.3653317 -0.27120245
0.17109655 -0.3047084 -0.53041285 0.14459692 -0.18725514 0.38997814 -0.00987463 0.42823625
-0.022618903 0.50376236 -0.20633462 0.02495231 -0.0015503835 0.59344244 0.45744646 -0.14491211
-0.124918506 -0.439288 -0.24292536 0.059758905 0.39776877 -0.12858705 -0.20916407 0.07420458
0.014795856 0.14308883 0.22521855 -0.32950246 -0.06397215 -0.23656483 -0.02164705 0.15623952
-0.3011275 -0.7538921 0.10110157 0.031877395 0.1884872 0.006366961 -0.55396485 -0.114576206
-0.2577644 0.53017634 0.18030934 -0.22290133 0.03569134 0.17560972 0.01954339 -0.18761235
-0.28322744 -0.55667156 0.23532514 -0.029477742 0.0062214844 -0.12369639 -0.21081321 0.01038481

pi.logits_net.4.weight f4 [87, 64]
00000000: e47f fe3d 34aa 65bf 4a2a 843e a8af 01bf
00000010: 3e0c 5e3e ab11 bfbe 8688 e03d ffd7 c53e
00000020: 0ba1 c33e 6a3a 673e c7c4 0fbe c2e7 08bf
00000030: edd0 3fbe 8d7e 203e 97b3 c1bd a35b 183d
00000040: 7991 083e d51c 963d 7bfd 503e bd09 013f
00000050: ff52 693e 5467 1f3e 3718 98bd 89a4 683e
00000060: ab63 683e 1a75 13be 7ad0 0fbe 6cfd d73e
00000070: ff93 8b3e 0a11 bc3c b054 b53c 4575 063f
00000080: f098 a93e 21a0 01bf b50d 273d 5f66 343d
00000090: 44ab 5f3e 26f5 89be d8cd fbbe 8bb7 183e
000000a0: db70 5abe 0ca2 bfbd 5ac4 423e 2bc0 2bbe
000000b0: ef1a 95be 2061 72be 3797 0ebe 9608 0bbf
000000c0: 6c81 e23e 06ff 20bc e890 a33e 9d6d 04bd
000000d0: 8e13 2e3e cd5b c2be 0941 e7be b05c 00bf
000000e0: a649 55be 2d52 50bc 1ee0 6e3e 9550 3fbd
000000f0: 3201 1e3f abd0 eebd 9a97 e5bc 6fe9 4abe
00000100: c181 163f 5f8d 95be 232f 4dbf 7fcf 573b
00000110: 9458 e8be c46d b83d 31c2 47bf d64b b73e
00000120: e01c 7f3f 386f 7abd 4235 203f 7c98 04bf
00000130: bf39 373f c5ec 3f3f 4121 10bf f3e4 103f
00000140: 54fb 293f 9edd d33d 7b4b fc3d 4533 cb3e
00000150: f434 1f3f 6d6b 193f 8e90 5e3f 91a1 be3f
00000160: 6df1 3fbf 7060 4abf d0d2 33bf ce91 56be
00000170: 5980 f7be 6428 22bf 5d04 b3bd 459e 7e3f
00000180: eff4 033f 2b78 fe3d f855 3f3f dcc2 39bf
00000190: 06e3 93bf ed61 39bf 45cd 53be d141 253d
000001a0: b0f2 bc3e bab6 b1be f7ab 423e 21b7 543e
000001b0: c33b 32bf 88f1 e5be 5878 e5be bc5a 413e
000001c0: 825b 2a3d 543c b9be b16d 3ebe 8eee 2c3e
000001d0: 1221 a4bf d1f7 0cbf c5f4 12bf d238 85bd
000001e0: 9927 2abf e656 df3d 2628 bf3e 0c4c 89bf
000001f0: f1bc 58bd 076b cbbe dccf 3ebe 8d98 0abf
00000200: 60ab 063f 8f65 a03f 6e58 863c b611 ff3e
00000210: 5732 6a3e 25f5 3ebf 6b00 36bf 8f91 89bf
00000220: f4f3 11bf 5667 963e 373e 5ebf 1ab6 78bd
00000230: 577b 99bf cd76 0f3e fcca 053e fb69 163f
00000240: c7e0 02be 1852 c83e 0991 d2bd 776b 383e
00000250: a355 7b3e 4e89 0a3f 5688 073f bf8c 033e
00000260: 5efc 063f f87c 62be 6b49 f93e 6fd9 edbe
00000270: 36ba 573f 700b 21be 7dd8 94bf 2208 67bf
00000280: 1ef2 2a3e 7038 803e 232c 2f3f 7b46 00bf
00000290: 0264 973f 8a2b 0abf b440 61bf 475c 173f
000002a0: 76cd 1ebf e9cd 28bf 384c 8cbc 51c5 07bf
000002b0: 84ec 183f 9742 8fbe af3a f8be e096 833f
000002c0: bbb3 3a3e 27e9 1b3f e590 75bc caee 15bf
000002d0: 528a a9be 077d b43e fc44 18bf 7b73 92bf
000002e0: 3488 1bbf 4a1d cbbe 619e ac3d b546 953f
000002f0: 1d17 6bbf 5973 523e 6fbc d2bd 89fc 19bd
00000300: 9cf8 d33e 648c 70bf e357 88bf c59a 46bf
00000310: 96f4 493f 8297 5cbe b423 31bc fb8b 6cbf
00000320: 7f82 1e3f d020 86be 20e4 07bf d460 e1bd
00000330: 7c97 13bd 291e 2c3e dcef 09bf 0676 f53e
00000340: 5397 b33e 7e5c d53e ccf0 64bf 53ae 6f3e
00000350: 8060 2c3f c56e 193d b4f6 e53e 8430 1fbf
00000360: 3cd1 81be 4c0a 00bf df74 473e 9e4b 003f
00000370: 6be9 003e 802b 36bf d024 563e 7038 cb3d
00000380: 8027 f53e b514 e9be b7ac 043f d4f0 e7be
00000390: aa98 debe 0f4c 7b3e b568 143f d0e8 0b3f
000003a0: 783d 84be b6e2 dcbe 5b41 123f 9d71 4bbf
000003b0: 71ec 24be 66a4 d4be 18a0 e4be 1458 e6be
000003c0: 1411 40be 2a9b 2d3f 6f0a 053f 12c2 cfbe
000003d0: 0d65 173f 3391 fd3e 88a5 ba3e d47a e6bd
000003e0: 626f b0be e211 8fbe e5ff 9a3f 67b7 41bf
000003f0: 895a af3f df8b bd3e 3761 3f3d 5816 533e
0.12426737 -0.89712834 0.25813514 -0.50658655 0.21684358 -0.37318167 0.1096354 0.38641354
0.38208804 0.22580877 -0.14039908 -0.53478634 -0.18732043 0.15673275 -0.09458082 0.037196767
0.13336743 0.07329718 0.20409195 0.50405484 0.22785567 0.1556676 -0.074264936 0.22719015
0.2269427 -0.1440014 -0.14044371 0.42185533 0.2726135 0.022957344 0.022135109 0.5252269
0.33124495 -0.5063496 0.040784556 0.04404294 0.21842676 -0.26944846 -0.49180484 0.14913766
-0.21332113 -0.0935708 0.19020215 -0.16772525 -0.2912211 -0.23669863 -0.13924871 -0.54309976
0.44239366 -0.009826427 0.31946492 -0.032331098 0.16999647 -0.37960663 -0.45166805 -0.5014143
-0.20828876 -0.012714905 0.23327681 -0.04670771 0.61720574 -0.11660894 -0.02802639 -0.1981561
0.5879174 -0.2920942 -0.8015005 0.0032930074 -0.4538008 0.09005311 -0.7803069 0.35800046
0.99653435 -0.061141223 0.62581265 -0.5179517 0.7157249 0.74970657 -0.5630074 0.5659935
0.6639912 0.103450045 0.12319084 0.39687553 0.62190175 0.59929544 0.8693932 1.4893056
-0.7497776 -0.790534 -0.7024355 -0.20954058 -0.4834011 -0.6334288 -0.087410666 0.9946025
0.51545614 0.12425264 0.7474055 -0.72562957 -1.1553657 -0.7241505 -0.20683773 0.04034597
0.36903906 -0.34709722 0.19010912 0.20772983 -0.6962244 -0.44910836 -0.44818377 0.18882269
0.041591175 -0.3617884 -0.18596531 0.16887876 -1.2822592 -0.5506564 -0.5740474 -0.06504978
-0.6646667 0.109052464 0.37335318 -1.0726333 -0.052914564 -0.39730093 -0.1863398 -0.54139024
0.5260525 1.2530993 0.016399588 0.498182 0.22870766 -0.7459281 -0.7109439 -1.0747546
-0.5701287 0.29375714 -0.8681368 -0.06072054 -1.1990765 0.14010163 0.13065714 0.58755463
-0.12781058 0.39125133 -0.102815695 0.18009745 0.24544387 0.5411576 0.5294241 0.12846659
0.5272883 -0.22117984 0.48688826 -0.4645495 0.8426851 -0.1572702 -1.1628567 -0.90246785
0.16693923 0.25043058 0.6842672 -0.50107545 1.1827395 -0.53972685 -0.87989354 0.5912518
-0.6203226 -0.65939194 -0.017126188 -0.53035456 0.59735894 -0.27980492 -0.48482272 1.0280418
0.18232624 0.6090264 -0.014988159 -0.5856749 -0.33113343 0.35251638 -0.5948026 -1.1441492
-0.60754704 -0.39670783 0.08428646 1.1662203 -0.91832143 0.20551814 -0.10289847 -0.037594352
0.4140061 -0.9396422 -1.0651821 -0.7757991 0.78888834 -0.2154217 -0.010811735 -0.92401093
0.6191787 -0.2619691 -0.53082466 -0.110047966 -0.03603314 0.1680838 -0.5388162 0.47941607
0.3507639 0.41672128 -0.89429927 0.23406343 0.6733475 0.037459154 0.44914782 -0.62183404
-0.25354946 -0.5001571 0.19478177 0.5011538 0.12589042 -0.71160126 0.2091248 0.09922874
0.478817 -0.4552361 0.5182604 -0.45300925 -0.43475848 0.24540733 0.5797227 0.5465212
-0.25828147 -0.43141717 0.57130975 -0.79470235 -0.1610582 -0.41531676 -0.44653392 -0.44989073
-0.18756515 0.67814887 0.51969045 -0.4057775 0.59138566 0.4952484 0.36454415 -0.11253896
-0.34459978 -0.2794333 1.2109343 -0.75670475 1.3699504 0.37020776 0.04672357 0.20613992

pi.logits_net.4.bias f4 [87]
00000000: efcd ff3d 7110 083f affc 363f c2c6 bb3e
00000010: 761d c13e 9b8b a2bd 0c27 063f c5bd 1f3f
00000020: a77a 9a3e c576 d53e f8c4 763e f7c7 c73d
00000030: 7392 d13e e813 1f3f 777c 703c eb83 873e
00000040: c887 ac3d 2dda ab3e c797 3c3f ecec e43e
00000050: 07a8 7a3e 754c 153f 6e90 393d b37f d43e
00000060: 22e6 e73e bfd4 e63e 6a06 b83e 8a18 d43e
00000070: 5880 293f 87d6 d93d 2291 b03e cd72 ac3e
00000080: 906f 2a3f 7c8f cb3e f42d a83e 568e 933e
00000090: 651b 8a3e 4385 1f3f e021 0d3f bd60 0f3f
000000a0: 0e5d a33e 31a5 023f 7b65 123f 6a2a bf3e
000000b0: 9ae6 0d3f 504b 0a3f 6935 053f 2bf4 d23e
000000c0: 9c32 413e be7a 1a3f d893 003f 2258 0c3f
000000d0: 2033 403e c231 f13e 7298 763e bf6c ad3e
000000e0: 4f4c eb3e 76c1 5b3e eb58 cd3e 5e5e b5bc
000000f0: 2bd5 c83e 5337 e33e 7e1d 903e cb8d a83e
00000100: e105 2f3f 3790 dd3e dfaf 833e 6700 183e
00000110: 8c8b f23e 81ca 103f 687e 043f e240 0b3f
00000120: a496 263f 7ea9 e93e 0b40 ae3e 6206 2a3f
00000130: c189 bc3d 0101 9b3e c57f 103f acae 6c3e
00000140: d8fe 0a3f e23a 333e b1bf 3d3f 3859 b73e
00000150: fc49 b13e 7187 aa3e 55f6 e33e
0.124904506 0.5315009 0.71479315 0.36675078 0.3771779 -0.07936784 0.5240333 0.6239894
0.301717 0.41692176 0.24098575 0.09754937 0.40932044 0.6213975 0.014678112 0.26467833
0.08424336 0.33564892 0.73669094 0.44712007 0.2447816 0.5831979 0.045303755 0.41503677
0.45292765 0.45084187 0.35942394 0.41424972 0.6621146 0.10636621 0.34485728 0.33681336
0.6657648 0.39757907 0.3284756 0.2881953 0.26974025 0.62312716 0.55129814 0.56006986
0.31906933 0.5103331 0.57186097 0.37337047 0.55429995 0.5402117 0.5203462 0.4120191
0.18866962 0.6034354 0.5022559 0.5482198 0.18769503 0.47108275 0.24081591 0.3387203
0.45956656 0.21460518 0.40106902 -0.022139724 0.39225134 0.44378147 0.281475 0.3292068
0.68368345 0.4327409 0.25720116 0.14843903 0.4737209 0.56558996 0.5175538 0.5439588
0.6507361 0.45637125 0.34033236 0.6641599 0.09205962 0.30274203 0.5644496 0.23113507
0.5429511 0.17502931 0.7412062 0.35810256 0.34626758 0.3330646 0.44523874

v.v_net.0.weight f4 [64, 282]
00000000: 334f 943f da77 11be 7342 e0bf 021d 1840
00000010: 34f0 16c0 09ad 04c0 d127 373f 97ad 443f
00000020: 2d26 e1bf e1bf d0be 0199 47be b87a ebbd
00000030: 231a 9c3f 53fa e3bf 326f ffbf 14c9 1940
00000040: 991f 8f3f 24ae 793f 4acc 15c0 9bf0 ad3f
00000050: b1a4 923f 37b3 453f 769e 573f 75bb 02c0
00000060: f3e7 3fbf 0ba9 debf 594f a93f f346 a83f
00000070: bbe7 373f c1c5 9a3f 4b77 febf d1b7 dbbf
00000080: 6306 8bbd bce1 00c0 7fdc a53f 4d2d 353f
00000090: 1182 4a3f 67ee d9bf f857 13c0 8182 e6bf
000000a0: 937d d9bf 8b10 4cbe c738 e4bf 35df e0bf
000000b0: ea8e 4e3f a157 ddbf 74be 16c0 4856 16c0
000000c0: 97f5 46be 9b42 4e3f 1b18 ad3f 0366 953f
000000d0: d3aa 8ebe 53ea e6bf 8f42 28be 3e37 12c0
000000e0: 84d6 ecbd 7bff a43f dd48 dabf cbdb aa3f
000000f0: 0d3f aa3f 97c1 e1bf 3bea 373f eec1 94be
00000100: bc41 ddbd 25df e7bf 29d7 15bf 41f4 66be
00000110: 2562 793f 51c8 993f 8412 ddbd a78f 413f
00000120: 21b4 dfbf 2aef 823f 61c3 64be d7e3 3b3f
00000130: 57f2 f0bd eb7f 4b3f 2838 1340 f384 e2bf
00000140: 0932 54be 7eac 14c0 e1d8 443f 57cb a93f
00000150: c972 e1bf a384 993f a9d6 84be 00b6 8dbf
00000160: 7876 3fbf 302d c23e 7e9a ebbf 692f d1be
00000170: cc7a 24be 85d5 0240 da1c 203f 5792 2c3e
00000180: 2079 623f 9f44 38bf 1938 b13e d571 853f
00000190: eaeb bb3f c7e7 023f a12e 19c0 903c 45bf
000001a0: cd3d ac3e b086 0540 59a4 a53e 7937 153f
000001b0: 96f2 a63e 8d42 eebf e472 6f3f 199d 45bf
000001c0: c909 ad3f 64d2 153e acfc 563f 3ee9 e33f
000001d0: 5e06 aebe e36f 9f3e d709 223f cf19 84bd
000001e0: 7c6f fd3e 0661 743f 3c7a e33d 5dd1 0440
000001f0: 48de 523d 18f0 ce3f 49f1 6e3f bed7 88bf
00000200: 1d9d 183f c2e9 473f 1ffd df3d 68c5 51c0
00000210: aefc 223f 8895 123f 96b5 7b3f 895c bd3f
00000220: 2bf4 4d3f 6521 c9bf 535e d23f 006e 813e
00000230: e125 3b3f c084 34bf f67e 92bf 4d26 b13f
00000240: 444d c1bf 695c 03be 2cee 4ebf 1f72 813e
00000250: 15fb 403f fa46 93be cae1 753f 7e9f 4dbb
00000260: 4602 d7be c853 b8bf c884 d2be 411d 02c0
00000270: a020 86be ec4f 293f b9fd b23f 8f18 d43e
00000280: 64ff 71c0 bbad 1f40 a958 6c3f 88a8 2f3f
00000290: 146d 01be cc04 1bbf d838 3f3f 9ff3 fc3f
000002a0: 6a82 d7be c402 bd3e 54d0 d43d 59f1 9c3f
000002b0: a14a eabf c87a 5240 c8ea 8e40 55b7 9a3e
000002c0: b923 353e a549 b33d ab29 b3bf 4b7d aebf
000002d0: 2953 1a3f 8d48 3cc0 c87c 7d40 ff3c 84c0
000002e0: fa76 e9bf 663e 7840 9e29 c73f d0ac 19c0
000002f0: b6c8 ab3f 8e42 0640 ec97 dabd 7cf1 3640
00000300: def8 35c0 6516 b43e 9f24 ccbf caf8 0ebf
00000310: 055f 8e3f 370e a23f 996a 0bc0 e146 a13f
00000320: 1748 a8bf ab9a c7bf 775f 3240 c0ec d43e
00000330: e5d8 4dc0 247d f93f 373f a9bf a6b4 2d3f
00000340: 428e e1bf 2cea a23f af48 04c0 16e2 4ec0
00000350: 8c33 ea3f 86b1 18bf 35d3 883f b608 ae3e
00000360: b250 863f 1d8e b3bf 08e9 08c0 65be d4bf
00000370: e1af 4cbf 8988 adbf 74b8 0fbf 9762 193f
00000380: c242 2b40 bb51 14bf c402 94bf a407 543f
00000390: 824d ef3f 31cc e7be 6969 9a3f b9c3 123e
000003a0: c5ec ddbf 706d 17bf 5e69 ba3f 5de1 0940
000003b0: e41e 58c0 c3e4 9abc 15c3 5c40 e88e 143f
000003c0: 6f5e b13f 68ef c23f 5a8c 74c0 a602 5fbf
000003d0: 6002 a4be 1094 283f ad4e d83e 79c0 1ec0
000003e0: a8fc 8cc0 ed71 9bbf 914b 1bbf e4b4 e4bc
000003f0: 7010 fbbf d9f7 b8bf e9f3 b4bf dfd2 653f
1.158667 -0.14205876 -1.7520279 2.3767705 -2.3584108 -2.0730612 0.7154513 0.7682738
-1.7589775 -0.40771392 -0.1949196 -0.11498016 1.2195476 -1.7810768 -1.9955809 2.4028978
1.1181518 0.9753134 -2.3405938 1.3589052 1.145651 0.77226585 0.8422617 -2.0426915
-0.749633 -1.7395338 1.322734 1.3146652 0.7183797 1.20916 -1.9880155 -1.7165471
-0.067883275 -2.0137777 1.2957915 0.7077225 0.79104716 -1.702588 -2.3022442 -1.8008577
-1.6991447 -0.19928186 -1.7829827 -1.7568117 0.8068682 -1.7292367 -2.3553743 -2.3490162
-0.19429623 0.8057038 1.3522981 1.1671757 -0.27864704 -1.804026 -0.1643164 -2.2846217
-0.11564353 1.2890466 -1.7053486 1.3348325 1.3300492 -1.7637204 0.7184178 -0.29054207
-0.108035535 -1.8114973 -0.58531433 -0.22554113 0.9741538 1.2014257 -0.10794547 0.7560982
-1.7476846 1.0229237 -0.22340156 0.7339453 -0.11764973 0.7949206 2.3003025 -1.7696823
-0.20722212 -2.323028 0.7689343 1.3265179 -1.7613155 1.1993603 -0.25945023 -1.1071167
-0.74790144 0.379251 -1.8406522 -0.40856484 -0.16062468 2.0442822 0.62544024 0.16852699
0.8846607 -0.7197971 0.34613112 1.0425364 1.468137 0.51134914 -2.393471 -0.77045536
0.336409 2.0863457 0.3235195 0.5828777 0.32606953 -1.861406 0.93534684 -0.77192837
1.3518611 0.14631039 0.83979297 1.7805555 -0.33989233 0.3114005 0.63296264 -0.06450235
0.49499118 0.95460546 0.11107299 2.0752785 0.051481515 1.6167021 0.9333692 -1.0690839
0.59614736 0.7809106 0.10936951 -3.2776737 0.6366681 0.57259417 0.98323953 1.4793864
0.80450696 -1.5713316 1.6435035 0.25279236 0.73104674 -0.7051506 -1.1444995 1.3839813
-1.5101705 -0.1282822 -0.8083217 0.2528238 0.7538312 -0.28765088 0.9604765 -0.0031375582
-0.41993922 -1.4400568 -0.4111693 -2.0330355 -0.26196766 0.66137576 1.398368 0.41424987
-3.7812128 2.4949787 0.92322785 0.68616533 -0.12639266 -0.60554194 0.7469611 1.9761847
-0.42091686 0.36916173 0.10391298 1.2261153 -1.8304025 3.288744 4.46616 0.30217996
0.17689408 0.08754281 -1.3997091 -1.3631986 0.6028314 -2.9419281 3.960741 -4.132446
-1.8239434 3.8788085 1.5559576 -2.4011726 1.3420627 2.0978122 -0.10673508 2.858489
-2.8433146 0.35173336 -1.5948676 -0.5584837 1.1122748 1.2660588 -2.1783812 1.2599756
-1.3147 -1.5594076 2.7870767 0.41586876 -3.2163632 1.9491315 -1.3222417 0.6785377
-1.7621539 1.2727714 -2.0669363 -3.2325492 1.8296981 -0.5964588 1.0689455 0.3399102
1.0493376 -1.4027745 -2.139223 -1.6620604 -0.7995587 -1.3557292 -0.5614083 0.5991606
2.6759496 -0.5793721 -1.1563344 0.8282416 1.8695529 -0.45272973 1.2063419 0.14332475
-1.7337881 -0.59151363 1.4563406 2.15438 -3.3768854 -0.01890791 3.4494069 0.5803056
1.3856944 1.5229311 -3.8210664 -0.87113416 -0.32033062 0.65850925 0.42247525 -2.4804976
-4.405842 -1.2144142 -0.6066218 -0.027918287 -1.9614391 -1.4450637 -1.4136935 0.8977489

v.v_net.0.bias f4 [64]
00000000: 0af9 58bf 2cce 0fc0 4e02 a03c 820b 96c0
00000010: 3b41 8dbf 2b03 15c0 180b 7ebe 8efc 6fbf
00000020: 11e6 a83f f5cf c5bd b98f 26c0 5727 5940
00000030: af97 3dc0 5454 55bf 0e99 1bbf e06f cb3f
00000040: 199c d7bf 71a3 63be c1e6 3b40 9eef 4640
00000050: d673 bcbe 9c73 993f 92fd c93d c51d 1040
00000060: 2452 c2be b12b c4bf 37be 35c0 b0be 9f3f
00000070: 1404 88bf cdd2 0940 a8c3 1e3f 22a0 a0c0
00000080: a3a7 a63f 4add 7ebf 8419 1840 2d73 493d
00000090: 2c13 b3bf f33c 89be a97d c440 0ca9 233e
000000a0: 5d6e b2bf 37be c9be ae7f 9fbf c23c 883f
000000b0: f496 cdbf d711 c9be dec2 0dc0 2647 a7bf
000000c0: 5cab c240 f6e5 babf 8c26 59bf 6dc3 cd3f
000000d0: 4141 12bf f45c 00c0 2b89 32c0 d16f 87bf
000000e0: 6c15 8b40 d1dc 46bf 118a 1940 c859 0b40
000000f0: 69b6 1840 9eb9 5140 523e 573c fe9e afc0
-0.84755003 -2.2469587 0.019532349 -4.688905 -1.1035532 -2.3283184 -0.2480892 -0.9374474
1.3195211 -0.09658805 -2.6025221 3.393026 -2.962383 -0.833318 -0.6078042 1.5893517
-1.6844512 -0.22230317 2.935959 3.108375 -0.36807126 1.1988406 0.09862818 2.251817
-0.37953293 -1.5325834 -2.8397348 1.2480068 -1.0626245 2.1534913 0.620173 -5.0195475
1.3019909 -0.9955641 2.3765574 0.049182106 -1.3990226 -0.26804313 6.1403394 0.15982455
-1.393993 -0.39402935 -1.246084 1.0643542 -1.6061692 -0.39271423 -2.2150187 -1.3068588
6.083418 -1.4601429 -0.8482444 1.6075264 -0.5713082 -2.0056734 -2.789622 -1.0580999
4.346365 -0.7768069 2.399052 2.1773548 2.3861334 3.2769542 0.013137417 -5.488158

v.v_net.2.weight f4 [64, 64]
00000000: 1095 60c0 cd49 23c0 b458 b8bf c7f3 fd3e
00000010: f4b7 85be 5d41 1fc0 3ad0 b5bf 2f00 2fbf
00000020: 6076 b83f 3108 0b3f c5ec 1cc0 83b8 3dbf
00000030: 0302 ca3f 28b6 d0bf a77c 77bf 8593 0b3f
00000040: 4b7c 22bf ad3e c13f 90cb b13f 7e24 e33d
00000050: 9702 04c0 2481 7240 acf4 1dbf d78f d2bf
00000060: a792 29c0 5ffa 35bf 79ed 98bd c6a0 0740
00000070: 71bc b6bf 1543 1f40 1b92 77bf 4bc4 fcbe
00000080: f16e 65bf 6400 e83d 3265 8f3f 8f2e d6bf
00000090: 6d01 e73f f835 8cbf 8e1f 7d3f 7c4f 973e
000000a0: c4e9 a73f 67b9 fb3f c7ff 893e e8f0 6fc0
000000b0: 0a63 5dc0 575a 7d3f fd8d 453f 49b2 59c0
000000c0: 9014 9840 3186 29bd 3ad3 ff3e d718 2f3f
000000d0: 7028 aebe 6295 32be 866d 19c0 e352 fbbd
000000e0: 37e6 acbf 4446 6fc0 adb8 7840 9120 d03f
000000f0: c024 d5bf b06f 973f ea28 9b40 28c8 a0bf
00000100: 404d 1c40 00ee 4940 56d3 093f b53a 2540
00000110: 2d79 24c0 7c08 5d3f e4de 35c0 16c8 92be
00000120: 4c0e b03e c37c 723f 9b4d 583e 1bd9 edbf
00000130: caaf 07bf 0003 cebe 93a1 3ebf 4619 04c0
00000140: e97a a5be 7d91 c93f 2fc6 1f3f 8673 f7bf
00000150: 721f 9340 be7a 0d40 8ba8 3f40 d034 57be
00000160: 9a51 7640 5c2b 843f 9b68 893f 7722 b53e
00000170: 66bf ff3f d83e a0bf b32d 483f 0613 8d3f
00000180: 33ea 4ebf 9fe6 4340 8249 b1be 555c bcbf
00000190: dbff 2740 8403 0a40 fb06 c43f d2f4 0bc0
000001a0: 6fcb 97bf 5921 2f40 2047 49c0 5da0 8a3f
000001b0: 51f1 3abe a129 86bf c770 a6bf bdf6 70be
000001c0: 033e 8dbf d3a6 083f 04d1 1e40 0843 573e
000001d0: 48d5 ab3e 2630 9d3f 46c3 9640 aca0 dcbe
000001e0: 14c5 87bd b2d9 0440 ec5e 40c0 a629 3240
000001f0: c7cb 03bf f1a9 81c0 086a 45be d354 b23d
00000200: 26f9 77bf 24a0 fabf 477f 533d 0611 273e
00000210: 7505 803f d370 c6c0 22d9 f6bf 82d1 93be
00000220: 720e 85be 5504 903d 0965 86c0 0669 56c0
00000230: c058 97bf 3f7c 3440 ebfc df3f d98f 83c0
00000240: 1f9f 093e 9ca4 913e 40a3 0640 0669 483f
00000250: 3b8d 8fc0 0af1 9cbf 9503 35c0 d87d 3bbf
00000260: bd06 893f 762f 95bc 5b42 9e3f 31a3 4240
00000270: 87f1 21c0 6787 9640 76b7 a7bf bceb 41c0
00000280: 4983 acbf 56a3 58c0 c163 5640 0ef2 753f
00000290: 362c fbbf 39d6 de3c f771 4640 c74a 713f
000002a0: a197 ad3f 60f0 8cbf 4473 853c 9cb3 9cc0
000002b0: d050 0841 30ac 533f 5f3d 0840 89e4 e8be
000002c0: 9784 72bf a50e f93f 0be8 a7c0 7cf0 11be
000002d0: 0b8e bfbd ee62 0dc0 f1eb 1ec0 2391 203e
000002e0: eb84 643f dd35 91bf 9021 11c0 b999 ae3f
000002f0: c9e8 da3f ef1d 0abf dbd5 0dc0 acb1 09c0
00000300: 24ed 3a3f 3a66 d03e 0496 c43f bb72 c8bf
00000310: 4aea 983f dfb2 a2c0 1fed 9cc0 905c 07be
00000320: 74ac fb3f 75ec 083f 882e 5fbf f357 76c0
00000330: cd24 9bbf a7b3 b7bf a38d 7f3e 9ca5 743d
00000340: 2473 1dbe 7fb0 d8bf 61b1 0c3f 848a e03f
00000350: 586e b3c0 fbc5 5a40 0944 76bf 4f25 24bf
00000360: 95e1 48bf 79d3 38bf 62af 953f 8a5f b73f
00000370: 2a77 cdbf 10dc a33f 794f da3f b55d 41c0
00000380: c57e ee3f af75 9cbf 6035 cb3f 499c bcbf
00000390: 5e15 e4c0 c7ce 65bf 7613 3240 9b9b 1640
000003a0: b116 2bbd b897 dcbe d49f 223f aa04 09c0
000003b0: b9de 8bc0 bbe8 8540 38af b23f 9d0a 03bf
000003c0: 96cc 8b3f 9169 89bf da2d 3cc0 43e4 3abe
000003d0: cfc3 933f 6d5d 03c0 ad28 b640 0d52 ecbf
000003e0: 0fd4 2140 cdb9 0840 c4d7 bf3b a276 97be
000003f0: e269 1e3e 0f99 64bf 55ff 8a3f ed62 38c0
-3.509098 -2.5513794 -1.440207 0.4960005 -0.26116908 -2.4883645 -1.4204171 -0.68359655
1.4411125 0.54309374 -2.4519513 -0.7410967 1.5781864 -1.630559 -0.9667458 0.5452197
-0.63470906 1.5097252 1.3890247 0.11090945 -2.062658 3.789132 -0.61701465 -1.6450146
-2.649576 -0.7108516 -0.07467169 2.1191878 -1.4276258 2.4884694 -0.96707314 -0.4936851
-0.8962241 0.113281995 1.1202757 -1.6732959 1.804731 -1.095397 0.98876274 0.2955283
1.3118215 1.9665955 0.26952955 -3.7490788 -3.4591699 0.9896597 0.7716978 -3.4015067
4.75251 -0.04138774 0.4996584 0.6839728 -0.34015226 -0.17439798 -2.3973098 -0.12271669
-1.3507756 -3.7386637 3.8862717 1.6259938 -1.665184 1.1830959 4.8487444 -1.2561083
2.442215 3.1551514 0.538381 2.5817082 -2.569896 0.8634107 -2.8417292 -0.28668278
0.34385908 0.9472162 0.21123354 -1.858188 -0.5300261 -0.40236664 -0.7446529 -2.0640426
-0.32320336 1.5747524 0.6241178 -1.933213 4.5975885 2.2106166 2.994662 -0.2101624
3.8487306 1.0325732 1.0735048 0.35377857 1.9980285 -1.2519178 0.7819473 1.102143
-0.8082611 3.060951 -0.34626395 -1.4715677 2.6249912 2.1564646 1.531463 -2.1868176
-1.1858958 2.7364104 -3.1449661 1.0830189 -0.18256117 -1.0481454 -1.3003167 -0.23531623
-1.103455 0.53379554 2.4815073 0.21021664 0.33561158 1.2280319 4.711337 -0.43091333
-0.066293865 2.075787 -3.0057936 2.783792 -0.51482815 -4.051995 -0.19278729 0.08707585
-0.96864545 -1.9580121 0.051635053 0.16315088 1.0001665 -6.2012725 -1.9285014 -0.2887078
-0.25987583 0.07032076 -4.1998334 -3.3501601 -1.1823959 2.8200834 1.749906 -4.1113095
0.13439606 0.284459 2.103714 0.78285253 -4.48599 -1.2261059 -2.8283436 -0.732389
1.0705181 -0.018211108 1.2364 3.0412104 -2.5303667 4.7040286 -1.3102863 -3.030013
-1.3477565 -3.3849692 3.3498385 0.9607247 -1.9622867 0.027201759 3.1007059 0.94254726
1.3561898 -1.1010857 0.016290314 -4.896925 8.51973 0.8268461 2.1287458 -0.45486858
-0.94733566 1.9457594 -5.2470756 -0.14251894 -0.093532644 -2.2091632 -2.4831507 0.15680365
0.89265317 -1.1344563 -2.2676735 1.3640662 1.710229 -0.53951925 -2.2161777 -2.1514692
0.730181 0.40702993 1.5358281 -1.5660013 1.1946499 -5.084335 -4.9039454 -0.13218904
1.9662004 0.53485805 -0.87180376 -3.849118 -1.2120606 -1.43517 0.24956374 0.05972825
-0.15375954 -1.6928862 0.5495816 1.7542272 -5.6072197 3.4183338 -0.96197563 -0.6411943
-0.7846921 -0.7219768 1.1694148 1.4326031 -1.6051991 1.2801533 1.7055503 -3.0213444
1.8632437 -1.2223414 1.5875664 -1.4735194 -7.1276083 -0.8976864 2.7824378 2.3532474
-0.041769687 -0.43084502 0.6352513 -2.1409097 -4.370938 4.1846595 1.3959723 -0.5118807
1.092181 -1.0735341 -2.9402986 -0.18251137 1.1544131 -2.0525773 5.6924653 -1.846254
2.528568 2.1363404 0.0058545787 -0.29582697 0.15470079 -0.8929605 1.0859171 -2.881038

v.v_net.2.bias f4 [64]
00000000: fe46 ef3e 60d8 8abf 9291 ecbd 89ea 623f
00000010: fdc5 e4be 9f39 ad3e 2fc0 003d 667f 82be
00000020: d27b a83f 94aa 9dbf 9476 9d3f f3aa 27be
00000030: 2456 323e 95a6 17bf 4de4 a83e 4a5a 4a3e
00000040: 79ff 2bbf 58ad 363e 3f69 3f3f b45f 9d3f
00000050: ebf8 9e3e 4090 90bf 431b b2be 05a1 afbf
00000060: 80bc da3e f71a 11bf 12de 9abe 43bb 5c3f
00000070: 0a61 3e3f 57a4 883e 173f 163f 99d5 8dbf
00000080: 79f6 8ebe 4e7d 19be d6cf 793f 8b0c 433f
00000090: 0968 403f 2875 1fbe 10ee 973e c50a a93f
000000a0: c2bc e4be e0e2 17bf 0c39 003f 7a40 db3e
000000b0: 132b 593f c132 11bf ff70 18bf 5ef7 1abf
000000c0: 8db0 be3f 2ffe 9b3f 6622 1b40 335d 113f
000000d0: a47b febe 3752 6dbe 7c88 c6be e17b f13e
000000e0: a15a 783f 4448 0d3f 702d 0c3f b40b 4d3f
000000f0: 13b4 94be a510 70bf ab0a dbbf c35c a33f
0.4673385 -1.0847282 -0.11551203 0.8863912 -0.44682303 0.33833024 0.03143328 -0.25487822
1.3162787 -1.2317681 1.2301812 -0.16373806 0.17415673 -0.5923856 0.3298668 0.19761005
-0.67186695 0.17839563 0.7476997 1.2294831 0.31049284 -1.1294022 -0.34786424 -1.3721014
0.4272194 -0.5668177 -0.3024755 0.8622324 0.7436682 0.2668788 0.5869002 -1.108081
-0.2792242 -0.14989206 0.9758276 0.76191014 0.75158745 -0.15572035 0.29673815 1.3206412
-0.4467526 -0.5933056 0.50087047 0.4282263 0.8483135 -0.5671807 -0.5954742 -0.605337
1.4897629 1.2186946 2.4239745 0.56782836 -0.49703705 -0.23175894 -0.38776004 0.47164825
0.9701329 0.55188394 0.5475683 0.8009598 -0.29043636 -0.937754 -1.7112631 1.2762684

v.v_net.4.weight f4 [1, 64]
00000000: 3a7b 0541 ee6e 30c1 8499 cac0 0297 b040
00000010: 8e3c 0cc1 a0e5 1bc1 e64b 2ec0 45cb adc0
00000020: 6b95 84c0 8d6f 2cc1 d212 acc0 9c07 b140
00000030: bd1a 2fc1 96a5 39c1 79ed abc0 0cf1 eac0
00000040: c499 01c1 42d0 a3c0 6794 9cc0 0230 2ac0
00000050: 8373 0f41 93c3 bc40 91d4 b4c0 7ac8 abc0
00000060: 4089 8740 5a0f e7c0 2029 bac0 6684 4141
00000070: d4b2 2f41 b047 74c0 0957 8cc0 5685 c640
00000080: 9ff0 18c1 2881 06c1 2ba7 9a40 c1aa cac0
00000090: d2de f6c0 3c03 8d40 fbad 2441 2eab be40
000000a0: e83b 02c1 d48e 8040 720a 85c0 8d09 88c0
000000b0: bfa6 2941 2410 6540 4ee9 98c0 8a3e db40
000000c0: c593 1341 9428 8840 a541 1c41 38ab 97c0
000000d0: d4a5 0bc1 5f4d c040 5302 8440 c6ca aec0
000000e0: 5296 0641 4803 b4c0 39d7 e941 52f8 21c0
000000f0: f6ff dec0 a4dc 75c0 2f3a 9ec0 40dc 2c41
8.342585 -11.027082 -6.3312397 5.5184336 -8.764784 -9.743561 -2.7233825 -5.431063
-4.1432395 -10.777234 -5.3772974 5.532179 -10.944028 -11.602926 -5.3727384 -7.3419247
-8.10004 -5.119172 -4.8931155 -2.6591802 8.965701 5.898874 -5.650948 -5.368222
4.235504 -7.220624 -5.81752 12.094824 10.981159 -3.8168755 -4.3856244 6.2037764
-9.558745 -8.406532 4.8329062 -6.333344 -7.7146997 4.406645 10.292476 5.958396
-8.139626 4.017435 -4.157525 -4.251166 10.6032095 3.5791101 -4.7784796 6.851384
9.223577 4.2549534 9.7660265 -4.7396507 -8.727985 6.0094447 4.1252837 -5.4622526
8.411699 -5.6254005 29.23009 -2.5307813 -6.968745 -3.8415918 -4.9446025 10.803772
