model_wts/s2_d1_m1.0_b0.0.ckpt (torch, 206875 bytes, 11 tensors)

pi.logits_net.0.weight f4 [64, 282]
-0.1357802 0.09196583 0.11086966 -0.18259057 0.06975004 0.022568064 0.16346757 0.12217077
0.108135656 -0.82395136 0.13100564 0.11009364 -0.16253608 0.14323188 0.012365808 -0.15485594
-0.12423909 0.017375842 0.021418408 -0.11259116 -0.20776325 0.16626741 0.12665172 0.05062967
-0.05144447 0.110220075 -0.17271988 -0.20320602 0.13656165 -0.17837033 -0.045703728 0.05589353
0.120151445 0.047582652 -0.16692804 0.14301656 0.19648145 0.071680605 0.031119429 0.061894078
0.075841986 0.068000555 0.11994888 0.117694885 0.14319955 0.12377728 0.06955016 0.046944633
0.12948608 0.17485856 -0.13808572 -0.10943821 0.16594388 0.12905437 0.091618344 0.041659407
0.09403505 -0.13521923 0.10115303 -0.1147459 -0.13965796 0.043645117 0.18773048 0.1803992
0.15903234 0.093603745 -0.06567937 0.067318514 0.07431105 -0.1204015 0.051889822 0.22218965
0.055378694 0.11212721 0.12092403 0.18080406 0.11190593 0.114645414 -0.19233915 0.05689803
0.17380537 0.037001044 0.11101938 -0.15543832 0.12040028 -0.17609748 0.117592536 0.21507338
-0.40005627 -0.15806676 0.008801051 0.073838316 -0.10170813 0.14469835 -0.2832662 0.07376626
0.063439324 0.02327095 -0.77964544 -0.17637879 -0.21418062 -0.7259197 0.29287997 0.06570183
-0.44917566 0.23767594 -0.13100146 0.013325319 -0.327565 -0.32581756 -0.26063243 -0.6364204
-0.1452882 -0.1738127 -0.15310982 -0.12101652 -0.11426462 -0.16555774 -0.17925934 -0.45198974
-0.59894425 0.16293637 0.08839406 0.15817675 -0.09818636 -0.67984825 -0.09543777 -0.07895861
-0.24604498 -0.02581316 -0.20086947 -0.63397765 -0.113322146 -0.5867206 -0.25455543 0.06856455
-0.27515015 -0.15884283 -0.26009992 0.09190974 -0.18297069 -0.3987604 -0.51013434 -0.525825
0.19316655 -0.24490125 -0.33286482 -0.19676182 -0.052815884 0.04247247 0.055188123 -0.307347
-0.14942127 -0.48614562 0.53650665 -0.48172247 -0.19877914 -0.1925351 0.14180583 -0.14583617
-0.19692634 -0.58872694 -0.05522728 -0.415896 -0.28650996 0.22287709 -0.25720823 -0.28497732
-0.23353584 -0.37725103 -0.10323836 -0.08791127 0.36587515 -0.21970086 -0.06486426 0.8804954
0.10138545 -0.57245326 0.3815175 -0.71092206 0.17547983 0.22786877 -0.2908935 -0.13289572
-0.6248479 -0.190302 0.22603767 -0.48369315 0.070211396 1.1901922 0.31096599 0.009928889
-0.7863225 0.35365617 0.08452142 -0.23532799 0.390267 -0.6377522 -0.14411366 0.23517181
-0.08767394 -0.5107356 -0.3335508 -0.86972237 -1.2423978 0.09933882 0.54636204 -0.4176589
0.041663185 -0.40542883 -0.83230495 0.96274036 -0.11818782 -0.50097114 0.2490877 0.13126452
0.36814094 0.11174792 0.25263873 -0.23818618 0.13375355 -0.29005054 -0.17184381 -0.12905276
0.04634309 0.31362277 0.35087305 -0.21750914 0.1312433 -0.029858794 0.09121419 0.23135209
-0.0028984973 0.81504035 0.041047126 0.17880309 -0.2623893 -0.04146628 0.22101144 -0.54568225
-0.52737814 -0.18584105 -0.073353775 0.48459345 -0.11946226 0.107735716 -0.08940811 -0.57982904
0.15032426 -0.5080743 -0.0052726376 -0.12093499 -0.41768372 0.1663831 -0.019619262 -0.1608966
00000000: f709 0bbe 9558 bc3d a20f e33d 06f9 3abe
00000010: 1cd9 8e3d a9e0 b83c 0b64 273e ab34 fa3d
00000020: 3a76 dd3d 7aee 52bf 5826 063e c678 e13d
00000030: dc6f 26be 61ab 123e f599 4a3c 8e92 1ebe
00000040: 1071 febd c857 8e3c a875 af3c 3296 e6bd
00000050: e4bf 54be 0142 2a3e fdb0 013e 0f61 4f3d
00000060: 70b7 52bd 10bb e13d 7bdd 30be 3d15 50be
00000070: d1d6 0b3e b6a6 36be d533 3bbd 9df0 643d
00000080: f611 f63d 07e6 423d 2fef 2abe ef72 123e
00000090: 6f32 493e 48cd 923d 2cee fe3c a584 7d3d
000000a0: 0b53 9b3d e043 8b3d c2a7 f53d 040a f13d
000000b0: e7a2 123e f17e fd3d 5070 8e3d 0449 403d
000000c0: 0098 043e 1f0e 333e 5866 0dbe 2421 e0bd
000000d0: 31ed 293e d426 043e 66a2 bb3d 0ea3 2a3d
000000e0: 7395 c03d e976 0abe 5229 cf3d e6ff eabd
000000f0: 7f02 0fbe 39c5 323d 6b3c 403e 91ba 383e
00000100: 60d9 223e 52b3 bf3d e882 86bd 4ade 893d
00000110: 6430 983d 1095 f6bd 6c8a 543d af85 633e
00000120: c5d4 623d f3a2 e53d 05a7 f73d b324 393e
00000130: f02e e53d 37cb ea3d 8ef4 44be e90d 693d
00000140: 09fa 313e 688e 173d 215e e33d 392b 1fbe
00000150: 6c94 f63d e652 34be 5bd4 f03d 323c 5c3e
00000160: 2dd4 ccbe 41dc 21be 4932 103c 8b38 973d
00000170: 5a4c d0bd ce2b 143e 4408 91be c412 973d
00000180: 7aec 813d b8a2 be3c d896 47bf a49c 34be
00000190: 2a52 5bbe e0d5 39bf 5df4 953e ae8e 863d
000001a0: 5afa e5be 5261 733e 3f25 06be 7052 5a3c
000001b0: 9ab6 a7be 8fd1 a6be 9d71 85be 73ec 22bf
000001c0: 6ec6 14be f5fb 31be d2c8 1cbe 82d7 f7bd
000001d0: 9203 eabd f887 29be c38f 37be 336b e7be
000001e0: 6954 19bf cbd8 263e f207 b53d 16f9 213e
000001f0: ee15 c9bd 890a 2ebf e174 c3bd 0db5 a1bd
00000200: 37f3 7bbe 1f76 d3bc bab0 4dbe 5c4c 22bf
00000210: 7115 e8bd 5233 16bf 1755 82be 926b 8c3d
00000220: 7be0 8cbe b2a7 22be d12b 85be 2c3b bc3d
00000230: ab5c 3bbe 532a ccbe 2a98 02bf 789c 06bf
00000240: 74cd 453e 65c7 7abe 426d aabe ee7b 49be
00000250: 7855 58bd 9df7 2d3d f10c 623d 965c 9dbe
00000260: e401 19be 14e8 f8be 8058 093f 54a4 f6be
00000270: c28c 4bbe ec27 45be 8c35 113e 1456 15be
00000280: 0fa7 49be cfb6 16bf 0036 62bd 52f0 d4be
00000290: 6fb1 92be e439 643e ccb0 83be 8ce8 91be
000002a0: 0524 6fbe 0c27 c1be a26e d3bd d30a b4bd
000002b0: fd53 bb3e 43f9 60be 8ed7 84bd 2668 613f
000002c0: 2da3 cf3d 4c8c 12bf 4356 c33e fdfe 35bf
000002d0: fcb0 333e 6e56 693e feef 94be d115 08be
000002e0: 08f6 1fbf 87de 42be 6b76 673e a1a6 f7be
000002f0: feca 8f3d 3858 983f ef36 9f3e c7ac 223c
00000300: 6e4c 49bf 6c12 b53e 9119 ad3d d2f9 70be
00000310: 14d1 c73e ba43 23bf 8892 13be e1d0 703e
00000320: 658e b3bd 91bf 02bf 2cc7 aabe 20a6 5ebf
00000330: e406 9fbf 2772 cb3d 62de 0b3f 63d7 d5be
00000340: 04a7 2a3d 5e94 cfbe f011 55bf 2776 763f
00000350: 750c f2bd a53f 00bf d910 7f3e 356a 063e
00000360: f87c bc3e 18dc e43d dd59 813e 14e7 73be
00000370: b1f6 083e 8181 94be d3f7 2fbe 6826 04be
00000380: 40d2 3d3d 2a93 a03e a2a5 b33e b7ba 5ebe
00000390: a564 063e 6e9a f4bc 81ce ba3d 90e7 6c3e
000003a0: b7f4 3dbb 7ca6 503f 0821 283d 2818 373e
000003b0: e457 86be 8cd8 29bd d350 623e d5b1 0bbf
000003c0: 4102 07bf 1e4d 3ebe 813a 96bd a21c f83e
000003d0: a1a8 f4bd 8ba4 dc3d 991b b7bd ad6f 14bf
000003e0: 9aee 193e 2811 02bf 17c6 acbb c4ac f7bd
000003f0: a4da d5be 5560 2a3e 93b8 a0bc 14c2 24be

pi.logits_net.0.bias f4 [64]
-0.13231824 -0.035633195 -0.11737784 -0.23292257 0.004491313 0.15463644 -0.2508747 -0.037208967
0.09911262 0.048624896 0.1883514 0.3179922 -0.21632516 -0.006483518 0.10923333 0.015069464
-0.048872855 -0.14772831 -0.08740557 0.015246709 -0.18476601 0.08412012 -0.078233965 -0.07792369
-0.07130071 -0.044307604 0.091035135 -0.05625045 0.32143354 0.14361508 0.2079307 -0.019708147
0.032751966 -0.009353038 -0.16333796 0.041012384 -0.2540315 -0.22643209 -0.09625996 0.0497013
-0.043205295 0.13407429 0.2938309 0.1402033 -0.23281637 -0.19906528 -0.0963507 -0.27043277
0.29118043 0.23753442 -0.056243904 -0.059064563 0.17925444 -0.19347277 -0.034515463 -0.019041305
-0.17713243 0.067978054 0.083736755 0.07186346 0.054116815 -0.06514748 -0.018126406 0.2015185
00000000: 6f7e 07be 1df4 11bd cb63 f0bd 4183 6ebe
00000010: dd2b 933b 0459 1e3e a672 80be 6e68 18bd
00000020: 8ffb ca3d e62a 473d 30df 403e e0cf a23e
00000030: 5884 5dbe b173 d4bb b9b5 df3d eae5 763c
00000040: e72e 48bd 1746 17be b101 b3bd 55cd 793c
00000050: 4d33 3dbe 2b47 ac3d 2139 a0bd 7596 9fbd
00000060: 1b06 92bd e47b 35bd a170 ba3d df66 66bd
00000070: f092 a43e d50f 133e c9eb 543e fb72 a1bc
00000080: ed26 063d 7c3d 19bc 1142 27be 9afc 273d
00000090: 6b10 82be d0dd 67be f123 c5bd 9793 4b3d
000000a0: 09f8 30bd c54a 093e 0171 963e 7491 0f3e
000000b0: 6a67 6ebe c5d7 4bbe 8453 c5bd 2a76 8abe
000000c0: 9a15 953e 393c 733e 0260 66bd afed 71bd
000000d0: 7a8e 373e ba1d 46be 1660 0dbd 83fc 9bbc
000000e0: 3462 35be 1438 8b3d 2d7e ab3d 262d 933d
000000f0: 98a9 5d3d 0b6c 85bd d47d 94bc de5a 4e3e

pi.logits_net.2.weight f4 [64, 64]
-0.3061787 -0.2351556 -0.3473652 0.31709284 -0.29645067 -0.019428378 -0.17939374 0.49879795
0.05075528 0.71919525 -0.3774054 0.64550173 -0.09767089 -0.47821742 -0.6169885 0.2234811
0.5060211 -0.24188302 0.5074388 0.15954205 0.13547677 -0.31524646 0.0924796 0.98798406
-0.01667776 0.7248515 0.3687834 0.11556115 0.16921471 -0.34624502 -0.39890882 0.055466283
0.4721322 -0.27650052 -0.5899993 -0.31590283 0.6374297 -0.4058201 0.04152505 0.15174505
-0.05407979 -0.19144805 -0.49151582 0.027546458 0.29656193 0.27263913 0.35564134 1.1585599
0.2984383 -0.46969536 -0.83532864 0.2054938 -0.19249041 -0.030013112 0.4298316 0.013885146
0.40239212 -0.15417796 -0.6452243 -0.57503104 0.053001773 0.0815568 0.46989986 0.011975672
-0.3500425 -0.72683096 0.33059227 -0.2508069 0.052715115 0.29984677 0.15774019 -0.122897
-0.59130645 -0.4323655 0.043822214 0.61716926 -0.076121815 0.84258264 0.05089439 -0.20971759
0.6552364 -0.17411081 -0.1275942 0.12625706 0.590831 -0.13121417 0.1271601 0.8116369
-0.28796083 0.47128287 -0.45773134 0.0806408 -0.3817832 0.78357464 0.49059448 -0.0296278
0.721647 -0.5576648 0.048832163 0.2813687 -0.283029 -0.5900184 0.7325391 0.4080757
0.4161092 0.3213857 0.6192654 -0.20315228 0.18901636 -0.82091606 0.015031863 -0.42831865
0.41905755 -0.034950633 0.031434633 0.123990916 -0.009830073 -0.029210946 0.39442086 0.16518967
0.053656776 -0.006484613 0.27851805 -0.014921533 0.42621538 0.13645433 0.33001763 0.4995419
-0.18020391 0.015818888 0.16194288 -0.42705667 -0.8299493 0.09105979 0.79440045 -0.163492
0.43318546 -0.08615358 0.40122852 -0.74132454 0.891774 -0.66190124 0.39515373 -0.28107074
-0.37379918 -0.44128343 0.40661556 0.16224727 0.06550691 -0.031526405 0.069883995 0.21764497
-0.06506832 -0.5682109 -0.3320914 0.1281849 0.046462085 -0.2714413 0.49446318 0.3025623
-0.13092603 1.0863634 0.053068537 -0.71195406 -0.092231296 0.035876926 -0.2599881 -0.34466058
-0.68625927 -0.22461076 -0.08192316 -0.0035499327 -0.21864751 -0.2523747 -0.13532878 0.45034268
-0.29661798 -0.923992 -0.4205372 -0.08101814 -0.027146114 -0.099880695 -0.15639248 -0.23476557
0.16948867 -0.027276542 0.44218633 0.34441963 -0.10479762 0.3207359 -0.4657282 -0.45854518
-0.48230562 0.37993604 0.54170716 0.18756966 -0.2915762 0.47105613 -0.082036994 -0.2212542
0.573772 1.1121038 -0.40308845 -0.29487088 0.32080308 0.0022608968 0.32991523 -0.5756349
0.12224705 0.008124722 0.25419444 -0.0023009717 0.3779904 0.09635738 0.23351416 -0.87680113
0.25812206 -0.60977423 -0.36188403 -0.25393972 0.14476281 -0.7864667 -0.6183459 0.3421732
-0.17493913 0.78260785 0.21717867 -0.22910179 -0.35257286 0.29839876 -0.20109431 -0.16280128
-1.0187961 -0.21323836 -0.27769125 -0.1822905 0.2947601 0.6008247 0.25040478 -0.21015584
-0.17928366 0.09576383 0.87118214 -0.49597937 -0.37784627 -0.016384147 -0.2755626 0.20467508
0.489708 -0.21741152 -0.21147428 0.023432625 -0.42211953 0.770754 -0.020295842 -0.42373732
00000000: 74c3 9cbe a1cc 70be dad9 b1be fe59 a23e
00000010: 62c8 97be 4328 9fbc feb2 37be 7262 ff3e
00000020: c5e4 4f3d 2e1d 383f 483b c1be 9a3f 253f
00000030: ad07 c8bd ead8 f4be f5f2 1dbf 3bd8 643e
00000040: 998a 013f 2fb0 77be 82e7 013f fe5e 233e
00000050: 6cba 0a3e fc67 a1be f265 bd3d 86ec 7c3f
00000060: cc9f 88bc de8f 393f 2ed1 bc3e 53ab ec3d
00000070: 9f46 2d3e 0747 b1be c73d ccbe 9d30 633d
00000080: 50bb f13e 7a91 8dbe 320a 17bf 04be a1be
00000090: 982e 233f a7c7 cfbe 2c16 2a3d 0e63 1b3e
000000a0: c582 5dbd f50a 44be f6a7 fbbe 1ca9 e13c
000000b0: f7d6 973e 5b97 8b3e 9f16 b63e b14b 943f
000000c0: e8cc 983e e97b f0be 19d8 55bf f76c 523e
000000d0: 351c 45be 0fde f5bc e312 dc3e 867e 633c
000000e0: 5706 ce3e d4e0 1dbe 6b2d 25bf 3c35 13bf
000000f0: 6318 593d 4007 a73d b796 f03e 9c35 443c
00000100: c538 b3be 9811 3abf 6443 a93e c369 80be
00000110: ceeb 573d 8485 993e a586 213e 6cb1 fbbd
00000120: dc5f 17bf 035f ddbe ec7e 333d cefe 1d3f
00000130: c1e5 9bbd 7fb3 573f a376 503d 35c0 56be
00000140: 93bd 273f 1b4a 32be 0ea8 02be 8849 013e
00000150: b340 173f 025d 06be 4236 023e 70c7 4f3f
00000160: 9a6f 93be fd4b f13e c35b eabe 0127 a53d
00000170: 1679 c3be 5998 483f 332f fb3e 00b6 f2bc
00000180: dcbd 383f 1fc3 0ebf 3c04 483d 8f0f 903e
00000190: 2de9 90be 720b 17bf af87 3b3f 4cef d03e
000001a0: 440c d53e ab8c a43e 2d88 1e3f 2707 50be
000001b0: 818d 413e 8e27 52bf 3448 763c 954c dbbe
000001c0: b68e d63e 6528 0fbd 9ac1 003d f3ee fd3d
000001d0: 510e 21bc cb4b efbc 88f1 c93e 7b27 293e
000001e0: 35c7 5b3d e07c d4bb eb99 8e3e 7279 74bc
000001f0: e738 da3e afba 0b3e 12f8 a83e f5c3 ff3e
00000200: 6087 38be 9d96 813c 5bd4 253e 2ca7 dabe
00000210: 8f77 54bf 8e7d ba3d d45d 4b3f 726a 27be
00000220: 7cca dd3e 4a71 b0bd d36d cd3e 72c7 3dbf
00000230: 4d4b 643f 5c72 29bf 9751 ca3e 81e8 8fbe
00000240: 9b62 bfbe e7ef e1be ea2f d03e 2624 263e
00000250: 7d28 863d d521 01bd 571f 8f3d 53de 5e3e
00000260: 8a42 85bd 4576 11bf e207 aabe e742 033e
00000270: 074f 3e3d 5bfa 8abe 472a fd3e 72e9 9a3e
00000280: 7911 06be f50d 8b3f 655e 593d 9f42 36bf
00000290: c3e3 bcbd aff3 123d 291d 85be 5a77 b0be
000002a0: b0ae 2fbf 5d00 66be 54c7 a7bd fda5 68bb
000002b0: 22e5 5fbe 4237 81be a193 0abe 5193 e63e
000002c0: 50de 97be bd8a 6cbf a750 d7be d7ec a5bd
000002d0: 8761 debc 408e ccbd 5a25 20be 6366 70be
000002e0: 708e 2d3e 0e73 dfbc 3f66 e23e c557 b03e
000002f0: 22a0 d6bd 7f37 a43e ed73 eebe 6fc6 eabe
00000300: c3f0 f6be fa86 c23e 52ad 0a3f 4312 403e
00000310: 7a49 95be 452e f13e 0303 a8bd 7690 62be
00000320: b9e2 123f 6b59 8e3f 9c61 cebe 51f9 96be
00000330: 4d40 a43e 8e2b 143b a6ea a83e cf5c 13bf
00000340: a95c fa3d 8e1d 053c c625 823e e6cb 16bb
00000350: f587 c13e 0557 c53d 561e 6f3e 0a76 60bf
00000360: 9328 843e 2a1a 1cbf dd48 b9be 6304 82be
00000370: b43c 143e e255 49bf eb4b 1ebf 5331 af3e
00000380: 3e23 33be fd58 483f 1664 5e3e a999 6abe
00000390: 6e84 b4be b9c7 983e abeb 4dbe 61b5 26be
000003a0: e967 82bf 285b 5abe 8c2d 8ebe 5caa 3abe
000003b0: ccea 963e a6cf 193f 0e35 803e 1833 57be
000003c0: 2396 37be d41f c43d cb05 5f3f 02f1 fdbe
000003d0: 1175 c1be 0c38 86bc 8b16 8dbe 5896 513e
000003e0: 02bb fa3e 20a1 5ebe b78c 58be c7f5 bf3c
000003f0: 0d20 d8be 2250 453f 7743 a6bc 19f4 d8be

pi.logits_net.2.bias f4 [64]
0.107793346 0.8706192 -0.41852152 -0.20477012 0.017871462 0.060718577 -0.4839747 -0.44540155
-0.14800389 0.21441956 0.2011523 0.022261992 0.026353506 0.21735403 -0.17297539 0.49613765
-0.08821514 0.7440662 -0.4286692 0.1109257 -0.0065145516 0.7016445 0.28940555 -0.15486687
-0.40537423 0.0110933855 -0.14409107 0.18017004 0.3317546 -0.011281756 -0.030047446 0.23676893
0.5836244 -0.6041733 0.3417639 -0.31762794 -0.1527939 -0.17579591 -0.5021266 0.096236095
-0.27522796 -0.12799968 0.576492 0.07029285 -0.10429913 -0.35895267 -0.20318939 -0.35256872
-0.1384564 0.20508315 -0.007340235 -0.19462414 0.078549325 0.04742833 0.09625099 0.016944727
-0.074460655 -0.3005836 0.38648888 -0.08613993 0.048324753 0.073824845 -0.30491516 -0.08491277
00000000: c2c2 dc3d e6e0 5e3f 7448 d6be 42af 51be
00000010: 2c67 923c 0bb4 783d 88cb f7be ac0b e4be
00000020: 558e 17be cd90 5b3e defa 4d3e c85e b63c
00000030: 4fe3 d73c 0e92 5e3e 7620 31be c105 fe3e
00000040: 24aa b4bd 1f7b 3e3f 887a dbbe 032d e33d
00000050: 0578 d5bb f99e 333f f72c 943e 6c95 1ebe
00000060: 368d cfbe 08c1 353c 9c8c 13be 7f7e 383e
00000070: bddb a93e 1dd7 38bc 1026 f6bc 8e73 723e
00000080: 6968 153f 1aab 1abf aefb ae3e 21a0 a2be
00000090: 0176 1cbe d803 34be 5e8b 00bf 6e17 c53d
000000a0: aeea 8cbe 5912 03be fb94 133f b3f5 8f3d
000000b0: c89a d5bd a5c8 b7be e110 50be e383 b4be
000000c0: 84c7 0dbe 5101 523e 5b86 f0bb 8d4b 47be
000000d0: 78de a03d 3544 423d 3d1f c53d abcf 8a3c
000000e0: d47e 98bd 18e6 99be dfe1 c53e 226a b0bd
000000f0: 2df0 453d 7b31 973d d71d 9cbe bfe6 adbd

pi.logits_net.4.weight f4 [87, 64]
-0.2615116 0.23398258 -0.4397177 -0.75810724 0.08719259 -0.81450963 -0.28125417 -0.4064173
1.0837822 -0.17580858 -0.19567868 0.915916 0.6226373 0.7412332 0.256008 0.21742415
0.29840204 0.23027988 -0.26975858 0.11205525 0.58412033 0.19338638 0.63671255 -0.35538808
0.07169482 -0.63658696 -0.2656186 0.1098239 0.6913828 -1.178902 -0.058685306 -0.1335718
0.0692002 -0.4599499 0.21127526 -0.32913056 -0.6159922 -0.523037 -0.48119065 0.8741451
-0.24621026 0.55227727 0.52429664 -0.69155943 -0.81585085 -0.64472127 -0.3683718 -0.8619445
-0.2999084 0.19177422 0.17561041 0.2197224 0.3367449 -0.2363554 0.1783813 -0.20337185
-0.2607163 -0.20867018 0.70006007 -0.04367267 -0.53741044 -0.38385153 -0.6484223 -0.12353331
0.6542992 0.6127055 0.23643754 -0.7482068 0.40378776 -0.44125485 -0.25113508 -0.19167235
0.00573955 -0.9701351 0.14660473 0.943435 -0.7517039 0.01352409 -1.8228912 0.4987361
0.14029726 0.06399312 0.6654325 0.57964694 1.5108364 0.28109726 -0.391018 1.0315814
-0.25054145 0.4929561 -0.1563192 1.7070305 -0.7990845 -1.5383297 0.91049373 0.92365307
0.9023379 -0.5279819 -0.38710758 -0.5604333 -0.45091504 0.29312757 -0.5385254 0.44414377
-0.66950583 0.5784345 -0.054582283 -0.38418087 -0.34236982 -0.59705395 -0.10817746 1.6231244
-0.4166195 -0.23435587 0.4130341 -1.1015302 0.44877106 -0.13305481 0.9380661 -0.693851
-0.67632663 0.41903755 -0.53599364 0.57711196 0.75058305 0.76001894 -1.0317827 -0.5934698
0.13334905 0.51934415 -0.56054807 0.39544824 0.10414819 -0.42833796 -0.04547845 -0.12974188
-0.5475336 0.74424005 0.33140507 -0.67141867 0.26679406 0.62845343 0.5098575 0.07344108
-0.38932094 0.5370701 -0.49769408 0.02330379 -0.081771016 -0.1486318 0.18788086 -0.015061107
-0.20230855 0.09187315 -0.44955036 -0.46872842 0.10408782 -0.5042572 -0.21107861 0.2040548
0.28777924 -0.34379888 0.07672552 -0.5050324 0.13695674 -0.34282273 -0.4393449 -0.6491311
0.18867457 -0.2337573 0.22507787 0.16624564 -0.31732053 -0.3233867 -0.4405506 -0.1406632
0.3433529 0.4631022 -0.31251 0.339611 -0.33366984 0.41420478 -0.23447897 -0.289519
-0.3331736 -0.14689301 0.13664271 -0.8631313 -0.21696667 0.15900558 -0.2181208 0.15163311
0.116805576 -0.15795772 -0.64320934 -0.48889464 -0.6380938 -0.13154002 -0.009383244 -0.16257039
-0.18220627 -0.34481618 0.94907427 0.313789 -1.0930841 0.9867677 -0.07426574 -0.1380727
-0.7155766 0.036906693 -0.17073843 -0.8728206 1.1686876 -0.39887288 0.6821276 -0.7318691
-0.58446497 0.66413474 0.71438783 0.7594549 0.62183136 1.3223689 -0.9015722 -0.9020536
0.3242462 -0.34670424 0.55516577 0.4761641 0.112314515 -0.07748296 -0.27678522 0.2644451
0.21892041 0.70508856 0.22466646 0.2160599 -0.3318337 -0.27874014 -0.85423064 -0.28655437
-0.1709239 0.40203273 -0.2672654 1.1546977 0.8732124 -0.08594781 -0.9753282 -0.19993715
-0.39909825 -0.14323492 0.1783538 -0.34150285 0.72637415 0.53136194 -0.31031546 -0.13692266
00000000: d9e4 85be 2199 6f3e ae22 e1be 5113 42bf
00000010: 0792 b23d b483 50bf 8c00 90be ee15 d0be
00000020: 60b9 8a3f 2a07 34be fe5f 48be 7979 6a3f
00000030: 2865 1f3f 76c1 3d3f 7b13 833e 70a4 5e3e
00000040: 27c8 983e 7dce 6b3e cc1d 8abe 397d e53d
00000050: e988 153f 1407 463e 98ff 223f 6df5 b5be
00000060: bcd4 923d 5df7 22bf 29ff 87be 5aeb e03d
00000070: 77fe 303f 43e6 96bf 0160 70bd 0cc7 08be
00000080: d6b8 8d3d 8e7e ebbe 8b58 583e cd83 a8be
00000090: aab1 1dbf c1e5 05bf 9f5e f6be f9c7 5f3f
000000a0: 8b1e 7cbe 0b62 0d3f 4e38 063f 0a0a 31bf
000000b0: 9adb 50bf 740c 25bf 3b9b bcbe 65a8 5cbf
000000c0: 988d 99be 7660 443e 37d3 333e e9fe 603e
000000d0: d469 ac3e 2607 72be 96a9 363e b640 50be
000000e0: 9b7c 85be a3ad 55be 2337 333f 1de2 32bd
000000f0: bb93 09bf 3088 c4be 01ff 25bf 08ff fcbd
00000100: 2780 273f 45da 1c3f af1c 723e 7b8a 3fbf
00000110: 45bd ce3e 28ec e1be c794 80be c245 44be
00000120: d612 bc3b c65a 78bf 8d1f 163e f584 713f
00000130: ab6f 40bf 2594 5d3c 8054 e9bf 575a ff3e
00000140: 16aa 0f3e d30e 833d c959 2a3f be63 143f
00000150: 1663 c13f fbeb 8f3e 8333 c8be dc0a 843f
00000160: f846 80be be64 fc3e 2412 20be fa7f da3f
00000170: cd90 4cbf fde7 c4bf 1e16 693f 8774 6c3f
00000180: 9eff 663f d229 07bf f732 c6be 8f78 0fbf
00000190: 56de e6be d114 963e cddc 09bf d066 e33e
000001a0: bc64 2bbf 4914 143f ac91 5fbd 5bb3 c4be
000001b0: 194b afbe 87d8 18bf 258c ddbd 8ac2 cf3f
000001c0: 274f d5be fcfa 6fbe 3579 d33e f1fe 8cbf
000001d0: 52c5 e53e 853f 08be 1a25 703f 38a0 31bf
000001e0: be23 2dbf 178c d63e e136 09bf 9cbd 133f
000001f0: 3626 403f 9a90 423f 7511 84bf a3ed 17bf
00000200: a78c 083e bdf3 043f 1480 0fbf 3178 ca3e
00000210: a54b d53d 1d4f dbbe 9c47 3abd 0edb 04be
00000220: 292b 0cbf 8486 3e3f edad a93e 18e2 2bbf
00000230: 3b99 883e 53e2 203f 0586 023f 4768 963d
00000240: 1355 c7be 6d7d 093f c2d1 febe 97e7 be3c
00000250: 9077 a7bd ef32 18be d763 403e ddc2 76bc
00000260: f929 4fbe fd27 bc3d 772b e6be 2cfd efbe
00000270: ff2b d53d 0017 01bf fe24 58be bef3 503e
00000280: cd57 933e 6806 b0be 4522 9d3d ce49 01bf
00000290: 633e 0c3e 7686 afbe d1f1 e0be 752d 26bf
000002a0: e833 413e 135e 6fbe d07a 663e 4c3c 2a3e
000002b0: d677 a2be f192 a5be d98f e1be 040a 10be
000002c0: f4cb af3e bb1b ed3e 5001 a0be 7ee1 ad3e
000002d0: c6d6 aabe a612 d43e 411b 70be d63b 94be
000002e0: bb95 aabe 1f6b 16be 11ec 0b3e 2cf6 5cbf
000002f0: 832c 5ebe 5cd2 223e 0f5b 5fbe b645 1b3e
00000300: c337 ef3d abbf 21be 5ea9 24bf 6650 fabe
00000310: 1e5a 23bf 6db2 06be 2ebc 19bc da78 26be
00000320: 4894 3abe bf8b b0be 88f6 723f f4a8 a03e
00000330: 2eea 8bbf cf9c 7c3f a318 98bd ee62 0dbe
00000340: 0730 37bf 792b 173d 0ed6 2ebe 2c71 5fbf
00000350: 8e97 953f 1139 ccbe ea9f 2e3f c65b 3bbf
00000360: 7f9f 15bf bc04 2a3f 1fe2 363f a36b 423f
00000370: 5730 1f3f 6243 a93f 70cd 66bf fcec 66bf
00000380: 9903 a63e 3883 b1be 581f 0e3f c8cb f33e
00000390: 2705 e63d 63af 9ebd cbb6 8dbe 5965 873e
000003a0: ac2c 603e af80 343f f70e 663e ce3e 5d3e
000003b0: 1be6 a9be 07b7 8ebe dcae 5abf 41b7 92be
000003c0: ad06 2fbe 3cd7 cd3e 03d7 88be 22cd 933f
000003d0: d98a 5f3f 6805 b0bd 1caf 79bf 53bc 4cbe
000003e0: 9b56 ccbe 2dac 12be 61a2 363e 76d9 aebe
000003f0: a8f3 393f 5607 083f abe1 9ebe 7435 0cbe

pi.logits_net.4.bias f4 [87]
0.24717341 0.5161379 0.47715315 0.26111615 0.3687104 0.24505855 0.21609256 0.3691584
0.27977577 0.5710033 0.35476547 0.43735945 0.2837913 0.36984953 0.19032149 0.5021927
0.35138687 0.43068177 0.26635176 0.5437487 0.16370985 0.3071725 0.106970534 0.44780412
0.42902902 0.24378408 0.3388053 0.38198683 0.4491407 0.44058275 0.39187354 0.15681474
0.3361456 0.3196582 0.5286098 0.0921045 0.10873906 0.07041808 0.14360622 0.3417772
0.3386653 0.66076094 0.12755047 0.11187283 0.26907244 0.52259684 0.35859117 0.4770719
0.30964264 0.5016159 0.2530432 0.4762687 0.13276611 0.22892429 0.08036805 0.01643786
0.7703776 0.5213147 0.16893433 0.18309718 0.5720974 0.23429005 0.19892952 0.55108887
0.48638508 0.21684505 0.43117476 0.15369914 0.46785486 0.2344306 0.35738575 0.20285591
0.11649694 0.27627707 0.43899995 0.27634037 0.32569647 0.24374269 0.2888851 0.33796614
0.2685199 0.58390737 0.5204319 0.31926468 0.15795559 0.5250971 0.5425725
00000000: 071b 7d3e 9d21 043f 6b4d f43e 04b1 853e
00000010: 9cc7 bc3e a1f0 7a3e 5e47 5d3e 5402 bd3e
00000020: c53e 8f3e 462d 123f d2a3 b53e 94ed df3e
00000030: 184d 913e eb5c bd3e a3e3 423e b38f 003f
00000040: fbe8 b33e 5282 dc3e 425f 883e 1d33 0b3f
00000050: 8ea3 273e b745 9d3e 5e13 db3d 9546 e53e
00000060: b1a9 db3e 89a2 793e e377 ad3e c793 c33e
00000070: c5f5 e53e 1094 e13e a6a3 c83e 0b94 203e
00000080: 471b ac3e 3daa a33e f952 073f 49a1 bc3d
00000090: 96b2 de3d 5b37 903d 820d 133e 6cfd ae3e
000000a0: 8a65 ad3e a127 293f 979c 023e 951d e53d
000000b0: ddc3 893e e8c8 053f 4399 b73e c542 f43e
000000c0: 7b89 9e3e e669 003f e18e 813e 7ed9 f33e
000000d0: d7f3 073e 216b 6a3e 0198 a43d b1a8 863c
000000e0: 7737 453f e174 053f 1ffd 2c3e d47d 3b3e
000000f0: fa74 123f bbe9 6f3e 2eb4 4b3e 2914 0d3f
00000100: 7707 f93e a10c 5e3e f0c2 dc3e 4f63 1d3e
00000110: ac8a ef3e 930e 703e 44fb b63e 76b9 4f3e
00000120: f395 ee3d 3074 8d3e 9ac4 e03e 7c7c 8d3e
00000130: b0c1 a63e af97 793e bfe8 933e e609 ad3e
00000140: 717b 893e f47a 153f 063b 053f a976 a33e
00000150: 1cbf 213e c36c 063f 08e6 0a3f

v.v_net.0.weight f4 [64, 282]
0.018171377 -0.059243824 0.045440212 0.17921653 -0.45095757 -0.31974375 -0.0042226203 0.04860242
0.038493317 1.3324914 -0.012587012 -0.032157633 0.079057895 0.016394602 -0.24224935 0.20534483
-0.02233986 -0.22043712 -0.43313107 0.1712306 0.0051544015 0.052595135 0.43908632 -0.2893793
0.84289825 0.057934646 0.13506553 0.12699406 -0.0012961867 0.068669885 -0.2346905 0.08092119
0.01493834 -0.260458 0.1081194 -0.011951195 0.071367435 0.09487963 -0.39479566 -0.003390743
0.09832382 -0.016948452 0.01449213 0.04065721 0.40368974 0.06823146 -0.4479182 -0.4415546
-0.011965312 0.08602461 0.164627 0.026682174 -0.09631189 -0.0065634316 -0.08151216 -0.37718442
-0.032820206 0.10137755 0.09212011 0.14716259 0.14238048 0.03375055 -0.00125792 -0.108205415
-0.025214493 -0.014030423 0.7366022 -0.043211196 0.42220485 0.06093632 -0.025124224 0.036422666
0.049783822 0.47097093 -0.041072696 0.014271377 -0.034828488 0.07523953 0.102725126 0.027789023
-0.02488741 -0.41557288 0.049263146 0.13885123 0.03615565 0.058870565 -0.077123486 1.3869724
0.19663201 0.043469336 1.9885806 2.4733746 -0.8850643 1.1266334 0.010464754 -1.8235462
2.1419528 0.42132312 1.863675 0.5035987 0.2349185 0.67725015 2.0862517 1.9204484
-0.2511925 -0.6318109 2.045487 2.86239 0.29679492 2.0150254 -0.7362753 0.76662266
-0.2523002 -0.7617537 4.261497 2.1313922 3.7902644 3.135979 -0.4027513 -0.56884
1.0057505 2.8495753 1.9792932 1.3671782 -0.4234189 -0.35884196 0.25960147 -0.37067527
1.007775 -0.28193158 -0.35376537 0.7447321 0.53904116 0.8420849 -0.51120216 0.036077872
0.3162789 2.1423736 1.6779733 -2.5629802 -0.22827588 -0.29698944 1.0119683 1.2276132
2.912938 -0.061964486 2.2139213 2.6662495 -0.25349438 1.6966529 0.7796019 0.32103705
0.005510329 -0.28522843 0.559325 0.56461054 1.3514283 -0.38256717 1.2393644 -0.7265446
1.681801 1.5467385 1.3253858 2.2371333 0.22339453 2.2965736 0.3576725 -0.06416241
2.644303 -0.16658664 2.7707796 -0.2774297 0.5858581 1.7570884 -1.2043666 -1.838094
-1.7360013 -1.2529365 -2.7311783 2.4673626 0.018349806 -0.26996598 -3.965342 1.0401988
0.70914716 0.7898509 -0.9069905 -0.7546241 -0.35532838 1.2335664 2.3376403 -1.845642
-1.0168256 0.98319733 -1.956811 0.18438031 2.3180442 -1.7086734 -0.28523877 -0.8587493
-1.7607718 1.7774283 1.4421374 4.7063913 -2.3514426 0.06940047 1.326034 0.20461686
1.3581486 -0.1920884 0.7124562 -0.48005798 -0.2086477 1.8290762 -0.15190957 -1.0653242
0.48379853 0.19142848 -1.6048529 1.1898792 0.7654971 3.2429202 2.8969743 -1.1207304
-1.966594 1.158606 0.9846285 -1.004636 0.79879963 0.66470367 -0.04198895 -0.07696506
0.3126482 1.1478527 -1.6144347 1.4743167 1.9376556 2.9307473 0.8006834 1.7134506
1.3330781 0.38800606 0.26313478 1.173316 0.5970076 0.2651157 0.34337035 0.68415016
-0.12427044 0.20529559 -0.8753237 -0.17182644 0.40972567 0.9601581 0.009305615 0.50005615
00000000: 24dc 943c a7a9 72bd 841f 3a3d 8a84 373e
00000010: e9e3 e6be 74b5 a3be e85d 8abb 5513 473d
00000020: 2bab 1d3d 148f aa3f c139 4ebc b9b7 03bd
00000030: 1be9 a13d f94d 863c 3710 78be ea45 523e
00000040: 1502 b7bc 45ba 61be 5bc3 ddbe 1357 2f3e
00000050: 41e6 a83b ff6d 573d eccf e03e 8629 94be
00000060: 2ec8 573f e14c 6d3d 9e4e 0a3e bb0a 023e
00000070: cfe4 a9ba cca2 8c3d b552 70be 02ba a53d
00000080: f0bf 743c c05a 85be b46d dd3d f2ce 43bc
00000090: 1729 923d 4050 c23d a822 cabe 3a37 5ebb
000000a0: 005e c93d 7bd7 8abc 6670 6d3c 2d88 263d
000000b0: 6cb0 ce3e f0bc 8b3d 8955 e5be 7213 e2be
000000c0: 280a 44bc ac2d b03d fb93 283e 9394 da3c
000000d0: 2b3f c5bd 0e12 d7bb d9ef a6bd 511e c1be
000000e0: 7b6e 06bd 089f cf3d 78a9 bc3d cab1 163e
000000f0: 30cc 113e 043e 0a3d cbe0 a4ba cd9a ddbd
00000100: a08e cebc dcdf 65bc f691 3c3f 39fe 30bd
00000110: 3c2b d83e 5d98 793d 51d1 cdbc ef2f 153d
00000120: 1fea 4b3d 1a23 f13e d83b 28bd 7ed2 693c
00000130: 51a8 0ebd 2f17 9a3d 8d61 d23d cea5 e33c
00000140: afe0 cbbc f8c5 d4be 27c8 493d 042f 0e3e
00000150: f217 143d 4322 713d ebf2 9dbd 5088 b13f
00000160: e759 493e e70c 323d cf89 fe3f c54b 1e40
00000170: 9393 62bf 8635 903f 5c74 2b3c f669 e9bf
00000180: c115 0940 aab7 d73e e78c ee3f d8eb 003f
00000190: 7a8e 703e 4460 2d3f 2685 0540 41d1 f53f
000001a0: 4e9c 80be 5cbe 21bf 42e9 0240 6631 3740
000001b0: 81f5 973e 2df6 0040 8a7c 3cbf 6241 443f
000001c0: 7e2d 81be 4a02 43bf 2f5e 8840 bb68 0840
000001d0: b193 7240 e1b3 4840 6b35 cebe 809f 11bf
000001e0: 6fbc 803f 715f 3640 7b59 fd3f b2ff ae3f
000001f0: 5dca d8be 22ba b7be 7cea 843e 26c9 bdbe
00000200: c5fe 803f 5659 90be bc20 b5be c3a6 3e3f
00000210: 9afe 093f e092 573f 25de 02bf 64c6 133d
00000220: 4fef a13e a61c 0940 d4c7 d63f de07 24c0
00000230: 27c1 69be 000f 98be 2d88 813f 6e22 9d3f
00000240: 946d 3a40 79ce 7dbd e3b0 0d40 d5a3 2a40
00000250: 04ca 81be ec2b d93f fd93 473f f85e a43e
00000260: fd8f b43b 7609 92be ec2f 0f3f 518a 103f
00000270: 9afb ac3f d8df c3be 7ea3 9e3f d4fe 39bf
00000280: 4145 d73f 87fb c53f 3ea6 a93f 312d 0f40
00000290: 89c1 643e 10fb 1240 da20 b73e 9567 83bd
000002a0: 433c 2940 b095 2abe 7454 3140 440b 8ebe
000002b0: ccfa 153f 46e8 e03f af28 9abf aa46 ebbf
000002c0: 4a35 debf 3960 a0bf a0cb 2ec0 45e9 1d40
000002d0: 5552 963c fb38 8abe 2ac8 7dc0 3c25 853f
000002e0: ab8a 353f ab33 4a3f 8830 68bf 0c2f 41bf
000002f0: 9aed b5be 81e5 9d3f e69b 1540 ff3d ecbf
00000300: 5727 82bf d2b2 7b3f c878 fabf 31ce 3c3e
00000310: d65a 1440 cfb5 dabf d10a 92be fed6 5bbf
00000320: f860 e1bf c582 e33f f597 b83f c29a 9640
00000330: 097e 16c0 d521 8e3d 7bbb a93f 1587 513e
00000340: d0d7 ad3f d2b2 44be 8863 363f 29ca f5be
00000350: bea7 55be 2b1f ea3f 2f8e 1bbe 8b5c 88bf
00000360: 71b4 f73e d405 443e d26b cdbf f64d 983f
00000370: 9ef7 433f 018c 4f40 0768 3940 1874 8fbf
00000380: 5ab9 fbbf 344d 943f 9d10 7c3f ea97 80bf
00000390: 227e 4c3f 052a 2a3f 9bfc 2bbd db9f 9dbd
000003a0: 6d13 a03e d6ec 923f cca5 cebf 69b6 bc3f
000003b0: 1905 f83f 5d91 3b40 96f9 4c3f 5952 db3f
000003c0: 4ea2 aa3f bba8 c63e 9ab9 863e 382f 963f
000003d0: 7dd5 183f 3fbd 873e 3dce af3e 7724 2f3f
000003e0: 8081 febd 0239 523e 3715 60bf 45f3 2fbe
000003f0: 90c7 d13e eccc 753f 9476 183c ae03 003f

v.v_net.0.bias f4 [64]
1.0907195 10.318854 3.7082348 -0.85434836 -2.2038853 1.0961562 1.8905115 -1.6079484
-1.7366697 2.8823307 -0.17645733 1.273058 -0.5830684 -0.5980158 1.7891638 0.37503067
-0.088096015 0.5613427 -1.2158804 2.4108288 -0.15211026 -0.19220294 -0.7142309 2.220527
-0.7369006 -0.28797898 -1.133994 -1.5073164 9.654375 1.6940233 -1.9660527 -0.6654623
0.78625166 0.12818816 1.6268582 1.026815 -0.3772549 -0.2842022 -1.1131369 -1.7678782
-1.2308675 -0.12243192 0.13294603 0.8483471 -0.7305626 -0.3586455 -0.9995036 -0.4567641
-0.8985803 -0.7808867 -0.89413244 -0.49943098 -0.31842333 -1.1645283 2.0173163 -1.8478557
-3.20994 2.619889 1.7578284 1.4388529 -0.8921082 0.17510346 -1.6924386 -0.26663205
00000000: b29c 8b3f 071a 2541 b853 6d40 93b6 5abf
00000010: 750c 0dc0 d94e 8c3f 48fc f13f 41d1 cdbf
00000020: 314b debf 1b78 3840 3bb1 34be 91f3 a23f
00000030: f843 15bf 9017 19bf 5203 e53f 0504 c03e
00000040: af6b b4bd 28b4 0f3f f8a1 9bbf 054b 1a40
00000050: cbc2 1bbe d9d0 44be d6d7 36bf 1d1d 0e40
00000060: 85a5 3cbf fb71 93be b726 91bf beef c0bf
00000070: 5278 1a41 c1d5 d83f 9da7 fbbf bd5b 2abf
00000080: ca47 493f c243 033e e43c d03f ad6e 833f
00000090: 8e27 c1be f382 91be 457b 8ebf d549 e2bf
000000a0: 118d 9dbf 96bd fabd 0123 083e 472d 593f
000000b0: 2706 3bbf 62a0 b7be 78df 7fbf fcdc e9be
000000c0: 5c09 66bf 31e8 47bf dde5 64bf 6bb5 ffbe
000000d0: 6208 a3be 430f 95bf b61b 0140 8986 ecbf
000000e0: a86f 4dc0 43ac 2740 8500 e13f 552c b83f
000000f0: 3461 64bf 524e 333e d4a1 d8bf ff83 88be

v.v_net.2.weight f4 [64, 64]
0.06873248 -1.383225 1.4105667 -1.008703 1.8339399 3.5636618 1.3227856 -1.5505618
0.5131707 -0.1520863 -2.5076733 0.3767686 -0.46719643 -1.2170054 2.2654362 0.20686369
1.6918807 -0.61872494 -2.1206095 -0.6051075 -0.6552795 1.0050741 -2.7288682 1.954635
0.5880204 2.5669062 0.50967795 2.7017295 0.032664888 0.4490105 -1.5584667 0.044460803
1.6496286 -2.5526702 -2.297387 -0.77573735 0.61394274 -0.16340777 -0.36575353 0.03139649
-2.5727441 -0.2295056 0.7775595 0.47117084 -0.16616707 -2.1016512 1.1492549 3.430974
-2.1484194 0.66021204 1.0932323 -0.0681233 6.0438375 -2.2243729 -1.2017089 1.2693485
-0.6772299 -0.1520782 0.20883699 -0.48198512 -0.84815264 3.8651705 -1.7504246 -0.33821297
1.4268475 -1.3942297 -1.1385002 0.8301788 1.5022979 -0.34862125 -1.4079447 1.1000538
2.9273133 -0.08580395 -2.9949422 1.0976634 0.38158596 -1.2496918 2.7805126 0.5192559
-1.2387285 -0.69291383 0.5980628 0.035377853 3.1046805 -0.011484353 1.072982 -2.5604024
-1.9781557 5.7636666 3.8872683 5.63846 -1.5556669 3.1442716 0.1984407 -4.435702
-0.06731469 -1.1625049 -0.57276344 1.4053196 0.5707413 1.3339531 -1.1788518 -2.0335963
0.53055507 2.2438464 0.89388484 1.6827846 -1.1402075 3.0092432 -0.0068610823 1.7112403
0.900563 -0.2704473 3.618076 1.1949508 -0.9208827 1.7439563 -1.0321958 -1.8683312
-1.7332705 -1.5388556 1.0152919 1.0507406 -0.7793922 -0.059171677 2.5697184 -1.5957375
-0.42208815 -5.4691486 -4.6522627 2.5041177 -1.5086393 -0.6073134 -2.2277384 2.0242188
2.3347237 -1.1697495 -0.65335256 0.9009948 -0.6907611 -5.5214205 0.2654391 1.1418128
-1.4652028 -0.011156703 -2.410512 0.20001425 1.1266906 -0.14957134 0.46793246 -4.6289506
2.1379967 -0.3172258 -2.6166832 0.91283923 -3.7820406 -1.8482074 2.230913 2.8943896
2.6231256 -2.952724 -5.5820503 -3.5612168 0.8147476 1.7394472 3.0457783 4.3205166
-1.0772955 0.7669652 -0.8279408 -1.7282256 1.484618 -0.74240756 -1.991233 2.3206804
1.4775562 0.16747989 -0.57752776 0.2903849 2.4637656 0.33638617 -1.535058 0.98253363
0.566696 -1.0857527 1.1314727 3.9664247 -0.43527982 2.10131 -0.4266681 2.7368007
2.4356272 3.3481722 0.45690632 -1.1141778 0.0127879325 -1.6539261 2.2116477 -1.3085421
1.3685832 2.5463545 -0.18345894 -1.2327296 -0.5530967 0.90398717 -0.57495975 0.18094361
-0.009344526 -2.4438596 -1.5831774 0.3873707 -1.9633662 -1.2556548 -2.2192717 1.7434394
1.7605003 -1.4715779 -0.3922088 -0.68140465 8.733288 4.600652 -3.2346327 -1.0767161
0.43881914 0.9689417 1.0319053 3.138962 -4.6179733 3.8423347 -1.1025136 -2.7124064
-1.961077 1.7277288 0.8758071 0.57109284 -0.5081978 0.16170526 2.2978837 -0.9944624
-1.293422 3.3486352 0.6034206 -1.7990258 1.4813983 1.0781204 -0.26580408 -2.1290817
-0.886776 1.7705898 0.40114942 -4.3714814 -0.565041 1.569949 -1.31446 0.6648418
00000000: 9dc3 8c3d 840d b1bf 738d b43f 2e1d 81bf
00000010: 8bbe ea3f 0913 6440 0a51 a93f cf78 c6bf
00000020: 285f 033f 83bc 1bbe b87d 20c0 d0e7 c03e
00000030: 5f34 efbe d5c6 9bbf e8fc 1040 13d4 533e
00000040: 8c8f d83f c264 1ebf 11b8 07c0 53e8 1abf
00000050: 66c0 27bf 45a6 803f c7a5 2ec0 7b31 fa3f
00000060: 8188 163f 3148 2440 417a 023f 23e9 2c40
00000070: 9ecb 053d b4e4 e53e d67b c7bf 881c 363d
00000080: 0827 d33f f35e 23c0 6308 13c0 b996 46bf
00000090: 5a2b 1d3f 5e54 27be 0c44 bbbe 9b99 003d
000000a0: d7a7 24c0 8403 6bbe 240e 473f 4e3d f13e
000000b0: b327 2abe 7481 06c0 c91a 933f 1495 5b40
000000c0: b47f 09c0 a803 293f 09ef 8b3f 3b84 8bbd
000000d0: 1e67 c140 205c 0ec0 99d1 99bf 037a a23f
000000e0: f05e 2dbf 63ba 1bbe 5dd9 553e c1c6 f6be
000000f0: 8820 59bf f45e 7740 ea0d e0bf 402a adbe
00000100: f0a2 b63f 1e76 b2bf 60ba 91bf 9986 543f
00000110: 4c4b c03f 7c7e b2be 8837 b4bf 90ce 8c3f
00000120: 1a59 3b40 fbb9 afbd 22ad 3fc0 3c80 8c3f
00000130: 3c5f c33e e7f5 9fbf ebf3 3140 f4ed 043f
00000140: a88e 9ebf cd62 31bf a51a 193f 5ee8 103d
00000150: 16b3 4640 de28 3cbc 7957 893f a2dd 23c0
00000160: 3534 fdbf f56f b840 01c9 7840 446e b440
00000170: 1820 c7bf bf3b 4940 0a34 4b3e 45f1 8dc0
00000180: 49dc 89bd f6cc 94bf a0a0 12bf 83e1 b33f
00000190: 1a1c 123f fabe aa3f 9ee4 96bf 7126 02c0
000001a0: 75d2 073f 2e9b 0f40 a3d5 643f 7c65 d73f
000001b0: 52f2 91bf 7197 4040 eed2 e0bb ec09 db3f
000001c0: 4c8b 663f 1278 8abe 8f8e 6740 26f4 983f
000001d0: f8be 6bbf f639 df3f fe1e 84bf 7a25 efbf
000001e0: cfdb ddbf 38f9 c4bf 16f5 813f ab7e 863f
000001f0: 3f86 47bf 005e 72bd 4476 2440 2041 ccbf
00000200: f01b d8be 4403 afc0 56df 94c0 7743 2040
00000210: 181b c1bf e478 1bbf 4493 0ec0 cd8c 0140
00000220: 1d6c 1540 5aba 95bf 1d42 27bf 98a7 663f
00000230: b8d5 30bf 7aaf b0c0 a2e7 873e ec26 923f
00000240: c48b bbbf 9bca 36bc d445 1ac0 89d0 4c3e
00000250: 6637 903f 3b29 19be d894 ef3e 5d20 94c0
00000260: f0d4 0840 6c6b a2be bd77 27c0 d5af 693f
00000270: f40c 72c0 0f92 ecbf 47c7 0e40 ae3d 3940
00000280: 4ae1 2740 6ef9 3cc0 28a0 b2c0 faea 63c0
00000290: 4c93 503f 35a6 de3f 08ee 4240 ac41 8a40
000002a0: d2e4 89bf d557 443f eef3 53bf 7f36 ddbf
000002b0: f607 be3f 6c0e 3ebf b9e0 febf 0786 1440
000002c0: 9020 bd3f d97f 2b3e dcd8 13bf 54ad 943e
000002d0: 56ae 1d40 cf3a ac3e c87c c4bf 5387 7b3f
000002e0: fd12 113f f2f9 8abf 19d4 903f e7d9 7d40
000002f0: ffdc debe dd7b 0640 3e74 dabe be27 2f40
00000300: 51e1 1b40 7448 5640 a0ef e93e 619d 8ebf
00000310: 7a84 513c dab3 d3bf a38b 0d40 4f7e a7bf
00000320: bc2d af3f 79f7 2240 a9dc 3bbe 15ca 9dbf
00000330: bf97 0dbf b46b 673f 9030 13bf 4849 393e
00000340: c819 19bc 3268 1cc0 8fa5 cabf 7455 c63e
00000350: 954f fbbf 4cb9 a0bf 8c08 0ec0 0629 df3f
00000360: 1358 e13f aa5c bcbf 98cf c8be 8970 2ebf
00000370: 8cbb 0b41 8b38 9340 3904 4fc0 d5d1 89bf
00000380: e7ac e03e 900c 783f 7915 843f c1e4 4840
00000390: 70c6 93c0 d0e8 7540 2a1f 8dbf 1198 2dc0
000003a0: 9204 fbbf 3826 dd3f e534 603f 2433 123f
000003b0: 4019 02bf 1096 253e 8710 1340 1695 7ebf
000003c0: da8e a5bf 0a50 5640 c679 1a3f 7a46 e6bf
000003d0: 769e bd3f d9ff 893f 7917 88be e042 08c0
000003e0: c003 63bf b0a2 e23f 7563 cd3e 2de3 8bc0
000003f0: 87a6 10bf 17f4 c83f 3a40 a8bf 1233 2a3f

v.v_net.2.bias f4 [64]
0.062833786 -0.78103775 -2.2287478 1.1993964 -0.60925555 -1.9050946 -0.2673465 -0.4155844
-0.6714782 -0.90958655 0.13436489 1.0577862 -0.81968105 0.2429614 0.34976286 -0.6586805
-1.795642 0.22070953 -0.2839779 -1.528772 -0.22269152 -0.26495215 0.021983642 -1.3927288
0.23638083 0.10013168 -1.648498 0.85966307 0.88370126 -0.09882774 -0.19475253 0.59677947
-1.5594918 0.825783 -1.4286678 -0.16462399 0.109286495 0.62088555 0.40680104 0.7610452
-0.1754237 -0.086160526 -0.081256084 -0.4331825 1.6263152 -0.46603954 -1.2611969 -0.998016
1.3955538 0.37188783 2.3386614 -0.30704352 -1.6999198 0.22384939 1.637069 -1.1217805
-0.1829552 -0.38100556 -0.44898412 -0.5727293 -0.7989332 -0.11299614 0.33691117 -0.24267499
00000000: 00af 803d 17f2 47bf cea3 0ec0 d285 993f
00000010: 2cf8 1bbf 24da f3bf a4e1 88be 7ac7 d4be
00000020: ffe5 2bbf aada 68bf f396 093e 8a65 873f
00000030: 9ed6 51bf e0ca 783e 1e14 b33e 499f 28bf
00000040: 99d7 e5bf ae01 623e 8d65 91be cdae c3bf
00000050: 3f09 64be cfa7 87be 0a17 b43c f044 b2bf
00000060: d10d 723e d711 cd3d fc01 d3bf e112 5c3f
00000070: 3f3a 623f 3366 cabd 356d 47be 8ac6 183f
00000080: 6d9d c7bf 8466 533f 96de b6bf 3193 28be
00000090: 99d1 df3d 5bf2 1e3f 3a48 d03e dcd3 423f
000000a0: 45a2 33be ee74 b0bd 9769 a6bd 19ca ddbe
000000b0: 192b d03f bc9c eebe e66e a1bf fa7d 7fbf
000000c0: 82a1 b23f 1568 be3e a1ac 1540 cf34 9dbe
000000d0: f996 d9bf c638 653e 7a8b d13f 8196 8fbf
000000e0: 9c58 3bbe 2913 c3be 3fe1 e5be 639e 12bf
000000f0: e386 4cbf 856a e7bd 9f7f ac3e cb7f 78be

v.v_net.4.weight f4 [1, 64]
12.307677 -7.8686666 -11.533012 8.232797 -12.721463 -9.683056 -12.094746 -13.617271
-8.772393 -7.5741677 -9.500515 10.370019 -11.1602745 -11.272244 -9.446568 -8.586107
-6.5006266 -7.7631855 -8.498573 -8.476079 13.069485 -11.596726 -10.496244 -13.063597
11.246965 -6.5862107 -10.275479 10.856416 10.328508 -9.371964 -12.574648 6.9529185
-13.265359 -8.99855 4.322305 -16.85575 -9.238904 4.3356094 12.83669 14.090069
-3.9305732 5.2873616 -8.636376 -8.95292 43.46541 7.8861694 -10.954285 0.4638072
10.941442 6.952442 13.641178 -9.883479 -5.84415 13.70886 14.173989 -9.542677
13.319497 -12.848389 7.447879 -13.82697 -8.210637 -10.902216 -13.300767 11.639301
00000000: 3fec 4441 1ecc fbc0 3887 38c1 89b9 0341
00000010: 1d8b 4bc1 cced 1ac1 1484 41c1 58e0 59c1
00000020: b95b 0cc1 955f f2c0 1c02 18c1 99eb 2541
00000030: 7c90 32c1 1d5b 34c1 2425 17c1 b260 09c1
00000040: 2205 d0c0 046c f8c0 28fa 07c1 059e 07c1
00000050: 9c1c 5141 318c 39c1 9ef0 27c1 7e04 51c1
00000060: 92f3 3341 3dc2 d2c0 5d68 24c1 e1b3 2d41
00000070: 9241 2541 91f3 15c1 c231 49c1 4f7e de40
00000080: e93e 54c1 10fa 0fc1 5350 8a40 93d8 86c1
00000090: 8dd2 13c1 50bd 8a40 1563 4d41 ec70 6141
000000a0: 838e 7bc0 1132 a940 992e 0ac1 293f 0fc1
000000b0: 94dc 2d42 805b fc40 c044 2fc1 2378 ed3e
000000c0: 2510 2f41 687a de40 4442 5a41 bb22 1ec1
000000d0: 4703 bbc0 7e57 5b41 a9c8 6241 ceae 18c1
000000e0: a91c 5541 0093 4dc1 0655 ee40 453b 5dc1
000000f0: c55e 03c1 7a6f 2ec1 f1cf 54c1 943a 3a41
