model_wts/s3_d2_m0.0_b1.0.ckpt (torch, 206875 bytes, 11 tensors)

pi.logits_net.0.weight f4 [64, 282]
0	0x3c71d61d	0.014760521
1	0xbcee26f0	-0.029071301
2	0xbcb1c5cb	-0.02170076
3	0x3c22b003	0.00992966
4	0x3d2045ee	0.03912919
5	0xbc8598a1	-0.01630813
6	0x3dc06f47	0.093962245
7	0x3db9912f	0.09060895
8	0x3c769224	0.015049491
9	0x3e729953	0.23691301
10	0x3c9cf52e	0.01915988
11	0x3d5b705d	0.053573955
12	0x3d037aa7	0.032099392
13	0xbc01ee18	-0.007930301
14	0xbc8b646d	-0.01701566
15	0x3d7ba289	0.061434302
16	0x3d100c2f	0.03516787
17	0x3dbcf2d3	0.092260025
18	0x3dabc68d	0.0838748
19	0x3defdf5d	0.11712525
20	0x3dbb5286	0.091465995
21	0x3ce23274	0.027611949
22	0x3dc04e3c	0.09389922
23	0xbcb4703a	-0.02202617
24	0x3b02ec24	0.0019977177
25	0xbd08c1a5	-0.0333878
26	0x3d43c59d	0.04779588
27	0x3dacc1f3	0.084354304
28	0x3c86f758	0.016475365
29	0x3ce4c4b4	0.027925827
30	0x3bf91ebc	0.007602541
31	0x3d2473fa	0.040149666
32	0xbccd2eb5	-0.025046686
33	0xbc8df41f	-0.01732832
34	0x3caaf541	0.0208689
35	0x3d0438ce	0.032280736
36	0x3d3c291c	0.045937642
37	0xbd6237f4	-0.055229142
38	0x3c6fb178	0.014629714
39	0x3ba23624	0.0049503017
40	0x3c5f2857	0.013620458
41	0x3c86cd1f	0.016455231
42	0xbb412a45	-0.0029474657
43	0xbd0f193b	-0.03493617
44	0x3d913164	0.07089499
45	0xbc2cb3c1	-0.010540904
46	0x3aeb4a24	0.0017951173
47	0x3ce6c254	0.028168835
48	0x3c88955c	0.016672783
49	0x3deee28b	0.116643034
50	0x3dd4000d	0.10351572
51	0x3d4bce27	0.04975715
52	0x3c8786c1	0.016543748
53	0x3d671e46	0.056425355
54	0x3d660997	0.05616149
55	0x3d6aefe4	0.057357684
56	0xbb628be3	-0.0034568242
57	0x3df9eaed	0.12203012
58	0x3cf029fe	0.029316898
59	0x3d3c3e57	0.04595789
60	0x3deafd0f	0.11474048
61	0x3c03de3f	0.008048593
62	0x3c8fb6c8	0.017543212
63	0xbab7f250	-0.0014034007
64	0xbcdaad77	-0.026694043
65	0xbd3a6fac	-0.045516655
66	0x3d17d5a0	0.037068963
67	0xbc90df5f	-0.017684637
68	0x3d6f504f	0.058426198
69	0x3dcdb03c	0.1004338
70	0x3cfb9ec3	0.030715352
71	0x3de29ca8	0.11065036
72	0xbcbe1e6b	-0.023207864
73	0x3ce1e8e1	0.027576866
74	0x3d7c3ecd	0.06158333
75	0x3da84841	0.08216906
76	0x3ccdc8db	0.02512019
77	0x3de41a87	0.11137872
78	0x3da383c7	0.07984119
79	0x3d33b1e2	0.043870814
80	0xbcd7b081	-0.02632928
81	0xbc1040c2	-0.008804502
82	0x3c005dce	0.007834865
83	0x3d9b580d	0.07585154
84	0x3d5e9220	0.054338574
85	0x3cb2de3d	0.021834487
86	0x3d476c0f	0.048687037
87	0xbe72ba08	-0.23703778
88	0xbec42758	-0.38311267
89	0xbe9ebb03	-0.31002054
90	0xbf2194dc	-0.63117766
91	0x3e0f0f36	0.13970646
92	0xbe260a78	-0.16214931
93	0x3e3a0672	0.18166521
94	0xbeb4bb72	-0.3529926
95	0xbe9783f5	-0.29592863
96	0x3e9cc2e3	0.30617437
97	0x3e95b25d	0.29237643
98	0xbc7d0174	-0.015442241
99	0xbc87c2a5	-0.016572306
100	0xbeea084b	-0.45709452
101	0x3d6947f6	0.056953393
102	0xbe2c3608	-0.16817486
103	0x3d594e24	0.053053036
104	0xbe830453	-0.25589237
105	0xbd594512	-0.053044386
106	0xbe9ffe98	-0.31248927
107	0xbea4c53a	-0.32181722
108	0xbf33d8ea	-0.7025286
109	0xbe192c67	-0.14958344
110	0xbd81a8f0	-0.063310504
111	0x3e4bd28e	0.19904539
112	0xbdfe3640	-0.12412691
113	0xbe204bd5	-0.15653928
114	0xbe60c5bf	-0.21950434
115	0x3c6e3155	0.014538129
116	0x3ea8f8a5	0.330022
117	0xbeb503ca	-0.35354453
118	0x3c5e798a	0.013578782
119	0xbd99c968	-0.07509118
120	0xbe44cecd	-0.19219513
121	0x3e35076a	0.1767861
122	0xbecba725	-0.3977596
123	0x3d182216	0.037141882
124	0xbe03dc42	-0.1287699
125	0xbe4f58bf	-0.20248698
126	0x3c6a987f	0.014318584
127	0xbef33d16	-0.47507542
128	0xbec26378	-0.37966514
129	0xbea284c0	-0.31741905
130	0xbea13b06	-0.31490344
131	0xbed19494	-0.4093367
132	0xbee21a40	-0.44160652
133	0xbebc1e77	-0.36741993
134	0x3c9ba3b8	0.018998966
135	0xbef19595	-0.47184435
136	0xbe54796b	-0.20749442
137	0xbda65824	-0.0812228
138	0xbe90cf00	-0.28282928
139	0xbdf456bf	-0.11930608
140	0xbc7f5f79	-0.015586727
141	0x3e99ccad	0.30038968
142	0x3e6146f7	0.21999727
143	0x3e5ea5c0	0.21742916
144	0xbe1fd3aa	-0.15608087
145	0xbe54bd01	-0.20775224
146	0x39ed3781	0.00045245516
147	0xbdfc8ed7	-0.12331932
148	0xbdce450c	-0.100717634
149	0xbed3cfa5	-0.41369358
150	0xbf1344c8	-0.57526827
151	0x3ed2ca6c	0.4117006
152	0xbe746451	-0.23866393
153	0xbe84c526	-0.25931662
154	0xbe2ed2a1	-0.17072536
155	0xbae62583	-0.0017558787
156	0xbeb82e56	-0.35972852
157	0xbe2eee6d	-0.1708314
158	0xbf1ccb2f	-0.61247534
159	0xbd862ccb	-0.06551512
160	0xbe946b54	-0.28988135
161	0xbf08dfc4	-0.5346644
162	0xbe6374b7	-0.22212492
163	0x3e01f4c3	0.12691025
164	0xbf3a05b7	-0.7266497
165	0xbd9dc8e8	-0.077043355
166	0xbf5fa01d	-0.8735369
167	0xbe26258e	-0.16225263
168	0x3dd9a392	0.10626902
169	0xbf8b57cb	-1.0886167
170	0xbe40ad2d	-0.18816061
171	0xbea603b4	-0.324247
172	0xbea41432	-0.32046658
173	0x3e543cd9	0.20726337
174	0x3dc1d507	0.0946446
175	0xbeddd1d3	-0.43324146
176	0x3edeafce	0.43493503
177	0xbe972c08	-0.2952578
178	0x3e16c7bc	0.1472463
179	0xbe8b986f	-0.27264735
180	0xbf9a1c50	-1.203989
181	0xbe844029	-0.258302
182	0xbe920886	-0.28522128
183	0xbed79a39	-0.4210985
184	0xbe83096d	-0.2559313
185	0x3d95ca7c	0.073140115
186	0xbdc7db35	-0.09758607
187	0x3ecb7176	0.39735
188	0xbe3f7fad	-0.18701048
189	0x3f7ac35f	0.9795436
190	0x3f2f59c3	0.6849634
191	0xbe6aee1e	-0.22942397
192	0x3cea9367	0.02863474
193	0xbe5554f3	-0.20833187
194	0xbe96b025	-0.29431263
195	0x3de600f8	0.112306535
196	0x3f3f28a1	0.7467137
197	0x3f66b3d8	0.9011817
198	0xbf3e36e2	-0.74302495
199	0xbf0c005b	-0.5468804
200	0xbf12d60b	-0.57357854
201	0xbf3c09fd	-0.7345274
202	0x3e96f61f	0.2948465
203	0xbdfb0fb0	-0.122588515
204	0xbf01ff91	-0.5078059
205	0x3e926530	0.28592825
206	0x3eed3e8c	0.46336782
207	0x3eb2a9d2	0.34895188
208	0xbe9e6236	-0.30934304
209	0x3f03506b	0.51294583
210	0xbf64c976	-0.89369905
211	0x3d4c0b29	0.04981533
212	0x3edf57c6	0.43621653
213	0xbecc4868	-0.39898992
214	0xbfc12473	-1.5089248
215	0xbf08e9ec	-0.53481936
216	0xbf0be04d	-0.5463913
217	0x3d97b316	0.07407205
218	0xbdafffb4	-0.085936934
219	0x3ed9d7a5	0.42547336
220	0xbf5e28d7	-0.86781067
221	0xbf869426	-1.0513961
222	0x3f753073	0.9577705
223	0x3f0db261	0.5535031
224	0xbed57bce	-0.41696018
225	0x3f385a24	0.72012544
226	0xbea9ca26	-0.3316204
227	0xbcf35fcd	-0.029708767
228	0x3eb23453	0.34805545
229	0xbe461651	-0.1934445
230	0x3dc753b8	0.09732765
231	0x3e859c8b	0.26095995
232	0xbefb7d15	-0.49118868
233	0xbe5ce0f3	-0.21570186
234	0xbf2effa0	-0.683588
235	0x3f55c084	0.8349688
236	0x3f0cee35	0.55050975
237	0xbec06288	-0.37575173
238	0x3ec92f22	0.39293772
239	0x3e536e11	0.20647456
240	0xbf26a240	-0.65091324
241	0xbee174be	-0.4403438
242	0xbd0063ba	-0.031345107
243	0xbf68e1a3	-0.90969294
244	0x3f1ad876	0.60486543
245	0xbf62f4bb	-0.8865468
246	0xbe1297ae	-0.14315674
247	0xbe7ec525	-0.24879892
248	0x3eb335cc	0.3500198
249	0x3e808045	0.25097862
250	0xbe1ba3dc	-0.15199226
251	0x3e1a1273	0.150461
252	0x3f4baf69	0.7956453
253	0xbd9a8e18	-0.075466335
254	0x3d4bcc31	0.04975528
255	0x3f5ad2af	0.8547773

pi.logits_net.0.bias f4 [64]
0	0x3c985ac1	0.018597962
1	0xbcd510b6	-0.026008945
2	0x3e1fa2b4	0.1558941
3	0xbe81335e	-0.25234503
4	0x3e66f5a4	0.22554642
5	0xbd46dc81	-0.048550133
6	0x3ceed986	0.029156458
7	0x3e936976	0.28791398
8	0xbe90b865	-0.28265682
9	0xbe073cdf	-0.13206814
10	0xbe424e44	-0.18975168
11	0xbdcf835c	-0.10132477
12	0xbebd814e	-0.37012714
13	0x3d8b34e2	0.06797196
14	0x3e03f7b4	0.1288746
15	0xbdc19458	-0.094521224
16	0x3e2731ac	0.16327542
17	0xbd0f7da5	-0.035031933
18	0xbbe69f37	-0.007038023
19	0x3e0948bf	0.13406657
20	0xbdb56c29	-0.088585205
21	0x3e8caea7	0.27477
22	0xbde54873	-0.11195459
23	0x3e80c0c0	0.25147057
24	0xbe9b2df6	-0.30308503
25	0x3e36163f	0.17781924
26	0xbe286cac	-0.16447705
27	0xbe56a3f3	-0.20960979
28	0x3dd707a5	0.10499505
29	0xbe477fe4	-0.1948238
30	0x3e02a037	0.1275643
31	0xbeb26a19	-0.3484657
32	0xbda2207b	-0.079163514
33	0xbd957117	-0.07296961
34	0xbe3e8e16	-0.18608889
35	0x3d155fe5	0.036468405
36	0xbe17c0d3	-0.1481965
37	0xbda97f79	-0.082762666
38	0x3c1cb1b8	0.009563856
39	0x3e6be6e5	0.23037298
40	0xbe57f2ec	-0.21088761
41	0x3cf0b843	0.029384738
42	0xbdbe6807	-0.092971854
43	0xbe816d3e	-0.25278658
44	0xbca7546a	-0.020425994
45	0x3cc505b4	0.024050571
46	0x3cbeb837	0.0232812
47	0x3e3e9083	0.18609814
48	0xbd4c532f	-0.049884018
49	0xbe1d04f1	-0.15333916
50	0x3d1cd52d	0.038289238
51	0x3e964b97	0.29354545
52	0x3dbbc60e	0.09168635
53	0x3d5281b9	0.051393244
54	0x3e942186	0.28931826
55	0x3d8412ee	0.06448923
56	0x3d56fccb	0.052487176
57	0xbdc86f30	-0.09786832
58	0xbe96f7eb	-0.2948602
59	0x3d008b75	0.031382997
60	0x3e973eae	0.29540008
61	0xbe89189b	-0.26776585
62	0x3e4c0ad9	0.19926013
63	0xbdc6ebbc	-0.097129315

pi.logits_net.2.weight f4 [64, 64]
0	0x3e95938a	0.29214126
1	0x3ef109b1	0.47077706
2	0xbe6123a0	-0.21986246
3	0x3ec53018	0.38513255
4	0x3f04a5b0	0.5181532
5	0xbeb1de00	-0.34739685
6	0x3f1a4098	0.6025481
7	0xbf87b8ee	-1.0603311
8	0xbf331912	-0.6996013
9	0x3e4e74ee	0.20161793
10	0xbde2aa0b	-0.11067589
11	0x3e91ad2d	0.28452435
12	0x3f87898e	1.0588853
13	0x3e8afc52	0.2714563
14	0xbe919e9c	-0.28441322
15	0x3e81f2da	0.25380594
16	0x3bbf20be	0.0058327606
17	0xbe49a45b	-0.19691603
18	0xbde9e728	-0.11421043
19	0x3b9435b0	0.0045230016
20	0x3ebbeeb1	0.36705545
21	0xbe710c2c	-0.235398
22	0x3d1c3dff	0.03814506
23	0xbeb4e8ab	-0.35333762
24	0xbea98b7b	-0.33114228
25	0xbeed71bd	-0.46375838
26	0xbf2ddc30	-0.67914104
27	0xbee89998	-0.45429683
28	0x3f4e23b7	0.80523247
29	0x3f152928	0.58265924
30	0x3ec80c8c	0.39072073
31	0x3e6c88c4	0.23099047
32	0x3e855fdd	0.260497
33	0xbd01b1ae	-0.03166359
34	0x3f08f34c	0.5349624
35	0x3ea2ab83	0.31771478
36	0xbe49467a	-0.19655791
37	0x3eb8b0fb	0.36072525
38	0x3f06a22f	0.5259122
39	0xbefb850f	-0.49124953
40	0xbf02c4ce	-0.5108155
41	0xbf4e4625	-0.8057578
42	0x3e128cb3	0.14311485
43	0xbf1272e4	-0.5720656
44	0x3e13df93	0.14440756
45	0x3e18b09b	0.1491112
46	0xbe9a1549	-0.30094364
47	0xbe1ab745	-0.15108974
48	0x3ec70993	0.38874492
49	0x3f435f9b	0.7631776
50	0xbe9eaf73	-0.30993232
51	0xbee4c711	-0.44683126
52	0xbea29372	-0.31753117
53	0xbebe5aab	-0.3717855
54	0xbcd7b7e3	-0.026332801
55	0xbeeb0286	-0.45900363
56	0xbf19aa3f	-0.600254
57	0x3ec9149c	0.39273536
58	0x3f5d36c3	0.86411685
59	0x3d9db744	0.07700971
60	0x3df085c6	0.11744265
61	0x3d6483f7	0.055789914
62	0xbe7c0742	-0.24612144
63	0xbed874df	-0.42276666
64	0x3deaeb65	0.11470679
65	0xbed3a57f	-0.413372
66	0xbd02278e	-0.031776004
67	0x3e08944f	0.13337825
68	0xbf200286	-0.6250385
69	0xbf4d68c6	-0.80237997
70	0x3c4d8a26	0.012545144
71	0xbe1ec144	-0.15503412
72	0x3e7d35c3	0.2472754
73	0x3ecb360f	0.3968968
74	0xbdda2997	-0.10652464
75	0xbe32142e	-0.1739051
76	0xbe917cc5	-0.28415504
77	0x3cb3533b	0.021890273
78	0x3f242b6b	0.6412875
79	0xbebccfd7	-0.3687732
80	0x3d8ff89c	0.0702984
81	0x3eec8cb9	0.46201113
82	0xbe7a0cc8	-0.24418938
83	0xbf053900	-0.520401
84	0xbe826072	-0.25464207
85	0x3f185546	0.59505117
86	0x3f0620b3	0.52393645
87	0x3e198ac3	0.1499434
88	0x3e4c5018	0.19952428
89	0x3ec90b62	0.39266497
90	0xbe85f75e	-0.2616529
91	0x3e6378a7	0.22213994
92	0x3e6be99f	0.23038338
93	0xbf9a0458	-1.2032576
94	0x3f1e7943	0.6190378
95	0xbe555be2	-0.20835832
96	0x3e98081d	0.2969369
97	0x3de89388	0.11356264
98	0xbdaddfb8	-0.084899366
99	0x3e68f075	0.22747977
100	0xbed835b5	-0.42228475
101	0x3d482de4	0.04887189
102	0xbe8192bd	-0.25307265
103	0x3f3beae9	0.7340532
104	0x3eda857b	0.42679963
105	0x3ec4350e	0.38321728
106	0xbe83f32f	-0.25771472
107	0x3d6d66ca	0.057959355
108	0xbf2b65da	-0.6695229
109	0x3e8d5e69	0.27611092
110	0x3cc51dee	0.024062123
111	0xbe763f1b	-0.2404751
112	0x3eae9f55	0.34105936
113	0xbe5b38ce	-0.21408388
114	0x3e964593	0.29349956
115	0x3eef06d9	0.46684912
116	0xbe055d90	-0.13023973
117	0xbd644507	-0.055729892
118	0x3f116c25	0.5680564
119	0xbdfc0ed7	-0.12307518
120	0xbe94bab6	-0.290487
121	0x3cfa48d1	0.0305523
122	0x3eaab8dc	0.33344162
123	0x3e916290	0.2839551
124	0xbeae6d41	-0.3406773
125	0xbee74f44	-0.45177662
126	0x3eaf8f9b	0.3428925
127	0x3e9b4d8a	0.30332595
128	0xbf003659	-0.5008293
129	0x3ecd1bd7	0.40060303
130	0x3edaaf25	0.4271175
131	0x3e20d79a	0.15707245
132	0xbf4e9530	-0.8069639
133	0xbf16948d	-0.5882042
134	0x3e7b6b1b	0.24552576
135	0xbdf2ce46	-0.1185575
136	0x3e240a4f	0.16019557
137	0x3ea2ea93	0.3181959
138	0xbecf1a87	-0.40449926
139	0xbef5e131	-0.4802337
140	0x3e751b8d	0.23936291
141	0x3f09d6d4	0.53843427
142	0x3e07801f	0.13232468
143	0x3ed02f0a	0.40660888
144	0xbe93f4c7	-0.28897688
145	0xbf0859e7	-0.5326218
146	0xbef43203	-0.47694406
147	0xbf02f5de	-0.51156414
148	0x3e34ffc9	0.176757
149	0x3e4c14b6	0.19929776
150	0x3e284bcb	0.16435163
151	0xbec5367d	-0.38518134
152	0x3e81569f	0.252614
153	0x3e19667c	0.14980501
154	0x3f2fc59f	0.6866092
155	0x3e0a7f6d	0.13525172
156	0x3e8df9a3	0.2772952
157	0x3ef9efad	0.4881567
158	0xbe2804ed	-0.16408129
159	0xbf283dc7	-0.65719265
160	0xbe3cce81	-0.1843815
161	0xbec66f58	-0.38756824
162	0x3e32dbb9	0.1746663
163	0xbe9ba829	-0.30401734
164	0x3e98f6ef	0.29875895
165	0x3ea16ebd	0.315298
166	0xbe96cf54	-0.29455054
167	0x3d751749	0.05983666
168	0xbf6cbc6e	-0.9247502
169	0x3e68eaf1	0.22745873
170	0x3f4ae76f	0.7925939
171	0x3df7b86b	0.12095722
172	0xbe127427	-0.14302121
173	0xbde6d2c3	-0.11270668
174	0x3fa532e9	1.2906162
175	0x3d584138	0.052796572
176	0x3f0696af	0.52573675
177	0x3e2da6f8	0.16958225
178	0x3e3f7556	0.18697104
179	0xbf2b2b11	-0.6686259
180	0xbee64f14	-0.44982207
181	0x3ea469e0	0.32112026
182	0x3e1f6d60	0.15569067
183	0xbf04318b	-0.51638097
184	0xbf2052dc	-0.62626433
185	0xbda01ad6	-0.078176185
186	0x3e9b13cc	0.3028854
187	0xbe70bad7	-0.23508774
188	0x3c0f4bd6	0.008746108
189	0xbdc582da	-0.096440986
190	0x3e808150	0.25098658
191	0x3f2baa9f	0.6705722
192	0xbee808dc	-0.4531926
193	0x3f82912e	1.0200555
194	0x3c640a17	0.013918421
195	0xbe59809b	-0.21240465
196	0x3f4b5531	0.79426867
197	0x3f222a55	0.63345844
198	0xbe8cfd54	-0.27537024
199	0xbf59b3d8	-0.85040045
200	0x3c070ee2	0.008243294
201	0xbe295a5b	-0.16538374
202	0xbdc677b5	-0.09690801
203	0x3f290810	0.6602793
204	0xbef38efb	-0.47570023
205	0x3b1bac16	0.0023753694
206	0xbe46ed2e	-0.19426414
207	0xbef8ebb6	-0.48617333
208	0xbe50e5ed	-0.2040021
209	0xbd6ad83c	-0.057335123
210	0x3e3f5042	0.1868296
211	0xbef98ae4	-0.48738778
212	0xbe75a5e6	-0.23989066
213	0x3e5c8990	0.21536851
214	0xbeaf2149	-0.34205082
215	0xbe7e5fe9	-0.24841274
216	0xbe88a6db	-0.266898
217	0x3e32eee5	0.17473944
218	0xbe4f01f5	-0.2021559
219	0x3b2a52a6	0.0025989204
220	0xbcf7913c	-0.03022062
221	0x3e7b56a5	0.24544771
222	0x3eb79250	0.35853815
223	0xbe0658a0	-0.13119745
224	0xbd962ab9	-0.073323674
225	0x3ebdbba6	0.37057227
226	0xbe9e01f9	-0.3086088
227	0xbef21ebb	-0.4728907
228	0xbe498244	-0.19678599
229	0x3f29ec16	0.66375864
230	0x3e59fa5f	0.21286915
231	0xbf78008d	-0.9687584
232	0x3daa9707	0.083295874
233	0x3e7bc099	0.24585189
234	0xbf8be0b0	-1.0927944
235	0xbe46ef88	-0.19427311
236	0x3e832f86	0.25622195
237	0xbf99a8d5	-1.2004648
238	0x3e7b85c8	0.24562752
239	0x3f21fc02	0.6327516
240	0xbed08979	-0.40729883
241	0xbf47d6e8	-0.78062296
242	0xbcda8af2	-0.026677582
243	0xbf54b25d	-0.8308466
244	0xbd680750	-0.0566476
245	0xbedb1c43	-0.42795
246	0x3d1be5c0	0.038060904
247	0x3e86244e	0.26199573
248	0xbdf9567f	-0.12174701
249	0x3d6c0791	0.057624403
250	0x3e601e1b	0.21886484
251	0x3d17d4ee	0.0370683
252	0x3dd53e6d	0.104122974
253	0x3f22ed13	0.63642997
254	0xbf056243	-0.5210306
255	0xbf5b6b66	-0.8571075

pi.logits_net.2.bias f4 [64]
0	0x3c843ae5	0.016141364
1	0x3f29dd2c	0.66353106
2	0x3ec9b3be	0.39394945
3	0xbdd54f25	-0.10415486
4	0xbe9a22ea	-0.30104762
5	0xbd274f7d	-0.04084729
6	0xbdb7c41f	-0.08972954
7	0x3e610386	0.21974
8	0x3e7df84d	0.2480175
9	0x3e384faf	0.17999147
10	0x3d08cdec	0.033399507
11	0x3d8591bc	0.06521937
12	0x3de2df6b	0.1107777
13	0xbedd5d54	-0.43235266
14	0xbeac9b8f	-0.33712432
15	0xbe14fc9c	-0.14549488
16	0x3d47aa5f	0.048746463
17	0xbda3b14e	-0.079928026
18	0x3ea03b89	0.31295422
19	0xb996d24f	-0.00028766922
20	0x3c96443c	0.018343084
21	0xbf46a464	-0.7759459
22	0x3e0e51f2	0.13898447
23	0x3dafd165	0.08584861
24	0x3d524d30	0.051343143
25	0xbe1f51b2	-0.15558508
26	0x3cf4ea1a	0.029896785
27	0xbe6c9a0e	-0.23105642
28	0x3f009c13	0.5023815
29	0x3b388640	0.002815619
30	0x3eb89e9c	0.3605851
31	0x3dc531c8	0.09628636
32	0xbe6e7bd2	-0.23289421
33	0x3e19935b	0.14997618
34	0xbd86b72e	-0.065779075
35	0xbe9a689d	-0.3015794
36	0x3d3d8a55	0.0462745
37	0xbecbe501	-0.39823154
38	0x3dc60f43	0.0967088
39	0xbda53483	-0.080666564
40	0x3e08bc55	0.13353093
41	0xbe8135fd	-0.25236502
42	0xbe62b348	-0.22138703
43	0x3d9cdb9c	0.07659075
44	0xbe48d6cb	-0.19613187
45	0x3d0575e1	0.03258312
46	0x3dbf2f8f	0.09335243
47	0x3ea0a099	0.31372526
48	0x3e5bf412	0.21479824
49	0x3e825414	0.25454772
50	0x3f2383c1	0.63872916
51	0x3c0b6d4f	0.008509948
52	0xbdae860e	-0.08521663
53	0x3d82aa57	0.06380146
54	0x3ed35e65	0.41282955
55	0xbe2dfbf7	-0.16990648
56	0x3f5f3e86	0.8720478
57	0x3d2a5115	0.041581232
58	0xbea25c31	-0.3171096
59	0x3d8ece7f	0.0697298
60	0xbf0cf244	-0.5505717
61	0xbd8e70dd	-0.06955121
62	0x3daaea4c	0.0834547
63	0xbbeaffd9	-0.0071716127

pi.logits_net.4.weight f4 [87, 64]
0	0x3ece2dff	0.40269467
1	0x3eb46b96	0.35238332
2	0x3eff7951	0.49897245
3	0xbe878b88	-0.2647364
4	0xbeb92819	-0.36163405
5	0x3f376256	0.71634424
6	0xbe9a75ae	-0.30167907
7	0x3dc426ac	0.095776886
8	0xbe6a59e7	-0.22885858
9	0xbe37e329	-0.17957748
10	0x3e5abb0f	0.2136042
11	0x3e714ecc	0.23565215
12	0x3ece0631	0.402391
13	0xbea99cc2	-0.3312741
14	0xbdd9f999	-0.1064331
15	0x3ef4e81b	0.47833332
16	0xbeb6cad9	-0.35701635
17	0xbd1fd134	-0.03901787
18	0xbedf8ea2	-0.43663508
19	0xbc940b78	-0.018071875
20	0x3f67590a	0.9037024
21	0xbebf39d1	-0.37348798
22	0xbf05868f	-0.52158445
23	0x3f77aa3a	0.9674412
24	0xbedd694c	-0.43244398
25	0x3fa4b04e	1.2866304
26	0x3d0b995a	0.034081794
27	0xbe2e9d0d	-0.17052098
28	0x3e9b1756	0.3029124
29	0xbf13aa5b	-0.57681817
30	0x3f18ca86	0.59684026
31	0xbea7bfd2	-0.32763535
32	0x3f208f3a	0.62718546
33	0xbeab89d7	-0.335036
34	0x3ddb69a6	0.1071351
35	0xbea1935f	-0.31557748
36	0x3e60da35	0.2195824
37	0x3dccf0b4	0.10006848
38	0xbf7f15e5	-0.99642783
39	0xbed8c7f8	-0.42340064
40	0xbfe559a9	-1.7917987
41	0x3e593133	0.21210174
42	0xbf6e949b	-0.93195504
43	0xbf84437f	-1.0333098
44	0xbee3039e	-0.44338697
45	0xbf5b8b98	-0.8575988
46	0xbe965e20	-0.29368687
47	0x3f6cb5fc	0.92465186
48	0xbedd2a6f	-0.43196437
49	0x3f24160e	0.6409615
50	0x3d83a2b6	0.06427519
51	0x3f4b84f9	0.79499775
52	0xbd81b1b2	-0.06332721
53	0xbe1e09e6	-0.15433463
54	0x3e910ce2	0.2833014
55	0x3eb8b733	0.3607727
56	0x3e9b2001	0.30297855
57	0xbe11f270	-0.14252639
58	0x3df12261	0.117741354
59	0xbe18f44c	-0.14936942
60	0xbee42f38	-0.44567275
61	0xbe8a8101	-0.27051547
62	0xbf0557e7	-0.52087253
63	0x3f927bd8	1.1444044
64	0x3e864b9a	0.26229554
65	0x3e8415df	0.25797936
66	0x3f7f9235	0.9983247
67	0xbe73de70	-0.23815322
68	0xbf0910e9	-0.5354143
69	0xbd608c30	-0.054821193
70	0xbef098c3	-0.46991548
71	0x3f170ca1	0.59003645
72	0x3efbb4cd	0.49161378
73	0xbf50ba50	-0.8153429
74	0x3e304bbe	0.17216393
75	0x3e94d0af	0.29065463
76	0x3ea59107	0.3233721
77	0xbec83ac0	-0.39107323
78	0xbe51f576	-0.20503792
79	0xbe62cb53	-0.22147875
80	0xbf134853	-0.57532233
81	0x3fdfc7d7	1.7482861
82	0xbe86a665	-0.26298824
83	0xbf4196ee	-0.75620925
84	0x3c8b000a	0.016967792
85	0xbef120f0	-0.47095442
86	0x3f190fed	0.59789926
87	0x3dd70ed1	0.10500873
88	0xbf11073b	-0.5665166
89	0xbd001e90	-0.031279147
90	0x3dbb5883	0.09147742
91	0xbec66dcf	-0.38755652
92	0x3ee7ce78	0.4527471
93	0xbdffbbc6	-0.12486987
94	0x3e5dcb8e	0.21659681
95	0x3ecbc3a4	0.397977
96	0x3dd5cc08	0.104393065
97	0x3f3c6012	0.7358409
98	0xbf0266a1	-0.5093785
99	0xbf31bc47	-0.69427913
100	0xbf081c9e	-0.53168666
101	0x3ee85349	0.45376042
102	0x3f4e71f3	0.8064262
103	0x3e6443a7	0.22291432
104	0x3e4e5938	0.20151222
105	0xbe788790	-0.24270463
106	0xbe1313a1	-0.14362957
107	0xbf93581a	-1.1511261
108	0xbf13c2d9	-0.5771919
109	0xbeb8aeba	-0.36070806
110	0xbe3957ec	-0.18099946
111	0x3f3e5ae5	0.74357444
112	0x3e544e24	0.20732933
113	0x3b4a2815	0.0030846645
114	0x3f1d97f9	0.61560017
115	0x3f6a0be3	0.9142439
116	0xbf4a9256	-0.7912954
117	0xbf11d635	-0.5696748
118	0xbf1046f0	-0.5635824
119	0x3f523565	0.82112724
120	0x3e6530b5	0.22381862
121	0x3f8eea3f	1.1165236
122	0xbf03ce25	-0.51486427
123	0xbdef7b51	-0.116934426
124	0xbeb3530a	-0.3502429
125	0x3e2a7d4e	0.16649362
126	0xbeab60e1	-0.3347235
127	0x3f3325a9	0.6997934
128	0xbf1ae5d6	-0.6050695
129	0x3f2935a6	0.66097486
130	0x3eb02d60	0.34409618
131	0xbf27a0e3	-0.6547987
132	0xbf70d21b	-0.94070596
133	0xbdc0a838	-0.09407085
134	0xbf4d347d	-0.80158216
135	0x3f0b10c2	0.54322445
136	0x3f3c18d9	0.73475415
137	0x3e907dca	0.2822097
138	0x3da431ba	0.08017297
139	0xbf2aebef	-0.66766256
140	0x3f2cb0dd	0.6745737
141	0xbed7c7eb	-0.42144713
142	0xbf3bf5a3	-0.73421687
143	0x3fa69c3d	1.301643
144	0x3f66da39	0.9017673
145	0xbf89d233	-1.0767273
146	0x3f08c636	0.53427446
147	0x3e823637	0.25431988
148	0xbf8a6313	-1.0811485
149	0xbef092a6	-0.46986884
150	0x3f0e5482	0.555977
151	0xbe298ad2	-0.16556862
152	0xbef5cfa1	-0.4800997
153	0xbeed06b1	-0.46294168
154	0x3f98ed55	1.1947428
155	0xbe8aeca3	-0.27133664
156	0x3eb3b94c	0.35102308
157	0xbf23ed69	-0.64034134
158	0xbe04fd47	-0.12987243
159	0x3fba1272	1.4536879
160	0x3edf9ba3	0.4367343
161	0x3f91ec99	1.1400329
162	0xbfc6a92a	-1.5520375
163	0xbcea9590	-0.02863577
164	0xbf09e6d8	-0.53867865
165	0xbebbe8f2	-0.3670116
166	0x3e9879a4	0.29780304
167	0x3ea02e31	0.3128524
168	0x3ef387cd	0.47564545
169	0x3e4861dd	0.19568582
170	0xbf85d93e	-1.0456922
171	0xbfab71f5	-1.3394152
172	0x3d200507	0.039067294
173	0x3efb4133	0.4907318
174	0xbeff3665	-0.49846187
175	0x3eef7bb2	0.4677406
176	0x3de3876f	0.11109816
177	0x3eb061c0	0.34449577
178	0x3f0b90e6	0.5451797
179	0x3f3753c9	0.7161222
180	0xbeec957c	-0.46207798
181	0xbe9e6c1c	-0.30941856
182	0x3f7229c8	0.94595003
183	0xbed3c219	-0.41359022
184	0x3eb8aebf	0.3607082
185	0x3b151fb5	0.0022754495
186	0xbedc077c	-0.4297446
187	0x3ef15e53	0.47142276
188	0xbf0f6571	-0.5601416
189	0xbe8c19f3	-0.27363548
190	0x3f44cee8	0.76878214
191	0x3e423f05	0.18969353
192	0xbee0e341	-0.4392338
193	0x3f3c8b3c	0.73649955
194	0x3f3eb7cd	0.7449921
195	0x3e02892e	0.12747642
196	0xbf1ab16f	-0.6042699
197	0x3dc01df2	0.093807116
198	0xbf0a2c5e	-0.5397395
199	0x3d40af49	0.047042165
200	0xbe9932c7	-0.29921553
201	0x3ee18c99	0.4405258
202	0x3ec6f198	0.38856196
203	0x3cd03f31	0.025420757
204	0x3f168671	0.5879889
205	0xbe4d7551	-0.20064284
206	0x3f06bfc5	0.5263637
207	0x3f4ce578	0.8003764
208	0xbeeed013	-0.46643123
209	0xbeceb479	-0.40372065
210	0x3ea8cda0	0.3296938
211	0xbfb82eba	-1.438926
212	0xbf9b57e2	-1.2136195
213	0xbedb8aba	-0.42879277
214	0x3e869369	0.2628434
215	0x3ef2ca39	0.4741991
216	0xbf4a8b12	-0.79118454
217	0x3f105d0f	0.56391996
218	0xbf34f34d	-0.7068375
219	0x3db2ea6f	0.08736121
220	0x3f209e6d	0.6274174
221	0xbf12c749	-0.57335335
222	0x3ed7437e	0.4204368
223	0xbf4cdf42	-0.80028164
224	0xbed60602	-0.4180146
225	0x3f763153	0.9616901
226	0x3e9db441	0.30801585
227	0xbf8150f8	-1.0102835
228	0x3e0558d7	0.13022171
229	0xbe2aa246	-0.16663465
230	0x3ef8bb6a	0.48580486
231	0xbd74af4c	-0.05973749
232	0xbf992574	-1.1964555
233	0xbd8bb85d	-0.06822274
234	0xbeef6e14	-0.4676367
235	0xbd54735f	-0.05186784
236	0x3ebfca1b	0.37458882
237	0x3db416e6	0.0879343
238	0x3ebbc917	0.36676857
239	0xbde7b140	-0.11313105
240	0x3f8fef0d	1.1244828
241	0x3d4b795f	0.049676295
242	0x3f5dfb78	0.86711836
243	0x3f218166	0.6308807
244	0xbd8e01ca	-0.06933935
245	0xbf2290bc	-0.635021
246	0x3f49dd7d	0.7885359
247	0xbe6be886	-0.2303792
248	0x3f17b6f3	0.59263533
249	0x3d3589ef	0.044320997
250	0xbe681344	-0.22663599
251	0x3f60f290	0.8787012
252	0xbec91288	-0.3927195
253	0xbea53284	-0.32265103
254	0xbed579c7	-0.4169447
255	0xbe749bdc	-0.2388758

pi.logits_net.4.bias f4 [87]
0	0x3e9e5b5c	0.30929077
1	0x3ec0914f	0.37610862
2	0x3edb1e10	0.42796373
3	0x3f162e2b	0.58664197
4	0x3f1591a8	0.5842538
5	0x3ecc04e7	0.3984749
6	0x3ecf19a3	0.40449247
7	0x3ed5f880	0.41791153
8	0x3f1778fd	0.5916899
9	0x3ed60290	0.4179883
10	0x3e71bed0	0.23607945
11	0x3ea6ccc8	0.3257811
12	0x3ebbbc37	0.36667034
13	0x3effd7b6	0.49969262
14	0x3ea784dc	0.3271855
15	0x3eac7886	0.33685702
16	0x3efcb35d	0.49355593
17	0xbd0a4c57	-0.03376421
18	0x3ead727d	0.3387641
19	0x3f018088	0.5058675
20	0x3ecc9f45	0.39965263
21	0x3efb3d9e	0.49070448
22	0x3ebb0798	0.3652923
23	0x3ef6585e	0.48114294
24	0x3ea6bb22	0.32564646
25	0x3f165cbb	0.58735245
26	0x3f009512	0.50227463
27	0x3ec6e422	0.38845927
28	0x3efe578b	0.49676165
29	0x3ec1745e	0.37784094
30	0x3e85d84b	0.2614158
31	0x3e073595	0.13204034
32	0x3eaf2a72	0.3421207
33	0x3f0492a6	0.5178627
34	0x3f129a9d	0.5726717
35	0x3f0e2eb0	0.5553999
36	0x3e9e03ea	0.3086236
37	0x3f009454	0.5022633
38	0x3f14d2fa	0.58134425
39	0x3ea46c22	0.3211375
40	0x3f0ae7bb	0.5425984
41	0x3f225284	0.6340716
42	0x3eacf213	0.33778438
43	0x3ee14071	0.43994477
44	0x3f17544e	0.59113014
45	0x3eeae428	0.45877194
46	0x3e2b36dc	0.16720146
47	0x3eb540ac	0.35400903
48	0x3f100a72	0.5626594
49	0x3ea3d613	0.31999263
50	0x3e6eca63	0.23319392
51	0x3eee4d75	0.4654347
52	0x3f080f26	0.53148115
53	0x3eca6a3b	0.39534172
54	0x3f0eab8c	0.5573051
55	0x3edcafd6	0.43102902
56	0x3ec90b84	0.39266598
57	0x3e889945	0.26679435
58	0x3f3c4e4e	0.73556983
59	0x3e54c23a	0.20777217
60	0x3e3282bc	0.17432684
61	0x3ec65021	0.38733009
62	0x3eb916b2	0.36150128
63	0x3e66dd4b	0.22545354
64	0x3e489df0	0.19591498
65	0x3f279045	0.6545451
66	0x3ead7b58	0.33883166
67	0x3e81f0fb	0.25379166
68	0x3f2c853f	0.6739082
69	0x3e72aaa3	0.23697905
70	0x3ee14c8a	0.44003707
71	0x3ef79398	0.48354793
72	0x3ede1968	0.43378758
73	0x3eadb6ae	0.33928436
74	0x3e90f79b	0.28313908
75	0x3e9d7a1c	0.30757225
76	0x3e93813b	0.28809533
77	0x3f05cab4	0.52262425
78	0x3ebe6342	0.37185103
79	0x3edfebdf	0.43734643
80	0x3ec6ad30	0.38804007
81	0x3ee2c3b9	0.4428995
82	0x3f0a892b	0.5411555
83	0x3e8b1f66	0.27172393
84	0x3edeabfa	0.43490583
85	0x3f3ca328	0.73686457
86	0x3e3fc9f5	0.18729384

v.v_net.0.weight f4 [64, 282]
0	0x3fd459a5	1.6589857
1	0x3f477acb	0.7792174
2	0x3fc20355	1.5157267
3	0x3fe046ef	1.7521647
4	0x3fd3e93f	1.6555556
5	0x3fd17d4f	1.6366366
6	0x400b6330	2.177929
7	0x400d1636	2.2044806
8	0x3fb7ab57	1.4349164
9	0x3fdf5e5d	1.7450672
10	0x3f3b9c35	0.7328523
11	0x3f53c681	0.8272477
12	0x3fd9a0df	1.7002219
13	0x3fbef2b1	1.4917814
14	0x3fd807d3	1.6877388
15	0x3fdbde89	1.7177287
16	0x3fd18367	1.6368226
17	0x3f652918	0.8951583
18	0x3fd1f70f	1.6403521
19	0x3fd343a9	1.6505023
20	0x3fd4c7ed	1.6623513
21	0x400b048c	2.1721525
22	0x3fb21da4	1.3915296
23	0x3fd99ab3	1.7000335
24	0x3fb7ca49	1.4358608
25	0x3fc10f69	1.5082828
26	0x3fd63aa5	1.6736647
27	0x3fdb72c7	1.7144402
28	0x400840b4	2.1289492
29	0x3fd62a0b	1.673158
30	0x3fd122a3	1.6338695
31	0x3fbd3095	1.4780451
32	0x3f53f1df	0.8279094
33	0x3fd98fc7	1.6997002
34	0x3fd88e4f	1.6918429
35	0x400c974e	2.196735
36	0x400b3074	2.1748323
37	0x3fb9e14d	1.4521881
38	0x3fc9f70f	1.5778521
39	0x3fb7a24b	1.4346403
40	0x3fc02c9b	1.5013613
41	0x3f3b8859	0.73254925
42	0x3fc561a9	1.5420429
43	0x3fc4f5c7	1.5387505
44	0x3faf67ec	1.370359
45	0x3fc65837	1.5495671
46	0x3fd5bc8b	1.6698164
47	0x3fc98657	1.5744122
48	0x3f48a6db	0.783796
49	0x400cf6fa	2.2025743
50	0x3fe11743	1.7585224
51	0x3fce8dd5	1.6137034
52	0x3f3ad861	0.7298642
53	0x3fc384d1	1.5274907
54	0x3f46afdf	0.7761211
55	0x3fd10029	1.6328174
56	0x3f4bd255	0.79617816
57	0x3fd7939b	1.6841921
58	0x3fbeed61	1.4916192
59	0x3fd4edf7	1.6635121
60	0x3fda0039	1.7031318
61	0x3fb8461f	1.4396399
62	0x400a3977	2.1597574
63	0x3f4bb8dd	0.79578954
64	0x3f46bd8d	0.7763298
65	0x3fc5d1c1	1.5454637
66	0x3fc0b161	1.5054132
67	0x3f423573	0.7586281
68	0x3fa70d28	1.305089
69	0x3fd14c4d	1.635141
70	0x3f4cb9e5	0.7997115
71	0x400c0501	2.1878054
72	0x3fbc9d27	1.4735459
73	0x3fa8b198	1.3179197
74	0x3f521181	0.8205796
75	0x400a9af8	2.1657085
76	0x3f5b9b39	0.85783726
77	0x4009ee97	2.1551874
78	0x3fd9262d	1.6964775
79	0x3fc492f9	1.5357352
80	0x3f53440b	0.825257
81	0x3fcaf441	1.585579
82	0x400a339b	2.1593997
83	0x3fd440c3	1.6582264
84	0x3fb776c9	1.4333125
85	0x3fd51c2f	1.6649226
86	0x3f566c19	0.83758694
87	0xbf9a3b2a	-1.2049305
88	0x3f69998b	0.9124991
89	0x3fe4fd2e	1.7889764
90	0xbfcc5e1c	-1.596622
91	0xbf19ad44	-0.6003001
92	0xbe3cdd94	-0.184439
93	0xbed82c1b	-0.4222115
94	0xc02c7529	-2.694651
95	0x3f4048c5	0.7511104
96	0x3fcd6a7c	1.6048121
97	0x3f63bbd4	0.8895848
98	0x3f0a8e92	0.54123795
99	0xbfec0a07	-1.844056
100	0xbeeb5bc5	-0.45968452
101	0xbf8b0202	-1.0859988
102	0xbf2d05af	-0.675868
103	0x3d8d3c8d	0.06896315
104	0x3f01865a	0.5059563
105	0xbf0e8fd3	-0.5568821
106	0xc06107ef	-3.5161092
107	0x3ec3a81f	0.38214204
108	0x3f5ee3cd	0.87066346
109	0xbf58f19b	-0.8474366
110	0xbf583f61	-0.8447171
111	0xbe80f78d	-0.25188866
112	0xbe961dde	-0.29319662
113	0xc024854e	-2.5706363
114	0xbead33a4	-0.3382846
115	0x3d1628a6	0.03665986
116	0xc0958ee8	-4.6736946
117	0xbf210b3b	-0.6290776
118	0x3f397c9d	0.7245577
119	0x400f91bb	2.2432697
120	0xbec81762	-0.3908034
121	0x3ea7be9e	0.32762617
122	0x3f920f0b	1.1410841
123	0xbc97bf87	-0.018523945
124	0x3e778c04	0.24174505
125	0xbfd973f0	-1.6988506
126	0x3eebb973	0.46039924
127	0x3fc9cd61	1.5765802
128	0x3f85cac9	1.045251
129	0xbf60d3a9	-0.8782297
130	0x3f512a35	0.8170503
131	0xbf028200	-0.50979614
132	0x3f76c90c	0.96400523
133	0xbf4c0da6	-0.79708326
134	0xc014a675	-2.3226597
135	0xbf75133b	-0.9573247
136	0xbfe627a0	-1.7980843
137	0xc02ca5d4	-2.6976213
138	0xbfe9b64c	-1.8258758
139	0x3fa2d05a	1.2719834
140	0xbec295a0	-0.3800478
141	0xbd362832	-0.044471927
142	0xbfa0c8cc	-1.2561278
143	0xbf8f7132	-1.120642
144	0xc02f9686	-2.7435622
145	0x3d49b94a	0.04924897
146	0xbfb08841	-1.3791581
147	0xbf24ff38	-0.6445193
148	0xbfdf3435	-1.7437807
149	0x3f254d3d	0.6457098
150	0xbe3e772c	-0.18600148
151	0xbebe2935	-0.37140813
152	0xbf89fde5	-1.0780607
153	0xbf1c1ec0	-0.6098442
154	0x3f3fddd0	0.74947834
155	0x3f36bb49	0.71379524
156	0xbff0a0da	-1.8799088
157	0x3fd897fc	1.6921382
158	0xbf018053	-0.5058643
159	0xbe9546f0	-0.29155684
160	0xbfcdf4af	-1.6090297
161	0x400f55e1	2.2396166
162	0xbfc378a1	-1.5271188
163	0xbecffbc0	-0.40621758
164	0x3f831a21	1.0242349
165	0xbfe316d0	-1.7741337
166	0x3f2ecf2d	0.68284875
167	0x401f25fc	2.4866934
168	0x3f16f956	0.58974206
169	0x3e7ba4cb	0.24574582
170	0xc066e0c5	-3.6074688
171	0x3f1dc7e3	0.6163313
172	0xc04cd495	-3.200475
173	0x3e9a6470	0.30154753
174	0x405da2b4	3.4630556
175	0x400c5867	2.1928957
176	0x3e07a2d1	0.13245703
177	0xbfe972c0	-1.8238144
178	0x3f720cda	0.9455086
179	0x3ecf3999	0.4047363
180	0x3f6271e0	0.8845501
181	0x3e99ae9f	0.30016038
182	0xbe89b5c7	-0.26896498
183	0xc03ba7e6	-2.9321227
184	0xbd2da40e	-0.042392783
185	0x4086edae	4.2165136
186	0x412c43fc	10.766598
187	0x4025e215	2.591924
188	0x3ffbd351	1.9673864
189	0x3d6b3162	0.057420142
190	0x3f86373c	1.0485606
191	0x3f114553	0.56746405
192	0xbfae3606	-1.3610237
193	0x401b1d8e	2.4236789
194	0xbfa1867e	-1.2619169
195	0xbf3ba7fb	-0.7330319
196	0xc02805ec	-2.6253614
197	0x3ff22174	1.8916459
198	0xbe973124	-0.2952968
199	0xbe5bf44a	-0.21479908
200	0xbfbc2a97	-1.4700497
201	0x3f749148	0.9553418
202	0x40145e5f	2.31826
203	0xbd7b3628	-0.061330944
204	0xbfc7e7cb	-1.5617613
205	0xbf0c7172	-0.54860604
206	0xbfbeeb5f	-1.491558
207	0x3f176f66	0.59154356
208	0x3fa65e67	1.2997559
209	0xbe21b865	-0.15792997
210	0xc03e9057	-2.9775598
211	0x3fe5c2f4	1.795012
212	0x3eae7f20	0.34081364
213	0xbdbd0fe8	-0.092315495
214	0x3fc85764	1.565167
215	0xbfe34ea1	-1.7758371
216	0xc012593f	-2.2866971
217	0xbeace9ec	-0.33772218
218	0xbf3bb862	-0.7332822
219	0x3f40b838	0.75281096
220	0xc02b1245	-2.67299
221	0xbfb32d38	-1.3998175
222	0x3e15e870	0.14639449
223	0x3e7a4c9a	0.24443284
224	0x3f7f4f39	0.9973026
225	0xbfdcc87e	-1.7248685
226	0xbc37d21b	-0.011219527
227	0x3edb01a2	0.42774683
228	0x3e159fa2	0.14611676
229	0xbec7ea14	-0.39045775
230	0xbf586e13	-0.8454296
231	0xbf265443	-0.64972323
232	0x3eedf72b	0.46477637
233	0x3f9de119	1.2334319
234	0x3ed5e159	0.4177349
235	0x3f9204e0	1.1407738
236	0x3f62b133	0.88551635
237	0xbe85efe4	-0.26159585
238	0x3f8373cc	1.0269713
239	0x402fd047	2.7470872
240	0x3ffe8825	1.9885298
241	0x3f536610	0.8257761
242	0xc008cb81	-2.137421
243	0xbf1c5b3a	-0.610767
244	0xbf20b101	-0.62770087
245	0xbf710688	-0.9415059
246	0xc026ab09	-2.6041892
247	0x3f66c239	0.9014011
248	0xbd518cb7	-0.051159587
249	0x3e40bac9	0.18821253
250	0xbf6b68bd	-0.9195669
251	0xbe2754ba	-0.16340914
252	0xbd89815e	-0.06714128
253	0xbf5236d6	-0.82114923
254	0x40132244	2.2989664
255	0x3c93cbf5	0.01804159

v.v_net.0.bias f4 [64]
0	0x40b97112	5.7950525
1	0x406b124d	3.672992
2	0xc0a14c32	-5.040551
3	0x3e0a0311	0.13477732
4	0xbfb23705	-1.3923041
5	0x3f3cb6b0	0.7371626
6	0xbf924dd9	-1.1430007
7	0x3f228a83	0.634926
8	0xbe70b1ec	-0.23505372
9	0xc0baf352	-5.842202
10	0x3ff2d718	1.8971891
11	0xbfaa8c87	-1.3324136
12	0xc0af1128	-5.4708443
13	0x3f93e444	1.1554036
14	0x3f94478b	1.1584333
15	0xbf5a257c	-0.85213447
16	0x40435aa3	3.052407
17	0xc0863817	-4.194347
18	0x40b50f6e	5.6581335
19	0xc02351cf	-2.5518682
20	0xc0a51191	-5.1583943
21	0xbfe44aa4	-1.7835279
22	0x3fa8c329	1.3184558
23	0xc0a25ba2	-5.0736856
24	0xbe7c7388	-0.24653447
25	0x40ab7b63	5.358812
26	0xbf2f7c07	-0.68548626
27	0x3ea63587	0.32462713
28	0x400f4b00	2.2389526
29	0x3f4ee86a	0.80823386
30	0xc02e2a58	-2.7213345
31	0xbf8cc8b9	-1.0998756
32	0xbf4a5f7d	-0.79051954
33	0x3d058029	0.032592926
34	0xbf0b77d6	-0.5447973
35	0x3f910982	1.1331027
36	0x3f5ac567	0.8545746
37	0x3e4e8577	0.201681
38	0xbf656663	-0.89609355
39	0xbfaaf7de	-1.3356893
40	0xbf8b69eb	-1.0891699
41	0xc0516e03	-3.2723396
42	0xbf5c00cf	-0.85938734
43	0x3fb29db5	1.3954378
44	0xc0436e1b	-3.0535953
45	0x404e96e0	3.2279587
46	0x40e4d026	7.1504087
47	0xc00918e7	-2.142145
48	0x40438e7a	3.055571
49	0xc036f34e	-2.8586001
50	0x3f156f8e	0.58373344
51	0xbf69129b	-0.91044015
52	0xbe860795	-0.2617766
53	0x3f920ecd	1.1410767
54	0xc080a893	-4.020578
55	0x403f78e1	2.9917529
56	0x40d4ac65	6.6460443
57	0xbecf5eb0	-0.40501928
58	0x4060c167	3.5118043
59	0xbff65cb7	-1.9247044
60	0x3ec4ec3f	0.3846149
61	0xc013291f	-2.2993848
62	0x3eb92443	0.36160478
63	0xc05ed80b	-3.4819362

v.v_net.2.weight f4 [64, 64]
0	0xc073fe04	-3.812379
1	0x4018b940	2.3863068
2	0xc00068fa	-2.0064073
3	0x3ee63df5	0.44969144
4	0x3f778b94	0.96697354
5	0x408ae50a	4.340459
6	0x3ecc28db	0.3987492
7	0xc044c3dd	-3.0744545
8	0x3f85a168	1.0439882
9	0xc06b7090	-3.6787453
10	0x40b0861f	5.516372
11	0xbfd7c529	-1.6857044
12	0x40109aa5	2.2594388
13	0x3dbdd4e4	0.09269121
14	0xc062a2fb	-3.5411975
15	0x400a9fd2	2.1660047
16	0xc05994a6	-3.3996978
17	0xbca49ca4	-0.020094223
18	0xbfd24f8d	-1.6430527
19	0x3f9ab224	1.2085614
20	0xbf8d3b0c	-1.1033645
21	0x402a6e69	2.662989
22	0xc00a9389	-2.1652548
23	0xbfba99ed	-1.4578224
24	0xc02ec2c7	-2.7306383
25	0xbf860d13	-1.047274
26	0x4018985e	2.3842998
27	0xbfb23852	-1.3923438
28	0x4038d4d0	2.887989
29	0xc05953e7	-3.395746
30	0x3f80ec1b	1.0072054
31	0xc072c084	-3.7930002
32	0x4038fd2e	2.8904529
33	0xc0214124	-2.5196009
34	0xbf758343	-0.95903414
35	0x3f9d9361	1.2310601
36	0xbfc7f31d	-1.5621067
37	0xbf55943d	-0.8342932
38	0x3fc34ddb	1.5258135
39	0x40a18b59	5.04826
40	0xc09dbd6e	-4.9293737
41	0xbf17ed0d	-0.59346086
42	0x3f8b9125	1.090367
43	0xc04e5212	-3.2237592
44	0xbf83a412	-1.0284445
45	0xbe51b563	-0.2047935
46	0x3f8c28c2	1.0949938
47	0x3f718da1	0.94356734
48	0xbfa00908	-1.2502756
49	0xc076ddbe	-3.857284
50	0xc0eb87c2	-7.360322
51	0x3e03676e	0.12832424
52	0xc007cc5b	-2.1218479
53	0x3e981e5d	0.29710665
54	0x400b0b6e	2.1725726
55	0xbf0e4842	-0.55579007
56	0x408a0f81	4.3143926
57	0xc0d077ee	-6.51464
58	0x3f4081c7	0.75198025
59	0x3e010daf	0.12602876
60	0x3f368e79	0.71311146
61	0xbe69816d	-0.22803278
62	0x3eab9dab	0.3351873
63	0xc004b20a	-2.0733666
64	0x40ae6b2d	5.450583
65	0xbf31e92d	-0.69496423
66	0x40124867	2.285669
67	0x4002f66d	2.0462906
68	0x400f8a7f	2.2428281
69	0xc08e5d08	-4.4488564
70	0x401e06f7	2.469175
71	0x3f00f429	0.5037256
72	0xbf14dc58	-0.5814872
73	0xbff634a5	-1.9234816
74	0xc0990eb9	-4.783047
75	0x40d89214	6.767832
76	0xbf69e7fa	-0.91369593
77	0x400ded96	2.217626
78	0x409a9ca5	4.8316216
79	0xc011be51	-2.277241
80	0x4003e264	2.0606928
81	0x3f23a423	0.6392233
82	0xbf42bc70	-0.7606878
83	0xbf93d23d	-1.1548535
84	0xbef70833	-0.48248443
85	0xbf504b1c	-0.8136461
86	0x3f667bd8	0.9003272
87	0xc01c570a	-2.4428124
88	0x40176972	2.3658109
89	0xbf870d40	-1.0550919
90	0xc04f6f9a	-3.2411866
91	0x400bda63	2.1852043
92	0x40916944	4.5441
93	0xc055a81a	-3.338385
94	0xc009aa54	-2.151021
95	0xbea31d26	-0.31858176
96	0x407af861	3.9214098
97	0xc100e589	-8.056039
98	0xbf019fae	-0.50634277
99	0x3efd15b3	0.49430618
100	0x40926c30	4.5757065
101	0x3e7e497f	0.24832724
102	0xbf7e3ae0	-0.99308586
103	0x3ed14827	0.4087536
104	0x407b778b	3.9291713
105	0xbea6354b	-0.32462534
106	0xc02ce435	-2.7014287
107	0x4071b44b	3.7766292
108	0x3ffdd2b5	1.9829928
109	0xc03fcf4b	-2.9970272
110	0x3bfd62ca	0.007732724
111	0x3fca36e7	1.5798005
112	0xc0933800	-4.600586
113	0xbf8fbe8a	-1.1230023
114	0x40b3a933	5.614404
115	0xc01d7e5c	-2.4608374
116	0xbed5ae97	-0.41734764
117	0xbf33e94a	-0.70277846
118	0xbfa93359	-1.3218795
119	0xbf439388	-0.7639699
120	0x40366093	2.8496444
121	0xbfee0073	-1.8593887
122	0xc00c3d76	-2.1912513
123	0xbf9c5546	-1.2213523
124	0x3f3dd4e6	0.7415298
125	0x4018cb58	2.387411
126	0xc0162e50	-2.3465767
127	0x408f9597	4.4870105
128	0x3f2cdd1f	0.67524904
129	0xbf94dd9f	-1.1630133
130	0xbdf385a1	-0.11890722
131	0x3ff5b0ba	1.9194558
132	0xc01d247e	-2.4553523
133	0x3fd9b022	1.7006876
134	0x3e7d2b84	0.24723631
135	0x3ec96b6e	0.39339775
136	0xbfd6df57	-1.6786908
137	0xbf00c8bb	-0.5030629
138	0x3c88c930	0.016697496
139	0x3ed229ec	0.4104761
140	0xbf8bfcab	-1.0936483
141	0x3f7c0d42	0.9845773
142	0xbf5f32cb	-0.8718688
143	0x3d9b80f8	0.07592958
144	0x4007974e	2.11861
145	0xbeedba45	-0.46431175
146	0xbedea764	-0.43487084
147	0xbf4054c8	-0.75129366
148	0x3f61a9eb	0.881499
149	0x3dc1d613	0.094646595
150	0x3fdc8eb3	1.7231048
151	0x3e870993	0.26374492
152	0x3f2c8015	0.6738294
153	0xbe437fd7	-0.19091736
154	0x3ee8cc27	0.45468256
155	0x3f9928d7	1.1965588
156	0x3f440503	0.7657015
157	0xbe2e9bb2	-0.1705158
158	0xbf64f9f4	-0.894439
159	0xbf2bb5c3	-0.6707422
160	0x3e2f309c	0.17108387
161	0xbfd9c32a	-1.7012684
162	0x3eaaebf6	0.3338315
163	0x4012f5ee	2.2962604
164	0xbe3173a8	-0.17329276
165	0x3ff1b5af	1.888357
166	0xbf5e12ee	-0.86747634
167	0x3f826676	1.0187519
168	0xbe929fd5	-0.28637567
169	0x3f31ff81	0.69530493
170	0x3f94507f	1.1587065
171	0x3f2abf42	0.66698086
172	0xbe584450	-0.21119809
173	0xbfb9d2ec	-1.4517493
174	0xbedb04dc	-0.42777145
175	0x3d2478f3	0.04015441
176	0xbd076f85	-0.033065338
177	0x3e0c2fd4	0.1369012
178	0xc0025bee	-2.036861
179	0xc01012e5	-2.2511532
180	0xbf3009ad	-0.68764764
181	0x3f1920e0	0.5981579
182	0x3fd535c9	1.6657039
183	0xc11f020e	-9.938002
184	0x3f4e4dd1	0.8058749
185	0xbf8501d1	-1.0391179
186	0xbf041930	-0.51600933
187	0x3f9b11e2	1.2114832
188	0xbf83ee38	-1.0307074
189	0xbeb95a50	-0.36201715
190	0xc03528a8	-2.8306065
191	0xbfbbb120	-1.4663429
192	0xbe7cb78a	-0.2467939
193	0x3fb9e516	1.4523036
194	0xc080d72c	-4.026266
195	0x3e83a52a	0.25711948
196	0xc097c9eb	-4.743398
197	0x40017e7b	2.0233448
198	0x3def50b9	0.116853185
199	0x3fc7f299	1.562091
200	0xc008dfc4	-2.1386576
201	0x3f9889f4	1.19171
202	0xbf729a54	-0.94766736
203	0xc0185a68	-2.380518
204	0x3f28fd6b	0.66011685
205	0xc015b634	-2.3392458
206	0x3d66633a	0.056246974
207	0x40633733	3.550244
208	0x409e7544	4.9518147
209	0x3f88d4e9	1.0689975
210	0x3febd676	1.8424823
211	0x3fa945af	1.3224391
212	0xbf844ca8	-1.0335894
213	0xbfe0c9e9	-1.7561618
214	0x405471e7	3.319452
215	0x40062cd8	2.096487
216	0x3f1d7e33	0.6152069
217	0xbda25fbd	-0.07928417
218	0xbf19649b	-0.59919137
219	0x40572cea	3.3621163
220	0x4020a356	2.5099692
221	0x3e239d9f	0.15978096
222	0xc0377053	-2.8662307
223	0x3ff4def2	1.9130538
224	0xc0028824	-2.0395594
225	0xbee970cb	-0.45593867
226	0x4046ac99	3.1042845
227	0x402987e6	2.6489196
228	0xbf226cb9	-0.6344715
229	0xbde85dbb	-0.11346003
230	0xbee1a8d8	-0.4407413
231	0x3f0438ab	0.5164897
232	0x3e17c3e5	0.14820822
233	0x3fa7ed46	1.3119285
234	0xbf092f3f	-0.53587717
235	0xbfe945a2	-1.8224375
236	0x3fbdbb56	1.4822795
237	0xbdb18d82	-0.086695686
238	0xc083c35d	-4.117598
239	0x3d71dc39	0.05904791
240	0x3ea6ee14	0.32603514
241	0x3ebe8a3c	0.3721484
242	0xbfc8b07d	-1.567886
243	0xc08da628	-4.4265327
244	0x3d194b75	0.037425477
245	0xbcbcee4d	-0.02306285
246	0x3fe8e5fe	1.8195188
247	0xc0936934	-4.606592
248	0xbfb5dbce	-1.4207704
249	0xc043d760	-3.0600204
250	0x3e45043d	0.19239898
251	0xbf31710f	-0.6931314
252	0x3fa28e37	1.269965
253	0x3dd1bead	0.10241447
254	0xc02a8148	-2.6641407
255	0xc0206dda	-2.5067048

v.v_net.2.bias f4 [64]
0	0xbe1130a8	-0.14178717
1	0xbf74991c	-0.95546126
2	0xbfbaa771	-1.4582349
3	0xbf02d566	-0.5110687
4	0x3fb7b5a9	1.4352313
5	0x3f97bd7c	1.1854701
6	0x3faafa10	1.3357563
7	0x3d107b4f	0.035273846
8	0xbf700bbf	-0.93767923
9	0x3df82e7e	0.12118243
10	0x3f76b631	0.9637175
11	0xbfbac140	-1.4590225
12	0xbf43dce7	-0.76508945
13	0xbf66b83b	-0.90124863
14	0x3e8630db	0.2620915
15	0x3f7410df	0.95338243
16	0x3e5f9376	0.21833596
17	0x3fe74ce4	1.807034
18	0x3eb7c2ab	0.35890707
19	0x3e25946c	0.161699
20	0xbf5e798f	-0.86904234
21	0xbf15733d	-0.58378965
22	0x3cccd325	0.025003025
23	0x3fa7298b	1.3059553
24	0xbf8542e6	-1.0411041
25	0xbd8a64bb	-0.06757494
26	0x3ed0bc14	0.40768492
27	0xbe6d13f1	-0.23152138
28	0xbc69431a	-0.01423719
29	0xc01b5a84	-2.4273996
30	0x3fac35a2	1.3453867
31	0xbf459502	-0.7718049
32	0x3f1047ff	0.5635986
33	0x3f8125f4	1.0089707
34	0x400c5e66	2.1932616
35	0x3f14b885	0.58094054
36	0x3f380517	0.71882766
37	0xbf380bec	-0.7189319
38	0x3f357151	0.7087603
39	0xbfce2f5a	-1.61082
40	0xbf038ecb	-0.5138976
41	0xbe542f88	-0.20721257
42	0x3f36bc37	0.71380943
43	0xbf31fd23	-0.6952688
44	0x3fbc92c8	1.4732294
45	0x3f3dd853	0.7415821
46	0x3f5f2635	0.87167674
47	0xbf359b7c	-0.70940375
48	0xbfdcb191	-1.7241689
49	0x3f4dc9f5	0.80386287
50	0xbef0876e	-0.46978325
51	0x40123f03	2.285096
52	0xbed16b9a	-0.40902406
53	0xbfd6d50c	-1.6783767
54	0x3fbc4b55	1.471049
55	0xbec27ba7	-0.37984964
56	0x3ed5dab1	0.4176841
57	0x400841fe	2.1290278
58	0xbf81d90d	-1.0144364
59	0xbd06f210	-0.032945693
60	0x3f4eb356	0.80742395
61	0xbe4b02e3	-0.1982532
62	0x3d92b923	0.07164218
63	0xbf2c09c3	-0.67202395

v.v_net.4.weight f4 [1, 64]
0	0x405f0aa7	3.4850252
1	0xbffe7d1f	-1.9881934
2	0xc0c6f9cc	-6.217993
3	0xc09daebc	-4.92758
4	0xc07d1cfa	-3.9548936
5	0x400f43be	2.2385097
6	0x40f23c73	7.569879
7	0x40bee26f	5.965141
8	0x4090df22	4.527238
9	0xc0d1103a	-6.533231
10	0xc098c101	-4.77356
11	0xc09775b5	-4.7331185
12	0x4111e6ac	9.118816
13	0x41256226	10.336462
14	0xc0b14b02	-5.540406
15	0xc15f0312	-13.93825
16	0xc0efc146	-7.492343
17	0x40c9e4d8	6.309185
18	0x40877d32	4.2340326
19	0x409ca230	4.8947983
20	0xc0a5ace5	-5.1773553
21	0xc0ef71da	-7.482648
22	0xc047976f	-3.1186178
23	0x40c47050	6.13871
24	0xc095cedf	-4.681503
25	0x411a9b1e	9.66287
26	0xc0a7194d	-5.2218385
27	0x40f567f6	7.6689405
28	0xc0b9d29e	-5.80696
29	0xc07b3528	-3.9251194
30	0x40a0b398	5.021923
31	0xc0abbf38	-5.367092
32	0xc1748a5a	-15.283777
33	0x40b29859	5.581097
34	0x40ce54b7	6.447841
35	0x40b9ad08	5.802372
36	0xc0cea04c	-6.4570675
37	0xc0709ea6	-3.7596831
38	0x40c20a03	6.063722
39	0xc07efa5d	-3.984031
40	0xc0969820	-4.70607
41	0xc09846be	-4.7586355
42	0x409b27cd	4.8486085
43	0xc09f54e1	-4.979111
44	0x41a49860	20.574402
45	0xc120accb	-10.042186
46	0x409e83e1	4.9535985
47	0xc0da179d	-6.8153825
48	0xc0d6f109	-6.716923
49	0x40a44459	5.133343
50	0xc07f1901	-3.985901
51	0x408d3abc	4.4134197
52	0xc0ab81c0	-5.3595886
53	0xc0ba23c8	-5.816868
54	0x40aeb130	5.4591293
55	0xc085c9b2	-4.180871
56	0xc0500500	-3.2503052
57	0x40943642	4.6316233
58	0xc033caf5	-2.8092625
59	0x40c9d92b	6.30776
60	0x40b20d26	5.564105
61	0xc0818098	-4.0469475
62	0x40ff3651	7.9753804
63	0xc0eda9f4	-7.426996
