model_wts/s3_d3_m1.0_b0.0.ckpt (torch, 206875 bytes, 11 tensors)

pi.logits_net.0.weight f4 [64, 282]
00000000: d7fc c73d 6337 6e3d 3db3 55bd 1a18 a03d
00000010: 5a03 f93c 2f71 08bd 9ce2 75bd f8cf 81bd
00000020: 4baf 7cbc 5941 fe3e 3b77 053e 712e 103e
00000030: 497f eb3d d04b 1dbd d556 0bbd 42c9 043e
00000040: 03c8 f13d 5cea c03d cfe3 993d ca5f 4f3e
00000050: 328a 323e c769 01be 83da 3d3d a5dc 1fbd
00000060: 8c15 01be 56c9 82bd b861 083e 48d1 2d3e
00000070: 63d1 0cbe fff2 e23d 7803 1abc f18c 1e3c
00000080: 4cb3 7e3d b39e 0cbd 039d d93d 8f43 f9bd
00000090: 494b ddbd aa84 afbd d34b c13b 6114 d1bc
000000a0: d90c 8abc 2ab2 023e d0e2 08bd 3af5 85bd
000000b0: 0f41 bf3c 64fd 27bd b740 e3bb be3b 9f3c
000000c0: 2feb 023e 3efd 18bd 0670 413e 96d4 073e
000000d0: 5bc9 023e 839c d43c c3d4 123e ee2a 473d
000000e0: 5490 ab3d 7e65 543e 6d69 97ba e07f 063e
000000f0: 9aee 4c3e 1bb2 b7bc 6db9 0bbe 7ed1 e03d
00000100: 3ef4 773d 24a0 9bbd c8dd b8bd 0e7a bf3d
00000110: 4dc9 bb3c 48b9 3b3e a08b f13d b888 31bd
00000120: 69df 5bbd ccd6 01bc c7e8 303e ef18 93bd
00000130: 6616 e63d 1c8d 2ebd 4fa2 173e 1985 5b3c
00000140: e0c5 ad3d 40a5 8fbc 6daa 15be 3a1c 253e
00000150: 9983 c33c 6f79 d63d fdb3 233e eaab 013b
00000160: e26f ba3c 412f db3c d2ae fdbe 7899 16be
00000170: 6c33 34bb 0606 e8bd 3afb 023f b22e b93d
00000180: 7afc 71bf 89c0 7fbe 8173 b5bd c88b 593c
00000190: da98 2d3e ee5a fbbc 8c5c dabe 120d cbbc
000001a0: 9ea9 5cbe 7ff0 843e 8a2d cbbe f6ab 913d
000001b0: 89c8 3e3f 5645 243b 69ec 80be d790 63bb
000001c0: 5a0d 06be 1029 a0be dfc5 6ebe 8f88 a0bc
000001d0: 647b afbe 57e4 663f 7664 143e 948c ec3e
000001e0: 69f2 cf3e f45b 13bd 93de 8ebe ffc6 863d
000001f0: b46c 54bd eaf4 a4be 7896 993d 7bbc 343e
00000200: c4a1 533e caf2 c33d 8f2a 6b3e 908a 6d3e
00000210: 4141 783e 4da9 e6be 46d8 913d 6737 24be
00000220: 2476 f03e ac53 193e b181 2abe 9dbe 99be
00000230: 8cf4 a1bd 22ba 45be 95ec 2bbe c48a fc3e
00000240: e8f2 2f3d 0a48 203e 7143 9d3d 0ce5 7f3e
00000250: 6d15 2b3e 4eb6 8e3d 0a2b d638 443f a63e
00000260: 0028 1b3e e23f 3dbe bced 8f3d 1c2f 31bf
00000270: 1012 103e a306 d2be 6217 83bd e431 5f3d
00000280: 9104 acbe 4d5a 68bd d2b8 fbbd b82e 2bbe
00000290: dcf5 e73e c0be 4c3c f7c8 8e3e 3c00 8bbe
000002a0: c2ce 4ebf 7658 ef3e efdb dbbe 64c0 103e
000002b0: 6731 62bd a31a c13d 0335 993d d3c9 6dbe
000002c0: d791 33be 9bdc 833e b785 603e 04fb 353f
000002d0: 6484 3c3e 6b37 723d 6b6c bcbe ef57 02bf
000002e0: f106 843e e4ca acbe f121 90be 3ba1 473f
000002f0: e2ed 03be 598d d3be 4965 bebd 4646 db3e
00000300: 9f58 2a3e dd11 983e 8f71 8d3c e261 933d
00000310: cf27 6f3f 871a ff3e 1c84 92be 797c aa3e
00000320: 92ef d8bc e6cf 5c3e 5a55 ccbd 6076 033e
00000330: 1dfe 7ebf be4a 93bc ed5a 053f 6139 133d
00000340: bc24 2a3e 656f 3e3e 925e 4c3e 1dc4 193f
00000350: 832a 05bf 785f cebe 8631 a23e 9a6c 65be
00000360: 6747 753e e6cc 383f 0e1b 19bf 6c12 443e
00000370: a344 543e 1d63 d6be a5ff 12be c4d5 abbe
00000380: 4a16 9b3f 8595 ccbe c8b0 b3bd b094 093c
00000390: 4e35 173e 37a3 90be 24d4 523f e04e 7ebd
000003a0: f900 d8bd d8fe 273e 3924 abbe 7360 f93e
000003b0: b15c 1ebf 994b 3e3f edb1 aa3e 4dcf 9d3d
000003c0: 93da 283f e14a 013f d5d8 56be 80ef e5be
000003d0: 34ff 353e e229 ce3e 7f00 903f a1ee 223f
000003e0: 8316 f0be 9935 ac3e 7fe2 a43e daa5 06be
000003f0: fc34 01bf 537e 233f 1d60 463e 5997 3cbe
0.09765022 0.05815829 -0.052172888 0.07817097 0.030397106 -0.033311065 -0.060030565 -0.06338495
-0.0154226525 0.4965923 0.13033764 0.14080216 0.11498887 -0.03840238 -0.034018356 0.12967399
0.11805727 0.094197005 0.07514154 0.20251384 0.1743553 -0.12638007 0.046350967 -0.039028782
-0.12605876 -0.06386058 0.13318527 0.16974366 -0.1375175 0.11081504 -0.009400241 0.009677158
0.06218271 -0.034331035 0.10625651 -0.12171089 -0.10805375 -0.085702255 0.0058989315 -0.025522413
-0.01685183 0.12763277 -0.03341943 -0.06540914 0.023346452 -0.041013137 -0.006935205 0.019437667
0.12785028 -0.037350886 0.1889039 0.13264689 0.12772124 0.025953537 0.14338975 0.048624925
0.08377138 0.20741841 -0.0011551805 0.13134718 0.20012894 -0.022423794 -0.13644953 0.109774575
0.060535662 -0.07598904 -0.090266764 0.09349452 0.022923136 0.18332398 0.117942095 -0.043343276
-0.053679857 -0.007924747 0.17276298 -0.0718249 0.11234741 -0.04261504 0.1480801 0.013398432
0.08485007 -0.017534852 -0.14615794 0.16124049 0.023866462 0.1047238 0.15986629 0.0019786307
0.022758428 0.02675593 -0.4954744 -0.14706981 -0.002749647 -0.11329274 0.5116459 0.090421095
-0.94525874 -0.2497579 -0.08859921 0.013277955 0.1695284 -0.030683007 -0.42648733 -0.024786506
-0.21549079 0.25964734 -0.3968318 0.07112877 0.7452474 0.0025065742 -0.25180367 -0.0034723782
-0.1309103 -0.31281328 -0.2331767 -0.019596366 -0.34273827 0.9019217 0.14491448 0.46201003
0.40614632 -0.035976365 -0.27904186 0.06580924 -0.05186148 -0.32218105 0.07499403 0.17650025
0.20667177 0.09567793 0.22965454 0.23197389 0.24243642 -0.4505104 0.07121329 -0.1603676
0.46965134 0.14973325 -0.16651036 -0.3002824 -0.07907972 -0.19309285 -0.16789468 0.4932462
0.042956263 0.1565248 0.07678879 0.24989718 0.16707392 0.069683656 0.00010212332 0.32470143
0.15151978 -0.184814 0.07027766 -0.6921251 0.1406939 -0.41020688 -0.06400944 0.05449094
-0.33597234 -0.056726743 -0.12291111 -0.1671704 0.45304763 0.01249665 0.278877 -0.27148616
-0.8078424 0.46747178 -0.42941234 0.14135891 -0.055222895 0.09428909 0.07480814 -0.23221521
-0.17536102 0.25754246 0.21926008 0.71086144 0.18409878 0.059134882 -0.36801466 -0.50915426
0.25786546 -0.33748543 -0.28150895 0.77980393 -0.12883714 -0.41318777 -0.09296662 0.42827052
0.16635369 0.2970113 0.017266063 0.07196404 0.9342012 0.49824926 -0.28616416 0.3329809
-0.026481424 0.21563682 -0.09977217 0.12838125 -0.99606496 -0.017979976 0.52091867 0.035943393
0.16615576 0.18597181 0.1995795 0.6006487 -0.5201799 -0.40307212 0.31678408 -0.2240471
0.23953019 0.7218765 -0.5980691 0.19147652 0.20729308 -0.41872492 -0.14355333 -0.33561528
1.2116177 -0.39957824 -0.08773953 0.008397266 0.14766428 -0.28249523 0.8235495 -0.06208694
-0.105470605 0.16405809 -0.33426073 0.48706397 -0.61860186 0.743341 0.33338872 0.07705555
0.6595852 0.5050488 -0.20981152 -0.44909286 0.17773134 0.4026633 1.1250151 0.6364537
-0.46892175 0.33634642 0.32204053 -0.13149205 -0.5047147 0.6386463 0.19372602 -0.1841711

pi.logits_net.0.bias f4 [64]
00000000: cc7d ddbc 599c b5bd bf14 103e 0f4b 85bc
00000010: 2137 57bc d1ee 03be 2b31 ddbc a8f7 5f3d
00000020: f95d 2cbe 100a a23c d8d3 07bd 242c 21be
00000030: 5d5b 773b 0c43 933c 7fcd bd39 6a20 3fbd
00000040: 9833 633e 549d f7bd 7437 82be be39 4f3e
00000050: efd5 99bb fbd7 253e 25f7 83bd f7bf dd3d
00000060: 78da ecbd 0594 a43e 08f4 f0bc 1417 c4bc
00000070: 5830 f3bd 6617 1fbd ed11 de3e 6ddc 3d3e
00000080: abfc a4be 10d6 023e ee5a 59be 4697 f0bd
00000090: f4af fc3d 7dad 77bc 43a2 3f3d 764b a33e
000000a0: 2d8f 5b3e fa09 273e 4eec 10be c8d0 0fbe
000000b0: 3465 553e 7d40 8e3d 66f2 59bd d729 993b
000000c0: 1989 663e a296 17be c6f7 2b3e 1652 553e
000000d0: ed46 763d 1de0 0ebc 74cc 343e fe12 cebe
000000e0: dc1f 90bd 1f9b 3a3e b50a 283c 629e 533c
000000f0: 8163 0f3e 191a bbbc 86a8 363e a8d6 c9bc
-0.027037524 -0.088677116 0.14070414 -0.016271142 -0.013135702 -0.1288407 -0.027000984 0.054679543
-0.16832723 0.019780189 -0.033161014 -0.15739495 0.0037743666 0.017976306 0.00036201996 -0.04666177
0.2218765 -0.12090555 -0.25432932 0.2023687 -0.0046946923 0.16195671 -0.064436235 0.1082763
-0.11565107 0.3214418 -0.029413238 -0.023936786 -0.11874455 -0.038840674 0.4337305 0.18541117
-0.3222402 0.12776971 -0.21226093 -0.11747603 0.12338248 -0.015117046 0.046785604 0.3189351
0.21441336 0.163124 -0.14152643 -0.14044487 0.20839387 0.06945894 -0.053209685 0.004674177
0.22513236 -0.14803556 0.16793737 0.20832095 0.060126234 -0.008720425 0.17656118 -0.40248865
-0.07037327 0.18223237 0.010256459 0.012916179 0.14002801 -0.022839593 0.17837724 -0.024638489

pi.logits_net.2.weight f4 [64, 64]
00000000: b1a3 9b3e eefe a33e 7f55 1ebf 3be5 8e3e
00000010: 05d1 243e e401 a33d e3b0 0a3f b2ad 8cbe
00000020: a900 09be 9b7b 3e3f 2aff 3b3f 8b66 2dbe
00000030: 5684 6e3e 4727 2a3e 9618 85bf ee67 043e
00000040: 863e 78be 447d 79be 9efd b7bd f91b 30bd
00000050: de27 dd3e 7477 90be 7add e4bd d601 a33d
00000060: c4ed 063f 8e44 debe 8220 fc3e cb79 973e
00000070: 6b58 0c3e 0292 55bc dd55 103f 7fb7 163f
00000080: 52a9 fabc d9f5 20bf c1e1 4e3d b94f 563e
00000090: 47fe bebe 8cc0 5fbd f547 cf3d f4c4 76bf
000000a0: 9f13 933e 1bef d6bd 79ff a2be e1c4 e53e
000000b0: 211b a83e cec0 2fbf 9771 1abe c0d2 c33e
000000c0: baef 3fbf 0765 853e 4cf0 8f3d c74f b9be
000000d0: 5bd2 bcbe 4727 ec3c 77a2 033e f8f1 b2be
000000e0: bfef 9dbe 59f0 703d ea03 5ebf d923 8cbe
000000f0: 7f79 ebbe 7758 013f 7b4a 6ebe 00ed 213b
00000100: 0b24 223f 3c8a a8be 388c bd3c 9806 a6bd
00000110: 540e bfbe 363e 34bd bd7d b3be 7e43 b2be
00000120: ec0b 45be 50d5 543e 79b4 03be f7a1 d6bb
00000130: 1280 13be dc51 c13d 145d 933e e1e3 28bf
00000140: dbee 51be 1948 c93e a14e c0be d112 37bf
00000150: 9b25 4c3e 70a0 8bbd a87b a53e 510f 343f
00000160: 059a 313e ba0a 0fbe 1dd0 54bf 8124 82bb
00000170: 70b4 183e 8fc6 7cbf 2c12 813f 7a3f 803e
00000180: 01ef 393e 3d4e 8e3e 3140 c53e 40be a9bd
00000190: 08f9 11bf 1a3d b0be 9e21 e7be 578a abbe
000001a0: e81f 14bf cbd7 e33c f45a 053f f3cc f23e
000001b0: 371f ffbe e389 ccbe 76f9 2cbe 2f86 a83e
000001c0: 4b22 593e db52 5bbe a199 d4bd 0e73 06bf
000001d0: 8faf 33be 519a 52bd 1fa2 dd3b feaf 843e
000001e0: 47a1 203f 5d2b cfbe 2bc3 8e3f a6df 96be
000001f0: 45a6 173f e0f7 013f da72 b3bc 5ed6 bcbd
00000200: 646b 583e 8f86 143e 8144 823d 0ace 693f
00000210: 8efe 693e b00c 81be 2268 903e 4a6b b33e
00000220: 3eac c73e 7bab 86be 2375 bdbd 1438 4c3e
00000230: 644a 19bf cdf0 42bf c919 6e3f c375 353d
00000240: 728c 10bf 07d4 dd3d 3831 33be ea61 c5be
00000250: 7846 3cbe 614a 0dbf 3291 4bbf 2219 ebbd
00000260: ddbf 4e3f 9d1d d73d 7ab5 40be 2ea8 85bf
00000270: bbe4 883e c174 513f c0fe 10bf c0d0 2abf
00000280: f529 1a3f 7405 25be 49a0 9d3d 4bda 0e3f
00000290: b8b8 b53e bd7d 22bf 844b 3e3d 2c72 303f
000002a0: 3d9c 31be a5bd ab3e 19c0 163f fe4b c13e
000002b0: e654 25bd 23fb e5bd decc 29be 133e 9a3c
000002c0: 2b4c ffbe 5330 dd3e 2fb2 913d d295 40bb
000002d0: 8362 03bf ba12 a83d 894e 11bd 8450 fdbe
000002e0: 88fe 883d a4fc dfbe 2656 bcbe 29c5 a6be
000002f0: 2515 d63e 3fc4 413c adad c93d 978b 203f
00000300: a939 2a3f 6879 ba3e f740 2abf cb95 8d3e
00000310: e471 abbd 8bab 563e b269 b63e cc2b 29bf
00000320: 91b2 51be 16f8 3e3e 76dc 9cbf f925 603e
00000330: 6be7 8c3d 6b47 193e 6c4c 0cbe 1584 a8be
00000340: 2496 d13e 4c19 1a3f 8430 dbbd e51e bd3d
00000350: 32c1 f53c 30f0 aabf a873 0abf b17a 593e
00000360: eabb 03bd 66fe dabe c381 c5bc 6c4b 0ebf
00000370: 85ce 1c3f 4942 863e a4c5 453e c99a 4ebf
00000380: 327d d13b bcea babe b658 2e3e b5ed 113e
00000390: 12b3 ecbd 04b5 febe 4170 5e3f bc71 59bd
000003a0: fbc3 9abf f87e 71bd 9c79 e53e dbc0 66be
000003b0: 168d 263f 91cb b6be e764 ae3e d362 a93e
000003c0: 58c5 39bf 7f61 06be 6a03 ddbe 037d 673e
000003d0: bdcc a3bc 322b c2be 8644 8bbe ae63 76bd
000003e0: 9b67 0bbe c0c2 333e 9d07 a6bd 54f9 05be
000003f0: 01e6 f83e 9d84 b2bc 4b6c 93be 38d6 d6be
0.30398324 0.32030433 -0.61849207 0.27909264 0.1609536 0.07959345 0.5417616 -0.2747627
-0.13379158 0.74407357 0.73436224 -0.16933648 0.2329267 0.16616546 -1.0398128 0.12930271
-0.24242601 -0.24364191 -0.089839205 -0.042995427 0.4319448 -0.28216136 -0.11175056 0.079593346
0.5270655 -0.43411678 0.49243551 0.29585108 0.13705604 -0.013035299 0.56381017 0.5887374
-0.030598316 -0.62875134 0.050508264 0.2092885 -0.37303373 -0.054626986 0.101211466 -0.96394277
0.28725907 -0.104948245 -0.31835535 0.4487677 0.32833198 -0.6865357 -0.15082394 0.38246727
-0.7497517 0.2605364 0.07028255 -0.36193678 -0.36879238 0.028827323 0.12854944 -0.34950233
-0.30846974 0.058822963 -0.8672472 -0.273711 -0.45991132 0.5052561 -0.232706 0.0024707913
0.6333625 -0.32917964 0.02313815 -0.081067264 -0.3731562 -0.04400464 -0.35056868 -0.34817117
-0.19242829 0.20784497 -0.12861814 -0.0065500694 -0.14404324 0.094394416 0.2878195 -0.65972716
-0.20501272 0.3931282 -0.3755999 -0.71513087 0.1993622 -0.068177104 0.32320905 0.7033587
0.1734391 -0.13968936 -0.83130056 -0.0039716368 0.14912581 -0.98740476 1.0083671 0.2504843
0.18157579 0.27794066 0.38525537 -0.082882404 -0.57020617 -0.34421617 -0.45142835 -0.33503982
-0.57861185 0.027812859 0.5209191 0.4742199 -0.49828503 -0.3994895 -0.16892037 0.32914874
0.21204488 -0.21418326 -0.10380865 -0.5251931 -0.17547439 -0.0514167 0.006763711 0.2591552
0.6274609 -0.4046277 1.115331 -0.29467505 0.5923808 0.5076885 -0.021905351 -0.09220575
0.21134716 0.14504455 0.06360722 0.91330016 0.22851011 -0.25204992 0.28204447 0.35042793
0.38998598 -0.26302704 -0.09250858 0.19943267 -0.59879136 -0.7614868 0.93008095 0.04430176
-0.564643 0.10831457 -0.17499244 -0.38551265 -0.18386257 -0.5519162 -0.79518425 -0.11479403
0.8076151 0.10503695 -0.18819228 -1.0441949 0.26737007 0.8181878 -0.5663872 -0.6672478
0.6022027 -0.16115361 0.076965876 0.5580184 0.35492492 -0.6347311 0.046458736 0.6892421
-0.17344756 0.33543125 0.5888687 0.3775329 -0.04036417 -0.11229541 -0.16582057 0.018828427
-0.498628 0.4320093 0.07114064 -0.0029386175 -0.5132219 0.08206697 -0.035475288 -0.4947549
0.06689173 -0.43747437 -0.36784476 -0.32572296 0.41813007 0.011826574 0.09847579 0.62713
0.6649423 0.3642075 -0.6650538 0.27653345 -0.08371332 0.20963876 0.35627514 -0.66082454
-0.20478274 0.18649325 -1.2254779 0.21889485 0.06880077 0.1496865 -0.13701028 -0.3291327
0.4093486 0.6019485 -0.10702613 0.09234408 0.02999935 -1.335455 -0.5408273 0.2123821
-0.03216163 -0.42772216 -0.024109727 -0.55583835 0.61252624 0.26222447 0.19313675 -0.80704933
0.0063930983 -0.36507213 0.17026028 0.14250834 -0.115575925 -0.4974748 0.86890036 -0.05308698
-1.2091058 -0.058958977 0.44819343 -0.22534506 0.6505903 -0.35702184 0.34061357 0.3308321
-0.7256675 -0.1312313 -0.43166667 0.22606282 -0.019995088 -0.3792358 -0.27200717 -0.060153656
-0.13613741 0.1755476 -0.08106921 -0.13083392 0.4861298 -0.02179175 -0.28793558 -0.4196031

pi.logits_net.2.bias f4 [64]
00000000: 55a9 2cbe cb9b 053e f418 a6bd 7605 5837
00000010: 7959 023f b397 4c3e 743e 75be bdfe 573e
00000020: 6261 cb3e 485e 75bc 79e0 233f 8a5c b83d
00000030: 8295 733e ddf4 c5be ba98 f43d a0dc 94bd
00000040: e02f 683e 8ba7 b3bc 31d7 9d3e 1317 9c3d
00000050: 1aa3 0cbf 5fc5 4cbe f3d1 f03d f8c9 dabe
00000060: 2470 a1be d441 60be 2230 e73e 9acb e2be
00000070: 8791 cd3e c5b6 f43d 8365 fa3e ee87 1fbe
00000080: dfe5 5f3d 36fb 733e f2df ba3b 0b1c 60be
00000090: c0e2 70be 3b36 4abd 6078 213e d8c3 fcbc
000000a0: 7045 043e f324 86bd 3c38 e5bd cc3b 683d
000000b0: 8b4d cfbd cf0b 7dbd d2f4 073f 8cf7 523d
000000c0: bbcf cc3e 1534 533f f033 403f 3f64 ae3e
000000d0: d0b8 5c3d e56f 58be e7d0 963e 494f 073e
000000e0: 27c5 753e 9d33 d3be ffb5 a6be f502 763c
000000f0: 21d6 41be 98ed a0bd 1eb9 6cbc 0719 1cbe
-0.1686147 0.13047712 -0.08110228 1.2875875e-05 0.50917774 0.19979744 -0.23949605 0.21093269
0.39722735 -0.014976092 0.64014393 0.090020254 0.23787501 -0.38663378 0.11943193 -0.072686434
0.22674513 -0.021930477 0.3082824 0.076215886 -0.54936373 -0.19997166 0.11758795 -0.42732215
-0.3153087 -0.21900111 0.4515391 -0.4429596 0.4015009 0.11948923 0.48905572 -0.15579197
0.05466258 0.23826298 0.005702966 -0.21885698 -0.23523998 -0.049368124 0.15768576 -0.030855104
0.12917113 -0.06550016 -0.111923665 0.05669765 -0.10122212 -0.06177884 0.5310794 0.05150561
0.40002236 0.82501346 0.7507925 0.34060857 0.05388719 -0.21136434 0.29456255 0.13213839
0.24000989 -0.41250315 -0.32560727 0.015015353 -0.1892934 -0.078578174 -0.014448432 -0.15243922

pi.logits_net.4.weight f4 [87, 64]
00000000: 5077 b6be 884a 193f 0756 393e 6d9f 7dbe
00000010: b564 c83e ba00 373f 37d5 16bf 0893 4b3f
00000020: 48c5 f03e a49d 243e b3e8 c33e db0e 48bf
00000030: 185a ab3f b439 20bf d120 87bf 309e 9abf
00000040: b4c9 d63e 209d 523e 5402 bc3e 9848 62bf
00000050: 5985 4bbf 833e 3cbf eef5 8abe 96c5 15bf
00000060: 010c 55bf 2714 d2bc 4326 013f b767 e5be
00000070: d668 5e3f 0f6a a8bf 69b4 1d3f 0751 693f
00000080: 5626 603f 6115 f23e efe1 25bf 5fde 19bd
00000090: e887 0bbf 8bb9 04bf 96ed d3bd 9f60 afbf
000000a0: 2703 25bf be70 0fbf dbf1 1a3f 05f8 84be
000000b0: 5fd0 5abf b869 433e 0b56 16bf b1a5 973e
000000c0: 8b12 1c3e 49b4 eb3d 3613 ae3e ba55 333f
000000d0: 0ad3 d9be f689 85be 7382 71bd 0b61 2a3f
000000e0: a07c a33e 8d25 883d f47f 68bc 5f34 4abf
000000f0: a255 06be d8e2 59be db50 2a3f 16e3 afbe
00000100: c9ed 593c afe5 5e3d 006d 1a3d 4609 88be
00000110: 1f84 053f 9d68 20be 1516 4bbf bea5 b73e
00000120: 0718 dc3d 142c 133e 195e 713e 63f8 c4bd
00000130: c39a 9d3e c590 a3be 9cc8 e0be a16c 53bd
00000140: b865 273f f8c6 ef3a dcde 503f 5eed e33e
00000150: b859 92bd 27b8 09bf 2f05 b93d b7e5 98bd
00000160: bc8d 683b c469 a8bd 35e5 923e 5d92 02bf
00000170: 4683 36bf 59e9 833f e801 383d df5e b73f
00000180: 974f f13e f67d 023f a411 46bf 0e72 0abf
00000190: 05e3 00bf 31ba 00bf 2f77 acbd de45 63bf
000001a0: 77a8 aa3f 5af8 60bf 9b91 b13e 1cd3 453f
000001b0: b3d8 70bf c655 b03e 46c1 8a3e db75 993d
000001c0: f114 983d af42 c13e 216d a63e 763a 993e
000001d0: 8e37 5abf 1e49 99be 67c6 313e 95b2 4d3f
000001e0: 4ab8 04bc ae3e 18be 6484 56be 74b2 a2bf
000001f0: 79c9 543f 219b 4d3d d843 5b3f ce3f 09bf
00000200: 5564 243e e3d2 ecbb 842e 673e d14b 683d
00000210: 68d0 8bbe f5c0 7ebe b217 a6be 8aa5 98be
00000220: 4eb9 813e 4a91 6ebe 5b80 973e b16d f0be
00000230: c671 b7be 0678 b7bd 617a 40be a936 8d3e
00000240: 8115 d53e 071b 513e 0e76 25be 6038 fa3e
00000250: 5510 97be c9d6 7abd 709f c8bc 03cb aabe
00000260: ab96 173e a5ed bd3e 4497 043f 691f 81be
00000270: b1c4 733c 9b60 543e 3ef4 9f3e a17a 70bc
00000280: 18c7 153e 2920 6abe 1cd7 54bf 19e2 75be
00000290: 517c 69be 4461 83bd 2226 4abe ae90 febd
000002a0: 6050 0c3f 93ec cbbe 14c2 3ebe 090e 67bd
000002b0: 146c 67be 12bb b03e 3747 57be bba9 9bbd
000002c0: 1562 87be ffa2 65be 21de 873e e056 1d3e
000002d0: 9a3d 58bd 80f7 cb3c 5df4 db3d 0990 583d
000002e0: 569d 4dbf 8804 193e 62ed 7a3e 5eb6 9e3c
000002f0: 27fd f23e f8cd 963e f843 a7be 68c9 76be
00000300: 85a3 a4be 04f3 09be 9b78 f7be 1373 f03d
00000310: 5b06 e5be 7ee8 523e 2fc0 bc3e f41b 7e3f
00000320: 225f f13e 5659 9dbf c1db 223f c81b f13f
00000330: 7bc0 6e3e 08b0 d6be e2bb 2e3f 5c37 04bd
00000340: c0af 0e3f 6625 5d3e 49bf 2fbf ea37 78bf
00000350: 0501 0b3e c090 58bf 1511 80bf 28f5 aebe
00000360: 8fab 11bf 7f16 473f 4989 c63e bf24 12bf
00000370: 44d6 3a3e b26f 99be 7c24 9f3e cb7b 57bf
00000380: 29c1 dbbe f279 543f 8cda acbd 570b 8d3f
00000390: be6f e5bd fdd9 483e 7ea2 e7be 45a5 51bc
000003a0: bf7d 5d3f be54 86be 8b97 65be 6dc2 13bf
000003b0: b184 14bf 6e0c a6be 3b5e 993e 5d78 303f
000003c0: bc22 f0be b7de 5c3d 6c65 c03d 4561 eb3e
000003d0: 753d 7cbf 5962 553e 168b 393f 6356 eb3e
000003e0: 8e69 83be a5ea 74be dd5e 63bf 0134 28bf
000003f0: b824 a0be 15c0 ce3e 5d9a 0fbf b544 8fbe
-0.35637903 0.5987935 0.18099223 -0.24767847 0.39139333 0.71485484 -0.5891909 0.79521227
0.47025514 0.1607576 0.38263473 -0.7814767 1.338687 -0.6258805 -1.055689 -1.2079525
0.41950762 0.20567751 0.36720526 -0.8839202 -0.7950035 -0.73532885 -0.27140754 -0.5850462
-0.8322144 -0.025644375 0.5044901 -0.4480569 0.86878717 -1.3157367 0.6160341 0.9113926
0.87558496 0.47281936 -0.6479787 -0.037565585 -0.5450425 -0.51845616 -0.1034805 -1.3701361
-0.64457935 -0.56031406 0.6052529 -0.25970474 -0.854742 0.19083297 -0.5872504 0.296186
0.15241449 0.11508996 0.33999032 0.70052683 -0.42543823 -0.26081818 -0.058962297 0.66554326
0.3193102 0.06647787 -0.014190663 -0.7898616 -0.13118604 -0.2127794 0.66529626 -0.3435294
0.013301321 0.054418262 0.037701607 -0.26569575 0.52154726 -0.15664907 -0.7933057 0.3586864
0.1074677 0.14372283 0.23571052 -0.096176885 0.30782136 -0.31946388 -0.43903053 -0.05161727
0.65389585 0.001829355 0.81590056 0.44517034 -0.07146019 -0.5379662 0.09034192 -0.0746569
0.003548487 -0.08223298 0.28690496 -0.5100458 -0.7129406 1.0305587 0.044923693 1.4325827
0.47131035 0.5097345 -0.7737067 -0.54080284 -0.50346404 -0.50284106 -0.0842117 -0.88778484
1.3332661 -0.87878954 0.346814 0.7727525 -0.94080657 0.3444044 0.2710058 0.07493182
0.07425869 0.37746188 0.32505134 0.29927415 -0.8524102 -0.29938596 0.1736084 0.8035062
-0.008100579 -0.1486766 -0.2094894 -1.271071 0.8311992 0.05019677 0.85650396 -0.53612983
0.16053899 -0.007227288 0.22576338 0.05671293 -0.2730744 -0.24878295 -0.32439953 -0.29813796
0.2533669 -0.23297611 0.29590115 -0.46958688 -0.3582899 -0.089584395 -0.18796684 0.27580765
0.4161797 0.20420466 -0.16158316 0.48871136 -0.29504648 -0.06123999 -0.024490088 -0.3335801
0.14803569 0.3709537 0.51793313 -0.25219277 0.014878438 0.20739977 0.3124103 -0.0146776745
0.1462673 -0.2286383 -0.8314073 -0.2401203 -0.22801329 -0.06415036 -0.19741109 -0.12429939
0.5481014 -0.3982893 -0.18628722 -0.05640987 -0.22599822 0.34517723 -0.2102326 -0.07600733
-0.26442018 -0.2242546 0.26536658 0.15365171 -0.052793123 0.02489829 0.10739968 0.052871738
-0.803182 0.14943135 0.24504617 0.019374069 0.47458765 0.29454017 -0.32669044 -0.24100268
-0.32156006 -0.1347161 -0.48334202 0.11740699 -0.4473141 0.20596501 0.36865374 0.99261403
0.47142893 -1.2292888 0.6361657 1.8836603 0.23315613 -0.41931176 0.68255436 -0.032279357
0.55736923 0.21596298 -0.68651253 -0.9696032 0.13574608 -0.8459587 -1.0005213 -0.34171414
-0.569024 0.777687 0.38776615 -0.5708732 0.18245798 -0.2996803 0.31082523 -0.8417327
-0.42920807 0.82998574 -0.08440122 1.1019086 -0.11202954 0.19614406 -0.4524116 -0.012795751
0.8652 -0.26236528 -0.2242109 -0.57718545 -0.5801497 -0.32431358 0.29954705 0.6893366
-0.469015 0.053923335 0.09394345 0.45972648 -0.98531276 0.20838298 0.72477853 0.45964345
-0.2566647 -0.23917635 -0.88816625 -0.6570435 -0.31278014 0.40380922 -0.56094915 -0.27982107

pi.logits_net.4.bias f4 [87]
00000000: 12c3 c93e 8404 a63e 5a4a 813e 3c77 f43e
00000010: 3ec3 be3e f434 ab3e df1e b03e bfab 533e
00000020: 98d3 b13e 74b6 ec3e 1e36 013f f290 123f
00000030: da51 dd3e 61b0 233f f93d b33e 94d2 ae3e
00000040: c0ff f03e cb2b 3f3e 9f02 e13e 9e7b 023f
00000050: ff8c 2d3f 41f6 773e 3077 c13d 65f8 eb3e
00000060: 7c85 bb3e bcc4 183f 71ca ba3e 596d bd3e
00000070: d200 973e 013c 1d3f bc8f 0a3f a267 a73e
00000080: b40c cd3e fa9e 173f 8436 bb3e 5e2f e63e
00000090: 4728 bf3e 6f96 a53e fd15 f03e 19fd 863e
000000a0: 047c 0c3f 0fad d23e abde 063f 63cd cf3e
000000b0: 6c54 ab3e 21c8 0a3f e1ed c03e 4db9 0a3f
000000c0: a745 de3e 14f6 083e 99fe e63e 577f d83e
000000d0: 17ab 093f 3933 b43d 26d5 353f 1b7b f03e
000000e0: b614 ba3e 7518 f63e 3965 1d3f 074d 063f
000000f0: eb84 8d3e 3ad8 e23e 0758 bc3e 6a31 c33e
00000100: b262 c33e 958f 91bc 0d1b ce3e 9cf0 d93c
00000110: ba7b d43e 0720 423e 576c 333e 5393 bb3e
00000120: a62d f63e dd1c 773e 8c68 c23e dd8a be3e
00000130: 493f 303f 7606 e73e b698 0d3f 29a7 fe3e
00000140: 0bd7 063e f1c9 f43e e8d1 d53e 9741 ac3e
00000150: 1206 863e 0ef5 203f 0f0a f03e
0.3940664 0.3242532 0.25252038 0.4774722 0.37258333 0.33438838 0.34398553 0.20670985
0.34731746 0.4623295 0.504732 0.5725242 0.4322651 0.6394101 0.3500822 0.34145033
0.47070122 0.1866905 0.43947312 0.50969875 0.6779327 0.24215032 0.09446561 0.46087947
0.36625278 0.5967519 0.36482576 0.36997488 0.29492813 0.61419684 0.5412557 0.32696253
0.40048754 0.59226954 0.3656503 0.44958013 0.37335417 0.32341334 0.46891776 0.26364973
0.5487673 0.41147658 0.52683514 0.40586385 0.33462846 0.5421162 0.37681487 0.54188997
0.43412516 0.13375121 0.45116118 0.42284653 0.5377669 0.087988324 0.71028364 0.46968922
0.36343926 0.48065534 0.6148258 0.52461284 0.2764047 0.44305593 0.3678591 0.38123637
0.38161236 -0.01776866 0.40255013 0.02660399 0.41500646 0.1895753 0.17521797 0.36635837
0.48081702 0.24132104 0.37970388 0.3721532 0.68846565 0.45122117 0.55311143 0.49736908
0.1316797 0.4781032 0.41761708 0.3364379 0.26176506 0.62873924 0.46882674

v.v_net.0.weight f4 [64, 282]
00000000: 67c9 a9bf 87f6 40c0 ff62 2ebf 1bf9 adbf
00000010: 5190 81bf 0448 85bf a77b bcbf 6d15 b9bf
00000020: 7212 43bf 36ed e83e 95a8 42c0 cbe3 3dc0
00000030: bf82 a4bf 2a84 34bf 307a 7dbf fd60 b2bf
00000040: cf9f acbf 05e3 42c0 ad82 83bf b395 b1bf
00000050: 2b5b a9bf 2939 bdbf 37f7 2cc0 db53 7abf
00000060: 78ba 37bf fb4a 30bf ef9e aebf c566 a9bf
00000070: 8bc0 c2bf 33f9 a7bf a4a2 85bf 5408 38bf
00000080: f3d8 3dc0 b769 7abf 5b4b acbf 4513 babf
00000090: 61e1 bcbf baa6 3ebf 8d82 8bbf 8a24 43bf
000000a0: 9910 32bf 8bad 42c0 b7a5 27bf ac7d 28bf
000000b0: 0f52 2ec0 70b8 25bf f579 7fbf 3bf3 8bbf
000000c0: e165 3fc0 e753 b9bf 09c3 a3bf 4f95 afbf
000000d0: 85d9 42c0 b75f 2bbf 5729 41c0 7179 84bf
000000e0: a1e0 3fc0 f545 adbf ca8e 34bf 9deb afbf
000000f0: 5bd9 aabf 08dd 41bf 45cf bebf 5da1 3ec0
00000100: e925 41c0 99c5 26bf 42ae 55bf 3502 41c0
00000110: 7dd8 39c0 e5d6 acbf c5a6 3fc0 fb37 bbbf
00000120: 422f 39bf 6d06 39c0 610b 3dc0 3d0c bebf
00000130: ddee 3bc0 0365 bfbf 4119 b5bf 3543 29bf
00000140: c7be 3cc0 5685 8abf fdda bebf ad98 b0bf
00000150: 747b 43bf ef06 a9bf cff4 3bc0 39a4 42bf
00000160: aa05 dcbf a89a 423f c445 683f 4823 e03f
00000170: 705a cdbe a2ac 403f e3b3 c5be 327e 0e3f
00000180: 1009 82bf 47cc f8bf 8681 8c3f da71 ae3e
00000190: 1c7b a1bf fe26 dbbf 664b ac3d 6af4 d3bf
000001a0: a347 a73e 47e1 ef3f acfc e63e a283 583f
000001b0: ce4c 01bf bf67 2dbf 32d0 893e 8ec9 813f
000001c0: 21eb a03e 741d fe3e 025c b2be b7c8 55bf
000001d0: e1a7 57bd 72bd dcbf 9f6e b1be bb2f 2a3e
000001e0: 8a26 c2be 3edd ef3f f0b4 f83e 2b95 3abe
000001f0: cd20 753f 00e2 85bf 40de f03e 99f8 d23e
00000200: 57c2 66bf 4215 2abe 576b 183e c51c 85be
00000210: 4283 033f 9b7c 10bf 29c3 483f 74d2 ecbe
00000220: 986e b63d 8581 d03d e7a8 553f 081f 21c0
00000230: 0c1f 78bf ece4 a6bf dadc 8bbf 5179 7cbf
00000240: b050 8ebf dab3 183f c79e 29bf bd05 d5bc
00000250: ad94 5dbf 617e 74bf d79a 52be 5277 bc3f
00000260: 3c30 5b3f 2736 763f da93 893e 5f7d d9bf
00000270: 3b37 1ebe a6fe 603d a9c3 c1bf a15e a23f
00000280: deb9 debd 3f60 213e 5fe1 7fbf 03b0 a4bf
00000290: 674a 6d3e 25b1 50bf abef 05bf ccea d4be
000002a0: f775 e93f 8713 1cbe 24a6 2ebf f3a9 9a3f
000002b0: 3728 79bf a992 c7bf 63ff 9ebf 50b9 6bbf
000002c0: 686c 8940 caf6 6f3d 09ae 003b fb27 debc
000002d0: 5a33 c540 9f40 f1be ae96 85bf 46cb 6b40
000002e0: 5ac5 a6be 0626 8540 fa52 8ac0 0b70 84bf
000002f0: 307b 0cc1 b655 c83f f7e3 86c0 2505 8ac0
00000300: 9aa6 18c0 6729 aebd b4b9 033f b990 223f
00000310: 9000 6240 bdb5 5b40 0003 1340 6134 21bf
00000320: dd99 9e3e 97de 223e a801 8bbf f543 c63f
00000330: 66d4 9b40 2afa e8bf 4814 85be efc4 8a3f
00000340: 5e29 3ec0 68fb 41be 1005 81c0 df78 44bf
00000350: 15e3 ae40 00ae f6be 017c 4f3e c3e8 f13d
00000360: 6b47 1b3f 9848 77bf 6e4c 41bf 86a4 c9be
00000370: 518b 11c0 ad1e f23f dcc0 a4bf 04a1 743e
00000380: cd13 c3bd 3552 38c0 80d6 b33f b51e 813f
00000390: 86bf 6b3f 52a4 33bf 0464 28be 5ac2 a1bf
000003a0: aad8 0a3f 55ed e5bf 5259 be3f 5026 a53d
000003b0: 9dda 2d40 cc50 3bc0 dd27 46bf 1dad 0fc0
000003c0: a682 23c0 6316 b03f 75ab a23d d08a db3f
000003d0: f9e1 c6bf 3923 bd3f 74f0 a33e 5ebe d8bf
000003e0: 2ea2 c5bf c96b 653d 3a99 8bc0 1b09 473f
000003f0: fe17 c23f 4786 3cbf 42ef 98bf a5a8 1b3d
-1.3264588 -3.0150468 -0.68119806 -1.3591646 -1.0122167 -1.0412602 -1.4725236 -1.4459664
-0.7620002 0.45493478 -3.0415394 -2.9670284 -1.28524 -0.70514166 -0.9901457 -1.3935848
-1.348627 -3.0451062 -1.0274254 -1.387381 -1.3230947 -1.4783069 -2.7025888 -0.97784203
-0.71768904 -0.6886441 -1.3642253 -1.3234488 -1.521501 -1.3122925 -1.0440259 -0.7188771
-2.9663665 -0.9781756 -1.3460497 -1.453713 -1.475628 -0.74473155 -1.0899216 -0.7622763
-0.69556576 -3.0418422 -0.65487236 -0.6581676 -2.7237585 -0.64734554 -0.99795467 -1.0933603
-2.9905932 -1.447873 -1.2793895 -1.371744 -3.0445263 -0.66942924 -3.0181482 -1.0349561
-2.9980853 -1.3536974 -0.7053038 -1.3743778 -1.3347582 -0.7572789 -1.4907004 -2.9785988
-3.0179389 -0.6514526 -0.8346902 -3.0157597 -2.9038384 -1.3503081 -2.9945538 -1.4626459
-0.72337735 -2.8910172 -2.9538195 -1.4847485 -2.936454 -1.4952701 -1.4148332 -0.66118175
-2.9491441 -1.0821941 -1.491058 -1.3796593 -0.7636025 -1.3205241 -2.936817 -0.76031834
-1.7189229 0.76017237 0.90731454 1.7510767 -0.4010806 0.75263417 -0.38613805 0.5566131
-1.0159016 -1.943734 1.0977027 0.34071237 -1.2615695 -1.7121274 0.084128186 -1.6558964
0.32671842 1.8740624 0.45114648 0.84575856 -0.5050782 -0.6773643 0.26916653 1.0139635
0.3142939 0.49631846 -0.3483582 -0.8350939 -0.052650336 -1.7245314 -0.3465471 0.1661977
-0.37920028 1.8739393 0.48575544 -0.18220966 0.95753175 -1.0459595 0.47044563 0.4120529
-0.9014029 -0.16609672 0.14884697 -0.25998512 0.5137216 -0.5644013 0.7842279 -0.46254313
0.08907813 0.10180954 0.8346085 -2.517519 -0.96922374 -1.3038611 -1.0926774 -0.98622614
-1.1118374 0.5964943 -0.662579 -0.026003713 -0.86554986 -0.9550534 -0.20566879 1.4723914
0.85620475 0.9617638 0.26870614 -1.6991385 -0.15450756 0.05493035 -1.5137836 1.2685128
-0.10875295 0.15759371 -0.99953264 -1.2866215 0.23172913 -0.815203 -0.5231883 -0.41585386
1.8239125 -0.15241824 -0.6822226 1.2083114 -0.9732699 -1.5591632 -1.2421688 -0.9207964
4.294483 0.058584966 0.0019634983 -0.027118674 6.1625185 -0.47119614 -1.0436609 3.6842818
-0.32572442 4.1608915 -4.322629 -1.0346693 -8.780075 1.5651157 -4.2153277 -4.313128
-2.3851686 -0.085039906 0.51455235 0.6350208 3.5312843 3.4329674 2.297058 -0.6297055
0.30976763 0.15905224 -1.085988 1.5489489 4.8696775 -1.8201344 -0.25992036 1.0841349
-2.9712749 -0.1894356 -4.031868 -0.76746935 5.46522 -0.48179626 0.20262147 0.11811974
0.6065585 -0.96595144 -0.7550725 -0.39383334 -2.2741282 1.8915612 -1.2871356 0.23889548
-0.09525261 -2.8800175 1.4049835 1.0087496 0.92089117 -0.7017261 -0.16444403 -1.2637436
0.54236853 -1.7963053 1.4871008 0.08063948 2.716468 -2.9268064 -0.77404577 -2.244941
-2.5548491 1.3756832 0.07942859 1.7151737 -1.5537711 1.4776374 0.3201939 -1.6933095
-1.5440118 0.056010995 -4.3624544 0.7774827 1.5163572 -0.7364239 -1.1948016 0.03800263

v.v_net.0.bias f4 [64]
00000000: 5a09 f13f 299f fe3f 48d3 13c0 b01d eabd
00000010: 0702 fa3d 10cf e23f bc50 ebbf b78a bcbf
00000020: 1500 2640 6e30 febf d274 bcc0 265a e83f
00000030: c371 f440 2cbd 4abf f17b 4540 5b55 4040
00000040: f862 11be fccf e6c0 41df d13f cef3 cfbf
00000050: 4ba5 efbe 2220 30c0 bb62 2640 f056 803e
00000060: c6a7 3f3f 133b 33bf 2d88 4241 90f0 2d40
00000070: 5d11 b6bf 8c8c 6040 b42e 8ec0 3956 c2bf
00000080: be0b 9dbf 1337 a8c0 edd2 dcbf 5028 94be
00000090: 2504 b4bf 7c08 1fc0 7cb7 9bc0 83ca b93f
000000a0: f678 ac3f 5aac 91c0 b8ce 51c0 fc53 ff3f
000000b0: 0e17 0640 5144 fa3f 7264 893f ee12 6440
000000c0: 3de6 18bf c59f 06bf 8413 dd3f 4ac5 3840
000000d0: 08c6 3041 fc89 9bbe 66ac 4cc0 7d0f bc3f
000000e0: 6b62 9b3f 238a 1cc0 f6be 4ac0 c34e 88c0
000000f0: 3e4e a2bf f5c6 4a40 f0fe c53f 5cf0 f240
1.8830979 1.9892322 -2.3097706 -0.11431444 0.12207418 1.771944 -1.8384013 -1.4729832
2.593755 -1.985853 -5.8892603 1.8152511 7.638887 -0.79194903 3.0856898 3.0052097
-0.1419791 -7.2128887 1.6396257 -1.6246278 -0.46805796 -2.7519612 2.599776 0.25066328
0.74865377 -0.70012015 12.158246 2.7178078 -1.4224049 3.5085783 -4.443201 -1.5182563
-1.2269208 -5.256723 -1.725187 -0.28937006 -1.4063765 -2.4848928 -4.866148 1.4514927
1.3474414 -4.552289 -3.278242 1.9947505 2.0951571 1.9552099 1.0733778 3.5636554
-0.59726316 -0.5258754 1.7271581 2.8870416 11.048347 -0.3037871 -3.1980224 1.4692227
1.213941 -2.4459312 -3.1679053 -4.2596145 -1.2680128 3.1683934 1.5468426 7.5918407

v.v_net.2.weight f4 [64, 64]
00000000: 792b 8d3f c49c bbc0 a408 d8bd 8db6 8dbe
00000010: f799 1a40 a27e f4bf 9062 68c0 47fb 20bd
00000020: 4673 65c0 0af4 b4c0 f538 e53a b04e 19c0
00000030: ead3 f93e ac72 fdbe 27fc 78bf 2c29 94bf
00000040: ca48 1340 eb32 90bf ed5b c1bf 8d9e a3c0
00000050: eccb 0240 fba9 8c40 5066 65c0 e4a4 c9be
00000060: 3026 f43f c62b aac0 c283 d3c0 175f b83f
00000070: a83c 523f 1304 5ac0 af55 e2bf c5fb 45c0
00000080: 80b3 ae3f 70de 7c3f ba22 eebf 7c10 3abf
00000090: 28c1 60c0 6d4f 99bf eefb 673f fd62 773e
000000a0: 0b90 9f40 3e01 1b3e 4c90 3d40 2380 9d3f
000000b0: 6b22 0d40 beeb 1bc0 0d42 9ac0 b07d c1bf
000000c0: bc30 94bf a400 f53f df24 9fc0 0712 3a40
000000d0: 5922 fbbf 16e6 483f 7dda 0041 3af8 12bf
000000e0: 8a05 8b40 7b42 883f 0213 99c0 1717 bfbf
000000f0: b5c2 f940 5cf4 e2bf 3b1b 103f ee8e 9140
00000100: 6999 833f 7925 0240 e96f 4d3f eeeb 4ac0
00000110: 7d6d 953f 11f0 59bf 85bf a7c0 57d3 1540
00000120: 45dc aa3f 6300 2840 5ec7 aa40 4abc 5a3e
00000130: 0118 99bf 1c4c cf3e b3c7 8b40 28f8 1540
00000140: 3542 cfbe d1a3 7f3f 56f0 d13f dfda 1a40
00000150: 8ecc 9ec0 dc3b afbe b049 0fc0 820e 60c0
00000160: d0bb d83f 65c0 7d3f d724 c6be e0ad e43f
00000170: 3359 873f cf34 4b40 0938 4f40 5c26 983f
00000180: 439e b8bf f95d 30c0 b031 a3bf 70de 9fc0
00000190: d8f7 b840 4474 1841 7552 40bf 47e4 de3e
000001a0: e024 85bf fc5f 6dbf 2f00 a6c0 3039 9740
000001b0: 3fd4 24c0 4847 a23f 8bed 86bf c9d9 f23e
000001c0: d809 52bf 6ab7 3b40 0b9d 9c40 617a 2bc0
000001d0: 08ec d7bf ced9 bf3f 2fd4 71bf 631f 833f
000001e0: 90a6 1140 3b74 5bc0 db6f 69be eecb 9d40
000001f0: c480 963f 128d c5bf d03b 82c0 bf75 8cbf
00000200: f8e9 df3f 5c1a 9b3e 8bf8 f13e b034 0ec1
00000210: f73c aa3f 43b5 62bf 03e1 dabf 33c4 98bf
00000220: 3d4f 52c0 3665 ea3f 353e 4840 38e3 30c0
00000230: f2b4 83bf 46f3 2440 2b95 72c0 8c8a e7c0
00000240: 431a 2040 f247 9e3f eb3b 6b40 7b72 2b3f
00000250: e11d 2ec0 c6cb ff40 272f 42bf 90d2 e5bf
00000260: bf93 b2c0 645a a13f 31c0 34bf 34ce d23f
00000270: d18d 19c0 a297 f8be 7e69 0ec0 7787 1240
00000280: 11b2 89c0 301a 3dbf e18d 9b3f 35cb 9640
00000290: f77b 7240 cc22 cc40 1876 8740 e04b c63f
000002a0: 5aca f53f d93c 2bbf 09e9 9d40 6bc4 0d41
000002b0: bdcb 5b40 305d a53f c034 863f 4176 db3f
000002c0: 843b 71c0 410c f63f 11a0 94c0 b24e 03c0
000002d0: a8e6 ecbd d9a9 b2bf 3881 6d40 d007 09c0
000002e0: 20e5 953f 28e8 4140 e9a9 70bf 98e8 2040
000002f0: 1e2e 0c40 fd08 c63f 398d f13f 5e60 28bf
00000300: 50f8 9b3f 64a5 9b40 8f97 a93e 3f93 c23e
00000310: 6dcb d2c0 a643 7040 5cde c0bf 2e32 cf3f
00000320: 5828 b2c0 ceda 8e3e 2d40 03c1 1952 6840
00000330: 86b2 54c0 ffdc a6bf 7237 aabf eb83 77bf
00000340: dff2 7e3f dae0 9e3f e9c2 0f40 e65a 2dbf
00000350: 177a 1641 553d 21c0 fa51 f7be 231f 8840
00000360: 4fef 2bc0 7aaa 89c0 ff3f c6be cc1e 3540
00000370: 3b23 273f 7065 7ebf 43cb dc3f 6359 eb3f
00000380: 2321 4c3f c80d 73be d38d 77bf a7a6 3940
00000390: 81de 63c0 574c 13c0 2db4 4b3e dc84 c0bd
000003a0: d769 5cc0 eb40 1f40 9094 7bbf d555 aec0
000003b0: 022e fabd a043 0740 1f25 39c0 60dc 0240
000003c0: d593 13bf a33c 7ec0 1ea4 8dc0 194b cabf
000003d0: 82c8 9740 f6eb 16bf 493b 35c0 cc8e c0be
000003e0: 2a6e 58c0 ac2b 0240 54fb 0641 0c0e 56c0
000003f0: bec8 bcc0 829f a63d 4597 01bf fad5 863f
1.1028892 -5.8628864 -0.10548523 -0.27678338 2.4156473 -1.9101145 -3.6310158 -0.039302137
-3.5851607 -5.65479 0.0017488288 -2.3954277 0.4879449 -0.4950155 -0.97259754 -1.1575065
2.3013177 -1.1265539 -1.5106179 -5.1131043 2.0436964 4.3957496 -3.5843697 -0.39383614
1.9074154 -5.3178434 -6.6098337 1.4404019 0.82123804 -3.4064987 -1.7682399 -3.0934918
1.3648529 0.9877691 -1.8604348 -0.72681403 -3.5117893 -1.1977364 0.9061879 0.24158855
4.9863334 0.15137193 2.9619322 1.2304729 2.2052257 -2.4362636 -4.820563 -1.5116482
-1.1577373 1.914082 -4.973251 2.9073503 -1.9619857 0.78476083 8.053342 -0.57410014
4.344426 1.0645288 -4.7835703 -1.4928921 7.805018 -1.7730823 0.5629155 4.5486975
1.0281192 2.0335371 0.80248886 -3.17065 1.1674038 -0.8513194 -5.242129 2.3410242
1.3348471 2.6250236 5.336837 0.21360889 -1.196045 0.40487754 4.3681273 2.3432713
-0.404802 0.9985934 1.640147 2.4196088 -4.96247 -0.34225357 -2.2388725 -3.5008855
1.6932316 0.99121696 -0.38699982 1.7865562 1.0574096 3.1750982 3.237795 1.1886706
-1.4423298 -2.7557356 -1.2749538 -4.995903 5.7802544 9.528385 -0.7512582 0.43533537
-1.0401878 -0.92724586 -5.1875224 4.725731 -2.5754545 1.2678003 -1.0541242 0.47431782
-0.8204627 2.9330697 4.8941703 -2.6793444 -1.6868906 1.4988344 -0.9446439 1.0243953
2.2757912 -3.4289691 -0.22796576 4.9311438 1.1758046 -1.5433676 -4.0698013 -1.0973433
1.7493277 0.30293548 0.47259936 -8.887863 1.3299855 -0.88557833 -1.7099918 -1.1934875
-3.2860863 1.8312137 3.1287968 -2.7638683 -1.0289595 2.5773482 -3.7903545 -7.2356625
2.501603 1.2365706 3.675532 0.6697156 -2.7205737 7.9936247 -0.758532 -1.7954884
-5.5805354 1.260571 -0.7060576 1.6469178 -2.3992808 -0.48553187 -2.2251887 2.289518
-4.3029866 -0.73868084 1.2152673 4.7123055 3.7888162 6.3792477 4.2331657 1.5491905
1.9202378 -0.6688972 4.9346967 8.860454 3.4343102 1.2919064 1.0484848 1.7145463
-3.7692575 1.922249 -4.6445394 -2.0516782 -0.11567432 -1.3958083 3.711012 -2.1411018
1.1710548 3.0297947 -0.9400926 2.5141964 2.1903148 1.5471493 1.8871223 -0.65772045
1.2185154 4.8639393 0.33123443 0.38002965 -6.5873322 3.754129 -1.5067859 1.6187189
-5.567425 0.2790131 -8.203168 3.6300108 -3.3233962 -1.3036193 -1.329817 -0.96685666
0.9958934 1.2412369 2.2462714 -0.67716825 9.404807 -2.5193684 -0.4830473 4.253801
-2.6864812 -4.30206 -0.387207 2.8300047 0.6528813 -0.9937353 1.724953 1.8386654
0.7973806 -0.23735726 -0.9670078 2.9007967 -3.5604556 -2.3015344 0.1989295 -0.09400341
-3.44396 2.4883373 -0.98273563 -5.4479775 -0.122158065 2.1135025 -2.8928907 2.0447006
-0.5764745 -3.972451 -4.426284 -1.5804168 4.743226 -0.589538 -2.8317435 -0.37608945
-3.3817239 2.0339155 8.436359 -3.3446074 -5.8995047 0.081358925 -0.50621444 1.053405

v.v_net.2.bias f4 [64]
00000000: dc43 ac3f 4960 ac3f 69ae da3e b1ae dabf
00000010: e979 4fbf 9ada 56bf 2137 f93f 8674 9e3e
00000020: fec4 9b3f 50a2 f2bf ff5e 2e3f e636 ac3f
00000030: 8b29 f1be 5dcd 6d40 9203 09bf c74f b5be
00000040: 1e09 0f40 cb4a c93f 691a 2abf 03ae 9ebf
00000050: bbc4 56bf 68ed a43f 954f 3e3f c2a7 c03e
00000060: edf8 0bc0 e26b 1a40 8443 723f 9d88 843f
00000070: d6b7 9b3e efe2 ff3f 97fa 753f 525e bbbf
00000080: 7af3 a4bf 1ffc 2640 eff7 7e3f 379a adbd
00000090: 9688 3940 9539 24c0 a0ab b7bf 7df6 e0be
000000a0: 5766 1640 021a 9bbf 0680 a23f 14db 62bf
000000b0: aa30 c9bf 289c bd3e 10af 0140 b1ab 1ebf
000000c0: adef a3be 833a 97be f7ea e3bf ba7d 8d40
000000d0: 03f7 e7bf c37f e33f 8e42 923f 2050 82bf
000000e0: af8a cc3f 6515 5340 cbef 1cc0 22e2 0340
000000f0: dc66 0840 6741 16be 3e8a a63f a49a b9bf
1.3458209 1.3466884 0.4271119 -1.7084562 -0.81045395 -0.8392731 1.9469949 0.30948275
1.2169492 -1.8955784 0.681137 1.3454254 -0.47102007 3.7156594 -0.5352107 -0.35412428
2.2349315 1.572595 -0.6644655 -1.2396854 -0.83893937 1.2884951 0.7434018 0.3762799
-2.1870682 2.4128346 0.9463427 1.0354191 0.30413693 1.999113 0.96085495 -1.4638159
-1.2886803 2.6091383 0.99597067 -0.0847668 2.8989615 -2.5660145 -1.4349251 -0.43938056
2.3499963 -1.2117312 1.269532 -0.88615537 -1.5717976 0.370332 2.02631 -0.6198073
-0.32018796 -0.29536828 -1.780608 4.4215975 -1.8122257 1.7773365 1.1426561 -1.0180702
1.5979823 3.2981808 -2.4521358 2.060677 2.131278 -0.14673387 1.3010938 -1.4500318

v.v_net.4.weight f4 [1, 64]
00000000: 4f26 a241 eda8 8ac1 8e8b d6c1 b3c3 c7c1
00000010: cbcc 94c1 c5f9 67c1 c042 8441 d4ed cd41
00000020: e51a bb41 0c3c b2c1 5a63 53c1 2885 2541
00000030: 4a99 9e41 3557 dc41 191c 8ec1 f306 4bc1
00000040: a96f 7741 2f30 8a41 6d13 0a42 2a0f 8841
00000050: 9386 9cc1 7b1d c0c1 8fd5 ac41 e7d8 acc1
00000060: 2d58 a8c1 5789 8741 684e 7bc1 14e4 c6c1
00000070: 2aea c0c1 3ebb 8541 cfef 9841 ebe3 a8c1
00000080: 5e1f a0c1 68ce f741 2fdb b941 0981 fe41
00000090: 794a 53c1 f1c3 9cc1 9532 ea41 8f44 b2c1
000000a0: cc4b 5ec1 a965 9ac1 cdd4 2841 d88a 8dc1
000000b0: acfe c041 288a adc1 4762 a741 2766 a5c1
000000c0: 6c7e 6ac1 5f49 9f41 348e a7c1 ade5 c441
000000d0: 290d acc1 927b 6041 7035 6241 1acb 8ac1
000000e0: 7935 a941 ad61 c141 a989 b7c1 49f5 7541
000000f0: 4cb0 b941 ab59 c1c1 fcce 9241 ee84 bec1
20.268705 -17.332483 -26.818142 -24.970556 -18.599997 -14.498479 16.532593 25.741127
23.388132 -22.27932 -13.211756 10.345009 19.824848 27.542582 -17.76372 -12.689197
15.464761 17.273527 34.51897 17.007404 -19.56571 -24.014395 21.604277 -21.60591
-21.043055 16.94206 -15.706642 -24.861366 -24.114338 16.716427 19.117094 -21.111288
-20.015316 30.975784 23.232023 31.813005 -13.205682 -19.595675 29.274698 -22.283476
-13.893505 -19.299639 10.551953 -17.692795 24.124352 -21.69246 20.922987 -20.67488
-14.655865 19.910826 -20.944435 24.612146 -21.506426 14.030169 14.138046 -17.34917
21.15111 24.172693 -22.942217 15.372384 23.211082 -24.168783 18.351067 -23.814907
