model_wts/s3_d1_m1.0_b0.0.ckpt (torch, 206875 bytes, 11 tensors)

pi.logits_net.0.weight f4 [64, 282]
00000000: 4b6c 833e 4e4e 6fbe eaf6 18be 2e53 8f3d
00000010: c1f5 d6bd 5a55 31be fb19 9f3e 4762 9d3e
00000020: cea9 e6bd 0176 2cbe 9a26 33be a4ad 1abe
00000030: d94c 8c3e 14dd 0abe d40e 32be e2cd f83d
00000040: 07df 8d3e fcd8 40be 68a4 76bd fb49 a83e
00000050: 19b2 aa3e f041 7a3e 0abb 2fbe 3030 37be
00000060: 8cf4 52be 92ee 24be 11cb 843e b382 973e
00000070: b9da 6e3e c729 8a3e 5ed9 18be 9341 b3bd
00000080: 442f 6bbe c660 32be fd02 6e3e a709 7f3e
00000090: f982 863e 464c 3bbe 4a91 04be 3b59 fbbd
000000a0: 2397 e9bd a4eb 35be e5c2 05be a684 26be
000000b0: 6e49 47be 5c89 0dbe bab5 11be f567 edbd
000000c0: 9ab2 35be cbb6 aa3e 2352 a13e 4d57 953e
000000d0: 6ed4 35be f9eb 91bd 5007 18be 03a1 b1bd
000000e0: a813 55be dfcc aa3e f370 c9bd 29da 833e
000000f0: 5711 a73e 8300 f5bd bff2 6f3e f234 48be
00000100: 18df 6cbe 3e5a 31be 7df9 37be d4e0 58be
00000110: 03b7 55be a749 af3e fe15 32be 45a5 a73e
00000120: ec81 1abe bd4d 75be 66b5 07be 0710 993e
00000130: b4d0 37be b904 a83e 3540 0f3e 9ba2 abbd
00000140: 04bb 61be 6d90 1cbe b901 663e 3728 933e
00000150: 4d32 96bd 750b 873e 8aea 14be b2b1 5cbd
00000160: 5b2b 923c 92f4 bd3e 7091 a03b 50d4 3b3d
00000170: 7af1 ed3e 253b 673e 8aab a03e 615a a13e
00000180: 3916 97bd b611 82be 77fa 7cbe ae1e 56bd
00000190: a5c5 693e eaea 9bbd 88b9 0e3e d6b3 07be
000001a0: 4ea5 913e e288 6b3e 5e7d b6bc a744 373e
000001b0: f57b 813e a9b8 01bd 358a 0e3e 8161 d0bd
000001c0: ce9e 5b3e ece4 9cbe 9210 2abe 04f8 0e3d
000001d0: bedc 203c 09b9 8d3e 953d aa3e 9c7a d93e
000001e0: 26bb fe3e 505d 58be ecf4 5c3d 9225 973d
000001f0: 1ba1 6b3e 2040 ebbe 30c0 913e 3b12 823e
00000200: 0aec 1e3f 34f1 8c3e bc40 503e 07a8 7f3e
00000210: 79a4 853e 8d03 853e 89dd edbd 0bd2 b1bd
00000220: d7c6 8b3e 0526 15bd e430 523c 5b06 5a3e
00000230: 5422 a93d 75f2 0b3e 817d 8b3e a96c 1f3e
00000240: 0326 1cbd 8c52 533e ee8d 1c3e be9f 2dbe
00000250: 2b0b 713e aa67 eb3d 0467 64be 4478 913c
00000260: 7104 ad3e 0457 f9bd 03d5 03bd 75c8 413e
00000270: 9a42 f53d e7c8 89be 1b80 213e 8fd6 593e
00000280: 488b 983e fe04 03be 5c4c f13c e32f 26bd
00000290: 62a5 403e 86a0 16be f909 973e 2e3a 4ebc
000002a0: df60 bdbd c951 8c3e 531d 43be c3ee 903e
000002b0: 5e83 00be 4a0c 9a3d cadb b43e 2fbf 133e
000002c0: e212 943e 2590 833e ce79 f73e ea9f 82be
000002d0: 6d21 fe3d 8be6 7e3d 3ef2 13bf dbd0 01bf
000002e0: 1187 8dbe c605 373d 731f 123f 24db 1cbe
000002f0: fd12 81be 877e 82be 31ce 51bf b9f9 cebe
00000300: 7a74 46bf 771b f83d beea febe b40a 973d
00000310: f8d2 eabe 1fac 1abe e72e 9cbe 62ba 8c3c
00000320: 01e6 91be 2621 a4be 4cc0 36be fcba 3dbc
00000330: 4cf3 bd3e d131 013e fbdb 593e 136f 0b3e
00000340: 7948 dabc 22ce 33be c4d8 113f 6f81 85be
00000350: 4295 3bbe 5f96 39bc 2720 ba3e d930 78bf
00000360: 6f62 ec3e b524 a1be 816b 89bd 7673 003f
00000370: b10d 65be 663c 523d 004d 2ebf 6f4c 823e
00000380: 9f0e 24be 2899 02bf dc73 a53e 4f58 ba3e
00000390: a406 1c3f 699a eebd 9727 e13e da32 03be
000003a0: 1e16 eb3e 4360 c33e e970 27bd 1bf1 00bf
000003b0: 1a8a 183f 23a0 f63e b65b 493f 09c5 dbbd
000003c0: b48a ae3e 03e2 15bf f6c7 153d 56f2 953e
000003d0: 4609 b1be 9abe a3bd e656 f63e 966e 01bf
000003e0: 435f 363d 7dd1 e4bc f74d 833e 2543 37be
000003f0: bf0e fa3d fcc2 49be 78f7 363e 0d2a 36bf
0.25668558 -0.23369715 -0.1493794 0.06998287 -0.104960926 -0.17317715 0.3107451 0.30739042
-0.112628564 -0.1684189 -0.17495194 -0.15105301 0.2740238 -0.13560897 -0.17388469 0.12148644
0.2770922 -0.18832773 -0.060215384 0.32868943 0.33339003 0.24439216 -0.17161193 -0.17889476
-0.206011 -0.16106632 0.25936177 0.29591903 0.23325624 0.26985 -0.14926669 -0.08752742
-0.22967249 -0.17419729 0.23243327 0.24906026 0.262718 -0.18290815 -0.12946048 -0.12272879
-0.1140578 -0.17765671 -0.13062628 -0.16261539 -0.19461605 -0.1382193 -0.1422948 -0.11592094
-0.17743912 0.33342585 0.31507978 0.29168168 -0.17756817 -0.07125086 -0.1484654 -0.08673289
-0.2080828 0.3335943 -0.098359965 0.2575238 0.32630417 -0.11962988 0.23432444 -0.19551447
-0.23131979 -0.17319581 -0.17966266 -0.21179515 -0.20870595 0.3423588 -0.17391202 0.32743278
-0.15088624 -0.23955436 -0.13252792 0.2989504 -0.17950708 0.32816103 0.13989337 -0.08380624
-0.22043997 -0.15289469 0.22461595 0.2874162 -0.07333813 0.2637593 -0.14542595 -0.0538804
0.01784294 0.37100655 0.00490015 0.045856774 0.46473294 0.22581156 0.31380874 0.31514266
-0.073772855 -0.25404137 -0.2470492 -0.052275352 0.22829302 -0.07613166 0.13937962 -0.13252196
0.2844643 0.23001435 -0.022276577 0.17897283 0.25289884 -0.031670246 0.1391991 -0.101748474
0.21447298 -0.30643404 -0.16607884 0.034904495 0.009818254 0.27680233 0.33250108 0.42476356
0.49752158 -0.21129346 0.053944513 0.07380213 0.23010676 -0.4594736 0.2846694 0.25404534
0.6207892 0.27527773 0.20337194 0.24966441 0.26102045 0.25979272 -0.1161452 -0.08682641
0.2730014 -0.03641321 0.012829039 0.21291487 0.08258501 0.13666709 0.2724419 0.15568794
-0.03812219 0.20636958 0.15288517 -0.16955468 0.23539416 0.11494382 -0.22304922 0.017757542
0.3379245 -0.121748 -0.032185566 0.18924125 0.11975594 -0.2691109 0.15771525 0.21273254
0.29793763 -0.12794873 0.029455356 -0.040573012 0.18813089 -0.14709672 0.29499796 -0.012587113
-0.09246992 0.27406147 -0.19054155 0.2830716 -0.12550113 0.07521875 0.35323936 0.144284
0.28920656 0.2569591 0.48335117 -0.2551263 0.12408719 0.06223158 -0.5779151 -0.50709313
-0.2764211 0.04468324 0.5707924 -0.1531797 -0.252098 -0.25487158 -0.8195525 -0.40424898
-0.7752148 0.121146135 -0.4978847 0.07375088 -0.4586408 -0.15104721 -0.30504534 0.017178718
-0.28495792 -0.3205654 -0.17846793 -0.011580225 0.37099683 0.1261666 0.21275322 0.1361659
-0.026645886 -0.17559102 0.56971383 -0.26075312 -0.18318656 -0.011327355 0.36352655 -0.96949536
0.4616885 -0.31473318 -0.06709958 0.5017618 -0.22368504 0.05132713 -0.6808624 0.2544894
-0.16021203 -0.5101495 0.32314956 0.363955 0.6094763 -0.11650545 0.43975517 -0.12812367
0.45915312 0.3815938 -0.040879164 -0.503679 0.59585726 0.4816905 0.78655565 -0.10730941
0.34090197 -0.5854799 0.03656765 0.2928645 -0.34577388 -0.07995339 0.48113173 -0.50559366
0.044524442 -0.027931923 0.2564542 -0.17896707 0.12209844 -0.19703287 0.1786784 -0.71157914

pi.logits_net.0.bias f4 [64]
00000000: 5966 3ebe fff7 f7bd 04ea 48bd 305e 563d
00000010: 32d7 d9bd e4e0 0cbe 4aa1 b6bd 71da f3bd
00000020: cabc 31bd d458 a33d b7db 62be dbfe 2ebe
00000030: a0bd abbc 16d8 c53d 7336 763c 4e4c 8a3d
00000040: bb27 613e 8cbb e63d c840 55bd 7304 cf3e
00000050: 8f65 72be 5a36 c03d e55a 19be 5318 76bc
00000060: 6759 5dbe 149c a93d b67c 8cbd 7ae3 e4bb
00000070: 2690 7f3e 53db 5ebd f1ed 203e cc24 59be
00000080: 08f9 67bc e840 92be 0236 00bd 53c5 c7be
00000090: 4a17 12bd 959d d03d 356a 72bd 6dc1 37be
000000a0: c02a f3bc bf83 673e 5646 b03d ef65 c8bc
000000b0: 325e e7bd 2382 033e e3a8 09be d734 da3d
000000c0: 4e16 193e ffa9 603e d7c9 97bc e207 f8bc
000000d0: c4df a43d bb89 68be 4763 2ebe 415e a83d
000000e0: 47f2 3e3e 8aae 873d 6542 5e3d b9e0 1bbe
000000f0: d630 443d fb23 a9be d1b6 d9bc c6d4 53be
-0.1859373 -0.121078484 -0.0490513 0.052335918 -0.106367484 -0.13757664 -0.08917482 -0.11906899
-0.043392934 0.07975927 -0.22154127 -0.17089407 -0.020964444 0.09660356 0.01502763 0.06752835
0.21987812 0.112662405 -0.052063733 0.40433082 -0.23671554 0.09385367 -0.1497608 -0.015020448
-0.21616136 0.08281723 -0.06859724 -0.006985125 0.24957332 -0.054408383 0.15715767 -0.21205443
-0.014158495 -0.28565145 -0.031301506 -0.39017734 -0.03566674 0.101863064 -0.05918332 -0.1794488
-0.02968347 0.22608851 0.086071655 -0.024462668 -0.11297263 0.12842612 -0.13443331 0.1065461
0.14949915 0.21939848 -0.018528862 -0.030277196 0.080504924 -0.2270879 -0.17030059 0.082211025
0.18647109 0.066250876 0.054262538 -0.15222444 0.047898136 -0.33035263 -0.026576431 -0.20686635

pi.logits_net.2.weight f4 [64, 64]
00000000: b55f 463f 00ed 263e b661 11bf c802 453f
00000010: 24e2 073e ebe8 98bd 9667 9a3e a1c2 a03e
00000020: 3643 893b d823 113f f3bf 01bd dd15 ef3e
00000030: fe81 f8bb 0dbb c1bd c5c4 53be 6b80 50bd
00000040: 298a 52bf 4c11 debb 5ae7 0fbf aa63 1abf
00000050: d6af 5fbd c867 10bf abcf c6bc f40f cabd
00000060: 6efa 163f 77ca ea3d 1f8d 753d 7b7a 8fbd
00000070: 1980 60be 918c 273e 0875 b6be cd98 f33c
00000080: 6122 823f e985 24be 18b3 83be 3bb2 fcbd
00000090: 5a36 38bf b12f 593e 3cba 5a3d 1eb0 c0be
000000a0: ca44 093e dd1b eabe 3b4d 8d3e 8678 0e3f
000000b0: 0730 293f 1d5a 3ebf 7fd1 09bf f909 f43d
000000c0: 9d4d a9be 4beb 063f b82d e73c bd3b d4be
000000d0: f248 423e 76d0 ee3e b1ee db3e cce9 29bf
000000e0: 51e1 273e 9a4c d93e 7eee 00be 526f 87bf
000000f0: 12b3 8abe a513 2d3e 583a 00bd 26aa 853e
00000100: 1879 0bbe 1f66 2ebf b2fe bfbe 442c 24bf
00000110: 40ab 41be 9ee4 f2be 8103 f0bc 1944 38be
00000120: 3272 4cbe 309e 263f 3607 ce3e b173 76bf
00000130: b965 cabd 558e 283e de82 223e b1fe 62bc
00000140: bf8f 15bf cf14 0a3f 7609 97be 32ad a13e
00000150: 9b3b 87bc 3ad1 4f3e c806 2bbf f5c6 67be
00000160: 4033 073e ba7a 863e dc1e cbbe 28ae 1e3f
00000170: 5baa b03e 285c 453e e3d3 123f 3507 2bbe
00000180: 109b c53e 13ac a2be 866a 7cbe e661 1dbf
00000190: 86fe d6be e132 193e fda4 1e3f 1b5c 81bd
000001a0: ea74 c23e 21c3 b6bd 73e2 c1bd 1a8e b7bc
000001b0: 3164 21be 3d4a cfbe 1b75 9d3e 9337 023f
000001c0: ae29 8dbe de0d 81be 890e 0cbe 547a 40bd
000001d0: d064 703e a740 44be 7036 89be 4e87 04bc
000001e0: 110f fcbe 553f f0bd de7f 9fbe 407b aabe
000001f0: 5ba3 f1be cab8 f03c f6a9 adbf 9fba d2bd
00000200: 299d d0be af8c eabd 2fc9 4f3d 3262 3d3e
00000210: 7f46 323e e931 ad3e 212d b23e a8ef 843d
00000220: 1f03 973d cbff 35bd f63c 413e c46d 033f
00000230: 0c1e 8b3e 321a aabd 9b34 213f 2a1f 1a3f
00000240: 46ec 223f d97e 233f 7563 1bbe becc ffbe
00000250: 7ce3 0abf 1769 db3e 9798 07be 66bb afbd
00000260: e43b af3f d783 62bd ed22 773e 7b08 e93e
00000270: 99c5 96bf 7ae7 5a3d 89f2 113d bc66 91be
00000280: deb0 3fbf 0d22 8e3e 42f8 3b3d 10d4 2fbf
00000290: 5b5a d9bd a6d1 8bbe b2ef 1ebf 72b7 c93e
000002a0: 171d 023f f756 85bd 51d8 0a3d 177b f43e
000002b0: dc19 acbe 64f7 7e3d f00b b73c 9651 c5bd
000002c0: 6826 07bf 0392 1dbf 8998 d8bd 8dc8 c43e
000002d0: 4adb 28be f1a4 c23e c5dd d9bd bad7 64be
000002e0: c598 0bbe 5f13 443e 369f 6bbe de41 f0be
000002f0: da51 be3e b176 fabd 9351 e83e 03f2 a53d
00000300: 4bbf 123f 4adb 6c3f 7b47 36be 029e 90bd
00000310: 5e0e 7cbd aae6 683e ad7f 37be de77 83bd
00000320: 7b49 e9bd 99c2 bebe 3320 9dba 579c 163f
00000330: c793 fe3e 494b 123d 38d9 c43e c0c1 1bbe
00000340: 493d cb3d 74c1 b33d 0b2c 9c3e fa45 edbe
00000350: ae24 133f f0a3 a4be 0732 0e3e aae8 a4be
00000360: d5e9 ad3e 1ef7 2fbf 0a7d 68be 75bc 04bf
00000370: 2e83 77be 4e3b 023e d39a 7dbe c6be 243f
00000380: 0291 9bbd 6d16 143e 933a 923e 40d7 30be
00000390: 0e8a f8bd 52cb 85bf dcd2 e53e 2c4b a53c
000003a0: c916 1c3d cd50 64be 98ea b2bd a7d6 f5bd
000003b0: cb36 86be 4415 c3be 886f d6bd a757 1fbe
000003c0: 6d37 00bf e74d 223e f3a5 7a3e 2a96 543f
000003d0: f921 26bf bd94 9b3e f69a fe3d be51 0ebf
000003e0: 8044 04bd 74db ac3e b7ed 093f d7b4 733d
000003f0: 436a d3be 3e6a b63e 4de9 94be 1e6e 6d3f
0.7748979 0.16301346 -0.5678972 0.7695737 0.1326986 -0.074663006 0.30157155 0.3139849
0.0041889204 0.5669532 -0.031677198 0.46696368 -0.0075838557 -0.09459505 -0.2068053 -0.05090372
-0.82242066 -0.0067769643 -0.5621239 -0.60308325 -0.05461105 -0.5640836 -0.024268946 -0.09866324
0.58975875 0.11464398 0.059949037 -0.07005783 -0.21923865 0.16362216 -0.35636163 0.029735947
1.0166742 -0.16066708 -0.25722575 -0.12338682 -0.71957934 0.21209599 0.053400263 -0.37634367
0.13405147 -0.45724383 0.27597985 0.55652654 0.6608891 -0.7435625 -0.5383529 0.11915965
-0.33067027 0.5270278 0.028220043 -0.41451827 0.18973139 0.46643418 0.42955545 -0.6637237
0.16394545 0.42441255 -0.12590978 -1.0580847 -0.27089745 0.16902025 -0.03130564 0.26106375
-0.13620412 -0.68124574 -0.37499005 -0.64130044 -0.18912983 -0.47440046 -0.029298546 -0.17994727
-0.19965437 0.65085125 0.40239877 -0.9627028 -0.09882683 0.16460545 0.15870234 -0.0138546685
-0.58422464 0.53938 -0.29499406 0.3157745 -0.016507914 0.20294657 -0.6680722 -0.2263449
0.13203144 0.26265508 -0.3967198 0.6198449 0.3450497 0.19273436 0.57354563 -0.16701968
0.38594866 -0.31771907 -0.2465001 -0.61477506 -0.4199106 0.14960815 0.619705 -0.06316396
0.37979823 -0.08923937 -0.0946702 -0.022406626 -0.15760876 -0.40486327 0.30753407 0.5086605
-0.27570862 -0.25205892 -0.1367742 -0.04699166 0.23475957 -0.19165288 -0.26799345 -0.0080889
-0.49230245 -0.117308296 -0.31152242 -0.33297157 -0.47194943 0.02938499 -1.3567493 -0.102895014
-0.40744904 -0.114526145 0.050728973 0.1849449 0.17409705 0.3382714 0.34800056 0.06491023
0.07373642 -0.044433396 0.18870911 0.51339364 0.2717136 -0.083057776 0.62970895 0.602038
0.63641775 0.6386543 -0.15174659 -0.49960893 -0.54253364 0.42853615 -0.13241802 -0.08580665
1.3690152 -0.055301514 0.24134417 0.45514283 -1.1779052 0.05344341 0.03563169 -0.28398693
-0.7487925 0.27760354 0.045891054 -0.68682957 -0.10612937 -0.27308387 -0.62084496 0.3939777
0.5082564 -0.06510728 0.0338977 0.4775016 -0.3361348 0.06224765 0.02234456 -0.09634702
-0.5279298 -0.6155092 -0.10575969 0.38434258 -0.16489902 0.38016465 -0.10638002 -0.22347918
-0.13632496 0.19148014 -0.23009953 -0.46925253 0.37171823 -0.1222967 0.45374736 0.08102801
0.5732314 0.9252211 -0.17800705 -0.070613876 -0.06153714 0.22744241 -0.17919798 -0.06419347
-0.113909684 -0.3725784 -0.0011987746 0.58832306 0.4972212 0.03571633 0.38446975 -0.15210629
0.099237986 0.08777133 0.30502352 -0.4634245 0.57477844 -0.32156324 0.13886271 -0.3220876
0.33967462 -0.68736446 -0.22703949 -0.5185006 -0.24171135 0.12717935 -0.24766092 0.643536
-0.075960174 0.1446168 0.28560314 -0.17269611 -0.12135707 -1.0452673 0.44887435 0.020177446
0.038107667 -0.22296448 -0.087361515 -0.12003832 -0.2621368 -0.38102162 -0.10470492 -0.1556078
-0.50084573 0.1585003 0.24477367 0.8304163 -0.6489559 0.30386916 0.124319 -0.5559348
-0.03229189 0.3376118 0.5387835 0.059498634 -0.4129201 0.3562793 -0.29084244 0.9274615

pi.logits_net.2.bias f4 [64]
00000000: 06df 91bd 284b e4bd 1ea4 7c3d e403 99be
00000010: ddb9 b1be 67b0 f3bd 1e98 38be 9c45 533d
00000020: 10bb 953e b603 c53d 4d64 483e 0dd4 56be
00000030: 1227 493d 7ee1 42be f7df c4bd e136 36be
00000040: 167f b5bd 8f25 b7bd 1edd e63d 4616 a8be
00000050: 6c87 ebbd 93db aebd 23eb 0b3e 682d 67be
00000060: 8957 3a3d ab74 71be 910e 0bbf 43e0 563d
00000070: a22f 833e 90f1 c1be 4d7e 92be b9de bb3d
00000080: 1f92 18bd 4122 823e 0e33 95be 715b 53be
00000090: 3c20 e9be 8616 4dbe da99 333e 5efc 82be
000000a0: 3f84 013f 5c4c b0bd 8446 c0be f049 95bc
000000b0: 3c8f 0ebd a2ef 3c3d 37d1 273d d3dd 36be
000000c0: 209d c63d 58d0 c63e 8b7c ce3e 7856 d13e
000000d0: 8db2 15bf 89e8 e1bd 56f8 883e ea93 683e
000000e0: 260d a03e 87f9 5abe 37aa fc3d ad37 1c3e
000000f0: 0063 b5be b4f3 07be 7ee6 e1bd e9b6 f13e
-0.071226165 -0.111471474 0.06167995 -0.2988578 -0.34712115 -0.118988805 -0.18026778 0.051580057
0.2924428 0.096198484 0.19569512 -0.20979328 0.049109526 -0.19031331 -0.096130304 -0.17794372
-0.0886213 -0.089427106 0.112726435 -0.32829493 -0.11500439 -0.08537974 0.13663916 -0.22575915
0.045493636 -0.23579662 -0.543191 0.052459966 0.25622278 -0.3787961 -0.28611985 0.0917334
-0.037248727 0.2541676 -0.29140514 -0.20640351 -0.45532405 -0.20028123 0.17539158 -0.25583166
0.50592417 -0.086083144 -0.375538 -0.018223733 -0.034804568 0.04612697 0.040971007 -0.17858057
0.09697938 0.3883083 0.40329394 0.40886283 -0.5847557 -0.11030681 0.26751965 0.22712675
0.3126003 -0.2138425 0.123371534 0.15255614 -0.35427094 -0.13276559 -0.11030291 0.47209862

pi.logits_net.4.weight f4 [87, 64]
00000000: e959 aa3e 0b52 20bf 3e7b b6be 925d 0b3f
00000010: a081 f03e e579 543e cb1d 21bf beba 993f
00000020: 193c b83e 03aa 503f 1271 92bf 0630 6b3f
00000030: 2886 f3be 1554 18bf 0bdf 2dbf 284c 823e
00000040: 6470 dabe ac1b cd3e 2fa1 ff3e 055e d5be
00000050: 5655 2e3e f9c8 8d3e 2de7 703e 52e3 b53e
00000060: 48f5 a43e 20c3 2b3f 2dbb 303d 4286 68bd
00000070: c1a8 083f 584d f93e bceb 16bf 8d96 963e
00000080: 620a 453f d29a 883e bcca dfbe 6309 d1be
00000090: ee1c 93be 7e48 25bf 22fa 2f3f fca0 a7be
000000a0: 36bc 1cbf fd49 d23d 6532 833e 6a9a 403f
000000b0: 306c 253f e77b 91be 67d4 1fbf 8cad 3fbf
000000c0: 5afd 1dbf 04f6 503d 2cd5 58be 2e56 393f
000000d0: beb5 7ebe 07d8 10bf 0b04 033f bc54 2f3f
000000e0: 6ccf 013f e4cc 60bd 67dc dabe 6eef dcbc
000000f0: e1ba 8d3e 8497 243f a9e3 573f 3f43 413f
00000100: da81 9fbe 0574 6dbd 8f87 a5be d0e8 67be
00000110: 5b13 45be fdbb 663f 2c69 45bf e3ca 383f
00000120: 8b4d dc3e 0196 633f 6104 403f cacf d8bd
00000130: 664e 0d3e b4c8 43bf bc0b 90bf 6b8b 8d3e
00000140: 852d 07bf 28f1 183d 8544 423e 27fc abbe
00000150: 0ad6 1b3f 3a17 d23e cdec 893f 70bb e8be
00000160: 00b9 e0be f594 97bf 4603 c03e ec55 99bc
00000170: 36c1 5dbe 2e80 00bf 4f10 49bf 3d42 a33f
00000180: 44cd 79bf 868c df3d 5522 44bf 1b6e 1ebf
00000190: 891d 14bf df62 38bf fc6c bf3e 1701 50bf
000001a0: c9a2 723f b10f 83bf ca45 f0be ad9b b4be
000001b0: c062 14c0 720b 013f 11b7 673f 352a 83bf
000001c0: a06f 293e cebd c43e 1313 a73f 13a5 5fbf
000001d0: 051d 85bf 1c32 b0bf d1c0 9f3e 71f4 543f
000001e0: 1ce1 abbe a11b 44bf 9bf7 f7be 8b25 c73e
000001f0: 79c7 d5bf cac5 86bf 7700 b83e a7b4 ee3e
00000200: 8151 7e3f 3efb 95be 1654 973e 46a6 bbbe
00000210: b018 30be 5154 d3be ded3 15be d42d 80bf
00000220: 0b67 cebc 2856 c3bd 7e97 3bbe b56d 3dbe
00000230: 789e fdbe b779 1bbf 287d 853f 4462 2d3e
00000240: 89b2 acbe c956 cebe 5604 69bf 5188 c53d
00000250: 9e68 8a3e ddf2 83bf bb45 16bf 7915 953d
00000260: 9d73 bf3c 7089 f1bc ebf6 093f c9f2 aebe
00000270: f455 d53e 97d0 46bf 3401 5fbe 5d6a fabe
00000280: 6ee6 e1bd d25f c2be 3966 17bf 5847 2e3f
00000290: e951 1fbf a2eb 6f3e cae7 12bf 8914 6dbe
000002a0: 1f35 fe3e 586c b2bd c426 a2be d5c1 573f
000002b0: 1bc7 0bbf 6a22 223f 3a74 10be 5b19 26bf
000002c0: eb5d 043f e54f 413f 9da4 143f dace 1f3e
000002d0: 33f3 e2be 9739 8fbe 7d42 5a3f a98a c53e
000002e0: 53b2 babe 23f1 20bf 6354 19be 13b3 2abf
000002f0: 3ed6 9e3e 997f 333e b2a0 d43e a0d4 563e
00000300: 5794 8f3d e5d5 e8be a0ea 3dbe edb3 f63d
00000310: a5e3 1abf 28f6 0abe 35be 8abe 6320 76be
00000320: da54 38bd cfc7 a8bb e38a 123f 3095 92be
00000330: 590e 2cbe 040a ddbe 57ac 5bbe 8a54 18be
00000340: e6a0 593e d3db 6f3e f68c 22bf 7139 b43c
00000350: 5eb5 af3e ffac cd3e 13c5 82bd 4140 583c
00000360: fb2b 7fbe accb 213f 2cd8 84be 7413 953e
00000370: 766e 463f b57b d7be 4a13 263e bddc a0be
00000380: aacf f1be e3ce db3e 2f60 303c 1610 a4bc
00000390: 006c babe aeee 17bf 35b8 98be cd78 99be
000003a0: 324d de3c e9cd d83e 15bb acbe 71ed a63e
000003b0: 1e05 01bf ced9 773e c376 85be c331 bf3e
000003c0: 2f8a 8d3e 9d2f 423e ec23 8dbe 7f34 db3e
000003d0: 79be cabe b1e9 d9be 35fe fe3e 6e4e 61be
000003e0: 0bfd cd3e 9fe1 5f3e 39b7 f6bd 9ff5 0bbd
000003f0: a97c fa3e 1434 8d3e cf34 f43d 6497 c3be
0.3327172 -0.6262519 -0.356409 0.5443965 0.46973896 0.20749624 -0.62936085 1.2010114
0.3598335 0.8150942 -1.1440756 0.9187015 -0.4756329 -0.595033 -0.6791846 0.25448728
-0.42663872 0.40060174 0.4992766 -0.41673294 0.1702474 0.27692392 0.23525687 0.35524994
0.32218385 0.6709461 0.043147255 -0.056768663 0.533825 0.4869182 -0.5895345 0.29411736
0.7696897 0.2668062 -0.43709362 -0.40827474 -0.2873301 -0.6456374 0.6874105 -0.3274001
-0.6122469 0.102680184 0.25624385 0.7523562 0.64618206 -0.28414842 -0.62433475 -0.74874187
-0.6171471 0.05101587 -0.21175069 0.72397125 -0.24874017 -0.5657963 0.51178044 0.6848867
0.50707126 -0.0548829 -0.4274628 -0.026969638 0.2768164 0.64293694 0.84331757 0.75493234
-0.31153756 -0.057971973 -0.32329985 -0.22647405 -0.19245665 0.901306 -0.77113605 0.7218458
0.4302791 0.8890076 0.7500668 -0.105865076 0.13799438 -0.76478124 -1.1253581 0.2764543
-0.5280383 0.03733936 0.1897145 -0.33590814 0.6087347 0.41033345 1.0775391 -0.45455503
-0.43891144 -1.1842333 0.37502497 -0.018717729 -0.21655735 -0.50195587 -0.7854051 1.2754589
-0.97578835 0.109154746 -0.76614887 -0.6188676 -0.5785757 -0.72025865 0.37387836 -0.8125166
0.9477964 -1.0239164 -0.46928245 -0.3527502 -2.3185272 0.5040809 0.9051371 -1.0247256
0.16546488 0.3842606 1.3052696 -0.8736126 -1.0399481 -1.3765292 0.31201795 0.8318549
-0.33570182 -0.7660466 -0.48431095 0.3889583 -1.6701499 -1.052911 0.35937855 0.46622202
0.99343115 -0.29293245 0.2955634 -0.36650294 -0.17196918 -0.41275266 -0.14631602 -1.0013986
-0.02519562 -0.095379174 -0.18319508 -0.18498881 -0.49534965 -0.607326 1.042882 0.16932017
-0.33729962 -0.40300587 -0.9102224 0.09645141 0.27032942 -1.0308491 -0.5870015 0.07279486
0.023370558 -0.02948448 0.5389239 -0.34169605 0.4166714 -0.7766203 -0.21777803 -0.48909274
-0.11030279 -0.3796373 -0.59140354 0.6807761 -0.6223436 0.2342973 -0.5738493 -0.23152365
0.49649903 -0.08712071 -0.316702 0.8428014 -0.54600686 0.6333376 -0.14106837 -0.6488244
0.5170581 0.75512534 0.5806368 0.15606251 -0.4432617 -0.27973625 0.85257703 0.38582352
-0.36464176 -0.62867945 -0.14973597 -0.66679496 0.3102283 0.17529143 0.4152885 0.20979548
0.070107155 -0.4547569 -0.18546534 0.12046037 -0.6050361 -0.13570464 -0.2709824 -0.24035792
-0.045002796 -0.005150772 0.57243174 -0.28629446 -0.16802348 -0.43171704 -0.21452461 -0.14875999
0.21252784 0.234237 -0.6349634 0.022000046 0.3431806 0.40171048 -0.06385245 0.013198913
-0.24919121 0.63201404 -0.25946176 0.29116404 0.775123 -0.42086568 0.16218296 -0.3141841
-0.47228748 0.4293128 0.010765119 -0.020027202 -0.36410522 -0.5934857 -0.2982804 -0.29974976
0.027136419 0.42344597 -0.33736482 0.32603028 -0.50398433 0.2420418 -0.2606717 0.37342653
0.27644488 0.18963476 -0.2756647 0.4281349 -0.39598444 -0.42561105 0.4980332 -0.22002575
0.4023212 0.21863411 -0.12046666 -0.03416979 0.48923233 0.27578795 0.11924135 -0.3820144

pi.logits_net.4.bias f4 [87]
00000000: 1c45 e33e db4a e33e 7d6f fc3e 6c63 7a3e
00000010: b8a2 053f a19b ee3e 5e83 a43e c0ca a53e
00000020: ee61 403d 8f4f 183f 75c8 243f ddfd 443e
00000030: 49b1 12bd 1096 0a3e 87b7 903e ea50 893e
00000040: 7ec9 b83e c786 b43e 0c3a 3a3e f023 e23e
00000050: 1f7b 003f 715b 423e c3bd 8e3e 87dc 043f
00000060: 4962 e33e 779f 823e 795d 213f 5d0d ea3e
00000070: a64a 34bc 3e8a ae3e 3ce5 043f e801 293e
00000080: 0eee c7bd a1ac 9b3d ad0b d33e 1709 f23d
00000090: 0fe3 7a3d 16ae d03c fc7a dd3e 80a6 ca3c
000000a0: c1d0 e53e 4488 bb3e 4f9a d53e d413 f63d
000000b0: b901 de3e 1bb7 b23e 5490 1f3e 958b 173f
000000c0: d8a4 d93e e591 8b3e c50c c33e ec33 b73e
000000d0: 384e d73e e6b4 36bd fd72 0a3f b1d0 833e
000000e0: 3d0a 783e e9ba ba3e dfa2 d03e a44c 78bd
000000f0: be4e b83e 03fe db3e d73d 863e 1b61 f13e
00000100: 3f7c c83e 97e7 8e3e 9180 a73e e209 203f
00000110: b85f 123f 31a7 003e 16c2 183e 8c88 6a3e
00000120: 0f7e b13e b0a8 9d3e 72d1 043e 02c2 9c3c
00000130: f371 df3e 9c3d 4b3e 9629 f43e aaae 2d3e
00000140: af5d e83e 509c d83e 1ebc 423e 6c62 0f3f
00000150: d59d ab3e bd0f 973e 2b59 063e
0.44388664 0.44393048 0.4930381 0.24451989 0.52201414 0.4660311 0.32131475 0.32381248
0.046968393 0.59496397 0.64368373 0.19237466 -0.035813604 0.13533807 0.2826502 0.26819545
0.36091226 0.35259077 0.18186206 0.44168043 0.5018787 0.18980195 0.27879152 0.51899
0.44410923 0.25512287 0.6303325 0.4571332 -0.011004126 0.34089845 0.51912284 0.16504633
-0.09762202 0.07601286 0.41219845 0.1181814 0.061251696 0.025473636 0.43257892 0.024737597
0.4488583 0.366274 0.4171929 0.12015501 0.4336069 0.34905323 0.155824 0.5919736
0.42508578 0.27259746 0.3809568 0.357818 0.42051864 -0.044606112 0.5408171 0.25745156
0.24222656 0.36470726 0.4074926 -0.060619965 0.35997576 0.42967233 0.26219055 0.47144398
0.39157292 0.27911064 0.32715276 0.6251508 0.57177305 0.12563778 0.14917788 0.22903651
0.34666488 0.3079276 0.12970522 0.019135479 0.43641624 0.19847721 0.47687978 0.1696116
0.45383975 0.42306757 0.19017074 0.56009555 0.33518854 0.29504195 0.13119952

v.v_net.0.weight f4 [64, 282]
00000000: 9431 5e3e a97f a53f d10a 3abd 030c a73e
00000010: 3d07 033f f3d2 023f e907 c83e 1ba1 d53e
00000020: af41 01be b55d 253f 88da 943f 90a5 ab3f
00000030: fb34 843e 2611 8ebd c6e8 0f3f 5b6b 953e
00000040: 7a7f 473e 4949 9b3f a444 fe3e 5f00 903e
00000050: e6a3 613e bf11 c53e 7775 803f b00e 133f
00000060: d8ef e63e f68a 58bd 1ddc 9b3e bfbc b03e
00000070: a5f3 ae3e 32b4 6c3e c41d 023f cf32 aabd
00000080: 39bb ab3f daf8 123f 772a a53e d1a9 d13e
00000090: d570 c63e 9a26 dfbd e645 de3e 0d8a 01be
000000a0: 55e7 74bd a0d0 943f d66a 9cbc c966 b7bc
000000b0: 5d7f 7b3f 3d7e 3dbc edad 063f 2a83 dc3e
000000c0: 6160 9b3f 31a7 d43e d14d c73e 7dd3 2f3e
000000d0: aa78 943f 18d8 09bd 271a a53f d069 fa3e
000000e0: 71ab a73f fb3f a13e 2b66 8ebd a3a9 963e
000000f0: 75f2 aa3e 67d8 f8bd 01b9 be3e 76e9 9c3f
00000100: ff20 a53f b263 80bc 3edd e13e 7227 983f
00000110: 3887 8f3f 38c6 453e 431f a83f df16 cd3e
00000120: 556a b3bd 952b 913f af15 a03f 59c5 c13e
00000130: d08f af3f 2f62 bc3e 078a 8a3e 091e d0bc
00000140: efae a03f ca3a e23e 238a be3e fdf4 933e
00000150: d5e5 02be 5c45 643e fb42 a23f a8b2 9e3f
00000160: cbf6 d33f c5e0 7abf 7122 ac3f 383b 123f
00000170: 01a3 383b ae50 08bf a65b 75be 5638 50bd
00000180: 1400 593e 2b20 d3bf d844 e63e ddf6 543f
00000190: 6e01 73bf 9c23 2840 f1ae ee3e 9960 b63f
000001a0: e07a 8fbf 90e7 123f 6510 fa3e 4132 d13f
000001b0: 0118 4a3e d845 903f f789 d73f d72f c53f
000001c0: 421f 8e3d 0583 29bf 8431 4940 3a81 c33e
000001d0: 7f57 6d3f 7e40 203f 71bb 9abf f28f 8c3f
000001e0: f003 babe 8671 0840 2ea8 09bf e660 27bf
000001f0: 93b8 193d d90d 26bf 9c4e 04be a2e3 7dbe
00000200: 80ee a53d 9ffa 0d3f 6a07 503f d915 4240
00000210: 3fd5 233f 0495 c9bf 5442 743e 7f56 8bbe
00000220: 4e1c a13e 7a08 4440 f25b 583f fdf0 40bd
00000230: 3b19 97bf fc14 c13f 59f6 363e faa0 3a3e
00000240: 04f0 2f40 612f 553d 358b 3abf 388e 063f
00000250: 95e9 1940 d49f 21bf f849 a53e 348e 613f
00000260: a2d7 dcbe c11d a03f 2055 183f 5be8 7b3d
00000270: f734 5440 4d81 133e 3c42 50bf 17e9 f7bf
00000280: f89f ce3f 0456 04bf a961 20be c5e8 6f3e
00000290: 66e7 b73d f602 913f da2a 65be 7112 2d40
000002a0: add0 7c3e c0d9 11be 9794 953e ea0f ea3d
000002b0: dd87 a83f fa5f 24bf eb2f 96bf 0423 80be
000002c0: 31cc 57bf 946a bebf 7648 9a3f 7d72 353f
000002d0: 79c3 023f 4661 543f 8485 63bf f65f 7440
000002e0: 6b63 6f3f 5dff 14c0 2be9 7dc0 0e28 12bf
000002f0: ccc9 80bf ef79 4740 90e2 29c0 b5a1 55c0
00000300: 27c7 0a3f 4708 9abf eb91 37bf 9bbb 82bf
00000310: 5bdc 273e ab41 663e a606 fd3e ccc1 793f
00000320: 4bad 3c3f 49c0 8abf 4bb9 fbbf dc83 08c0
00000330: cddd 903f f4dd 2ebf 91ed 1d40 5d25 e33e
00000340: 31a0 4b3e a732 9b3f cd8d 113f 5121 7f3f
00000350: e7e0 2140 5975 3ebf 9c4c 953f 3c4b 943e
00000360: 5649 e9bf 7c24 17be aea2 50be 5997 cabf
00000370: 06a9 873e 9cb5 bd3f e01a ac3f dbd7 f4be
00000380: 8b25 8abf 7cad b0be b430 393f 1e9e 183f
00000390: aba2 e1be a36a 08be 433e efbf 6a2e 2bbe
000003a0: 85bb e6be f1d4 8040 e418 083f 68c5 4c3e
000003b0: 2717 ffbe f02f d33f d8a4 2cbf 344d dbbe
000003c0: d71f 53c0 3d9a 61be 90a7 a63f 5397 d33f
000003d0: 188c 39bf 0cc5 d6bf c414 4dbf 508e b6be
000003e0: d3fe 83bd 4575 8d3d 56b6 c3be 310f 0b40
000003f0: 2ce3 49bf 56b0 113e 1f9b f0be 6841 f4be
0.216986 1.2929584 -0.04542047 0.32626352 0.5118292 0.5110313 0.39068535 0.41724476
-0.12622713 0.6459611 1.162919 1.3409901 0.2582167 -0.069368646 0.5621456 0.29183468
0.19482222 1.213174 0.49661744 0.28125283 0.22035179 0.38490102 1.0035847 0.57444286
0.4510486 -0.0528669 0.3044137 0.34519002 0.3417026 0.23115614 0.5082667 -0.08310472
1.3416511 0.5741097 0.3225896 0.40949872 0.3875796 -0.108960345 0.43412703 -0.12650318
-0.059790928 1.1626167 -0.019093912 -0.022387879 0.98241216 -0.011565742 0.5260914 0.4306882
1.2138788 0.41533807 0.38926557 0.1717052 1.1599324 -0.03365335 1.2898606 0.48908854
1.3099195 0.31494126 -0.06953081 0.29426298 0.33388105 -0.121506505 0.37250522 1.2258747
1.2900695 -0.015672538 0.44114107 1.1887038 1.121314 0.19313896 1.313454 0.40056512
-0.087605156 1.1341425 1.2506617 0.37845877 1.3715763 0.36793658 0.27058432 -0.025404947
1.2553385 0.44185477 0.37214765 0.2889785 -0.12782986 0.22292084 1.2676691 1.2398272
1.655969 -0.9799922 1.3448011 0.5712161 0.002817333 -0.5324811 -0.23960742 -0.050834976
0.21191436 -1.6494192 0.449744 0.83189183 -0.94924057 2.6271734 0.46617845 1.4248229
-1.1209373 0.57384586 0.48840633 1.6343461 0.1973572 1.1271315 1.6838979 1.5405225
0.06939556 -0.66215545 3.1436472 0.3818453 0.92711633 0.6259841 -1.2088453 1.0981429
-0.3633113 2.131929 -0.53772247 -0.6538223 0.03752954 -0.6486488 -0.12920612 -0.24793866
0.08102131 0.5546054 0.8126131 3.0325835 0.6399726 -1.5748601 0.23853427 -0.2721443
0.31466907 3.0630174 0.845153 -0.047104824 -1.1804575 1.5084529 0.17867412 0.1822547
2.7490244 0.052047137 -0.72868663 0.5256076 2.4048817 -0.63134503 0.32282996 0.8810761
-0.43133265 1.250908 0.5950489 0.06150089 3.3157327 0.14404793 -0.81351066 -1.9368008
1.6142569 -0.5169375 -0.15662254 0.23428638 0.089796826 1.1329029 -0.22379628 2.7042506
0.24688978 -0.14243221 0.29214928 0.114288166 1.3166462 -0.6420895 -1.1733373 -0.25026715
-0.84295946 -1.4876275 1.2053363 0.7087782 0.5107952 0.8296093 -0.88875604 3.818357
0.93511075 -2.3280861 -3.9673564 -0.5709237 -1.0061584 3.1168172 -2.6544533 -3.3379948
0.5421013 -1.2033776 -0.7170703 -1.0213503 0.16392653 0.22485988 0.49419135 0.97561336
0.73701924 -1.0839931 -1.9665922 -2.133048 1.1317688 -0.68307424 2.467625 0.44364443
0.19885327 1.2124833 0.56856996 0.9966021 2.529352 -0.7439781 1.1664004 0.2896365
-1.8225505 -0.14760011 -0.20374557 -1.5827438 0.26496142 1.4821048 1.3445702 -0.47820935
-1.0792707 -0.34507358 0.7233994 0.5961627 -0.44069418 -0.13321929 -1.8690876 -0.16716924
-0.4506494 4.025994 0.5316298 0.1999718 -0.4982235 1.6499004 -0.6743903 -0.4283234
-3.2988183 -0.22031493 1.3019886 1.6530555 -0.7247939 -1.6778884 -0.8010981 -0.3565545
-0.06445088 0.06907133 -0.3822505 2.1728022 -0.7886226 0.14227423 -0.46993348 -0.4770615

v.v_net.0.bias f4 [64]
00000000: 8513 2dbe 44ed 2bc0 a31f 39bf 59bf b03f
00000010: 475b 063e bf53 873f 2724 acbe 62b7 9d3f
00000020: 2c76 ca3f 07c1 9ebf 207f 8f3f d7c8 013f
00000030: 9339 f8bf 27ce b0bf 7ef5 e1bf 08b7 51c0
00000040: d8e4 2b3f 9ae7 f63e 1b9b 103f 7d2b 1f3f
00000050: c768 533f 887c 463e aa0d df3f 257b 0dbf
00000060: 42d7 be3f 905e 0bbf 972c a1bf c5ee 0840
00000070: 73fb 983f 7b47 a73e a03a 443e b2ef 3c3e
00000080: 79d7 6b3e 308c a13d f126 47bf 4498 e0be
00000090: 3c62 093f 4ddd 353f 3a8b 933f b333 2640
000000a0: 3da6 123f b8aa 893f 68f0 6d3f e1c7 9fbe
000000b0: 673b 34c0 282a e1be 8192 883e 93cc 57be
000000c0: 171b ebbd 4c53 86be 7bed c6c0 7d03 4b40
000000d0: e948 7fc0 718a b6bf cc01 1340 ccd5 ca3e
000000e0: 0871 0640 22b9 ccbe 2182 8dbe 124d 12bf
000000f0: 0611 1840 1046 7f3f e219 f73f 416f d63f
-0.16901977 -2.6863565 -0.723139 1.3808395 0.13120757 1.0572432 -0.33621332 1.2321589
1.5817313 -1.2402657 1.121067 0.5069708 -1.939257 -1.3812913 -1.7653043 -3.2767963
0.6714606 0.48223573 0.5648667 0.6217573 0.8258175 0.19383442 1.7426045 -0.5526603
1.4909441 -0.54441166 -1.2591733 2.1395733 1.1951736 0.32671723 0.19162989 0.18450812
0.23031415 0.07888067 -0.77793795 -0.4386617 0.5366552 0.71040803 1.1526864 2.5969055
0.5728491 1.0755224 0.92944956 -0.31207183 -2.8161256 -0.43977475 0.26674274 -0.21074133
-0.11479776 -0.26235425 -6.2164893 3.172088 -3.988825 -1.4260999 2.2969847 0.3961624
2.1006489 -0.39984995 -0.27638343 -0.5714885 2.376039 0.9971628 1.9304774 1.6752702

v.v_net.2.weight f4 [64, 64]
00000000: 8aaa 813f c747 5bc0 a542 8840 8b01 613e
00000010: 944d ebbf 233e cc3e 2c98 84c0 d60b 12bf
00000020: bbcf 9740 7c02 5bc0 5f61 1541 25c3 0ac0
00000030: 1ce8 4240 7c2e 8b3f dfc0 8ac0 fb70 be3e
00000040: 22e0 873f 09b2 3940 2614 f8bf 2cb1 1abf
00000050: b351 30be 0fa6 0540 cdc2 2b40 cd87 f93f
00000060: 1ff3 4540 611a 0fbf 8c76 91bf 7c67 e9be
00000070: 63c9 1f40 4ad2 11bf 6087 67c0 5491 32bf
00000080: 375f 87c0 e4b9 29bf 8056 01bf 00ab 70bf
00000090: 5054 6ac0 f6ab f73f 1de3 82bf 094c 763e
000000a0: a01f 863e 376b 03bf e92f 76bf 4f3e c33f
000000b0: 985b 973e b82b 3fc0 83ca 2abf c67c 98bf
000000c0: 6725 1840 f9c1 d0bd 81d8 643e 6c94 8e3f
000000d0: 26f1 c240 a0e1 913f be96 d23e 74ce b5bf
000000e0: 44e1 da40 6491 fc3e 512a d23e 42b4 7c40
000000f0: 9afb 34bf 29aa f23f 6cea e53f 8041 d53d
00000100: 0ff1 a5be a8f6 a93f a6ee 82c0 31be 243f
00000110: 61f6 bdbe 9826 12c0 cfcd 89c0 b3f6 87c0
00000120: e273 efbf ca9a 843f 190e 6a3f 3eba 1ebf
00000130: 9da4 7d40 d622 35bf bdc1 6bc0 c7af a93e
00000140: ebb7 9bbf 7e77 0a3e 5ffd 87be 4ec5 4bbf
00000150: 259a 7f3f 4fde 64bf db3d 64bf c518 36c0
00000160: bb2f 0040 0a83 d73f c7c5 1cbf d94a 6abe
00000170: c54a b0c0 bb3e 06bf 0b60 56c0 4908 a240
00000180: a3e4 7dc0 c4b2 6640 dac6 19c0 8f59 3a40
00000190: bb97 0bc0 aef9 02c0 f0bd a4bf c2ad 823f
000001a0: b986 6240 e4b3 4ac0 a170 b8bf cac8 c9be
000001b0: cedc 03c0 63cf a240 8603 0340 41ae 08c0
000001c0: 1a59 1640 b08c 69c0 9e2f d13f dd84 f63e
000001d0: 2a37 d33f aedd 5ebf 41bb 07c0 3193 5cbf
000001e0: 8511 89c0 3e87 b7be ee61 3e40 c6db 07c0
000001f0: 334e 4f40 6c21 68c0 68de 033f 79aa afbf
00000200: cb38 0140 09c2 04c0 b1c2 0440 60da 2e40
00000210: 6312 bebf d0bc b140 1bbb 74c0 61e5 0540
00000220: 9b3a 8540 e1d1 c13f b554 2d40 4e41 01c0
00000230: bb3a babf 3f2a 1840 58ec 1840 2b05 7640
00000240: 82fb 0cc0 a412 b8c0 f316 56be ee50 07c0
00000250: b4b3 94bf 4e17 08c0 44c6 8f3f 2205 97c0
00000260: 5e4a 69c0 1924 4040 3897 2a40 367b 20bf
00000270: bfd1 15c0 09dc 74be c40c 783f a231 e9bf
00000280: f85c 7540 bec5 93bf 04b7 953d 18dc b2bf
00000290: 3113 2ebe c241 6e3d 32af 1a40 64a8 86c0
000002a0: 2e2c 9740 2413 a1bf a3cf 13c0 d204 1340
000002b0: c441 aabd 0547 df40 fa04 f93d 49b5 21c0
000002c0: a883 0fc0 155e 81c0 3bf2 a8bf 9b2d 50c0
000002d0: 1b28 2c3f c33c a73f 0ba3 2640 2c0c e7bf
000002e0: ae0f 79c0 4446 d83f 5147 e5bf a2ed 9c3f
000002f0: 2b97 1a3f 6f3f 45c0 1a31 e3be e8fa 1c3e
00000300: 66bf 91c0 4f35 c0bf cbf8 4d3f db80 b33e
00000310: 1125 213f 3e29 febe edbe 8bbf 6e5f 01c0
00000320: 88ab 10bf 88fc 1d40 4232 d63e 234c 16c0
00000330: c2ec 76c0 4f4e c8be 4e68 2ebd 0295 b4bf
00000340: 80dd 183f 52bc d040 a372 d63f 45a9 763e
00000350: 4732 5440 6793 07c0 9f3a 05bf f81e dfbd
00000360: ba00 813f cf23 96c0 5467 cdbf b7de 3ec0
00000370: f723 ce40 e8b6 b8bd 50b0 4440 2f0a 6640
00000380: f7a8 04c0 0e2c 5fc0 b395 5f40 578f 5d3f
00000390: b82f fcbf e374 c1be c7e1 24bf 723c 1940
000003a0: e978 ebbe 4757 e43e 277c ed3e 6873 63be
000003b0: bcf4 1c3e 535c 84c0 1970 2dc0 1df0 763f
000003c0: 454a 08c0 88c7 2640 dc1a 0740 cb65 e33e
000003d0: c011 ecbf c98c 21c0 04ef 34c0 31e7 2040
000003e0: edb2 0840 718a 63c0 7714 143f 2acc 843f
000003f0: 1818 13c0 c90d 57bf 8d8c 14bf 994b c33d
1.0130169 -3.426256 4.2581353 0.21973245 -1.838305 0.39891157 -4.1435757 -0.5704931
4.7441077 -3.4220266 9.336272 -2.1681607 3.0454168 1.0873561 -4.336044 0.37195572
1.0615275 2.9014914 -1.9381149 -0.6042659 -0.17218666 2.0882604 2.6837647 1.9494568
3.092964 -0.55899626 -1.1364303 -0.45586765 2.4966667 -0.569615 -3.6176376 -0.69753003
-4.230373 -0.6629927 -0.50522614 -0.94010925 -3.661396 1.9349353 -1.022556 0.24052443
0.26196003 -0.5133547 -0.96166855 1.525339 0.29562068 -2.9870434 -0.6671526 -1.1913078
2.3772829 -0.10193247 0.22348215 1.1139045 6.091937 1.139698 0.41130632 -1.420363
6.8399982 0.49329674 0.4104791 3.948502 -0.70696414 1.8958179 1.7962165 0.10412884
-0.32410476 1.3278399 -4.091632 0.6435271 -0.37102035 -2.2836056 -4.306373 -4.2488647
-1.870724 1.0359738 0.9142776 -0.62002933 3.9631722 -0.7075628 -3.6836998 0.3314192
-1.2165502 0.13522145 -0.26560494 -0.7959794 0.9984458 -0.89401716 -0.89156884 -2.8452618
2.0029132 1.6836865 -0.61239284 -0.22880115 -5.509127 -0.5243947 -3.349612 5.0635114
-3.9670799 3.604661 -2.402762 2.9117162 -2.181136 -2.0464892 -1.2870464 1.0209277
3.5394728 -3.1672297 -1.4409372 -0.39411002 -2.0603518 5.0878158 2.04709 -2.1356356
2.3491883 -3.649212 1.6342657 0.48148242 1.650121 -0.87057006 -2.120804 -0.86162096
-4.2833886 -0.3584537 2.9747272 -2.122789 3.239148 -3.62704 0.5151124 -1.3723899
2.0190914 -2.074343 2.074383 2.7320786 -1.4849361 5.5542984 -3.82392 2.0921252
4.163404 1.5142175 2.708295 -2.019611 -1.4549173 2.3775785 2.3894253 3.8440654
-2.2028508 -5.7522755 -0.20907192 -2.1143146 -1.1617341 -2.1264224 1.1232381 -4.7193766
-3.645164 3.0022032 2.6654797 -0.62688005 -2.340927 -0.23912062 0.9689448 -1.8218272
3.8337994 -1.1544721 0.07310298 -1.3973417 -0.16999508 0.05816818 2.416943 -4.2080555
4.724143 -1.2583966 -2.3095481 2.2971692 -0.08313325 6.9774194 0.12159152 -2.5266898
-2.2424107 -4.0427346 -1.3198923 -3.2527835 0.67248696 1.3065418 2.6037014 -1.805059
-3.891582 1.6896443 -1.7912389 1.226002 0.60386914 -3.0819967 -0.443734 0.15330088
-4.554614 -1.5016268 0.8045775 0.35059246 0.62947184 -0.4964084 -1.0917641 -2.0214496
-0.56511736 2.4685383 0.4183522 -2.348397 -3.8582006 -0.39122245 -0.04257994 -1.4107974
0.5971298 6.5229883 1.6753734 0.24088009 3.3155687 -2.1183717 -0.52042574 -0.10894579
1.0078347 -4.691871 -1.6047158 -2.9823434 6.4418902 -0.090192616 3.0732613 3.5943716
-2.0728128 -3.487064 3.493512 0.86546844 -1.9702063 -0.3778449 -0.6440701 2.3943143
-0.45990685 0.44597837 0.46383783 -0.22211993 0.15327734 -4.13627 -2.709967 0.96460134
-2.129533 2.6059284 2.1110144 0.444136 -1.8442917 -2.5242178 -2.8270884 2.5141108
2.1359208 -3.5553248 0.57843727 1.0374806 -2.2983456 -0.8400541 -0.58026963 0.095359035

v.v_net.2.bias f4 [64]
00000000: 6e39 6c3f 5987 a1bf 1e3b 39bf 3e11 1dbf
00000010: 0b2f 9c3e ee9b 8c3f b3c9 cb3f a121 003f
00000020: 4965 ae3f a8ff ecbe 4129 013f 17ad e2bf
00000030: 2e6e f2be 4e1e c6bd 2a50 8abe ee26 873e
00000040: f804 bbbf c936 64bf e5d3 3fbf 19ac 343f
00000050: c0ce bb3d 8cfa b0be e828 b43f 654e 7abf
00000060: 470c 94be 1ad2 2d3f ceeb 523d 8a46 353f
00000070: fcc2 1dbf 6fe0 3fbf 2788 153e 6c6c a63d
00000080: f23f 333f a26f 3e3e 3b33 f33e 66b3 b2be
00000090: f279 043f b297 97bf 413c ba3f b69c 19c0
000000a0: ea4a 653f ba47 22bf 7032 9d3f 94cb bfbf
000000b0: 6592 09bf ccee 083f 0442 df3f ce4c 023d
000000c0: 5372 073f 76e1 f03e 01e7 27bf 2ac6 debe
000000d0: 45c5 d5bf c39a cabe 4999 3fbf 728c a73d
000000e0: 3051 3dbd c865 d03e df59 b33f d6f8 9a3f
000000f0: 0c9d 093f a7cf 82bf 6a81 c73f 6c6e 8cbf
0.9227513 -1.261943 -0.7235583 -0.61354434 0.3050464 1.0985086 1.5920929 0.50051314
1.362466 -0.462888 0.50453573 -1.7709073 -0.47349685 -0.09673749 -0.27014285 0.26396888
-1.4610891 -0.89146096 -0.749327 0.705751 0.09170294 -0.34566152 1.4074984 -0.9777587
-0.28915617 0.67898715 0.051494412 0.7081076 -0.6162565 -0.74951833 0.14602719 0.081261486
0.7001945 0.18597272 0.47500023 -0.34902495 0.51748574 -1.1843169 1.4549638 -2.4001899
0.89567435 -0.63390696 1.2281017 -1.4984002 -0.53739005 0.53489375 1.7442021 0.031811528
0.5290882 0.47047013 -0.6558686 -0.43510562 -1.6700827 -0.395712 -0.7484327 0.08181085
-0.046220005 0.40702653 1.4011801 1.2107189 0.5375526 -1.021962 1.5586369 -1.0971198

v.v_net.4.weight f4 [1, 64]
00000000: 3b3e ec40 d28c 08c1 2da9 13c1 be04 7740
00000010: 5222 2dc1 a2ed 7141 9eb8 6541 e1c0 5241
00000020: 94d6 4241 c211 f7c0 2f78 16c1 f50b 0cc1
00000030: a7a3 1041 f0da 0041 4dd9 6dc1 6c02 b5c0
00000040: f195 72c1 7aa0 3e41 0fc2 5441 3fdc 0240
00000050: beaf dfc0 c4b1 e33f ff6e 19c1 53ec 9ac0
00000060: 974b 39c1 56c9 0b41 feaa f0c0 3d7d b840
00000070: 44f7 59c1 d89d 16c1 73e7 d140 bd96 0140
00000080: 045c 32c1 f50a 0341 2d06 6f41 d04e 1341
00000090: b1bb ecc0 55f8 20c1 afe2 dc40 0a9e 2dc1
000000a0: 80dc b5c0 b10b 6ec1 9104 0e41 e577 08c1
000000b0: 94a4 3441 97e4 49c1 c5ba 4f42 26e0 3bc1
000000c0: 2ea4 37c1 c614 29c1 8eab ffc0 12bb 0b41
000000d0: cde9 08c1 492c edc0 5905 5841 3b94 4dc1
000000e0: 79bb 05c1 3d22 8741 4db9 02c1 2059 7c41
000000f0: cf6e f440 035c 73c1 dafe 7441 0237 bec0
7.3825965 -8.53438 -9.228803 3.8596644 -10.820879 15.120516 14.357573 13.17209
12.177387 -7.7209177 -9.404342 -8.752919 9.039954 8.053452 -14.865552 -5.6565456
-15.161607 11.914179 13.297378 2.0446928 -6.990203 1.7788625 -9.589599 -4.841348
-11.580955 8.736654 -7.520873 5.765288 -13.622868 -9.413536 6.559503 2.0248253
-11.147465 8.190175 14.939008 9.206741 -7.3979115 -10.060628 6.9026713 -10.851084
-5.6831665 -14.877854 8.876115 -8.529271 11.29018 -12.618308 51.932392 -11.742224
-11.477583 -10.567572 -7.9896917 8.733171 -8.55708 -7.411656 13.501306 -12.848689
-8.35827 16.891718 -8.170239 15.771759 7.6385264 -15.209964 15.31222 -5.944215
