model_wts/s3_d3_m0.0_b1.0.ckpt (torch, 206875 bytes, 11 tensors)

pi.logits_net.0.weight f4 [64, 282]
0	0xbdaf9bb6	-0.085746214
1	0xbea06d92	-0.31333596
2	0xbe452092	-0.19250706
3	0xbd96cedc	-0.07363674
4	0xbe17498d	-0.14774151
5	0xbe5092fd	-0.20368572
6	0xbd40324f	-0.046922978
7	0xbd4defe1	-0.050277594
8	0xbe1f7e86	-0.15575609
9	0xbd810ac6	-0.06300883
10	0xbe891f84	-0.26781857
11	0xbe6c3a61	-0.23069145
12	0xbd8c19f9	-0.068408914
13	0xbe37069c	-0.17873615
14	0xbe514c69	-0.20439304
15	0xbcb54fe5	-0.022132823
16	0xbd85d148	-0.06534058
17	0xbe663575	-0.2248133
18	0xbdd2ef1f	-0.10299515
19	0x3cc2df5d	0.023788149
20	0xbc1423e7	-0.009041763
21	0xbde7fbee	-0.11327349
22	0xbe881931	-0.2658172
23	0xbe566dcf	-0.20940326
24	0xbe77be18	-0.24193609
25	0xbe511842	-0.2041941
26	0xbd3a8a4b	-0.045542043
27	0xbc133261	-0.008984179
28	0xbdfeca04	-0.12440875
29	0xbd94a62e	-0.07258259
30	0xbe3816f1	-0.17977501
31	0xbe05caa0	-0.13065577
32	0xbe9e5e1f	-0.30931184
33	0xbe519e5f	-0.2047057
34	0xbd946aeb	-0.072469555
35	0xbdde6c4a	-0.10860498
36	0xbdc2743e	-0.09494828
37	0xbe6775fe	-0.22603604
38	0xbe30600b	-0.17224137
39	0xbe29d604	-0.16585547
40	0xbe20f512	-0.15718487
41	0xbe8a8222	-0.27052408
42	0xbe31ec52	-0.17375305
43	0xbe52ae32	-0.20574263
44	0xbe93e073	-0.2888218
45	0xbe39b2fc	-0.18134683
46	0xbe3d849d	-0.18507619
47	0xbe2282c7	-0.158702
48	0xbe8a659d	-0.2703065
49	0xbcc69797	-0.024242206
50	0x3c26bbd7	0.01017662
51	0xbd4fdfab	-0.050750416
52	0xbe8a7686	-0.2704355
53	0xbdea3f00	-0.114377975
54	0xbe699413	-0.22810392
55	0xbe049eef	-0.12951253
56	0xbe93506b	-0.28772292
57	0x3ceb0df5	0.028693179
58	0xbe10e258	-0.14148843
59	0xbd42118f	-0.047380026
60	0x3caf54d3	0.021402752
61	0xbe26a9bc	-0.16275686
62	0xbdfc9a38	-0.123341024
63	0xbe93a6c9	-0.28838184
64	0xbe9f3608	-0.3109591
65	0xbe5d83ca	-0.21632305
66	0xbe45a5c7	-0.1930152
67	0xbe9bfca8	-0.304662
68	0xbe8d3ced	-0.27585545
69	0xb89a7222	-7.364551e-05
70	0xbe81d18a	-0.25355178
71	0xbcf7afd9	-0.030235218
72	0xbe46ab9c	-0.19401401
73	0xbe9d082d	-0.306703
74	0xbe66ce17	-0.22539555
75	0xbd708273	-0.058718156
76	0xbe84aed8	-0.25914645
77	0xbcf1b8c5	-0.02950705
78	0xbb74444e	-0.0037272158
79	0xbe01faf3	-0.12693386
80	0xbea0699b	-0.3133057
81	0xbe485f03	-0.19567494
82	0xbe083e25	-0.13304956
83	0xbc8f421d	-0.01748758
84	0xbdee8589	-0.116465636
85	0xbda11f41	-0.07867289
86	0xbe7402c3	-0.23829179
87	0xbe431a9a	-0.19053116
88	0xbf3843c3	-0.71978396
89	0x3f0b3f6a	0.5439364
90	0xbe039cec	-0.1285283
91	0xbeb477dd	-0.35247698
92	0xbe50f682	-0.20406535
93	0x3debd7cb	0.115157686
94	0xbd885f84	-0.06658843
95	0xbc37e006	-0.011222845
96	0xbeea9eec	-0.45824373
97	0x3daa93e9	0.08328993
98	0x3e5fc625	0.2185293
99	0xbe04bb0b	-0.12961976
100	0x3dc56973	0.096392535
101	0x3e0699f2	0.13144663
102	0xbde5a6fc	-0.1121349
103	0xbe5f93db	-0.21833746
104	0xbf015644	-0.50522256
105	0xbe0c95d6	-0.13729033
106	0xbd99ed74	-0.07515994
107	0xbe4d29e3	-0.2003551
108	0x3f4e5fff	0.8061523
109	0xbe0e337e	-0.1388683
110	0xbcd07b88	-0.02544953
111	0xbe5ffda8	-0.21874106
112	0x3e61688b	0.22012536
113	0xbea436c8	-0.32073045
114	0x3f14e246	0.58157766
115	0x3e50cd66	0.20390853
116	0x3f22b17f	0.6355209
117	0x3df1ee04	0.11812976
118	0xbcc3fe9c	-0.023925118
119	0x3d69af6e	0.05705207
120	0x3e81653f	0.25272557
121	0xbdcb9b8e	-0.09941779
122	0x3ee666dc	0.4500035
123	0x3dee4a72	0.11635293
124	0xbc383e17	-0.011245272
125	0xbc577358	-0.013150059
126	0xbf0d4039	-0.5517612
127	0x3eb606c6	0.35552043
128	0xbe86a52e	-0.26297897
129	0xbf282e74	-0.6569588
130	0x3da45cce	0.080255136
131	0xbe1155ff	-0.14192961
132	0x3ef06504	0.4695207
133	0x3ce27e32	0.027648065
134	0x3e7f25b2	0.24916723
135	0xbe999487	-0.2999613
136	0x3ec38c68	0.3819306
137	0x3f3aeebe	0.7302054
138	0xbd7e01d4	-0.062013462
139	0xbe04ca43	-0.12967782
140	0x3d583b53	0.05279095
141	0x3dc7d853	0.097580574
142	0x3c2ad733	0.010427284
143	0x3d0fd9c8	0.0351198
144	0x3d532e69	0.051557932
145	0x3ec4cc40	0.3843708
146	0xbe54551f	-0.20735596
147	0xbf0bf843	-0.5467569
148	0xbece024b	-0.40236124
149	0x3ef34362	0.47512347
150	0x3e837953	0.256785
151	0x3cece48b	0.028917572
152	0xbe242f57	-0.16033684
153	0x3e82be2c	0.25535715
154	0xbd8a6442	-0.06757404
155	0xbefe0fd9	-0.49621466
156	0xbec163b6	-0.37771386
157	0xbe212b3f	-0.15739153
158	0x3d885b29	0.066580124
159	0xbe002bc0	-0.1251669
160	0xbef826e0	-0.4846716
161	0xbea94f7c	-0.33068454
162	0x3f1f253c	0.6216619
163	0xbf121f5f	-0.5707912
164	0x3ce19079	0.02753471
165	0x3f28b543	0.65901583
166	0xbcad3fb1	-0.021148534
167	0x3e8f3ae6	0.27974623
168	0xbea563ec	-0.32302797
169	0x3e0d194f	0.13779186
170	0xbe831d0a	-0.25608093
171	0xbde4b550	-0.11167395
172	0x3e106435	0.14100726
173	0x3ebe9464	0.37222588
174	0x3da7341e	0.081642374
175	0xbedaa045	-0.427004
176	0x3ca0af01	0.019614698
177	0xbd1d160d	-0.038351107
178	0xbcd68034	-0.026184179
179	0xbe382f7e	-0.17986867
180	0x3db856ac	0.09000906
181	0xbb109ed4	-0.0022067325
182	0xbe0ed254	-0.13947421
183	0x3eed2212	0.46315056
184	0xbe846434	-0.258577
185	0x3e0210a2	0.12701657
186	0xbf17bc07	-0.5927128
187	0xbf553e93	-0.83298606
188	0x3f3a886d	0.7286442
189	0x3ed704b4	0.41995776
190	0xbd8c5f18	-0.06854075
191	0xbf14c751	-0.5811663
192	0xbe98ea36	-0.2986619
193	0x3f13f152	0.577901
194	0xbe54ce33	-0.20781784
195	0xbe4f9368	-0.20271075
196	0x3f25651b	0.646074
197	0x3f77a660	0.96738243
198	0x3ebebdda	0.3725422
199	0x3f767956	0.96278894
200	0xbf1d3c95	-0.61420566
201	0x3f45fbca	0.77337325
202	0xbed5cb4f	-0.41756675
203	0xbe8e9ce7	-0.27854082
204	0xbf72e600	-0.948822
205	0xbe0351f3	-0.1282423
206	0x3d507553	0.05089314
207	0x3f2c333e	0.6726569
208	0xbda72b96	-0.0816261
209	0xbede1ad7	-0.43379852
210	0x3e95ebfc	0.29281604
211	0x3d23b210	0.039964736
212	0x3f14d6d2	0.5814029
213	0x3c9aba93	0.018887794
214	0xbf0938c8	-0.53602266
215	0xbfa7a451	-1.309702
216	0x3f457bbc	0.7714193
217	0xbecdc8fd	-0.40192404
218	0x3ee35245	0.44398704
219	0xbd0c476d	-0.034247804
220	0xbee45726	-0.4459774
221	0x3e40a033	0.18811111
222	0x3e84734a	0.2586921
223	0xbf28cf02	-0.6594087
224	0x3e564252	0.20923737
225	0x3ea7cbfb	0.32772812
226	0xbd8c650b	-0.0685521
227	0xbddb0f19	-0.10696239
228	0x3f57dac3	0.8431818
229	0xbdb6999e	-0.08916019
230	0x3f38ebe0	0.72234917
231	0xbe044308	-0.12916195
232	0xbf090de7	-0.5353684
233	0xbe1ab38a	-0.15107551
234	0x3ec3eb76	0.3826558
235	0x3f3d0eda	0.73850787
236	0xbec07f2a	-0.37597018
237	0xbe23833c	-0.1596803
238	0xbf363be7	-0.71185154
239	0xbcc9044a	-0.024538178
240	0xbe9f3d78	-0.31101584
241	0xbf269761	-0.65074736
242	0x3ec893d9	0.391753
243	0x3f06b1c1	0.5261498
244	0xbe6e6819	-0.23281898
245	0x3e75288f	0.23941253
246	0xbe811b08	-0.25215936
247	0xbe882661	-0.2659178
248	0x3aaa9bbc	0.0013016383
249	0xbed5ee16	-0.41783208
250	0x3ea0c558	0.3140056
251	0xbc9f99fa	-0.019482601
252	0xbec7b54c	-0.39005506
253	0xbe005761	-0.12533332
254	0x3f3fa2bc	0.7485769
255	0xbeff0ecc	-0.49815977

pi.logits_net.0.bias f4 [64]
0	0xbe64179a	-0.22274628
1	0xbda0694c	-0.07832584
2	0x3d9c4df8	0.07632059
3	0xbe3342b7	-0.17505918
4	0xbdcc4770	-0.09974563
5	0x3e486cd7	0.19572769
6	0xbe80c85a	-0.25152856
7	0x3e1be467	0.15223847
8	0x3d89403f	0.06701707
9	0x3d3f7b80	0.04674864
10	0xbdb58ad8	-0.08864373
11	0x3d283ff9	0.041076634
12	0xbd39bbac	-0.045344993
13	0xbe55e0de	-0.20886561
14	0x3df2d338	0.11856693
15	0x3e10f2b8	0.1415509
16	0xbc04f9b5	-0.008116175
17	0xbd53a71e	-0.051673047
18	0xbd07d4e5	-0.033162016
19	0x3dc82a7d	0.09773729
20	0xbe2762d5	-0.16346295
21	0x3db07462	0.08615948
22	0xbc32b2e1	-0.010906906
23	0xbe03ebf5	-0.12882979
24	0xbe352003	-0.17687993
25	0xbd1b1cae	-0.037869148
26	0xbd52a100	-0.051423073
27	0x3cebc912	0.028782401
28	0x3e2be05b	0.16784804
29	0x3dd87865	0.105698384
30	0x3e725123	0.23663764
31	0xbe01a74d	-0.12661476
32	0xbd070c62	-0.032970794
33	0x3debc8c9	0.11512906
34	0xbe94216b	-0.28931746
35	0xbe00efc4	-0.12591463
36	0x3e25e0cb	0.16199033
37	0xbe6bf685	-0.23043258
38	0x3e062a31	0.13102032
39	0x3e2051de	0.1565623
40	0x3c5433ee	0.012951834
41	0x3e1ce990	0.15323472
42	0x3c56ec98	0.013117932
43	0x3cc6f3d7	0.024286194
44	0xbd700ebb	-0.058607798
45	0xbdb16081	-0.08660985
46	0x3ebf06ad	0.3730978
47	0x3f1d4520	0.614336
48	0xbb930f52	-0.0044879103
49	0x3e83897c	0.2569083
50	0x3e112645	0.14174755
51	0x3dabacf6	0.08382599
52	0x3dfa6d69	0.122278996
53	0x3e2b1d78	0.1671046
54	0x3db81f58	0.08990353
55	0xbd9811dc	-0.074252814
56	0xbe9b5db1	-0.30344918
57	0xbe00e012	-0.12585476
58	0xbdc6cc78	-0.09706968
59	0xbe4a61bb	-0.19763844
60	0x3e9df0ad	0.30847684
61	0xbd56ba19	-0.05242357
62	0xbcdd85a7	-0.02704127
63	0xbe108e13	-0.14116697

pi.logits_net.2.weight f4 [64, 64]
0	0x3f06b5cc	0.5262115
1	0x3f385657	0.72006744
2	0xbf2b4036	-0.66894853
3	0x3eadaab0	0.33919287
4	0x3f0a64fc	0.5406034
5	0x3f33c209	0.7021795
6	0x3eb1edc0	0.347517
7	0xbf850453	-1.0391945
8	0xbeb75777	-0.35808918
9	0xbf0742e4	-0.5283644
10	0xbef1ef8c	-0.47253072
11	0x3efaf808	0.49017358
12	0xbe94afa4	-0.29040253
13	0xbf379eec	-0.7172687
14	0xbf19134f	-0.5979509
15	0x3f19f97a	0.60146296
16	0xbece520c	-0.40296972
17	0xbecfc3d6	-0.40579098
18	0x3e89fd90	0.26951265
19	0xbf0109cc	-0.50405574
20	0x3f6ace9c	0.9172151
21	0xbecbe518	-0.39823222
22	0x3ebfcc92	0.37460762
23	0xbefc681c	-0.4929818
24	0x3ef51d09	0.47873715
25	0xbebf9ebb	-0.3742579
26	0x3f270087	0.6523518
27	0xbed0fa0a	-0.40815765
28	0x3dea9b94	0.114554554
29	0x3e361633	0.17781906
30	0x3e3b192b	0.1827132
31	0xbe0de742	-0.13857749
32	0x3ec2b0e4	0.38025582
33	0xbf160f71	-0.5861731
34	0x3f5420ca	0.8286253
35	0x3f032e9d	0.51243
36	0xbf1d4e4d	-0.614476
37	0x3e9da43e	0.3078937
38	0x3d819e60	0.06329036
39	0xbd0ac331	-0.033877555
40	0xbeb6c595	-0.35697618
41	0x3f16b2b2	0.5886642
42	0xbecb9d09	-0.39768246
43	0xbdf602db	-0.120122634
44	0x3eedce79	0.4644659
45	0xbd8bf2b4	-0.06833401
46	0xbec720ec	-0.38892305
47	0x3c852a41	0.0162555
48	0xbe529774	-0.20565587
49	0x3f2d8c5d	0.677923
50	0xbeab687b	-0.3347815
51	0xbefe1a75	-0.4962956
52	0xbe9d0980	-0.3067131
53	0xbe695102	-0.22784808
54	0x3dfa61b8	0.122256696
55	0xbea1f833	-0.31634673
56	0x3c9e0ded	0.01929375
57	0x3ea4b8d4	0.32172263
58	0xbd60ddd6	-0.05489906
59	0xbdfddd4f	-0.12395727
60	0x3e27a6c6	0.16372213
61	0x3f2b2441	0.66852194
62	0xbf3c25e9	-0.73495346
63	0x3ebbb668	0.36662602
64	0xbf1853db	-0.59502953
65	0x3de712a3	0.112828515
66	0x3df6c347	0.12048965
67	0xbe92449f	-0.2856798
68	0xbf886d60	-1.0658379
69	0xbee9693a	-0.45588094
70	0xbe61c142	-0.22046378
71	0x3e64cec9	0.22344507
72	0xbda41568	-0.080118954
73	0x3fa45469	1.283826
74	0xbee95680	-0.45573807
75	0xbe915ff8	-0.2839353
76	0x3dd6231a	0.10455914
77	0x3ea34be1	0.3189383
78	0xbf1f78a9	-0.6229349
79	0xbe76e610	-0.241112
80	0x3f3591f8	0.70925856
81	0x3dd4718e	0.10373221
82	0xbef87405	-0.48526016
83	0x3d4a9350	0.049456894
84	0xbf3c3f0f	-0.7353372
85	0x3f866f11	1.0502645
86	0xbec710e6	-0.3888008
87	0xbe3334da	-0.1750063
88	0x3d7cae07	0.061689403
89	0x3e0177af	0.12643312
90	0xbeee0d6f	-0.46494624
91	0x3e1f45f0	0.15554023
92	0xbda2de94	-0.0795261
93	0xbf133cd4	-0.5751469
94	0x3f5959d3	0.84902686
95	0xbeddda1c	-0.43330467
96	0xbe78bd08	-0.2429086
97	0x3f4a107c	0.78931403
98	0xbed01526	-0.40641135
99	0xbf045b7c	-0.51702094
100	0xbf153a7c	-0.58292365
101	0xbcea45c0	-0.028597713
102	0xbd98f684	-0.07468894
103	0xbe115f5f	-0.14196537
104	0xbf3b740f	-0.73223966
105	0x3e6d89b9	0.23197068
106	0xbe6526fd	-0.22378154
107	0xbe07f569	-0.1327721
108	0xbf264ad1	-0.6495791
109	0xbeaba4ad	-0.33524075
110	0x3e3c30d9	0.18378009
111	0x3dd0e232	0.10199393
112	0x3ef252af	0.47328708
113	0xbea606a1	-0.32426932
114	0xbca9afd7	-0.02071373
115	0x3e997b23	0.29976758
116	0x3f472d23	0.7780325
117	0x3f1a4d09	0.60273796
118	0x3dc8ec37	0.098106794
119	0x3ea84bd7	0.3287036
120	0x3d878b63	0.06618383
121	0xbdce4208	-0.10071188
122	0x3f4a10c3	0.78931826
123	0x3df22d04	0.11824992
124	0xbcca1d22	-0.024672095
125	0x3dc7d0e0	0.097566366
126	0xbe878163	-0.26465902
127	0x3efc4a8b	0.49275622
128	0x3e467731	0.19381405
129	0xbe183715	-0.14864762
130	0x3eb8b594	0.36076033
131	0x3de175a8	0.11008769
132	0x3e8eb341	0.27871135
133	0x3c8e4882	0.017368559
134	0xbea6c427	-0.32571527
135	0xbeb6bfeb	-0.35693297
136	0x3cba33d9	0.022729801
137	0x3c656329	0.014000692
138	0xbf380c6c	-0.71893954
139	0x3f3a661a	0.72812045
140	0xbe539b8c	-0.20664805
141	0x3deb52b4	0.11490384
142	0x3f088129	0.5332208
143	0x3e114ac1	0.14188673
144	0x3e874080	0.26416397
145	0x3e1e8227	0.15479337
146	0xbf418a3a	-0.7560154
147	0xbe99e9fa	-0.30061322
148	0x3f2eb2a3	0.6824133
149	0x3d06186f	0.032738145
150	0xbf0a95e8	-0.5413499
151	0x3e4d45c5	0.20046146
152	0xbc07aa47	-0.008280343
153	0x3e29292d	0.16519614
154	0x3e34eba9	0.17668022
155	0x3f3d9b62	0.7406522
156	0xbf362253	-0.71146125
157	0x3e3001a4	0.17188126
158	0xbf30ed43	-0.6911203
159	0xbf051ac2	-0.51993954
160	0xbf0f4f2d	-0.5598019
161	0x3e6f0721	0.23342563
162	0xbee4556e	-0.44596428
163	0xbf88cdc7	-1.0687798
164	0xbea7d478	-0.32779288
165	0xbeb79b4c	-0.3586067
166	0xbe904354	-0.28176367
167	0x3f80dc69	1.0067264
168	0x3e9d55f4	0.3072964
169	0xbe978a30	-0.29597616
170	0xbeed8141	-0.46387675
171	0xbf391f18	-0.7231307
172	0xbe325cf9	-0.17418279
173	0x3da90aad	0.08253989
174	0x3f058d48	0.52168703
175	0x3f8fa57e	1.1222379
176	0xbed19b08	-0.40938592
177	0xbd96ce18	-0.07363528
178	0xbd97a0f4	-0.07403746
179	0xbdd87e46	-0.1057096
180	0x3ebb208c	0.3654827
181	0x3f755b02	0.9584199
182	0xbe204323	-0.1565061
183	0xbec48c0d	-0.383881
184	0xbf130dda	-0.5744301
185	0x3f129efb	0.57273835
186	0x3e54588c	0.20736903
187	0x3dd91ab2	0.10600795
188	0x3f368a55	0.7130483
189	0x3e93c063	0.28857717
190	0xbe6c368e	-0.23067686
191	0xbe80610b	-0.25074038
192	0x3f72aa82	0.94791424
193	0xbe3d2819	-0.18472327
194	0xbe6292f1	-0.22126366
195	0x3e50d2c2	0.20392898
196	0xbef30e41	-0.47471812
197	0xbd2a5f4d	-0.041594792
198	0x3dc2779d	0.09495471
199	0x3de7e898	0.113236606
200	0xbde6be45	-0.1126676
201	0xbf1d008c	-0.6132896
202	0x3f41cff9	0.75707966
203	0x3e9115bc	0.28336895
204	0xbe1d6aa2	-0.15372708
205	0xbf300167	-0.6875214
206	0xbe880f23	-0.26574048
207	0xbf07147e	-0.52765644
208	0xbe9b97a7	-0.3038914
209	0x3f720bba	0.94549143
210	0x3e9081a8	0.2822392
211	0xbf301a83	-0.68790454
212	0x3b228318	0.0024797376
213	0x3d80fa5d	0.06297753
214	0xbeb4d5e9	-0.3531945
215	0xbe8621ed	-0.26197758
216	0x3e95a542	0.29227644
217	0x3e750cfb	0.23930733
218	0x3f02714a	0.50954115
219	0xbd514675	-0.051092584
220	0x3f390d0c	0.7228553
221	0x3e1610a0	0.1465478
222	0xbe8ef87a	-0.27923948
223	0xbd9135dc	-0.07090351
224	0x3e205681	0.15657999
225	0xbe58b1fd	-0.21161647
226	0x3f339091	0.70142466
227	0xbf2d0ca4	-0.67597413
228	0xbcb32415	-0.021867791
229	0xbd8c717b	-0.06857582
230	0xbe0f3679	-0.13985623
231	0xbe660678	-0.22463405
232	0x3ee6ebf2	0.45101887
233	0xbddcfeef	-0.10790812
234	0x3f2c4dc8	0.67306185
235	0x3dac507c	0.08413789
236	0x3fbfe4ed	1.4991738
237	0x3ee2fea4	0.443349
238	0x3e140b85	0.1445752
239	0x3efd272a	0.49443942
240	0xbf1cc391	-0.6123591
241	0xbc39ba30	-0.011335894
242	0xbebf1e3e	-0.3732776
243	0x3e045dd0	0.12926412
244	0xbf2ced3d	-0.67549497
245	0xbcbdcb1f	-0.023168145
246	0x3d654302	0.055972107
247	0xbe1bfaad	-0.15232344
248	0xbf17edc8	-0.593472
249	0x3dce7563	0.100809835
250	0xbf4769fa	-0.7789608
251	0xbeaf0b6c	-0.34188402
252	0x3d5ac9b2	0.053415008
253	0x3eaa2e53	0.33238468
254	0x3ec4f7aa	0.38470203
255	0x3e8f2ff9	0.27966288

pi.logits_net.2.bias f4 [64]
0	0xbe4caf9b	-0.19988863
1	0x3e8e7d53	0.2782999
2	0x3d183087	0.037155654
3	0xbea44fc2	-0.320921
4	0xbe3260cb	-0.17419736
5	0x3ec820ce	0.39087528
6	0xbe6ea00f	-0.23303245
7	0x3e2dc548	0.16969788
8	0x3ec63a46	0.38716334
9	0x3e581269	0.21100773
10	0xbe404d4a	-0.18779483
11	0xbec21af9	-0.37911204
12	0x3d279f06	0.04092314
13	0xbe1fb9b9	-0.15598191
14	0xbe9d6bb0	-0.30746222
15	0x3e972009	0.29516628
16	0x3c058637	0.008149675
17	0xbe636a87	-0.22208606
18	0x3dc86a12	0.09785856
19	0xbdab350b	-0.083597265
20	0xbe66d47d	-0.22541995
21	0xbf001954	-0.5003865
22	0x3da9476e	0.08265577
23	0x3ecc1615	0.39860597
24	0x3dcdbb95	0.10045544
25	0xbec67b06	-0.38765734
26	0x3b6f102a	0.003647814
27	0xbe1238be	-0.14279458
28	0x3e8ee391	0.27907994
29	0x3d37144b	0.044697087
30	0xbec277c5	-0.37982002
31	0x3eb9b6a3	0.36272153
32	0xbf1504b9	-0.5821033
33	0x3ef8cd82	0.4859429
34	0xbeb20f5d	-0.34777346
35	0xbe9dc95e	-0.30817693
36	0xbc9b34f1	-0.018946143
37	0xbd5722bb	-0.052523356
38	0x3e11bf78	0.14233196
39	0xbd8dcb24	-0.069235116
40	0x3dc2fbad	0.095206596
41	0x3d2ec238	0.04266569
42	0xbe56a528	-0.2096144
43	0xbc44642e	-0.011986775
44	0xbdf2a41d	-0.118477084
45	0x3eda9209	0.4268954
46	0x3e9ea9d2	0.30988938
47	0xbe1b475b	-0.15163939
48	0x3e823b96	0.25436085
49	0x3eaf52ed	0.34242955
50	0x3ee0620d	0.43824807
51	0x3d10c854	0.035347298
52	0xbcf0f011	-0.029411348
53	0x3d00f437	0.0314829
54	0x3eec3a8d	0.4613842
55	0x3e2d7f36	0.16943058
56	0x3f227eea	0.63474905
57	0xbf128851	-0.5723925
58	0x3d5eb623	0.054372918
59	0x3e6dff82	0.23242
60	0xbe204a12	-0.15653256
61	0xbedc212e	-0.42994064
62	0xbd9b05dc	-0.07569477
63	0xbe5cfb8e	-0.21580335

pi.logits_net.4.weight f4 [87, 64]
0	0xbf3edd2c	-0.7455623
1	0x3eba9534	0.36441958
2	0xbdad890c	-0.08473405
3	0xbf19e817	-0.60119766
4	0xbea484d7	-0.321326
5	0x3f3c3759	0.73521954
6	0xbefc3952	-0.49262482
7	0xbf3ae432	-0.7300445
8	0x3e20f03e	0.15716645
9	0xbd2135ef	-0.039358076
10	0x3d20f6a9	0.039297733
11	0xbf311db3	-0.6918594
12	0x3db87e17	0.09008425
13	0xbf5ae554	-0.85506177
14	0xbeaba4a4	-0.33524048
15	0x3eb35bcf	0.35030982
16	0x3f0e6793	0.5562679
17	0xbea406b3	-0.3203636
18	0xbf29d4df	-0.6634044
19	0xbf63078f	-0.8868341
20	0xbf119bb2	-0.568782
21	0xbe49c87d	-0.19705386
22	0xbe15926e	-0.1460664
23	0x3e91207c	0.28345096
24	0xbf09d32a	-0.53837836
25	0xbf23989b	-0.6390473
26	0x3e77d16f	0.24200986
27	0xbe46f7f1	-0.1943052
28	0xbe84d149	-0.25940922
29	0xbf2427a4	-0.64122987
30	0xbf072ae4	-0.5279982
31	0x3f02ddee	0.5111989
32	0xbd5e965d	-0.054342616
33	0xbec81da9	-0.3908513
34	0xbf037ebf	-0.51365274
35	0xbf43ecc3	-0.76533145
36	0x3e37e95b	0.17960112
37	0x3de97ce3	0.114007734
38	0x3f0af370	0.54277706
39	0xbf8d19be	-1.1023481
40	0x3f7d6a32	0.98990166
41	0xbf00a43e	-0.50250614
42	0x3f50f36d	0.8162144
43	0x3fbd20b5	1.4775606
44	0xbf36cd44	-0.7140696
45	0xbeb34ab4	-0.3501793
46	0x3c08656f	0.008324965
47	0x3f231942	0.63710415
48	0xbeb290e5	-0.3487617
49	0x3c082445	0.008309429
50	0x3da18e67	0.07888489
51	0x3eec7c2d	0.4618849
52	0xbf4c509b	-0.79810494
53	0xbf19a096	-0.6001066
54	0xbe2491c1	-0.16071226
55	0x3f52760a	0.82211363
56	0x3ec6d8e8	0.3883736
57	0xbe475a6a	-0.19468084
58	0x3faf5373	1.3697342
59	0xbeb05154	-0.34437048
60	0xbe09beb2	-0.1345165
61	0xbe192907	-0.14957057
62	0x3f3a9f92	0.72899735
63	0x3e199798	0.14999235
64	0xbf06102c	-0.52368426
65	0x3f8cc4bc	1.0997539
66	0x3f10f998	0.5663085
67	0x3df04b06	0.117330596
68	0x3f10e4f3	0.5659935
69	0x3f030f74	0.51195455
70	0x3d10def1	0.035368863
71	0x3e107528	0.14107192
72	0x3e4dda29	0.20102753
73	0x3e8ec61e	0.27885526
74	0x3f9810da	1.1880143
75	0x3d19724d	0.03746252
76	0x3f50a844	0.8150675
77	0xbf218773	-0.63097304
78	0xbf546716	-0.82969797
79	0x3d7ef789	0.062247787
80	0x3f3c0d2c	0.734576
81	0xbf06247e	-0.5239943
82	0x3f3b40d3	0.7314579
83	0xbcda103d	-0.026619071
84	0xbd405f06	-0.04696562
85	0x3d9bd19b	0.076083384
86	0x3e858024	0.26074326
87	0xbf54be34	-0.83102727
88	0xbf2631fa	-0.6492001
89	0x3dce93e2	0.100868
90	0x3e9dfa8b	0.30855212
91	0xbf2bdcf7	-0.6713404
92	0x3ebf7ccb	0.37399897
93	0xbf808390	-1.004015
94	0xbf261d98	-0.64888906
95	0x3ea083f5	0.31350675
96	0xbf0bd20a	-0.5461737
97	0x3ed9b1ea	0.4251855
98	0x3ef1587b	0.47137818
99	0xbeb81907	-0.35956594
100	0x3f80907a	1.0044091
101	0xbf453213	-0.7702953
102	0x3ebbaf11	0.36657003
103	0xbfd12d2b	-1.6341909
104	0x3c79becc	0.015243243
105	0xbf71bdc5	-0.9443019
106	0xbda795a5	-0.08182839
107	0xbfb5afcf	-1.4194278
108	0xbf79cc24	-0.9757712
109	0x3ec21446	0.37906092
110	0x3e11653a	0.14198771
111	0xbecabd5d	-0.39597598
112	0x3da0669c	0.07832071
113	0x3dafbbed	0.08580766
114	0x3f3f8677	0.7481455
115	0xbf0ae8ce	-0.5426148
116	0xbef5c496	-0.48001546
117	0xbf3636a5	-0.7117713
118	0x3ed6a92f	0.41925952
119	0xbd118c51	-0.035534207
120	0x3bd8aade	0.006612166
121	0xbeb50054	-0.35351813
122	0xbf33e904	-0.7027743
123	0xbe1832ff	-0.14863203
124	0xbf72249b	-0.94587106
125	0xbf02326b	-0.5085818
126	0xbc578d9f	-0.013156324
127	0x3e86a1bb	0.26295266
128	0xbe57fee1	-0.21093322
129	0x3f8dda02	1.1082156
130	0xbf6ff9ff	-0.9374084
131	0xbf14d2b1	-0.5813399
132	0xbf34d94e	-0.7064408
133	0x3e0dfa21	0.13864948
134	0x3cc691b9	0.024239408
135	0x3e0d2550	0.13783765
136	0x3f0e2860	0.5553036
137	0x3f1348d6	0.57533014
138	0xbe45d907	-0.1932107
139	0xbe355352	-0.17707565
140	0xbf2c12c4	-0.67216134
141	0x3e924232	0.28566128
142	0xbeb30c12	-0.34970146
143	0x3e4c86f4	0.19973356
144	0x3f811112	1.0083334
145	0xbf45d174	-0.77272725
146	0x3f9525f2	1.1652205
147	0x3f7675a4	0.96273255
148	0xbedee4ab	-0.43533835
149	0x3dd9796c	0.106188625
150	0xbd26ef11	-0.040755335
151	0x3f48d388	0.7844777
152	0xbd5604d5	-0.052250702
153	0xbcdf15a2	-0.027231995
154	0xbdb16b4d	-0.08663044
155	0xbefbf5a8	-0.49210858
156	0x40001bf8	2.001707
157	0xbf75cbe1	-0.9601422
158	0xbf78f68d	-0.97251207
159	0xbdaf385a	-0.0855567
160	0xbf0db135	-0.5534852
161	0x3ef79e2d	0.48362866
162	0xbefb8fc1	-0.49133113
163	0xbe3b2ef9	-0.18279637
164	0x3f48f94b	0.7850539
165	0x3ef71595	0.48258653
166	0x3ef762d3	0.48317584
167	0xbf5f6a9a	-0.87272036
168	0x3ebfdd46	0.37473506
169	0xbe9f830a	-0.31154662
170	0xbf9cbc2a	-1.2244923
171	0xbe8ddd33	-0.27707824
172	0xbea90b56	-0.3301646
173	0x3f0257c0	0.50915146
174	0x3f72615b	0.946798
175	0xbf0a463c	-0.5401342
176	0x3f8f6ba6	1.1204727
177	0x3f03dff6	0.5151361
178	0x3d22b26c	0.039720938
179	0xbe5bea98	-0.21476209
180	0xbdadfd96	-0.08495633
181	0x3f62dc81	0.8861771
182	0x3ee94662	0.4556151
183	0x3f20b120	0.6277027
184	0x3ea281dd	0.31739703
185	0xbf4c7115	-0.7986005
186	0xbe3eaee5	-0.18621404
187	0x3ee16e43	0.44029436
188	0xbe9090d3	-0.28235492
189	0xbf0a8666	-0.54111326
190	0xbf071254	-0.5276234
191	0xbd1e6d13	-0.03867824
192	0xbf8d9ca6	-1.106343
193	0x3f11daf3	0.56974715
194	0xbeafa235	-0.34303442
195	0xbf7eafe4	-0.9948714
196	0x3eadaba6	0.3392002
197	0xbeff51c1	-0.4986706
198	0xbef209d3	-0.4727312
199	0xbf0a2c37	-0.53973716
200	0x3f095805	0.5364993
201	0x3efe8344	0.49709523
202	0x3e9e71a4	0.30946076
203	0xbde6d05f	-0.112702124
204	0xbda4c0ef	-0.08044612
205	0xbf20f17b	-0.6286847
206	0xbe8df53f	-0.2772617
207	0x3f189d8e	0.5961541
208	0xbffc3197	-1.9702634
209	0xbf01ec0d	-0.5075081
210	0xbf3b15c9	-0.73080117
211	0x3ea88a78	0.32918143
212	0xbf2f83cc	-0.6856048
213	0xbed8178c	-0.42205465
214	0x3e0af31b	0.135693
215	0xbd798298	-0.06091556
216	0xbef80a4c	-0.48445356
217	0xbf310872	-0.6915351
218	0x3e274299	0.16333999
219	0x3e7aea06	0.24503335
220	0x3f194efc	0.59886146
221	0x3f53d72d	0.8275021
222	0xbec8bec1	-0.39208034
223	0x3ef87fa3	0.4853488
224	0xbf4ad156	-0.7922567
225	0x3f5305d9	0.824308
226	0xbe84fa42	-0.25972182
227	0xbf1d5aa5	-0.6146644
228	0x3e3632ff	0.17792891
229	0xbf49729b	-0.786905
230	0x3ed91b65	0.42403713
231	0xbd8e632b	-0.069525085
232	0xbe706b8d	-0.23478527
233	0xbe2aea03	-0.16690831
234	0xbf2e7874	-0.68152547
235	0xbe98528b	-0.29750475
236	0xbf4ed2f8	-0.8079066
237	0x3dd67b05	0.10472683
238	0x3f1a03be	0.6016196
239	0xbf454947	-0.7706494
240	0x3f2aa240	0.66653824
241	0x3f3f22a0	0.7466221
242	0x3f088eae	0.5334271
243	0x3f30cc33	0.69061583
244	0xbeca2c3e	-0.3948688
245	0xbd4841d1	-0.048890892
246	0x3f21bdac	0.6318004
247	0x3ed4b9c1	0.4154797
248	0x3f06fd10	0.5272989
249	0xbe37e2fd	-0.17957683
250	0xbe1bcbfe	-0.15214536
251	0x3ec43971	0.38325074
252	0x3f24e525	0.64412147
253	0xbf2bcfa6	-0.6711372
254	0x3e9b3594	0.30314314
255	0xbe365686	-0.17806444

pi.logits_net.4.bias f4 [87]
0	0x3ee652ab	0.44984946
1	0x3e8c6e75	0.27428022
2	0x3ed875b8	0.42277312
3	0x3f082895	0.53186923
4	0x3ed2c00a	0.4116214
5	0x3ee75c93	0.45187816
6	0x3f03df2e	0.5151242
7	0x3f09b456	0.53790796
8	0x3e53d688	0.20687306
9	0x3ebff591	0.3749204
10	0x3ee67060	0.4500761
11	0x3eadd60e	0.33952373
12	0x3e9e99f3	0.3097683
13	0x3eda6818	0.42657542
14	0x3ebd9224	0.3702556
15	0x3f033f1d	0.5126818
16	0x3ebcc985	0.36872497
17	0x3e77abc6	0.2418662
18	0x3e9a5378	0.30141807
19	0x3ee8d4c5	0.4547483
20	0x3f1d6751	0.61485773
21	0x3e70a2e2	0.23499635
22	0x3eac1ca6	0.33615607
23	0x3e4d8970	0.2007196
24	0x3ec5b30d	0.38613167
25	0x3ef9b9e7	0.48774645
26	0x3ed7d242	0.421526
27	0x3dfd3379	0.12363333
28	0x3e45fdbc	0.19335073
29	0x3f041a43	0.5160257
30	0x3e9f83d5	0.31155267
31	0x3e897c2d	0.2685255
32	0x3e64d3ff	0.22346495
33	0x3eba3ae5	0.36373058
34	0x3e8cbefc	0.2748946
35	0x3f09d631	0.53842455
36	0x3efddc36	0.4958207
37	0x3efb6c9c	0.491063
38	0x3e604658	0.21901834
39	0x3ea5c178	0.32374167
40	0x3ed3e703	0.41387185
41	0x3e735f2b	0.23766772
42	0x3f4bd1a9	0.7961679
43	0x3ed832f0	0.42226362
44	0x3efcf7ea	0.49407893
45	0x3eec62b3	0.46169052
46	0x3f15a3a5	0.58452827
47	0x3eebedf6	0.46079987
48	0x3ecc136e	0.39858574
49	0x3f0fc3ea	0.56158316
50	0x3eb1c3bb	0.34719643
51	0x3e9ed04e	0.310183
52	0x3e6aa303	0.22913747
53	0x3ea7a8a2	0.32745844
54	0x3d6b0585	0.05737831
55	0x3eb030e2	0.34412295
56	0x3e22b513	0.15889387
57	0x3ec70e7b	0.38878235
58	0x3f1a1294	0.601846
59	0x3e5e04e5	0.21681555
60	0x3d939836	0.07206766
61	0x3f013f56	0.5048727
62	0x3f020378	0.5078654
63	0x3eacf5b2	0.337812
64	0x3e9d48fa	0.3071974
65	0x3ef3052c	0.47464883
66	0x3e8a3d69	0.26999977
67	0x3e646e55	0.22307713
68	0x3ee9d2ee	0.4566874
69	0x3ec36b81	0.38167956
70	0x3ea93829	0.3305066
71	0x3f19ce5e	0.60080516
72	0x3f0560b4	0.5210068
73	0x3f00a3c9	0.50249916
74	0x3d1477f4	0.03624721
75	0x3ea4ba5a	0.32173425
76	0x3d14736e	0.036242895
77	0x3ea01d1f	0.31272218
78	0x3efec526	0.49759787
79	0x3f05d872	0.52283394
80	0x3ee6b7ae	0.4506201
81	0x3ee93af8	0.45552802
82	0x3f2da779	0.6783367
83	0x3ec17d53	0.37790927
84	0x3f188d5c	0.595907
85	0x3f15f3db	0.5857522
86	0x3ea1e7aa	0.31622058

v.v_net.0.weight f4 [64, 282]
0	0xbdaf7f20	-0.08569169
1	0x3e9f23c9	0.3108199
2	0xbd2a9c86	-0.04165318
3	0x3d71cbd0	0.05903226
4	0xbef3f826	-0.4765026
5	0xbf031f63	-0.5121977
6	0x3e475002	0.19464114
7	0x3e62829e	0.22120139
8	0xbdfacba5	-0.12245873
9	0xbfa0576e	-1.2526681
10	0x3eaa30e3	0.33240423
11	0x3eb7bb23	0.3588496
12	0xbd36179c	-0.04445611
13	0xbd8657ff	-0.06559753
14	0xbeec1435	-0.46109167
15	0x3cc98ea2	0.024604145
16	0xbddce394	-0.107855946
17	0x3ee5f42d	0.44912854
18	0xbefbc28c	-0.49171865
19	0xbe0fca4a	-0.14042011
20	0xbda89b48	-0.082327425
21	0x3e4163c8	0.1888572
22	0x3f33e4c8	0.7027097
23	0xbee5c86f	-0.4487948
24	0xbda6b898	-0.08140677
25	0xbd491c88	-0.049099475
26	0xbdf0260a	-0.117260054
27	0xbd9ca2da	-0.07648249
28	0x3e152696	0.145655
29	0xbd9279a2	-0.07152106
30	0xbf03d491	-0.51496226
31	0xbda27a59	-0.07933492
32	0x3eb811d9	0.35951117
33	0xbee5f421	-0.44912818
34	0xbdcaebf4	-0.09908286
35	0x3e5a948a	0.21345726
36	0x3e44220c	0.19153613
37	0xbdd76d5b	-0.10518905
38	0xbf0de12a	-0.554217
39	0xbdfb5c51	-0.12273467
40	0xbd65755e	-0.056020133
41	0x3eaa094b	0.33210215
42	0xbc7b2b19	-0.0153300995
43	0xbc989154	-0.018623985
44	0x3f2e7938	0.68153715
45	0xbbffb3d7	-0.007803421
46	0xbeecaaa2	-0.46223933
47	0xbf0ec284	-0.5576556
48	0x3ec44739	0.3833559
49	0x3e608ebe	0.21929452
50	0xbd04ba86	-0.032404445
51	0xbe061d25	-0.13097055
52	0x3ea8a967	0.32941744
53	0xbcf4d41c	-0.029886298
54	0x3e9d8d73	0.3077198
55	0xbeff9d6c	-0.4992479
56	0x3ea7d2db	0.32778057
57	0xbdda95c0	-0.10673094
58	0xbd86ace3	-0.06575944
59	0xbe027840	-0.12741184
60	0xbdb3cc02	-0.08779146
61	0xbdf12049	-0.11773736
62	0x3e34b276	0.17646202
63	0x3eca6aeb	0.39534697
64	0x3e9da8d7	0.30792877
65	0xbc431feb	-0.011909465
66	0xbdb73fce	-0.08947717
67	0x3eb763df	0.35818383
68	0x3f1c7095	0.61109287
69	0xbde05640	-0.10953951
70	0x3ea9a211	0.3313146
71	0x3e516e62	0.20452264
72	0xbdabb15b	-0.08383437
73	0x3f1fb94b	0.6239211
74	0x3ed71cd5	0.42014185
75	0x3e3acac8	0.18241417
76	0x3ec76417	0.3894355
77	0x3e30046e	0.1718919
78	0x3b5bcea7	0.0033539922
79	0xbcb14660	-0.021640003
80	0x3ed981bb	0.4248179
81	0xbf0be6ce	-0.54649055
82	0x3e3454b4	0.17610437
83	0xbe07e0d4	-0.13269359
84	0xbdfe1393	-0.12406077
85	0xbda3579c	-0.079756945
86	0x3edfd1d1	0.43714765
87	0xbcee8be3	-0.029119438
88	0xbd205795	-0.039146025
89	0xbcde0a3f	-0.027104495
90	0x3ab3fee5	0.0013732581
91	0xbc3467b4	-0.011011053
92	0xbdd94fd0	-0.10610926
93	0xbd06dd6b	-0.032926004
94	0x3c376b8d	0.011195076
95	0xbcac1fd4	-0.02101127
96	0xbc414af1	-0.011797653
97	0x3bb3565b	0.005472941
98	0xbd442b7b	-0.04789303
99	0x3d3d5be8	0.046230227
100	0x3ae761df	0.0017653069
101	0xbced563d	-0.028971786
102	0xbd0252cb	-0.03181724
103	0xbd234ca2	-0.039868005
104	0x3c7bcf55	0.015369256
105	0xbdb7d27b	-0.08975693
106	0x3c95b1bc	0.018273227
107	0xbd44260f	-0.047887858
108	0xbd2e71a1	-0.042588834
109	0x3d332161	0.043733004
110	0xbd7872f8	-0.060656518
111	0xbcc9805f	-0.024597345
112	0x3cca05b6	0.024660926
113	0xbc686b57	-0.014185748
114	0x3bc79ea7	0.006091911
115	0x3c4b908f	0.012424602
116	0xbd4e05ee	-0.050298624
117	0xbd44a59b	-0.048009496
118	0xbd656c39	-0.056011412
119	0x3d85f59d	0.06540988
120	0xbce0bf8f	-0.027435092
121	0x3d044526	0.032292508
122	0x3cc26d0d	0.02373364
123	0x3c1480ab	0.00906388
124	0x3c0c1852	0.00855072
125	0xbdd4ab4d	-0.103842355
126	0x3c4b6f18	0.0124166235
127	0xbbd065db	-0.0063597984
128	0xbe0fa0f3	-0.14026241
129	0xbd083cba	-0.03326104
130	0x3d64a12b	0.055817764
131	0x3b7aa723	0.0038246594
132	0xbcef084f	-0.029178767
133	0xbb84127c	-0.004030524
134	0x3c4927f9	0.012277597
135	0xbe1ab7da	-0.15109196
136	0xbd892f1d	-0.06698439
137	0xbd36ff36	-0.044676982
138	0xbde6122c	-0.11233935
139	0xbdd0d275	-0.101963915
140	0xb925e146	-0.00015819547
141	0xbe23f3be	-0.16010949
142	0x3d89d433	0.06729927
143	0xbc684417	-0.01417639
144	0xbd3765a2	-0.04477466
145	0xba832e6f	-0.0010008345
146	0x3d925f2a	0.07147057
147	0xbdb98638	-0.09058803
148	0x3c6fcdc7	0.0146364635
149	0xbc5a68db	-0.013330664
150	0x3a8599a6	0.0010192886
151	0xbc7bf449	-0.015378066
152	0x3d6d665a	0.05795894
153	0xbd36e331	-0.04465026
154	0x3b3abaaa	0.0028492608
155	0x3d6c9e5e	0.05776822
156	0xbd51b8cc	-0.051201627
157	0xbd8e8f6c	-0.06960949
158	0xbcfc6a69	-0.030812459
159	0x3ce11edc	0.027480535
160	0x3ca337aa	0.019924004
161	0xbcaa9b7d	-0.020826096
162	0xbd758386	-0.059939884
163	0xbe860557	-0.2617595
164	0x3d0ac9b5	0.03388377
165	0x3d163bd9	0.03667817
166	0xbc949a9b	-0.018140128
167	0xbd3263f4	-0.043552354
168	0xbc4b8faa	-0.012424389
169	0x3d28c57d	0.041203965
170	0xbd3a8af9	-0.04554269
171	0xbcd23dd0	-0.02566424
172	0x3cca5cbf	0.024702428
173	0xbcdc5e3a	-0.0269004
174	0x3f7167fe	0.94299304
175	0x3fbb368a	1.4626019
176	0x3fbd61d1	1.4795476
177	0x400bfcf1	2.1873133
178	0x3f842624	1.032414
179	0x3fc8d907	1.5691231
180	0x3f77b456	0.96759546
181	0xc109451a	-8.5793705
182	0xbefb8021	-0.49121192
183	0x3e442aff	0.19157027
184	0xc05349c6	-3.3013778
185	0xc069b021	-3.651375
186	0xbff61b9f	-1.9227179
187	0x3f24211c	0.6411302
188	0x3fdc6d60	1.7220879
189	0x3f6bda21	0.92129713
190	0xbe71a66c	-0.23598641
191	0x3f782990	0.9693842
192	0x3e0c2797	0.13686977
193	0x3d84fec5	0.06493906
194	0x3e43c863	0.1911941
195	0x3e1faf87	0.15594302
196	0x3dfd09c5	0.12355379
197	0xbcd4817d	-0.025940651
198	0x3e1de499	0.15419234
199	0x3d19acb5	0.037518222
200	0x3d34b6cf	0.044119652
201	0x3dc66f52	0.096892014
202	0x3db629c1	0.08894683
203	0xbc9ac478	-0.018892512
204	0x3dd1c064	0.10241774
205	0x3d76a96a	0.06022016
206	0x3e1029b0	0.14078403
207	0x3d983d35	0.07433549
208	0x3dea093a	0.11427541
209	0x3cfd6b3d	0.030934924
210	0x3d40747b	0.046986084
211	0x3e09d132	0.13458708
212	0xbd3e2f73	-0.04643197
213	0x3d2de647	0.042455938
214	0x3da10362	0.07861973
215	0x3f30b46f	0.6902532
216	0x3c3716f9	0.011174911
217	0x3da78265	0.08179168
218	0x3dd92d4d	0.106043436
219	0xbd19d8cf	-0.03756028
220	0x3cf09e4c	0.029372357
221	0x3e16e97f	0.14737509
222	0xbbb4d0c9	-0.005518053
223	0xbd7a9249	-0.061174665
224	0x3dae4d89	0.085108824
225	0x3d8dceee	0.06924234
226	0xbd172374	-0.036899045
227	0x3d52f51a	0.05150328
228	0x3e0429a7	0.12906514
229	0xbc6fdb02	-0.014639618
230	0xbf9c018d	-1.2187973
231	0xbd126f3f	-0.035750624
232	0xbdc8ce2a	-0.09804948
233	0x3f254253	0.6455433
234	0xbba5eb3c	-0.0050634425
235	0x3c2bba6d	0.010481459
236	0x3e8cdd62	0.27512652
237	0x3e454d8e	0.19267866
238	0x3f02e6a2	0.5113317
239	0x3d564e27	0.052320626
240	0x3e1a264c	0.15053672
241	0x3d586c7a	0.052837826
242	0x3db99511	0.09061635
243	0xbaf6b9cf	-0.0018823686
244	0x3e17b342	0.14814475
245	0xbe4d8816	-0.20071444
246	0xbec7fa02	-0.39057928
247	0x3d6c5cbb	0.057705622
248	0x3e3608fd	0.17776866
249	0x3d5a5a38	0.053308696
250	0xbc1ee2fb	-0.009697671
251	0x3e6f3c30	0.23362803
252	0x3f13b80a	0.57702696
253	0x3e9e0457	0.30862686
254	0x3dd8c2a1	0.105839975
255	0x3dcc7f83	0.099852584

v.v_net.0.bias f4 [64]
0	0xc04de688	-3.2171955
1	0xc059940b	-3.3996608
2	0xc0c853e8	-6.2602425
3	0x3f132fa7	0.57494587
4	0xbf90707b	-1.1284326
5	0x408b648f	4.356025
6	0x3f95e035	1.1709048
7	0xc063dacb	-3.560229
8	0xc0de28d6	-6.942485
9	0xbf426a45	-0.75943404
10	0x4096854f	4.703773
11	0x4004405b	2.066428
12	0xc071a19a	-3.7754884
13	0xc0e6b180	-7.2091675
14	0xc01e3e2e	-2.4725451
15	0x40c98860	6.2978973
16	0xc0a57c33	-5.171411
17	0xc0a01a7d	-5.0032334
18	0xbfcac8f9	-1.5842582
19	0xc0180c56	-2.375753
20	0xc119ba94	-9.608051
21	0xbf2728e7	-0.6529679
22	0xbeb3b7b1	-0.35101083
23	0xc07dedaf	-3.967632
24	0x3eadacd0	0.33920908
25	0x401431fe	2.3155513
26	0xc0e42ecd	-7.130713
27	0x403388a6	2.8052154
28	0x403f43ca	2.9885125
29	0xbf34ebf1	-0.7067252
30	0x408473a0	4.1391144
31	0x409b0af3	4.8450866
32	0xc0dcc64d	-6.8992066
33	0xbe08bf5f	-0.13354252
34	0xc07cd5cc	-3.9505491
35	0x4058e83b	3.3891742
36	0xbf9e357f	-1.2360076
37	0x4055b913	3.339421
38	0x3fb0c68f	1.3810595
39	0xbea4e8cc	-0.3220886
40	0xbff6639e	-1.9249151
41	0x40da7743	6.8270583
42	0x400e6a59	2.225241
43	0xc0b20e33	-5.5642333
44	0xc03769d1	-2.8658335
45	0xc09410cc	-4.6270504
46	0x405b78ba	3.4292436
47	0x4073a570	3.8069725
48	0x4092d7dc	4.58885
49	0x40ded329	6.9632764
50	0x3f352924	0.707659
51	0xc01f6857	-2.4907434
52	0xbfd02a25	-1.6262861
53	0xc024a9ba	-2.5728593
54	0xc0b54fef	-5.6660075
55	0xc032294e	-2.783771
56	0x40a8bb53	5.2728667
57	0x40582baf	3.3776662
58	0x3fbd602a	1.4794972
59	0x3fffadef	1.9974955
60	0x4091fc38	4.5620384
61	0xc094aa56	-4.645793
62	0x406e78ba	3.7261186
63	0xc0bced51	-5.9039693

v.v_net.2.weight f4 [64, 64]
0	0xc011e50a	-2.2796044
1	0x3f0f5bd3	0.5599949
2	0xbe92b003	-0.2864991
3	0x3f5c24c6	0.8599361
4	0x3fa55a5c	1.29182
5	0x3f2a97e2	0.66638005
6	0xbe2befa1	-0.1679063
7	0x3e0e91d2	0.13922814
8	0x3f4fc69b	0.8116242
9	0x3fb03c30	1.3768368
10	0x3f68106f	0.90650076
11	0x3e7f1c71	0.24913193
12	0xbe3f1e9f	-0.18664025
13	0xbf4fa06a	-0.8110415
14	0xbe41fbc5	-0.18943699
15	0x3df489e8	0.11940366
16	0x3e35fc02	0.17771915
17	0xbf5afbc1	-0.85540396
18	0x3fa9f58a	1.3278058
19	0xbebe271c	-0.37139213
20	0xbf117058	-0.5681205
21	0x3fb0f83a	1.3825753
22	0xbf8c2c8c	-1.0951095
23	0x3f1663d3	0.5874607
24	0xbf03055d	-0.5118006
25	0x3fa63db2	1.2987578
26	0xbf41de17	-0.7572951
27	0xbfee3086	-1.8608558
28	0x4034b3b5	2.8234684
29	0xbe44c15e	-0.19214389
30	0x3f5190f0	0.8186178
31	0xbd85a495	-0.06525532
32	0xbf7d9776	-0.99059236
33	0x3e64245f	0.222795
34	0xbedad4ca	-0.4274047
35	0x3f088087	0.5332112
36	0xbf09eb4e	-0.5387467
37	0xbf8ac73a	-1.0842049
38	0x3f2c9fd6	0.6743139
39	0x3f5992d6	0.8498968
40	0x3f08adf7	0.5339045
41	0xbf881798	-1.06322
42	0x3fbaf39c	1.4605594
43	0x3f98ef04	1.1947942
44	0xbec80772	-0.3906818
45	0xbeaac63d	-0.3335437
46	0xc02441cb	-2.5665157
47	0x3fb36c15	1.4017359
48	0xbf2527e3	-0.6451399
49	0x3e08b50d	0.13350315
50	0xbe2d1a48	-0.16904557
51	0xbe78068e	-0.2422125
52	0x3fa69af3	1.3016037
53	0x3f0b6d5e	0.54463756
54	0xbedb9bac	-0.42892206
55	0xbf6813ce	-0.9065522
56	0xbeb78c63	-0.35849294
57	0x3dcb568b	0.09928616
58	0xbd27f0e5	-0.04100122
59	0x3e85b028	0.2611096
60	0x3ed38450	0.41311884
61	0x3ea5fd63	0.3241988
62	0xbe2fbdb3	-0.17162208
63	0xc006df8f	-2.107395
64	0x4094f0c7	4.654392
65	0x3edf4f38	0.43615127
66	0x3e1a0fc5	0.15045078
67	0x3ef9fed6	0.48827237
68	0xbf074bb9	-0.5284992
69	0x3ecba110	0.39771318
70	0xbe248e7a	-0.16069975
71	0xbe1331a9	-0.14374413
72	0xbf796cc8	-0.9743161
73	0x3ea15bc9	0.3151534
74	0x400d10f4	2.2041597
75	0xbe2de7b7	-0.16982923
76	0x3d9d92fd	0.076940514
77	0x3eab7578	0.3348806
78	0xbcf051df	-0.029335914
79	0xbe9ff59a	-0.31242067
80	0xbc1e4f55	-0.009662469
81	0x3e4846b6	0.19558224
82	0x3e68ada7	0.22722493
83	0xbd5e3777	-0.054252114
84	0xbf018480	-0.50592804
85	0x3d825b2b	0.06365045
86	0x40abd1a3	5.3693404
87	0x3e9faa17	0.31184456
88	0x3e2776d5	0.16353925
89	0xc08e52f6	-4.447627
90	0x3ec179b5	0.37788168
91	0x3f2cdfe6	0.6752914
92	0xc0a3a9ba	-5.1144686
93	0xbf93d3df	-1.1549033
94	0xbf124f4c	-0.5715225
95	0x3ee3ba67	0.4447815
96	0xbd272a05	-0.040811557
97	0xbead370a	-0.33831054
98	0xbe4c2b04	-0.19938284
99	0xbe67abf3	-0.22624187
100	0xbc9805a6	-0.01855738
101	0x3e923d05	0.2856218
102	0xbfaec88f	-1.3654956
103	0xbe0ccae8	-0.13749278
104	0xbedc64c2	-0.43045622
105	0xbdd9a36f	-0.106268756
106	0x3f66527e	0.89969623
107	0x3ebd9a92	0.3703199
108	0x3fbf27a3	1.4933971
109	0x3d5f8b22	0.054576047
110	0x3ea481c3	0.3213025
111	0x404e093a	3.2193131
112	0xbf219355	-0.63115436
113	0x3e3ab9fe	0.18235013
114	0x3e2046e0	0.15652037
115	0xbe9f2218	-0.310807
116	0x3f899584	1.0748754
117	0xbdd7efde	-0.10543798
118	0xbd9bf588	-0.07615191
119	0x3ecf5780	0.40496445
120	0xbd96e568	-0.073679745
121	0x3ed6c42f	0.4194655
122	0xbc4c0286	-0.0124517735
123	0x3f21ee8f	0.63254637
124	0x3f590009	0.8476568
125	0xbde5a872	-0.11213769
126	0xbeb1f438	-0.34756637
127	0x3f0c875f	0.5489406
128	0x408d32d1	4.412453
129	0x3f2cbc28	0.67474604
130	0x3f23320d	0.63748246
131	0xbf1f742c	-0.6228664
132	0xbe994590	-0.29935884
133	0x3d63e903	0.05564214
134	0x3f775746	0.96617544
135	0xbf2fad4e	-0.68623817
136	0x400bd4f6	2.184873
137	0xbf24d13b	-0.6438176
138	0xbef38118	-0.47559428
139	0xc0007a5b	-2.007468
140	0xc01232e7	-2.2843568
141	0x4052c473	3.2932403
142	0xbd9fc3fc	-0.07801053
143	0xbcd056c9	-0.025432007
144	0xbf02bcd7	-0.51069397
145	0x3eeca198	0.46217036
146	0xbeaf5c9a	-0.34250337
147	0x3fba6ddc	1.4564776
148	0xbf9acf5e	-1.2094533
149	0xbec6c2c1	-0.3882046
150	0xc0109607	-2.259157
151	0x3f2309e9	0.63686997
152	0xbbde5144	-0.00678459
153	0xc044b9e9	-3.073847
154	0xbf1d2258	-0.6138053
155	0x405cf399	3.452368
156	0xc02a3d47	-2.65999
157	0xbf2ab12a	-0.6667658
158	0xc0775f27	-3.8651826
159	0xbeaa5559	-0.3326824
160	0x3fc5cd3e	1.545326
161	0xbe837321	-0.25673774
162	0x3eb1379f	0.34612748
163	0xbfca9205	-1.5825812
164	0xbd3dba28	-0.04632011
165	0x3f1ebeb0	0.62009716
166	0xbfe2378c	-1.7673202
167	0xbf5e1a1d	-0.86758596
168	0xbf99d9ff	-1.2019652
169	0xc0015cb0	-2.0212822
170	0xbf717b85	-0.943291
171	0x3f85d4e2	1.0455592
172	0x3f90d1ed	1.1314064
173	0x3f8b5966	1.0886657
174	0x3f1ec926	0.6202568
175	0xc03d5440	-2.9582672
176	0x3eb0e998	0.34553218
177	0xbf6bd1ff	-0.92117304
178	0x3f8d1fbb	1.1025308
179	0x3f49b65b	0.7879388
180	0x3f6660dc	0.89991546
181	0xbe25e3e8	-0.1620022
182	0xbe852da6	-0.2601139
183	0xbf8a2a9c	-1.0794253
184	0xbfaa49f5	-1.330382
185	0xc0113dc8	-2.2693958
186	0xbecc5e1f	-0.3991556
187	0x3ef761dd	0.4831685
188	0x4000a517	2.0100763
189	0xc063c36f	-3.5588033
190	0xbfd89a34	-1.6922059
191	0x3fe457be	1.7839277
192	0x3ec32b0f	0.3811879
193	0x3e4c0c6b	0.19926612
194	0x3fe76f6e	1.8080881
195	0xbf100e9e	-0.56272304
196	0x3f170b9b	0.59002084
197	0x3e1b4610	0.15163445
198	0x3dd26e7e	0.10274981
199	0xbdbe3d6d	-0.0928906
200	0x402a4f98	2.661108
201	0xbf60782d	-0.87683374
202	0x3fe5d01e	1.7954137
203	0xbdeb22ad	-0.11481223
204	0xbffa7993	-1.9568352
205	0xc0161a82	-2.345368
206	0x3d7bccb1	0.061474506
207	0xc00a02a8	-2.1564121
208	0x402588aa	2.5864663
209	0xc004bd16	-2.074041
210	0xbf078800	-0.52941895
211	0x4020be76	2.5116248
212	0x408f090e	4.4698553
213	0xc00fb802	-2.245606
214	0x40c0b144	6.021639
215	0x3e94ce93	0.29063854
216	0x3f757063	0.95874614
217	0xc03934bb	-2.8938434
218	0x3ddcfb33	0.107901
219	0xbfbd6859	-1.4797469
220	0xc08b34e3	-4.350206
221	0xbfaae3d5	-1.3350779
222	0xc0c87407	-6.2641635
223	0x3f2b0af9	0.6681362
224	0x3e252984	0.16129118
225	0x3fccd114	1.6001306
226	0x3e041cfd	0.12901683
227	0x3e9c60e7	0.3054268
228	0x3d61e575	0.055150468
229	0xc02bf98d	-2.6871064
230	0xbf20f5be	-0.6287497
231	0xbffd79fe	-1.9802854
232	0xbee69b13	-0.45040187
233	0xc00a9836	-2.1655402
234	0xbf14fcf7	-0.58198494
235	0x3edd338f	0.432034
236	0x4018493b	2.3794696
237	0xbefc1718	-0.4923637
238	0x4010fa79	2.2652876
239	0x3f46a3db	0.77593774
240	0xbea4ad7c	-0.32163608
241	0xbf52cc5e	-0.8234309
242	0xbf65f6b0	-0.8982954
243	0xbf841eb9	-1.0321876
244	0x3f5af4ca	0.8552977
245	0x3fb90d1a	1.4457123
246	0x3fdc8ab0	1.7229824
247	0x3fb6dd2d	1.4286247
248	0xbe847a0e	-0.2587437
249	0xbf61ed8b	-0.88253087
250	0xbecf2bd5	-0.4046313
251	0x3f93ad67	1.1537293
252	0x3fa1f58e	1.2653062
253	0xbfa2d1e4	-1.2720304
254	0x3ecdc62e	0.40190262
255	0xc020b725	-2.5111783

v.v_net.2.bias f4 [64]
0	0xc00e3e68	-2.222559
1	0x3faafefc	1.3359065
2	0x3fbdc429	1.4825488
3	0x4020c12a	2.5117898
4	0x4053fe64	3.3124018
5	0x3ec9e493	0.394322
6	0xc0166cab	-2.3503826
7	0xbe43133f	-0.1905031
8	0xbecf0898	-0.40436244
9	0x3f4ad7e8	0.79235697
10	0x3fcd695f	1.6047782
11	0x3f053f72	0.52049935
12	0xbfae26ca	-1.3605587
13	0xbe8bd682	-0.27312094
14	0x3f8ba848	1.091073
15	0x3ff16cf9	1.8861381
16	0x3f9ec455	1.2403666
17	0xbf9d31fc	-1.2280879
18	0xbf23b56b	-0.63948697
19	0xc0073344	-2.112504
20	0x3dd00002	0.101562515
21	0x3fa46576	1.2843463
22	0x3fefd42f	1.8736628
23	0xbf3d14d9	-0.73859936
24	0x3f3ec6ec	0.7452228
25	0xc01ca972	-2.4478421
26	0x3eb0fa27	0.3456585
27	0xbf9e75a7	-1.2379655
28	0x3febf8db	1.843532
29	0x3f083033	0.53198546
30	0x3e2b2853	0.16714601
31	0x3f80f41c	1.0074496
32	0x3f5a2370	0.85210323
33	0xbf9bd447	-1.2174157
34	0xbf7f07e0	-0.9962139
35	0xc048138f	-3.1261938
36	0x3fd97b9c	1.6990848
37	0x3f532cde	0.82490337
38	0xbfa08343	-1.2540058
39	0x3f56cc52	0.8390552
40	0x3fe320f7	1.7744435
41	0x3fc02f5b	1.5014452
42	0x3e0c0bd6	0.1367639
43	0x3f6ce85b	0.92542046
44	0xbf0ec865	-0.5577453
45	0x40266040	2.5996246
46	0xbf39e105	-0.7260898
47	0x3ff1124a	1.8833706
48	0x3ff5a231	1.9190122
49	0xc0222efb	-2.5341175
50	0x3f4a93b8	0.7913165
51	0xbfabd202	-1.3423464
52	0x3f5e99c7	0.86953396
53	0x3ff97e39	1.9491645
54	0xbde81498	-0.11332053
55	0x400b41cd	2.1758912
56	0x3f9b1613	1.2116112
57	0xbe0cdbd4	-0.13755733
58	0x3f338b82	0.7013475
59	0xbf67d3cc	-0.9055755
60	0xbf179f0b	-0.59227055
61	0x3f91dbc9	1.1395198
62	0xbfdc1c5f	-1.7196158
63	0x3fc2c48f	1.5216235

v.v_net.4.weight f4 [1, 64]
0	0x4201ba9b	32.43223
1	0xc2245a03	-41.087902
2	0xc189ebdb	-17.240164
3	0xc189e675	-17.237528
4	0x4044a0b4	3.0723085
5	0xc1912645	-18.143686
6	0x410fd742	8.990053
7	0xc101daa7	-8.115882
8	0x4088d472	4.2759333
9	0xbfe3372e	-1.7751215
10	0x414f9cd0	12.975784
11	0xc032153c	-2.782546
12	0x415196fc	13.099361
13	0xc06bbfc8	-3.6835804
14	0xc1750c21	-15.315461
15	0x40d09fcb	6.519506
16	0xc0ecc7ea	-7.3994036
17	0x40196fc9	2.3974478
18	0xc170151b	-15.005153
19	0xc10b1c47	-8.694404
20	0x3f2431d1	0.64138514
21	0xc1817f1e	-16.187069
22	0xc185f5a6	-16.744946
23	0x409e0db4	4.9391727
24	0x412185f6	10.095205
25	0xc074a88a	-3.8227868
26	0x40c52314	6.160532
27	0x40207b1e	2.5075145
28	0xc2187a4e	-38.11944
29	0xc08482ed	-4.140982
30	0xc1641a34	-14.256397
31	0x40f42ffc	7.6308575
32	0x3e4dac2d	0.20085211
33	0xc159bd57	-13.608726
34	0x41101950	9.00618
35	0xbfe29ab0	-1.7703457
36	0xc1817b2e	-16.185146
37	0x408206cd	4.06333
38	0x41a3bfaf	20.468596
39	0x4123d303	10.239017
40	0xc18c6739	-17.550402
41	0xc1c0ba60	-24.091003
42	0xc13e3e0d	-11.890149
43	0x41204e53	10.019122
44	0x3e75bc0b	0.23997514
45	0xc224abf8	-41.16794
46	0x40771b1a	3.8610291
47	0xc17ddce9	-15.866433
48	0xc1e69535	-28.822855
49	0xc096eb37	-4.7162127
50	0x40bb6482	5.856019
51	0x4006eafe	2.1080928
52	0xc1ab6b58	-21.427414
53	0x400c5a9d	2.1930306
54	0x400baf70	2.1825829
55	0xc212e42f	-36.722836
56	0xc16ef4c8	-14.934761
57	0xc1bc25f6	-23.518536
58	0xc12d463a	-10.829645
59	0x4093b990	4.6164017
60	0xc184cc41	-16.599733
61	0x406c2914	3.6900072
62	0x41c45c31	24.545015
63	0xc1a3cc32	-20.474705
