model_wts/s3_d2_m1.0_b0.0.ckpt (torch, 206875 bytes, 11 tensors)

pi.logits_net.0.weight f4 [64, 282]
00000000: bcca 43be 0144 873d 07db 0dbe a42a fcbd
00000010: 73ee c839 8838 82bc 4864 7bbe b8d3 7ebe
00000020: 4572 d0bd 7c61 1e3e cbdd a73d f342 183e
00000030: d009 32be 2c82 ffbd 1304 88bc 86af 92bd
00000040: 57e5 2ebe f7a5 413e a3d9 383d 0e81 59bd
00000050: 417e eabd a5aa 9fbe 6ba4 613e 6b0f b1bc
00000060: 0b15 953d 7fd2 19be 53bc fabd f1dd afbd
00000070: 3d5e a5be f74f 36be bb55 033c 1a0a 9dbd
00000080: 0182 8f3d e193 8abc 16f1 18be ba46 9dbe
00000090: be48 96be 0930 30be e191 c5bc 4a21 e5bd
000000a0: 525f d3bd cb53 a23d fb4d f5bd 8f68 1bbe
000000b0: 3216 4a3e 616d 02be 165a 17bd b34e 2dbc
000000c0: d1c5 a23d c22a 64be 3fa0 88bd 9af4 1fbe
000000d0: 3382 a23d 4369 77bd 4de9 1a3e 4579 983c
000000e0: 41b9 bb3d 3c69 45bd 533a b3bd d87f febd
000000f0: 5a46 63bd c8c8 debd 4bd2 a4be e183 7b3d
00000100: 4122 8c3d 053e 26be 34d4 0f3e aed4 383d
00000110: 7d72 653e 8520 d8bd 76da 003e ce4d 6abe
00000120: 0866 0fbe fedb 453e 33c0 fe3d 08bc 83be
00000130: c53f f63d ec8e 69be 77fa 59bd 406b 95bd
00000140: d66b 153d ddc3 42bd cfca a9be ad47 c1bd
00000150: f2f5 7fbd 7f8c 3cbe ca56 e43d 8132 1e3f
00000160: 0ade 14be 2b94 b7bd 80f2 c3bd 105a 573e
00000170: 2d62 d6bc 72f3 093e 26c1 a53e 26e6 0cbe
00000180: ff37 823e 14ed a63d ac21 8cbe 390d 2f3e
00000190: 664f 323e beac ad3e e421 03be 878a d6bd
000001a0: fb13 143e 6906 e0bc 62c3 0b3f 5de2 b33e
000001b0: c5ed b03e 2c14 823d 25fc 4a3e 5268 f9bd
000001c0: 6085 0abe b871 0e3f 446c 4dbd b99b 91be
000001d0: 9df2 d2be b5c7 50be b1d3 74bd 867d 463e
000001e0: d504 c73d 3d6e 71be 33e8 bb3d d95a 05be
000001f0: f0dd d2bd 1a61 323e 5e69 773e e7be b8bd
00000200: bd7f 183e e6d2 11bd 3824 1abe ef2e 0e3f
00000210: 6fa7 6f3e 3fee 273f f111 a23e a2f9 d83e
00000220: 59e7 c03e 0d74 2bbb 949e a13d 94d7 0e3f
00000230: 7ade 02be 06d2 a43d 31be eb3e cf73 893e
00000240: 284b 6f3e 4203 97bd 8afc 2a3e b4a4 13bc
00000250: ccbb 49bd 88bb fa3c 2baa 593e f708 0e3f
00000260: 87b6 653d 18f6 453e b981 433e 7280 b3be
00000270: 68e5 24be e1c2 b13e 9c4a e83d f95f 91bd
00000280: 8cda aabd 0405 eb3e 85cf 0abd 478f 5cbd
00000290: 8206 493e d65f 55be a684 bb3c 1567 82be
000002a0: 6070 853e 71e9 fa3e 61a7 183d 1462 f23d
000002b0: 1c33 50bd d706 853e 8129 eabd 2ae4 1abe
000002c0: 8430 9b3e 42a1 573e 6de3 9cbe 4e77 803d
000002d0: 8c97 a43e dbed 07be 61ba 31bf f3ed 51be
000002e0: f209 0f3e 3f47 5f3e 365e afbe 089e 323e
000002f0: 1350 bc3e a70a ebbe bca9 c2be 2428 d13e
00000300: 0898 94be 0b5b 14be 0e16 7c3e 3ba3 8f3e
00000310: 2a8e 0ebf a6dd febe 6d36 bebe a6ad 1bbe
00000320: 04a2 d73e 0a14 663d ed9c 4ebe 03e3 103f
00000330: ec16 323e 1a3b a4be 8f2d 1d3f d846 843e
00000340: bdde 3e3f 90bf 23bd fa01 1dbf c117 06be
00000350: 9292 95be 9d80 1ebf 69aa cebe 7bb4 7abf
00000360: 770b 9a3e 2852 d8bd 51ed 65bf 217e 05be
00000370: 2530 35be 7fde 05bf 5628 c53c 56c3 1c3f
00000380: f550 50bf f66a e83e 73e7 c83e 7aaf 68bf
00000390: e7b6 273e 11c1 0e3e 7b6b b0be 862c 0b3e
000003a0: 93d2 5ebe 934f 5f3f cf3e 3a3e bc6b 0fbe
000003b0: 36c6 d1be 1bfb dfbd 5130 05bd 8aa0 313f
000003c0: 7a18 f3be 479f 9b3e 3a69 e33e bf02 353f
000003d0: e92a 76bf 8cb6 49bf 10b2 45be a128 853e
000003e0: 011c 17bf 59c7 6e3f 621a 013e 717c f83c
000003f0: 7abf e5be 1904 06bf 86fb eebe eeb6 3d3e
-0.19120306 0.066047676 -0.13853084 -0.123128206 0.0003832463 -0.015896097 -0.24549973 -0.24885452
-0.10178045 0.15466875 0.081966005 0.14869289 -0.17386556 -0.12476 -0.016603505 -0.07162385
-0.17079674 0.18910967 0.04512943 -0.05310159 -0.11449862 -0.3118488 0.22035377 -0.021613797
0.07279404 -0.15021704 -0.12242951 -0.08587254 -0.3229846 -0.17803942 0.008016045 -0.07667942
0.07007218 -0.016916217 -0.14935717 -0.30718023 -0.29352373 -0.17205824 -0.024117412 -0.1118799
-0.10320915 0.079261385 -0.11977764 -0.15176605 0.1973503 -0.12737037 -0.036951147 -0.010577845
0.07947887 -0.22281936 -0.066711895 -0.15620652 0.0793499 -0.06040312 0.1512806 0.018612513
0.09166194 -0.048196062 -0.08751359 -0.12426728 -0.055487014 -0.1087814 -0.3219169 0.061405066
0.06842471 -0.16234596 0.14045793 0.045124702 0.22406955 -0.105530776 0.12583336 -0.22881243
-0.14003766 0.19322202 0.12439003 -0.25729394 0.12023882 -0.22808427 -0.053217378 -0.07295847
0.036479793 -0.04755007 -0.33162543 -0.09437499 -0.06249041 -0.1841297 0.11149366 0.6179581
-0.14537826 -0.08963808 -0.095677376 0.2103045 -0.02616986 0.13471773 0.32373923 -0.1375967
0.25433347 0.08150688 -0.2736944 0.17094888 0.174131 0.33920854 -0.12805897 -0.10475641
0.14460747 -0.027346807 0.54595006 0.3513364 0.34556404 0.06351504 0.19822748 -0.12178101
-0.13527441 0.5564227 -0.05015208 -0.2843912 -0.41200724 -0.20388682 -0.059772197 0.19383821
0.097177185 -0.23577209 0.09175148 -0.13022937 -0.102962375 0.17419854 0.24161288 -0.09020787
0.14892478 -0.03560152 -0.15052879 0.55540365 0.23403715 0.6559791 0.31654313 0.42377955
0.37676504 -0.00261617 0.078915745 0.55797696 -0.1278018 0.08047871 0.46043542 0.26846167
0.23368514 -0.07373668 0.16697899 -0.009011436 -0.049251363 0.030607 0.2125632 0.5548243
0.056082275 0.19332159 0.19092454 -0.35058933 -0.16103137 0.34718993 0.113423556 -0.070983835
-0.08342466 0.45902264 -0.033889312 -0.053847577 0.19631389 -0.2083734 0.0228904 -0.2546927
0.26062298 0.49006227 0.037269 0.11835113 -0.05082999 0.2598178 -0.114336975 -0.151261
0.30310452 0.21057609 -0.30642262 0.062727556 0.3214687 -0.13274328 -0.69425017 -0.20500927
0.13968638 0.21804522 -0.34251565 0.17443097 0.36779842 -0.45906565 -0.38020122 0.40850937
-0.2902224 -0.14487855 0.24617788 0.28054222 -0.55685675 -0.4977848 -0.371509 -0.1520296
0.42115796 0.056171454 -0.2017705 0.5659639 0.17391557 -0.3207634 0.6139764 0.258353
0.7455862 -0.03997761 -0.6133114 -0.13094999 -0.29213387 -0.61915 -0.40364388 -0.9793164
0.30086872 -0.10562545 -0.8981524 -0.13036396 -0.17694147 -0.5229263 0.024067085 0.6123556
-0.8137353 0.45394105 0.39239082 -0.90892756 0.16378365 0.13940836 -0.34457 0.13591203
-0.21760015 0.87230796 0.18188022 -0.14005941 -0.40971535 -0.109365664 -0.03251678 0.6938559
-0.47479612 0.30394956 0.4441622 0.70707315 -0.96159226 -0.7879417 -0.19306207 0.2600756
-0.59027106 0.9327293 0.1260772 0.030332776 -0.44872648 -0.5235 -0.46676272 0.18526813

pi.logits_net.0.bias f4 [64]
00000000: 50d6 0bbd d1c8 5d3d 76de 0d3e 5226 4dbd
00000010: 16c2 093e af42 9ebe d2f8 423e 926e 993c
00000020: d873 3a3d d22c d3bd cd2c edbd c91f 59bd
00000030: ed15 0bbe ac5a ccbd e371 483e 0a86 9e3d
00000040: ff75 da3d 2f57 90bc fc44 66bd 7d87 fabd
00000050: 541f 623d 4609 083e bc6a 5bbe a628 1a3e
00000060: 5df6 2dbe 3459 843d 67d1 fe3d 5875 d7bd
00000070: 7327 3b3c d970 5c3c 35b1 203e d10e 783d
00000080: 4d7c 16be e9cb f5bd 69dd 07be d967 48bd
00000090: 5474 203e 4ad3 48be 903e 83bd 7c77 633d
000000a0: 43fa 92be cd5b 9d3d 3013 32be 605d ecbd
000000b0: 8894 1b3e 0275 1b3e f1df 923d e795 723e
000000c0: c1ce ecbc 545a 2abe 92fd ff3b b31e 5dbe
000000d0: 3558 ec3d f54b 6bbd bb72 4a3c 0261 7b3d
000000e0: 7052 1b3e d374 7d3d 99f4 b3bd f6eb abbd
000000f0: 204e c13e c655 5dbc 0bae 3abe 670c 15be
-0.03413993 0.05414659 0.13854393 -0.050085373 0.13452944 -0.3091025 0.1904023 0.018729482
0.045520633 -0.10311283 -0.11580811 -0.05300883 -0.13582583 -0.09978232 0.19574694 0.0774041
0.10667037 -0.017619697 -0.056218132 -0.122328736 0.055205658 0.13284788 -0.21427435 0.15054569
-0.16988511 0.06462327 0.12442284 -0.105204284 0.01142298 0.013454639 0.15692599 0.060561005
-0.14695854 -0.120017834 -0.13268055 -0.04892716 0.15669376 -0.1961185 -0.06408417 0.05553387
-0.2870656 0.07683525 -0.17390132 -0.11541247 0.15193379 0.15181354 0.0717162 0.23689996
-0.028907182 -0.1663602 0.0078122104 -0.21593742 0.11540262 -0.057445485 0.012356455 0.06137181
0.15168166 0.06187899 -0.08786888 -0.08394615 0.37754917 -0.0135092195 -0.18230455 -0.14555512

pi.logits_net.2.weight f4 [64, 64]
00000000: 55aa c53e fbc1 9f3e 3ada d2be 309c bf3d
00000010: 8755 56be 7f8a d1be 2378 253f 377f 3bbf
00000020: 518e efbe e13e 303e 6797 52be 96cb 8f3d
00000030: 07f8 ce3d fb2b f9be c3fb 39bf c30c ebbd
00000040: 24b7 d4be ecbf 5dbb e798 143e 6648 3ebd
00000050: 37c9 bcbe 4ff4 743e 1f65 86bd 8483 a7be
00000060: cc4a 2a3f 358e 83bf e9fb 57be 644d fcbe
00000070: c3ab f63e cf2c 19bf 5a23 bdbe 664a 4dbe
00000080: 9c41 2cbe e1fb 8cbe ea5f b53e 2c9b 0d3e
00000090: eb63 1abf 161c 9f3e 1b0a bbbe 44c6 893e
000000a0: c900 dbbe 0760 153e e343 f53e 2020 92bc
000000b0: c912 f5bd 28f1 8abd d24e 19bf 0df7 d9bd
000000c0: bf78 853f 3a41 7f3e 562e 1abf 1d4d 26be
000000d0: 98a1 88bf 9309 dfbe 71f8 923d 1960 2ebf
000000e0: aeed 393f 5622 bcbd 249f bfbe 38de 45bd
000000f0: 3b15 e1be b0ed 363f 347c d5be bf39 893c
00000100: a328 0b3d 455f debe eafd c13d 45bf e1be
00000110: cf06 c0be 4e07 cebe 0ed1 35bf b967 0cbd
00000120: 5c8d f1be e82a e83e f192 7c3e e311 6bbe
00000130: 7a4f 993e 88a0 bcbe 04be 953c 6f68 46be
00000140: 8cf2 3fbe 7cdb e93e e599 24be 795b 293f
00000150: 6703 51be 667d 9abe fa1a acbd d765 1f3e
00000160: b169 5cbe 6c36 a43d 5c1c 47bd 5c21 8f3f
00000170: e8ef 34be ab0b 88bf 3fb5 883e c388 b83e
00000180: fa1c 5cbe 39cb a5be e2d6 69be ecb9 ebbd
00000190: 7bd4 1b3f c268 9fbe baab ddbe 501d 74be
000001a0: 2b24 ebbe 6699 22bd afa7 abbe 83d7 c7be
000001b0: 5db7 51bf 4881 e73d edf4 713f 905c b8be
000001c0: 2a17 8c3e 9d11 9cbe 6f33 34be 96cf b5be
000001d0: 9772 9f3e e633 2d3d 5706 cb3e 6103 f33d
000001e0: ee22 78bd 8058 243e adff 08be 9d44 08be
000001f0: 9efe 8abe 0450 df3d b79f ec3e f826 36be
00000200: cdb9 063f 7d9c 65bf 09be 24be f257 c1be
00000210: 52cd 923f ce2a d9be e023 cf3e 6e90 ae3d
00000220: 4b2e 3bbb 0f09 12be 265a 2ebf 2d67 3d3e
00000230: b47e 82be f09a 063f 8ec6 ce3e 543b ad3e
00000240: 9280 f33d 0aa2 703f ce92 f8bd 71aa 6ebf
00000250: 3d19 d2bd 33e6 683e 3905 9ebf 412d 25be
00000260: 4bea 5a3e f3d5 563e d8da 8abe 7d5a aebd
00000270: 64b5 89be de39 86be 2979 e53e 719c 0fbf
00000280: f966 843e a2d1 843e 337f f5be a2d7 e2be
00000290: b777 363e c7d3 01bf 6f56 98be cfc5 803e
000002a0: 4593 d33d 0fa9 563e 1362 e63c 8cec 0ebe
000002b0: 2436 883e 83ad 043f 8196 8c3e 1350 ce3e
000002c0: ca51 77be 9bf0 49be e573 913c 9f33 933e
000002d0: 3aba bebd 142d 5cbd c780 d8be 2c58 6d3e
000002e0: 297b a73e 838b 433f a461 4bbe d176 f4be
000002f0: 5973 bb3d 6636 4dbe ab8f 55bf 2151 82be
00000300: c4e6 b33e 44b4 9a3e 3c8d 053e d45d 23bc
00000310: eaf7 e4bd ac11 f9bd e5f7 c6be b5b2 4b3d
00000320: 23ed 25be 5994 28bc 1ce1 2dbf 9054 583d
00000330: cdd8 6a3e 68c4 61bf f3d5 0d3e d814 bdbe
00000340: bcf8 7dbe cecf 7abd 9240 873e 01f3 3abf
00000350: 5305 60bf 39eb a63e 0862 32bf 83bd bebe
00000360: 9284 6bbf 7ef2 01bf bf3d ddbe 8f6c 69be
00000370: 08ff d8be d90a bdbe df3c 6abd 05b7 15bf
00000380: 6abe 2ebc e7f9 fa3d ec13 5f3e cdd2 40bf
00000390: 6568 69bd 8261 f83e c2f6 8ebd e8f0 17bf
000003a0: 377c 903e 2039 113d c09f 4cbf 9ca9 7dbe
000003b0: cc8b 23bd 67fe b3be da21 b73e 07b0 2a3f
000003c0: ca02 203e 1961 113f fa30 a6be 2dde 033f
000003d0: 7b97 5cbe b7af 96bd 7efd 53bf 4ec2 8bbe
000003e0: a8b5 123e 2fb7 de3e 3ef7 bcbe e420 9c3e
000003f0: 356f 95be 4ec1 eb3e cc93 33bf 9ac1 613e
0.38606516 0.31202683 -0.4118212 0.09355962 -0.20931064 -0.40925977 0.6463644 -0.7324099
-0.46788266 0.17211486 -0.20565568 0.07021253 0.10105901 -0.48666367 -0.7264978 -0.114770435
-0.41545975 -0.0033836318 0.14511453 -0.046455763 -0.36872265 0.23921321 -0.06562256 -0.32717526
0.6652038 -1.0277773 -0.2109219 -0.49277794 0.4817792 -0.59834 -0.36941034 -0.20047912
-0.16821903 -0.27535918 0.3542474 0.13828725 -0.6030871 0.31076115 -0.36531147 0.26909077
-0.42774037 0.14587413 0.47903356 -0.017837584 -0.119664736 -0.06784278 -0.59885895 -0.10642824
1.0427474 0.24927226 -0.60226953 -0.16240354 -1.0674314 -0.43561992 0.07176293 -0.68115383
0.72628295 -0.091862366 -0.37426102 -0.048307627 -0.4396151 0.7145643 -0.41696322 0.016751168
0.0339743 -0.4343206 0.094722584 -0.4409124 -0.37505195 -0.40239948 -0.7102212 -0.034278605
-0.4717816 0.45345235 0.24665429 -0.22956042 0.29943448 -0.36841226 0.018279083 -0.19375776
-0.18744868 0.45675266 -0.16074331 0.661552 -0.20411454 -0.30173796 -0.08403583 0.15566193
-0.21524693 0.08018193 -0.04861103 1.1182055 -0.17669642 -1.0628561 0.2670078 0.3604184
-0.21495429 -0.3238161 -0.22835878 -0.11510071 0.60871094 -0.3113461 -0.4329508 -0.23839307
-0.4592603 -0.039697073 -0.3352637 -0.3903161 -0.81920415 0.11303955 0.9451435 -0.3600812
0.27361423 -0.30482188 -0.17597745 -0.35509938 0.31142113 0.042285822 0.39653274 0.11865879
-0.060580187 0.16049385 -0.13378783 -0.13307424 -0.27147382 0.10903934 0.46215603 -0.17788303
0.5262726 -0.8969191 -0.16088118 -0.3776241 1.1468909 -0.4241547 0.40457058 0.085236415
-0.0028561528 -0.14261268 -0.68106306 0.1849639 -0.25487292 0.52580166 0.4038586 0.33834326
0.11889757 0.9399725 -0.12137376 -0.9322882 -0.1025872 0.22744064 -1.2345344 -0.16130544
0.21378438 0.20980053 -0.2712009 -0.08513353 -0.26896203 -0.26216024 0.44819 -0.56098086
0.25859812 0.25941187 -0.47948608 -0.4430514 0.17819105 -0.5071377 -0.29753444 0.25150916
0.10330824 0.20962928 0.028122937 -0.13957423 0.26603806 0.5182726 0.27458575 0.40295467
-0.24152294 -0.1972069 0.017755458 0.2875032 -0.09312864 -0.053753927 -0.4228575 0.23178166
0.3271115 0.76384753 -0.19861466 -0.477469 0.0915286 -0.20040283 -0.83422345 -0.2545252
0.35136998 0.30215657 0.13042158 -0.009971101 -0.11180098 -0.12161574 -0.38861004 0.049730975
-0.16203742 -0.010289275 -0.67921615 0.05281502 0.22934265 -0.8819032 0.13851146 -0.36929965
-0.24801916 -0.061233334 0.2641645 -0.73027045 -0.87508124 0.32601336 -0.69680834 -0.3725396
-0.9199916 -0.5076064 -0.4321117 -0.22795318 -0.42382073 -0.3692234 -0.057186957 -0.5848239
-0.010665515 0.12254696 0.21784943 -0.75321656 -0.056984324 0.48511893 -0.06980659 -0.5935197
0.28219768 0.03545487 -0.7993126 -0.24771732 -0.039928243 -0.3515503 0.35768014 0.66674846
0.15626064 0.56788784 -0.3245924 0.5151089 -0.2154216 -0.07357734 -0.82808673 -0.2729668
0.14327109 0.43499133 -0.3690738 0.30493844 -0.29186407 0.46045917 -0.70147395 0.2204651

pi.logits_net.2.bias f4 [64]
00000000: cc8f 6bbd 9b32 703e 2528 3b3d 6d49 5abd
00000010: 2f65 72bd c7a0 6d3f 8e6a 67be dfd3 573e
00000020: e115 b0be fe7c bc3e bf20 6abc b2c7 59bd
00000030: c8ee 5c3b f7f2 6abf b69b f8bd 6982 0f3d
00000040: 65e1 0f3f 39b7 aabe 272c 603c 2732 a9bd
00000050: b69d 693d b7da 93be cba0 7d3e c844 743d
00000060: a263 84be 1eb2 0abd dc28 5bbd 241a 3c3d
00000070: d77b b23e 7a8f f5bd 6864 563e c315 163f
00000080: 823d 19bf 868a 0d3f 93a3 39bd cba4 1d3e
00000090: 1ee5 043f 338f 0d3d 8bed 563d e50a 9bbe
000000a0: 58c6 c53e 532f fbbe c432 debe f803 33be
000000b0: 682a 3bbd 2903 f53d cdfc 103e 48b4 56be
000000c0: 537b c63e 2995 7b3e dd4a 6b3d 6404 fc3e
000000d0: ccd6 f13e f1e2 95be 499d ad3d e6bc 4e3f
000000e0: cdeb 64be 1a16 25bf 23dc 8bbd d971 09bc
000000f0: 1e14 03bf 939d 913e 42f0 093e 2b95 c8be
-0.057510182 0.23456804 0.04569258 -0.05329268 -0.059178527 0.9282345 -0.22599241 0.21076916
-0.34391692 0.3681411 -0.014290034 -0.05316896 0.003371166 -0.91776985 -0.121390745 0.03503648
0.562033 -0.33342913 0.013682402 -0.08261519 0.05703517 -0.28877804 0.24768369 0.059635907
-0.25857264 -0.033861272 -0.053505763 0.045923367 0.34860107 -0.119902566 0.2093674 0.58626956
-0.5985948 0.55289495 -0.045322012 0.15394895 0.51912105 0.034560394 0.052472632 -0.3028175
0.38627887 -0.49059543 -0.43398106 -0.17481983 -0.04569474 0.119634934 0.14158936 -0.2096721
0.38765964 0.24568619 0.057444442 0.492221 0.4723419 -0.29274705 0.084772654 0.80756986
-0.22355576 -0.6448685 -0.06829097 -0.00838896 -0.5120257 0.28440532 0.13470557 -0.39176306

pi.logits_net.4.weight f4 [87, 64]
00000000: 775f 17bf fe01 4b3e caa1 4f3f bc6d 233f
00000010: c37a 023e fa64 3f3f 7577 1e3f ec33 6f3e
00000020: a710 00bf 1781 153f 5d24 2e3f d516 27bf
00000030: 25e8 bcbe 713b 67bf 8f1d 1abe 727d 123e
00000040: 9d01 023f 36eb 3bbf 7389 143c 3ff2 85bf
00000050: 8527 42bf 39a5 edbc b0e7 9a3f 3b20 c03e
00000060: 3441 cfbd b164 86bf d6bb cfbe ca82 1fbf
00000070: df33 52be 4213 6e3f 5bd1 ce3f 6bf7 4d3f
00000080: 6708 d2be 92ad 9abb 9a90 983c 367c 49bf
00000090: 094d fe3e 61c4 c0be c953 673f 706b c0be
000000a0: 7b5f 9abf 9f5d 583f 4e0c 91be 11d5 2bbe
000000b0: d46f 71bf d2df 2ebe ff63 4abf 9d66 41bf
000000c0: acde d53e 8219 d8bc 5ad5 d43e 5ad7 3a3e
000000d0: b3b0 583f 5bf4 e43e c6c0 3e3d 7128 133f
000000e0: c80e d93e 20e3 81be 67a3 20bf b1e8 743f
000000f0: 86b9 a4be cbd8 393f c428 3bbe 45e3 853f
00000100: dcac 4cbc 826d ac3e 38e7 a83f 9755 1fbf
00000110: 8e99 db3f 6c57 ad3e 847e 483e 38e1 b53e
00000120: f2f4 16be c7ce b4be de9e 5b3e 0384 7a3f
00000130: 34dc 243f 6ee8 8abe 1411 dbbe 625a e03e
00000140: db52 30be a914 b4be 0ab9 3f3e 9b76 94be
00000150: 4ece 403c 6231 acbe a7eb 943f 1691 4f3f
00000160: a639 88be c6cd 8e3e b32c de3e 9eda 45bf
00000170: 4d2b 73bf 49ff 513f ffb0 de3e 4169 f0bc
00000180: 3783 1fbe e9d9 fa3e d45a 143f 6fc4 d4bc
00000190: 11d4 a63e 230e 4f3f ccff 973e 7ff9 2bbf
000001a0: 2892 dfbd d0d9 32bd 4e70 05bf 7464 0c3f
000001b0: 5fac 863e 4b9a 0a3f 6178 da3e c3fb 8fbf
000001c0: 8bf2 2b3e 3728 2f3e 325b 013e 492d 883e
000001d0: 0a90 cb3e 3dbf c43e a082 053f 388d 813d
000001e0: 2946 853e feeb 403f 700f 073f ef48 58bf
000001f0: 63ae f13e 681d f1be 9aef dbbe b548 95be
00000200: 194e a33f f834 aa3e eca0 2b3e 817e 46bc
00000210: f1be 97be 95cc c33e 4856 ca3d 6a3d 13be
00000220: 7ccb dbbe 964f 3a3e b397 1d3e 9c1f 50bf
00000230: 86c4 babd 262d abbe 9e81 483e 5e59 12be
00000240: 1051 fd3e fe76 b4be 0217 463f e8b9 9fbe
00000250: dac2 bdbe 798a b63e 9e7f 08bf d6e4 d53e
00000260: c63d 1fbf 99f9 20bf 6efb 30bf a87d 0ebe
00000270: 5914 febe e705 acbb f5aa 3d3d 4f2b 6bbe
00000280: 2f4a 35bd ea70 b93e 81aa fc3d 56e0 1dbf
00000290: 1166 d63e b49f 9c3e a2dc 78be ee50 c9be
000002a0: c58a 2a3e ffce 97be 4979 f7bd 94ba e93e
000002b0: 90fa 02be 6ced 72bd 043a 58bd 0ab1 613c
000002c0: 4e7b 6c3c 0d6e 5d3f 0fc1 51bf 128c 1e3f
000002d0: fac5 15bf bb21 c0be ad54 9cbe e080 153f
000002e0: 2df7 efbd 746a dc3e d861 6c3e 5079 083f
000002f0: d6e9 423f 2bce 28bf 3888 ab3e 6034 913e
00000300: e949 03bf 8707 2c3f faa8 803f 20b4 8abf
00000310: be3e c3bd 5017 e83e 6213 a73e 4588 bfbd
00000320: 4b41 383f 2ba2 25bf a110 2d3e e29e 093f
00000330: 354f 823f 851d 03bf ff40 d23e a1d0 bd3d
00000340: bc5e 063f 5622 62bf 3f6c 063e f307 83bf
00000350: 5831 4e3f a2cd c3be 7425 0c3f 3a70 133f
00000360: d9a3 913e b62b bb3d e995 c8be 718d f6be
00000370: a95e 1a3f 6acd 6cbf f269 cdbd c370 b23e
00000380: efa6 d6be 28a8 be3e 5d06 abbe 01e1 95bd
00000390: cc72 483f 6619 dd3d 55b0 753f b9df 6cbe
000003a0: 9ef9 a13d a16b 1abf 0a04 10bf 96e2 203f
000003b0: 4e8a 72bf 6fa3 4b3f 14ac 8e3c 07a5 9abf
000003c0: e3ef 33be 889f 8d3f 16d2 943e db47 643e
000003d0: 6967 003d 7517 353f 2add a23e 9462 093f
000003e0: d0a0 353f 7ed8 14be f7f9 c73e 97a6 a4be
000003f0: b0ab 9ebf 5d69 11bf e4ee 51bf 25ea 4d3f
-0.5913004 0.19824979 0.81106246 0.63839316 0.12742142 0.74763453 0.61901027 0.2335965
-0.5002541 0.584001 0.68024236 -0.65269214 -0.36895862 -0.90325075 -0.15050338 0.14305666
0.5078371 -0.7340578 0.009065974 -1.0464553 -0.7584155 -0.029009448 1.2101955 0.3752459
-0.101198584 -1.0499479 -0.40572995 -0.62308943 -0.205276 0.92998135 1.615764 0.80455655
-0.41022035 -0.004720398 0.018623639 -0.78705156 0.49668148 -0.37649825 0.9036222 -0.37581968
-1.2060388 0.84517854 -0.283297 -0.16780497 -0.9431126 -0.17077568 -0.7905883 -0.755472
0.41771448 -0.02637935 0.41569024 0.18246213 0.8464462 0.44717678 0.04657056 0.57483584
0.4239409 -0.25368595 -0.6274933 0.9566756 -0.32172793 0.72596425 -0.1827727 1.0459982
-0.012492385 0.33677298 1.3195562 -0.62239975 1.7156236 0.3385576 0.19579512 0.3552339
-0.14741877 -0.3531401 0.21447322 0.97857684 0.64398503 -0.27130455 -0.42786467 0.43818957
-0.17219107 -0.35172012 0.1872293 -0.2899674 0.011767937 -0.33631426 1.1634415 0.8108076
-0.26606482 0.27891368 0.43393478 -0.7728671 -0.94987947 0.8203016 0.43494412 -0.029347064
-0.15577398 0.48994377 0.5795109 -0.025972573 0.3258367 0.80880946 0.29687345 -0.67177576
-0.10916549 -0.043664753 -0.5212449 0.5484078 0.26303384 0.5414168 0.42669967 -1.1248707
0.16791742 0.17105184 0.12632445 0.2659705 0.3975833 0.38427153 0.5215244 0.063257635
0.2603009 0.75360096 0.5275793 -0.8448629 0.4720336 -0.47092748 -0.4295624 -0.29157034
1.2758209 0.33243537 0.16760606 -0.012115122 -0.29637864 0.3824202 0.09879738 -0.14378896
-0.42928684 0.18194422 0.153899 -0.8129823 -0.09119515 -0.33432883 0.19580695 -0.14291903
0.49475908 -0.35247034 0.7737886 -0.31196523 -0.37062722 0.3565252 -0.5331973 0.4177615
-0.62203634 -0.62880856 -0.6913365 -0.13915122 -0.496249 -0.005249727 0.046305615 -0.2296574
-0.0442602 0.3621896 0.123372085 -0.61670434 0.41874745 0.30590594 -0.24302915 -0.39319557
0.16654499 -0.29650113 -0.1208368 0.4565016 -0.12790895 -0.059308454 -0.052789703 0.01377512
0.014433695 0.8649605 -0.8193521 0.6193248 -0.58505213 -0.37525734 -0.30533352 0.5839977
-0.11717067 0.43049967 0.230842 0.5331011 0.76138055 -0.6593959 0.33502364 0.2836027
-0.5128465 0.67198986 1.0051568 -1.083622 -0.095334515 0.45330286 0.32631975 -0.09352163
0.7197463 -0.64700574 0.16900875 0.5375806 1.0180422 -0.5121692 0.41065213 0.092683084
0.52488303 -0.8833364 0.1312723 -1.0236801 0.8054404 -0.38242823 0.5474465 0.5759312
0.28445318 0.091391966 -0.39176872 -0.48154786 0.6030069 -0.92500937 -0.10029973 0.34851655
-0.41924235 0.37237668 -0.33403292 -0.07318307 0.78300166 0.1079586 0.95972186 -0.23132218
0.07908939 -0.6032048 -0.56256163 0.6284574 -0.94742286 0.79546255 0.017416038 -1.2081612
-0.17571978 1.106431 0.29066533 0.22293036 0.03134862 0.7073892 0.3180936 0.53666043
0.70948505 -0.1453571 0.39057896 -0.32158348 -1.2396145 -0.56801397 -0.82005143 0.804354

pi.logits_net.4.bias f4 [87]
00000000: 0901 2e3f 1d21 9b3e 5d1f 963e 1aa7 003f
00000010: 70ad 093f a23e 993e bb59 f83e ced7 273e
00000020: 977e ec3e 3ffa 063f bf09 823e 1da5 043f
00000030: c2ed 0d3f a28b 283e d111 5f3e 2f38 013f
00000040: f090 193f 72d2 043f 3625 a13c 2ba8 4d3f
00000050: 0b61 293f e0f2 2e3e 8565 903e c2f6 fc3e
00000060: 1936 1c3f b30b af3e c44f 123f 7bd1 973e
00000070: 679a e83e e0f4 ff3e 1168 cf3e 344e 323d
00000080: d834 673e 6102 773e a10e 1b3f 9bc8 b33e
00000090: bda1 b23e 3c3e e23e 289e 293f df9a 7e3e
000000a0: a762 893e 30d7 023f 7dca 1d3f 3314 983e
000000b0: a54a 813e f657 6d3e 3323 bb3e 7ce2 023f
000000c0: 1105 153f 1a90 793e 69e0 a33e 5161 1b3f
000000d0: f8d8 333e 5fc8 df3e 3895 fe3e 2edf d63e
000000e0: 1c84 083f 1c86 f53e 9c75 9e3e 09c3 d33e
000000f0: 5f65 953d 8284 583e 33f3 7c3e 398c b63e
00000100: d467 c63d 81fe 4e3e 2191 f13d 5e71 f93e
00000110: cc40 f63e 93aa f53e 7440 5b3e a184 833e
00000120: a458 dd3e 3bdd d83e 36fd 863e 753e de3e
00000130: 2848 2b3f 3bdc 0e3f e5c0 cb3e 1b97 343e
00000140: 9ddc f73e 05bd eb3e dce2 ae3e 5fef f23e
00000150: 4d56 0b3f d230 093f a141 2d3e
0.6797033 0.302987 0.29320803 0.50254977 0.5378027 0.29930598 0.4850596 0.16390917
0.4619033 0.52725595 0.2539806 0.5181444 0.55440915 0.16459516 0.2178414 0.50476354
0.5998678 0.51883614 0.019671064 0.8033473 0.661637 0.17084837 0.28202453 0.4940701
0.61020046 0.34188613 0.5715296 0.29652008 0.454303 0.49991512 0.40509084 0.04353161
0.22578752 0.24122001 0.60569197 0.35113987 0.34889022 0.44188106 0.6625695 0.24863766
0.26833078 0.511096 0.616371 0.2970291 0.25252262 0.23178086 0.36550292 0.5112684
0.58210856 0.24371377 0.3200715 0.6069537 0.17563236 0.4370756 0.4972322 0.41967148
0.5332658 0.4795388 0.30949104 0.41359738 0.072947256 0.21144298 0.24702148 0.35653856
0.096877724 0.20214273 0.11795259 0.48719305 0.4809631 0.479817 0.21411306 0.25687125
0.4323169 0.42356285 0.2636506 0.43407026 0.66906977 0.55804795 0.39795604 0.17635767
0.48410502 0.46042648 0.34157455 0.4744825 0.5442856 0.5359012 0.16919567

v.v_net.0.weight f4 [64, 282]
00000000: 4bee a83f febe 9ebf ed30 e8bd 080b cb3f
00000010: 9a0d 98bf 9b60 81bf f673 963f 3ada 993f
00000020: 19d9 46be 489c 94bf 71a3 bdbf f098 98bf
00000030: 5735 ae3f 8a9e 0cbe 29ab 75bf 9ea2 c63f
00000040: 0118 a63f a49b 83bf 1c00 9abf 3e3f c43f
00000050: 915c a93f 6cb6 953f cff3 f7bd 3f85 72bf
00000060: b685 f53e 6772 f7bd 5036 c73f 906e cc3f
00000070: ce2e 903f b7be aa3f 25bb 81bf c6af 1abe
00000080: 4c83 98bf 059b 72bf 048a c93f 70dc 983f
00000090: 340e 963f 3f2a 35be 7eff a1bf 8321 47be
000000a0: 5bd0 02be 57ad bdbf 8f46 b2bd 7305 b9bd
000000b0: 48a8 11be 09dc a2bd f239 96bf 3470 a2bf
000000c0: a31d b7bf c89b 993f fa12 d23f 7b22 a33f
000000d0: 5705 bebf b317 d0bd aa24 9fbf caf6 9abf
000000e0: 2a93 9cbf 5c8f c83f 10c9 0cbe 9ae9 c53f
000000f0: eafb ca3f 6903 42be 3420 943f c394 b5bf
00000100: ca1d 9fbf 2345 abbd b8ff ee3e 9d56 babf
00000110: e9c2 aebe dde0 a53f 2a1f 9cbf c4b7 973f
00000120: 454b 1fbe 1331 a8be 4f68 b2bf 46e3 943f
00000130: 96ae 94bf 7e8a 933f 5aea c33f 4d33 bfbd
00000140: 17cf b1bf 6602 a1bf 8214 943f 7c3c c53f
00000150: 377d 48be cfb0 a93f 133b b0bf b5b3 b93f
00000160: 7654 153f cf2d c7bc e476 7e3d d52a 453f
00000170: aef9 703f 7c7b f93e 5141 9c3e e04b 2c3e
00000180: aba6 613e 9125 d1bf a0d0 5840 fc49 a83f
00000190: 9a3c 06be 48e8 a03f 3110 6940 27f4 18be
000001a0: 5d3f b83e 149e 96bf ebf7 843f aab7 6a3f
000001b0: bb9e efbe 13b7 11bf 443d f0be 9c3c 66bf
000001c0: 7c7d 5cbf 1fd8 c63f bbd6 653f 15b0 80be
000001d0: da92 0f40 b9d0 ab3f 6d04 7fbe cfd2 1ebf
000001e0: db23 933f 70d6 5f3f c4b7 563e 0131 c03e
000001f0: be94 babe a506 b23e 1e9e f4be f96f acbe
00000200: 3c02 2340 f85e 91be 5095 de3e e927 c5bf
00000210: 354a 9cbe bd35 4b3e f491 3c3f bf22 2640
00000220: 496e f8be 7634 0140 e5e4 aabd 59bd 42bf
00000230: 7605 f73d 29a4 12bf dfef c93f a13a 9f3f
00000240: 4571 3340 d276 b0be 3593 c53d 3cf6 8f3f
00000250: bcbb 86be f889 c9bd 8d16 d03f fcad 793f
00000260: 1f1c 41bf b0a7 493f a07c ea3f 67fd e73e
00000270: d756 113f 80fb 3d3f a832 023f 3a19 183f
00000280: 1763 3fbe 9fba 203f db4c 603f 7e7b c93e
00000290: a2eb 4ebe 9186 76be 8910 903e 956d 9bbf
000002a0: 5f4c 823f 39de 5b3f 8de2 1c40 2ebb 903f
000002b0: f66b 383f 0c96 8e3f 7cbe 1b3e 6a4e 0c40
000002c0: 8291 ca3e ca6e a63e 34e2 2340 f6db 6dc0
000002d0: f394 b33e c1b8 8c3f 6e2c 84bf 8841 6abf
000002e0: 93cb e63f 12d7 3a40 be44 3740 ff63 cc3f
000002f0: ad7c 43c0 d54c 4dc0 1ec0 4e40 7850 8d3e
00000300: 61da 22bd 6fef 5f3f fe5f d03f 8c9f 313f
00000310: d085 0dc0 a5ce 0840 eebd 1d3f ff1f e1bf
00000320: df24 c93f 4e11 61c0 315d 1c40 74f1 d83f
00000330: f4d6 0540 58c6 5d3f 9d3f 0b3f c309 963f
00000340: 3532 21be d6b3 00bf d55a 893e 743a 2f40
00000350: 344b aabe 8829 193f cc8f 7dbf cce8 18bf
00000360: de06 b1be e30f ef3e 3d40 3f3c f711 3140
00000370: fddf bdbf 7b33 1ac0 cc3e dc3f e05e 823f
00000380: 1042 52bf 37c8 0fbf e479 fdbe 4c87 1e3e
00000390: 6075 4abe 2a0e 7f3e 3839 0dbe 49ce bb3e
000003a0: 4165 dcbe f6ea d13e df01 9e3f 191c 7c3d
000003b0: cad3 f3be 98ad 14bf 1977 3dc0 0f11 483d
000003c0: ba97 c73c e5b9 06c0 4e92 1940 8f88 91bf
000003d0: c46c 273d 43c2 b5bf ed0d 8ebe 466d fd3d
000003e0: 897a 22c0 f42b c23f 756b 98be c1a7 0040
000003f0: 1570 5cc0 3cea 703e cf24 75bf 7de1 c93e
1.3197721 -1.2402036 -0.11337457 1.5862741 -1.1879151 -1.0107607 1.1754138 1.2019722
-0.19418754 -1.1610193 -1.4815503 -1.1921673 1.3610028 -0.13732353 -0.95964295 1.5518377
1.2976075 -1.0281873 -1.2031283 1.53318 1.3231374 1.1696296 -0.1210705 -0.9473457
0.47953576 -0.120823674 1.556345 1.5971241 1.1264284 1.3339452 -1.0135237 -0.15106115
-1.1915069 -0.9476779 1.5745244 1.1942272 1.1723084 -0.17691897 -1.2656095 -0.19446377
-0.12774794 -1.4818524 -0.08704864 -0.090342425 -0.1422435 -0.079521246 -1.1736434 -1.2690492
-1.430592 1.2000666 1.6412041 1.2744898 -1.484538 -0.1016077 -1.2433064 -1.2106564
-1.2232411 1.566875 -0.13748574 1.5461915 1.5858128 -0.18946613 1.1572328 -1.4186023
-1.2430966 -0.08362796 0.46679473 -1.4557682 -0.3413308 1.2959248 -1.219701 1.1852956
-0.15556057 -0.3284994 -1.3938082 1.1631858 -1.1615779 1.152664 1.5305893 -0.09335957
-1.3891324 -1.2578857 1.1568758 1.5409083 -0.19579016 1.3257083 -1.3768028 1.4507967
0.58332 -0.024313835 0.0621251 0.7701848 0.9413098 0.48727024 0.30518582 0.16825819
0.22036235 -1.6339589 3.3877335 1.3147578 -0.13109055 1.2570887 3.6416132 -0.14936887
0.35985842 -1.1766992 1.0388159 0.916865 -0.4680079 -0.56919974 -0.46921742 -0.8993623
-0.86128974 1.5534705 0.8978078 -0.2513434 2.243338 1.3423072 -0.24904032 -0.6204042
1.1495317 0.8743658 0.20968539 0.37537387 -0.36441606 0.34770694 -0.47776884 -0.33679178
2.5470114 -0.28392768 0.4347329 -1.5402805 -0.30525365 0.19844718 0.73660207 2.5958707
-0.4852164 2.018827 -0.083444394 -0.7607017 0.120615885 -0.5728174 1.5776328 1.2439767
2.8037884 -0.34465653 0.09647218 1.124702 -0.26315105 -0.098407686 1.6256882 0.97531104
-0.75433534 0.78771496 1.8319283 0.45310518 0.5677313 0.74211884 0.50858545 0.5941349
-0.18690144 0.6278476 0.8761727 0.3935203 -0.20207074 -0.2407477 0.28137615 -1.2142817
1.0179557 0.8588596 2.4513276 1.1307123 0.72039735 1.1139541 0.15209383 2.192286
0.3956414 0.325064 2.5606813 -3.7165504 0.35074577 1.0993882 -1.0326059 -0.9150624
1.8030876 2.9193769 2.8635707 1.5968016 -3.0544846 -3.2078145 3.230476 0.27600455
-0.039759044 0.8747472 1.6279294 0.69384074 -2.2112923 2.1376126 0.61617935 -1.758789
1.5714377 -3.5166812 2.443188 1.6948686 2.0912447 0.86630774 0.5439394 1.1721729
-0.15741809 -0.5027441 0.26827112 2.7379427 -0.332605 0.59828997 -0.9904754 -0.5973022
-0.34575552 0.46691808 0.01167303 2.7667215 -1.4833981 -2.409392 1.7206664 1.0185204
-0.82132053 -0.5616488 -0.49507058 0.15481299 -0.19771338 0.24907747 -0.13791358 0.3668082
-0.43046 0.40999573 1.2344321 0.061550234 -0.4762252 -0.58077383 -2.9603941 0.048844393
0.024364341 -2.105096 2.3995547 -1.1369799 0.04087521 -1.4199909 -0.27745 0.12374358
-2.538729 1.5169663 -0.29769483 2.010239 -3.444341 0.23526853 -0.9575929 0.39429846

v.v_net.0.bias f4 [64]
00000000: d99f f13f c0bd 88bd de0a 463f 26f0 49bf
00000010: 88ba 1fbe 0cf7 273e d1c3 a2be 5377 a93f
00000020: 9131 dec0 7f5a a940 cf0b d13f 8f6d 4740
00000030: a504 5ac0 36bb 7cc0 450a 513f 191b b73f
00000040: b8b9 573f 03e6 333f 8970 4140 e699 6abe
00000050: 5621 1e41 6c40 673e d24b ab3e 9c7e 0ebe
00000060: 016d 52c0 91be fcbf 6580 3f3f 8213 fabf
00000070: e36f 3b3f 69e9 26be 6180 8ec0 1042 14c0
00000080: f74f 8440 339f 9040 3099 90c0 9987 78c0
00000090: 0451 e53e 1989 e2bf cdbd 323f edba 49bf
000000a0: 950c 093f 6616 4d40 df92 133e 5717 3a40
000000b0: cd09 e240 2a33 b7bd 74a5 81c0 6c43 473f
000000c0: 39c2 8ec0 0318 c23e 24ef 3cbf 0c75 1940
000000d0: 66d3 c23f e448 8abe 1f41 8340 a305 6dbf
000000e0: 1325 37be f461 13bb 57bb c4bf 9136 0140
000000f0: 344e c43f c112 fc3f b5f9 cdbf b233 83bf
1.8876907 -0.06676817 0.7736033 -0.7888206 -0.155985 0.16402835 -0.3179002 1.323954
-6.9435506 5.292297 1.6331729 3.116062 -3.4065335 -3.9489264 0.81656295 1.4305145
0.8426776 0.70272845 3.0224936 -0.2291027 9.883139 0.22583169 0.33456284 -0.13915485
-3.287903 -1.9745656 0.7480529 -1.9537203 0.732176 -0.16299976 -4.4531713 -2.3165321
4.1347613 4.5194335 -4.5186996 -3.8832762 0.44788373 -1.7698089 0.69820863 -0.7880085
0.53534824 3.204492 0.14411496 2.9076746 7.0636964 -0.08945306 -4.051447 0.7783725
-4.461209 0.37908944 -0.738024 2.397769 1.5220764 -0.27008736 4.1016994 -0.92586726
-0.17885236 -0.0022488805 -1.5369672 2.0189555 1.5336366 1.9693223 -1.609183 -1.0250151

v.v_net.2.weight f4 [64, 64]
00000000: 777c adbf 5d13 12c1 2582 9ebe 0b83 57bf
00000010: 7f8b a3bf c405 03c0 778b 31c0 ceeb dcbe
00000020: e10f f43f ef80 ecbf 8f67 9dbf ffbb f6bc
00000030: 23d5 d83f ac55 6940 4f8d 80c0 9d2b e5bf
00000040: 3297 bebf 31ba 0b40 7f6d b2bf 7448 773f
00000050: b8b2 19c0 3b0b 48be e74f 2a3e 8570 dc3f
00000060: 67ac ae3f 35f6 5240 f143 3ac0 7e4a c840
00000070: f4c0 8b3f b21c 0140 f119 fdbf 9423 1fbf
00000080: e15e 8bbe a66e 56c0 e69c 993f c982 7940
00000090: 5bda 923f 1c48 45c0 7f0b ecbf 30f2 8c3f
000000a0: c594 043f a49f 0f40 ffc2 423f ad9f 0940
000000b0: 846d dcbd f970 c83f 274e 973f 8ce5 0240
000000c0: 492f f93f f880 cdbf cc1a febd a029 7940
000000d0: 80b4 ff3f f1f2 7a3f 3d05 67c0 b0a0 023f
000000e0: f719 8c40 cc0e 403f 29f0 293f 5876 5540
000000f0: 7f0b 3ebf dba0 08bf 232a 3640 1649 9abf
00000100: c53c 383f a4cc dbbf 7c9e 8b40 3443 703f
00000110: 59ea 8840 3158 7f40 2fde 93bf 2c5a b5be
00000120: dc9a ecbd 03e6 0e3f c1fb 2140 c7f9 9ebd
00000130: 7c86 0740 47b7 da40 92ff 85bd 9698 92bf
00000140: 2d41 9dbe 0681 bebf db08 dfbf ade5 eebe
00000150: 25ca b9c0 f9cd 0dbf 184b a63f 050e e2be
00000160: 3cfb 2fc0 8257 343f e68a 1dc0 8ae1 2fc0
00000170: c67d 35bf 128f 84bf cc5c 33c0 6aa8 6540
00000180: 17f4 2540 8898 65c0 9b7f 98be c8a3 ab3f
00000190: 7933 a2c0 26f5 35bf 3c59 adbf 80c7 7e3f
000001a0: cc5b 8740 cf14 1d3d f4cc b93f c9b1 4740
000001b0: 4838 05c0 e1c9 8a3f 0368 4b40 92fe 1c40
000001c0: b845 b340 2af4 cbbe 399c 14c0 62d3 81bf
000001d0: 11ff 0a40 a4f7 58c0 8039 cdc0 b6bd 3740
000001e0: 83ab 3b40 5bd0 c640 c176 973f 2657 1dc0
000001f0: 1945 eb3e 7a8d 5b3e 89c5 e93f a328 de40
00000200: af3a f7be 738d ee3f 8fea 22bf 04d4 41bf
00000210: 087f 23c0 70d9 503f cdf7 8ec0 b211 a6be
00000220: e773 0440 5471 46c1 6d6e e2bd e095 cabf
00000230: fb23 52c0 652b 8c40 840d 44c0 b7fd c73f
00000240: 8cb4 f0bf 1f51 b53e c5ff 0ec0 61d1 babf
00000250: 0041 a6bf 68dc e63f 8967 853d 864a cdbf
00000260: 12fe 3e40 4fda e9bd bd04 a5bf 7acb f63f
00000270: 5d78 ddbf 7bd5 aebd 83bc ccbf 0a36 9e40
00000280: bccf cb3e 0aa0 e8bd 5167 3440 113d 9340
00000290: a229 a0c0 ed69 4740 cc8f 2640 a096 0e40
000002a0: 6678 e03e 8c72 cc3d 38ce adbc 443d 46c0
000002b0: 415b 853f 14ee c6bf 2770 8540 19a7 b3be
000002c0: dccd 4041 e468 97bf d3fc d63e 794c 22bf
000002d0: 0e5d e63f 503d f53f ba29 e4bf 152d 68be
000002e0: 4f5b 0f40 a8ab 8b3f 9cbc 03c0 10e0 ae3f
000002f0: 7e5a 813e 4c6d fbbe c5e3 1440 cf79 efbf
00000300: 1e3f 78c0 6cd9 4ebf de58 a2c0 3c26 b03e
00000310: 31a5 e2bd ae04 b03f 9656 2ec0 21a2 0cbf
00000320: 972f 46c0 2e59 4940 e70d aa3f c6b5 9d40
00000330: 93ad 65c0 de02 a9c0 5900 8ebf 7056 1ec0
00000340: 0c9b 1c3f 566a 92c0 f32a ba3e 0b9b ce3f
00000350: 7be0 4b40 e540 0440 371f e93f 0a30 19c0
00000360: 0015 953f dbf9 4abf 2e4d 5b40 a297 0640
00000370: 9a06 e9be ad32 1a40 84a0 5640 0368 e5bf
00000380: 2f06 d9bf f425 f03f 270d 22c0 6019 7a40
00000390: b1be 893f 19cc 2f3f 6a99 75c0 7258 32c0
000003a0: 07f5 2040 ab4e 9940 d6c7 98bf c2b1 e6be
000003b0: 1e03 0c41 7ac1 0740 8a2c d8c0 c363 6bbf
000003c0: c398 0ec1 5fbc 04c0 2ec3 6b40 b9fb 31c0
000003d0: d58e 2840 2d3b 66c0 1294 8a40 9b95 ce3f
000003e0: 0516 3240 45b9 9fc0 566e 323f bdeb 0d40
000003f0: a70d 6340 b698 ce3f 406b bb3f 207d f1bf
-1.3553609 -9.129727 -0.30958667 -0.8418433 -1.2776946 -2.047227 -2.7741373 -0.43148655
1.9067346 -1.8476847 -1.2297229 -0.03011894 1.6940044 3.645854 -4.0172496 -1.7903935
-1.4889891 2.1832392 -1.3939666 0.9659493 -2.4015331 -0.19535534 0.16632043 1.7221838
1.3646363 3.2962773 -2.9103968 6.2590933 1.091826 2.0173764 -1.9773542 -0.6216366
-0.27220824 -3.3505034 1.2001007 3.8986075 1.1472887 -3.0825262 -1.8441008 1.101141
0.51789504 2.2441187 0.7607879 2.1503708 -0.10763076 1.5659477 1.1820725 2.0452604
1.9467555 -1.6054983 -0.12407455 3.8931656 1.9976959 0.9802695 -3.6096947 0.5102644
4.3781695 0.7502258 0.6638208 3.3353481 -0.7423629 -0.53370446 2.8463218 -1.2053554
0.71967727 -1.7171826 4.363096 0.93852544 4.278607 3.9897578 -1.155218 -0.35420358
-0.115529746 0.5581972 2.5309908 -0.07762485 2.1175833 6.8348727 -0.06542887 -1.1452816
-0.30713788 -1.4883125 -1.7424577 -0.46659604 -5.805926 -0.55392414 1.2991667 -0.4415132
-2.7497091 0.70446026 -2.4616027 -2.7481408 -0.7089504 -1.0356162 -2.8025389 3.5884042
2.593023 -3.5874348 -0.29784855 1.3409357 -5.0687833 -0.7107719 -1.3542857 0.9952316
4.2299557 0.038349923 1.4515672 3.1202261 -2.0815601 1.0842859 3.1782234 2.4530377
5.6022606 -0.3983472 -2.322035 -1.0142634 2.171818 -3.3901148 -6.413269 2.870954
2.9323432 6.212934 1.1833116 -2.458444 0.45951155 0.21440688 1.8263408 6.9424605
-0.4828696 1.8636917 -0.6363916 -0.75714135 -2.5546284 0.81581783 -4.467749 -0.32435375
2.069574 -12.402668 -0.11056218 -1.5826988 -3.283446 4.380297 -3.063325 1.5624303
-1.8805099 0.35413453 -2.234361 -1.4595147 -1.2988586 1.8036013 0.065138884 -1.6038368
2.9842572 -0.11418592 -1.2892071 1.9280846 -1.7302357 -0.08536812 -1.5995029 4.9440966
0.39806926 -0.1135865 2.818806 4.6012044 -5.005082 3.1158402 2.6025267 2.2279434
0.43841857 0.099827856 -0.021216497 -3.0974894 1.0418473 -1.5541406 4.1699405 -0.35088423
12.050259 -1.1828885 0.41989765 -0.6339794 1.7997148 1.9159336 -1.7825234 -0.22673447
2.239948 1.091176 -2.0583868 1.3662128 0.25264353 -0.49106824 2.326402 -1.8709048
-3.8788524 -0.8080051 -5.073348 0.3440417 -0.11066664 1.3751428 -2.7240348 -0.5493489
-3.0966547 3.146068 1.3285493 4.928439 -3.5887191 -5.2816 -1.1093856 -2.4740257
0.6117408 -4.5754805 0.36360893 1.6141065 3.1855762 2.0664608 1.8212651 -2.393557
1.1647034 -0.792875 3.4265857 2.103005 -0.4551285 2.409343 3.353547 -1.7922367
-1.6955012 1.8761582 -2.5320528 3.9077988 1.0761319 0.68670803 -3.8374887 -2.7866483
2.5149553 4.790853 -1.1935985 -0.45057493 8.750761 2.1211839 -6.755437 -0.919491
-8.912295 -2.0739973 3.6837878 -2.780989 2.6337178 -3.5973618 4.330575 1.6139406
2.782594 -4.991366 0.6969961 2.2175133 3.5477083 1.6140354 1.4642105 -1.886631

v.v_net.2.bias f4 [64]
00000000: defb a33e 91b5 f3be 88a7 3bbf 9beb 2a3f
00000010: ba1d cfbe a87e cd3f 9f7c 813e 3071 513e
00000020: 0c95 9ebf 24ff aebf e46a fcbf f434 0ebe
00000030: 852b c93f 4185 4740 d09e 113f d4ab d9bf
00000040: e353 edbf 21cc 50bf 209f cc3e af1e 253e
00000050: 54e5 213e bdd6 f13f aade 95bd 3aee b0bf
00000060: 26aa c6bf 0b4f 3640 165c 3dbe e417 bb3e
00000070: e7c1 ecbe 818e 1ebf 1eb5 493f 4c1f 3dbf
00000080: 21de 27bf dac2 2abf 766c 4bbd 79c4 0340
00000090: a73e 08c0 ba1b 2ec0 b5b0 823f fbea 23c0
000000a0: 6780 66bf 0cd3 e9be 8b8d 333f aed2 8cbf
000000b0: f61f d23f dfd7 16bf 7cb3 43be 9c0b 843f
000000c0: fdc2 93bf cffd 8ebf f82b d5bf 615f a2bf
000000d0: fb43 883f 6199 c9bf 9933 953e d79e e5be
000000e0: 3eaa d8be 32f0 8e3e 7711 993e 7c0b 5940
000000f0: 3c92 b33f f520 1bbf 8408 3740 3e19 a03d
0.32028097 -0.47599462 -0.7330251 0.66765755 -0.40452367 1.6054277 0.2529039 0.20453334
-1.2389235 -1.3671613 -1.972012 -0.13887388 1.5716406 3.1175082 0.56882954 -1.7005563
-1.8541225 -0.81561476 0.39965153 0.16124986 0.15810138 1.8893658 -0.073178604 -1.3822701
-1.5520675 2.8485744 -0.18492159 0.36541665 -0.46241686 -0.61936194 0.7879199 -0.7387588
-0.65573317 -0.6670357 -0.049663983 2.0588667 -2.128824 -2.7204423 1.0210177 -2.561217
-0.90039676 -0.45668828 0.7013785 -1.1001794 1.6416004 -0.58923143 -0.19111437 1.0316043
-1.1543881 -1.1171206 -1.6654043 -1.2685357 1.0645746 -1.5749933 0.29140928 -0.44847748
-0.42317384 0.2791763 0.29896137 3.391326 1.4029002 -0.60597163 2.8598948 0.078173146

v.v_net.4.weight f4 [1, 64]
00000000: 24b0 b041 32c7 1dc1 b059 7cc1 b4fe 4f41
00000010: 7b03 c0c1 65d9 ac41 b96c 7c41 852d ad41
00000020: 3ac5 4841 1534 c4c1 8d93 cbc1 8d91 a9c1
00000030: 2d84 9141 1e3e 4f41 29c8 b7c1 508e b4c1
00000040: da41 a3c1 e4cc b141 8cd3 5f41 ea31 0341
00000050: 5fc4 9ec1 41ff ee41 3f9c cbc1 815c b3c1
00000060: 1440 b0c1 7242 5841 92d0 bac1 c4bb f7c0
00000070: 1723 9ac1 609f a1c1 6ce5 b941 96bc cac1
00000080: 726e aec1 5a59 c840 622d 8041 637a b341
00000090: fb37 8ec1 f826 a5c1 c576 9441 d95c 02c2
000000a0: c102 82c1 3202 61c1 470c b741 0045 b2c1
000000b0: 8a8c b641 bf00 81c1 26d5 a641 e610 7dc1
000000c0: 95b3 c0c1 2bad 99c1 788c c3c1 50f5 2541
000000d0: c8f2 76c1 5d5e 85c1 0660 9c41 0115 b8c1
000000e0: e60f 87c1 f985 9441 33fb 24c1 b705 3a42
000000f0: 0160 b741 45ca 7fc1 aeda 8c41 d8ab b1c1
22.086006 -9.861132 -15.771896 12.999683 -24.0017 21.60615 15.776544 21.647226
12.548151 -24.52543 -25.447046 -21.19607 18.189539 12.952665 -22.972734 -22.569489
-20.407154 22.225044 13.989147 8.199686 -19.845884 29.874636 -25.451292 -22.420168
-22.031288 13.516222 -23.351841 -7.7416706 -19.267134 -20.20282 23.237022 -25.342083
-21.803928 6.260907 16.02216 22.43476 -17.777334 -20.644028 18.557993 -32.59067
-16.251345 -14.063036 22.880995 -22.283691 22.818623 -16.125364 20.854076 -15.816626
-24.087687 -19.209555 -24.443588 10.372391 -15.434273 -16.671076 19.546886 -23.010256
-16.882763 18.565416 -10.311328 46.50558 22.921877 -15.986882 17.606777 -22.208908
