model_wts/s3_d1_m0.0_b1.0.ckpt (torch, 206875 bytes, 11 tensors)

pi.logits_net.0.weight f4 [64, 282]
00000000: 5166 2bbd 4ca4 77bd b1dc c73d cd31 68be
00000010: dfaa d43c 94fe ddbd 5477 d13d a298 ca3d
00000020: fb8f 093e 900a d6bc 0cf3 793d bebf b53c
00000030: 37c7 c8bc 5d10 e43d a871 dfbd 1d73 33be
00000040: 13a5 afbc 261f d6bd 92ce 903d 2972 fcbb
00000050: 58c7 0e3d 3529 133d 37d5 06be 76b4 e9bd
00000060: 0d62 57be 7ded af3d e6c1 9dbd 11c8 25bd
00000070: af19 cb3c acf7 eabc b406 adbd 0344 233e
00000080: 6a27 67bd 9215 e0bd b6e8 d4bd 4f48 263d
00000090: 0939 5e3d bd31 833d dc82 bf3a 1271 fe3d
000000a0: 5b19 083e dade 6e3d a144 ee3d 77c1 ac3d
000000b0: 7763 1ebe 93b7 de3d 8753 3abc 82c3 753c
000000c0: eec2 6f3d cee9 ff3d b79a aebc 1c81 e0bb
000000d0: b23b 6f3d cdee 333e 44f2 ca3c bbff 343d
000000e0: 64b8 0ebd 856c 37bb 432c 183e 7485 a1bd
000000f0: 154e 25bc d964 023e 05d9 d33c 56b9 253d
00000100: 16e7 6dbd 2716 973d a4f9 24be 8a15 c63c
00000110: aae6 04be 3b83 333d 2a6f 30ba 8aa3 f33d
00000120: 95c6 c43d a87d 24be 00dc d33d a04f b93d
00000130: 6564 cdbb 5621 f53d eb99 20be 7d13 273e
00000140: fb88 7e3c 8dff b3bc ff50 843c 899b 48bd
00000150: 9dcb 313e 776d 0ebd 2a72 b93d 81f6 88bd
00000160: 6fe4 61be f9f8 633e 260c 30bc d624 243e
00000170: f8c5 1d3e 48ba 01bf 04f5 c3be ce5e bd3d
00000180: fd8a b6be 6383 0abb 1a39 0f3e db1b c13d
00000190: 76f3 0e3e b645 413e 0db2 64be a845 bb3e
000001a0: 4a5b 423e 1e0b 41be 7ea3 a1bc 3944 2abe
000001b0: 5818 a3be 1779 7d3e 36a3 81bd aefa 1e3e
000001c0: 2d66 87bd 3237 ad3d 2de5 a33e 6ddd d5be
000001d0: bab6 1fbe 2c30 d9bd 3485 39bd 8fab 983e
000001e0: df8a 263d dcda 1cbe 0368 00bf 915f 00bf
000001f0: c17a 693e 1e14 093d f4a9 863d 2681 d2bd
00000200: 7b5d 41bd e42b 063e 19e7 e63e f779 503e
00000210: 9e62 bdbc 1ce4 ff3d 1bc7 c63d a74e f43d
00000220: 960d dfbe 586e 9dbd 263a 393d 00cf 9b3d
00000230: 7c2f 4b3e f467 c3bd 4635 833d 1672 bb3e
00000240: efc1 bbbd 5806 c4bd ac3f a6bd b1af e1bb
00000250: 2a5b dd3c 145a 07be 55dc 123e cef8 c33e
00000260: 9027 a93d 9b58 093e 7694 8b3c 0290 933e
00000270: 8d4b f2bc 8e1b 993e 0fc1 afbe a9d2 fdbd
00000280: 5a90 e93e 6cee 9e3e 2bda 19be c176 263d
00000290: 7d6b d5be 9fd9 20bd 1531 743e 8315 603d
000002a0: 456e c03d b051 89be 71de ad3b 064c 4f3e
000002b0: 3fa1 16be be8c 823d 001d 26be ffd4 31bf
000002c0: 7029 0ebf 1516 a0be 672b 883f a7ee e93d
000002d0: a2fc 4e3f 0df5 95be f9e0 25bf dbf0 28be
000002e0: 2c75 1c3e 88e0 373d 8fe7 82be 8a3d 863e
000002f0: 4303 60bf 5e57 113f c5d7 66be a2fa 2d3f
00000300: 8691 523f d437 6b3d 47fa 523f 3886 0e3f
00000310: 3746 6ebd 47c7 9ebe c7bf 043e 97ae e23c
00000320: a314 f5be 2f8e 263f e41b 34bf e729 303f
00000330: 5936 13bf ce41 74be df9d 36bf be6e 1d3f
00000340: d05a 6dbf ff4c 6b3e 1fe7 91be b979 a0be
00000350: 812d 14bf cd56 0d3e 38fa ba3e dfeb 133f
00000360: df73 88be a758 2b3f b5a6 89bf 8985 29bf
00000370: e596 9ebd 674b 583d cb8f 213f d3a7 4ebf
00000380: 0322 32bd 0dc3 8f3d 8fb2 b23d 6155 47bf
00000390: c156 de3a ceec 85bf a567 03bf 38d0 0abf
000003a0: 5cd9 363e 0d6c eb3e 4c05 463f c016 67be
000003b0: 9652 ccbe fb07 19bf 9693 32bd d134 883f
000003c0: a552 01bd 775d 6fbf b517 86bd b18e a73e
000003d0: 175e bdbe 143f 69bf d4af 333e d8ca 3fbf
000003e0: 31e6 3a3e 7e67 bebd 795d 203e e54a fb3e
000003f0: d104 b4be bd21 8cbe 38f1 3cbf ce82 9dbe
-0.041845623 -0.06045942 0.097588904 -0.22675247 0.025960384 -0.108395725 0.10227838 0.09892394
0.1343383 -0.026128083 0.061022803 0.022186156 -0.024509056 0.111359335 -0.1091035 -0.17524381
-0.021441018 -0.1045516 0.0707065 -0.0077040386 0.034858078 0.03592797 -0.13167273 -0.11411373
-0.21033497 0.08590219 -0.07702999 -0.040474 0.02479252 -0.028682552 -0.08448544 0.15943913
-0.056434073 -0.10941614 -0.103959486 0.040596303 0.05425361 0.06405971 0.0014611143 0.1242391
0.13290922 0.058317997 0.11634184 0.08435338 -0.1546763 0.10874858 -0.0113724535 0.015000226
0.05853551 0.124957666 -0.021314008 -0.0068513285 0.05840654 0.17571564 0.024773724 0.044189196
-0.034843817 -0.0027988267 0.14860635 -0.07886782 -0.010089417 0.12733783 0.025860319 0.040459953
-0.05808171 0.07377272 -0.16110855 0.024180193 -0.12978616 0.043826323 -0.0006730432 0.11896427
0.09608189 -0.16063559 0.10344696 0.090483904 -0.0062680715 0.11969249 -0.15683715 0.16316028
0.015535588 -0.021972442 0.016151903 -0.048976455 0.17362829 -0.034772363 0.09054978 -0.06687642
-0.22059797 0.22262944 -0.010745084 0.16029677 0.1540755 -0.5067487 -0.3827287 0.09246598
-0.35652915 -0.0021135441 0.13986626 0.09429141 0.1396006 0.18874249 -0.22333546 0.3657658
0.18980137 -0.18851897 -0.01973128 -0.16627587 -0.3185451 0.24753223 -0.06329958 0.15525314
-0.06611285 0.08457793 0.32010785 -0.41770497 -0.15597048 -0.10604891 -0.045293048 0.2981839
0.04065978 -0.15317863 -0.5015871 -0.5014582 0.22800733 0.03346645 0.06575385 -0.10278539
-0.04720829 0.1310268 0.4509819 0.20359026 -0.023118313 0.1249468 0.09705945 0.11929064
-0.43565053 -0.07687062 0.04522147 0.076078415 0.19842333 -0.09541312 0.064066455 0.36610478
-0.09167849 -0.095715225 -0.08117613 -0.006887399 0.02702101 -0.13217956 0.14341862 0.3827576
0.08259499 0.13412707 0.017038565 0.28820807 -0.029577041 0.29903835 -0.3432698 -0.12393696
0.45617944 0.31041276 -0.1502463 0.040640596 -0.4168357 -0.03927004 0.23846848 0.054708015
0.09396032 -0.26820135 0.005306058 0.20243844 -0.14709948 0.06374501 -0.16222 -0.6946563
-0.5553198 -0.31266847 1.0638245 0.114224724 0.8085424 -0.2928852 -0.64796406 -0.16498129
0.15279073 0.044891864 -0.2556729 0.26218826 -0.87504977 0.56773937 -0.22543247 0.6796056
0.822533 0.05742629 0.8241314 0.5567355 -0.05817243 -0.31011412 0.12963782 0.027671142
-0.47867307 0.65060705 -0.7035506 0.6881394 -0.575048 -0.23853227 -0.7133464 0.61497104
-0.92716694 0.2297859 -0.28496644 -0.31342867 -0.57881933 0.13802643 0.36519027 0.57781786
-0.26650903 0.6693215 -1.0754 -0.66219383 -0.077436246 0.052806284 0.63110036 -0.8072483
-0.043489467 0.07019625 0.087254636 -0.7786465 0.001696311 -1.0462892 -0.51330024 -0.54223967
0.17856354 0.45980874 0.7735183 -0.22567272 -0.39906758 -0.597778 -0.04359778 1.0641118
-0.031572957 -0.9350199 -0.065474905 0.32726052 -0.36985847 -0.91111875 0.17547542 -0.7491889
0.18251874 -0.09297083 0.15660657 0.49080577 -0.35159925 -0.2736949 -0.7380557 -0.3076386

pi.logits_net.0.bias f4 [64]
00000000: 50ea 21be a8c0 63bd 2a3b e23c c21d 0dbd
00000010: 0c54 c1bc ac6c 88be a75f 823e 32c8 1f3e
00000020: 31a6 333c 297a c53d 3d5b 11bd a18a 793d
00000030: f027 99be 20a6 c93e 53be 273e b827 1bbe
00000040: 2c5a adbc 65d1 5b3b da06 b83d a475 7d3e
00000050: df64 423b 1c38 863e 7477 b5bd 0ec4 313e
00000060: 1860 dabe 0fd8 3b3d 4d43 10bf b521 48bc
00000070: abc5 80bd 3fc7 a33c 46d7 983e f7d4 61bd
00000080: 3ae5 493d 2219 a9bd a604 80bd b1f1 25be
00000090: e87f 9e3c 5167 93bc e0cc 2d3c 4f7a 6abc
000000a0: ee9a 94bc ac62 00be 8534 4cbe b4e9 483e
000000b0: 21e9 87bd fa62 993e b1a8 d4bd 300e c63d
000000c0: dde0 06be 0ad1 02be ac38 c7bd 5899 8dbd
000000d0: 83d3 b03d 7123 923c 9459 e53d 12a3 403d
000000e0: c05e 723e 5765 be3d a79f 16be 6b2d 56bd
000000f0: b9ce 8e3d 3832 5bbe 514c e13d f652 58be
-0.1581204 -0.055603653 0.027616102 -0.034452207 -0.023599647 -0.2664541 0.25463602 0.15603712
0.010964916 0.09642441 -0.035487402 0.060923222 -0.29913282 0.39384556 0.16381197 -0.1515187
-0.021161161 0.0033541557 0.08985682 0.24751908 0.0029662175 0.26214683 -0.088606745 0.17359945
-0.4265144 0.045860346 -0.5635269 -0.012215068 -0.06287702 0.019992469 0.2985174 -0.05513474
0.049290873 -0.08256747 -0.062508866 -0.16205479 0.0193481 -0.017993601 0.010607928 -0.014311387
-0.018140282 -0.1253764 -0.1994191 0.196204 -0.06636263 0.29958326 -0.10383738 0.09670675
-0.13171716 -0.12775055 -0.09727606 -0.069140136 0.08634093 0.017839165 0.11198726 0.047030516
0.23668957 0.09296673 -0.1470934 -0.052289408 0.06973023 -0.21405876 0.11000884 -0.21125397

pi.logits_net.2.weight f4 [64, 64]
00000000: c7ce 143e 4372 d9be 0ba8 1cbe 6e8c 623e
00000010: e600 003e 03d0 f1bc cd21 b0be 8946 253e
00000020: 0ecf 4a3d f504 e83e 15bf 3dbf 01c9 d2bc
00000030: 8b89 7bbe 6f21 2abf 46ed 98bf fa63 383d
00000040: fd3a ebbd b24a 56bf a9e6 7d3c f8f0 d3be
00000050: 0e0e 803f 7448 333f 00bb f2be 9550 d93c
00000060: 9a78 383e 8c04 773e e7f3 a0be 65ab 3bbe
00000070: 30fc 50be 98a5 8cbe 78eb de3c 213c 033f
00000080: c11e c53e be5e 0f3e 5634 9dbe 5ddf 1b3f
00000090: 1167 97bf 5bbd 2c3f f0b9 11be 69ea 69bc
000000a0: 1e2c 5b3e 8f91 6fbe c18c 2fbe 8995 b93e
000000b0: ac7e 393f 69cc 15bf 4b15 a0bd 5edb 873e
000000c0: 13bf 1d3c 0c95 f13d cf7d bdbe 59a4 6fbe
000000d0: 85df 31bf f56b 98be e25c 2f3e b891 b1be
000000e0: 0b54 24bd 7aed 033e 4a7f 1c3f df65 65bf
000000f0: a650 c8be a9d8 3d3f 2321 203e a97f 8dbe
00000100: 4b47 853f 3d87 603f 450a 5ebf 48f3 253e
00000110: 4ea9 91be 4718 34be 05f8 aabd 5669 54bf
00000120: 00f4 89be 7cab 97be 6288 b03e b169 85be
00000130: 8f71 bf3e 22d7 1e3d 4fd9 b3bd b764 013f
00000140: de94 7dbe 9db4 0e3f 29c7 60be c259 093f
00000150: 23e1 603e 6071 b6be b108 b83e e5ec 16bf
00000160: cde9 8ebe c89b 813e a1c8 913e f0d7 3d3e
00000170: fa47 45be 1ebe bbbe 0ad0 e43d 42fd a03e
00000180: e7ba 85be 933a 223f 6dd8 053f 8010 edbe
00000190: 777d f3be 0dbe 55bd 50dd 18be a9ea e3be
000001a0: 39b8 1ebe 5e14 8b3e 127f 98bc 7fde db3e
000001b0: 4e2a c5be a4d6 f7bd f289 ab3d d251 ac3e
000001c0: 3135 843e 0f64 c6be 74b6 bbbe 7f90 8e3f
000001d0: a42b f9be b83d 573e 35eb edbb 43a0 80bf
000001e0: dc95 debe c884 bd3d 16fc afbd 915e 90bf
000001f0: d1af 04bf 911b 1f3d efb3 1ebf 527b 533e
00000200: c8dd 243f 015a 213e 5b60 a53e 93a2 33bf
00000210: 5b97 1fbe d7e9 0ebb 7d01 9a3e b2eb ef3e
00000220: bd28 633e d594 f7be f3f6 87bf 40bf bc3e
00000230: e123 3a3e a88f f1bc d799 dfbd e63c 943f
00000240: 6708 343f 9f7f 62be a177 7bbe d580 f0be
00000250: 6afb 223e 8ea7 3f3e 8777 43bf b7eb c13e
00000260: 940a 22bf 77df afbe 9164 ab3e 5de6 4bbe
00000270: 270d 233e c34f cebc 4606 983e 59c0 903e
00000280: 5ee3 333f f51a e73d 8bd4 793d 4578 b7be
00000290: e36d c1be 67a6 02be d32d 20bc 7370 74be
000002a0: 27b4 5a3e 9b33 6dbe bf9d 82be b9dc 0d3f
000002b0: 3671 8e3d 9dee ca3e 4f07 86be d158 b43f
000002c0: b156 b5be 56e3 153e 95dd 573c 025e 3a3e
000002d0: 3de1 d23c 1cb5 503f 9532 d9be f65c 1abf
000002e0: 1291 debe 4d1d bc3e e36e 1fbf 09ab 48bf
000002f0: 38c3 7c3e 2b5c 7f3e 8f5d da3e 9ad5 9c3d
00000300: c49c f0bd 6904 bc3d 5e79 243e 4de2 c53d
00000310: 91ac 81be 1ec4 db3e 0b92 a9be 2276 4abc
00000320: eca2 833f 3764 163f 3cc9 91bf 0046 b63d
00000330: ed62 4e3f ce7c cb3d 907a a33e f072 b13e
00000340: cfa3 1c3d 48ca 50be ac24 643e 5c72 49be
00000350: 3cb2 6e3e 801a 193e 639f 71bf 7cee 113f
00000360: 0007 863d 7bea 08bf fece 2b3f da11 6dbf
00000370: 696a 853e ba29 b73e 1a42 55bf 7845 debd
00000380: 41af d53c 6bd2 b2bc 9752 563e 209d 0ebe
00000390: 031f e33d e924 3b3e 7494 0e3f 7ae8 963e
000003a0: c9f1 8e3d ddef 093f 9c22 8bbd a8a2 aebd
000003b0: b9fd 983e fd71 7dbe 3c14 313e 0e81 af3e
000003c0: 129a 50bf 7365 fa3d 0ab9 90be c17d cf3d
000003d0: 1e21 86bf 76d4 06bf ae80 8fbe 896d bebd
000003e0: 95ff 96bf 18d7 9c3d 4432 3b3f 9273 bebe
000003f0: bd44 0fbe c0f6 5cbe 77e8 5bbd e07d 843e
0.14532004 -0.42469987 -0.15298478 0.22123882 0.12500343 -0.029518133 -0.34400788 0.16140188
0.04951387 0.45316282 -0.74119693 -0.025730612 -0.24564187 -0.66457266 -1.194741 0.04501722
-0.114858605 -0.83707726 0.015496888 -0.41394782 1.0004289 0.7003243 -0.47408295 0.026527682
0.18014756 0.24122828 -0.31436083 -0.183271 -0.20408702 -0.27470088 0.02721189 0.51263624
0.38500026 0.14000985 -0.30703992 0.608877 -1.1828328 0.67476434 -0.14231086 -0.014277079
0.21403548 -0.2339537 -0.17143537 0.362469 0.7245891 -0.5851503 -0.07816561 0.2653455
0.009628075 0.117960066 -0.37010047 -0.23402537 -0.6948169 -0.29769865 0.17125276 -0.34681487
-0.040119212 0.12883559 0.6113173 -0.8960857 -0.3912403 0.7415872 0.1563764 -0.2763646
1.0412382 0.8770636 -0.8673442 0.16206086 -0.28449482 -0.17587386 -0.08348087 -0.8297323
-0.2694397 -0.2962302 0.34479052 -0.260572 0.37391326 0.038779385 -0.08781683 0.50544304
-0.2476382 0.55744344 -0.21950974 0.53652585 0.21960883 -0.35633373 0.3594413 -0.5895522
-0.2791275 0.25314164 0.2847338 0.18539405 -0.19265738 -0.36668485 0.11172493 0.3144322
-0.26119158 0.6337063 0.52283365 -0.4630165 -0.4755666 -0.0521832 -0.14928174 -0.4451497
-0.15499963 0.27163976 -0.01861528 0.4294319 -0.38508838 -0.12101486 0.0837592 0.33656174
0.25821832 -0.38748214 -0.36662638 1.1137847 -0.48666108 0.21019638 -0.007260705 -1.0048908
-0.4347371 0.09253842 -0.085930035 -1.1278859 -0.51830775 0.03884465 -0.61993307 0.20652512
0.6440091 0.1575699 0.32300076 -0.70169944 -0.15585081 -0.002180686 0.3007926 0.4685951
0.22183509 -0.48355737 -1.0622238 0.36864662 0.18177749 -0.029487446 -0.109180145 1.1581085
0.7032532 -0.22118996 -0.24557354 -0.4697329 0.1591622 0.18716261 -0.7635426 0.3787515
-0.6329739 -0.34350178 0.33475164 -0.19912095 0.15922986 -0.025184518 0.29692286 0.2827175
0.7026881 0.112844385 0.060993712 -0.35833946 -0.3777915 -0.1275879 -0.00977655 -0.23871021
0.21357785 -0.23164217 -0.25510976 0.5541492 0.06955187 0.39635172 -0.2617745 1.4089605
-0.35417703 0.14637503 0.013175388 0.18199924 0.025742168 0.8152635 -0.42421404 -0.602981
-0.43470055 0.36741105 -0.62278575 -0.7838598 0.24683845 0.24937503 0.42649505 0.07657929
-0.11748651 0.09180529 0.16061923 0.09662304 -0.2532697 0.42923063 -0.33119234 -0.012357267
1.0284095 0.58746666 -1.1389537 0.0890007 0.806197 0.09935914 0.31929445 0.34658003
0.038242158 -0.20389664 0.22279614 -0.19672531 0.23310179 0.14951515 -0.9438383 0.57004523
0.06544304 -0.5348279 0.6711272 -0.92605364 0.26057747 0.35774022 -0.8330399 -0.10853094
0.026084544 -0.02182885 0.20929943 -0.13927126 0.110898994 0.18275799 0.5569527 0.2947424
0.069797106 0.5388163 -0.067937106 -0.08527118 0.29881075 -0.24750514 0.17292875 0.34278148
-0.8148509 0.12226381 -0.28266174 0.101314075 -1.0478857 -0.5266794 -0.28027862 -0.09298236
-1.1796747 0.076582134 0.73123574 -0.37197548 -0.13991065 -0.21578503 -0.053688493 0.25877285

pi.logits_net.2.bias f4 [64]
00000000: 673b cbbe 9210 db3d c430 ebbd 46ce acbe
00000010: 1ef3 7bbe d5b9 16bd 93e2 79be 7878 523d
00000020: 7d37 45bd e9c7 72be e6f3 9cbd 21d9 ccbe
00000030: 5178 bb3d fb9e e23b cf58 62bd b593 1b3d
00000040: 8c80 35be b2fa 4d3d 1d69 48bd 7718 f2be
00000050: 6a59 5ebd ca05 51be ecf0 093e 04be 06be
00000060: 1b83 b0be 2e09 70be 7ac5 8abe f26a 15be
00000070: 3cea 013e 4f37 1abe b60f 343e 6f33 5f3d
00000080: f1fb 17bd 4532 023f 2db6 70be b8d3 92be
00000090: ed89 cdbc 7aa8 aa3e cce8 be3d 7683 89be
000000a0: b7ba a1bd 67cc 8ebe 2cb5 b0bd 6d5d 99bd
000000b0: 0915 46be 295c 3e3e 1319 0abe 4ec6 27bd
000000c0: b12f 943e 75c4 bd3e 1d53 dc3e b44a 023f
000000d0: 5592 d5be 14cb 3a3d 18e6 a53e c308 11bd
000000e0: cc16 6eba 7aa6 e0be c450 853e c6e0 df3e
000000f0: 9742 febe 1bb8 953d 146b e8bd 1e09 453d
-0.39693758 0.1069652 -0.11483911 -0.33751124 -0.2460446 -0.036798317 -0.24402837 0.05138442
-0.04814862 -0.23709072 -0.076637074 -0.40009406 0.09153808 0.0069159246 -0.055260476 0.03798266
-0.17724818 0.05028791 -0.04892837 -0.4728429 -0.05428449 -0.20412365 0.1347081 -0.13158423
-0.34475026 -0.23441002 -0.27103788 -0.14591578 0.1268701 -0.15060161 0.17584118 0.05449241
-0.037105504 0.50857955 -0.23506995 -0.28677154 -0.025090182 0.33331662 0.09321746 -0.2685811
-0.07896941 -0.27890322 -0.08628306 -0.07488523 -0.19343962 0.18589844 -0.13486128 -0.040960602
0.28942636 0.37063947 0.4303216 0.5089524 -0.41713205 0.045603827 0.3240211 -0.035408746
-0.00090823765 -0.43877012 0.26038182 0.43726176 -0.4966018 0.07310506 -0.113485485 0.048104398

pi.logits_net.4.weight f4 [87, 64]
00000000: 13cb 45bf 6c9a aebe c080 433c f8af b1be
00000010: 00cd 15be 0747 ea3e 4e0a 47bf 2c73 873f
00000020: c25e b43e 9dc3 e93e 7d79 d93e c935 903e
00000030: 3ade bf3e 599b 4dbd 8c06 15bf 42f5 783f
00000040: 00f2 23bf 4a96 61be a9fb f83e 7831 e9be
00000050: 13e8 44be 16d8 52be 70f7 cb3e c0df e5bd
00000060: b4a2 d8bd cf62 d1be 76db 6dbe 722f 303e
00000070: d2b8 7ebe 7735 663e 0376 6abf 502b 393f
00000080: 4a74 25bf 158e 2f3f 70df c6bd 4d32 91bf
00000090: 5bf2 053f ec4c c13e 5fb4 a93d 393f 3dbf
000000a0: fe63 c43e ef6a 563c 6375 eebd 9c40 e6be
000000b0: 538f 7fbf b1aa 033f 321a 9b3e 95de 523e
000000c0: 14dd f7be 6ef8 543e f9d9 7b3f ed24 5d3f
000000d0: 88ac 91be 9518 423e 6dae 643e ed19 183f
000000e0: b89c 9abe b9c7 983e dd8c c43d 1843 073f
000000f0: 46a3 d2be 4f97 493e 59fe 173f 7372 103f
00000100: 30f9 323e c799 3abe ed85 b2bd b37f 043f
00000110: c432 20bf 1770 9a3f 62a8 16bf 1f48 caba
00000120: 8e4e b6be 6000 aabe 15ee 443f aa24 b9bd
00000130: bdc8 953e f283 473d d483 29bf f50c f13e
00000140: 0e42 93be f3fe 403a 2246 de3e 2694 2dbe
00000150: f76e 48be c42e abbe 15e0 823f ecb2 6b3e
00000160: 0499 afbe 927a 7d3e ef71 e7bc 40aa 913f
00000170: 675f 043f eea3 a53d 3e6d 41bf 47fd a23e
00000180: 57ef dfbe 73e2 adbd b9f8 a9bd 55f2 48be
00000190: 5d4e fa3e e1cf 4fbf 565e dcbe 9fed 69bf
000001a0: a70a 613e 3341 01bf b6d8 6dbe 669a 08be
000001b0: 5148 41bf 3671 a13e 6507 dd3e d495 3fbf
000001c0: 7d0d 4cbf f718 9abe 287f 003f 7058 993e
000001d0: 32a8 10be 3004 cbbf b27e 313f f999 fa3e
000001e0: 8119 503f eda9 133f f37c a63e dd2b 1b3f
000001f0: f96d e7bd d6e8 0cbf bc4e 503f 47cf f23e
00000200: ac4b 753e 889d 2fbf efbf 37bd eb49 65be
00000210: 69f0 733e 0c0c 123f 469a 8f3e 9fe0 01bf
00000220: 361d 1a3f 6d0c 973e c0ae d0be 55b5 08bf
00000230: 497c 12bf 84e3 ac3d 5100 2a3f 5293 313f
00000240: 8bad b03e 1d2f 00be 9f40 673d f9c6 f2be
00000250: aaaf 0b3e b6a5 1cbd 4ebf 9d3e 21ae 4e3e
00000260: 9afb 41bf 4371 b4be fb43 a6be 43d5 cdbe
00000270: 2658 2e3f 932f 96bc 7840 8fbf 8fe2 28bf
00000280: e7a1 e2be 7dec 313f b52e 3bbf f14a 783e
00000290: ef77 c1be c0e4 0c3f 7740 b03d 629c 42bf
000002a0: 4901 8c3f 81a3 33bf 78ca 21bf 9bea 923c
000002b0: a7b8 94be cc2a e2bc 8055 d23e e27c b7be
000002c0: c4c5 3f3f dd9e 403f 1aa5 da3e daf0 2c3f
000002d0: 4e28 073f 4e21 9f3c 985a aabe c1ad 283f
000002e0: 793a a83d 89a9 1abf 8a46 df3e 704e 173f
000002f0: 62c2 0ebf b7f3 0fbf a8aa 913f a6f6 53bf
00000300: 8a5f a0bf 89dd 55bf f9f4 27bf 9b3c 8ebe
00000310: 12d3 12bf d5f8 dc3e f1d4 5bbe b005 983c
00000320: b780 ee3e 0a99 63be 48a0 933f 715c 86be
00000330: 106a 853f 7d9f f13e 50b5 b73e 5468 2a3f
00000340: 68d9 2fbf 9e40 893f db93 05bd 561f 59bf
00000350: 88d8 b03e 9d7b 703f eb2b 823f 374a 15bf
00000360: 83d9 11bf 46e8 4b3e 5a64 5bbf 6822 b2be
00000370: 195a e1bd 5d2a f7be 3e74 89be a36d de3e
00000380: 3a22 a1bf e3dc e03e ca13 4e3d d0d5 98be
00000390: 763e 223d acb4 23bc 183d 163f bdc1 b5be
000003a0: 4162 5fbe a866 3bbe 1155 0bbf a171 93be
000003b0: fd1d a63e b569 fe3e faa4 e03e d930 6fbe
000003c0: 1ad3 cabd 0e64 e33e 778f 533f 5939 d8be
000003d0: 098e 68bf 8694 5f3f 6de6 5b3e a264 f73e
000003e0: ad83 9bbe cd3b 12bf cddd 32be cbb3 8c3d
000003f0: 2d24 33bf 9fd7 bdbd 3544 8f3f 6374 1d3d
-0.7726299 -0.3410219 0.011932552 -0.34704566 -0.14628983 0.45757315 -0.777501 1.0582023
0.35228544 0.45657054 0.424755 0.28166035 0.37474233 -0.05019698 -0.58213115 0.97249234
-0.6404114 -0.22029987 0.486295 -0.45545554 -0.19229154 -0.20590243 0.39837217 -0.112243176
-0.10577908 -0.40895697 -0.23228249 0.17205599 -0.24875191 0.22481333 -0.9158632 0.72331715
-0.6463057 0.68576175 -0.09710586 -1.1343476 0.5232293 0.37754 0.08286356 -0.73924595
0.38357538 0.013087018 -0.116434835 -0.44971168 -0.9982807 0.5143233 0.30293423 0.20592721
-0.48410857 0.20797893 0.98379475 0.8638447 -0.28451943 0.1895469 0.22332163 0.5941456
-0.30197692 0.29839876 0.0959718 0.5283675 -0.41140193 0.19686626 0.5937248 0.56424636
0.1747787 -0.18222724 -0.087169506 0.51757354 -0.6257746 1.2065457 -0.5885068 -0.0015432871
-0.35606807 -0.3320341 0.76925784 -0.09040196 0.29254714 0.048709817 -0.6621678 0.47080198
-0.28761333 0.0007362209 0.43412882 -0.16951045 -0.1957358 -0.33434117 1.0224634 0.23017472
-0.3429643 0.24753788 -0.02825257 1.1380081 0.5170807 0.08087908 -0.75557315 0.3183386
-0.4373729 -0.084904574 -0.08299393 -0.19623692 0.4888791 -0.81176573 -0.43040723 -0.91378206
0.2197672 -0.5049011 -0.232272 -0.13340148 -0.7550097 0.31531686 0.43169704 -0.74837995
-0.7970808 -0.30097172 0.50194025 0.29950285 -0.14126661 -1.5860653 0.69333947 0.48945597
0.81288916 0.5768116 0.32517204 0.60613805 -0.113002725 -0.5504278 0.8137014 0.47423765
0.23954648 -0.6859975 -0.044860777 -0.22391479 0.23822178 0.5704963 0.2804739 -0.5073337
0.6020082 0.29501668 -0.40758324 -0.5340169 -0.57220894 0.08441833 0.6640673 0.6936542
0.34507403 -0.12517972 0.05645811 -0.4741743 0.1364123 -0.03824397 0.30810016 0.20183612
-0.7577454 -0.35242662 -0.3247374 -0.40201768 0.68103254 -0.018333232 -1.1191549 -0.659707
-0.44264147 0.6950148 -0.73118144 0.24247338 -0.37786815 0.55036545 0.08606046 -0.7601987
1.0937892 -0.7017136 -0.6319957 0.017934134 -0.2904713 -0.027608298 0.41080856 -0.35837466
0.7491114 0.75242406 0.42704087 0.6755501 0.52795875 0.01942506 -0.33272243 0.6589013
0.08214278 -0.6041494 0.43608505 0.5910406 -0.55765355 -0.56231254 1.1380205 -0.8279823
-1.2529156 -0.8354116 -0.65608174 -0.27780613 -0.5735332 0.43158594 -0.2146795 0.0185574
0.46582577 -0.22226349 1.1533289 -0.26242402 1.0422993 0.47191992 0.35880518 0.6656544
-0.6869111 1.0722845 -0.03261171 -0.8481344 0.345402 0.9393862 1.0169653 -0.5831637
-0.5697252 0.19912824 -0.857 -0.34791875 -0.11003513 -0.48274508 -0.26846498 0.4344302
-1.258857 0.43918523 0.05031184 -0.29850626 0.03961035 -0.009991806 0.5868697 -0.35499373
-0.21814825 -0.18300879 -0.54426676 -0.2879763 0.32444754 0.49690023 0.43875867 -0.23358478
-0.09903546 0.44412273 0.82640785 -0.42231253 -0.9084173 0.87336004 0.21474619 0.48318964
-0.30373898 -0.571225 -0.17467423 0.0687023 -0.69977075 -0.09269642 1.119269 0.038441073

pi.logits_net.4.bias f4 [87]
00000000: dca6 c03e b4c1 8c3e 32c8 c33e 9b7f 143f
00000010: a3e4 d73e 7bcd e53e a891 073f dcab c63e
00000020: 9dcd 913e fda3 023f 980b b23e c9c7 1c3f
00000030: c6be f33e 3f95 3a3f 762b 9f3e 3882 0b3e
00000040: 5c56 fb3e 4107 6a3e d00e b33e 7632 013f
00000050: 2b5d cb3e c642 033f 9d03 b53e 7a63 973e
00000060: 17a3 ee3e eced 0b3f a636 b73e 2018 c63e
00000070: ec51 703e ccff 0c3f 1c5d d93e cf94 623e
00000080: 81d2 ce3e af01 df3d 7874 183f 4c71 ed3e
00000090: ca3b b43e 6d1b 023f 6dd4 1e3f 7a83 933e
000000a0: 0df0 eb3e afd8 f33e 7495 2d3f fa13 c43e
000000b0: 0dd4 243f f3cf 0b3f fd72 093e daea 1a3f
000000c0: 31de d03e 2ef8 0c3f 00c3 ce3e 9e8f 1e3f
000000d0: 4b20 843e c1e1 0a3f 9b05 e63d 732a c13e
000000e0: c9a2 1c3e 15a6 5b3e 0eb0 383f b3db d13e
000000f0: 7eaa b03d f1ab 143f 53e5 0f3f e5ee 2abd
00000100: 2f3b 1a3e 035e 133f 43a3 613e ca77 203f
00000110: 4441 083e 30d6 a43e e18a a73e 8982 243f
00000120: acaa 2f3f 650d 0b3f 16e2 d73e af35 763e
00000130: 44a1 c83e 81bf 043f 6e22 d83e 146d f03e
00000140: d26a f03e 1026 d03e 5938 2b3f cb24 de3e
00000150: b0b2 023f ca0e ed3e abfc 2e3e
0.37627304 0.27491534 0.38238674 0.5800721 0.42166623 0.44883332 0.5295663 0.38802993
0.28477183 0.51031476 0.3477447 0.6124235 0.47606486 0.7288398 0.31087846 0.13623893
0.49089324 0.2285433 0.3497224 0.5046762 0.3971952 0.51273763 0.3535432 0.29568082
0.46608803 0.54659915 0.3578388 0.3869028 0.2346875 0.55077815 0.4245385 0.22127078
0.40394977 0.10888993 0.5955272 0.463755 0.35201865 0.508231 0.62042886 0.28811246
0.46081582 0.47626254 0.6780617 0.3829649 0.64386064 0.5461418 0.13422771 0.60514605
0.4079452 0.5506619 0.40383148 0.6193789 0.25805888 0.54250723 0.11231538 0.377277
0.15296473 0.21450074 0.7214364 0.4098793 0.08626269 0.5807486 0.56209296 -0.041731734
0.15061639 0.57565325 0.22034936 0.62682784 0.13306147 0.32194662 0.32723144 0.6426168
0.686198 0.54317313 0.42164677 0.24043916 0.39185536 0.5185471 0.42213768 0.4695822
0.46956497 0.4065404 0.66882855 0.43387446 0.51053905 0.46300346 0.17088573

v.v_net.0.weight f4 [64, 282]
00000000: 7e82 d13e 2946 2fbf df7a b9be c622 093f
00000010: 8df0 a1be 59ad a4be c28a d13e 3424 df3e
00000020: e5d9 e2be 8fb4 d7be c03c 45bf 49fa 22bf
00000030: 109f e63e 6cbd c5be ce81 8abe d252 003f
00000040: a429 c63e 8a07 0bbf 27ba a9be f694 be3e
00000050: ba3b d33e c294 ce3e 4ce1 02bf de35 84be
00000060: 4f0e 5dbe d84a bdbe c070 ca3e 4851 df3e
00000070: e276 b83e 10c4 d83e b017 a6be e4c5 ccbe
00000080: edce 22bf 8561 84be 28bf d33e d02c db3e
00000090: c2f3 cf3e 8302 dabe 5db8 c9be 07fe e2be
000000a0: 26d6 c0be 9050 45bf 4000 acbe 1cb0 adbe
000000b0: e94c 08bf a625 a8be 0da3 9abe 157b cbbe
000000c0: 9f31 38bf 582a de3e f5e1 f53e 8453 ba3e
000000d0: 8900 46bf 9974 b3be 4911 30bf fd94 adbe
000000e0: 85ee 2abf b2d4 cf3e a9d2 c5be 463e c53e
000000f0: 2c87 d93e 096f e0be 443c c83e b41f 35bf
00000100: 9303 30bf e93f aabe 50ba 36be 69a3 3ebf
00000110: e93d 0fbf 204d c53e d806 2abf dc99 d63e
00000120: 9413 cfbe 1cf5 0bbf afc6 2ebf 4a48 cb3e
00000130: ba25 1bbf 88e5 c53e 6fc4 f53e 793b afbe
00000140: 2b94 2dbf a5c3 c5be 6e0d c83e f089 c23e
00000150: e1ab e3be a88c d43e 306c 2abf 0336 903e
00000160: 1c15 ecbf ad3f 273f 3921 87bf 5184 c4bf
00000170: d4f2 cbbf 8454 053f cff7 46be 5709 8b3e
00000180: 9322 c4be 46fb 3340 3c5c 04c0 07d2 91bf
00000190: dbb9 823c 25e8 8bbf a0d8 22bd 11d9 edbf
000001a0: 78ea 5fbf f3b9 bc3e cf68 30bf 5024 333e
000001b0: f012 ccbe f84d cf3f f2c8 2a3e fd11 3a3f
000001c0: 702c 1d3e 952c 4bbe ea0b 8fbd 2dd5 383f
000001d0: 45ca c5bf f917 9ebf 9f24 d63e bc06 07bf
000001e0: d58b bebf 0deb b3be a16c 103e f268 04bf
000001f0: 5c87 36c0 2c48 f3bd ce21 9b3e c0ca 2ebe
00000200: 8e50 913f 3511 4fbf 4f91 433e 995b 953e
00000210: 9b87 f73d 2712 88bf 80d8 a5bf 1156 0c40
00000220: 6a25 05bf 6fb6 e5bf c28c 13c0 d335 05bf
00000230: b6da 063f ff9c c5bf 1fea 743e 2f89 a9bf
00000240: a9ca 94bf 8223 fb3e 42ab 313e d7dd 66bf
00000250: f3c1 a7be 7d14 133f efb2 f9bf 64cd 87bf
00000260: 9885 ba3f 09db dabd 60cc ac3e 3f47 563f
00000270: 6245 20bf 6f20 fcbe f64f 44bd a91e e33c
00000280: 5b3f 833f a0f7 1ec0 2db2 9fbd 0e53 13c0
00000290: 8889 5abf 96ba 783f 45a7 12be 6566 52bf
000002a0: 5b80 cfbf 954a f0bd cc48 b8bf 65eb b3bf
000002b0: 9c9d ae3e 91d6 f73e c881 c0bf cb4d 033f
000002c0: 9d1a b13e 13a1 9abe 361e e4be 9220 95bf
000002d0: 28f0 86bf 5881 503e ab9f 62bf a937 0ec0
000002e0: 973d d4be 6af2 90bf 6128 94bf 2c8e 3bc0
000002f0: 2122 9540 c3f3 83bf bc86 d23f a218 c0bf
00000300: ce90 54bf c683 92bf c9b7 5cbf f975 843e
00000310: eec6 8040 341a 03c0 86b1 733d 7002 14be
00000320: 1cad c5bd 1361 41bf e5eb 0dc0 8540 f53e
00000330: 12d3 853f 82bc 4ebe acca 84bf e7a5 38bd
00000340: c5d7 b9bf f4d3 353f ca06 b5be cf08 2f3f
00000350: eee5 1f3f 916e 8cbf c41b 6bbe 1d00 3540
00000360: 0438 0f3f 9d1f 1a3f 9d1a 213f a75c ac3e
00000370: 94d4 a93e 3cb2 133f 2041 7ebf d7ee b03f
00000380: 599f cf3e 31fe b8be 0c36 b6bf 97b8 953f
00000390: de30 05bf 4eff 71be 4461 33c0 07ea 213e
000003a0: e464 e43e 417d 2c40 6529 42bf 1617 3abe
000003b0: 5ea9 2dbf b887 60bf 4b88 16bf 269e 3840
000003c0: 566b e43f 478f bebe cbdb c8bf 5854 fbbd
000003d0: 142c 7d3f d4de fa3e c4ec bf3e d704 ccbe
000003e0: 84ed c73e d81a 0040 835d 4ebe dfb0 54be
000003f0: 4716 9b3f c6cc 21bf 4554 6a3e 1214 bb40
0.4091987 -0.6846643 -0.36226556 0.53568685 -0.31628838 -0.32163504 0.40926176 0.43582308
-0.44306865 -0.42129943 -0.7704582 -0.63663155 0.4504323 -0.3862108 -0.27052158 0.50126374
0.38703644 -0.5430838 -0.33149835 0.37223023 0.41256505 0.40347868 -0.51125026 -0.25822347
-0.2158749 -0.36971164 0.39539146 0.436167 0.360282 0.42337084 -0.32439947 -0.3999473
-0.63596994 -0.25855651 0.41356778 0.42807627 0.4061566 -0.4258004 -0.3939847 -0.44334432
-0.37663382 -0.77076054 -0.3359394 -0.33923423 -0.53242356 -0.32841223 -0.30202523 -0.39742342
-0.71950716 0.4339168 0.48023954 0.36391842 -0.77344567 -0.35049894 -0.68776375 -0.33902732
-0.667702 0.4059196 -0.38637283 0.38524073 0.4248594 -0.43834713 0.3910848 -0.707515
-0.68755454 -0.33251885 -0.1784451 -0.74468094 -0.5595384 0.38535404 -0.6641669 0.4191426
-0.40444624 -0.5467088 -0.6827192 0.3970359 -0.6060444 0.3865168 0.4800143 -0.34225062
-0.6780421 -0.38625827 0.39072746 0.37995863 -0.4446707 0.41513562 -0.6657133 0.28166208
-1.8443942 0.65331537 -1.0557014 -1.535288 -1.593348 0.52082086 -0.19430469 0.27155563
-0.38307628 2.8122115 -2.0681295 -1.139222 0.015957763 -1.093022 -0.03975737 -1.8581868
-0.87467146 0.36860618 -0.68909925 0.17494321 -0.39858198 1.6195669 0.16678217 0.726837
0.15348983 -0.19841225 -0.06984694 0.7220028 -1.5452353 -1.2351066 0.41824815 -0.5274465
-1.4886423 -0.35140267 0.14103939 -0.51722634 -2.8520117 -0.11879 0.30299228 -0.1706953
1.1352708 -0.8088563 0.190984 0.29171446 0.120864116 -1.063054 -1.2956696 2.192753
-0.52010214 -1.7946299 -2.3054662 -0.52035254 0.52677476 -1.5438536 0.23917435 -1.324499
-1.1624347 0.49050528 0.17350486 -0.9018225 -0.3276516 0.5745314 -1.9507731 -1.0609555
1.457202 -0.10686309 0.33749676 0.8370246 -0.6260587 -0.49243495 -0.04792782 0.02772458
1.025371 -2.4838638 -0.07797656 -2.3019443 -0.85366106 0.9715971 -0.14321621 -0.8218749
-1.6211046 -0.117329754 -1.4397216 -1.4056212 0.3410462 0.4840589 -1.5039606 0.5129058
0.34590617 -0.30201015 -0.445543 -1.1650565 -1.054204 0.2036184 -0.88524884 -2.2221472
-0.4145324 -1.1323979 -1.1574823 -2.9305525 4.660416 -1.0308765 1.6447368 -1.5007517
-0.83033454 -1.1446464 -0.86217934 0.25871256 4.0242834 -2.0484743 0.05949547 -0.14454055
-0.096521586 -0.7553875 -2.2175229 0.47900787 1.0455039 -0.20189098 -1.037435 -0.04508009
-1.4518973 0.7102654 -0.35356742 0.68372816 0.6246022 -1.0971242 -0.2295981 2.828132
0.5594485 0.6020449 0.62931234 0.33664438 0.33169997 0.5769384 -0.9931812 1.3822888
0.4055126 -0.36131433 -1.4235244 1.1696957 -0.5202769 -0.23632547 -2.8028116 0.1581193
0.44608223 2.695145 -0.75844413 -0.18172869 -0.6783656 -0.8770709 -0.58801717 2.8846526
1.7845256 -0.37218687 -1.5692075 -0.12271947 0.9889538 0.4899813 0.37485325 -0.39847443
0.39048398 2.0016384 -0.2015286 -0.20770596 1.2116174 -0.63203084 0.22883709 5.8462

v.v_net.0.bias f4 [64]
00000000: 680e 31c0 0d1a 4ec0 8a6a 5f3f 71c2 49bf
00000010: 3564 6d3e 2db8 833f 875b 45c0 1518 05be
00000020: 1575 41c0 2648 963c 1580 34be e64b 0540
00000030: 905a 4bc0 ea4e f2bf ee93 0f40 acd1 23c0
00000040: 8dfd 193f b029 e93f fe95 1bc0 43f9 5f40
00000050: 9ccf b43f 2c0f 97bf a388 3840 edee 3640
00000060: 121a 533f b548 7abf d37e ef3f d233 ff3f
00000070: 228e 2ec0 0632 f8bf f037 1c40 96c0 813e
00000080: db56 983f ef43 bfbf bc15 98bd 5198 32bf
00000090: b78f 52be e8d8 cf3d 700b c83e 7344 31c0
000000a0: e7e2 41c0 debc b73e 41e9 683d 7098 4240
000000b0: a2e2 f9bf 0e24 35bd 4e3c dfbf 7631 2640
000000c0: 76cc 913d c085 a3bf b086 07c0 dba9 f43d
000000d0: 41cc 85bf f3ed 6cbf d536 8a3f 9aa1 dc3f
000000e0: a2db 48c0 c3d0 783f 7af9 4e3f fef0 44bf
000000f0: a5be 13bf 0821 153f c93a 4d3f 4934 5940
-2.7665043 -3.22034 0.8727194 -0.7881232 0.23182757 1.0290581 -3.0837114 -0.12997468
-3.0227711 0.01834495 -0.17626984 2.0827575 -3.1774025 -1.8930333 2.243404 -2.5596724
0.6015251 1.8215847 -2.4310298 3.4995887 1.4125857 -1.1801505 2.8833396 2.8583329
0.82461655 -0.9776719 1.8710579 1.9937689 -2.727425 -1.9390266 2.4409142 0.25342244
1.1901506 -1.4942607 -0.074260205 -0.69763666 -0.20562635 0.101487935 0.39071226 -2.7698028
-3.029474 0.35886282 0.056863073 3.040554 -1.9522288 -0.044223838 -1.7440279 2.5967689
0.07119076 -1.2775192 -2.1175957 0.1194646 -1.0452958 -0.9255058 1.0797983 1.7236817
-3.1384053 0.97193545 0.8084942 -0.76930225 -0.57712775 0.58253527 0.80167824 3.3938162

v.v_net.2.weight f4 [64, 64]
00000000: 2dbc 3e40 f5a9 f1c0 d6cb c8bf e621 bebf
00000010: 7442 75c0 c6f9 8ebe 25a8 5e3f 2294 b840
00000020: c84b 2840 a0c8 933f 7d20 00c0 ce8e 3340
00000030: 05f5 4240 68ae 9fbe 5882 9dbf 3335 ed3f
00000040: 3161 07c0 3f19 1340 dd36 21c0 e3e2 6fbe
00000050: 2ef9 a5be 5ffc 9840 6c80 bfbf 159a 9a3e
00000060: 9b6d 6ebf 79c7 2640 025e 153f 8e4e 46c0
00000070: 976b 40bf 0d8c 6e3f 95d3 573e fab7 69c0
00000080: d717 763e e7d6 da3f 7458 2240 c6b2 b73e
00000090: b2c8 323f 7cb5 453d f9e4 55c0 eb17 353e
000000a0: d044 c8be bfa2 dac0 5499 e93f 7205 b2bf
000000b0: 716e 4340 c219 d5bf 2abf d83f 764e 49bf
000000c0: 6cdf be3e e15e 913e 570b 58bf 309a d53f
000000d0: 27f5 7540 79ab 2b3f c877 22c0 d18a 12bf
000000e0: 2fc2 193f d293 bf3e 8f11 0cc0 43ee 4fc0
000000f0: 64e4 4cbf 1fa6 97bf 10b5 27c0 1615 f13f
00000100: 77c0 b1bc f24f 01bf 6fc4 24bf b532 08c0
00000110: 333d 8fc0 50fc 0c3d 4151 1b40 2ab0 1bbf
00000120: ac61 2140 97a9 bd3f bd54 a6bf 6f14 0340
00000130: fbeb 2640 23db 5ebf 1bca 26bf d4f9 963f
00000140: 0b31 ef3e ba60 dc3f 9152 733e 3180 71bf
00000150: 5a71 a13f 4207 61be e593 25bf 5d7c 85c0
00000160: 2404 b2bf 9728 023f 8162 ea3e 3be7 38bf
00000170: d784 5b3f 9a1d c03f 26a7 1f3f 67b0 04c0
00000180: 3858 eabd d778 05c0 29f2 663f 4ef4 4040
00000190: 6b80 c03f 5e17 6abf 4040 73bd 0234 1040
000001a0: 8021 7f40 d0be 6fbf d5e2 24c0 5445 96c0
000001b0: bd96 d13f 0b9f 243f 1211 2dbf 349a 24bf
000001c0: 8c0d 663f d8db 903f e42e c33f c002 0f40
000001d0: e741 e43e 2068 7d40 9807 1f40 fd38 c6bf
000001e0: 628b 5c3f debf cdbd 82a0 cdbe d16a 95bf
000001f0: 1306 91c0 643c bdbe b69e 15c0 67b8 a03f
00000200: 60fd 84c0 c5c9 633f 44f6 2d3f 87ac 0540
00000210: 3d69 bb3f 8f0d 05c0 f722 3bbf 4d79 10c0
00000220: 8b1d 7abf 1584 d0be f71c f3be bd75 3dc0
00000230: f584 7fbf c2cd 89bf 10c5 803f 5ef5 5dbe
00000240: f851 933f 0708 85be 25ee c23f 137e fc3f
00000250: 4063 dfbf 5665 1440 2bc4 e33f a311 8040
00000260: 837e fbbd c48e 07c0 a90a 7d3f 0b50 a13d
00000270: ba69 0c3f 6b35 1bbf cb69 d0be 93b4 2740
00000280: 364b 8abf 71cd 6bc0 8918 a2bf 7426 f2bf
00000290: 9786 77c0 9b0d d83e 5544 9840 4df4 193d
000002a0: 78ab dcbf a926 50bc 7043 0c40 5293 cf40
000002b0: b9c4 36bf 05d9 03bd 0244 8c3e 7b11 a33f
000002c0: f783 38bf 692a d2bf 9b59 21bf 6263 d83d
000002d0: ed09 27c0 0f1d dabe 00e6 c43f 4724 d13f
000002e0: 034e 17bf abb1 80bf d69f 0b40 d322 7d3f
000002f0: 269e f43e 65a0 7140 e210 2840 be56 963e
00000300: e389 8f40 b230 06c0 53de 25c0 6017 863f
00000310: fb95 763f 41de ed3f e3c1 07be 1ced 1340
00000320: c8fd c93f 1758 243f 85ab ddbf 90eb 4f40
00000330: 6795 0f40 1baf 833f c726 bfbe d735 f83e
00000340: a989 a83f 6e48 973f db14 79bf e305 453f
00000350: abc7 623e c21e 1940 0729 0fbe ed42 81bf
00000360: 7e2b f43f dbcf 0b3f 1b68 1340 2c37 e73e
00000370: bf8d 09c0 8859 2b40 36e5 24bf 7b74 9dbf
00000380: 0228 14bf 5023 7b3f 3cca b73f a510 b83f
00000390: 8def f8bf 2916 92bf 4197 44c0 1f20 85bf
000003a0: fd40 9cbf c204 63c0 ff2a 823d 2723 86bf
000003b0: 67ea b73f d026 91bf 9003 97bf e435 3b3f
000003c0: c38d 3440 78cd 073f 28e0 873f 589a 1540
000003d0: 3f0c 9240 56ea a73f 8834 85be a557 babe
000003e0: 9fb6 f83e 7c9b 1fc0 2db3 11be b794 0dc0
000003f0: 3074 29bf 6c88 bcbf eaf1 9dc0 b0a0 493e
2.9802353 -7.5519967 -1.5687206 -1.4854095 -3.832181 -0.27924937 0.8697532 5.7680826
2.6296253 1.1545601 -2.001983 2.805591 3.0462048 -0.3118775 -1.2305403 1.853186
-2.115307 2.298416 -2.5189736 -0.23426394 -0.32416672 4.780807 -1.4961066 0.3019568
-0.93135995 2.6059248 0.5834657 -3.0985446 -0.7516417 0.9318245 0.21076806 -3.651854
0.24032532 1.7096833 2.5366488 0.3587858 0.69837487 0.04826878 -3.3421004 0.17684905
-0.39115 -6.8323665 1.8249917 -1.3907912 3.0536158 -1.6648486 1.6933339 -0.78635347
0.37279832 0.283927 -0.84392303 1.6687679 3.843088 0.6705852 -2.5385609 -0.5724307
0.60061926 0.37417465 -2.1885717 -3.2489173 -0.80035996 -1.1847571 -2.6204262 1.883456
-0.02169822 -0.5051261 -0.64362234 -2.128095 -4.4762206 0.03442031 2.4268343 -0.6081568
2.5215864 1.481738 -1.299461 2.0481222 2.608153 -0.87053126 -0.6515214 1.1794991
0.46717104 1.7217019 0.23761965 -0.9433623 1.2612717 -0.21975425 -0.64678794 -4.171431
-1.3907514 0.50843185 0.45778278 -0.7222783 0.8574957 1.5009034 0.62364423 -2.0732667
-0.11442608 -2.0855005 0.9021326 3.0149112 1.503919 -0.91441905 -0.059387445 2.2531743
3.9864197 -0.9365053 -2.5763447 -4.695963 1.6374127 0.6430518 -0.6760417 -0.64297795
0.8986442 1.1317091 1.5248685 2.2345428 0.4458153 3.9594803 2.4848385 -1.5486141
0.8615018 -0.100463614 -0.4016152 -1.1673223 -4.5319915 -0.36960137 -2.337812 1.2556275
-4.1559296 0.8897975 0.67953897 2.0886552 1.4641491 -2.0789526 -0.7310023 -2.2574036
-0.9770133 -0.4072577 -0.47483036 -2.9603112 -0.9981225 -1.0765917 1.0060139 -0.21675631
1.150939 -0.25982687 1.5228926 1.9725975 -1.7452164 2.318685 1.7794241 4.002153
-0.122799896 -2.1180887 0.9884439 0.07876595 0.54848826 -0.60628384 -0.40705714 2.6203964
-1.0804203 -3.6844141 -1.2663738 -1.8917985 -3.8675897 0.4219788 4.7583413 0.0375865
-1.7239828 -0.01270453 2.191616 6.4867334 -0.71393925 -0.032189388 0.27395636 1.273971
-0.7207636 -1.6419193 -0.6302735 0.10565831 -2.6099808 -0.42600295 1.538269 1.6339196
-0.5910341 -1.005422 2.1816306 0.9888126 0.47776908 3.7754147 2.6260304 0.29363054
4.485582 -2.0967221 -2.5916946 1.0475883 0.963226 1.8583452 -0.13257556 2.311347
1.5780573 0.64196914 -1.7317969 3.2487526 2.2434938 1.0287813 -0.37334272 0.48478577
1.316701 1.1818979 -0.9729745 0.7696211 0.2214648 2.3925023 -0.13980494 -1.0098549
1.9075773 0.5461404 2.303229 0.4515928 -2.1492765 2.6773396 -0.6441225 -1.2301172
-0.5787355 0.9810076 1.4358592 1.438008 -1.9448105 -1.1413013 -3.0717318 -1.0400428
-1.2207333 -3.5471654 0.06355857 -1.0479478 1.4368409 -1.133997 -1.1797962 0.73129106
2.8211524 0.53047895 1.0615282 2.3375454 4.563995 1.3118389 -0.2601664 -0.36394992
0.4857683 -2.493865 -0.14228506 -2.2122018 -0.66192913 -1.4729133 -4.9357805 0.19690204

v.v_net.2.bias f4 [64]
00000000: 26a7 43bf e0dc 56bf b255 b53f 803f 84bf
00000010: 9ecf 60bf 90eb 94be 0c8c 413f 899d 8ebe
00000020: 598f 963f 8d6a 193f f74a a7bf 5069 503f
00000030: 299c d6be 4826 053f 143c 71bf 455f 9b3d
00000040: c967 33bf 1c8c d73e 16c6 1e3e 7944 0640
00000050: d2af 72bf ce0b a9be c14e 9f3e d910 67bf
00000060: 79ca 8e3e 2b6d 7dbd 0bbe 74bf 65b8 e53e
00000070: 266d c0be 8370 57be f99c 813f 0b42 70bf
00000080: 6aa9 b63e 4ac2 f0be 85de acbf 9bd9 1a3d
00000090: 2d07 4abe ea64 79bf 97e7 7f3f 8bf3 733e
000000a0: 4c01 30bf 0c65 4cbf c7fb 553e 57ef 0ebc
000000b0: 9ff5 6cbd 7980 6abf 7fcf 8b3f 940a 7c3e
000000c0: 61a0 0dbf f3eb 683f 0491 36bf 85a6 073f
000000d0: aef9 9bbf 62cd 2bbe 407b 883f 1815 2b3f
000000e0: 4a0c 87bf 5211 b23f 2fb8 273f bf74 0bbe
000000f0: 5afc b23e 6522 6a3f eada 7dbf 97e7 a3bf
-0.76426923 -0.8393078 1.4166777 -1.0331879 -0.878168 -0.2908597 0.7560432 -0.27854565
1.1762496 0.5992821 -1.3069752 0.81410694 -0.41916016 0.5201154 -0.94232297 0.075865306
-0.7008024 0.42099082 0.15505251 2.0979292 -0.9479953 -0.3301682 0.31114772 -0.9026008
0.2788885 -0.06187169 -0.9560248 0.44867244 -0.37583274 -0.21039014 1.0126029 -0.93850774
0.35676128 -0.4702323 -1.3505408 0.03780518 -0.197293 -0.9741961 0.99962753 0.23823373
-0.6875198 -0.79841685 0.20896827 -0.008724055 -0.05785143 -0.91602284 1.0922698 0.2461341
-0.55322844 0.9098503 -0.71315026 0.52988464 -1.2185571 -0.16777566 1.0662613 0.6682906
-1.0550625 1.3911536 0.65515417 -0.13618754 0.34958154 0.9145873 -0.9916216 -1.2805051

v.v_net.4.weight f4 [1, 64]
00000000: 7fdc 1940 499a 2bc1 23d6 51c0 2401 01c1
00000010: 45d8 cec0 bfeb fd40 64cf 0841 de4f d340
00000020: 70f3 fc40 d1bc d4c0 8141 43c0 e242 c1c0
00000030: cef3 9440 65df 0041 9e0a d7c0 8364 94c0
00000040: 83df c9c0 a9df a940 ae71 a940 56dc 8540
00000050: cdf1 bfc0 06d1 cec0 53dc 5cc0 42dd d23f
00000060: dff5 e2c0 a2cf f540 98a8 fbc0 7bfd 8f40
00000070: 552f d3c0 d037 d6c0 7643 f140 a7c9 8dc0
00000080: 4948 e6c0 6fc1 f540 a375 2c40 7459 e540
00000090: 55c4 c9c0 d418 fcc1 59e8 6840 8eb5 cec0
000000a0: 1e15 13c1 02eb ffc0 6947 c340 ae1d bfc0
000000b0: e322 cd40 2df6 1bc1 e69e 0241 947a bbc0
000000c0: 7998 11c1 67c3 c840 44d8 ddc0 4213 1c41
000000d0: d789 09c1 9c72 bfc0 3a62 1241 73ef 87c0
000000e0: fa0e fec0 48ff 0341 ad8b bdc0 2ce3 b540
000000f0: 3bfb e840 7fb5 a2c0 bbe0 d340 cae9 e3c0
2.404083 -10.725167 -3.2786949 -8.062778 -6.4639 7.9350276 8.550632 6.6034994
7.9047165 -6.648049 -3.050873 -6.0394144 4.6547613 8.05454 -6.720046 -4.6372695
-6.308534 5.3085523 5.295127 4.1831465 -5.9982667 -6.4630156 -3.4509475 1.6473773
-7.0925136 7.681596 -7.8643303 4.4996924 -6.599528 -6.694313 7.539485 -4.430866
-7.196324 7.6798625 2.69468 7.1671696 -6.3052163 -31.512123 3.6391814 -6.4596624
-9.192656 -7.9974375 6.102467 -5.972373 6.4105086 -9.7476015 8.163794 -5.858713
-9.099725 6.273853 -6.9326496 9.754702 -8.596152 -5.9827404 9.148981 -4.2479796
-7.939328 8.249825 -5.9233003 5.683981 7.280668 -5.0846553 6.621183 -7.1222887
