model_wts/s4_d2_m0.0_b1.0.ckpt (torch, 206875 bytes, 11 tensors)

pi.logits_net.0.weight f4 [64, 282]
000000 0c 3c 98 bd e1 10 05 3e 55 0b 05 3d bb 59 89 be
       -0.07433328 0.1299472 0.03248151 -0.2682627
000010 54 1d ff bd eb 0c 03 be 3f 31 b9 bb cd 45 78 bc
       -0.12456766 -0.12797897 -0.0056516225 -0.015153361
000020 ef 17 c3 3d fc 99 e4 be 6a f8 ea 3d 1b 29 b6 3d
       0.09526049 -0.4464873 0.114731625 0.08894559
000030 77 3e fb bc cf b5 9f 3d 24 fc 7c bd e7 48 4b be
       -0.030669434 0.07798349 -0.061763898 -0.19852029
000040 43 07 4d bd e6 a4 b0 3d 51 14 b6 bd af 61 37 be
       -0.050055753 0.08625202 -0.08890594 -0.17908357
000050 62 68 a1 bd 36 85 af bd b6 0b 00 3e 1b fa 8f bd
       -0.078812376 -0.0857033 0.12504467 -0.07030126
000060 7c f0 59 3d 7f ac b0 3d 60 17 c1 bd ae b9 d7 bd
       0.05320786 0.08626651 -0.094282866 -0.105334625
000070 2d c1 3c bc 2a 7a d9 bd 9a 46 bf bc 12 a5 fd 3d
       -0.011520666 -0.10619004 -0.023349095 0.12385
000080 d1 0a cb 3d b1 c9 15 bd e0 75 8d bd fc c0 c8 bd
       0.099141724 -0.0365693 -0.069072485 -0.09802434
000090 ee 5d b3 bd 59 9a f9 3d 0f 51 92 bc af 57 c6 3d
       -0.0875815 0.121876426 -0.017860917 0.09684693
0000a0 25 9f cb 3d 6a bc 38 3e a0 86 08 3e 32 13 32 3d
       0.09942464 0.18040624 0.13332605 0.043475337
0000b0 7c bc b3 3d 82 6d 06 3e c9 15 0a bd 11 23 c0 bd
       0.08776185 0.13127711 -0.033712182 -0.093816884
0000c0 9d c2 ed 3d 25 21 d7 bb 25 4c 25 be 90 a8 30 bd
       0.11609385 -0.0065652304 -0.16142328 -0.043129504
0000d0 84 f4 2e 3e 82 d6 c4 3c 3b fa 81 3d 4b db 3c bd
       0.17085463 0.024028067 0.06346556 -0.04610757
0000e0 7e c7 1b 3e 86 1b 92 bd b7 33 b5 3d d8 78 ab bd
       0.15212819 -0.07134156 0.088477544 -0.083726585
0000f0 db 70 2a be 2a f8 ee 3d 53 48 f9 bd 58 4b 33 3e
       -0.16644613 0.11668427 -0.12171998 0.1750921
000100 6f 78 04 3e 45 81 f1 3d fe 58 18 3b 32 c5 c2 3d
       0.12936567 0.11792234 0.0023246403 0.09510268
000110 a8 a0 ed 3d f8 5a 97 bd 21 a0 06 3e 80 93 ee bd
       0.116029084 -0.07390398 0.13147022 -0.11649227
000120 a8 22 51 3d c4 e9 b2 3d ee d9 d4 3d 5f 9c 5f bc
       0.05105844 0.087359935 0.10393129 -0.013648122
000130 9a 5a 20 3e 6f 28 23 bd ac ce 80 be e0 70 06 3d
       0.15659562 -0.039833482 -0.25157678 0.03282249
000140 3c 8c 18 3e 15 dc 31 bc 23 0a 1b bd 1f 56 30 be
       0.14897245 -0.010855694 -0.037851464 -0.17220353
000150 7f 5b 9b 3d d6 d3 a1 bd 2c 45 32 3e 14 8a 06 bf
       0.07585811 -0.079017326 0.174092 -0.5255444
000160 ae 27 c4 be 29 7c 02 be 21 43 96 bf 74 1d 06 be
       -0.38311523 -0.12742676 -1.1739236 -0.13097173
000170 16 3b a3 be 61 cb 06 bc 66 47 e2 bd 75 d8 a0 bc
       -0.31881016 -0.0082272 -0.110487744 -0.019634465
000180 f6 15 48 be 04 83 b4 3d c0 4d d3 bc 04 29 74 be
       -0.19539627 0.08814052 -0.02579391 -0.23843771
000190 37 37 0d bf 35 94 18 bf bc d2 7d 3e 59 19 06 bf
       -0.55162376 -0.59601146 0.2478742 -0.5238243
0001a0 d2 af ef be 79 39 32 3d 9e bd 16 bf 39 d3 ce be
       -0.46813828 0.04351184 -0.5888308 -0.40395525
0001b0 cf 23 23 3e 27 31 24 bf 2c 07 cf 3d c9 9e 4b 3e
       0.15931629 -0.641375 0.1010879 0.1988479
0001c0 9c 93 b7 be db 00 85 be 5b db 71 be 36 36 20 be
       -0.35854805 -0.25977215 -0.23618834 -0.1564568
0001d0 03 bc 1d be b5 ef af be a6 b0 b6 bd 40 8f b1 be
       -0.15403752 -0.3436257 -0.08920412 -0.34679604
0001e0 1a 37 90 be c9 15 ce be 5b 36 fb 3d f0 e4 72 3e
       -0.2816704 -0.40250996 0.12266227 0.23720145
0001f0 4a 0a a8 be 71 bb 8d be a3 40 f7 3d 16 1e 38 3e
       -0.3282035 -0.2768207 0.12072875 0.17980227
000200 26 89 ac be c2 28 c6 3d 20 fc 44 be 39 b4 4e bd
       -0.33698386 0.09675743 -0.19236803 -0.050464842
000210 1c 31 4d be 89 71 b2 3c 00 d3 74 3e 20 80 08 bd
       -0.20038265 0.021782653 0.23908615 -0.033325315
000220 5e b8 38 be 10 ba 4e be b0 7e ef bd 0c a7 99 be
       -0.1803908 -0.20188165 -0.116940856 -0.3001026
000230 30 74 f9 3d bd 5e 82 3e 94 3d 33 be 12 c6 8c 3e
       0.12180364 0.25462905 -0.17503959 0.27494866
000240 26 d2 8f be f0 a9 eb bd 04 43 b8 be 80 2a e7 be
       -0.28090018 -0.115070224 -0.3598863 -0.45149612
000250 9c 79 9a 3e 63 66 3e bd f0 df d5 bd bf 19 d1 bc
       0.30170906 -0.046484362 -0.10443103 -0.025524972
000260 30 88 d9 be 35 6c d0 3d d4 11 37 3c fc 65 30 bf
       -0.42486715 0.10176889 0.011173684 -0.68905616
000270 54 61 00 bf 1d 66 d5 3b e1 df 40 bc 82 6e bf bd
       -0.5014851 0.006512417 -0.011772127 -0.093472496
000280 f3 97 24 3d 7f d5 69 bf bd ce 57 bc 29 23 7e be
       0.040183973 -0.91341394 -0.013171849 -0.248181
000290 f8 ee 27 be 2b 2f ec be 7c 7b d3 be 14 49 9d be
       -0.16399753 -0.46129736 -0.4130515 -0.30719817
0002a0 a3 2a bc bd af d9 6c be 15 7c 4e be 3d 29 a5 be
       -0.0918782 -0.23129915 -0.20164521 -0.32258025
0002b0 68 50 59 be 52 31 b6 3e 4a 9d c0 be 9e 7f 10 3f
       -0.21222079 0.35584503 -0.37620002 0.5644473
0002c0 fc 65 15 3e e3 26 de 3e 0e ea 0a bc f4 4f 0a bf
       0.14589685 0.43389043 -0.008478655 -0.5402825
0002d0 71 a1 b8 3e 6b d3 3f bd 76 41 f1 3d 4a f8 82 bd
       0.3606067 -0.046832483 0.11780064 -0.06395014
0002e0 f2 53 c9 be 7a ab 1a 3f 69 10 22 3e 23 c6 82 3f
       -0.39321858 0.604179 0.15826572 1.0216717
0002f0 2b ce aa be 01 4e 41 bc ba cd 5e be 43 b2 a0 3e
       -0.3336042 -0.011798383 -0.21758166 0.31386003
000300 c8 52 c8 3e 18 4b 13 be 49 85 01 bf bb b7 04 3d
       0.39125657 -0.14384115 -0.50594 0.03240178
000310 c3 99 ef 3d 31 73 01 3d 89 ec fa 3e 45 02 b8 bc
       0.116992496 0.031603996 0.49008587 -0.02246202
000320 2f 86 a2 bd 52 c5 a5 bd 73 2a d8 be b4 db f4 3e
       -0.0793575 -0.080942765 -0.42219886 0.4782387
000330 27 9d ba be 11 25 c8 3e d7 d6 59 3f ca 35 80 bf
       -0.36448023 0.3909078 0.85093445 -1.0016415
000340 41 07 10 3f 64 33 25 be f4 fb 67 be 9c 12 16 3f
       0.5626107 -0.16132885 -0.22654706 0.58622146
000350 e8 82 b6 be a9 18 d1 3e e9 4f b5 3c 61 7a d4 be
       -0.3564675 0.40839127 0.02213283 -0.41499618
000360 e7 7a 15 3f 20 36 57 be ab 18 6e be 67 7f 5d 3c
       0.5839066 -0.21016741 -0.23251598 0.013519145
000370 7f 28 92 be 4c 65 3c bf ce f9 58 be f4 c9 c0 3e
       -0.2854652 -0.73592067 -0.21189043 0.37654078
000380 dd aa 5a 3d 49 ee 31 3f cd a7 ff be 8c 08 b2 bd
       0.053385604 0.6950422 -0.4993271 -0.086930364
000390 c5 4e 92 be fd ee fc 3e ba a7 4a be cb 37 e6 3e
       -0.2857572 0.49401084 -0.19790545 0.44964442
0003a0 ec b1 b1 3e 0c bd 2b 3f 26 5b 92 3e c9 1d 82 be
       0.34706056 0.6708534 0.28585166 -0.2541335
0003b0 7b de 77 bf 23 6b fb 3b 3f e9 dc 3d 36 71 f5 3e
       -0.96823853 0.007672684 0.10786676 0.47937936
0003c0 28 49 1a be 80 15 4b 3f 71 2c 21 3d af 7b 3e 3e
       -0.1506697 0.7932968 0.039349023 0.18601869
0003d0 e4 f5 f7 bb 6f 4e 65 bf 91 ab 95 3e 8d a3 36 3f
       -0.0075671542 -0.89572805 0.29232457 0.7134331
0003e0 7f 71 0a 3f ca 6f b7 bd c3 0c fa bd ae ad 01 bf
       0.5407943 -0.08956869 -0.12209465 -0.5065564
0003f0 4e b2 d4 be b5 f5 ec 3d 86 2c a3 bf 23 cf 2f 3d
       -0.41542286 0.115703024 -1.2747962 0.04292215

pi.logits_net.0.bias f4 [64]
000000 0e 06 34 3d c7 e5 0a 3d 7b 9e ef bc fd b6 14 3e
       0.043951087 0.03391054 -0.029250374 0.1452293
000010 91 10 4e 3d 7f b9 c8 3c 8d de 2e 3e eb 23 45 bd
       0.050308768 0.024502514 0.17077084 -0.048129957
000020 6c 29 3a be f0 b3 69 be 75 07 3e bd 28 05 38 be
       -0.18179864 -0.22822547 -0.04639383 -0.17970717
000030 79 5f df bc b5 70 54 3e 87 22 b8 3e 7d f3 1c 3d
       -0.027267205 0.2074612 0.35963842 0.038318146
000040 e5 bc bd be 62 40 21 3e 46 0f bc be a6 95 4c 3e
       -0.37058178 0.15747216 -0.36730403 0.19978961
000050 f4 ef d6 3d dd 3d 20 3e d0 a1 08 3e de 6f 22 bd
       0.10494986 0.15648599 0.13342977 -0.039657466
000060 32 76 15 3d a3 a3 5d be 5c 1b da 3d a5 8c f2 3c
       0.036489673 -0.21644454 0.1064975 0.02960808
000070 8c f4 80 3d cd 7c a4 3e fc 2a 85 3e fa 82 25 3e
       0.062966436 0.32126465 0.26009357 0.16163245
000080 5e f9 6e 3e 50 ee c6 3b c8 cb c6 3c f1 82 00 be
       0.23337314 0.0060708895 0.024267092 -0.1254995
000090 fd 35 b8 be 64 5a 6f 3d 92 05 a8 3d 95 3a ab 3c
       -0.3597869 0.058435813 0.082041875 0.020901958
0000a0 c0 a7 da bd d4 57 88 be 68 e9 ba be 05 9c 8b bc
       -0.10676527 -0.26629508 -0.365062 -0.01704217
0000b0 38 9a 84 be 7a 27 38 3d 11 08 0f 3e 1f b1 cd 3c
       -0.2589891 0.044959523 0.13967921 0.025108872
0000c0 ba 0d 81 be b8 ff b5 3d 36 85 4a be 8b 22 92 3d
       -0.25205785 0.08886665 -0.19777378 0.07135495
0000d0 7b cc 99 bd 99 2a bb be d9 e7 d9 3c bd a2 1c be
       -0.07509705 -0.36555937 0.026599811 -0.15296455
0000e0 42 aa 01 3e 37 05 28 be 22 6f aa bc bf a0 37 be
       0.12662604 -0.1640824 -0.020804945 -0.17932414
0000f0 6e 86 74 be 81 54 2f be 34 d8 7e bd 05 6c 22 bc
       -0.23879406 -0.1712208 -0.062217906 -0.009913449

pi.logits_net.2.weight f4 [64, 64]
000000 a8 76 56 3d 18 a7 11 3d d0 8d 6b 3f 2b 44 ee 3e
       0.052359253 0.035559744 0.92013264 0.46536383
000010 8f 51 6c 3c 65 46 ad be 0f 40 ae 3e 03 86 97 be
       0.014423742 -0.3384277 0.34033248 -0.2959443
000020 c9 17 1c 3f 47 7a 7e be 0c ca a7 3e 4a bf 17 bf
       0.60973793 -0.24851333 0.32771337 -0.5927626
000030 87 7f cc be 49 d5 0b 3f 0b f0 d3 bb 5c c7 55 3e
       -0.39941046 0.5462232 -0.0064678243 0.20876831
000040 73 a0 af 3e ab e8 df 3e b8 41 bb 3c 38 2d b1 bc
       0.343021 0.437322 0.022858486 -0.021628007
000050 74 45 b8 be 8a 79 54 3e e1 1a 1c bd 71 82 cf 3e
       -0.3599049 0.20749488 -0.03811157 0.40529206
000060 06 00 21 3f 29 54 82 3e 48 22 88 3e 64 f7 59 3f
       0.6289066 0.25454834 0.26588655 0.85143113
000070 68 64 d7 be 54 06 29 3e e8 19 16 3f bf 45 ca bd
       -0.4206879 0.1650632 0.5863328 -0.09876584
000080 27 a8 5d be 0f bc e3 3d 2d f9 19 3e 5f b7 d3 bc
       -0.21646176 0.11119854 0.1503646 -0.025844274
000090 a2 ea 29 3f 65 c7 6d be 27 bc 0a be 8d 4a 8f 3e
       0.66373646 -0.23220594 -0.13548337 0.27986565
0000a0 05 2a 54 bf db cf b1 3e 60 dc 8e be 88 c1 af be
       -0.82876617 0.34728894 -0.27902508 -0.3432734
0000b0 67 14 3e bf 11 ee c4 be f0 75 47 3e 7b 6e 40 3f
       -0.7424988 -0.3846288 0.19478583 0.7516858
0000c0 87 99 1a bf 92 e3 59 3e 8c 75 b4 bd e6 cf 11 3f
       -0.60390514 0.21278217 -0.08811483 0.5695785
0000d0 95 d8 c4 bd a4 dc 5e 3f ce ff a2 bd 54 73 2d 3f
       -0.09611622 0.8705542 -0.07958947 0.677541
0000e0 48 1d aa 3e 86 ed 76 bf e9 14 9b 3e 42 80 b8 3e
       0.33225465 -0.9645618 0.3028939 0.36035353
0000f0 e5 d8 14 3b f9 f8 a8 be 22 9e 07 3e 73 06 74 3d
       0.0022712287 -0.3300245 0.13243917 0.059576463
000100 a1 90 97 3d cd 25 0d 3f d6 92 33 be bc f4 54 3f
       0.07400633 0.55135804 -0.17536482 0.83185935
000110 a6 2a f5 be 4b 3c dd 3e 8e 88 97 3d ea e8 68 bd
       -0.478841 0.43210062 0.073990926 -0.05686275
000120 1c 3b c7 3c 00 82 a8 3d 69 78 37 3e 1a 88 91 3d
       0.024320178 0.082279205 0.17917027 0.071060374
000130 e2 03 40 3e a8 6f e1 be 32 2b 16 be 85 07 18 bf
       0.18751481 -0.440305 -0.14664915 -0.59386474
000140 20 61 bd 3d ce 5f bb bc 69 a7 ff 3e fe f8 e3 bd
       0.09247041 -0.022872832 0.4993241 -0.11131476
000150 fd 29 90 3e ff 58 29 bf 8b 91 35 bf 7b 3b 5f 3f
       0.28157035 -0.6615142 -0.70925206 0.87200135
000160 82 36 29 3f 8c 0d 82 3e bf 9b 03 be a8 41 83 3e
       0.660988 0.2540096 -0.12852381 0.2563603
000170 f8 08 f3 3d 9c ef 88 3e 0f 05 55 3f dd c9 8f be
       0.11866945 0.26745307 0.83210844 -0.28083697
000180 b9 e4 91 bd f7 a8 b5 3e a4 69 0e ba 78 70 8d bd
       -0.071237035 0.35480472 -0.0005432612 -0.06906217
000190 a5 9e be 3d b2 60 0b 3d 39 f8 65 be 7a a2 96 3d
       0.09307603 0.034027763 -0.2245797 0.07355209
0001a0 37 30 d3 be 4d 85 8e be b5 3b 8a 3e aa 98 7e be
       -0.41247723 -0.27836075 0.26998678 -0.24862924
0001b0 ed ef 41 3e 73 d8 09 bf 1d f8 29 bf 1d 9d 89 3e
       0.1893918 -0.538459 -0.66394216 0.2687768
0001c0 d1 56 cd 3d 1a 20 27 be 7e aa a1 bd 9a 24 b3 3e
       0.100263245 -0.1632084 -0.07893847 0.34988862
0001d0 7c e0 00 be be d0 d6 3e 0b 8d 0d be c0 cf 45 bf
       -0.12585634 0.41956133 -0.13823335 -0.77270126
0001e0 b6 41 ae be aa 47 bc be 32 9b 3b bf 64 cb e6 bd
       -0.34034508 -0.36773425 -0.73283684 -0.112692624
0001f0 e9 e4 e2 bd 95 e8 cf 3e a4 4e 3b be 10 79 9c 3f
       -0.110788174 0.40607134 -0.18291718 1.2224445
000200 9a 32 af 3e 64 a6 aa 3e c9 d1 1a 3e 7c 18 5b be
       0.34218293 0.3333007 0.15119089 -0.21396059
000210 28 9a bd be 3e 62 2d bf 4d 1e 96 3e c7 a8 a3 be
       -0.37031674 -0.6772803 0.29319993 -0.31964704
000220 08 be fa bc 0e 8e 34 be 7e 05 01 be ad c2 b4 bd
       -0.030608192 -0.17632315 -0.12599751 -0.08826194
000230 34 98 83 3e 66 4d 48 3e ce 80 de 3d 86 ea 92 be
       0.2570206 0.19560775 0.10864411 -0.28694552
000240 8c e6 62 be fe 39 0d 3f db 93 74 3e 33 65 79 3f
       -0.22158259 0.55166614 0.23884527 0.9742004
000250 28 c0 2a 3f f5 3d 1b 3f d2 54 a4 bd 8b 1d e6 be
       0.6669946 0.60641414 -0.08023991 -0.44944414
000260 b8 e4 be be 6d bd 3d bf 5f 44 91 3f fd 7e 41 3e
       -0.37283874 -0.74117166 1.134899 0.18896098
000270 e1 53 38 bd a3 f3 99 3e 82 49 d4 3e de 18 95 3e
       -0.04500187 0.30068693 0.41462332 0.29120535
000280 90 ab b9 3e 28 c9 8e be 2c 07 90 be 20 51 b5 be
       0.36263704 -0.27887845 -0.28130472 -0.35413456
000290 6f 52 59 be 22 64 f9 3d 73 72 92 be 20 6c 94 3e
       -0.21222852 0.12177302 -0.28602943 0.28988743
0002a0 c6 f6 a0 bd e2 8f 57 bf b6 be ef be 04 1c 9d be
       -0.07859568 -0.8420392 -0.46825188 -0.30685437
0002b0 3e 29 54 bb c8 76 2b 3d 36 b8 f6 3e 8f 7a 53 3e
       -0.0032373215 0.041861326 0.48187417 0.20652221
0002c0 5f 97 c0 bc 52 ba 66 be 4f b8 ef be 66 98 8d 3d
       -0.02350968 -0.22532013 -0.46820304 0.06913833
0002d0 94 b6 0a bf 47 cc 96 be 02 98 4d 3e da cd 47 3f
       -0.5418484 -0.29452726 0.20077518 0.7804848
0002e0 ce f0 d1 be e4 4c ff be b1 0c 45 3f 28 55 00 bf
       -0.41004032 -0.4986335 0.7697249 -0.5012994
0002f0 a0 82 a7 3d ea b0 09 bf b9 b1 9c 3d 85 24 14 bf
       0.081792116 -0.53785574 0.076510854 -0.57868224
000300 6a 53 03 bf 2f 94 3b bf d7 1b e2 3d 12 06 5b bc
       -0.51299155 -0.73272985 0.11040466 -0.0133681465
000310 f2 33 70 be ca b8 3d bf 89 2c ef be 55 6d 88 be
       -0.23457316 -0.7411009 -0.46713665 -0.26645914
000320 3e 3e 85 bf 7f 79 2c bf 42 da 37 bf d8 fa 2b 3f
       -1.040962 -0.6737289 -0.7181741 0.6717963
000330 19 58 63 be 17 62 52 bf b6 9a 94 bd d1 5c b4 be
       -0.22201575 -0.82180923 -0.07256071 -0.35227063
000340 89 95 32 3f e2 50 a6 3d 8c 76 a8 3e 05 36 70 be
       0.6975942 0.08120896 0.32902944 -0.23458107
000350 3c 0d ab 3d b2 c7 9e 3d 48 03 9a bd 69 0e ba bd
       0.08352134 0.077529326 -0.07520157 -0.0908478
000360 c0 62 46 3f 47 38 75 3e fb f6 1c 3e 26 02 0b 3f
       0.7749443 0.2394725 0.1532859 0.54300153
000370 2b b5 34 be 2a 65 da be 9f 56 1c be 0d e9 0a bf
       -0.17647235 -0.42655307 -0.15267418 -0.5426186
000380 88 bf 71 bb 58 12 0a be 2b fa 4b 3e db 20 39 bf
       -0.0036887843 -0.1348356 0.1991965 -0.7231576
000390 8d b4 59 bd 8a 82 f6 be 38 c1 2f bf 62 2a eb 3d
       -0.053150702 -0.48146468 -0.68654203 0.11482693
0003a0 dd 23 e6 3c 7e 3d f7 3e 5c 2c ca bd 78 eb 5f bd
       0.028093273 0.48289102 -0.09871742 -0.05466792
0003b0 be 69 02 bf 24 11 32 3f ff 50 70 3e bc e1 15 be
       -0.509426 0.69557405 0.23468398 -0.14636892
0003c0 35 c1 2d 3f 3a 7e 0e 3c 61 5f ba bd 86 28 43 bc
       0.67872936 0.008697087 -0.09100223 -0.011911517
0003d0 c0 f4 4a 3e 39 a9 bd 3e ce 50 85 3d 36 4d 47 3e
       0.19819927 0.3704317 0.06509553 0.19463047
0003e0 de d8 54 bd 4e c9 84 3e 31 3e 41 bf ac 31 7e 3e
       -0.051964633 0.25934833 -0.7548552 0.24823636
0003f0 6c 57 9b be af 2f 0c bf 1a ed 02 be 45 e8 c6 3d
       -0.30340135 -0.5476026 -0.1278576 0.09712271

pi.logits_net.2.bias f4 [64]
000000 4d 06 bb 3d df 0d 3f 3d 41 8b d9 3e d9 fd e5 3c
       0.09132061 0.046644088 0.42489055 0.028075146
000010 1a a0 8a bd cb b6 2d 3e 70 3c 3e be 6e fc 44 be
       -0.06768818 0.16964261 -0.18577743 -0.1923692
000020 e9 4d 01 be 06 c4 f7 3d 55 70 21 3d e8 5a 06 3e
       -0.12627377 0.120979354 0.03941377 0.13120615
000030 95 aa 2b bd af cf 7d be b1 a7 bf bd d7 57 c4 3d
       -0.041910727 -0.24786256 -0.093581565 0.095870666
000040 db 73 44 bf be 6d 88 3d 9f 9f 24 3e 38 d3 a1 be
       -0.7673928 0.06661557 0.16076516 -0.3160646
000050 ca 8b da be a9 86 36 be 8e 34 c9 3c 26 39 5d 3e
       -0.42684776 -0.17824806 0.024561193 0.21603832
000060 ed c8 4f 3e 48 43 0c be e0 fa b8 bc 2c 9c 8b be
       0.20291491 -0.13697541 -0.022580564 -0.27267587
000070 2b 34 3b 3e 1a ef be be c4 1c b4 3d 94 e4 c9 3e
       0.18281619 -0.37291795 0.08794549 0.39432204
000080 69 88 d7 3e dc f4 2e be f4 5c 26 3d 1e 54 bd 3e
       0.4209626 -0.17085594 0.04061599 0.3697824
000090 d1 87 17 bd 22 71 cc bd cd df 61 bf 80 74 59 3d
       -0.03699476 -0.09982516 -0.8823212 0.05308962
0000a0 09 c1 7d 3e e1 69 3b 3e e4 9b aa bb 92 46 e4 3e
       0.24780668 0.18302108 -0.005206572 0.4458509
0000b0 a2 68 d7 bd 01 a0 70 3c 93 c7 d5 3e 6f 06 3a be
       -0.10518004 0.014686585 0.41753826 -0.18166517
0000c0 3a cf 50 be 9f 0b 80 bd 6e 74 d7 3e 70 93 84 be
       -0.2039155 -0.062522165 0.42081016 -0.25893736
0000d0 93 f5 9f 3d 97 ac 05 bf 7c 61 8b 3d 06 9e 4e 3d
       0.078105114 -0.52216476 0.06805703 0.05044367
0000e0 91 ea 13 be cd d7 b4 3d 3d 4f 32 3e 83 90 15 3e
       -0.14444949 0.08830223 0.1741304 0.14605908
0000f0 ae 52 21 bd 80 ff f1 bd 83 1f a5 3d b0 1b 28 be
       -0.03938549 -0.11816311 0.08062651 -0.16416812

pi.logits_net.4.weight f4 [87, 64]
000000 10 63 38 3f 43 9b e2 bd 23 3b 8f 3e fc df fd 3c
       0.7202616 -0.1106477 0.27974805 0.030990593
000010 2d 01 8b 3e 7e 07 dc bd 7f 58 06 bf 69 07 9e be
       0.27149335 -0.107436165 -0.52478784 -0.30865029
000020 cd 9c 97 bf b3 30 e0 be 53 1e e4 be 96 f9 8f be
       -1.1844727 -0.43787155 -0.44554386 -0.28120106
000030 00 aa b6 be 23 2f 08 bd 06 3a ec be ba fe 37 be
       -0.35676575 -0.033248078 -0.46138018 -0.17968264
000040 99 e0 a1 be ba f7 72 be 7d 4c 27 3f d3 7f 2d bd
       -0.31616667 -0.23727313 0.65351087 -0.04235823
000050 ac df 04 be d8 22 63 be 34 53 21 3f dd 9e 96 3f
       -0.12975949 -0.2218126 0.6301758 1.1767231
000060 78 40 9a be ef a9 c6 3e 57 d1 e1 3d 89 68 c9 be
       -0.3012731 0.38801524 0.110262565 -0.39337566
000070 75 3a 4f 3f 34 00 59 be c7 87 8b be 4c dd 41 3f
       0.80948573 -0.21191484 -0.27252027 0.757283
000080 80 68 3b 3f 03 d6 46 be 89 70 45 3d bb 5b 19 3f
       0.7320633 -0.19417576 0.048203025 0.59905595
000090 f5 d5 ca 3e 9e 56 d4 3e 25 6d d4 be 56 32 d4 bd
       0.3961636 0.41472334 -0.4148952 -0.10361163
0000a0 97 e3 80 3e 79 c1 49 3f 3a 44 53 be 98 c5 1f 3f
       0.25173637 0.7881084 -0.20631495 0.6241088
0000b0 35 be 01 3f ef f6 c9 be 25 f3 f9 3e 5c 21 c3 be
       0.5068086 -0.39446208 0.48818317 -0.3811139
0000c0 53 a0 56 bc 25 f5 fc be d5 0e 34 3f 37 e8 a8 be
       -0.013099748 -0.4940578 0.7033513 -0.32989666
0000d0 7d d2 09 3f 86 c8 cf be 94 9b 77 3e 97 5d 97 3e
       0.53836805 -0.40582675 0.24180442 0.2956359
0000e0 3b 55 3a bf 89 12 0d 3f 9a 57 9e 3d 22 de 89 3f
       -0.727863 0.5510641 0.077315524 1.0770915
0000f0 19 0b 1e bf 21 10 1c bf 45 d2 2a 3f 65 36 1c bf
       -0.61735684 -0.6096211 0.66727096 -0.610205
000100 a0 4e 74 3d 5a b3 ac be 20 c2 0d 3f 25 7f 98 bf
       0.059645295 -0.33730584 0.55374336 -1.1913801
000110 81 0d c4 3d 48 48 4e 3c 89 44 2d bf 42 8b 3c 3e
       0.09572888 0.012590475 -0.676827 0.18412498
000120 3c de 73 bd c7 a4 74 be af 68 2e 3f 13 33 96 3d
       -0.05953811 -0.23890983 0.68128484 0.073339604
000130 3b 2d 2b be 6c 51 00 3e 8f 1f 29 3f c9 f9 d6 bc
       -0.16716473 0.1253106 0.6606378 -0.026242154
000140 d7 19 0a bf cc a2 96 3e dd 22 1c bf dc c3 44 bf
       -0.5394568 0.2942108 -0.609907 -0.7686136
000150 35 ef bd be d0 4e 74 bf 84 e3 d3 3e 0a 03 11 3f
       -0.37096563 -0.9543276 0.41384518 0.5664526
000160 7c fe 92 3e ba cf 81 be 8a 63 15 3e b9 65 8e be
       0.2870978 -0.25353795 0.14588752 -0.27811983
000170 54 77 49 be 30 bd 31 bf 9d 86 04 bf 82 88 4d 3d
       -0.19674426 -0.694293 -0.51767904 0.050179012
000180 c9 2c 03 3f 0a 33 ea 3d d8 22 96 bf 9d dd ab 3e
       0.5124021 0.11435516 -1.1729383 0.33567515
000190 77 cf d3 bd fa e9 a9 3e 64 22 06 bf 04 1e b9 be
       -0.10342305 0.33186322 -0.52396226 -0.36155713
0001a0 6c 98 40 3f 3c 91 8c 3e dc 20 06 bf ae d3 cb 3e
       0.7523258 0.27454555 -0.5239389 0.39809936
0001b0 33 ad 47 bb 05 84 54 be f1 93 14 3f 43 25 a2 be
       -0.0030468225 -0.20753486 0.5803824 -0.31669053
0001c0 b5 f4 d4 be 00 ff 21 bf e3 50 45 3e 70 ac 06 bf
       -0.41592947 -0.63279724 0.19269137 -0.5260687
0001d0 3e 67 07 3f 49 22 f2 be db 8f dd bc 9a f4 ee 3c
       0.5289191 -0.47291782 -0.027046135 0.02916937
0001e0 65 f0 93 be 8f 55 03 bf 91 3a d6 be 2f 0a 1d 3e
       -0.28894344 -0.5130243 -0.41841558 0.15335916
0001f0 62 bd 09 3f 37 61 06 bf 83 16 0b 3f c9 65 19 bf
       0.538046 -0.5249209 0.54331225 -0.59920937
000200 5a f0 2e 3f da 1a ca be 7f d4 45 3e 93 d5 2e bf
       0.683355 -0.3947361 0.19319342 -0.6829464
000210 44 8d 3b bf 65 7d 4a bf 33 09 b4 3d 8b 03 14 3e
       -0.7326243 -0.79097587 0.08790817 0.14454477
000220 6c 34 10 3f 14 8f b1 bf b2 a6 bb 3e 57 6c 7c bd
       0.5632999 -1.3871789 0.36650616 -0.06162676
000230 0b 30 55 3f 12 0a 42 bf 7e 7b a9 3c 67 fc 51 3f
       0.8327643 -0.75796616 0.020688768 0.8202576
000240 6f 34 05 bf b5 1a 84 3f 0f 3c 4f 3f 81 09 0e bf
       -0.5203313 1.032065 0.8095102 -0.5548325
000250 65 d2 31 bf f2 dd 6a bf e7 8e a1 bd c1 4a ee be
       -0.6946166 -0.9174491 -0.078885846 -0.46541408
000260 1a d9 fa 3e 1c c6 f1 3e 5d 4f d5 3f e1 86 3c be
       0.4899376 0.47221458 1.6664845 -0.18410827
000270 21 6d 79 bf 23 60 fe be 32 2f 85 be fc 05 0f 3f
       -0.9743214 -0.49682721 -0.2601257 0.55868506
000280 8e e3 7e 3f 20 43 a8 bf 1f 96 1e 3f 28 6d a7 3e
       0.9956597 -1.3145485 0.61947817 0.32700467
000290 bb e6 fd be a3 48 85 bf 27 83 36 bf fe 8b e2 3e
       -0.49590096 -1.0412792 -0.7129387 0.4424743
0002a0 e0 e6 3a 3f 11 bb 01 3f 10 3f 1e bf b5 62 3d 3f
       0.7300854 0.50676066 -0.61814976 0.7397874
0002b0 43 5f d1 be 35 7d 66 bf 7d 3a 86 bd 47 a0 47 bf
       -0.4089299 -0.900348 -0.065541245 -0.7797894
0002c0 f9 00 41 bf 93 ff 01 bf 44 9f e5 3e d7 3a d1 be
       -0.7539211 -0.507806 0.44848073 -0.40865204
0002d0 37 ed 14 3e 46 7c 9a bd 84 a1 32 3f cc 1d 91 3e
       0.14543615 -0.075432345 0.69777703 0.28343046
0002e0 89 e6 23 be 33 8b 4e 3f 1d ad 13 bd 23 9c 2c 3f
       -0.16005911 0.8068115 -0.036053766 0.67425746
0002f0 21 35 74 be 2e 9b c1 3e bf 1b 09 3f 57 99 a7 bf
       -0.23848392 0.37813705 0.5355796 -1.3093671
000300 a5 89 30 3f a3 41 a9 3e ca 06 85 3f dc 12 5d bf
       0.6896003 0.3305789 1.0392697 -0.863569
000310 3f 19 16 3d 7c b8 99 3f 16 47 fc 3e 98 bb ed be
       0.03664517 1.2009425 0.49272984 -0.46432185
000320 26 b5 a6 3e b1 9d 82 be b8 22 19 be 14 37 8b be
       0.3256008 -0.25510934 -0.1495465 -0.2719046
000330 02 69 78 3f e9 10 2b bf 72 43 c6 be 25 b8 36 3f
       0.9703523 -0.6682268 -0.38723332 0.7137473
000340 a3 d1 31 bf 01 7e 38 3f 69 5c 68 3f ed 36 d1 be
       -0.69460505 0.72067267 0.90766007 -0.40862218
000350 f7 52 05 bf 41 7f b3 bd 90 9d 53 bd 60 e0 38 bf
       -0.5207972 -0.08764506 -0.051663935 -0.7221737
000360 74 7b 6a 3f 7e 85 1b 3f d3 34 8b 3e 2b 6b 73 bf
       0.91594625 0.6075057 0.2718874 -0.950854
000370 a9 01 98 3f 0b ec 61 bf a2 75 2c bf f6 ae c2 3e
       1.1875507 -0.882508 -0.67366993 0.3802411
000380 9c b5 a1 3e 2d f6 11 bf e5 80 84 3f 0d b0 e1 3e
       0.3158387 -0.5701626 1.0351835 0.4407963
000390 e0 48 20 bf 29 cf 88 3f 43 ff 16 bf 20 f7 f2 be
       -0.626112 1.068822 -0.5898325 -0.47454166
0003a0 88 76 38 3f 12 2c 43 3e 31 76 1d 3d dc 9e 1c 3f
       0.72055864 0.1905978 0.038442794 0.611799
0003b0 20 14 60 bf 46 47 36 3e e0 79 12 3f b8 36 10 bf
       -0.8753071 0.17800626 0.57217216 -0.56333494
0003c0 fa 7b 64 be a1 2e 82 bf a6 1b 41 3d bd 18 a2 bf
       -0.22312918 -1.017048 0.04714551 -1.26638
0003d0 49 34 5d be c7 fc 62 bf 2f c5 8e 3f 98 80 3f 3f
       -0.21601976 -0.8866696 1.1153926 0.74805593
0003e0 42 1f aa 3e bd 69 09 3f 05 f8 44 3f 52 3d 9c 3f
       0.33226973 0.5367697 0.7694095 1.2206213
0003f0 b0 ae f9 bd 4b e5 0b bf 46 00 8a 3f a9 87 ac be
       -0.12191522 -0.5464675 1.0781333 -0.3369725

pi.logits_net.4.bias f4 [87]
000000 6c 05 bc 3e 7e 9f 2e 3f da c4 10 3f 7b 82 0d 3f
       0.36722887 0.68212116 0.5655037 0.5527722
000010 7d 0e d2 3e da ba 8f 3e 5e 9a e3 3e dc 03 dd 3e
       0.4102668 0.28072244 0.4445371 0.43167007
000020 c9 41 1a 3f 9d 88 f9 3e 3c 1c c1 3e c0 3c d6 3e
       0.6025663 0.4873704 0.37716854 0.41843224
000030 17 d1 22 3f 84 f2 b3 3e 52 af 8d 3d d5 e1 e6 3e
       0.63600296 0.35145962 0.06918205 0.4509417
000040 10 b7 0e 3f 77 d5 e7 3e b1 48 a6 3e bf fe 1e 3f
       0.5574808 0.45280048 0.32477334 0.6210746
000050 38 41 24 3f 84 f5 00 3f 7c cc 0a 3f 3a ce af 3e
       0.64162016 0.5037463 0.5421827 0.34337026
000060 50 58 cd 3e 6e ee 8e 3e 32 6b 1d 3e 21 e1 9a 3e
       0.4010644 0.27916282 0.15372923 0.30249885
000070 dd c7 0c 3f 62 d8 95 bd 42 c2 bf 3e ff 68 19 3f
       0.5499247 -0.07316662 0.37452894 0.59925836
000080 e3 6d 45 3e 87 94 e9 3e 12 bd 8f 3e 44 91 1b 3e
       0.192802 0.4562113 0.28073937 0.15192133
000090 47 72 15 3f 1a c3 f5 3e c8 2c ff 3e 89 6f a8 3e
       0.583775 0.48000413 0.49838853 0.32897595
0000a0 19 ed eb 3e 05 72 9d 3e b8 78 fd 3e 72 f2 b1 3e
       0.4607933 0.30751052 0.49506164 0.34755284
0000b0 95 81 a5 3e da 7f d1 3e 68 01 b4 3e 34 b7 f3 3e
       0.32325426 0.40917856 0.35157323 0.4760071
0000c0 aa b0 02 3f 2c a3 22 3f f2 d0 e3 3e 86 5d 2c 3f
       0.5105082 0.6353023 0.4449535 0.67330205
0000d0 ca aa d3 3e 2b 1f c7 3e 7d 82 fc 3e 26 04 66 3e
       0.4134124 0.38890967 0.49318305 0.2246252
0000e0 f4 ec d0 3e ac 51 c4 3e 74 ba 0b 3f 1a e3 13 3f
       0.4080578 0.3834356 0.5458138 0.57768404
0000f0 48 bd 01 3f 58 74 c0 3e b4 33 07 3f 33 a0 83 3e
       0.50679445 0.37588763 0.5281327 0.2570816
000100 d3 c4 07 3f 76 53 f5 3e af eb b2 3e 01 01 45 3d
       0.53034705 0.47915238 0.34945437 0.04809666
000110 97 74 9d 3e 5b 5c fc 3e 5f 17 82 3e e2 b7 02 3e
       0.30753013 0.49289212 0.25408456 0.12765458
000120 a5 62 22 3f 16 93 64 3d 40 41 ef 3e 9f 72 1d 3f
       0.6343177 0.055804335 0.4672947 0.6150302
000130 52 77 09 3f 06 93 e6 3e 6a d7 e8 3e 5f 21 a4 3e
       0.53697693 0.45034045 0.45476848 0.3205671
000140 a0 42 7a 3e e7 80 20 3f 55 f9 26 3f 32 1b 86 3e
       0.24439478 0.6269669 0.652242 0.26192623
000150 d6 bd f9 3e bf 16 f5 3e 3e 5f 9b 3e
       0.48777646 0.47868916 0.30346102

v.v_net.0.weight f4 [64, 282]
000000 0b 1b f5 3e 63 72 4b bf 41 05 b7 bf b2 8c f9 3e
       0.47872195 -0.79471415 -1.4298478 0.48740155
000010 5e 7d 9f bf 2e 40 97 bf 50 16 de 3e 5a 1e dd 3e
       -1.2460134 -1.1816461 0.43376398 0.4318722
000020 75 f2 b4 bf 3c c8 21 be cb 04 4f bf 63 8e 46 bf
       -1.4136492 -0.1579904 -0.8086669 -0.77561015
000030 77 dd f2 3e 9d 3a be bf 04 b1 98 bf 89 28 03 3f
       0.4743459 -1.4861637 -1.1929021 0.51233727
000040 6d 5a ef 3e ba 0a 52 bf c6 d6 9c bf b9 62 01 3f
       0.46748677 -0.8204762 -1.2253044 0.50541264
000050 dd 46 ff 3e ad 2c 06 3f 46 a5 56 bf 64 37 98 bf
       0.49858752 0.5241192 -0.8384594 -1.1891904
000060 ef 56 aa bf f7 25 b4 bf 0f c3 04 3f 4f cd db 3e
       -1.330778 -1.4074086 0.51860136 0.42930076
000070 a8 d8 f4 3e f4 b1 08 3f 86 d8 98 bf 6b 5c b5 bf
       0.47821546 0.53396535 -1.1941078 -1.4168829
000080 53 f6 58 bf bc da a2 bf 18 a8 00 3f 1c 0e e8 3e
       -0.8475086 -1.2723002 0.5025649 0.45323265
000090 06 77 db 3e a3 47 b5 bf d8 60 99 bf a7 a5 b0 bf
       0.42864245 -1.4162487 -1.1982679 -1.3800553
0000a0 89 8d b6 bf 91 55 4d bf 3f e7 b0 bf b9 cd b5 bf
       -1.4261943 -0.8020869 -1.3820571 -1.4203407
0000b0 1a 35 63 bf 25 bb bd bf 3a 82 9d bf 82 db 98 bf
       -0.887529 -1.4822737 -1.2305367 -1.1941988
0000c0 8b a2 61 bf 18 23 eb 3e 8d da e2 3e 52 b2 09 3f
       -0.88138646 0.45925212 0.44307366 0.5378772
0000d0 5b b1 5b bf 69 bb b8 bf 39 e4 42 bf 86 04 a7 bf
       -0.858175 -1.4432193 -0.7612949 -1.3048255
0000e0 39 a8 3e bf 59 65 da 3e c9 2b bf bf 39 2b ed 3e
       -0.7447544 0.42655447 -1.4935237 0.4632204
0000f0 ef c5 fc 3e dd cd b0 bf 8a 67 09 3f f5 a9 57 bf
       0.4936976 -1.3812824 0.53673613 -0.8424371
000100 b7 61 57 bf 67 97 b8 bf 67 44 9b bf b7 51 5f bf
       -0.84133476 -1.4421204 -1.213025 -0.8723406
000110 e2 f2 5e bf b1 66 03 3f 1d 37 5c bf 56 ca 09 3f
       -0.8708936 0.5132857 -0.86021596 0.53824365
000120 f5 c8 bd bf f4 cb 4d bf df 15 49 bf 2c a2 02 3f
       -1.4826952 -0.8038933 -0.78549 0.51028705
000130 39 f2 49 bf d4 35 ee 3e d8 96 ef 3e 9b 1b bf bf
       -0.7888523 0.46525443 0.46794772 -1.49303
000140 97 8c 43 bf 50 d8 a6 bf c2 16 f7 3e 20 fb 06 3f
       -0.763864 -1.3034763 0.4825955 0.52726936
000150 69 59 b6 bf 3d 0b 0b 3f 71 e5 53 bf 4b f6 ca 3f
       -1.4246036 0.54314023 -0.82771975 1.5856413
000160 da f3 68 3f 7f a6 82 3f c4 b0 26 c0 a6 63 6f bf
       0.9099709 1.020706 -2.604539 -0.93511426
000170 6b fd 38 40 61 df fe 3f 04 0f 16 3f 46 90 0d 3f
       2.8904674 1.991192 0.5861666 0.5529827
000180 9b d3 d9 3f 9e ab da 3f 99 4c 8b 3f 7d 20 01 bf
       1.7017702 1.7083623 1.0882751 -0.504402
000190 55 7f 06 3f d9 e9 b1 bf 12 33 16 c0 2f 39 87 bf
       0.52538043 -1.389949 -2.346867 -1.0564326
0001a0 53 2f f7 be b0 a3 48 40 b4 1e 2d 40 50 db d2 3f
       -0.48278293 3.1349907 2.704999 1.6473179
0001b0 71 f1 a9 3f 71 e4 81 bc fc 64 14 40 6d 12 56 bf
       1.3276807 -0.015856 2.3186636 -0.83621866
0001c0 64 fb 1b 40 bd 9b bb be b7 c2 02 40 1c bc fd 3f
       2.4372187 -0.36642256 2.0431345 1.9823031
0001d0 e8 78 6e bf f4 c8 f3 bc 05 b1 81 bf 44 a6 a8 3f
       -0.9315324 -0.029758908 -1.0132147 1.317574
0001e0 b3 2a 61 3f a5 e2 12 3e 18 3b f9 3f b1 5c c6 be
       0.8795578 0.1434427 1.9471159 -0.38742593
0001f0 d4 dc b8 3f c1 b4 ac bd 5c 30 00 3f 8c 09 85 3f
       1.4442391 -0.084329136 0.5007379 1.0393538
000200 0b 22 23 3e b9 b7 67 40 a0 90 75 bd 1c 21 ab be
       0.15930955 3.6205885 -0.05995238 -0.33423698
000210 3e a9 7b 3f 38 37 f4 3e 34 8a 52 40 f9 0c 6f 3f
       0.9830512 0.4769838 3.2896852 0.9337917
000220 08 41 06 be fe 20 f0 3d 02 8e d6 bf b9 a3 5c bf
       -0.13110745 0.11725043 -1.6762087 -0.8618732
000230 25 19 21 40 7b 07 36 40 c4 80 ba 3f db 3d 5a bf
       2.5171597 2.8442066 1.4570546 -0.85250634
000240 f2 b9 a2 3e b7 4d c5 3f e5 db e8 3e 27 5c 1e 3f
       0.3178249 1.5414342 0.45480266 0.61859363
000250 6b b4 9a be bc f5 25 bf 81 3e bb bd 79 b0 49 be
       -0.30215773 -0.64828086 -0.09142781 -0.19696225
000260 ea a9 b5 3f 73 79 a0 be 5c 43 52 bf 72 51 86 3f
       1.4192479 -0.31342658 -0.8213403 1.0493605
000270 14 f7 ec 3e c9 7b 03 bf c5 4c 35 be 07 a0 09 bf
       0.46282256 -0.51360756 -0.17705067 -0.5375981
000280 2c 06 1a be 5c f6 1a 3e 6b 19 e0 3f 37 32 37 40
       -0.15041417 0.15133041 1.7507757 2.8624399
000290 00 1c 0c 40 bc 2f 98 3f 7d 46 0a 40 21 b5 06 3f
       2.189209 1.1889567 2.1605523 0.5262013
0002a0 bf 35 c4 3e 44 f4 bc 3f 3a ae 30 3e 21 56 70 3f
       0.38322255 1.4762044 0.17253962 0.9388142
0002b0 b1 86 36 bf fd 53 97 bf e4 74 5c 3f 37 4c 17 c0
       -0.7129927 -1.1822506 0.8611586 -2.3640268
0002c0 e4 64 e9 be 6e a0 c0 3f 9e 92 cd c0 90 51 00 c0
       -0.45584786 1.5048959 -6.4241476 -2.0049782
0002d0 02 54 5f 3f 95 5c a8 bf 32 d4 87 3f f4 2e 02 bd
       0.8723756 -1.3153254 1.0611632 -0.03178306
0002e0 bf 90 32 3c 59 91 26 3f c3 94 af c0 ea a4 20 bf
       0.010898768 0.6506553 -5.4869094 -0.6275164
0002f0 a4 2f 86 3f 6a 34 c7 be a2 76 69 c0 12 1a 69 c0
       1.0483289 -0.38907176 -3.6478658 -3.6422162
000300 d3 68 41 c0 c2 58 08 3e 16 11 b3 3e fb e9 21 c0
       -3.022023 0.13315108 0.34973973 -2.529906
000310 06 c2 62 bf bc 9b 5f bf 68 de 22 40 5c 73 51 3f
       -0.88577306 -0.87347007 2.5448246 0.8181665
000320 59 fd 1e 3f 2d c9 b3 3e 44 a8 45 bd 5b 1a 2f 3f
       0.6210533 0.35114422 -0.048256174 0.6839959
000330 52 7f 4f 3f bc 39 b0 3f 26 85 10 3f e1 26 3d bf
       0.8105365 1.3767619 0.5645317 -0.7388745
000340 82 be 9f bf 90 32 d0 be 0d f4 f2 3f 15 cf 5d bf
       -1.2480013 -0.40663576 1.8980728 -0.8664411
000350 88 be c0 3f ea 7a 03 bf 1d 71 21 40 57 f7 ef 3f
       1.5058146 -0.51359427 2.522529 1.8747357
000360 9e 41 05 bf e4 16 12 40 13 cb 81 c0 c4 dc b3 3f
       -0.5205325 2.2826471 -4.0560393 1.4051747
000370 35 54 0b 40 b0 9b f6 be 72 6f 35 bc 35 2e 43 be
       2.1770146 -0.48165655 -0.011073934 -0.19060595
000380 3d 79 24 40 79 64 95 c0 3c ae 12 40 85 1d ca 3e
       2.5698998 -4.6685147 2.2918844 0.39475647
000390 90 9d 18 bf 26 ad b7 3f 74 31 2e 3f 12 6a 9e bf
       -0.5961542 1.4349716 0.6804421 -1.237612
0003a0 81 62 09 c0 ef 41 92 c0 7c 06 18 bf 59 de c8 bd
       -2.1466372 -4.5705485 -0.59384894 -0.098080344
0003b0 31 98 ad 3e 0b 49 b0 bf 9c 01 44 c0 23 38 ec 3f
       0.33905175 -1.3772291 -3.0625982 1.8454632
0003c0 a9 9c ab bd 68 92 6e 3e b5 1b fe bf db c1 90 be
       -0.0837949 0.23298037 -1.9852206 -0.282729
0003d0 e2 a7 3f c0 68 20 0c 40 46 60 a4 3f f4 ca e3 3f
       -2.9946218 2.189478 1.284188 1.7796311
0003e0 47 4c f1 3f c6 33 37 bf 30 df b0 bf ea e1 40 3e
       1.8851403 -0.71563375 -1.3818111 0.1883618
0003f0 f7 88 71 3f 74 ea c1 bf f1 94 be bf 6a e1 77 3f
       0.94349617 -1.5149674 -1.4889203 0.9682833

v.v_net.0.bias f4 [64]
000000 b4 98 38 3f b0 bc 08 3e f0 eb c4 3f 09 ef 85 c0
       0.72108006 0.13353229 1.5384502 -4.185429
000010 e0 b9 0e 40 72 e0 a7 bf cf 31 8d c0 e6 17 8a be
       2.230095 -1.311537 -4.41233 -0.26971358
000020 63 3a 92 3f 53 38 05 40 ef 0a ce bf 20 fa d7 bf
       1.1424068 2.0815628 -1.6097087 -1.6873207
000030 44 c5 72 3f 20 66 19 be 9c 03 24 c0 29 cb 12 c0
       0.94832253 -0.14980364 -2.5627203 -2.29365
000040 ca 66 28 40 41 d7 ab 3f 89 4f 87 bf 65 28 d6 3f
       2.6312737 1.3425065 -1.0571147 1.6731077
000050 33 51 b5 bd 1b c1 0c 3f 8a af d9 c0 6d f4 09 40
       -0.08853378 0.54982156 -6.802678 2.1555436
000060 6c 31 9a 3f c6 5a 89 c0 43 5f b4 c0 06 3a aa 3e
       1.2046332 -4.2923307 -5.6366286 0.33247393
000070 d8 8c 22 3e 1d e7 5b c0 e2 f1 11 3f 10 c2 ae bf
       0.1587404 -3.435981 0.5700971 -1.3652973
000080 a2 81 86 40 a1 bf 96 c0 03 e1 dc 3e 5e c9 c1 3e
       4.2033243 -4.710892 0.4314042 0.37848943
000090 6c e3 5e bf 6b cd ed 3f ca 1f 8e bf 9c 5c 52 bf
       -0.8706577 1.8578314 -1.1103451 -0.8217256
0000a0 f4 6d 0f c0 75 31 90 c0 06 29 03 40 26 80 c1 3f
       -2.241086 -4.506037 2.0493789 1.5117233
0000b0 37 2e dc 3f 2c dc 7e 3f 76 24 65 bf 95 32 18 bf
       1.7201604 0.99554706 -0.8950876 -0.5945218
0000c0 7b ae 1c 40 33 a4 6d c0 4e 79 6b c0 bf 2d 38 c0
       2.4481494 -3.713147 -3.6792789 -2.8777921
0000d0 66 66 9e 3e e8 1d 80 3f d6 c6 4d bf 10 fa 2a 3f
       0.309375 1.0009127 -0.80381525 0.66787815
0000e0 70 15 93 bf 21 ef 38 3e 7d bc 1a c0 77 1c fa bf
       -1.1490917 0.1805997 -2.4177544 -1.9539937
0000f0 02 ac 43 c0 df 3e ec 3e aa 03 6d bd 41 b0 59 40
       -3.0573735 0.46141717 -0.057864822 3.4013827

v.v_net.2.weight f4 [64, 64]
000000 ef 7b 3a c0 b1 15 63 40 52 38 83 bf c9 71 f6 3f
       -2.9138143 3.548199 -1.0251563 1.9253474
000010 b6 78 e4 c0 94 cd 74 c0 bb 5b bd bf 55 1c 55 3f
       -7.139735 -3.8250475 -1.4793619 0.83246356
000020 b8 2c 86 bf bd 11 70 bf ee 54 b6 3e 44 84 cf 3f
       -1.0482397 -0.93777066 0.3561167 1.6212239
000030 f5 23 b0 bf 3c 9a fa 3e 26 b2 1c 40 48 84 30 3f
       -1.3760973 0.48945796 2.4483733 0.68951845
000040 42 f2 31 c0 d8 c5 3f bf 42 be d2 3f 99 33 b6 3f
       -2.7804112 -0.7491126 1.6464312 1.4234496
000050 9d 67 38 bf 6f 63 92 3f 4f 91 9a be b9 40 ab bf
       -0.720331 1.1436595 -0.30188987 -1.3379127
000060 4b 68 24 bf 17 24 46 40 bc 59 07 40 af f4 3e 40
       -0.6422164 3.0959527 2.114852 2.9836843
000070 f6 65 05 3f 54 f7 c7 3f 35 0f 0b be e4 00 05 c0
       0.52108705 1.5622354 -0.1358002 -2.0781794
000080 12 b0 2d bd 6a e2 b9 3e ea 89 6d 3f 61 01 eb 3f
       -0.04240424 0.36305553 0.92788565 1.8359796
000090 96 54 51 40 17 70 07 3f dc 14 49 3f b9 03 50 bf
       3.2707877 0.5290541 0.78547454 -0.8125568
0000a0 bd b9 47 3f 4b 20 ad bf f4 0b 2a 3e 04 d5 fb be
       0.7801779 -1.352548 0.16606122 -0.49185956
0000b0 95 ad c0 bd 0b 4c 0a 40 d1 88 a1 bf 43 47 31 40
       -0.09408108 2.1608913 -1.2619878 2.7699745
0000c0 6a 12 0a 40 8c 8d d3 3e 86 31 71 c0 cc da 16 40
       2.157374 0.4131893 -3.7686477 2.3571043
0000d0 3e 82 19 40 07 91 09 c0 f1 22 c0 3f 88 d1 84 be
       2.3985744 -2.1494768 1.5010663 -0.2594111
0000e0 5b 4a 46 c0 58 91 0d c0 36 ff 94 bf 51 8b 02 c0
       -3.0982883 -2.211996 -1.1640384 -2.0397532
0000f0 eb 87 9e bf 23 5f 91 3f bf 1d 20 c0 a7 6d 1f 3f
       -1.2385229 1.1357158 -2.5018156 0.6227669
000100 93 03 5b c0 7c d2 d1 bf fc 6c 21 40 59 6e 64 40
       -3.4220932 -1.639236 2.5222769 3.569235
000110 59 38 b1 c0 14 07 2a c0 d7 04 c3 bf 02 85 98 be
       -5.5381284 -2.656682 -1.5235852 -0.29788977
000120 6c 38 67 3d ec 05 a7 3e 39 f0 59 40 bd 4a e3 be
       0.056450292 0.32621706 3.405287 -0.44392958
000130 5b 6a 86 bf ef c7 11 3e d4 f1 87 c0 cb 0d 5d bf
       -1.0501207 0.14236425 -4.24827 -0.8634917
000140 d8 94 b2 40 81 5a 72 be 95 2e 3a 3f d0 85 ba c0
       5.5806694 -0.23667337 0.7272733 -5.8288345
000150 3f b0 34 c0 a3 e1 e1 3f 92 f0 37 40 f0 35 5f bf
       -2.8232572 1.7646984 2.8740582 -0.8719168
000160 5d 2c 48 bf b7 2e 25 40 b3 5b 70 c0 1c d2 78 c0
       -0.78192693 2.5809762 -3.7555969 -3.887824
000170 ba 0c d0 bf 00 e4 65 be 37 7f 5c bf 7a 90 52 c0
       -1.6253884 -0.22450256 -0.86131614 -3.2900681
000180 0a d3 23 c0 28 cf d3 bc a1 75 c5 3f 64 95 e2 3e
       -2.5597558 -0.025855616 1.5426522 0.442546
000190 4f 4c 74 3d 57 5a f2 3f cd de c1 bf 64 84 d7 be
       0.059643086 1.893382 -1.5146118 -0.42093194
0001a0 05 7a e3 bf da d4 48 40 dd 10 a8 3f 1b b0 aa 3f
       -1.7771612 3.1379914 1.3130146 1.3334993
0001b0 f4 47 fb bf 19 56 b9 3f f6 2b 52 c0 30 39 2b c0
       -1.9631333 1.44794 -3.2839332 -2.6753654
0001c0 fc cc d1 3f 13 c0 c7 bf 12 76 94 40 18 d4 48 40
       1.6390681 -1.5605491 4.639413 3.1379452
0001d0 95 8d 14 40 38 20 23 c0 ae b8 3e 3f 28 89 2b 40
       2.3211415 -2.5488415 0.7450055 2.6802464
0001e0 a9 77 5b 40 e7 f9 0f 41 72 9f 0c 3f ce e2 00 c0
       3.4291785 8.998511 0.54930794 -2.013843
0001f0 53 cf 06 40 70 71 39 40 b9 4e 48 c0 5f b8 aa c0
       2.106404 2.8975487 -3.1298048 -5.335006
000200 21 9b 9b 3f 00 78 0f 3d ff 1e f4 40 d5 48 41 3f
       1.2156717 0.03502655 7.6287837 0.7550176
000210 db e7 ac 40 c6 15 cc bf 5c be 86 3e f2 d6 ea 3f
       5.4033027 -1.5944145 0.26317108 1.8346846
000220 54 99 d2 3f a0 41 bf 3f 16 3f f3 3f e8 90 10 c0
       1.6453042 1.4941902 1.9003627 -2.2588444
000230 df a3 59 40 31 e5 5d c0 3f 8f 8b c0 0b fc 9e 3d
       3.400627 -3.4671137 -4.361236 0.07762917
000240 c4 4b 8f 3f 5b df 15 bf 97 e4 06 3f 0f ab 8a be
       1.1194997 -0.5854394 0.5269255 -0.27083632
000250 f4 c1 91 40 73 24 91 bd 69 c4 d4 bf b1 2b 98 3f
       4.554926 -0.0708703 -1.662244 1.1888334
000260 de 8a a4 bf e2 a6 00 40 81 ae a8 40 b9 e3 3f c0
       -1.2854879 2.0101857 5.2713017 -2.998274
000270 82 ae 00 40 84 9c e8 3f 75 bf 96 bf a9 6d 55 40
       2.010651 1.8172765 -1.1777178 3.3348181
000280 0c de 9e be 90 25 c8 3e 67 23 a6 bf ca cf 29 c0
       -0.31028783 0.39091158 -1.2979554 -2.6533074
000290 d9 ce 9f c0 2c 2e 11 c0 22 f2 8b bf a7 21 18 bf
       -4.994 -2.268443 -1.0933268 -0.5942635
0002a0 e4 e1 c3 3f 98 6e 7e bf 71 d4 21 40 9f f3 bb 3f
       1.5303311 -0.993875 2.5285914 1.4683722
0002b0 4d e4 d9 bf 07 e7 ef bf 46 e1 28 40 f2 52 de 3d
       -1.7022797 -1.8742379 2.6387496 0.10855664
0002c0 bd 1f 39 bd 24 1c 91 bf 8a e1 88 3e c8 eb cf 3f
       -0.045196284 -1.1336713 0.26734573 1.624383
0002d0 23 8f c0 c0 36 fb 8f 3f ad bf 2f c0 94 a7 49 40
       -6.0174727 1.1248538 -2.746074 3.1508532
0002e0 a1 4b 60 c0 0f f8 ad 40 02 75 6e 3e 2f c0 bd 3f
       -3.504616 5.4365306 0.23286822 1.4824275
0002f0 4a 31 4d 40 f7 29 af 3e ac 6f 82 3e e4 e3 34 3f
       3.2061334 0.34211704 0.25475824 0.70660233
000300 cf c6 11 be 99 e8 d9 bf 0c 80 73 c0 ae 9b 86 c0
       -0.14235996 -1.7024108 -3.8046904 -4.206504
000310 aa a7 ae be f1 39 86 3f f4 a5 27 c0 0a 4f 0c 3e
       -0.34112293 1.0486432 -2.619504 0.13702026
000320 35 aa 15 bf 84 01 ef 3f 0a 1e 38 40 af 04 bc 3f
       -0.5846284 1.8672338 2.8768334 1.4688929
000330 93 1f e9 3f ab 3e 0a 40 20 79 d5 c0 fc e6 39 be
       1.8212761 2.160075 -6.671036 -0.1815452
000340 4e 7b d4 bf dc 7c 77 c0 53 0d de bf 26 42 39 40
       -1.660013 -3.8669958 -1.7347816 2.8946624
000350 87 8d f2 bc a8 8a d9 be d7 28 8a 3f 59 82 f9 3f
       -0.029608501 -0.424886 1.0793713 1.9492904
000360 2a a8 f3 be 01 a6 ed 3c 1c 75 02 41 14 75 44 be
       -0.47589236 0.02900982 8.153591 -0.19185287
000370 46 ee 39 3f 17 66 2c 3e 7f fd 3e 3f 5e cf 6f c0
       0.726292 0.16835819 0.74605554 -3.7470317
000380 d1 fb 75 c0 2a ed e5 3f b3 0b 0b 3f 7e a1 e4 3e
       -3.8434947 1.7963002 0.54314727 0.4465446
000390 fa ce 0c 3f 0b 63 d7 bf 01 99 8f bf e6 53 60 bf
       0.5500332 -1.68271 -1.1218568 -0.8762802
0003a0 4b 40 a2 c0 5c e7 1e 3f e6 8f 3a c0 89 4e 41 3f
       -5.0703483 0.62071776 -2.9150329 0.7551046
0003b0 3a 92 9e 40 95 ef 5c 3f 32 19 8e 3f 7a 82 49 c0
       4.95535 0.86303073 1.1101439 -3.1485887
0003c0 ed 2c 96 3f 92 63 88 bf 61 fb ed bf 7b 84 5c 3e
       1.173246 -1.0655386 -1.859234 0.21534912
0003d0 ec 2d 16 c0 90 23 b3 3f 10 14 d7 bf cf 79 aa bf
       -2.3465528 1.3995228 -1.6802998 -1.3318423
0003e0 51 1b af 3f 69 58 3f 40 d6 7d 3b c0 c3 ba 7a 3f
       1.3680211 2.9897711 -2.9295554 0.97941226
0003f0 7c b2 cc bf 68 0b 5e 40 0f 41 b4 c0 db 43 00 40
       -1.5991969 3.4694462 -5.6329417 2.0041416

v.v_net.2.bias f4 [64]
000000 ed 51 c9 be 8f 6d 6d bf d1 75 b7 3f 6b 38 85 3f
       -0.39320317 -0.927453 1.433283 1.0407842
000010 74 2b 5c bf e7 98 b9 bf b7 a6 d4 3e 18 53 8e bf
       -0.86003804 -1.4499787 0.41533443 -1.1119108
000020 86 fb d7 bf b1 21 29 3f 92 9d 9c bf 60 34 23 bf
       -1.6873634 0.66067034 -1.2235587 -0.6375179
000030 f6 18 6e 3d fd 0f 37 3f 7f 20 70 3f 29 d0 a6 bf
       0.058129273 0.7150877 0.93799585 -1.3032275
000040 c1 ef 0a 3f 5b 5a ed 3e 89 6a c3 3e f8 b7 4b 3f
       0.54272085 0.46357998 0.38167217 0.7957759
000050 89 c9 b2 bf f6 77 36 3f b9 af 85 be b9 a5 9d bf
       -1.3967754 0.71276796 -0.26110628 -1.23162
000060 49 d3 87 3f 92 f5 3b be 48 d6 fa 3c 5b 8a 9d 3f
       1.0611354 -0.18355396 0.030619755 1.2307848
000070 bc 93 7d 3e 51 f2 02 bf 81 47 6c bf 98 13 81 3f
       0.24763387 -0.51150995 -0.92296606 1.0084105
000080 db 3f ea be 2b 62 91 3f 16 69 29 3f 6f 1b 92 bf
       -0.45751843 1.1358083 0.66175973 -1.1414622
000090 a7 2d c2 be 03 aa c8 bf 63 9a 18 3f 3e 1d 80 3f
       -0.37925455 -1.5676883 0.59610575 1.0008924
0000a0 8e 4b 12 bf 77 df 74 3f d0 1d b5 3f 29 22 f8 3e
       -0.5714654 0.9565348 1.4149723 0.48463562
0000b0 0b 11 81 3f 9a 2e 8d 3e a6 92 ef 3e 6a 88 49 3f
       1.0083326 0.27574617 0.4679157 0.78723776
0000c0 fb b4 c5 bf 72 9d 46 bf 46 28 8a 3f aa 5e b3 bf
       -1.5445856 -0.7758399 1.079354 -1.4013264
0000d0 8c a0 b4 3f cb ba bb bd f3 df 95 bf 2b 38 a2 3f
       1.4111495 -0.09166487 -1.1708969 1.2673391
0000e0 d1 90 50 bf 57 d8 db be ac 89 95 3f af a5 8e bf
       -0.8147097 -0.42938492 1.1682639 -1.1144313
0000f0 bf 1b 4a bf b5 83 1d 3e ed 17 19 3f 2a aa b2 bf
       -0.7894859 0.15382273 0.5980213 -1.395818

v.v_net.4.weight f4 [1, 64]
000000 18 27 c4 c0 e7 a9 a6 c0 23 55 de 40 05 57 ba 40
       -6.129772 -5.20824 6.9478927 5.8231225
000010 2e 44 ce c0 09 28 da c0 1e 59 84 c0 9d 24 94 40
       -6.4458227 -6.817387 -4.1358786 4.6294694
000020 d7 ab bb c0 d8 0c bc c0 ee 39 b2 c0 6f 39 b1 c0
       -5.8647265 -5.876568 -5.5695715 -5.538261
000030 13 f1 d7 c0 0b 53 dc c0 4e 56 eb 40 4a 55 e6 c0
       -6.748178 -6.885137 7.3542852 -7.1979113
000040 75 c2 09 c1 5a 3f 0c c1 9d 8b 54 40 87 55 da c0
       -8.609975 -8.765467 3.3210213 -6.8229403
000050 43 dc ea c0 c1 0e d3 40 b0 1e 94 c0 f7 e8 10 c1
       -7.3393874 6.595551 -4.628746 -9.056876
000060 73 26 f3 40 b4 46 09 41 13 b9 9d 40 2b cc f4 c0
       7.5984435 8.5797615 4.928842 -7.649923
000070 87 db d0 c0 58 01 b6 c0 56 e4 ca c0 8e 14 ba 40
       -6.526798 -5.687664 -6.340373 5.815009
000080 d6 ee b6 c0 4a e0 cb 40 b2 95 d1 40 e3 a4 4e c0
       -5.716655 6.371129 6.5495234 -3.228814
000090 75 00 d4 c0 15 b7 79 c0 0c cf b9 40 45 9c 8b c0
       -6.625056 -3.9017994 5.8065243 -4.362826
0000a0 23 71 f8 40 d3 fb c5 40 29 f9 a2 40 0c 98 f2 40
       7.7638106 6.1869903 5.092915 7.5810604
0000b0 5c 18 d7 40 19 bf 83 40 38 25 a4 40 00 0c 9f c0
       6.7217236 4.1170774 5.1295433 -4.970215
0000c0 2f 5d 05 c1 73 f4 31 c1 8d e2 9f 40 fb 12 dd c0
       -8.33525 -11.12218 4.996405 -6.908567
0000d0 9c 95 93 41 6f 79 d2 c0 66 16 8b c0 52 7f cd 40
       18.448051 -6.5773234 -4.346484 6.421792
0000e0 3a 50 92 c0 14 bf ee c0 2f ce 04 c1 10 cf cc c0
       -4.5722933 -7.460825 -8.300338 -6.400276
0000f0 28 d5 90 c0 8a fc b3 40 7c 7e d0 40 82 d8 92 c0
       -4.52602 5.6245775 6.51544 -4.588929
