model_wts/s4_d1_m1.0_b0.0.ckpt (torch, 206875 bytes, 11 tensors)

pi.logits_net.0.weight f4 [64, 282]
0	0xbd3ac5bb	-0.045598727
1	0x3d7840d3	0.060608696
2	0xbdc6cd72	-0.09707154
3	0xbdd1a2f7	-0.10236161
4	0x3dbf0141	0.09326411
5	0x3dbe070e	0.09278689
6	0x3cd76254	0.026292004
7	0x3c898c58	0.016790554
8	0xbd0c760c	-0.034292266
9	0x3e630366	0.22169265
10	0x3d090849	0.033455167
11	0x3ca0a075	0.019607762
12	0xbafd78c9	-0.0019338365
13	0xbd5339ff	-0.05156898
14	0x3e22d1bb	0.15900318
15	0xbd059dd3	-0.032621216
16	0xbcaea835	-0.021320442
17	0x3c83c1fb	0.016083708
18	0x3e04050d	0.12892552
19	0xbded86cf	-0.11597978
20	0xbd4d1e72	-0.050077863
21	0xbd5c33d0	-0.05376035
22	0xbdb83a28	-0.089954674
23	0x3e1a1389	0.15046515
24	0xbce57377	-0.02800916
25	0xbd314cf6	-0.043286286
26	0xbcff6d40	-0.031180024
27	0xbd2cfbfd	-0.042232502
28	0x3ca74eec	0.020423375
29	0xbd9ea1bd	-0.07745693
30	0x3e4a2793	0.19741659
31	0xbbbadf96	-0.005702923
32	0x3cf426ce	0.02980366
33	0x3e3c9df9	0.18419637
34	0xbbc39f61	-0.005969927
35	0xbd87559b	-0.06608125
36	0xbd63e4ea	-0.05563823
37	0xbbfb8e78	-0.0076768957
38	0x3e4cc50d	0.19997044
39	0xbd05f693	-0.032705855
40	0xbcf6cf2d	-0.030128086
41	0x3dcb057c	0.099131554
42	0x3b7746fd	0.0037731521
43	0xbdb0498e	-0.086077794
44	0xbe024a8e	-0.12723753
45	0x3ae1e828	0.0017235326
46	0x3e3c89a5	0.18411882
47	0x3dfdfb4c	0.12401447
48	0x3d0e9c33	0.034816932
49	0x3ccfe76e	0.025378909
50	0xbdc95bd1	-0.09831966
51	0xbc6bd3e7	-0.014393783
52	0x3db77534	0.089579016
53	0xbdd81dce	-0.1055256
54	0xbbc0709b	-0.0058727986
55	0x3e2fd8a3	0.17172484
56	0x3da98c86	0.08278756
57	0xbc06fc41	-0.008238853
58	0xbd283e4f	-0.041075047
59	0xbca8f35e	-0.020623859
60	0xbdd3a5d3	-0.10334363
61	0xbc52d741	-0.012868703
62	0xbdb7dd92	-0.08977808
63	0x3dc02336	0.09381716
64	0x3d75deb4	0.06002684
65	0xbc3e8f29	-0.011630812
66	0x3bc27152	0.005933919
67	0x3c628d97	0.013827703
68	0xbd50f9cb	-0.05101947
69	0xbd39037d	-0.045169342
70	0x3d7e7d6e	0.062131338
71	0xbdad2833	-0.08454933
72	0xbda0c189	-0.07849414
73	0xbda3348a	-0.079690054
74	0x3cb9979a	0.022655297
75	0x3c95e15c	0.018295936
76	0x3db2b2e0	0.08725524
77	0xbc01451e	-0.007890014
78	0xbdaf76af	-0.08567559
79	0xbdc61ab6	-0.096730635
80	0x3d8aa438	0.067696035
81	0x3e53f159	0.20697536
82	0xbbc19749	-0.005907927
83	0xbddf6fcb	-0.10909995
84	0xbd5bee88	-0.053694278
85	0xbd4df567	-0.050282862
86	0x3dbe16de	0.09281705
87	0xbe98e895	-0.29864946
88	0xbe89607d	-0.26831427
89	0xbd8be9bd	-0.068316914
90	0xbea47d3c	-0.32126796
91	0xbcc86066	-0.024460029
92	0xbe331cda	-0.17491475
93	0xbdb01bd2	-0.08599056
94	0x3e4a11cb	0.1973335
95	0xbd7dcbac	-0.061961815
96	0xbe9972cf	-0.29970405
97	0x3d768d48	0.06019333
98	0xbe3ec6bd	-0.186305
99	0xbf19d8d0	-0.60096455
100	0xbe2467a8	-0.16055167
101	0xbe40371c	-0.18771023
102	0xbe2d122e	-0.16901466
103	0xbdabf1ef	-0.083957545
104	0xbf5be018	-0.85888815
105	0xbea1de1f	-0.31614777
106	0xbf22def1	-0.6362143
107	0xbe74c4b7	-0.23903166
108	0x3db0a56b	0.08625301
109	0xbea9728f	-0.33095214
110	0xbea5cd37	-0.3238313
111	0xbebeb27d	-0.3724555
112	0xbdb93fa0	-0.09045339
113	0xbddbfab3	-0.107411765
114	0xbeb00a40	-0.3438282
115	0x3d56bb5d	0.052424777
116	0xbea28514	-0.31742156
117	0xbf289623	-0.6585409
118	0xbd93f180	-0.07223797
119	0xbe659f33	-0.22424011
120	0xbf390817	-0.7227797
121	0xbefcb0de	-0.4935369
122	0xbdf28e45	-0.11843542
123	0xbd9f8f4b	-0.07791003
124	0xbbda094e	-0.0066539412
125	0xbc837c6f	-0.016050545
126	0xbdeea354	-0.11652246
127	0xbd8feba1	-0.070273645
128	0x3c815466	0.015787315
129	0xbc821de5	-0.015883395
130	0x3cd3929e	0.025826748
131	0xbe1d3669	-0.15352787
132	0xbe7a5b38	-0.2444886
133	0xbebe7900	-0.3720169
134	0x3e4e73e0	0.2016139
135	0x3d0dd10f	0.034623202
136	0x3e23d90d	0.16000767
137	0xbe97f369	-0.29677895
138	0xbd8deb5b	-0.06929656
139	0xbe09399e	-0.13400885
140	0xbda471e0	-0.080295324
141	0xbdf79883	-0.12089636
142	0xbdb34185	-0.08752731
143	0x3e3e3235	0.1857384
144	0xbef607d7	-0.48052856
145	0xbc6398a8	-0.013891377
146	0xbeda8a02	-0.42683417
147	0xbe88f0a4	-0.26746094
148	0xbdb32cdb	-0.0874879
149	0xbe055d3c	-0.13023847
150	0xbe8ee6d9	-0.27910498
151	0xbebcd7af	-0.36883304
152	0xbd9b88fe	-0.075944886
153	0xbe9d106e	-0.30676597
154	0xbe900d3d	-0.281351
155	0xbec3e0c9	-0.38257435
156	0x3b9d041b	0.004791749
157	0xbeff5de3	-0.49876317
158	0xbd11545f	-0.035480853
159	0xbd559efc	-0.052153572
160	0xbe80c033	-0.25146636
161	0xbea2788f	-0.31732604
162	0xbdd17e94	-0.10229221
163	0x3d6d3b70	0.057918012
164	0x3df242bf	0.11829137
165	0xbf2b9681	-0.67026526
166	0xbd0bb290	-0.034105837
167	0x3d941be0	0.07231879
168	0xbea082b6	-0.31349725
169	0x3d7cf159	0.061753605
170	0xbe9ad47c	-0.30240238
171	0x398e678f	0.00027161508
172	0xbde1d56f	-0.11027037
173	0x3d5602d8	0.052248806
174	0xbe669675	-0.22518332
175	0x3e2de4a7	0.16981755
176	0xbe30d6b3	-0.17269401
177	0xbe39c909	-0.18143095
178	0xbee36ee6	-0.44420546
179	0x3e9eee82	0.31041342
180	0x3d7e9368	0.062152296
181	0xbeeaf235	-0.45887914
182	0x3f06d16d	0.5266331
183	0x3e93bd88	0.28855538
184	0xbea5ec87	-0.3240702
185	0x3ee467c8	0.4461043
186	0x3ed4acb6	0.41538018
187	0xbc7b927e	-0.015354751
188	0xbe15ec5f	-0.1464095
189	0x3e4efa85	0.20212753
190	0xbf04aebc	-0.51829123
191	0x3e86e424	0.26345932
192	0x3f7e4843	0.9932901
193	0x3f3bbac4	0.73331857
194	0x3dd49fa7	0.10382014
195	0xbf423f42	-0.75877774
196	0x3f2ed22f	0.68289465
197	0xbe07173f	-0.13192461
198	0x3ea976b5	0.3309838
199	0xbd4ff005	-0.05076601
200	0xbd14c981	-0.03632498
201	0xbf03f8d1	-0.5155154
202	0xbc85298c	-0.016255163
203	0xbf0b9d21	-0.54536635
204	0x3f59d274	0.8508675
205	0x3d5affc2	0.053466566
206	0x3f643887	0.89148754
207	0x3f8f0347	1.1172875
208	0x3eb48cd2	0.35263687
209	0xbf2f3eb5	-0.6845506
210	0xbe3610c5	-0.17779835
211	0x3ed58a91	0.4170728
212	0xbea9629a	-0.3308304
213	0x3e87db94	0.26534712
214	0xbf8c6f1f	-1.0971411
215	0x3f2cff65	0.675772
216	0x3e7b3e18	0.24535406
217	0x3da04af0	0.07826793
218	0xbecb7045	-0.39734092
219	0x3f5e79ad	0.8690441
220	0xbcef635a	-0.02922218
221	0x3e8dd7b2	0.27703625
222	0x3e8a85fc	0.27055347
223	0xbe73a920	-0.23794985
224	0xbece4203	-0.40284738
225	0x3ea7adac	0.3274969
226	0xbeefb17b	-0.46815094
227	0xbe0aa7e9	-0.13540615
228	0x3ef67dc9	0.4814284
229	0x3c8bbe4f	0.01705852
230	0xbda09404	-0.07840732
231	0x3eafbfc4	0.34325993
232	0x3e84195c	0.25800598
233	0x3ca09f0e	0.019607093
234	0xbd8262ab	-0.06366476
235	0x3dc3e499	0.09565086
236	0xbd604dec	-0.054761812
237	0xbdae7df5	-0.08520118
238	0x3f4163d3	0.75542945
239	0x3bdca66e	0.006733707
240	0xbdedb7c5	-0.11607317
241	0x3ecd0a4e	0.40046924
242	0xbf2800c0	-0.65626144
243	0xbda75f9a	-0.081725314
244	0xbe9002c6	-0.28127116
245	0xbe99b440	-0.30020332
246	0x3db59477	0.08866208
247	0xbf177acb	-0.5917174
248	0xbe159c77	-0.14610468
249	0x3f22dbe0	0.6361675
250	0xbd1133e3	-0.035449874
251	0x3f054bc5	0.5206874
252	0xbefcea87	-0.4939768
253	0x3ebf349d	0.37344828
254	0xbd7ef3f0	-0.062244356
255	0xbe34762e	-0.17623207

pi.logits_net.0.bias f4 [64]
0	0xbde3a161	-0.11114765
1	0xbdf85497	-0.12125509
2	0x3ec64443	0.38723955
3	0x3e2901f8	0.16504657
4	0x3e242e17	0.16033207
5	0xbd4e147e	-0.05031251
6	0xbe45c5b4	-0.19313699
7	0x3e26b3d2	0.16279534
8	0x3e145347	0.14484893
9	0xbe7f61f3	-0.24939708
10	0xbd9a4695	-0.07532994
11	0x3df988f1	0.121843226
12	0xbece8114	-0.40332854
13	0xbd0a4b8a	-0.033763446
14	0x3dd8851a	0.10572262
15	0xbd47c186	-0.048768543
16	0xbb004552	-0.0019572568
17	0x3dac396c	0.0840939
18	0x3e800a3d	0.2500781
19	0xbe53cbfe	-0.20683286
20	0x3e574ae0	0.21024656
21	0xbe795a75	-0.24350913
22	0x3e95e1de	0.29273885
23	0xbe873b2c	-0.26412332
24	0x3e69eea4	0.2284494
25	0xbe84e2e9	-0.2595437
26	0x3cbcad17	0.023031754
27	0x3d2a5be6	0.041591547
28	0x3dca4e56	0.09878223
29	0x3dd1c5ea	0.10242827
30	0xbe6969c1	-0.22794248
31	0x3eaab94f	0.33344504
32	0xbdbb266f	-0.0913819
33	0xbdbc3278	-0.09189314
34	0x3dec3708	0.11533934
35	0x3da770c5	0.08175806
36	0xbeb45420	-0.35220432
37	0x3e202d95	0.15642388
38	0x3e2a939d	0.16657872
39	0x3e7106bc	0.23537725
40	0x3d1245fc	0.035711274
41	0xbe10a6a1	-0.14126064
42	0x3c451e1c	0.012031104
43	0x3b767100	0.0037603974
44	0xbbce5ba6	-0.0062975464
45	0x3cc395ae	0.023875084
46	0x3e71b66f	0.23604749
47	0x3e91d8f7	0.28485844
48	0xbd68f2ea	-0.056872286
49	0x3e07e098	0.1326927
50	0x3c900f5c	0.017585449
51	0x3b90d13e	0.004419475
52	0xbe30c9ec	-0.17264527
53	0xbeb5cc98	-0.35507655
54	0x3e88fc83	0.2675515
55	0xbe0aceaa	-0.13555399
56	0x3d8d558e	0.06901084
57	0xbe90241a	-0.28152543
58	0x3e0de760	0.13857794
59	0x3e0acac1	0.13553907
60	0x3e06b12a	0.1315352
61	0xbc0b4020	-0.008499175
62	0xbe8ba71a	-0.27275926
63	0x3daa4fb2	0.08315982

pi.logits_net.2.weight f4 [64, 64]
0	0x3cf3cec5	0.029761681
1	0x3eb74635	0.3579575
2	0x3e7d77b6	0.24752697
3	0x3e8df86a	0.27728587
4	0x3f49ca2c	0.78824115
5	0xbe686dec	-0.22698182
6	0xbe91354c	-0.28360975
7	0xbf0a600d	-0.5405281
8	0x3caa8ae8	0.020818189
9	0x3ea7cc1b	0.32772908
10	0x3f2ad4e3	0.6673109
11	0x3c59335c	0.013256874
12	0x3f2fac6f	0.6862249
13	0x3e99f602	0.30070502
14	0x3e987734	0.29778445
15	0xbe6a7a15	-0.22898133
16	0x3f1999cd	0.60000306
17	0x3dabac86	0.083825156
18	0x3eeb47b0	0.4595313
19	0x3ef6aa86	0.48176974
20	0xbec92497	-0.39285728
21	0x3e91d70b	0.28484377
22	0xbe48062c	-0.19533604
23	0x3f2f4073	0.68457717
24	0xbf6f38c0	-0.9344597
25	0x3e9f6809	0.3113406
26	0x3e41a6f9	0.18911351
27	0x3d5292a1	0.051409367
28	0xbe037e79	-0.12841214
29	0x3f0f5aa7	0.559977
30	0xbe36babe	-0.17844674
31	0x3f5aca0c	0.8546455
32	0xbd9b9907	-0.07597547
33	0xbec0e490	-0.3767438
34	0xbddd4be0	-0.10805488
35	0xbe5de4b7	-0.21669279
36	0x3f1fb65d	0.6238764
37	0x3e8ba4cd	0.2727417
38	0xbe175678	-0.14779079
39	0x3e1711b5	0.14752848
40	0xbdb10109	-0.086427756
41	0x3e5bc15e	0.21460482
42	0xbecd86f3	-0.4014202
43	0xbf00a08a	-0.50244963
44	0x3f5c931f	0.8616199
45	0xbf32fb5d	-0.699148
46	0x3ea7910f	0.32727858
47	0xbe56050b	-0.20900361
48	0xbd6c815f	-0.057740565
49	0xbcb02831	-0.02150354
50	0x3ef5e8bc	0.48029125
51	0x3e2a49fc	0.16629785
52	0xbf65b2ba	-0.8972584
53	0x3dd79677	0.10526746
54	0xbecc11a3	-0.39857206
55	0x3ed05752	0.4069162
56	0x3ec328f6	0.38117188
57	0xbe88859b	-0.26664433
58	0x3eda4efe	0.4263839
59	0xbe666ff2	-0.22503641
60	0xbe71dfe9	-0.23620571
61	0xbee5fcd2	-0.4491945
62	0x3e41bbe1	0.18919326
63	0x3e125206	0.14289102
64	0x3eb79c03	0.35861215
65	0x3e054686	0.13015184
66	0x3e9da8e8	0.30792928
67	0xbefebaf2	-0.49752003
68	0xbfbb031a	-1.4610322
69	0x3e54c6d3	0.2077897
70	0x3d923387	0.07138734
71	0x3f5ece72	0.8703376
72	0xbf01c550	-0.506917
73	0x3f12969f	0.5726108
74	0xbf0baa95	-0.5455716
75	0x3e35aa14	0.17740661
76	0x3f0584b2	0.521556
77	0xbca4591e	-0.020062026
78	0xbd1edeaa	-0.038786568
79	0xbedb50fa	-0.42835218
80	0x3eebd473	0.46060523
81	0xbe9ec0d2	-0.31006485
82	0x3e02c378	0.12769878
83	0xbeaef205	-0.3416902
84	0xbe0d7ccd	-0.13817139
85	0xbe38f3ff	-0.18061827
86	0x3d78dbcd	0.060756493
87	0x3e37a333	0.1793335
88	0xbe9cb8e9	-0.30609825
89	0x3db0831d	0.08618758
90	0xbdbbbbdb	-0.0916669
91	0x3e8a13f9	0.26968363
92	0x3ea9bebc	0.3315333
93	0xbe336457	-0.17518745
94	0x3ed49a05	0.41523758
95	0xbeb464d8	-0.35233188
96	0xbd9b7c63	-0.07592084
97	0x3de80023	0.11328151
98	0x3d1b87a1	0.037971143
99	0xbdd2cdcc	-0.10293159
100	0x3f345c60	0.70453453
101	0x3ed094dd	0.40738574
102	0xbe81782b	-0.25286993
103	0xbe9d4cb1	-0.30722573
104	0xbcc8a6e9	-0.024493651
105	0x3f5c281e	0.85998714
106	0x3d5e4272	0.054262586
107	0x3f62c7fb	0.88586396
108	0x3e3e8156	0.18604025
109	0xbedd3b3a	-0.4320925
110	0xbf3cb42c	-0.7371242
111	0xbf86ac28	-1.0521288
112	0x3ed1bbe4	0.40963662
113	0x3e20092a	0.15628496
114	0x3eb5aef7	0.3548505
115	0x3e325fae	0.17419311
116	0x3d0d3bb6	0.034480773
117	0xbe0bcba6	-0.13651904
118	0x3ec0469d	0.37553874
119	0x3efacb2f	0.48983142
120	0x3eac95e2	0.33708102
121	0x3dedb406	0.11606602
122	0xbe927eaa	-0.28612262
123	0x3e93ee93	0.28892955
124	0xbe7837dc	-0.24240059
125	0x3e8a0aad	0.2696127
126	0xbe10cc16	-0.14140353
127	0x3e9d9b51	0.3078256
128	0xbd629e63	-0.05532683
129	0x3f112263	0.56693095
130	0x3d5e5859	0.054283474
131	0xbedf7531	-0.43644097
132	0x3f1a08b9	0.6016956
133	0xbd8975cc	-0.06711921
134	0x3eb0de69	0.34544685
135	0x3e56feb1	0.20995595
136	0x3f2f9670	0.68588924
137	0xbf803103	-1.0014957
138	0x3dfcfb5e	0.12352632
139	0xbe4ef8b5	-0.20212062
140	0xbd445107	-0.047928836
141	0x3e217dae	0.15770599
142	0x3f047125	0.51735145
143	0x3e838426	0.2568676
144	0xbe978b8d	-0.29598656
145	0x3e2997f1	0.16561867
146	0x3db64c1a	0.08901234
147	0x3ea3b350	0.31972742
148	0x3edd4b64	0.4322158
149	0x3eacdfa5	0.33764377
150	0xbe5ba0b2	-0.21448019
151	0x3cd0d8f7	0.025494082
152	0x3e23b6e7	0.1598774
153	0xbeff4850	-0.49859858
154	0x3e205cdf	0.15660428
155	0xbc138f04	-0.009006266
156	0x3d105e7a	0.03524635
157	0x3b6f351b	0.003650016
158	0xbf427927	-0.75966114
159	0xbeae10d1	-0.33997205
160	0xbe833d10	-0.25632524
161	0xbf450c27	-0.7697167
162	0x3d61b467	0.055103686
163	0xbf199fc0	-0.60009384
164	0xbf46358f	-0.77425474
165	0x3e24faa4	0.16111237
166	0x3f0e4ca3	0.5558569
167	0x3eb96d00	0.36215973
168	0xbe842cf2	-0.2581554
169	0xbf6431f2	-0.8913871
170	0xbee2881f	-0.44244477
171	0xbee1e0ff	-0.4411697
172	0xbdff6dbf	-0.12472104
173	0xbe39f0f5	-0.18158324
174	0xbd53b4c5	-0.051686067
175	0x3d292ffd	0.04130553
176	0x3f0037ad	0.50084955
177	0x3e42f613	0.19039182
178	0xbd3dfe2a	-0.046384968
179	0xbf4ba45b	-0.7954766
180	0x3c91fe62	0.017821494
181	0x3f06fba6	0.52727735
182	0x3e2162d0	0.1576035
183	0x3d171667	0.0368866
184	0xbe9c5c4d	-0.3053917
185	0x3eecafbc	0.46227825
186	0x3d3be7b6	0.045875274
187	0x3e822716	0.25420445
188	0xbe62271f	-0.22085236
189	0x3d604c8a	0.054760493
190	0x3efaa650	0.4895501
191	0x3e39cd80	0.18144798
192	0xbf716383	-0.9429247
193	0xbf4f3199	-0.80935055
194	0xbef451ad	-0.47718564
195	0x3ed7983f	0.42108342
196	0xbecbe796	-0.39825124
197	0x3d65f181	0.05613852
198	0xbf3ea13d	-0.7446478
199	0xbedf67d7	-0.4363391
200	0xbd075c7f	-0.033047196
201	0xbea2f1ed	-0.318252
202	0x3e6d9945	0.23202999
203	0xbec0903e	-0.37610048
204	0x3e27cb6f	0.16386198
205	0xbf19c79c	-0.60070205
206	0xbe19e0b0	-0.15027118
207	0x3db728a3	0.08943298
208	0x3f26e075	0.65186244
209	0x3ea6c0e8	0.3256905
210	0xbd073cf2	-0.033017106
211	0xbf1ba143	-0.6079294
212	0x3eb55596	0.3541686
213	0xbee46956	-0.44611615
214	0xbf777fdb	-0.96679467
215	0xbd98ebd1	-0.074668534
216	0xbdb90857	-0.09034794
217	0xbed3790a	-0.41303283
218	0xbe3fca0f	-0.18729423
219	0xbd7c5f88	-0.061614543
220	0x3e51eda8	0.20500815
221	0x3db44377	0.088019304
222	0xbf57131f	-0.8401355
223	0xbf3de79d	-0.7418154
224	0x3ed64b4a	0.41854316
225	0x3cc5cf35	0.024146656
226	0xbf24a3a6	-0.6431221
227	0xbf310169	-0.69142777
228	0xbeee5ce3	-0.46555242
229	0xbf1d9962	-0.6156217
230	0xbbb11b0a	-0.0054048346
231	0xbdda9df7	-0.10674661
232	0x3ead8cb8	0.33896422
233	0x3dd85b2c	0.10564265
234	0xbdb4522c	-0.088047355
235	0xbeed3361	-0.46328261
236	0x3d8ca4af	0.068673484
237	0x3e83c798	0.25738215
238	0xbead0d80	-0.33799362
239	0x3d77ecfe	0.060528748
240	0x3ede2739	0.433893
241	0x3e0a5c19	0.13511695
242	0x3cc6da7a	0.0242741
243	0xbdf588c1	-0.11988974
244	0x3e9ad438	0.30240035
245	0x3f025ead	0.50925714
246	0xbd159213	-0.03651626
247	0x3dad0733	0.08448639
248	0x3ddc8f2d	0.10769496
249	0xbf1ea0a8	-0.6196389
250	0xbf3444ae	-0.70417297
251	0xbf80abff	-1.0052489
252	0x3d97b18d	0.07406912
253	0xbed0a78d	-0.4075283
254	0x3e7ae630	0.24501872
255	0xbf0d0fa2	-0.5510198

pi.logits_net.2.bias f4 [64]
0	0x3e6b0345	0.22950466
1	0xbe4ad9fc	-0.19809717
2	0x3e9cbdcb	0.3061355
3	0xbe49a456	-0.19691595
4	0xba964e72	-0.001146747
5	0xbde23df7	-0.11046975
6	0xbe97692c	-0.29572427
7	0xbe43dd0b	-0.1912729
8	0xbdf5c8ce	-0.12001191
9	0xbe001c27	-0.1251074
10	0x3e045963	0.12924723
11	0x3e70f69c	0.23531574
12	0x3e253fcc	0.16137618
13	0x3cbbcf6d	0.022926057
14	0x3eb3b84d	0.35101548
15	0x3d6873df	0.05675113
16	0xbd4eb877	-0.050468888
17	0xbc8a9172	-0.016915057
18	0x3d060539	0.032719824
19	0x3e61b899	0.22043075
20	0x3d9aace3	0.07552507
21	0xbe40adad	-0.18816252
22	0xbe15f21f	-0.14643143
23	0x3e04f51d	0.12984128
24	0xbd814b01	-0.06313134
25	0x3ded1db8	0.11577934
26	0x3e2e1f0b	0.1700403
27	0xbebf4447	-0.3735678
28	0x3f1f383c	0.6219518
29	0xbe73fce9	-0.23826946
30	0xbeec853b	-0.46195397
31	0x3e8e4b17	0.27791664
32	0x3e30293a	0.17203227
33	0x3e70ba9c	0.23508686
34	0x3dce07e1	0.100600965
35	0x3d4de84e	0.05027037
36	0xbee7d275	-0.45277753
37	0xbea9a0fd	-0.33130637
38	0xbebedce1	-0.37277892
39	0x3eae47e9	0.34039238
40	0x3eaa394e	0.33246845
41	0xbe058985	-0.13040741
42	0xbe157974	-0.14597112
43	0x3d6f4baf	0.058421787
44	0xbed89368	-0.42299962
45	0x3e424dfe	0.18975064
46	0x3e5a0d88	0.21294224
47	0xbed31835	-0.41229406
48	0x3c373c47	0.011183805
49	0x3dc8da99	0.09807319
50	0x3e9c86ad	0.305715
51	0xbeea9f14	-0.45824492
52	0x3e03ecf0	0.12883353
53	0xbda5e3d8	-0.08100098
54	0x3d289152	0.041154213
55	0x3e48272a	0.1954619
56	0x3eca7ee1	0.39549926
57	0x3d5d912b	0.05409352
58	0x3d2084bb	0.03918908
59	0x3d94b292	0.07260622
60	0x3e01089f	0.12600945
61	0xbe325370	-0.17414641
62	0x3ef4f7a1	0.47845176
63	0xbe7b5c84	-0.2454701

pi.logits_net.4.weight f4 [87, 64]
0	0x3f4fc95f	0.8116664
1	0xbf8c48d5	-1.0959727
2	0xbe6fec6e	-0.23430035
3	0x3dc56b33	0.09639587
4	0x3d6fd142	0.058549173
5	0xbf3c8168	-0.7363496
6	0xbf0c0cc9	-0.5470701
7	0xbf2e434b	-0.6807143
8	0xbf0bdd73	-0.5463478
9	0xbe50f238	-0.20404899
10	0x3f169b42	0.58830655
11	0x3e8eda3e	0.2790088
12	0xbd311c4c	-0.043239877
13	0xbeac9526	-0.3370754
14	0x3f1cc14f	0.61232466
15	0xbf508228	-0.814486
16	0x3e9d3ffd	0.30712882
17	0x3e62ce3b	0.22148983
18	0xbf0b1994	-0.54335904
19	0xbef90db1	-0.48643258
20	0xbf0e7a86	-0.55655706
21	0xbd07484a	-0.033027925
22	0x3fa6f70e	1.3044145
23	0x3f073644	0.5281718
24	0x3f46d4f3	0.77668685
25	0x3f1f9105	0.6233066
26	0xbceaeba5	-0.028676817
27	0xbda7125c	-0.08157799
28	0x3e33412e	0.17505333
29	0x3fad76b1	1.3551847
30	0xbea04150	-0.3129983
31	0x3f733054	0.9499562
32	0x3f25785c	0.6463678
33	0x3ef5ca51	0.48005918
34	0x3f73b275	0.9519418
35	0x3f4e2fec	0.8054187
36	0xbe81fd68	-0.25388646
37	0xbea546cf	-0.32280585
38	0x3e80fa48	0.2519095
39	0x3f3fc260	0.7490597
40	0x3f1cb2f3	0.61210555
41	0xbc4ac466	-0.012375927
42	0xbe822f39	-0.25426653
43	0x3da12402	0.07868196
44	0xbe7c1b32	-0.24619749
45	0xbea7f3b9	-0.32803133
46	0x3e1f285f	0.15542744
47	0xbf70fcd6	-0.941358
48	0x3ed9abf5	0.42514005
49	0x3f7f836b	0.998099
50	0x3f30710e	0.6892251
51	0xbed375d1	-0.41300824
52	0x3efbbd64	0.4916793
53	0xbf089f29	-0.5336786
54	0x3edfd495	0.43716875
55	0x3f42e234	0.7612641
56	0xbe9639fa	-0.29341108
57	0x3f8c0836	1.0940006
58	0xbf037744	-0.5135386
59	0x3eee6189	0.46558788
60	0xbedcee7b	-0.43150696
61	0x3e040a41	0.12894537
62	0x3ed21007	0.41027853
63	0xbf11a9c2	-0.56899655
64	0x3ed818e6	0.42206496
65	0xbea4397c	-0.32075107
66	0xbeb94e49	-0.3619254
67	0xbee6a58b	-0.45048174
68	0xbf753bbb	-0.95794266
69	0x3ef64f69	0.4810746
70	0xbe58eb35	-0.21183474
71	0xbecff242	-0.40614516
72	0xbf39977b	-0.72496766
73	0xbdc7490a	-0.09730728
74	0xbf0c17c7	-0.5472378
75	0x3f9ab122	1.2085307
76	0xbfb28293	-1.3946098
77	0x3f8116a6	1.0085037
78	0xbe94f3da	-0.29092294
79	0x3ec21172	0.37903935
80	0xbe8a9f55	-0.27074686
81	0xc00931e3	-2.1436698
82	0x3ec9f2c4	0.39443028
83	0xbf344ee3	-0.7043287
84	0x3e67af0f	0.22625373
85	0xbf4a6c3a	-0.7907139
86	0x3f149441	0.5803872
87	0xbd7732b4	-0.06035109
88	0xbea135cf	-0.31486365
89	0xbebf5fb2	-0.37377697
90	0x3d8e5341	0.06949473
91	0xbbdcd641	-0.0067394082
92	0x3e8a9ec1	0.27074245
93	0xbee738f7	-0.45160648
94	0xbe73b16e	-0.23798153
95	0xbec8a874	-0.3919102
96	0xbf85c9f1	-1.0452253
97	0x3e11775d	0.1420569
98	0xbd0ae81c	-0.033912763
99	0xbf8a2872	-1.0793593
100	0xbe950a1b	-0.29109272
101	0x3f3596e9	0.70933396
102	0xbed0c60f	-0.40776107
103	0xbf4fa0ca	-0.8110472
104	0x3ec1c89d	0.37848368
105	0xbea8f762	-0.33001238
106	0x3f1cc2f1	0.61234957
107	0x3f0a4a5b	0.5401971
108	0xbea98c20	-0.3311472
109	0x3f809771	1.0046216
110	0xbf7e5f35	-0.99364024
111	0x3f6b233c	0.9185064
112	0x3f27cab5	0.6554368
113	0xbfa4e9ee	-1.288389
114	0x3f126483	0.5718462
115	0x3e9a9a4f	0.30195853
116	0xbf17f19c	-0.5935304
117	0xbf56657e	-0.83748615
118	0x3d4a3754	0.04936917
119	0x3e65f5db	0.22457068
120	0x3f0f8b07	0.56071514
121	0x3f0aea41	0.54263693
122	0xbf3c655c	-0.7359216
123	0xbcdde209	-0.027085321
124	0x3e9b00b6	0.3027398
125	0xbf11b79b	-0.56920785
126	0x3e9022c6	0.2815153
127	0x3f145646	0.5794414
128	0x3e807835	0.2509171
129	0x3ed0a16e	0.4074816
130	0x3f11bbdf	0.56927294
131	0xbf207b8f	-0.62688535
132	0xbea85fc1	-0.32885554
133	0x3e371645	0.17879589
134	0xbe549698	-0.20760572
135	0x3db26d02	0.08712198
136	0xbe9e4a19	-0.30915907
137	0xbdf096d5	-0.11747519
138	0xbd0bb25b	-0.03410564
139	0xbf3d84b8	-0.7403064
140	0xbe934910	-0.2876668
141	0x3d650983	0.055917274
142	0x3e58b324	0.21162087
143	0x3efe3ac1	0.496542
144	0xbe809ec8	-0.2512114
145	0x3efb7ecb	0.49120173
146	0xbe0f180f	-0.13974021
147	0xbf1539cc	-0.58291316
148	0xbd90e304	-0.0707455
149	0xbf554acb	-0.8331725
150	0x3e6e3305	0.2326165
151	0x3eabd696	0.33562154
152	0xbec557af	-0.3854346
153	0xbe8929df	-0.26789758
154	0x3f32f742	0.69908535
155	0xbe10a54f	-0.1412556
156	0x3edbfaf8	0.4296491
157	0xbea688fa	-0.3252638
158	0x3c188e7b	0.009311314
159	0xbdd71ecf	-0.10503923
160	0xbe9fb9f9	-0.31196573
161	0xbd57595f	-0.052575465
162	0x3f234e0e	0.63790977
163	0xbf4dcc8b	-0.8039023
164	0xbe51b899	-0.20480575
165	0x3dbbf442	0.09177448
166	0xbecfbcff	-0.4057388
167	0xbf262968	-0.6490693
168	0x3ebe674f	0.37188193
169	0xbd1aafde	-0.037765376
170	0x3eb84807	0.35992453
171	0x3e2c6601	0.16835786
172	0xbe93f658	-0.28898883
173	0x3ea44d32	0.32090145
174	0x3e780828	0.24221861
175	0x3e79bc72	0.24388292
176	0x3e15e5fd	0.14638515
177	0xbf3afb3f	-0.7303962
178	0xbe45bae7	-0.19309579
179	0xbde04983	-0.10951521
180	0x3e8fc8a8	0.28082776
181	0xbedc7526	-0.43058127
182	0x3e9a43f1	0.3012996
183	0x3f041494	0.515939
184	0x3f4aa95a	0.7916466
185	0x3eb64f0a	0.35607177
186	0xbdd876c5	-0.105695285
187	0x3ed57dd9	0.41697577
188	0x3ecd862e	0.40141433
189	0xbec696ab	-0.38786826
190	0x3e9dc6c9	0.30815724
191	0xbe36db89	-0.17857184
192	0xbe8a69eb	-0.27033934
193	0x3e7d9ad9	0.24766101
194	0x3e731315	0.23737748
195	0xbf14445a	-0.57916796
196	0xbecdd380	-0.40200424
197	0x3e9659e6	0.29365462
198	0xbf1026dd	-0.563093
199	0x3e2060bc	0.15661901
200	0xbf344db3	-0.7043106
201	0x3c8ad4fd	0.016947264
202	0xbf4044ac	-0.75104785
203	0x3e6e0b28	0.23246443
204	0xbdd97887	-0.10618692
205	0x3e18ce80	0.14922523
206	0x3ba0d14a	0.0049077617
207	0xbee43228	-0.44569516
208	0xbdbd054e	-0.092295274
209	0xbfaa824a	-1.3321011
210	0x3e567bcc	0.20945662
211	0x3e9c3581	0.3050957
212	0xbeb85acb	-0.3600677
213	0x3e79ced5	0.24395306
214	0x3f02ce52	0.5109607
215	0x3eede794	0.46465743
216	0xbe3bfbba	-0.18357745
217	0x3d281ee4	0.041045085
218	0xbf6c5406	-0.9231571
219	0xbe6c7e32	-0.23095015
220	0x3e1ca3a7	0.15296803
221	0xbf629576	-0.8850931
222	0xbe98d619	-0.29850844
223	0xbe838dbd	-0.25694075
224	0xbdc0fd35	-0.094232954
225	0xbf6eb79b	-0.9324891
226	0x3ef9ab45	0.4876348
227	0xbf422445	-0.7583659
228	0xbf008091	-0.50196177
229	0xbe0525e9	-0.13002743
230	0xbe0ff198	-0.14057004
231	0xbe8dba2e	-0.27681106
232	0x3f4f07a9	0.80871063
233	0xbf48c1e4	-0.78420854
234	0x3f1c6527	0.61091846
235	0x3f1aba25	0.60440284
236	0xbe21a8ca	-0.15787044
237	0x3f29bb22	0.66301167
238	0x3d953a77	0.07286542
239	0xbec099d5	-0.37617365
240	0x3f062034	0.5239289
241	0xbcbe83ed	-0.023256266
242	0xbf2d33cd	-0.67657167
243	0xbf13e204	-0.5776675
244	0xbf0f1b1b	-0.55900735
245	0xbefb41b6	-0.4907357
246	0x3f3ca79a	0.7369324
247	0x3eb1e38b	0.34743914
248	0x3f18a223	0.596224
249	0xbf14e387	-0.5815968
250	0x3f1fb8fd	0.62391645
251	0xbd4a1248	-0.04933384
252	0x3eadf5fc	0.33976734
253	0x3efa4bed	0.48886052
254	0x3f00c71a	0.50303805
255	0xbf5371a9	-0.82595307

pi.logits_net.4.bias f4 [87]
0	0x3f069096	0.5256437
1	0x3eaeac4f	0.34115836
2	0x3e84bc5f	0.25924966
3	0x3eb7a698	0.35869288
4	0x3e8fcd21	0.28086188
5	0x3e95bd72	0.29246098
6	0x3dc9e892	0.098588124
7	0x3e98f0da	0.29871255
8	0x3d7d24c5	0.061802644
9	0x3eb3d029	0.3511975
10	0x3e30b61f	0.17256974
11	0x3edc4b4b	0.43026194
12	0x3f0c26de	0.54746807
13	0x3d870373	0.06592455
14	0x3e775b62	0.24155954
15	0x3eafd662	0.3434325
16	0x3f1784e3	0.59187144
17	0x3f00a30b	0.50248784
18	0x3e9ef087	0.31042883
19	0x3f0a755a	0.54085314
20	0x3e396de7	0.1810833
21	0xbda3d6b3	-0.07999935
22	0x3edc4153	0.43018588
23	0x3ea08824	0.31353867
24	0x3ef1d2d6	0.47231168
25	0x3e3e4d2a	0.18584123
26	0x3e8b1fb7	0.27172634
27	0x3f1216cc	0.57066035
28	0x3e6a4f9b	0.2288193
29	0x3ef4409e	0.4770555
30	0x3ea117be	0.31463426
31	0x3e927c28	0.2861035
32	0x3ed614f2	0.41812855
33	0x3f4f85fb	0.8106381
34	0x3dba1ba2	0.09087302
35	0x3e4449ae	0.19168732
36	0x3f11bb57	0.5692648
37	0x3e7a9a31	0.24472882
38	0x3da6b687	0.08140283
39	0x3e79cca1	0.24394466
40	0x3e92284f	0.28546378
41	0x3e9ade73	0.3024784
42	0x3ee2b3a2	0.44277674
43	0x3ec0c8eb	0.37653288
44	0x3ebdfe7f	0.37108228
45	0x3d868f43	0.06570294
46	0x3e7166bd	0.23574348
47	0x3e90f728	0.28313565
48	0x3ed3411f	0.4126062
49	0x3e3e95ad	0.18611784
50	0x3edb4ffa	0.42834455
51	0x3ec9370b	0.39299807
52	0x3ea96952	0.33088166
53	0x3e57471c	0.2102322
54	0x3ed0c17f	0.40772626
55	0x3e8f4c61	0.2798796
56	0x3edb73d3	0.42861804
57	0x3ea1ad60	0.31577587
58	0x3e2b970d	0.1675684
59	0x3f2d63b8	0.67730284
60	0x3d8c43b2	0.06848849
61	0x3e91f9cc	0.28510892
62	0x3dfbd347	0.12296157
63	0x3f134cf5	0.575393
64	0x3f35e1b1	0.710475
65	0x3e8f85b7	0.28031704
66	0x3eb818da	0.3595646
67	0x3e9474e2	0.28995425
68	0x3ef2b326	0.47402304
69	0x3eb565d7	0.3542926
70	0x3eb7719c	0.35828865
71	0x3ebee4f8	0.37284064
72	0x3e3961ce	0.18103716
73	0x3f0b62d6	0.54447687
74	0x3e9b4c68	0.3033173
75	0x3e837009	0.25671414
76	0x3f2464ae	0.64216125
77	0x3e7508c2	0.23929122
78	0x3f205965	0.62636405
79	0x3dd1bde6	0.102412984
80	0x3ea9f9ac	0.33198297
81	0x3f13540f	0.5755014
82	0x3e8c767d	0.2743415
83	0x3e908e0d	0.28233376
84	0x3e70c3de	0.23512217
85	0x3f487195	0.7829831
86	0x3ec6b062	0.38806444

v.v_net.0.weight f4 [64, 282]
0	0x3d9fab57	0.07796352
1	0x3e686bbd	0.22697349
2	0x3df4a066	0.11944656
3	0xbe4d7a8f	-0.20066284
4	0x3dcdba69	0.100453205
5	0xbd818925	-0.06324986
6	0xbd404d17	-0.04694852
7	0xbd480fc0	-0.048843145
8	0x3e0ae5ff	0.13564299
9	0xc004ea8e	-2.076816
10	0x3eec8594	0.46195662
11	0x3e7bfc49	0.24607958
12	0x3d96b479	0.07358641
13	0x3d814a22	0.06312968
14	0xbd9895f7	-0.074504785
15	0xbe33f04b	-0.17572133
16	0x3d88a804	0.066726714
17	0x3d401219	0.04689226
18	0x3df82737	0.12116855
19	0xbc9bfe9a	-0.019042302
20	0x3dc85d44	0.09783414
21	0x3d31da6e	0.0434212
22	0xbe6f9b20	-0.23399019
23	0xbd90fc65	-0.070793904
24	0xbefcee4f	-0.49400565
25	0x3e114aff	0.14188765
26	0xbbbfa027	-0.005847949
27	0xbdc2dfae	-0.0951532
28	0xbb235d4f	-0.0024927442
29	0x3e0867ff	0.13320921
30	0xbd9b0e29	-0.0757106
31	0x3e07964d	0.13240929
32	0x3e325fbd	0.17419334
33	0xbe1d9a7f	-0.15390967
34	0xbcb35513	-0.021891152
35	0xbce11a1c	-0.02747827
36	0xbd55497d	-0.052072037
37	0x3e083c99	0.13304366
38	0x3e17c298	0.14820325
39	0x3e2d4f97	0.16924892
40	0x3dfc1b9a	0.12309952
41	0x3eefe3da	0.46853524
42	0x3e2b42b1	0.1672466
43	0x3e040c1e	0.12895247
44	0xbe90eb33	-0.28304443
45	0x3d894205	0.06702045
46	0x3ded6e9b	0.11593362
47	0x3e1bed20	0.15227175
48	0x3ec74a52	0.3892389
49	0xbcafd19d	-0.021462256
50	0xbda6ac76	-0.08138363
51	0x3e0c695c	0.13712066
52	0x3ed32c4c	0.41244733
53	0x3dd93d69	0.10607416
54	0x3e855388	0.26040292
55	0x3d2a9226	0.041643284
56	0x3e8dcc01	0.27694705
57	0xbdc88042	-0.09790088
58	0x3d646b84	0.055766597
59	0xbd7adaa7	-0.06124368
60	0xbcfbfe7f	-0.030761002
61	0x3e2c0dc6	0.16802129
62	0x3d658489	0.0560346
63	0x3edb3bf0	0.42819166
64	0x3e38b277	0.18036829
65	0x3ddb7d32	0.107172385
66	0xbdcfa987	-0.10139757
67	0x3ecbebe4	0.39828408
68	0x3d31a0ed	0.04336636
69	0x3de677ec	0.11253342
70	0x3e255bf8	0.16148365
71	0x3d6bafd1	0.05754072
72	0x3d8864fd	0.06659887
73	0x3de202f9	0.11035723
74	0x3ef862bc	0.48512828
75	0x3cf25865	0.029583165
76	0x3e6e6c3d	0.23283477
77	0xbc7d4239	-0.015457683
78	0xbe6167bf	-0.22012232
79	0x3d6671ba	0.0562608
80	0x3f01bbc0	0.5067711
81	0x3d301934	0.042992786
82	0x3af79c16	0.0018891122
83	0x3b38fb21	0.0028225856
84	0x3dff5d96	0.12469022
85	0x3e11cd05	0.14238365
86	0x3ee2c566	0.44291228
87	0x400b84b0	2.1799736
88	0xbe7dbb76	-0.24778542
89	0xbe2f88f1	-0.17142083
90	0xbecc1829	-0.39862183
91	0xbf02e6c4	-0.5113337
92	0xbebff80f	-0.3749394
93	0xbede1aef	-0.43379924
94	0xbe7adc3e	-0.24498078
95	0x3df1a13b	0.117983304
96	0x3f014312	0.50492966
97	0xbfbb20a9	-1.4619342
98	0x3f1ef0f3	0.6208641
99	0x3e5b6e2f	0.2142875
100	0xbd60032d	-0.05469053
101	0x401ae8b8	2.420454
102	0x3f2c04f4	0.6719506
103	0x3ea640eb	0.32471403
104	0xbf430e51	-0.7619372
105	0x3e9b9ef5	0.30394712
106	0x3fca00db	1.5781511
107	0x3fb86321	1.4405252
108	0x3f5a3da9	0.85250336
109	0x3d192f8b	0.037398856
110	0xbebef8d2	-0.3729921
111	0xbf5653f2	-0.8372184
112	0xbeaff71d	-0.3436822
113	0x3f521a9f	0.8207187
114	0xbe8db218	-0.27674937
115	0x3c80df13	0.01573137
116	0x408bf8ec	4.374136
117	0x3faa402f	1.3300837
118	0xbf057e63	-0.52145976
119	0xbf8f9bc8	-1.1219416
120	0x40732d0a	3.799624
121	0x3fd677ca	1.6755307
122	0xbf8c747d	-1.0973049
123	0xbf4745bc	-0.7784078
124	0x3c4c5e8b	0.012473713
125	0x3e491532	0.19636992
126	0xbf166fc6	-0.587643
127	0xbf17c4cd	-0.5928467
128	0xbf0be3a8	-0.5464425
129	0x3da2a0fe	0.07940863
130	0x3eb4091f	0.3516321
131	0xbfa62565	-1.2980162
132	0xbc84d8b2	-0.01621661
133	0xbef9f3cb	-0.48818812
134	0xbf96f0bf	-1.179222
135	0xbf16b7a1	-0.58873945
136	0xbec7443b	-0.38919243
137	0x3fb1dafa	1.3894951
138	0x3fea0793	1.8283561
139	0xbf0338ce	-0.5125855
140	0x3ed2044e	0.4101891
141	0xbf27b579	-0.6551128
142	0xbeb8bbfc	-0.3608092
143	0x3fe9bda9	1.8261005
144	0x3f72c615	0.948335
145	0x3f25f725	0.6483024
146	0x40219a72	2.5250516
147	0x3fca23ef	1.5792216
148	0x3e514749	0.2043735
149	0xbf35c6dc	-0.7100656
150	0x3f3235ac	0.69613147
151	0x3fdb41a4	1.7129407
152	0x3f721763	0.94566935
153	0xbc6e2d41	-0.014537157
154	0x3f003da8	0.5009408
155	0x3f39f68b	0.7264182
156	0x3f17ad30	0.5924864
157	0xc0015399	-2.0207274
158	0x404ae0d3	3.1699722
159	0x3e40c5c3	0.1882544
160	0xbf726367	-0.94682926
161	0x3f932bf9	1.1497794
162	0x3f3d7a92	0.7401515
163	0x3fcbd5cb	1.592462
164	0xbe8bc2d6	-0.27297086
165	0x3ff90e75	1.9457537
166	0x3da07d89	0.07836444
167	0x3f91a08c	1.137712
168	0x3fd678ee	1.6755655
169	0xbe007dff	-0.12548064
170	0x3fe77601	1.8082887
171	0x3ee5573f	0.44793126
172	0x3faf688d	1.3703781
173	0x3e2ddc71	0.16978623
174	0x3fb90039	1.4453193
175	0xc04ec17e	-3.2305598
176	0x40076dbe	2.1160731
177	0xc09c6440	-4.8872375
178	0x409f48ed	4.977652
179	0x3f9103c3	1.1329273
180	0x40b86c07	5.763187
181	0xc0393c46	-2.8943038
182	0xbe1d478d	-0.15359326
183	0x3f82c617	1.0216702
184	0x3e082a6f	0.13297437
185	0x3f3a003d	0.72656614
186	0xc116bc21	-9.42093
187	0xbf538d26	-0.8263725
188	0xc014c8d4	-2.3247576
189	0xbe0d26f2	-0.13784388
190	0x3ff9d565	1.9518248
191	0x404e7eab	3.2264812
192	0x3ecaeabb	0.3963221
193	0x3bf7b46c	0.0075593498
194	0x3f631e93	0.8871853
195	0xbf7738a2	-0.9657079
196	0x3e050193	0.12988882
197	0xbf8b5e98	-1.0888243
198	0xbeb32d10	-0.34995317
199	0xbfe6bee5	-1.8027006
200	0x3edd2c0c	0.43197668
201	0xbfaf4820	-1.3693886
202	0x3ff07924	1.8786969
203	0xbeea6493	-0.45779857
204	0xbed61285	-0.41811004
205	0x3e6f42fd	0.23365398
206	0xbf193b1f	-0.59855837
207	0xbf8b6077	-1.0888814
208	0x40103774	2.2533846
209	0xbe2f17bd	-0.17098899
210	0x3f6adc1b	0.91742104
211	0x3fd9108d	1.6958176
212	0x3fae82f8	1.3633718
213	0xbf1c3cdf	-0.6103038
214	0xbe7d156a	-0.247152
215	0xc099c7d4	-4.805643
216	0xbf067417	-0.5252089
217	0xbe3b0cb5	-0.18266566
218	0x3edeb936	0.4350068
219	0xbe8efab6	-0.27925652
220	0x3d5d457d	0.054021347
221	0xc02b2884	-2.6743479
222	0x3eeb6d41	0.45981792
223	0xbe5da492	-0.2164481
224	0xbf810179	-1.0078574
225	0x3fd55cc3	1.6668934
226	0x3e7f3947	0.24924193
227	0x3f672009	0.90283257
228	0xbf307f67	-0.689444
229	0x3f59ddad	0.85103875
230	0x3f71b9ec	0.9442432
231	0x3f8cbabf	1.099449
232	0xc0180fb7	-2.3759592
233	0x404d4dd7	3.207876
234	0xbf7b114a	-0.98073256
235	0x3f937bbc	1.1522136
236	0x3f270e8c	0.6525657
237	0x3f794f18	0.9738631
238	0xbe23dd25	-0.16002329
239	0xbdd1895b	-0.102312766
240	0xbee11031	-0.43957666
241	0x3fd4a468	1.6612673
242	0x3fd143e5	1.6348845
243	0x3eef1e59	0.4670284
244	0x3f6e42f9	0.9307094
245	0x3f1747f5	0.5909417
246	0x4068b0ba	3.6357865
247	0xbfa65db8	-1.2997351
248	0x3fcb42ee	1.58798
249	0x3f2d3406	0.67657506
250	0x3f3c1395	0.7346738
251	0x401593da	2.3371491
252	0x3ff2c70e	1.8966997
253	0xbf925fb3	-1.1435455
254	0xbebfd7d5	-0.37469354
255	0xbe657a38	-0.22409904

v.v_net.0.bias f4 [64]
0	0x403535f8	2.831419
1	0xc010cca6	-2.2624907
2	0xbfc22409	-1.5167247
3	0xbba54146	-0.0050431816
4	0xc1334234	-11.203663
5	0x40374574	2.863614
6	0x3ce509a3	0.027958697
7	0xc013414f	-2.3008611
8	0x3ff88550	1.9415684
9	0x4004c5d3	2.0745742
10	0xbf1fc53f	-0.6241035
11	0x3f0221b4	0.50832677
12	0x3f7b1db1	0.9809218
13	0x3f62051f	0.88289064
14	0xbf0174e1	-0.5056897
15	0xbfa9e54e	-1.3273103
16	0x3f97ca7f	1.1858672
17	0xbf2cca7a	-0.67496455
18	0x3f35d644	0.7103007
19	0xbfc921cb	-1.5713438
20	0xbf7b29e9	-0.98110825
21	0x3f22f999	0.63662106
22	0xbfa02b1e	-1.2513158
23	0x3e49df70	0.19714141
24	0x3f0848ba	0.5323597
25	0x3fcbeeb1	1.5932218
26	0xc01e4724	-2.473092
27	0xc03b1935	-2.9234135
28	0xbfa13930	-1.2595577
29	0xbf9d1d7d	-1.2274624
30	0x3f292414	0.66070676
31	0x3f81013f	1.0078505
32	0xbcf38a32	-0.029728983
33	0xbf8be141	-1.0928117
34	0x4044b7ae	3.073711
35	0x3f2db83f	0.6785926
36	0xbd582a3e	-0.05277466
37	0x3e1a46a2	0.15066007
38	0xbe5133f0	-0.20429969
39	0x3f4187d9	0.7559791
40	0x3eba95eb	0.36442503
41	0xbf38d0df	-0.7219371
42	0x3f5d401e	0.8642596
43	0xbf38726e	-0.72049606
44	0x3fa81239	1.3130561
45	0x3f784d1a	0.9699265
46	0x405254ee	3.2864337
47	0x3e7b3dba	0.24535266
48	0xbef01d07	-0.46897146
49	0xbe5cbc2a	-0.21556154
50	0xc0062860	-2.0962143
51	0x40692fb9	3.6435378
52	0xbfba6019	-1.4560577
53	0x3f7d768c	0.99009013
54	0xbfd87e43	-1.6913532
55	0x3fa4d2cb	1.2876829
56	0xbeca7ec1	-0.3954983
57	0xbc08b43f	-0.008343755
58	0xc003d302	-2.059754
59	0x3fbcb5e5	1.474301
60	0x3e819d1f	0.25315186
61	0xbe892467	-0.26785585
62	0xbfc05cea	-1.5028355
63	0xc01fa98a	-2.4947228

v.v_net.2.weight f4 [64, 64]
0	0xbfb0f66b	-1.3825201
1	0x3f916af3	1.1360763
2	0x40694de4	3.645379
3	0xbd0f3e0d	-0.034971286
4	0xbfbb8446	-1.4649742
5	0x3f1dc01c	0.6162126
6	0x3e2c92e5	0.16852911
7	0x3f22cbeb	0.63592404
8	0xc059eb93	-3.4050033
9	0xbe394b55	-0.18095143
10	0x3e58f9fb	0.2118911
11	0xbd548147	-0.0518811
12	0x3ee93136	0.45545357
13	0xbf014b66	-0.50505674
14	0xbf2b2037	-0.6684603
15	0x409b5009	4.85352
16	0x3eed7d92	0.46384865
17	0x4043aea8	3.0575352
18	0xbe161d57	-0.1465963
19	0xbee46510	-0.44608355
20	0x3ffbef68	1.9682436
21	0xc0548670	-3.3207054
22	0x3f9e6445	1.237435
23	0xc00ff1b1	-2.2491267
24	0xbecd13d8	-0.40054202
25	0xbfc2070d	-1.5158402
26	0xbf2843d3	-0.6572849
27	0xbec8c7c6	-0.39214915
28	0xc025c5ca	-2.590197
29	0x405da1fe	3.4630122
30	0x3f204dd7	0.62618774
31	0x3f77f640	0.9686012
32	0xbf7c8435	-0.9863923
33	0xbfb2cd6f	-1.3968943
34	0xbea322f4	-0.31862605
35	0x3f46446f	0.7744817
36	0x3eea62d9	0.4577854
37	0x3f3d3919	0.7391525
38	0x3fb962fc	1.4483333
39	0xbf1b6d20	-0.60713387
40	0xbe9416ee	-0.28923744
41	0xbe8a0f89	-0.26964977
42	0xbe438821	-0.19094898
43	0x3ff722e7	1.9307526
44	0xbfe60bcd	-1.7972351
45	0xc0045b40	-2.0680695
46	0x3f89676c	1.0734687
47	0xbebc5bcc	-0.36788785
48	0x3ff8a199	1.9424316
49	0xbdcd87f8	-0.100356996
50	0x3ee2283d	0.44171324
51	0xbe58cf65	-0.21172865
52	0xbf33bece	-0.7021302
53	0x3ed2d457	0.41177627
54	0x3e28ec1b	0.16496317
55	0x3f46b829	0.77624756
56	0xbfd5081c	-1.66431
57	0xbc7d1680	-0.015447259
58	0x3ecddf94	0.4020964
59	0xc01c56ee	-2.4428058
60	0xbf9ba82d	-1.2160698
61	0xbea53044	-0.32263386
62	0x3e34adcf	0.17644428
63	0x3ece7be3	0.40328893
64	0xc0912c4c	-4.5366573
65	0xbfa4606f	-1.2841929
66	0x3ff28e44	1.8949666
67	0x401e8957	2.4771326
68	0x3f18e3d2	0.59722626
69	0xbf66d625	-0.9017051
70	0x3b9a1f0d	0.0047034086
71	0xbabd0dd3	-0.0014423676
72	0xbf8cd0c2	-1.1001208
73	0xbfa15ef4	-1.2607102
74	0xbf910222	-1.1328776
75	0xbf3a9f21	-0.7289906
76	0x409fcb37	4.9935565
77	0xc0093b64	-2.14425
78	0x4057e8b1	3.3735774
79	0x3ff4bd38	1.9120245
80	0x3f899452	1.0748389
81	0x3fd799f4	1.6843858
82	0x3f588771	0.8458167
83	0xc0b716bb	-5.7215247
84	0xc08ff159	-4.4982114
85	0xbece1d54	-0.4025675
86	0x3fe0802d	1.7539116
87	0x3f6f3430	0.93439007
88	0xbfd59305	-1.6685492
89	0x409ee8b2	4.965905
90	0x3fb3af56	1.4037883
91	0x4069a79b	3.6508548
92	0x3f258186	0.6465076
93	0x3f6f448e	0.9346398
94	0x3f70ed2e	0.9411191
95	0x4042440e	3.0354037
96	0x4021050c	2.515933
97	0xbf295f91	-0.6616145
98	0x3db05dfc	0.08611676
99	0xc01a2bf8	-2.4089336
100	0xc0648dcb	-3.5711544
101	0x40ad1453	5.408731
102	0xbf6c42f2	-0.9228965
103	0xbf57439b	-0.8408753
104	0x40434581	3.0511172
105	0xc07351d8	-3.8018703
106	0xbf10fc3a	-0.5663487
107	0x3fe1933f	1.7623061
108	0x403fac52	2.9948926
109	0x3ec86e63	0.39146718
110	0xbfb2b252	-1.3960669
111	0x4035b516	2.8391776
112	0xc03f205f	-2.9863508
113	0xbf2b6f7c	-0.66966987
114	0xbe50be26	-0.20385036
115	0xbf0bc167	-0.54591984
116	0xbf845498	-1.0338316
117	0x4043e8c7	3.0610826
118	0x3f17cf87	0.59301037
119	0x3ebf6dfd	0.37388602
120	0x40559f4b	3.3378475
121	0x40346466	2.8186278
122	0x3f17ea43	0.5934183
123	0xbf3089ca	-0.6896025
124	0x3fda96dc	1.7077289
125	0x3fe2def6	1.7724292
126	0x40a8c3bc	5.2738934
127	0x3d475e05	0.04867365
128	0x3d873cb0	0.06603372
129	0xbe5258d2	-0.20541695
130	0x3fa064ba	1.2530739
131	0xbf6d40ff	-0.926773
132	0x3e0e59a3	0.13901381
133	0xbee4bb38	-0.44674087
134	0xbffbe09e	-1.9677923
135	0x40098027	2.1484468
136	0xbf738e3f	-0.95138925
137	0xbfeb4eea	-1.8383458
138	0xc01e4ea4	-2.4735498
139	0x404db23a	3.214003
140	0xc045e4d2	-3.092091
141	0xbfd44ae4	-1.6585355
142	0x3e6c0a78	0.23050869
143	0xbfad277e	-1.3527677
144	0xbf63f488	-0.89045
145	0xc044f61c	-3.0775213
146	0x3df7e749	0.12104661
147	0x40450852	3.0786328
148	0x4087331a	4.224988
149	0xbf16c59a	-0.58895266
150	0x3fe3e87e	1.7805326
151	0x3cffe906	0.031239044
152	0xbfa75950	-1.3074131
153	0x3d1ce2d4	0.038302258
154	0xbfbcb1ae	-1.4741724
155	0x3df36710	0.11884892
156	0x40108b25	2.2584927
157	0x4080ca81	4.0247197
158	0xc0404938	-3.004469
159	0xc01ff0f6	-2.499082
160	0xc0127cec	-2.2888746
161	0xc005ea92	-2.092442
162	0xbed6987c	-0.4191321
163	0x3f8fa1b4	1.1221223
164	0xbf02f3f3	-0.51153487
165	0xc00915f8	-2.1419659
166	0xbf6bd12a	-0.92116034
167	0xbeb02001	-0.34399417
168	0x3fb4f7a8	1.4138079
169	0x3f1df1d8	0.6169715
170	0xbd9bfbb4	-0.07616368
171	0xc028973c	-2.6342306
172	0x3d19396e	0.037408285
173	0x400a12c2	2.157395
174	0x3e817598	0.2528503
175	0xbfc30069	-1.52345
176	0x4074096c	3.813075
177	0x3f9c0fa4	1.2192273
178	0xbf9385a6	-1.1525161
179	0x3e9a67bb	0.30157265
180	0x4017a3b8	2.3693676
181	0x3c78cad6	0.015185079
182	0x3e507b79	0.20359601
183	0xbfa4ed06	-1.2884834
184	0xc00d38b3	-2.2065856
185	0x3fbe0939	1.4846565
186	0xbf95e0a0	-1.1709175
187	0xbe89ccd4	-0.26914084
188	0x3f4a0516	0.7891401
189	0xbef27a15	-0.47358766
190	0xbf40a130	-0.7524595
191	0x404d14af	3.2043874
192	0x40354465	2.8322995
193	0x40026871	2.0376246
194	0x3eb088e3	0.34479436
195	0xbec9b9c4	-0.3939954
196	0xbf70df6f	-0.9409093
197	0xbfb6dff4	-1.4287095
198	0x3f81970a	1.0124218
199	0xbffc59c3	-1.9714893
200	0xbed5b8ca	-0.41742545
201	0xc0976c87	-4.731998
202	0xc019ab57	-2.4010828
203	0xc08be13f	-4.371246
204	0x3fe37d83	1.7772678
205	0x3e19bc00	0.15013123
206	0xbfcd1b4b	-1.6023954
207	0x3f4616d9	0.7737861
208	0xc0303450	-2.753193
209	0x3fef4f70	1.8696117
210	0x3f1a25a5	0.6021369
211	0x3e76b3f9	0.24092092
212	0xbf9aafde	-1.208492
213	0xbfc47f19	-1.5351287
214	0x3f8eb6b9	1.1149513
215	0xc033026e	-2.7970233
216	0xbff36e12	-1.9017966
217	0xc03fe480	-2.9983215
218	0x3fc226de	1.5168111
219	0xc021357b	-2.5188892
220	0x400f6f72	2.241177
221	0x3f343d5b	0.7040612
222	0xbfe124ab	-1.7589315
223	0x3f140508	0.5782018
224	0x407a2ce2	3.9089894
225	0x4017ae81	2.3700259
226	0xbe97b269	-0.29628304
227	0xc01da39d	-2.4631112
228	0x4062d0b5	3.5439885
229	0xc01ccd76	-2.4500403
230	0x4097e3d8	4.746563
231	0xc0685b7f	-3.6305845
232	0xc024ec82	-2.5769353
233	0x3ff59ea3	1.9189037
234	0xc0496659	-3.1468718
235	0x405ab291	3.4171488
236	0xbeb0838a	-0.34475356
237	0xbfe65d46	-1.7997215
238	0x401e3f18	2.472601
239	0xc03a8193	-2.9141586
240	0x400abc39	2.1677382
241	0xbfa92eca	-1.3217404
242	0x3ed7b565	0.4213058
243	0xbee94aea	-0.45564967
244	0xbf00896a	-0.5020968
245	0x402b27ea	2.6743112
246	0x4089b828	4.30373
247	0x405cbf2e	3.4491687
248	0xbf4f68a9	-0.81019074
249	0xc020ed2d	-2.514476
250	0xbcb90c0e	-0.022588756
251	0x3f768f6d	0.963126
252	0x3f050853	0.51965827
253	0x40c13ef7	6.038936
254	0xc116f227	-9.434119
255	0x3f352831	0.7076445

v.v_net.2.bias f4 [64]
0	0x3b14763f	0.0022653488
1	0xbf39df2c	-0.7260616
2	0x3f00758f	0.5017938
3	0xbf58a741	-0.8463021
4	0xbef5b219	-0.4798744
5	0x3f936c80	1.1517487
6	0x3ec4fe9d	0.38475505
7	0xbf3cf289	-0.7380758
8	0xbe6fec6b	-0.2343003
9	0xbfc74a14	-1.5569482
10	0x3e90f742	0.28313643
11	0xbf3daf73	-0.7409584
12	0xbf951cd4	-1.1649423
13	0xbf343404	-0.7039187
14	0xbea65ba9	-0.32491806
15	0xbf923a9e	-1.1424139
16	0xbf6f6271	-0.93509585
17	0xbeaacfc6	-0.33361644
18	0x3f0a351c	0.5398729
19	0xbf7b1ba8	-0.98089075
20	0xbdbad9d6	-0.0912358
21	0x3fde8f44	1.7387471
22	0xbf229504	-0.6350863
23	0xbf63fd29	-0.89058167
24	0xbe71e5ce	-0.2362282
25	0x3f3c7d06	0.7362827
26	0xbf6acbc9	-0.917172
27	0xbfa448a4	-1.2834668
28	0x3f4f53a6	0.8098701
29	0x3e805bbb	0.25069985
30	0xbf366687	-0.71250194
31	0xbef05a73	-0.46944007
32	0xbfb9d329	-1.4517566
33	0xbef78c06	-0.48349017
34	0x3f1bfff2	0.60937417
35	0xbfb87370	-1.4410229
36	0xbe31d1eb	-0.17365234
37	0xbf129e6a	-0.5727297
38	0x3f2982be	0.6621512
39	0x3dcd625c	0.10028526
40	0x3e3ee045	0.1864024
41	0x3fae30e3	1.3608669
42	0x3f7b9d4e	0.982869
43	0xbf22e31f	-0.6362781
44	0xbee43731	-0.44573358
45	0x3d9e2e0c	0.077236265
46	0xbf154a13	-0.58316153
47	0xbfe95cb2	-1.8231413
48	0xbfd07d16	-1.6288173
49	0x3edea4d8	0.4348514
50	0x3f4a8c9a	0.7912079
51	0xbf8dbdc4	-1.1073537
52	0x3fb4b2c4	1.4117055
53	0x3ecb9484	0.39761746
54	0xbdc56321	-0.09638048
55	0x3e79d46c	0.24397439
56	0x3eeaa508	0.45829034
57	0xbf2e8cab	-0.6818339
58	0xbf99e0f8	-1.202178
59	0xbfe1ced0	-1.7641239
60	0xbf25c229	-0.6474939
61	0x3fa6f750	1.3044224
62	0x3f9112d0	1.1333866
63	0xbdc266fa	-0.094922975

v.v_net.4.weight f4 [1, 64]
0	0xc13d011e	-11.812773
1	0xc107456a	-8.454447
2	0x40888b5d	4.267012
3	0x41082e0b	8.511241
4	0xc13a62f3	-11.649158
5	0xc1698c06	-14.596685
6	0xc0f796d7	-7.737163
7	0x4136a838	11.416069
8	0xc13802e4	-11.500706
9	0xc0b59e31	-5.6755605
10	0xc0b2905b	-5.5801215
11	0xc11f6f55	-9.964681
12	0xc145de00	-12.366699
13	0x4105e5ac	8.368572
14	0x4141dbe6	12.116186
15	0xc0b6b985	-5.7101464
16	0xc0b6043d	-5.6880174
17	0xc0f864ba	-7.7622957
18	0x4109182f	8.568404
19	0xc0f3e4d2	-7.621682
20	0xc13845ef	-11.517074
21	0x422114ad	40.27019
22	0xc0b393bb	-5.6117835
23	0xc137a460	-11.477631
24	0x4143dcea	12.241434
25	0x4136d467	11.426856
26	0x40f191bd	7.5490403
27	0xc0dc5b67	-6.8861575
28	0xc142f0e1	-12.183808
29	0xc149b5ee	-12.606916
30	0xc13cb514	-11.794209
31	0x414ad81c	12.677761
32	0xc112015d	-9.125333
33	0x40b74a90	5.727852
34	0x41156e81	9.3394785
35	0xc10b3ceb	-8.702373
36	0x40f7d4c5	7.744723
37	0xc133fba2	-11.248934
38	0x4149df27	12.616981
39	0xc1431315	-12.192159
40	0x41397316	11.590597
41	0x410019c5	8.006291
42	0x411a7e38	9.655815
43	0x41295625	10.583531
44	0x41459931	12.3499
45	0x40ef6678	7.4812584
46	0x40c55459	6.1665463
47	0xc0b0f486	-5.529849
48	0xc20cc17c	-35.18895
49	0xc1315e8c	-11.085583
50	0x41443da2	12.265047
51	0x40bba59e	5.863967
52	0x4105b8d0	8.35762
53	0xc12c2ce9	-10.760964
54	0xc105e015	-8.367208
55	0x412dad41	10.854798
56	0xc122b0b8	-10.168144
57	0xc13ec23d	-11.922421
58	0xc06f747a	-3.7414842
59	0xc0d6723a	-6.7014437
60	0xc10846d2	-8.51729
61	0x41632a14	14.197773
62	0x411c2a6f	9.76036
63	0xc0d894d6	-6.7681684
