model_wts/s4_d2_m1.0_b0.0.ckpt (torch, 206875 bytes, 11 tensors)

pi.logits_net.0.weight f4 [64, 282]
-0.17417066 0.19035567 -0.14470257 -0.15950897 0.036927715 0.055024978 -0.20920438 -0.21870622
-0.0819235 0.22894387 0.14310944 0.14935373 -0.13050772 -0.09919992 0.12124217 -0.089766875
-0.1498936 0.18327864 0.07259063 -0.2246652 -0.17864959 -0.28925753 0.0895577 0.11270466
0.053897597 -0.090917215 -0.13986236 -0.15091488 -0.2150735 -0.2060283 0.15965702 -0.05333356
0.15955012 0.14643778 -0.11465277 -0.30157846 -0.2911353 -0.0553072 0.1436333 -0.08033709
-0.077759475 0.2087841 -0.04385756 -0.13370894 0.052274644 -0.045906663 0.12778223 0.06767909
0.1444712 -0.21011767 -0.20700425 -0.14296724 0.19923228 -0.1531566 0.1238718 0.115388244
0.21253438 -0.11692145 -0.08870646 -0.12930578 -0.21202835 -0.060499705 -0.32527435 0.20347002
0.18977387 -0.059261464 0.085144 0.12347996 0.13177949 -0.17374139 0.19187836 -0.32004648
-0.1261252 0.10310822 0.13230963 -0.217201 0.21700214 -0.2433874 -0.14282283 -0.14436169
0.17734921 0.15063813 -0.24140601 -0.21778518 -0.10132533 -0.17885457 0.20246994 0.92683166
-0.3680054 -0.2384883 0.8548483 -0.14808632 -0.46640828 0.6851573 0.70792705 -0.52444136
-0.35831648 -0.5243567 -0.35436127 0.5300565 -0.3099274 -0.3429802 0.30788696 0.29704124
-0.32904208 -0.13373046 0.05727419 0.40016854 0.6407588 -0.25751287 -0.14161073 -0.703021
-0.21336882 0.2454182 0.118538596 0.30431056 0.45835942 -0.52372783 -0.13712089 -0.43147227
0.15553434 0.63062763 0.5316299 0.5197501 -0.06683657 -0.2478037 -0.39624867 -0.31752455
-0.26950264 -0.25253788 -0.21866599 -0.29775497 0.44591424 0.17503084 0.10280115 0.33079308
0.76674294 0.4707465 1.0100026 -0.20084444 -0.23129556 -0.19825251 0.10928713 0.3752734
0.24562609 -0.3708537 -0.23281981 0.4608529 -0.22511762 0.66964114 -0.082686104 -0.1939099
-0.26385862 -0.15887769 -0.11386345 -0.13421558 0.40302625 -0.21964103 0.51947594 -0.382847
-0.11278282 -0.044946093 0.16578706 -0.41311792 0.6254599 0.347963 0.30503038 0.23821731
-0.02962155 0.55784166 0.30532464 -0.20639102 0.04582761 -0.051340338 -0.4380878 -0.58391345
-0.3164473 -0.13692895 -0.2689077 0.3237187 0.37779 -0.42008346 0.33891493 -0.64228594
0.6788648 -0.9006301 0.11774184 -0.105213314 0.028685406 -0.663783 -0.5048917 -0.46115458
-0.19796479 -0.59167415 0.11900528 -0.76258135 0.086160585 0.6729771 0.16123097 0.24234983
-0.44707733 -0.34303465 0.42322794 0.054677166 -0.24052806 0.42429036 0.5183136 -0.8764592
0.3163005 -0.67347085 0.039261043 -0.5925348 0.33037037 0.5391024 0.030069705 0.3846589
0.09010029 -0.80345434 0.46372378 -0.2424708 0.057136215 0.08971079 -0.46727234 0.8171105
-0.053198263 -1.0763193 0.0054506348 -0.21114434 0.004882492 -0.0070651816 -0.2919749 -0.04754401
0.31029356 0.004663294 0.25667262 -0.23687963 0.21357036 0.3450897 0.57943195 0.11285089
-0.41191238 -0.5690086 0.037892662 0.10750372 -0.10281682 -0.580772 0.9080831 -0.31849617
-0.22785686 -0.042482417 0.45707336 0.5692051 0.5274642 -0.6966005 -0.052945 -0.7522831
00000000: cb59 32be 99ec 423e e92c 14be 5256 23be
00000010: 8441 173d df61 613d ac39 56be 86f4 5fbe
00000020: 82c7 a7bd 4370 6a3e 488b 123e 2ff0 183e
00000030: d1a3 05be 5429 cbbd d14d f83d b2d7 b7bd
00000040: b57d 19be 65ad 3b3e 65aa 943d a20e 66be
00000050: ebef 36be 9019 94be 076a b73d b3d1 e63d
00000060: bac3 5c3d ce32 babd 1438 0fbe 6e89 1abe
00000070: 3a3c 5cbe 15f9 52be 217d 233e 4a74 5abd
00000080: 1b61 233e c9f3 153e 12cf eabd 7e68 9abe
00000090: b00f 95be cd89 62bd 9c14 133e c687 a4bd
000000a0: 5c40 9fbd 80cb 553e fca3 33bd ffea 08be
000000b0: f01d 563d a008 3cbd 58d9 023e 569b 8a3d
000000c0: 42f0 133e 1629 57be ecf8 53be 0166 12be
000000d0: 8c03 4c3e 15d5 1cbe 80b0 fd3d ac50 ec3d
000000e0: 9da2 593e 8374 efbd bcab b5bd bc68 04be
000000f0: f61d 59be 8ace 77bd 5c8a a6be 725a 503e
00000100: 1554 423e 26bc 72bd fa5f ae3d 10e3 fc3d
00000110: 34f1 063e 43e9 31be c37b 443e 22dd a3be
00000120: f726 01be 672a d33d 2d7c 073e f069 5ebe
00000130: cf35 5e3e 8c3a 79be 2640 12be 8dd3 13be
00000140: 089b 353e e240 1a3e 2333 77be 1403 5fbe
00000150: a883 cfbd a725 37be 4854 4f3e d744 6d3f
00000160: 346b bcbe 4736 74be 57d7 5a3f f1a3 17be
00000170: 11cd eebe 7866 2f3f b53a 353f ca41 06bf
00000180: 4275 b7be 3e3c 06bf d76e b5be c8b1 073f
00000190: ceae 9ebe 1a9b afbe 5ca3 9d3e ca15 983e
000001a0: 3478 a8be a3f0 08be 5798 6a3d e4e2 cc3e
000001b0: c508 243f bad8 83be 6702 11be 2ff9 33bf
000001c0: 5b7d 5abe e94e 7b3e 5dc4 f23d 98ce 9b3e
000001d0: 16ae ea3e 0713 06bf 6b69 0cbe efe9 dcbe
000001e0: 6544 1f3e d070 213f e618 083f 580e 053f
000001f0: 9de1 88bd 41c0 7dbe 1be1 cabe 9492 a2be
00000200: 40fc 89be a54c 81be fae9 5fbe 5773 98be
00000210: df4e e43e 493b 333e 6989 d23d b65d a93e
00000220: 4449 443f af05 f13e c447 813f 2aaa 4dbe
00000230: bed8 6cbe b502 4bbe eed1 df3d d623 c03e
00000240: 6885 7b3e 89e0 bdbe 5168 6ebe e9f4 eb3e
00000250: 3c85 66be 9a6d 2b3f 5557 a9bd 5190 46be
00000260: 7a18 87be d5b0 22be 3e31 e9bd cf6f 09be
00000270: 7559 ce3e 94e9 60be 60fc 043f 8604 c4be
00000280: aefa e6bd 6519 38bd 15c4 293e 3184 d3be
00000290: 241e 203f 3528 b23e f12c 9c3e 3def 733e
000002a0: e5a8 f2bc b6ce 0e3f 8353 9c3e 2b58 53be
000002b0: bbb5 3b3d 3f4a 52bd 0b4d e0be 5a7b 15bf
000002c0: 6105 a2be 1a37 0cbe 45ae 89be 75be a53e
000002d0: b16d c13e 2e15 d7be 4286 ad3e da6c 24bf
000002e0: 15ca 2d3f b28f 66bf a222 f13d 147a d7bd
000002f0: a8fd ea3c afed 29bf 9540 01bf 741c ecbe
00000300: 48b7 4abe f577 17bf 0ab9 f33d 8838 43bf
00000310: f674 b03d 3a48 2c3f bb19 253e 8e2a 783e
00000320: 52e7 e4be 3da2 afbe 55b1 d83e 2af5 5f3d
00000330: fd4c 76be 963c d93e 33b0 043f a15f 60bf
00000340: 24f2 a13e 9668 2cbf 30d0 203d 5cb0 17bf
00000350: 4e26 a93e 9d02 0a3f be54 f63c 03f2 c43e
00000360: 8086 b83d 2faf 4dbf 346d ed3e 444a 78be
00000370: aa07 6a3d 4aba b73d 523e efbe 272e 513f
00000380: 6ce6 59bd d5c4 89bf 3d9b b23b 3936 58be
00000390: 50fd 9f3b 0a83 e7bb bc7d 95be 82bd 42bd
000003a0: ccde 9e3e 8cce 983b 986a 833e 9390 72be
000003b0: 30b2 5a3e 99af b03e a755 143f 5e1e e73d
000003c0: 2ee6 d2be 8caa 11bf 5635 1b3d e92a dc3d
000003d0: a091 d2bd 79ad 14bf 2278 683f ee11 a3be
000003e0: 4f53 69be 0b02 2ebd 8505 ea3e 6db7 113f
000003f0: e507 073f 6954 32bf dbdc 58bd a095 40bf

pi.logits_net.0.bias f4 [64]
-0.03605531 -0.18664859 0.054762494 -0.047436558 0.09753102 -0.3392512 0.1742678 -0.07450671
0.020314857 0.012465962 -0.2374675 -0.07022665 -0.0025616207 0.14247034 -0.006189725 0.103019714
0.115220405 -0.0084055 0.09335509 -0.16763599 0.11665647 0.24709834 0.11055598 -0.3651607
-0.10098864 -0.20519929 0.1929519 0.16024475 0.03794254 -0.019996628 0.23199035 0.12165436
0.102458306 0.0067802523 0.17512165 0.12814619 -0.030305577 -0.07858547 0.386005 0.25018394
0.07489185 -0.012216745 -0.17951891 -0.15761177 0.04178667 0.034005348 0.010743064 0.2281394
0.013602311 -0.36929095 -0.07346238 0.034215137 0.023284787 -0.15902053 -0.052718733 0.05725779
0.20837228 0.04550948 0.04959752 0.05797962 0.005862305 0.00014582928 -0.2491275 0.13715124
00000000: bcae 13bd cf20 3fbe a34e 603d d64c 42bd
00000010: 58be c73d 55b2 adbe 4273 323e f996 98bd
00000020: 586b a63c 093e 4c3c ae2a 73be fdd2 8fbd
00000030: dde0 27bb bfe3 113e 2dd3 cabb 00fc d23d
00000040: adf8 eb3d 39b7 09bc f430 bf3d c5a8 2bbe
00000050: 96e9 ee3d 5907 7d3e 2c6b e23d 58f6 babe
00000060: 22d3 cebd c31f 52be 2f95 453e 3317 243e
00000070: a369 1b3d f8cf a3bc e18e 6d3e ec25 f93d
00000080: a9d5 d13d e12c de3b 1753 333e c138 033e
00000090: 6743 f8bc 6bf1 a0bd 73a2 c53e 1c18 803e
000000a0: e660 993d be28 48bc ced3 37be fb64 21be
000000b0: 8028 2b3d 3149 0b3d ad03 303c 609d 693e
000000c0: 3adc 5e3c b413 bdbe 7273 96bd 2c25 0c3d
000000d0: bdbf be3c 47d6 22be 99ef 57bd 2587 6a3d
000000e0: 8b5f 553e 2668 3a3d c526 4b3d 0a7c 6d3d
000000f0: 9418 c03b c0e9 1839 481b 7fbe 6071 0c3e

pi.logits_net.2.weight f4 [64, 64]
0.17443335 0.020185156 0.66785395 0.22983725 0.4327252 0.122102864 -0.15260002 -1.4555912
0.6272637 0.3346174 0.75320244 0.12266964 -0.26865095 0.08722613 0.3077761 -0.09322771
-0.3982062 0.24594104 0.052474827 0.25535786 -0.23435104 -0.151706 0.17439067 0.5754476
0.17006865 -0.12295297 1.2497613 0.6543537 -0.5409798 -0.22734539 -0.57493114 0.64763486
0.002684154 -0.28878233 0.36711788 -0.9468024 -0.38534802 -0.25033948 0.02787096 -0.034542464
0.28235975 -0.13214093 0.28643858 -0.22568408 0.43457595 -0.7921982 0.2976318 -0.17567898
0.18270932 -0.28507212 0.0017714575 0.18375976 -0.4206623 0.32264718 -0.085273676 0.80485195
0.48666388 -0.25944057 0.20436636 0.084407054 0.1762358 -0.13443266 0.14493015 0.2474292
-0.38127026 -0.49983925 0.4080121 -0.55194604 0.24026759 0.5624905 0.25178918 -0.35951236
0.16815002 0.19264796 0.025285907 -0.12596591 -0.11616893 -0.34114197 -1.1511712 -0.1986823
0.13311823 -0.60689855 0.09556067 -0.43954358 -0.10567207 -0.21348532 -0.13196173 0.16766487
0.85525036 -0.5458989 0.37950343 -0.69851905 0.80893964 -0.09418432 -0.9703946 0.2514322
0.33907107 -0.26473495 -0.029359626 0.14460102 0.25538883 0.040055126 -0.7508074 0.030471385
0.032727353 0.5062723 -0.2513485 0.7197078 -0.014969094 -0.75698715 -0.35105658 0.3319534
-0.20108922 -0.14302097 0.027577193 -0.44226265 0.10154486 -0.06851011 -0.13251954 -0.06539076
-0.06841816 0.43310943 -0.048944466 -1.2105548 -0.6497546 0.3021985 0.14934665 0.005544242
0.19293031 0.11380072 -0.46866134 -0.35314763 0.07304942 0.1310663 0.12466444 -0.64177096
0.4335659 0.19549356 0.84752023 -0.30438712 -0.05554614 0.27430668 0.2483331 -0.23640165
-0.60345304 -0.31157318 -0.09724526 1.0765872 0.42422926 -0.24208568 0.42782357 0.1490716
-0.35198632 -0.47273058 0.67651707 0.6758679 0.02313866 0.39550543 -0.0623288 0.71173364
0.6380561 0.17290555 0.6231189 -0.24151355 -0.6022951 0.34695506 0.23887902 -0.22324751
-0.7141793 -0.15184504 -0.17748098 0.13510361 -0.2751699 -0.12745991 -0.28160915 0.10647481
-0.08271262 -0.01521504 -0.5491569 -0.8944964 -0.14831968 -0.17883696 0.076248385 0.7759466
-0.16719748 0.028096832 -0.03370106 -0.044293344 -0.17611817 0.2445811 -0.05937859 0.20763887
0.05041001 0.4781401 -0.01672685 -0.12373845 -0.8653513 0.04290354 0.06865749 0.10228927
0.34115195 -0.97959113 0.45290837 0.13771 -0.31223828 -0.30294645 -0.51887566 -0.46963072
0.10633887 -0.8599863 0.39889643 -0.18674971 -0.45589387 0.3492631 -0.38235968 0.49834684
0.89036363 0.5499439 0.35118845 -0.96061456 1.0534253 -0.63758975 -0.32942635 -0.20580807
-0.28879714 -0.67043114 -0.1717405 -0.12174353 0.48825684 -0.2624763 -0.7601448 -0.63663805
0.25357214 0.06985453 -0.13651319 0.26389393 -0.06673618 -0.21109757 0.044593334 -0.297283
0.9344689 0.4656521 -0.26037806 0.07737857 0.010498996 0.32712814 0.34304342 0.41614252
-0.53243417 0.71808517 -0.7197506 -0.037513588 -0.08240578 -0.20318334 0.16763043 0.1770917
00000000: a89e 323e 575b a53c 7af8 2a3f 755a 6b3e
00000010: 288e dd3e 1111 fa3d 2e43 1cbe d050 babf
00000020: 5b94 203f f952 ab3e e0d1 403f 383a fb3d
00000030: 9e8c 89be 9da3 b23d d494 9d3e 2bee bebd
00000040: afe1 cbbe f8d7 7b3e d8ef 563d 44be 823e
00000050: b8f9 6fbe d158 1bbe 7893 323e 8950 133f
00000060: 7a26 2e3e c4ce fbbd 2ef8 9f3f b983 273f
00000070: a77d 0abf 3bcd 68be b02e 13bf 66cb 253f
00000080: a2e8 2f3b 47db 93be e0f6 bb3e a461 72bf
00000090: 564c c5be 7f2c 80be a451 e43c 667c 0dbd
000000a0: 7591 903e f44f 07be 14a8 923e ba19 67be
000000b0: bd80 de3e 80cd 4abf 3263 983e 31e5 33be
000000c0: 2718 3b3e f9f4 91be 4030 e83a 852b 3c3e
000000d0: 0d61 d7be 0332 a53e f7a3 aebd c70a 4e3f
000000e0: 022c f93e 65d5 84be 6a45 513e 9bdd ac3d
000000f0: 2877 343e b7a8 09be 9268 143e 155e 7d3e
00000100: db35 c3be eeea ffbe f6e6 d03e 564c 0dbf
00000110: b508 763e 61ff 0f3f 83ea 803e 0112 b8be
00000120: 852f 2c3e 8245 453e 6424 cf3c 35fd 00be
00000130: fae9 edbd 29aa aebe 9459 93bf 5f73 4bbe
00000140: 2550 083e b45d 1bbf 50b5 c33d db0b e1be
00000150: 996a d8bd e59b 5abe fa20 07be 57b0 2b3e
00000160: b0f1 5a3f 08c0 0bbf 464e c23e 25d2 32bf
00000170: ab16 4f3f b5e3 c0bd c86b 78bf b9bb 803e
00000180: b99a ad3e 578b 87be 9983 f0bc 4a12 143e
00000190: 53c2 823e d810 243d ea34 40bf 209f f93c
000001a0: 1e0d 063d 109b 013f c0b0 80be c53e 383f
000001b0: ee40 75bc e9c9 41bf b0bd b3be ccf5 a93e
000001c0: 55ea 4dbe 1774 12be 91e9 e13c 4070 e2be
000001d0: c0f6 cf3d 074f 8cbd 34b3 07be 97eb 85bd
000001e0: d21e 8cbd 85c0 dd3e fe79 48bd 76f3 9abf
000001f0: 5156 26bf c3b9 9a3e 54ee 183e 79ac b53b
00000200: 868f 453e 5a10 e93d 61f4 efbe c4cf b4be
00000210: ef9a 953d 3f36 063e 1250 ff3d 1a4b 24bf
00000220: 5afc dd3e 772f 483e 16f7 583f a1d8 9bbe
00000230: 5984 63bd ed71 8c3e 084b 7e3e 4613 72be
00000240: e67b 1abf 8586 9fbe 8628 c7bd 9ccd 893f
00000250: 9434 d93e 4fe5 77be b10b db3e 3aa6 183e
00000260: 8d37 b4be be09 f2be 3930 2d3f ae05 2d3f
00000270: 498d bd3c b07f ca3e 7c4c 7fbd 2d34 363f
00000280: a557 233f 270e 313e b884 1f3f 544f 77be
00000290: 0330 1abf 18a4 b13e b49c 743e ff9a 64be
000002a0: 74d4 36bf 447d 1bbe 93bd 35be 9a58 0a3e
000002b0: 12e3 8cbe da84 02be 132f 90be 770f da3d
000002c0: 3c65 a9bd 8148 79bc 8c95 0cbf b7fd 64bf
000002d0: 1de1 17be 0921 37be 1d28 9c3d 70a4 463f
000002e0: d135 2bbe 542b e63c 1f0a 0abd f06c 35bd
000002f0: 5258 34be 7873 7a3e f736 73bd 499f 543e
00000300: ba7a 4e3d c7ce f43e bf06 89bc 966a fdbd
00000310: aa87 5dbf 9fbb 2f3d 4c9c 8c3d 097d d13d
00000320: 78ab ae3e 7cc6 7abf 9be3 e73e da03 0d3e
00000330: b2dd 9fbe cc1b 9bbe 09d5 04bf 7073 f0be
00000340: 32c8 d93d 1028 5cbf 273c cc3e 513b 3fbe
00000350: ec6a e9be 9dd2 b23e a6c4 c3be 5127 ff3e
00000360: dfee 633f 20c9 0c3f f9ce b33e d6ea 75bf
00000370: a4d6 863f 1539 23bf 92aa a8be 5abf 52be
00000380: 38dd 93be 60a1 2bbf bedc 2fbe ac54 f9bd
00000390: cdfc f93e 4b63 86be da98 42bf b6fa 22bf
000003a0: 35d4 813e e40f 8f3d 1dca 0bbe 1b1d 873e
000003b0: faac 88bd f629 58be 80a7 363d 7a35 98be
000003c0: 5b39 6f3f f469 ee3e 4650 85be a878 9e3d
000003d0: fb03 2c3c 577d a73e 63a3 af3e a210 d53e
000003e0: 9b4d 08bf 6ed4 373f 9341 38bf d9a7 19bd
000003f0: 5dc4 a8bd 4b0f 50be 50a7 2b3e 8757 353e

pi.logits_net.2.bias f4 [64]
-0.075734265 0.07930492 0.07702961 -0.4439779 -0.35976455 0.03452543 -0.107329465 -0.12689635
-0.12761116 0.039721016 0.19822729 0.4561078 0.35908297 -0.056910332 0.1343935 0.51656294
0.30524313 0.054306682 0.55017143 0.16862397 -0.54870564 0.13309404 0.3740923 0.29893333
0.37771 -0.25169376 0.16748676 -0.33741173 -0.010743167 0.03448259 0.025012827 0.31741613
0.6019865 -0.039401647 0.25409007 0.3757341 -0.3666038 -0.2132101 -0.21382412 0.14177029
0.16610502 0.1081122 -0.21190698 0.13797256 -0.13221048 0.3762901 0.37875462 -0.27603817
0.15451345 -0.25887978 -0.124609955 0.024235416 0.3371621 -0.90127456 0.33110553 0.5720334
0.11706295 0.34006 0.74596375 0.042455416 -0.096038826 -0.10252171 0.32423085 -0.5543803
00000000: 911a 9bbd 9e6a a23d b3c1 9d3d 1251 e3be
00000010: 0f33 b8be 8a6a 0d3d 8dcf dbbd 1ef1 01be
00000020: 80ac 02be 81b2 223d 18fc 4a3e f686 e93e
00000030: b9d9 b73e cf1a 69bd 739e 093e 783d 043f
00000040: d448 9c3e af70 5e3d 09d8 0c3f c3ab 2c3e
00000050: f977 0cbf ce49 083e 0789 bf3e ca0d 993e
00000060: 3563 c13e 01de 80be a681 2b3e 3bc1 acbe
00000070: 1c04 30bc 9e3d 0d3d b3e7 cc3c 5e84 a23e
00000080: ca1b 1a3f 9f63 21bd 1818 823e 3860 c03e
00000090: 7eb3 bbbe c053 5abe b6f4 5abe 3b2c 113e
000000a0: 6f17 2a3e ee69 dd3d 25fe 58be ae48 0d3e
000000b0: 2f62 07be 19a9 c03e 20ec c13e e054 8dbe
000000c0: c638 1e3e e48b 84be 8133 ffbd 5a89 c63c
000000d0: 83a0 ac3e eeb9 66bf aa86 a93e c870 123f
000000e0: b3be ef3d 581c ae3e 7bf7 3e3f bbe5 2d3d
000000f0: 01b0 c4bd e7f6 d1bd 9601 a63e deeb 0dbf

pi.logits_net.4.weight f4 [87, 64]
-0.73698795 0.0133201135 -0.6100926 0.7718937 -0.13129179 0.45176426 -0.08939013 -0.5151042
-1.4462389 1.2830185 -1.3186288 0.31169027 0.5096603 0.19076148 -0.2304449 0.101990394
0.39507824 -0.42806622 0.7074888 0.827001 -0.7106031 -0.66742265 0.48464084 0.9266662
-0.24430938 1.0670556 -0.16082604 -0.17171223 -0.90181255 0.402068 0.21404037 -0.1776773
0.0078223245 0.45676902 0.302911 0.41696233 -0.51958525 -0.77482784 -0.017650086 0.8557869
0.1789321 0.13806647 -0.5828722 0.165552 0.6208649 0.6144898 0.56025434 -0.26690775
0.48813912 -0.22721931 0.04348076 1.2404015 -0.18559271 -0.55960363 0.40844166 0.2443264
-0.22503653 0.65288395 0.10095103 -0.46275854 -1.2659527 -1.1314223 0.9856894 -0.7893852
-0.79552627 -0.4522818 0.26488626 -0.009394186 -0.2296639 -0.50578713 -0.066598475 -0.028586205
0.2529171 -0.51480347 0.58381754 0.6981487 -0.34799382 1.1725982 1.0344121 0.43793908
-0.23459654 -0.12507008 0.4056046 0.2654926 -0.98711836 -1.1941292 0.848221 0.6193305
0.2125156 0.29838663 -0.67696637 -0.43320075 -0.2743186 -0.46614966 -1.030145 1.1015271
0.057357628 -0.13555138 0.45396113 0.3389858 -0.77284425 -0.12611696 0.15596989 -0.046438463
-0.02189115 -0.057325818 -1.0007114 0.12778537 -0.36584648 0.4322139 0.26712468 -0.63272715
-0.4475243 -0.5096513 1.4336954 -1.3137563 0.31403708 -0.40350974 0.06637733 -0.41245073
-1.243453 0.4808084 0.39645684 -0.2106652 -0.60023224 -0.32721987 0.11033619 0.48701745
-0.24475153 0.17698574 0.41164023 -0.2709103 -0.0003650231 0.066801086 0.23762907 -0.19620891
-0.06896521 -0.45317468 -0.64250815 -0.5509812 0.3488422 0.1628388 -0.069978245 0.5340267
0.13633664 -0.2501831 -0.0029676966 0.084305726 -0.38661608 0.2705026 0.22198671 -0.34017935
-0.7449783 -0.11390938 -0.54315466 0.259017 -0.12909107 0.3963877 0.19860548 -0.142591
0.3393134 -0.07471625 0.07956162 0.3094036 -0.036288023 -0.5263168 -0.39475057 0.11726544
-0.04384973 0.8332223 0.18226801 -0.058948766 0.5467537 0.2094208 0.20274217 -0.020092024
-0.5698737 -0.39996067 0.85885817 -0.22666208 0.654841 -0.40491685 0.17006163 0.5015172
-0.4306427 -0.006748178 0.38790512 -0.014980236 -0.8814455 0.46100846 -0.66187555 -0.3860389
-0.115349546 -0.9359353 0.8682032 -0.87842 -0.38687295 -0.89928097 0.52708447 -0.23040386
0.10129402 -0.85976714 0.59479 -0.07697971 -0.009301164 0.49527508 0.41927484 0.7208777
-0.42631456 0.2896717 0.7561516 0.7834484 -0.4844211 0.9624886 0.26860774 0.7240545
0.015654774 -0.3794833 0.15742232 -1.037206 -0.15440749 -0.97796476 -1.3152184 0.025795653
-0.263704 -1.8398379 0.49932462 0.3468679 -0.50376225 0.4223206 0.7005093 0.5311665
0.30597487 0.9423493 -0.90867233 -0.058466677 0.42128703 0.62564903 0.6137148 -0.9157803
-0.061651517 0.1899712 0.37881374 -1.3107139 1.2088224 -0.55170476 1.1959634 -0.2765406
0.19989736 0.4585819 0.5181683 -1.0049809 -0.13732326 -0.48105803 -0.31362873 0.007525194
00000000: 3eab 3cbf 9b3c 5a3c 072f 1cbf d39a 453f
00000010: 5b71 06be a54d e73e 2c12 b7bd dedd 03bf
00000020: 5b1e b9bf f339 a43f d4c8 a8bf de95 9f3e
00000030: 1979 023f fa56 433e bff9 6bbe 57e0 d03d
00000040: b247 ca3e 7f2b dbbe fc1d 353f 56b6 533f
00000050: 16ea 35bf 36dc 2abf d822 f83e ff39 6d3f
00000060: 3d2c 7abe 4795 883f 95af 24be 55d5 2fbe
00000070: 30dd 66bf dbdb cd3e 662d 5b3e 0af1 35be
00000080: 3529 003c a1dd e93e 2717 9b3e 167c d53e
00000090: 8a03 05bf 1e5b 46bf ea96 90bc da14 5b3f
000000a0: fa39 373e 4c61 0d3e 1d37 15bf 7786 293e
000000b0: 01f1 1e3f 344f 1d3f d46c 0f3f 22a8 88be
000000c0: 5fed f93e 2eac 68be e218 323d 7ac5 9e3f
000000d0: 040c 3ebe 2f42 0fbf 441f d13e b330 7a3e
000000e0: fa6f 66be 6723 273f 6abf ce3d b0ee ecbe
000000f0: bd0a a2bf 72d2 90bf 2456 7c3f 2615 4abf
00000100: 9ca7 4bbf 7b91 e7be 2c9f 873e 12ea 19bc
00000110: 032d 6bbe 447b 01bf c864 88bd 9e2d eabc
00000120: 5a7e 813e 29ca 03bf 1175 153f e0b9 323f
00000130: 3f2c b2be b317 963f 9e67 843f 8d39 e03e
00000140: 133a 70be 5f12 00be 68ab cf3e a5ee 873e
00000150: cab3 7cbf 3ad9 98bf 0325 593f 728c 1e3f
00000160: b09d 593e 22c6 983e ab4d 2dbf 7dcc ddbe
00000170: 7d73 8cbe 2bab eebe cbdb 83bf d7fe 8c3f
00000180: d5ef 6a3d fbcd 0abe 986d e83e 8c8f ad3e
00000190: 1fd9 45bf ce24 01be 92b6 1f3e 4236 3ebd
000001a0: 1255 b3bc 7ace 6abd 5017 80bf 2bda 023e
000001b0: 3b50 bbbe 244b dd3e 91c4 883e 68fa 21bf
000001c0: e821 e5be 8278 02bf 5583 b73f 2b29 a8bf
000001d0: 78c9 a03e d498 cebe d6f0 873d be2c d3be
000001e0: 7829 9fbf 852c f63e 64fc ca3e 9eb8 57be
000001f0: d2a8 19bf 5d89 a7be f1f7 e13d 5a5a f93e
00000200: 25a0 7abe c03b 353e 82c2 d23e c1b4 8abe
00000210: 9260 bfb9 02cf 883d 0955 733e fdea 48be
00000220: a23d 8dbd 8306 e8be 6a7b 24bf 1b0d 0dbf
00000230: 729b b23e 37bf 263e c150 8fbd f9b5 083f
00000240: d59b 0b3e 0018 80be b07d 42bb 7ba8 ac3d
00000250: 8bf2 c5be 517f 8a3e 7c50 633e fd2b aebe
00000260: e6b6 3ebf 5249 e9bd 2f0c 0bbf e09d 843e
00000270: 7330 04be 54f3 ca3e 3c5f 4b3e 6003 12be
00000280: 7cba ad3e d504 99bd 34f1 a23d 266a 9e3e
00000290: c0a2 14bd b3bc 06bf bf1c cabe dd28 f03d
000002a0: c69b 33bd 0f4e 553f 77a4 3a3e 4374 71bd
000002b0: 0df8 0b3f 6872 563e a59b 4f3e 0798 a4bc
000002c0: 3ee3 11bf a5c7 ccbe 21de 5b3f 1b1a 68be
000002d0: a9a3 273f 4351 cfbe a324 2e3e 6e63 003f
000002e0: 337d dcbe d21f ddbb 809b c63e aa6f 75bc
000002f0: 6aa6 61bf 4d09 ec3e ad70 29bf e4a6 c5be
00000300: 623c ecbd 7599 6fbf 9142 5e3f 22e0 60bf
00000310: 3614 c6be 4737 66bf 02ef 063f fdee 6bbe
00000320: 3d73 cf3d b319 5cbf 2844 183f 8aa7 9dbd
00000330: e963 18bc b294 fd3e 31ab d63e 718b 383f
00000340: e745 dabe d94f 943e 2793 413f 1390 483f
00000350: 0b06 f8be a765 763f f486 893e a35b 393f
00000360: 713e 803c a34b c2be 5133 213e 2bc3 84bf
00000370: ff1c 1ebe e65b 7abf 1459 a8bf 6851 d33c
00000380: 3604 87be cf7f ebbf 7aa7 ff3e ab98 b13e
00000390: 90f6 00bf 683a d83e 9454 333f 87fa 073f
000003a0: bda8 9c3e ce3d 713f c09e 68bf c17a 6fbd
000003b0: efb2 d73e 892a 203f 6a1c 1d3f 9470 6abf
000003c0: 4d86 7cbd cf87 423e e0f3 c13e 79c5 a7bf
000003d0: b1ba 9a3f 863c 0dbf 5415 993f bb96 8dbe
000003e0: e5b1 4c3e 3fcb ea3e ada6 043f 37a3 80bf
000003f0: 789e 0cbe 3d4d f6be f293 a0be e795 f63b

pi.logits_net.4.bias f4 [87]
0.53087854 0.4062114 0.3685503 0.5130252 0.46685317 0.37437332 0.47248736 0.10724698
0.22292897 0.5834014 0.40928555 0.40502483 0.4110518 -0.0074063083 0.25957432 0.3033462
0.37553272 0.47380832 0.33690536 0.41687104 0.60745555 0.12130452 0.60316133 0.38035998
0.17355108 0.088279895 0.7676358 0.5267195 0.31077865 0.29258826 0.4299784 0.37873545
0.33519056 0.47533083 0.31917098 0.45773703 0.13982606 0.30551583 0.32734635 0.20988679
0.44331464 0.6694348 0.4165329 0.43907347 0.45357332 0.5530941 0.3626165 0.30992967
0.31120524 0.51477575 0.2269061 0.19113883 0.6230398 0.22623512 0.4498955 0.32178855
0.6083118 0.40286577 0.68575394 0.6748882 0.59512925 0.6537661 0.24187827 0.33202556
0.4546346 0.2720544 0.721405 0.45127788 0.52284336 0.16049258 0.34576958 0.27030936
0.55986565 0.2622518 0.35761097 0.48838526 0.17088395 0.48645404 0.6554257 0.32782528
0.5808149 0.2578124 0.28546375 0.22165427 0.22823738 0.38611364 0.49739188
00000000: a8e7 073f f1fa cf3e a0b2 bc3e 9f55 033f
00000010: 6107 ef3e dcad bf3e dde9 f13e 4ea4 db3d
00000020: 7e47 643e cb59 153f e08d d13e 6a5f cf3e
00000030: 6275 d23e 9eb0 f2bb ede6 843e 3150 9b3e
00000040: d345 c03e 0197 f23e dc7e ac3e 1f70 d53e
00000050: 3582 1b3f 816e f83d c868 1a3f 8bbe c23e
00000060: 60b7 313e 17cc b43d c883 443f 17d7 063f
00000070: 611e 9f3e 21ce 953e 2126 dc3e 9de9 c13e
00000080: 199e ab3e 905e f33e 616a a33e 825c ea3e
00000090: 902e 0f3e 926c 9c3e f199 a73e 90ec 563e
000000a0: 23fa e23e 1460 2b3f cd43 d53e 3dce e03e
000000b0: c33a e83e 9397 0d3f dfa8 b93e 1aaf 9e3e
000000c0: 4b56 9f3e 58c8 033f 135a 683e e6b9 433e
000000d0: 897f 1f3f 2eaa 673e b458 e63e 78c1 a43e
000000e0: 52ba 1b3f 6c44 ce3e 928d 2f3f 79c5 2c3f
000000f0: 645a 183f 375d 273f f0ae 773e 41ff a93e
00000100: dec5 e83e b74a 8b3e 00ae 383f e50d e73e
00000110: 10d9 053f 2b58 243e b608 b13e fd65 8a3e
00000120: 5b53 0f3f de45 863e c918 b73e a20d fa3e
00000130: 34fc 2e3e 8110 f93e fbc9 273f b7d8 a73e
00000140: 49b0 143f fdff 833e 4e28 923e 56f9 623e
00000150: 0fb7 693e b0b0 c53e 26aa fe3e

v.v_net.0.weight f4 [64, 282]
0.6207573 0.09898662 -0.033355787 0.29971206 -0.1809584 -0.19980712 0.7781678 0.77627224
-0.017157316 2.4795237 0.1513784 0.11809305 0.6163807 -0.08967113 -0.21106242 0.32465857
0.6095211 -0.1588107 -0.16024637 0.59100085 0.64062846 0.8685325 0.08155238 -0.20735224
-0.34638783 -0.01091404 0.6041964 0.5148889 0.82262367 0.67600447 -0.21226944 -0.020391833
0.046209622 -0.29046234 0.58815265 0.797638 0.77304155 -0.019757017 -0.13320637 0.01644253
-0.02970285 0.15795633 0.014440084 -0.023850497 0.03249095 -0.085779555 -0.16547951 -0.12913777
0.078662835 0.8036571 0.5286575 0.6799165 0.10186953 -0.046726942 0.1324149 -0.23976114
0.14895803 0.5121421 -0.097033836 0.5488004 0.5792815 0.015214299 0.88114625 0.117614
0.052386574 -0.045628306 -0.3039566 0.08770426 -0.029219458 0.65532774 0.03349836 0.8826526
-0.08620172 0.037759732 0.1745458 0.85469705 0.10484832 0.8096637 0.2802573 -0.09654001
0.19618061 -0.23841193 0.8270069 0.6128636 -0.028112587 0.6851794 0.1323334 -3.30911
-2.5780349 2.0458431 0.4805466 0.88420016 2.0419767 2.0586832 -0.5983346 3.1471364
0.060454328 0.452437 -0.9546275 -2.4304054 0.871489 -0.90640986 0.71647066 3.1812723
1.0115486 1.7961586 -1.4554218 -0.21545386 0.72251666 2.5058298 0.2725721 1.3459381
0.6704157 1.4697033 0.30102354 0.54414773 -1.3970375 2.7811246 0.8463533 1.9562409
-1.3020571 -3.773677 1.4074898 0.6960558 1.4507625 -0.54712546 -0.088345036 3.4973595
1.7167565 0.5207995 1.6552944 0.5518819 1.4396329 1.0315446 -4.5947285 0.18288663
0.98119885 0.32369894 -3.1576626 2.425596 0.24716608 1.6002454 -0.89695364 -0.40884176
-0.433585 2.540806 -1.078586 0.44440007 1.2450302 0.14513212 -2.272908 -1.2787662
0.79256344 3.1272147 0.9010109 1.4565493 -1.8417318 -0.14573321 1.0244212 0.8377985
-0.1302542 -1.714719 0.7902229 -1.4593134 0.91285557 -0.029721098 2.1262689 -0.5426345
0.28456628 0.72682047 -2.7990217 1.858733 -0.7455707 1.6055752 2.219719 -2.6514833
-3.2756248 0.78814614 0.18661194 3.669829 -0.72651243 0.19826196 0.15868507 -1.7852
-0.96708244 0.7303142 -4.303666 -0.1548574 3.7140307 -1.239482 -3.1500518 -2.8475184
-2.968343 0.07749929 0.11000845 -0.6629728 0.909203 1.4472471 -2.5721347 1.6121804
2.9246056 -1.0827752 0.36739835 -2.140762 -1.8522139 0.18426852 -2.178887 -0.88349384
1.4082892 2.9660428 -2.2553828 2.1041439 2.3966036 -1.4549804 0.62687176 0.104150236
-0.8393738 -0.49647704 0.36453155 2.984307 -0.53391486 1.237754 4.5493584 0.28164086
1.7836549 -0.9832276 -0.9348718 -2.7830687 0.7902312 -0.1841984 -0.7138208 -2.187787
2.8532012 1.6318674 4.453864 -0.8512355 -1.0870169 1.2177002 4.584418 -3.3430395
2.1160674 -0.41087174 0.5761236 -2.9126196 3.2736983 0.38262802 1.5808102 1.8342158
0.32046467 1.7358208 1.0522563 0.70489764 0.32454973 -2.5186298 0.5730596 -0.027076343
00000000: f3e9 1e3f 7fb9 ca3d 14a0 08bd dc73 993e
00000010: 294d 39be 3d9a 4cbe 0136 473f c7b9 463f
00000020: 808d 8cbc 84b0 1e40 f002 1b3e c5da f13d
00000030: 20cb 1d3f 7fa5 b7bd bf20 58be a639 a63e
00000040: 9309 1c3f 469f 22be a017 24be d54b 173f
00000050: 3a00 243f 2558 5e3f ef04 a73d 2554 54be
00000060: bf59 b1be cdd0 32bc 9eac 1a3f c2cf 033f
00000070: 7797 523f a10e 2d3f 295d 59be c60c a7bc
00000080: 4d46 3d3d 7bb7 94be 2c91 163f 0132 4c3f
00000090: 0de6 453f 78d9 a1bc 4067 08be 7cb2 863c
000000a0: 6453 f3bc 4ebf 213e 1a96 6c3c 1e62 c3bc
000000b0: 3b15 053d 31ad afbd 7673 29be b13c 04be
000000c0: fb19 a13d 79bc 4d3f 1956 073f 020f 2e3f
000000d0: f9a0 d03d c064 3fbd c697 073e f283 75be
000000e0: 7488 183e bf1b 033f adb9 c6bd 2f7e 0c3f
000000f0: cb4b 143f 6545 793c cd92 613f 9cdf f03d
00000100: 4e93 563d bfe4 3abd 33a0 9bbe 4b9e b33d
00000110: a55d efbc 8fc3 273f 9435 093d 85f5 613f
00000120: 878a b0bd f3a9 1a3d 22bc 323e 6dcd 5a3f
00000130: b7ba d63d 1f46 4f3f e37d 8f3e c5b6 c5bd
00000140: 92e3 483e 4222 74be b9b6 533f a1e4 1c3f
00000150: 5e4c e6bc eb67 2f3f 6882 073e 75c8 53c0
00000160: 86fe 24c0 18ef 0240 340a f63e f15a 623f
00000170: bfaf 0240 77c1 0340 752c 19bf af6a 4940
00000180: f59e 773d d3a5 e73e 7862 74bf c38b 1bc0
00000190: e719 5f3f 7a0a 68bf 9f6a 373f f799 4b40
000001a0: 6d7a 813f 86e8 e53f 434b babf f09f 5cbe
000001b0: daf6 383f 845f 2040 928e 8b3e b347 ac3f
000001c0: 5da0 2b3f 3d1f bc3f c21f 9a3e 444d 0b3f
000001d0: 20d2 b2bf f2fd 3140 9caa 583f 1a66 fa3f
000001e0: cfa9 a6bf ed83 71c0 a028 b43f b730 323f
000001f0: 96b2 b93f 6a10 0cbf 3eee b4bd bdd4 5f40
00000200: adbe db3f 1e53 053f b0e0 d33f 2248 0d3f
00000210: e445 b83f a709 843f 0408 93c0 a246 3b3e
00000220: d92f 7b3f debb a53e 2517 4ac0 f73c 1b40
00000230: 1b19 7d3e d7d4 cc3f c19e 65bf b553 d1be
00000240: dafe ddbe 919c 2240 1b0f 8abf 6888 e33e
00000250: 265d 9f3f 849d 143e 5377 11c0 9cae a3bf
00000260: 70e5 4a3f 4924 4840 a6a8 663f 3570 ba3f
00000270: debd ebbf 163b 15be 3c20 833f f679 563f
00000280: 5b61 05be ea7b dbbf 0c4c 4a3f c8ca babf
00000290: e7b0 693f a979 f3bc ca14 0840 18ea 0abf
000002a0: acb2 913e e810 3a3f 2c23 33c0 f7ea ed3f
000002b0: b9dd 3ebf 7d83 cd3f e00f 0e40 e7b1 29c0
000002c0: d6a3 51c0 f2c3 493f 3317 3f3e 7ade 6a40
000002d0: b8fc 39bf 2f05 4b3e 577e 223e 6f81 e4bf
000002e0: b792 77bf dff5 3a3f a2b7 89c0 f092 1ebe
000002f0: aeb2 6d40 59a7 9ebf 739a 49c0 be3d 36c0
00000300: 55f9 3dc0 f3b7 9e3d 1c4c e13d 96b8 29bf
00000310: 87c1 683f 653f b93f db9d 24c0 ed5b ce3f
00000320: bd2c 3b40 6198 8abf a31b bc3e 3f02 09c0
00000330: 5815 edbf e3b0 3c3e e272 0bc0 a72c 62bf
00000340: d242 b43f a5d3 3d40 3158 10c0 4baa 0640
00000350: f461 1940 cc3c babf ab7a 203f b84c d53d
00000360: 34e1 56bf 3d32 febe e1a3 ba3e e3fe 3e40
00000370: a5ae 08bf b96e 9e3f 5894 9140 3b33 903e
00000380: ce4e e43f ceb4 7bbf c253 6fbf cc1d 32c0
00000390: 984c 4a3f 819e 3cbe f6bc 36bf b404 0cc0
000003a0: d99a 3640 08e1 d03f 0e86 8e40 92ea 59bf
000003b0: 5f23 8bbf 9add 9b3f 8db3 9240 5cf4 55c0
000003c0: a66d 0740 c85d d2be d67c 133f 5c68 3ac0
000003d0: 4684 5140 d2e7 c33e fd57 ca3f 95c7 ea3f
000003e0: f213 a43e 602f de3f 56b0 863f 2c74 343f
000003f0: 622b a63e 3b31 21c0 09b4 123f 35cf ddbc

v.v_net.0.bias f4 [64]
-0.8377329 -1.9995518 1.4285573 -4.5228157 0.057437245 -2.9708185 -6.2139378 3.1477876
0.040577196 -0.2566991 -1.467071 1.9835932 -0.019818591 0.39379612 -3.467214 -3.8101134
-0.6556929 -2.4688902 -2.9817147 -5.56277 -0.46708906 1.7422185 -3.959497 -0.5753342
0.801341 -2.1297286 -2.2505047 3.1034367 4.3764005 0.07456177 2.804632 -2.2943065
-2.50458 -1.5918884 4.400967 -13.261812 -0.38274348 -4.918857 -0.7598571 -1.967133
3.6670346 0.055057164 -1.5178838 2.942858 2.1417882 1.8331904 -0.8681008 3.9557836
-3.2685187 -1.2417908 -3.688445 -6.4433417 -3.6673982 -2.7600818 1.6064335 -4.326765
2.9016423 0.8531226 1.4270053 -0.27648568 2.277503 0.14296594 -4.543026 5.6024356
00000000: aa75 56bf 50f1 ffbf f7da b63f e8ba 90c0
00000010: 5143 6b3d e421 3ec0 94d8 c6c0 5a75 4940
00000020: 4634 263d 106e 83be fcc8 bbbf 62e6 fd3f
00000030: 995a a2bc a59f c93e d6e6 5dc0 e6d8 73c0
00000040: 7ddb 27bf 4c02 1ec0 6ad4 3ec0 3602 b2c0
00000050: 4c26 efbe 0401 df3f 6668 7dc0 1a49 13bf
00000060: af24 4d3f 794d 08c0 4508 10c0 b59e 4640
00000070: 790b 8c40 d7b3 983d 177f 3340 ebd5 12c0
00000080: 0a4b 20c0 00c3 cbbf b9d4 8c40 6230 54c1
00000090: f4f6 c3be 4767 9dc0 ff85 42bf 04cb fbbf
000000a0: b2b0 6a40 9f83 613d 044a c2bf c957 3c40
000000b0: 0f13 0940 fca5 ea3f db3b 5ebf 8f2b 7d40
000000c0: 692f 51c0 00f3 9ebf 7c0f 6cc0 db2f cec0
000000d0: a7b6 6ac0 2ea5 30c0 9d9f cd3f dc74 8ac0
000000e0: 82b4 3940 3e66 5a3f 1ca8 b63f 888f 8dbe
000000f0: 9cc2 1140 aa65 123e 7860 91c0 2747 b340

v.v_net.2.weight f4 [64, 64]
0.67868453 -4.237619 2.3609736 2.4632554 -2.554581 1.5964118 -8.502451 2.8472557
-0.5513164 4.5831113 1.2183576 -0.043767627 -3.9920335 -0.5135112 1.1473588 1.9939195
3.226584 2.1480079 11.397004 1.4512153 -1.7110436 -1.4935932 2.0192099 3.1474054
-1.0914727 4.794278 2.4787717 0.028095758 2.0898275 0.3997696 0.089969456 4.015138
2.7460537 -1.2097386 -1.6466467 2.4135962 0.95546377 1.6653821 0.71658045 -2.5526037
1.96905 -4.313773 -1.5963494 -1.082866 -1.8713474 0.9413381 0.49798676 -5.69718
2.798976 0.60829175 0.6587374 -3.4853632 1.0150036 2.3368967 -1.1892542 4.5901933
-0.3720606 -1.0999551 2.732039 -0.34925035 -0.91977173 2.880532 0.277783 -3.876898
-1.3800055 -2.9493272 -4.5282865 -1.5486934 1.1559453 2.38067 1.2684021 1.1193743
-1.6639812 3.546124 1.3209028 -5.083417 -0.75916356 1.8667191 1.0724142 1.5051287
-0.42340878 -1.6406771 -2.765653 -1.956756 -3.3146617 -0.3828807 1.3919694 -4.347287
-1.8913038 1.5705696 -0.98209125 -11.687859 -4.340085 -3.965621 2.4405136 3.014354
-2.1569896 -2.4799302 4.896983 -2.8341024 3.1770914 -2.9579186 -1.0451044 1.9524084
-3.4721463 7.7730155 -3.4675996 -2.433872 4.4078674 -0.5303927 1.0921639 -5.3952203
-0.28893587 -2.787413 5.4270043 -1.1844923 -1.910386 -0.13076366 -1.0741031 -3.0192382
-6.3930683 -0.063737296 -2.5558257 5.563819 -4.2236805 2.4589956 2.6646993 3.123392
0.13880141 -3.3242793 3.883992 -0.49577698 -4.475094 -1.9426432 -1.4198536 -4.2534323
-1.8826401 -2.8210065 -1.0364583 0.13187352 -0.117899545 5.9602504 -1.3368059 -0.93784
-5.7969875 -3.1175416 1.8021643 -2.5732946 0.4676602 -0.48246565 2.3990762 0.6841912
2.0182986 0.80701226 -0.89012027 -5.063852 -3.4549832 -3.375065 2.8159225 -1.3619087
5.0974426 -3.9170628 0.7449462 -3.9068992 1.9530791 1.5946916 -3.2268066 0.22098127
-2.4180121 5.0185795 -0.19216952 1.3750234 2.8492823 -2.7236147 1.9286987 2.624422
0.6008253 0.54343325 0.071132295 0.5962473 3.0721288 2.1173522 -0.8904987 0.7524993
4.3976297 -1.0042028 -1.0451398 -1.8499783 2.2615964 4.784705 -0.23046006 -1.3757823
-2.1561785 -3.2013035 1.5369287 1.0493934 2.0335774 1.7444742 8.020763 -0.98699564
0.6422421 4.019417 4.2997613 0.95008534 3.0380573 2.1263933 -0.23918776 1.684389
0.94636846 0.5982006 1.111914 -0.1367926 -5.398153 -5.12491 3.8867345 -7.6680627
0.47756696 0.7735375 -1.8405662 -5.302053 -5.5622063 -7.749785 -1.3214293 0.54645723
-5.205296 0.8384003 1.4894135 -2.8165848 7.5661654 -3.124818 -0.39917544 3.2075813
0.0066890013 4.2182727 -0.80294967 -3.6318688 3.2168036 -5.0806856 -1.6077812 2.323007
-2.7527397 -2.85417 6.000091 5.9603457 2.8188562 0.71470565 4.1313605 -1.9520501
-4.7335916 -2.6436813 -2.4599178 1.5893416 3.7932446 -1.6886514 0.4543235 -1.247098
00000000: 45be 2d3f 939a 87c0 311a 1740 faa5 1d40
00000010: 417e 23c0 3957 cc3f 0a0a 08c1 7039 3640
00000020: 1223 0dbf d9a8 9240 24f3 9b3f af45 33bd
00000030: 7a7d 7fc0 7875 03bf a7dc 923f c138 ff3f
00000040: 5a80 4e40 f678 0940 215a 3641 6cc1 b93f
00000050: 7a03 dbbf 102e bfbf bc3a 0140 176f 4940
00000060: 61b5 8bbf ba6a 9940 32a4 1e40 1329 e63c
00000070: bcbf 0540 9aae cc3e e841 b83d 037c 8040
00000080: 58bf 2f40 b7d8 9abf 52c5 d2bf 5c78 1a40
00000090: 4699 743f 3e2b d53f d171 373f dc5d 23c0
000000a0: d509 fc3f 6e0a 8ac0 2d55 ccbf 5a9b 8abf
000000b0: 5088 efbf 89fb 703f 1ff8 fe3e 4c4f b6c0
000000c0: 6c22 3340 02b9 1b3f 04a3 283f 3110 5fc0
000000d0: a3eb 813f b78f 1540 7b39 98bf dde2 9240
000000e0: ba7e bebe 54cb 8cbf bad9 2e40 f1d0 b2be
000000f0: 2976 6bbf a35a 3840 9339 8e3e 191f 78c0
00000100: 05a4 b0bf c7c1 3cc0 b9e7 90c0 963b c6bf
00000110: 04f6 933f e65c 1840 005b a23f a847 8f3f
00000120: 56fd d4bf b2f3 6240 5813 a93f 5aab a2c0
00000130: 8b58 42bf a7f0 ee3f de44 893f 0fa8 c03f
00000140: 09c9 d8be b501 d2bf 7500 31c0 fb76 fabf
00000150: 6b23 54c0 f008 c4be 0e2c b23f fa1c 8bc0
00000160: 3e16 f2bf 6d08 c93f 556a 7bbf 7801 3bc1
00000170: fae1 8ac0 bccc 7dc0 6031 1c40 2deb 4040
00000180: 1e0c 0ac0 2db7 1ec0 16b4 9c40 ef61 35c0
00000190: 7755 4b40 8a4e 3dc0 fbc5 85bf 85e8 f93f
000001a0: a537 5ec0 8bbc f840 27ed 5dc0 8fc4 1bc0
000001b0: 400d 8d40 d1c7 07bf 07cc 8b3f a5a5 acc0
000001c0: 67ef 93be f964 32c0 05aa ad40 729d 97bf
000001d0: 8787 f4bf e9e6 05be 367c 89bf 333b 41c0
000001e0: 0494 ccc0 b388 82bd a692 23c0 ce0a b240
000001f0: 6428 87c0 2f60 1d40 6f8a 2a40 a8e5 4740
00000200: f521 0e3e fec0 54c0 5393 7840 7bd6 fdbe
00000210: f833 8fc0 88a8 f8bf c3bd b5bf 1e1c 88c0
00000220: 5afa f0bf 5f8b 34c0 aaaa 84bf da09 073e
00000230: 5175 f1bd 5fba be40 751c abbf 4816 70bf
00000240: ec80 b9c0 cd85 47c0 52ad e63f dcb0 24c0
00000250: 2871 ef3e bd05 f7be 778a 1940 2827 2f3f
00000260: ce2b 0140 5b98 4e3f ecde 63bf 130b a2c0
00000270: 721e 5dc0 1101 58c0 1338 3440 0653 aebf
00000280: 401e a340 28b1 7ac0 cbb4 3e3f a30a 7ac0
00000290: 7ffe f93f db1e cc3f 0084 4ec0 ea48 623e
000002a0: b6c0 1ac0 3498 a040 16c8 44be c400 b03f
000002b0: a45a 3640 b44f 2ec0 99df f63f 88f6 2740
000002c0: b0cf 193f 711e 0b3f cfad 913d aaa3 183f
000002d0: c29d 4440 b382 0740 b9f7 63bf cba3 403f
000002e0: 62b9 8c40 b889 80bf 24c7 85bf 17cc ecbf
000002f0: ffbd 1040 4e1c 9940 b9fd 6bbe a219 b0bf
00000300: d4fe 09c0 28e2 4cc0 14ba c43f 8652 863f
00000310: 2226 0240 ee4a df3f 0c55 0041 bfab 7cbf
00000320: fa69 243f 109f 8040 a597 8940 cb38 733f
00000330: 886f 4240 d416 0840 a3ed 74be 0f9a d73f
00000340: 3445 723f ad23 193f 3353 8e3f 5c13 0cbe
00000350: abbd acc0 43ff a3c0 42c0 7840 c560 f5c0
00000360: a883 f43e 8e06 463f ac97 ebbf 6baa a9c0
00000370: 98fd b1c0 3dfe f7c0 9824 a9bf 9fe4 0b3f
00000380: c991 a6c0 67a1 563f 1aa5 be3f ed42 34c0
00000390: 071e f240 05fd 47c0 b960 ccbe 0349 4d40
000003a0: 692f db3b 17fc 8640 1c8e 4dbf 8a70 68c0
000003b0: 1ce0 4d40 fa94 a2c0 c6cb cdbf 26ac 1440
000003c0: e32c 30c0 b9aa 36c0 bf00 c040 27bb be40
000003d0: 2468 3440 f3f6 363f 1b34 8440 c7dc f9bf
000003e0: 9579 97c0 1332 29c0 4b6f 1dc0 8c6f cb3f
000003f0: 85c4 7240 bb25 d8bf 179d e83e e8a0 9fbf

v.v_net.2.bias f4 [64]
-1.5406609 -1.6879816 1.655653 -0.18518353 -0.38295195 -2.2776828 -2.0136273 1.5957109
-2.474909 -2.496698 -0.8937304 -1.0556442 -1.808422 -0.29382712 -0.34041163 0.6342884
0.16256623 -0.22159338 2.6315868 0.7719875 -1.4840074 1.4398783 0.8031392 -2.0903854
0.7738136 0.50262564 1.3384014 -1.2428148 -2.0684779 0.5779242 -0.12856705 -0.16736466
-1.8858979 0.798583 2.2080054 1.1704257 0.5447403 -3.4236362 0.48635945 0.11055727
0.64592 1.8249459 0.2099992 0.17582953 1.1103466 1.5140569 0.069203615 -0.9852684
-0.54983735 1.1446202 0.9918566 -2.2360752 0.008086823 -2.3224115 -1.8142476 2.6006448
0.2924884 0.28127083 -1.501877 -1.595868 -0.92318165 0.47660407 2.4096646 -0.7342493
00000000: 6034 c5bf c80f d8bf 70ec d33f c0a0 3dbe
00000010: 4712 c4be 8ec5 11c0 45df 00c0 4140 cc3f
00000020: e964 1ec0 e6c9 1fc0 84cb 64bf 591f 87bf
00000030: 5f7a e7bf 8270 96be 6f4a aebe b960 223f
00000040: c377 263e 60e9 62be eb6b 2840 f9a0 453f
00000050: f4f3 bdbf ef4d b83f 889a 4d3f e0c8 05c0
00000060: a618 463f 13ac 003f bd50 ab3f 8e14 9fbf
00000070: f161 04c0 d7f2 133f 15a7 03be a461 2bbe
00000080: 1a65 f1bf ef6f 4c3f f64f 0d40 82d0 953f
00000090: 1a74 0b3f db1c 5bc0 1b04 f93e da6b e23d
000000a0: 035b 253f d497 e93f 080a 573e a80c 343e
000000b0: d61f 8e3f 9ecc c13f a0ba 8d3d 8d3a 7cbf
000000c0: 24c2 0cbf ea82 923f 50ea 7d3f db1b 0fc0
000000d0: 987e 043c 64a2 14c0 4439 e8bf f770 2640
000000e0: 0ac1 953e bb02 903e 813d c0bf 6745 ccbf
000000f0: a255 6cbf 7305 f43e f237 1a40 c3f7 3bbf

v.v_net.4.weight f4 [1, 64]
-14.172958 -18.089796 17.77093 18.172659 -12.190524 -20.745607 -23.713758 22.121614
-46.517117 -13.399135 -17.229986 -15.767723 -23.18862 -11.515145 12.731035 15.4604
-12.388642 -16.447182 18.32299 -8.229426 -23.659752 15.294099 -11.6506405 -18.93706
19.174088 25.007658 22.230122 8.002432 -13.076245 -18.565096 -13.168935 12.96495
-20.601564 21.379421 20.616564 -18.7887 -21.045944 -10.92437 16.293596 -8.237531
19.316969 24.723438 22.22023 18.998674 23.863098 20.787277 14.605526 -13.843822
-23.538568 -20.593071 15.061389 -17.592451 16.87994 -17.212698 -14.297956 14.419318
-9.911714 -24.926138 -24.21186 -23.921957 -24.392761 20.245598 48.0813 -27.412256
00000000: 70c4 62c1 e7b7 90c1 dd2a 8e41 9b61 9141
00000010: 630c 43c1 01f7 a5c1 c7b5 bdc1 11f9 b041
00000020: 8711 3ac2 db62 56c1 03d7 89c1 9848 7cc1
00000030: 4b82 b9c1 093e 38c1 52b2 4b41 cc5d 7741
00000040: e137 46c1 d493 83c1 7c95 9241 bbab 03c1
00000050: 2c47 bdc1 a1b4 7441 0669 3ac1 197f 97c1
00000060: 8864 9941 af0f c841 4ad7 b141 f609 0041
00000070: 4d38 51c1 5185 94c1 f5b3 52c1 6f70 4f41
00000080: 01d0 a4c1 0e09 ab41 b9ee a441 424f 96c1
00000090: 185e a8c1 38ca 2ec1 4959 8241 edcc 03c1
000000a0: 2789 9a41 9ac9 c541 08c3 b141 49fd 9741
000000b0: a0e7 be41 584c a641 3cb0 6941 4b80 5dc1
000000c0: fd4e bcc1 9cbe a4c1 73fb 7041 57bd 8cc1
000000d0: 1e0a 8741 9bb3 89c1 6ec4 64c1 87b5 6641
000000e0: 6196 1ec1 bb68 c7c1 e4b1 c1c1 2b60 bfc1
000000f0: 6024 c3c1 fcf6 a141 4053 4042 4d4c dbc1
