model_wts/s4_d1_m0.0_b1.0.ckpt (torch, 206875 bytes, 11 tensors)

pi.logits_net.0.weight f4 [64, 282]
0.02473475 -0.12104893 0.13675788 -0.0019273555 0.2237266 0.23399723 0.07795995 0.06845781
0.19953582 0.4265155 -0.15177292 -0.16204755 0.06839915 0.18226159 0.3002117 0.06781469
0.04901295 -0.15779573 0.25938717 -0.03162225 0.020255515 -0.0020948562 -0.07402132 0.29167446
0.32089275 0.19054407 0.053178318 0.04212693 0.07209063 -0.0071234326 0.33862516 0.22812659
-0.15185319 0.325406 0.07838783 -0.014416159 -0.003972929 0.22615308 0.3304331 0.20112163
0.20369962 -0.0861 0.2376028 0.14775303 -0.111304455 0.23555356 0.3145813 0.25447524
-0.15041132 0.07704648 -0.013962397 0.055939138 -0.095650986 0.12830406 -0.1875279 0.30218628
-0.09886943 0.0761192 0.19275433 0.06373455 -0.018986026 0.2209602 -0.038111877 -0.09141381
-0.1216307 0.22219819 0.30539232 -0.17140049 -0.09952886 0.025164135 -0.1195263 -0.03288368
0.15533686 -0.12819783 -0.1625723 0.069963 -0.094401546 0.04377624 0.0147597985 0.13709876
-0.11753331 0.3374386 0.045759033 -0.02474253 0.18013635 0.020050602 -0.09241366 -0.1014703
0.16133653 -0.13160183 0.11975227 -0.2337415 -0.047768094 0.16763185 -0.32789198 0.053343635
-0.2649022 0.5421479 -0.4525545 -0.11261883 0.111546256 0.030269569 -0.15999597 0.1663058
-0.4525837 -0.280501 0.2185918 -0.000599881 -0.461989 -0.65760213 -0.027679486 -0.22714058
0.18030986 0.1902999 -0.09895741 0.57777834 0.08600485 -0.16103683 0.098898485 0.2994714
-0.22439338 -0.09141334 0.40057582 0.11942488 0.33972833 0.02347257 0.32250917 0.2733336
-0.19401492 0.19146957 0.22707346 0.5981303 -0.019180128 -0.0075909747 0.041899454 -0.2854266
-0.21569115 0.11060627 -0.088827394 -0.06596129 0.19496211 -0.16084346 -0.32842267 0.31315812
-0.13427427 0.3346015 -0.22117603 -0.1016035 0.2921824 0.017356174 0.57897395 0.052047826
-0.1707724 -0.21963347 0.10900448 -0.28906146 0.10884703 -0.055738043 0.16461602 0.044258233
-0.1747056 0.092997454 0.180642 0.14140104 -0.50038123 -0.525207 0.13198854 0.20036362
0.09519194 -0.5065298 0.11873503 0.38817206 0.3937021 -0.24428213 -0.030532904 0.12935418
-0.66069233 0.01847969 -0.41902804 0.50258446 -0.2711137 -0.049576428 0.34907603 -0.42038947
0.67309445 0.18603998 0.67592585 0.37119314 -0.8746878 -0.6212809 0.65642357 0.36290598
0.13907892 -0.36029962 0.36415192 0.42766875 -0.07539057 0.58723575 0.51031625 -0.06613752
-0.37527868 -1.0430447 0.9471392 0.5219107 0.5699405 -0.28455773 -0.371442 0.07225814
-0.36808917 -0.059834983 0.20741303 -0.045437828 -0.51650274 0.16139594 -0.71388686 -0.044725817
0.27887473 -0.8291717 0.827076 0.38818508 -0.72141737 0.1494911 0.6468317 -0.45189172
1.241674 0.20896702 0.56065565 -0.5986773 -0.4642949 0.41816494 1.1286907 -0.046452936
-0.65905124 -0.37643185 -0.9484703 -0.19876598 -0.44562364 -0.64512724 0.3927586 -0.48704752
0.54826045 -0.5719746 0.29861775 -0.7737477 0.98829067 -0.19106942 -0.2941276 -0.3776746
0.04613531 -0.3493337 -0.49315894 0.146394 0.21641944 -0.13229184 0.16514951 0.4596757
00000000: 88a0 ca3c 80e8 f7bd 420a 0c3e 529f fcba
00000010: 9618 653e f89c 6f3e 77a9 9f3d 9c33 8c3d
00000020: 1e53 4c3e 3d60 da3e 5c6a 1bbe cbef 25be
00000030: db14 8c3d c8a2 3a3e 59b5 993e 6ee2 8a3d
00000040: cec1 483d 3495 21be 65ce 843e 5586 01bd
00000050: e5ee a53c db49 09bb 7d98 97bd 5b56 953e
00000060: 0e4c a43e fc1d 433e 82d1 593d 4a8d 2c3d
00000070: 41a4 933d af6b e9bb 4760 ad3e 049a 693e
00000080: 677f 1bbe 9d9b a63e cc89 a03d c131 6cbc
00000090: 582f 82bb ac94 673e 872e a93e d4f2 4d3e
000000a0: a296 503e 3255 b0bd 264e 733e 924c 173e
000000b0: 97f3 e3bd f434 713e cd10 a13e 944a 823e
000000c0: 6d05 1abe 8bca 9d3d 8ac2 64bc 7020 653d
000000d0: aae4 c3bd 2462 033e 5007 40be 29b8 9a3e
000000e0: 0e7c cabd 62e4 9b3d 6461 453e 4287 823d
000000f0: 9588 9bbc 6443 623e 331b 1cbd 2a37 bbbd
00000100: 8419 f9bd ec87 633e 625c 9c3e 9c83 2fbe
00000110: c9d5 cbbd 0425 ce3c 34ca f4bd 0ab1 06bd
00000120: a010 1f3e 4b46 03be 5a79 26be c348 8f3d
00000130: 9955 c1bd b74e 333d 15d3 713c 9e63 0c3e
00000140: 4eb5 f0bd c1c4 ac3e d36d 3b3d d9b0 cabc
00000150: aa75 383e 2941 a43c 5f43 bdbd a9cf cfbd
00000160: 6735 253e a1c2 06be ae40 f53d ef59 6fbe
00000170: 7aa8 43bd afa7 2b3e 75e1 a7be db7e 5a3d
00000180: 43a1 87be 34ca 0a3f 39b5 e7be b3a4 e6bd
00000190: 5d72 e43d e3f7 f73c fcd5 23be 114c 2a3e
000001a0: 0db9 e7be d49d 8fbe 87d6 5f3e 5541 1dba
000001b0: d289 ecbe 9d58 28bf 17c0 e2bc 8a97 68be
000001c0: 26a3 383e fadd 423e 2faa cabd 48e9 133f
000001d0: 5023 b03d d7e6 24be 4a8b ca3d 5154 993e
000001e0: 61c7 65be eb36 bbbd 4618 cd3e 0895 f43d
000001f0: dff0 ad3e 8c49 c03c ec1f a53e 62f2 8b3e
00000200: d9ab 46be 9910 443e f285 683e 111f 193f
00000210: a51f 9dbc b6bd f8bb c39e 2b3d 6f23 92be
00000220: 24de 5cbe 8a85 e23d 23eb b5bd b616 87bd
00000230: 26a4 473e 26b4 24be 0427 a8be 4356 a03e
00000240: 327f 09be e350 ab3e f87b 62be 7f15 d0bd
00000250: ee98 953e 892e 8e3c a337 143f 1a30 553d
00000260: f6de 2ebe 99e7 60be be3d df3d ddff 93be
00000270: 31eb de3d 934d 64bd 1a91 283e 1f48 353d
00000280: 06e6 32be 7375 be3d 37fa 383e 6fcb 103e
00000290: fc18 00bf f773 06bf 0128 073e 1f2c 4d3e
000002a0: fef3 c23d f0ab 01bf 5a2b f33d 7dbe c63e
000002b0: 5293 c93e 1825 7abe 2420 fabc 6c75 043e
000002c0: 2223 29bf b862 973c d88a d6be 60a9 003f
000002d0: 6acf 8abe a710 4bbd 18ba b23e 4a3d d7be
000002e0: eb4f 2c3f 4481 3e3e 7a09 2d3f 070d be3e
000002f0: 8aeb 5fbf 440c 1fbf 600b 283f d0ce b93e
00000300: b46a 0e3e 3179 b8be 1f72 ba3e 66f7 da3e
00000310: 5f66 9abd 1555 163f 16a4 023f 1c73 87bd
00000320: 8724 c0be 7d82 85bf b777 723f f19b 053f
00000330: 9fe7 113f 8db1 91be a52d bebe 13fc 933d
00000340: 2f76 bcbe 8715 75bd 1564 543e 041d 3abd
00000350: 8639 04bf fa44 253e 4ac1 36bf 6b32 37bd
00000360: abc8 8e3e 9944 54bf 41bb 533f 32c0 c63e
00000370: cfae 38bf 3214 193e c396 253f 5a5e e7be
00000380: 2cef 9e3f 73fb 553e 2187 0f3f ea42 19bf
00000390: 10b8 edbe b719 d63e f078 903f 6f45 3ebd
000003a0: 95b7 28bf adbb c0be f3ce 72bf 4f89 4bbe
000003b0: c828 e4be 0f27 25bf a817 c93e 4b5e f9be
000003c0: cc5a 0c3f ed6c 12bf 6de4 983e 5414 46bf
000003d0: 9e00 7d3f b4a7 43be e597 96be 915e c1be
000003e0: 61f8 3c3d dedb b2be 547f fcbe 4fe8 153e
000003f0: 0f9d 5d3e 8377 07be f41c 293e 9d5a eb3e

pi.logits_net.0.bias f4 [64]
0.21670462 0.18904656 0.29075977 0.11250454 -0.13133335 -0.19588907 -0.29298624 -0.39151382
0.17944361 -0.14360334 0.18354325 -0.06733115 0.0553064 -0.008794796 0.005459888 0.27189043
-0.22893223 0.014886442 -0.12005026 -0.35078466 -0.08248604 -0.039472785 -0.11895942 -0.18956812
-0.17187418 0.053250693 0.026882635 0.010630856 0.10509983 0.1072198 0.01892063 0.1159572
0.05200872 -0.050519533 0.040775888 -0.030848404 0.091588646 -0.24781898 0.012033209 0.113864996
-0.010569723 -0.31052974 -0.09775233 0.13144544 -0.067692526 0.31407863 0.28735495 0.12539943
0.0026806302 -0.16162486 -0.12193816 0.09627381 0.020101255 -0.26024342 -0.00024404694 0.22044502
0.2512782 -0.2032492 -0.15512119 -0.19629148 0.16868815 -0.15825018 0.26766774 -0.077256575
00000000: d1e7 5d3e 6c95 413e 77de 943e c868 e63d
00000010: 407c 06be 2597 48be 4b02 96be 8074 c8be
00000020: 11c0 373e c10c 13be c3f2 3b3e eae4 89bd
00000030: f788 623d 0c18 10bc dce8 b23b 3935 8b3e
00000040: 366d 6abe 43e6 733c e9dc f5bd 0c9a b3be
00000050: 71ee a8bd 37ae 21bd ffa0 f3bd 251e 42be
00000060: c9ff 2fbe 661d 5a3d f938 dc3c 0b2d 2e3c
00000070: 943e d73d 0e96 db3d 70ff 9a3c f87a ed3d
00000080: 1807 553d 92ed 4ebd 9e04 273d cbb5 fcbc
00000090: d492 bb3d 42c4 7dbe f026 453c 0d32 e93d
000000a0: a22c 2dbc c1fd 9ebe 6032 c8bd a299 063e
000000b0: 61a2 8abd eace a03e 3020 933e b568 003e
000000c0: 83ad 2f3b fd80 25be b7ba f9bd 342b c53d
000000d0: 63ab a43c a03e 85be dae6 7fb9 57bc 613e
000000e0: 89a7 803e 8f20 50be 17d8 1ebe a200 49be
000000f0: 96bc 2c3e 560c 22be bf0b 893e b238 9ebd

pi.logits_net.2.weight f4 [64, 64]
-0.048997227 0.44565064 0.16994137 0.39442033 0.5232102 0.16908015 0.21121757 -0.8300689
0.15204327 -0.057265192 0.5892506 0.20273125 -0.0686896 0.6245387 -0.21840088 -0.2592687
0.0978334 0.53638977 0.6109457 -0.19055296 0.2868207 0.20723984 -0.12986447 0.3300171
-0.14417821 -0.26998857 0.53279376 0.3808849 -0.030195504 0.15795568 0.26882234 0.72908884
0.22248468 0.004410263 0.2977546 0.14438373 -0.33243132 0.015304141 -0.09198483 0.20610164
0.25565773 0.16003212 -1.321687 -0.4052481 -0.19119371 -0.07678445 0.62462074 0.43560562
-0.6164536 -0.7051482 -0.45536044 -0.22724256 0.5450834 -0.20815739 0.5135863 0.4582295
0.6450903 -0.51759624 0.63693875 0.1241887 -0.3350187 -0.96093893 0.09492401 0.19021238
-0.14259559 0.023574118 -0.14590043 0.009377425 -0.26758322 0.58247894 -0.08126435 0.8796253
0.07646175 0.23124048 -0.07972315 1.2045547 0.13810264 -0.17362547 -0.6233956 -0.45015028
-0.3394849 -0.776616 0.03310334 -0.027750548 0.018676886 -0.032198194 -0.032731492 0.34684363
-0.3368118 0.6919472 -0.13006385 -0.41577843 -0.16356164 -0.5522544 -0.39877105 -0.024006972
-0.4561382 -0.046467267 0.18451492 0.53258157 -0.1779755 -0.55334455 -0.47701076 -0.60548496
-1.0742075 0.49153915 0.26503524 0.40427932 0.098764196 0.30494526 -0.06849381 0.011260158
-0.48739025 0.088536344 0.29143575 0.0035627948 0.087445095 0.15031384 0.27626052 -0.59875876
-0.288979 0.43979868 -0.8695967 -0.66090506 -0.16770281 0.51428044 -0.25550318 0.11736357
1.2250876 0.21717346 0.40870228 0.35349146 -0.034272604 -0.6164769 -0.24650373 -0.0033809617
-0.20298171 0.05447418 -0.021557895 0.19206165 -0.3258258 0.37371913 0.24585861 -0.44685927
-0.75909334 -0.5435706 0.37296206 -0.2972393 -0.10965051 -0.05304161 0.28032377 -0.1684711
-0.21087056 0.14699654 0.5151547 -0.019536799 -0.3174737 0.86657757 -0.27129477 0.08514122
0.6866296 0.1222853 0.29608732 -0.4572921 -1.1981589 -0.08571263 0.472549 0.2558163
-0.54311913 -0.044337258 0.011523058 0.26901656 -0.53689116 0.08064084 -0.17885746 0.38893068
-0.1252194 -0.14556178 -0.44249064 -0.27439377 -0.4396773 -0.6059488 0.3258914 0.4264135
-0.36128238 -0.257844 0.119086765 -0.7416827 -0.07985183 -0.2987508 -0.21932445 0.6501897
-0.21892779 -0.42529047 -0.2537493 0.5589417 -0.31133413 0.19646001 0.2613485 -0.023212234
-0.12970927 0.13559945 -0.68372214 0.17928699 -0.4163559 0.44429976 -0.35579908 -0.49442872
0.78300107 -0.33709946 0.37934563 -0.033774033 -0.078075185 -0.85138315 -0.040926367 -0.079518
0.9508109 0.13710172 -0.17603528 -0.028837116 0.07894097 -0.25584775 -0.44177303 0.0074975267
-0.039271597 -0.3868524 -0.18954791 -0.11050587 0.38279948 -0.12870248 -0.3551588 -0.28449658
0.3608458 -0.0037508288 0.79603827 -0.12667373 0.27638826 0.90192217 -0.2564882 -0.090130225
0.49824333 0.22875205 0.55553055 -0.9918026 -0.095528096 0.966203 0.9975665 0.15572621
-0.51182026 0.3262354 0.094161205 0.78838897 -0.48933232 0.12076544 0.1359223 -0.13844325
00000000: 51b1 48bd 522c e43e 1c05 2e3e 76f1 c93e
00000010: 1bf1 053f 5923 2d3e 6b49 583e 657f 54bf
00000020: 3bb1 1b3e e88e 6abd 21d9 163f c898 4f3e
00000030: 22ad 8cbd c5e1 1f3f 7ba4 5fbe debe 84be
00000040: e15c c83d d750 093f f066 1c3f 5120 43be
00000050: 2ada 923e ae36 543e 31fb 04be 00f8 a83e
00000060: 74a3 13be f13b 8abe 2c65 083f 5803 c33e
00000070: 905c f7bc 22bf 213e 15a3 893e 91a5 3a3f
00000080: 06d3 633e f883 903b 4a73 983e 54d9 133e
00000090: 7034 aabe 38be 7a3c 8b62 bcbd 4f0c 533e
000000a0: 92e5 823e 76df 233e 0a2d a9bf ae7c cfbe
000000b0: 49c8 43be 2a41 9dbd 25e7 1f3f b307 df3e
000000c0: e7cf 1dbf 9884 34bf 0125 e9be 46b2 68be
000000d0: 968a 0b3f 3627 55be 647a 033f 0f9d ea3e
000000e0: a324 253f 3081 04bf 6b0e 233f a556 fe3d
000000f0: 9287 abbe 1800 76bf 8567 c23d 09c7 423e
00000100: 9404 12be 821e c13c ec66 15be c5a3 193c
00000110: ab00 89be 571d 153f ec6d a6bd 202f 613f
00000120: fa97 9c3d 4eca 6c3e e445 a3bd d92e 9a3f
00000130: c76a 0d3e e0ca 31be db96 1fbf 197a e6be
00000140: f7d0 adbe 4ed0 46bf 5e97 073d 1e55 e3bc
00000150: 4500 993c 41e2 03bd 7511 06bd 7d95 b13e
00000160: 9972 acbe 7423 313f 752f 05be e9e0 d4be
00000170: b47c 27be 8b60 0dbf b82b ccbe 45aa c4bc
00000180: f28a e9be 7654 3ebd 7bf1 3c3e 4457 083f
00000190: 363f 36be fda7 0dbf c13a f4be 1001 1bbf
000001a0: a27f 89bf 05ab fb3e b3b2 873e b3fd ce3e
000001b0: e244 ca3d c921 9c3e 7c46 8cbd 877c 383c
000001c0: 378b f9be 8b52 b53d 1137 953e c77d 693b
000001d0: 6a16 b33d dfeb 193e 0572 8d3e 4148 19bf
000001e0: 0ef5 93be 4b2d e13e e49d 5ebf 1331 29bf
000001f0: 49ba 2bbe e2a7 033f 50d1 82be 505c f03d
00000200: accf 9c3f b862 5e3e 6d41 d13e d5fc b43e
00000210: 6e61 0cbd 6ed1 1dbf 796b 7cbe 2093 5dbb
00000220: 70da 4fbe 5120 5f3d 2f9a b0bc cfab 443e
00000230: a4d2 a6be 1d58 bf3e 5cc2 7b3e bdca e4be
00000240: f153 42bf 7127 0bbf e2f4 be3e c02f 98be
00000250: 7290 e0bd 2942 59bd 9986 8f3e b083 2cbe
00000260: 74ee 57be 4386 163e 2ee1 033f a30b a0bc
00000270: ea8b a2be 07d8 5d3f 26e7 8abe 855e ae3d
00000280: f5c6 2f3f b770 fa3d c298 973e 3122 eabe
00000290: 455d 99bf 1a8a afbd f1f1 f13e 5bfa 823e
000002a0: db09 0bbf fc9a 35bd 35cb 3c3c 8abc 893e
000002b0: b371 09bf 0627 a53d 6926 37be ec21 c73e
000002c0: 8439 00be 260e 15be 228e e2be 577d 8cbe
000002d0: 621d e1be 761f 1bbf 3ddb a63e df52 da3e
000002e0: 01fa b8be 2104 84be c3e3 f33d ebde 3dbf
000002f0: 5b89 a3bd ddf5 98be 9796 60be d572 263f
00000300: 9b2e 60be acbf d9be 6eeb 81be ce16 0f3f
00000310: 3067 9fbe d02c 493e 78cf 853e 9527 bebc
00000320: 82d2 04be 95da 0a3e 6a08 2fbf 0297 373e
00000330: 9a2c d5be 427b e33e 4c2b b6be c325 fdbe
00000340: c272 483f 4d98 acbe 9739 c23e a456 0abd
00000350: e2e5 9fbd 3ff4 59bf 68a2 27bd 55da a2bd
00000360: 5868 733f 6564 0c3e 9842 34be d13b ecbc
00000370: ceab a13d 7afe 82be 1330 e2be d0ad f53b
00000380: 41db 20bd 8511 c6be d918 42be e750 e2bd
00000390: 4bfe c33e 95ca 03be 60d7 b5be 89a9 91be
000003a0: c8c0 b83e 77d0 75bb 2ac9 4b3f c2b6 01be
000003b0: c382 8d3e 5fe4 663f 6c52 83be 3296 b8bd
000003c0: c019 ff3e fa3d 6a3e 4037 0e3f c6e6 7dbf
000003d0: 3ca4 c3bd 1459 773f 8560 7f3f b176 1f3e
000003e0: a706 03bf 5408 a73e 97d7 c03d dcd3 493f
000003f0: c489 fabe df53 f73d 372f 0b3e 11c4 0dbe

pi.logits_net.2.bias f4 [64]
0.447488 -0.20607382 0.7433437 -0.017119994 -0.31884658 0.1367358 -0.49883282 -0.1901834
-0.08877977 -0.021597246 0.15683846 0.15977265 0.004592329 -0.123435244 0.37387243 -0.118262015
-0.18238625 0.13565512 0.1401892 -0.1930957 -0.13785283 -0.27991122 0.056953043 0.08523915
0.15013617 -0.24887024 0.20540671 -0.5220225 0.75162274 0.01788856 0.20220774 0.41509292
0.38850358 0.22405991 0.41373226 -0.17574953 0.22617412 -0.1825982 -0.003892494 0.2992557
0.31767678 -0.30646026 -0.60312647 0.42058492 -0.1897666 0.24607636 0.47962862 0.3189063
-0.16142322 -0.58653283 0.2978761 -0.52230597 -0.14006066 0.07887015 0.12694708 -0.065720215
0.09390113 -0.20090029 0.23835042 0.4067262 -0.037390217 -0.07264718 0.2933359 -0.24351308
00000000: 261d e53e 0405 53be c64b 3e3f 3b3f 8cbc
00000010: dc3f a3be 7804 0c3e 0467 ffbe 70bf 42be
00000020: 2bd2 b5bd b5ec b0bc 439a 203e 719b 233e
00000030: 3f7b 963b 9ecb fcbd 356c bf3e 5b33 f2bd
00000040: 76c3 3abe 2de9 0a3e c28d 0f3e e1ba 45be
00000050: 4b29 0dbe 8650 8fbe 9847 693d dd91 ae3d
00000060: 4cbd 193e d7d7 7ebe 2356 523e 44a3 05bf
00000070: 596a 403f 088b 923c 8c0f 4f3e 0f87 d43e
00000080: f1e9 c63e f66f 653e b7d4 d33e aff7 33be
00000090: 309a 673e 06fb 3abe 3619 7fbb 0b38 993e
000000a0: 88a6 a23e 5ce8 9cbe 7f66 1abf e856 d73e
000000b0: 2d52 42be 71fb 7b3e e291 f53e b047 a33e
000000c0: 214c 25be 0427 16bf 3783 983e d8b5 05bf
000000d0: 106c 0fbe ac86 a13d 6afe 013e 5298 86bd
000000e0: 3c4f c03d ceb8 4dbe 2212 743e 6b3e d03e
000000f0: 7c26 19bd 0bc8 94bd 2030 963e 7e5b 79be

pi.logits_net.4.weight f4 [87, 64]
-0.30928543 0.70477575 0.41932526 0.35807696 0.19102052 0.55161166 -0.2564508 -0.3542087
-1.0175372 0.8882536 -0.3600687 0.25578424 0.39251694 0.5557654 0.4899849 -0.3073267
0.0021260786 -0.12561905 0.5441789 0.6851582 -0.8405138 -0.2590412 0.66357833 -0.17091148
-1.4494255 1.1810014 -0.014496726 1.7641629 0.8956685 0.043466102 0.2291453 0.94342685
-0.092429005 0.13567244 0.52342063 0.92022866 0.39783043 -0.50606275 -0.7833394 0.3275498
-0.08333893 0.15697342 -0.20960683 0.46651223 -0.111654826 0.7514686 0.8417552 0.17641746
-0.6048807 -0.18107122 0.18414053 0.096560426 0.27886474 0.38713396 0.31280038 -0.7584446
0.49919015 -0.3210371 -0.48367932 0.554819 -0.42255828 -0.37506345 0.9760841 -0.16173585
-0.039834723 -0.8502492 0.35927844 -0.44568324 0.0729172 -0.035078023 -0.3250078 -0.1467686
-0.67131275 -0.33792993 0.32159615 -0.18820666 0.19900157 0.18804905 0.84382963 0.21797806
-0.046579152 -0.6355153 0.23085359 -0.31624958 0.24468642 -0.40112033 0.34097034 -0.07578629
0.379388 0.17209204 0.12001243 0.24486761 0.22570756 -0.47140965 -1.1247734 0.24345042
-0.21836963 0.6715848 -0.62408924 -0.44258207 0.121661976 0.5052646 0.04853228 0.2601089
0.8033325 0.20555735 -0.65124017 -0.6131607 -0.50867075 0.26799765 0.47112322 -0.30458936
-0.49176416 -0.634428 0.66068727 -0.46351153 0.57550776 -0.6530566 -0.5998825 0.16360328
0.050081898 0.7883908 -0.45676723 -0.25101638 0.8006299 0.6805726 0.3222641 -0.19873323
0.6683011 -0.18630709 0.42033786 -0.07908141 0.65481484 0.18349354 -0.74622655 0.3605324
1.2045544 -1.5951576 1.3307774 -1.3098344 -0.5184703 -0.10568531 -0.16203265 -0.1618388
-0.32957724 0.80600613 0.40086082 -0.26047972 0.6479803 0.6463216 -0.07286301 -0.81937045
0.29577625 -0.9136916 -1.1661555 -0.6373831 0.18272573 0.11347231 0.33864248 0.08944211
0.06333516 0.6332276 0.74252546 -0.14013997 0.81671196 -0.0687894 -0.84256464 0.24286216
-0.83976954 0.20047878 0.10614664 0.4462441 0.60331476 -0.3684271 0.31781092 -0.46041533
-0.5462632 -0.28524247 0.5070828 -0.4034098 -0.65144116 -0.08972275 -0.39216512 -0.03961771
-0.12697431 -0.41690928 0.5716885 0.86210525 -0.80447316 -0.47798976 0.52327615 -0.9705964
0.45030993 0.6973003 0.47065368 -0.97189003 0.5557496 0.14532346 -0.6507843 0.67335856
0.31854624 -0.45818487 -0.7555166 0.8311199 -0.52615607 0.27939543 0.7785027 0.09458739
-0.53025883 0.18794465 0.30496824 -0.65815896 0.33290428 0.45835626 0.27853087 -0.49046272
0.85207886 -0.53723204 -0.41875187 -0.7904767 0.4569875 0.501543 -0.18415791 0.41763175
-0.6939365 -0.27822796 0.78647435 -0.8246068 -0.6012386 0.9408957 -0.051300496 -0.18417332
0.10686048 0.44349864 -0.055636022 -0.008546545 0.18097012 0.6572725 -0.33979893 -0.5718771
0.5545844 -0.17113903 -0.05281241 -0.8792434 -1.041425 0.30306128 0.11270961 0.9817629
1.3448869 -0.32261544 0.7466362 0.63776946 0.8917387 -0.059930287 0.39640588 -0.91101325
00000000: a95a 9ebe 2f6c 343f cdb1 d63e dd55 b73e
00000010: e29a 433e 6c36 0d3f 854d 83be d85a b5be
00000020: a93e 82bf 9764 633f ed5a b8be 27f6 823e
00000030: fbf7 c83e a446 0e3f 4ddf fa3e ed59 9dbe
00000040: ae55 0b3b 48a2 00be 4f4f 0b3f 8766 2f3f
00000050: ea2b 57bf 0ca1 84be 45e0 293f 6b03 2fbe
00000060: c686 b9bf 0e2b 973f ad83 6dbc 17d0 e13f
00000070: 884a 653f 8309 323d 11a5 6a3e 6c84 713f
00000080: 6b4b bdbd b7ed 0a3e e5fe 053f 1b94 6b3f
00000090: 6eb0 cb3e 548d 01bf ee88 48bf 9bb4 a73e
000000a0: 9aad aabd a4bd 203e 2ca3 56be b1da ee3e
000000b0: 49ab e4bd 3f60 403f 457d 573f c7a6 343e
000000c0: 76d9 1abf bc6a 39be 568f 3c3e 79c1 c53d
000000d0: 5cc7 8e3e 6c36 c63e 5f27 a03e 6d29 42bf
000000e0: da95 ff3e fa5e a4be d1a4 f7be 9e08 0e3f
000000f0: 8f59 d8be 5108 c0be a6e0 793f 159e 25be
00000100: bc29 23bd eea9 59bf 58f3 b73e 9830 e4be
00000110: 9d55 953d f9ad 0fbd 6c67 a6be 824a 16be
00000120: 27db 2bbf 2705 adbe 40a8 a43e 3fb9 40be
00000130: 11c7 4b3e ee8f 403e 3805 583f a435 5f3e
00000140: c8c9 3ebd 21b1 22bf e264 6c3e 77eb a1be
00000150: 148f 7a3e a55f cdbe aa93 ae3e d835 9bbd
00000160: 253f c23e e538 303e 14c9 f53d 93be 7a3e
00000170: e21f 673e 9b5c f1be 93f8 8fbf 114b 793e
00000180: 4a9c 5fbe fbec 2b3f 50c4 1fbf 1e9a e2be
00000190: ea29 f93d 0559 013f c9c9 463d fe2c 853e
000001a0: 33a7 4d3f a07d 523e adb7 26bf 1af8 1cbf
000001b0: 3f38 02bf fd36 893e 1037 f13e 23f3 9bbe
000001c0: 83c8 fbbe e069 22bf cd22 293f 6251 edbe
000001d0: 7a54 133f b82e 27bf e691 19bf 9e87 273e
000001e0: ad22 4d3d fbd3 493f 65dd e9be 3885 80be
000001f0: 15f6 4c3f 023a 2e3f cdff a43e b980 4bbe
00000200: c815 2b3f 49c7 3ebe 8636 d73e 6ff5 a1bd
00000210: f2a1 273f bbe5 3b3e b408 3fbf b497 b83e
00000220: d72e 9a3f 202e ccbf ea56 aa3f a7a8 a7bf
00000230: 78ba 04bf 8a71 d8bd e3eb 25be 12b9 25be
00000240: 59be a8be 6b56 4e3f a13d cd3e 995d 85be
00000250: 09e2 253f 5575 253f 3439 95bd 43c2 51bf
00000260: fc6f 973e b1e7 69bf 9544 95bf 8a2b 23bf
00000270: 741c 3b3e 2c64 e83d 8c62 ad3e 6d2d b73d
00000280: ddb5 813d 341b 223f 2616 3e3f da80 0fbe
00000290: 0914 513f 75e1 8cbd 51b2 57bf dcb0 783e
000002a0: 23fb 56bf 4f4a 4d3e 6963 d93d 1b7a e43e
000002b0: d672 1a3f 7aa2 bcbe 1db8 a23e 8fbb ebbe
000002c0: e8d7 0bbf 4d0b 92be 2ed0 013f bb8b cebe
000002d0: d9c4 26bf 90c0 b7bd dec9 c8be 2e46 22bd
000002e0: 8e05 02be 2275 d5be 2d5a 123f eeb2 5c3f
000002f0: f4f1 4dbf 13bb f4be 6df5 053f 0179 78bf
00000300: 068f e63e 4682 323f 85f9 f03e c9cd 78bf
00000310: 9b45 0e3f accf 143e cd99 26bf 3a61 2c3f
00000320: 7e18 a33e 3597 eabe 8969 41bf 46c4 543f
00000330: 2ab2 06bf eb0c 8f3e f44b 473f 09b7 c13d
00000340: 0bbf 07bf 9074 403e cc24 9c3e 1b7d 28bf
00000350: 6e72 aa3e acad ea3e 999b 8e3e ee1d fbbe
00000360: d721 5a3f 0a88 09bf a566 d6be ae5c 4abf
00000370: 44fa e93e 1f65 003f e493 3cbe d4d3 d53e
00000380: d3a5 31bf e573 8ebe 6256 493f 6e19 53bf
00000390: c6ea 19bf 8ade 703f 7820 52bd ee97 3cbe
000003a0: abd9 da3d 4112 e33e 99e2 63bd cf06 0cbc
000003b0: 3b50 393e 0343 283f 20fa adbe 8a66 12bf
000003c0: 3ef9 0d3f 123f 2fbe d351 58bd 1816 61bf
000003d0: 6a4d 85bf d92a 9b3e 4cd4 e63d d054 7b3f
000003e0: 4125 ac3f da2d a5be 8d23 3f3f dc44 233f
000003f0: fd48 643f 7679 75bd b6f5 ca3e 2a38 69bf

pi.logits_net.4.bias f4 [87]
0.1913971 0.49360004 0.40174472 0.538965 0.22609298 0.32272053 0.5443303 0.45791832
0.47120842 0.5133202 0.43146953 0.26277313 0.58641756 0.39180794 0.20657629 0.4858428
0.49747884 0.626025 0.58088654 0.321256 0.43896174 0.16649161 0.38571027 0.5562354
0.5010363 0.37756318 0.10815454 0.64983684 0.47869885 0.29285163 0.09369382 0.59502363
0.16566059 0.47398153 0.31028646 0.2994328 0.52449995 0.45046854 -0.06614114 0.6433969
0.37337083 0.45936477 0.4901494 0.7067517 0.34148842 0.4012989 0.3872614 0.68635666
0.48696506 0.7426982 0.3632421 0.54945034 0.32240537 0.5252787 0.43213466 0.12973313
0.4616064 0.62720686 0.59389645 0.51481795 0.60889554 0.50253624 0.24896461 0.26166707
0.4971769 0.5103415 0.56031436 0.09377871 0.4151563 0.29089886 0.22288837 0.39417222
0.5673193 0.5328112 0.52004594 0.38838 0.35869795 0.5421662 0.564066 0.5369117
0.18983348 0.36881557 0.61125714 0.31048778 0.30578405 0.6594125 0.37028107
00000000: 9afd 433e 25b9 fc3e 7cb1 cd3e 9cf9 093f
00000010: eb84 673e a03b a53e 3b59 0b3f 4574 ea3e
00000020: 3b42 f13e f468 033f 93e9 dc3e 338a 863e
00000030: 761f 163f 0d9b c83e bc88 533e 63c0 f83e
00000040: 8cb5 fe3e 2d43 203f fbb4 143f ab7b a43e
00000050: 98bf e03e c77c 2a3e d17b c53e 7165 0e3f
00000060: ea43 003f f64f c13e 2180 dd3d b55b 263f
00000070: 0418 f53e a6f0 953e 8ce2 bf3d 7853 183f
00000080: eea2 293e b5ad f23e dedd 9e3e 424f 993e
00000090: a145 063f d0a3 e63e 0275 87bd a9b5 243f
000000a0: 762a bf3e dc31 eb3e ddf4 fa3e aeed 343f
000000b0: 92d7 ae3e 0d77 cd3e 2047 c63e 12b5 2f3f
000000c0: 7c53 f93e 7821 3e3f defa b93e c7a8 0c3f
000000d0: 5112 a53e aa78 063f c140 dd3e c3d8 043e
000000e0: ad57 ec3e a190 203f 9909 183f 1ccb 033f
000000f0: 94e0 1b3f 37a6 003f 94f0 7e3e 3af9 853e
00000100: f88d fe3e bea5 023f c370 0f3f 0d0f c03d
00000110: 5e8f d43e b2f0 943e d93c 643e f1d0 c93e
00000120: d63b 113f 5166 083f bb21 053f bed9 c63e
00000130: 42a7 b73e 67cb 0a3f a166 103f 0c73 093f
00000140: b563 423e 65d5 bc3e 597b 1c3f 41f8 9e3e
00000150: ba8f 9c3e 42cf 283f 7b95 bd3e

v.v_net.0.weight f4 [64, 282]
0.3707486 -1.2817521 0.36541453 -0.1353015 0.27535605 0.31869408 0.6436434 0.64174867
0.38161215 0.6541289 -1.181018 -1.2626467 0.36637244 0.30909923 0.30743515 -0.110358976
0.35951465 -1.6892306 0.29606962 0.42459753 0.39061937 0.73401165 -0.727451 0.31114715
0.54261154 0.38785586 0.43779048 0.3484864 0.68810046 0.42599824 0.3062298 0.3783776
-1.3345277 0.22803856 0.42174956 0.66311276 0.63852024 0.37901208 0.32310787 0.41521278
0.36906782 -1.17444 0.41321042 0.37491944 -0.7765148 0.31299084 0.2908337 0.32717785
-1.253733 0.66913235 0.3622553 0.4299105 -1.2305256 0.3520436 -1.2483253 0.21654847
-1.2317815 0.34573993 0.30173716 0.3823953 0.4128771 0.41398498 0.74662435 -1.2147788
-1.3283534 0.3531424 0.3487687 -1.2446882 -1.1127583 0.40531906 -1.3472366 0.7481301
0.31256902 -1.0457679 -1.1578466 0.7201742 -1.2758908 0.67513704 -0.15476424 0.3022312
-1.1362144 0.21789768 0.6924834 0.44645754 0.370658 0.43517378 -1.2000617 -1.1796322
-1.0223753 -0.017550258 2.983736 0.08835294 2.38487 1.8363686 1.034317 2.046884
0.5337992 -0.70309645 0.32738012 3.3204982 0.8389451 3.2866206 3.2541912 -0.052099384
-2.9627972 2.7216213 1.5901048 3.0391705 2.1013896 -2.1551712 3.212505 0.5965757
-0.14953227 2.85466 1.8759781 0.68822056 2.448413 0.9767506 1.1953747 -1.6243764
1.4696246 1.4242123 1.5675937 1.6809672 -0.3288688 -0.14416067 -0.0339059 0.6055699
1.1397109 1.1402831 1.2173764 -1.1415597 0.5997597 1.5299054 2.4341915 2.2442594
-1.2147808 2.9897883 1.9448066 1.823804 -0.111668676 -0.18714279 1.799623 1.780474
1.2490524 -0.40589973 2.3157835 2.2556741 1.224372 0.41247115 -0.17292662 -2.3252714
-0.81192625 1.6640458 3.895629 -0.6552815 -0.7262714 -1.2365295 0.99322665 -0.562454
-1.5275401 0.7995326 1.1463163 -0.32589808 0.16405594 2.6049511 1.0677005 -1.0712215
3.1884742 -0.23750229 2.247006 -0.05557135 -2.1578948 0.04642979 0.048254848 -5.7231708
0.5381045 0.42728746 2.3863597 2.7892962 -0.26939777 1.9926442 -4.988637 -0.4000901
-0.21560721 -2.6900425 -4.142123 -0.46362248 4.15787 -0.19316538 -2.1836357 -1.9081123
1.1657715 -0.50540245 -2.2784345 0.4927363 -1.8559153 -1.8010805 -0.32476538 -0.052037172
-0.2039866 3.0894709 1.0610943 -0.14089367 2.4073083 0.83520895 -2.683192 -0.65210307
0.74598813 -0.31682283 0.21403904 -2.0103574 1.0820501 0.47832242 0.91606176 0.21556851
-0.27363256 -1.3864058 3.683424 -2.1604517 -0.46277985 0.5256235 2.7423325 0.25263298
-0.880289 0.10461783 1.7434391 -0.56936586 0.75244546 -1.9668915 1.5285516 0.36190727
-0.08576736 0.2516036 0.76000357 -0.32246685 -3.378514 -0.41024196 -2.342517 -0.13826688
-0.83604836 -1.6683718 4.073971 0.65506405 1.8958625 1.7571146 1.4152929 0.61759454
0.6008187 -3.8603632 -2.362851 -0.094271824 -1.5488584 -0.12085279 0.5666747 -1.5894163
00000000: c3d2 bd3e 7410 a4bf 9d17 bb3e 7a8c 0abe
00000010: 78fb 8c3e df2b a33e d0c5 243f a449 243f
00000020: ab62 c33e fe74 273f 992b 97bf 689e a1bf
00000030: 2b95 bb3e 4142 9e3e 2468 9d3e e303 e2bd
00000040: 4e12 b83e b538 d8bf 7096 973e d964 d93e
00000050: 43ff c73e 30e8 3b3f 3b3a 3abf ae4e 9f3e
00000060: 97e8 0a3f 0b95 c63e 1326 e03e cf6c b23e
00000070: 5a27 303f 711c da3e 27ca 9c3e b5ba c13e
00000080: ced1 aabf f182 693e 8fef d73e c2c1 293f
00000090: 1076 233f df0d c23e 656e a53e c596 d43e
000000a0: 75f6 bc3e 0d54 96bf 5190 d33e 71f5 bf3e
000000b0: adc9 46bf 5640 a03e 28e8 943e db83 a73e
000000c0: 537a a0bf 424c 2b3f 8779 b93e 3b1d dc3e
000000d0: dd81 9dbf 0f3f b43e 20c9 9fbf e2be 5d3e
000000e0: 04ab 9dbf d304 b13e 4b7d 9a3e 51c9 c33e
000000f0: a164 d33e d7f5 d33e c622 3f3f df7d 9bbf
00000100: 7c07 aabf 15cf b43e d091 b23e f151 9fbf
00000110: dd6e 8ebf fb85 cf3e 4072 acbf 7485 3f3f
00000120: 0c09 a03e b9db 85bf 5134 94bf 565d 383f
00000130: 6450 a3bf c8d5 2c3f 847a 1ebe 0cbe 9a3e
00000140: 796f 91bf 9220 5f3e 9846 313f 1596 e43e
00000150: e3c6 bd3e 19cf de3e 9f9b 99bf 30fe 96bf
00000160: 32dd 82bf 8fc5 8fbc 88f5 3e40 63f2 b43d
00000170: b6a1 1840 200e eb3f 8064 843f 2600 0340
00000180: 10a7 083f 21fe 33bf 5e9e a73e 0b83 5440
00000190: 1bc5 563f fe57 5240 ab44 5040 2a66 55bd
000001a0: 789e 3dc0 0b2f 2e40 8e88 cb3f c581 4240
000001b0: 2b7d 0640 53ee 09c0 af99 4d40 2fb9 183f
000001c0: fd1e 19be c0b2 3640 0d20 f03f 392f 303f
000001d0: ccb2 1c40 540c 7a3f 0a02 993f 91eb cfbf
000001e0: a91c bc3f 974c b63f e9a6 c83f ef29 d73f
000001f0: 7e61 a8be db9e 13be eae0 0abd a106 1b3f
00000200: 0ce2 913f ccf4 913f fdd2 9b3f a11e 92bf
00000210: da89 193f f1d3 c33f cbc9 1b40 f2a1 0f40
00000220: f07d 9bbf b158 3f40 6cef f83f 6972 e93f
00000230: 8cb2 e4bd 5ca2 3fbe 0c5a e63f 92e6 e33f
00000240: f3e0 9f3f 17d2 cfbe cc35 1440 f75c 1040
00000250: 39b8 9c3f 6b2f d33e ad13 31be 3fd1 14c0
00000260: 66da 4fbf 74ff d43f fc51 7940 87c0 27bf
00000270: ecec 39bf 9946 9ebf 1a44 7e3f fcfc 0fbf
00000280: 6f86 c3bf 2bae 4c3f 7eba 923f 1ddc a6be
00000290: 48fe 273e 85b7 2640 69aa 883f c91d 89bf
000002a0: f60f 4c40 cd33 73be f2ce 0f40 c99e 63bd
000002b0: f31a 0ac0 2a2d 3e3d e0a6 453d 3724 b7c0
000002c0: 37c1 093f 6cc5 da3e 1eba 1840 d483 3240
000002d0: 81ee 89be f70e ff3f eaa2 9fc0 9cd8 ccbe
000002e0: 23c8 5cbe a829 2cc0 468c 84c0 ed5f edbe
000002f0: 450d 8540 25cd 45be b0c0 0bc0 063d f4bf
00000300: 0038 953f 0e62 01bf dfd1 11c0 ef47 fc3e
00000310: a28e edbf ce89 e6bf a647 a6be ee24 55bd
00000320: dde1 50be e4b9 4540 f0d1 873f 6e46 10be
00000330: 5711 1a40 41d0 553f 6bb9 2bc0 3af0 26bf
00000340: 14f9 3e3f 9a36 a2be 0d2d 5b3e b2a9 00c0
00000350: 9e80 8a3f ade6 f43e 0683 6a3f febd 5c3e
00000360: 9119 8cbe bf75 b1bf 38bd 6b40 d744 0ac0
00000370: 7bf1 ecbe 438f 063f 6082 2f40 1c59 813e
00000380: 9f5a 61bf df41 d63d 0329 df3f f6c1 11bf
00000390: 44a0 403f 1ac3 fbbf 94a7 c33f e94b b93e
000003a0: cca6 afbd 30d2 803e 988f 423f 601a a5be
000003b0: 9339 58c0 3c0b d2be cceb 15c0 d595 0dbe
000003c0: 4407 56bf 358d d5bf f85d 8240 47b2 273f
000003d0: 9fab f23f 22e9 e03f 5128 b53f ad1a 1e3f
000003e0: 41cf 193f 3110 77c0 f338 17c0 9611 c1bd
000003f0: fe40 c6bf ab81 f7bd 9811 113f fe71 cbbf

v.v_net.0.bias f4 [64]
-1.135219 3.539591 2.6571882 4.30879 -0.6614007 0.0015798152 -0.9042823 -2.1343977
-1.6999024 0.08561126 1.0398508 1.4932033 -2.2567337 1.6997005 0.27733064 -0.130614
2.703277 0.19851609 -0.6495438 0.16232036 2.5356286 -1.7293882 0.5749251 -0.74133015
-0.09995898 -2.5727007 -1.3066888 0.1914792 -1.3798248 -0.0054976405 0.4914102 1.809095
0.42771956 3.3521695 0.39756024 1.5118895 -0.17371306 -0.96224463 0.037703708 1.4114944
4.566779 -1.1098266 0.6616365 -0.22027922 -0.7573187 1.3103149 -1.1737952 -2.701867
-0.59653246 0.24748139 -2.1334724 1.0437647 -0.43167627 -0.6532791 2.0156927 -2.5131047
1.3464397 1.336744 -3.4412498 1.0863215 1.7030265 -2.377127 2.2132773 1.3843316
00000000: db4e 91bf a988 6240 5f0f 2a40 9ce1 8940
00000010: 8e51 29bf cd11 cf3a 0b7f 67bf f999 08c0
00000020: 6796 d9bf f554 af3d d519 853f 4921 bf3f
00000030: 536e 10c0 c98f d93f 48fe 8d3e adbf 05be
00000040: 7e02 2d40 cd47 4b3e 8148 26bf 4f37 263e
00000050: bd47 2240 985c ddbf 4b2e 133f d0c7 3dbf
00000060: 4bb7 ccbd 21a7 24c0 9441 a7bf 2013 443e
00000070: 199e b0bf 8d25 b4bb 1e9a fb3e 6d90 e73f
00000080: 0ffe da3e f289 5640 048d cb3e 9885 c13f
00000090: d6e1 31be aa55 76bf 346f 1a3d d9ab b43f
000000a0: 0e23 9240 cc0e 8ebf 0261 293f e090 61be
000000b0: a3df 41bf 66b8 a73f ec3e 96bf 64eb 2cc0
000000c0: 5ab6 18bf c36b 7d3e d08a 08c0 159a 853f
000000d0: ac04 ddbe 4d3d 27bf 1c01 0140 b5d6 20c0
000000e0: 2358 ac3f 6d1a ab3f 703d 5cc0 950c 8b3f
000000f0: c6fc d93f d922 18c0 56a6 0d40 c731 b13f

v.v_net.2.weight f4 [64, 64]
0.856681 2.574313 1.0847019 -4.3036447 1.0613849 0.46365225 1.3669382 3.2059078
3.4805963 -1.3354886 7.604821 1.2647991 -1.6500441 1.3427051 -2.3554392 -3.2110708
-0.1538178 -0.9775228 -4.407984 -1.4138184 -1.1367861 -0.108359694 -0.1344655 -3.4330044
-1.4774767 0.5271126 -5.055361 2.3261647 0.6095545 0.5167334 0.41547334 -1.1573359
2.8046207 1.572011 -0.24777733 0.32155976 -0.7091726 -4.983262 -4.9154286 -1.5067346
2.1187944 -0.726528 3.5589948 2.145106 0.056571607 -0.37548018 1.7969735 -2.0497987
0.039782926 -3.96837 -1.0104518 0.5816276 2.683979 -3.606857 -0.7988385 -0.2612835
1.3606175 -2.197172 -3.2109916 3.4689615 4.9914804 -1.0700397 -0.5015298 -0.103787296
-1.3133442 0.67373943 -0.13901109 1.1183522 1.354113 -1.8300037 -0.118701726 1.6885095
-1.2497572 -2.5642323 0.35189787 -1.4840482 1.1892215 -0.94454765 -1.3215328 -2.7069252
1.0261536 -0.9772652 2.1254938 -1.0920529 1.9609491 1.347382 0.6541389 -1.8702792
1.2014663 0.37463215 0.53116345 -0.34305343 -0.6566466 2.9745512 -1.4119055 0.28035855
-0.7185691 0.87424153 -2.3251715 2.0382457 1.3687702 0.7704784 1.9284 -0.40350163
-0.4421461 0.8805297 0.71601087 0.1473401 -1.2825456 -1.6006917 0.8073616 0.21969047
1.6274276 1.4238458 2.889172 -1.3965095 -0.85348624 0.88197315 1.0970296 0.3722657
-1.6805029 -0.843641 -1.4382486 -0.4610445 0.68939203 -0.47024384 -0.38465056 -0.45917302
-1.4047508 -2.1426585 4.757894 -0.48091212 -0.5397839 0.45561832 -2.0960882 0.40511942
-1.8543705 -1.4664415 1.6146995 1.6663657 1.0653293 -1.252767 0.8810101 1.5341116
-0.4902495 -1.646469 4.3547506 1.1233585 0.7364475 0.26505813 0.87278235 -0.0125231445
2.1609185 -0.27642176 9.381075 -1.682004 0.90487015 -0.7174454 -1.1929622 0.40087798
-1.60565 3.8618565 0.17021249 1.903547 1.335328 1.6849891 -1.5960339 2.8531134
0.083287954 -2.913103 1.2477263 -4.371038 0.34322295 2.9068284 1.6162463 1.1996918
-0.70462614 -0.6805504 0.69208 -3.2760613 1.1872623 3.6706371 -1.0032319 -1.0203156
-0.29954004 0.22659786 2.7591481 -1.9122038 -2.4363475 0.77030015 2.1579988 1.3032216
-0.29378748 2.4568863 0.3050563 -1.9123164 -1.7583053 0.5115481 -2.261592 -0.09743427
-0.37416214 0.81251544 8.218766 -0.9952909 0.46083418 7.791325 1.729483 -0.39403147
-1.7229601 -0.7704366 -1.3752149 2.0325227 1.2221895 0.16870926 0.1440358 2.2591138
-0.8924189 -0.14352915 3.1015275 -1.7796607 2.1862457 0.29882255 0.7782455 2.2276704
-2.9465587 1.2618742 -1.3145871 1.472457 -0.16851264 -1.2693316 0.64051485 -2.326431
3.332516 0.07873656 -2.0403616 2.8818839 1.2033308 -1.8452147 2.487344 -0.66610736
1.0687492 2.2800298 -3.0401564 0.37646383 3.4274218 0.55013573 1.4534707 -1.2852865
1.4925127 0.9612512 1.2633702 -0.16358201 2.1978748 1.0787172 0.7450857 1.5800462
00000000: 724f 5b3f 8bc1 2440 83d7 8a3f 75b7 89c0
00000010: 76db 873f d463 ed3e d5f7 ae3f 982d 4d40
00000020: 17c2 5e40 4af1 aabf b25a f340 f0e4 a13f
00000030: a534 d3bf c3dd ab3f 84bf 16c0 2f82 4dc0
00000040: 6a82 1dbe ef3e 7abf 340e 8dc0 00f8 b4bf
00000050: 3582 91bf b0eb ddbd 53b1 09be 58b6 5bc0
00000060: f51d bdbf daf0 063f 84c5 a1c0 e2df 1440
00000070: c40b 1c3f a448 043f ecb8 d43e 9523 94bf
00000080: e87e 3340 a837 c93f 57b9 7dbe 7ba3 a43e
00000090: 568c 35bf e276 9fc0 314b 9dc0 aedc c0bf
000000a0: 549a 0740 bdfd 39bf 92c6 6340 6b49 0940
000000b0: a1b7 673d f03e c0be 3a03 e63f e72f 03c0
000000c0: 6cf3 223d c6f9 7dc0 7c56 81bf 8ce5 143f
000000d0: 50c6 2b40 bfd6 66c0 ae80 4cbf f3c6 85be
000000e0: b728 ae3f 779e 0cc0 e380 4dc0 7703 5e40
000000f0: 35ba 9f40 10f7 88bf 4264 00bf 6f8e d4bd
00000100: aa1b a8bf 307a 2c3f ec58 0ebe 2a26 8f3f
00000110: 9353 ad3f 903d eabf e419 f3bd 1421 d83f
00000120: 0bf8 9fbf 621c 24c0 f52b b43e 4bf5 bdbf
00000130: 6938 983f e0cd 71bf fd27 a9bf 433e 2dc0
00000140: 0059 833f 0d2e 7abf 1708 0840 64c8 8bbf
00000150: 6100 fb3f 0377 ac3f a675 273f 4f65 efbf
00000160: a6c9 993f c9cf bf3e 54fa 073f b3a4 afbe
00000170: fe19 28bf 0c5f 3e40 52b9 b4bf 288b 8f3e
00000180: 25f4 37bf 4bce 5f3f 9ccf 14c0 9e72 0240
00000190: dd33 af3f 133e 453f d0d5 f63f c497 cebe
000001a0: f960 e2be 656a 613f 7d4c 373f 53e0 163e
000001b0: 742a a4bf 77e3 ccbf 40af 4e3f 8af6 603e
000001c0: 8c4f d03f 9440 b63f 32e8 3840 d3c0 b2bf
000001d0: 137e 5abf fec8 613f 776b 8c3f 9c99 be3e
000001e0: b81a d7bf dbf8 57bf 8818 b8bf 060e ecbe
000001f0: ff7b 303f cdc3 f0be ebf0 c4be ba18 ebbe
00000200: e0ce b3bf 5121 09c0 ab40 9840 1d3a f6be
00000210: 472f 0abf ce46 e93e 4f26 06c0 d06b cf3e
00000220: 035c edbf 5bb4 bbbf 79ae ce3f 794b d53f
00000230: b65c 883f ab5a a0bf e189 613f c55d c43f
00000240: fc01 fbbe 7fbf d2bf 1e5a 8b40 36ca 8f3f
00000250: d387 3c3f b3b5 873e aa6e 5f3f e02d 4dbc
00000260: 7d4c 0a40 2787 8dbe e218 1641 e84b d7bf
00000270: 92a5 673f 80aa 37bf fcb2 98bf e13f cd3e
00000280: f085 cdbf a828 7740 2f4c 2e3e 6ea7 f33f
00000290: 07ec aa3f b9ad d73f d74a ccbf 6999 3640
000002a0: e092 aa3d 4870 3ac0 7fb5 9f3f 8bdf 8bc0
000002b0: ebba af3e 7a09 3a40 29e1 ce3f 808f 993f
000002c0: 6162 34bf 8d38 2ebf 282c 313f fdaa 51c0
000002d0: 36f8 973f b8eb 6a40 e769 80bf b499 82bf
000002e0: 505d 99be 4509 683e e295 3040 18c3 f4bf
000002f0: 1eed 1bc0 6432 453f a71c 0a40 f7cf a63f
00000300: 506b 96be a03d 1d40 5730 9c3e c9c6 f4bf
00000310: 2610 e1bf d1f4 023f ecbd 10c0 9e8b c7bd
00000320: 2e92 bfbe 0301 503f 1180 0341 62cb 7ebf
00000330: 75f2 eb3e 8952 f940 b35f dd3f 7ebe c9be
00000340: f589 dcbf 553b 45bf 0b07 b0bf da14 0240
00000350: b570 9c3f 1fc2 2c3e 1f7e 133e 5295 1040
00000360: 9175 64bf 4ef9 12be 6d7f 4640 eccb e3bf
00000370: 73eb 0b40 45ff 983e 193b 473f 2792 0e40
00000380: 6b94 3cc0 1885 a13f 6444 a8bf 7979 bc3f
00000390: 948e 2cbe 7579 a2bf c8f8 233f 3fe4 14c0
000003a0: f147 5540 a240 a13d 4995 02c0 c970 3840
000003b0: be06 9a3f ff2f ecbf a530 1f40 0386 2abf
000003c0: c6cc 883f 02ec 1140 ec91 42c0 debf c03e
000003d0: e15a 5b40 b2d5 0c3f 540b ba3f 4584 a4bf
000003e0: a80a bf3f 8f14 763f 1db6 a13f 0b82 27be
000003f0: fba9 0c40 6813 8a3f f0bd 3e3f f43e ca3f

v.v_net.2.bias f4 [64]
-0.062273934 -1.2121829 0.29327545 -0.8855202 -0.13504036 0.45478874 -0.47472787 0.34859243
-0.00598284 0.6729623 -0.22047862 -1.6038523 0.52414155 -0.62005275 -0.1769285 -0.10006476
-1.1450543 -1.0225223 1.2082238 -0.24127322 1.9665568 0.48529077 -0.08730876 -1.1334804
-0.89106745 0.716778 1.3573222 -1.0091271 -0.66612446 0.38527492 0.17906465 0.37072238
-0.18954234 0.93367475 0.8750951 -0.27762744 0.61083555 1.1084746 -0.3037798 -1.1183257
1.5070527 -0.18216679 1.1236593 -0.31750533 -0.06576999 0.5287299 -0.24341118 0.034249865
-1.2444632 0.67072153 -0.19511671 -0.61873996 0.22166753 -1.4812183 -0.83417314 0.8101786
-1.433978 0.018075354 -1.0582231 -1.0901927 -1.4872395 1.203452 -0.13067505 -0.99438393
00000000: f412 7fbd cf28 9bbf 3328 963e 74b1 62bf
00000010: 0548 0abe 12da e83e 880f f3be b57a b23e
00000020: b30b c4bb 4247 2c3f 26c5 61be 084b cdbf
00000030: 242e 063f c7bb 1ebf bf2c 35be c1ee ccbd
00000040: 2491 92bf 03e2 82bf 14a7 9a3f 5410 77be
00000050: 22b8 fb3f 0878 f83e efce b2bd e315 91bf
00000060: ff1c 64bf c37e 373f bcbc ad3f 142b 81bf
00000070: 2287 2abf c142 c53e b95c 373e 53cf bd3e
00000080: 6317 42be 4f05 6f3f 3c06 603f 2f25 8ebe
00000090: b85f 1c3f 7fe2 8d3f 0789 9bbe 4c25 8fbf
000000a0: 1ae7 c03f ee89 3abe 11d4 8f3f 0f90 a2be
000000b0: 6bb2 86bd d85a 073f c840 79be 9649 0c3d
000000c0: 924a 9fbf 68b4 2b3f adcc 47be be65 1ebf
000000d0: d0fc 623e 9098 bdbf 5f8c 55bf dd67 4f3f
000000e0: 978c b7bf c412 943c db73 87bf 6f8b 8bbf
000000f0: dd5d bebf b70a 9a3f aecf 05be f28f 7ebf

v.v_net.4.weight f4 [1, 64]
-4.817521 -10.710183 5.3898163 7.776485 -4.397089 -4.6225014 -10.472051 5.3238573
-4.208495 -7.677889 -6.23959 -3.1932187 -5.0527887 -5.4795737 4.399988 -3.9386227
-9.785536 -4.7510147 9.477298 -4.4106097 -4.0275407 6.2188373 -8.313557 -9.409053
6.433158 10.676035 10.711344 -6.599732 -2.793746 -5.5182114 -4.330811 6.343847
-3.668146 7.493265 6.375919 -3.4897664 -3.830261 -4.9898076 8.150366 -10.207597
9.705469 4.868813 5.452542 7.7254214 9.151811 7.9141583 6.7735276 -7.1070466
-4.6218886 -4.604328 3.8328164 -8.184382 7.2508926 -9.153254 -5.7000823 7.0928802
-8.954343 -3.758381 -4.755245 -8.930085 -10.373681 11.915753 3.5381896 -24.39597
00000000: 2229 9ac0 e95c 2bc1 6079 ac40 f7d8 f840
00000010: f4b4 8cc0 88eb 93c0 858d 27c1 0a5d aa40
00000020: feab 86c0 44b1 f5c0 b9aa c7c0 b25d 4cc0
00000030: 72b0 a1c0 ab58 afc0 b4cc 8c40 6512 7cc0
00000040: 8e91 1cc1 5008 98c0 03a3 1741 b723 8dc0
00000050: 9de1 80c0 b700 c740 5404 05c1 7b8b 16c1
00000060: 6edc cd40 0ad1 2a41 aa61 2b41 0131 d3c0
00000070: bccc 32c0 3095 b0c0 0196 8ac0 cb00 cb40
00000080: e7c2 6ac0 d4c8 ef40 8707 cc40 5558 5fc0
00000090: ff22 75c0 81ac 9fc0 e667 0241 5152 23c1
000000a0: 9a49 1b41 51cd 9b40 397b ae40 a736 f740
000000b0: d16d 1241 c940 fd40 bdc0 d840 ed6c e3c0
000000c0: 83e6 93c0 a856 93c0 dd4c 7540 3bf3 02c1
000000d0: 5007 e840 ba73 12c1 1367 b6c0 e0f8 e240
000000e0: fd44 0fc1 5089 70c0 f82a 98c0 a1e1 0ec1
000000f0: 99fa 25c1 eda6 3e41 b371 6240 f22a c3c1
