model_wts/s4_d3_m1.0_b0.0.ckpt (torch, 206875 bytes, 11 tensors)

pi.logits_net.0.weight f4 [64, 282]
-0.30677363 -0.2157742 0.14076923 -0.32650122 0.21637818 0.21355602 -0.1600806 -0.16958289
0.2035471 -0.15111008 -0.23780338 -0.2567754 -0.26310596 0.18627141 0.27977395 -0.25675434
-0.28249267 -0.29957062 0.25204164 -0.34885678 -0.3112532 -0.24013476 -0.30098048 0.27123624
0.25258493 0.1945538 -0.26405144 -0.27510387 -0.1659499 -0.33863196 0.31818873 0.23213588
-0.2465793 0.30496752 -0.23884037 -0.252456 -0.24201263 0.23016204 0.32308817 0.20513318
0.20771135 -0.17213105 0.24161251 0.15176351 -0.33826444 0.23956306 0.307235 0.24713086
-0.2364411 -0.16099368 -0.33119616 -0.27556622 -0.18168159 0.13231571 -0.28225487 0.29483968
-0.19359551 -0.24110925 0.19676478 -0.25349465 -0.33621988 0.22496997 -0.2761501 -0.17744432
-0.216356 0.22620805 0.22784808 -0.25743276 -0.3071279 -0.3063442 -0.21425132 -0.27092332
0.15934663 -0.335797 -0.24860442 -0.1680774 -0.18912794 -0.19426446 -0.30981526 0.14111008
-0.20356481 0.33009315 -0.19228221 -0.3419766 0.18414582 -0.31145832 -0.17844446 -0.050717168
0.041158665 -0.68973136 -0.88630533 -0.022174489 0.23303542 -0.07058661 0.0038663195 0.002481989
-0.5624995 0.4238556 0.058868654 -0.6055827 -0.21490404 -0.19029212 -0.51832795 -0.17190516
-0.79083747 0.33215117 0.11328305 0.055216778 -0.09833345 -0.20087372 -0.5213372 -0.56911296
0.098619856 0.24312904 -0.4000867 0.14712621 0.09681878 0.2589107 -0.051817838 -0.1808295
-0.16856621 0.4379975 -0.09730104 -0.0282819 0.05276902 -0.2020794 0.04240291 -0.22640622
0.20540318 0.36796632 0.13699342 -0.11645986 -0.14326994 0.42755297 -0.22871853 -0.5727433
-0.31961727 -0.97788346 -0.23341854 0.053656958 0.07769459 -0.02651844 -0.8351198 0.09391552
-0.069913015 0.09907854 -0.6489204 0.22385287 -0.009755927 -0.1295796 -0.36225867 0.14708124
-0.14487694 -0.03449751 -0.6065586 -0.8918338 -0.5827125 -0.66976243 -0.16109204 0.03317667
-0.55837435 0.09078039 -0.045769583 -0.020730155 -0.036855612 -0.43408787 -0.23982528 0.53404224
-0.50651854 -0.13921249 -0.44977584 -0.061337862 -0.09233689 -0.07672009 -0.1693142 0.28858197
-0.08095182 -0.11339581 0.090085305 -0.11124888 -0.40204516 0.07310503 -0.41475752 -0.2089692
0.71090174 -0.37757018 -0.29422265 0.12014823 1.2552955 -0.17181116 -0.7499634 0.18250945
0.07429847 -0.019047366 0.14736535 0.07197806 -0.7080995 -0.026347093 -0.12277664 -0.11353215
0.18791135 -0.30138445 0.4615266 0.03704723 0.096806034 0.65463215 -0.15854439 -0.009927249
-0.05312911 0.15400967 0.10105861 1.1473209 0.011719219 -0.09627348 -0.22137395 0.01801693
-0.37257224 -0.19628811 -0.91483784 0.23827057 -0.07516884 -0.8775746 0.6921073 -0.42251027
-0.15433837 -0.49326617 0.26774266 -0.14232905 0.5363596 0.09242882 0.528539 0.014059483
0.63832235 0.09196703 0.36969677 -0.0155865075 -0.08369097 -0.6735238 0.037737746 -0.20951986
-0.21447128 -0.38241294 0.4855144 0.55072266 0.45565727 -0.077854805 -0.27072477 -0.17701645
0.45478386 0.4195396 -0.8125752 -0.14625968 -0.35926002 -0.16893433 0.07324066 0.5683859
00000000: 6f11 9dbe e9f3 5cbe cf25 103e 2b2b a7be
00000010: 3e92 5d3e 6eae 5a3e 2bec 23be 23a7 2dbe
00000020: a76e 503e 9abc 1abe bb82 73be 1178 83be
00000030: d3b5 86be efbd 3e3e 883e 8f3e 4e75 83be
00000040: e1a2 90be 5261 99be 9a0b 813e 5b9d b2be
00000050: 945c 9fbe e3e5 75be 1d1a 9abe 7adf 8a3e
00000060: d052 813e 1d39 473e c031 87be 6ada 8cbe
00000070: c5ee 29be 2b61 adbe a2e9 a23e 07b5 6d3e
00000080: 497f 7cbe b424 9c3e 9292 74be ea41 81be
00000090: 29d2 77be 99af 6b3e d06b a53e 6f0e 523e
000000a0: 49b2 543e 1f43 30be 4569 773e e567 1b3e
000000b0: ff30 adbe 0550 753e e84d 9d3e df0f 7d3e
000000c0: 9e1d 72be 87db 24be 8b92 a9be 0417 8dbe
000000d0: bd0a 3abe c57d 073e b683 90be 3af5 963e
000000e0: e73d 46be 58e5 76be b57c 493e 0dca 81be
000000f0: 0325 acbe 875e 663e 8c63 8dbe f7b3 35be
00000100: 6d8c 5dbe 15a3 673e 0251 693e 3ace 83be
00000110: de3f 9dbe 26d9 9cbe b364 5bbe 76b6 8abe
00000120: c32b 233e 96ed abbe 2892 7ebe 7b1c 2cbe
00000130: c1aa 41be 43ed 46be 1ba0 9ebe 297f 103e
00000140: 4b73 50be f801 a93e a1e5 44be 8f17 afbe
00000150: b990 3c3e 7777 9fbe 25ba 36be cebc 4fbd
00000160: fd95 283d 3c92 30bf e8e4 62bf 46a7 b5bc
00000170: d6a0 6e3e b68f 90bd 1462 7d3b dea8 223b
00000180: f8ff 0fbf 9a03 d93e 4220 713d 7807 1bbf
00000190: ce0f 5cbe f0db 42be 24b1 04bf e807 30be
000001a0: 5374 4abf b80f aa3e f200 e83d fd2a 623d
000001b0: 0c63 c9bd d7b1 4dbe 5b76 05bf 63b1 11bf
000001c0: 35f9 c93d d2f6 783e 2ad8 ccbe 41a8 163e
000001d0: ed48 c63d f18f 843e f13e 54bd 5e2b 39be
000001e0: 9f9c 2cbe 3541 e03e c545 c7bd 71af e7bc
000001f0: 5424 583d e7ed 4ebe acae 2d3d 08d7 67be
00000200: 3655 523e 1566 bc3e 0148 0c3e 8282 eebd
00000210: 5bb5 12be 39e8 da3e 3135 6abe 4e9f 12bf
00000220: e0a4 a3be 9256 7abf 4505 6fbe 66c7 5b3d
00000230: 571e 9f3d 333d d9bc 69ca 55bf c856 c03d
00000240: 8e2e 8fbd b1e9 ca3d a61f 26bf b039 653e
00000250: 53d7 1fbc 84b0 04be f879 b9be 779c 163e
00000260: 9f5a 14be 434d 0dbd 6d47 1bbf 384f 64bf
00000270: a52c 15bf 8d75 2bbf 50f5 24be 43e4 073d
00000280: 9ff1 0ebf 12eb b93d e378 3bbd 49d2 a9bc
00000290: e9f5 16bd c440 debe c294 75be feb6 083f
000002a0: 33ab 01bf b88d 0ebe 0549 e6be 693d 7bbd
000002b0: 201b bdbd 6c1f 9dbd b460 2dbe 04c1 933e
000002c0: 11ca a5bd 103c e8bd a57e b83d 74d6 e3bd
000002d0: ddd8 cdbe 17b8 953d 195b d4be 06fc 55be
000002e0: a8fd 353f e150 c1be 5aa4 96be 4610 f63d
000002f0: 86ad a03f 44ef 2fbe 9afd 3fbf c2e3 3a3e
00000300: cc29 983d 3909 9cbc f1e6 163e 3c69 933d
00000310: 0246 35bf dcd5 d7bc 5272 fbbd 8b83 e8bd
00000320: d56b 403e 104f 9abe 374d ec3e d6be 173d
00000330: 3e42 c63d f995 273f 7659 22be e6a5 22bc
00000340: e99d 59bd b6b4 1d3e d1f7 ce3d 69db 923f
00000350: f801 403c 082b c5bd daaf 62be 3e98 933c
00000360: cac1 bebe c0ff 48be d032 6abf 33fd 733e
00000370: 1ff2 99bd bba8 60bf f22d 313f 4453 d8be
00000380: e10a 1ebe 628d fcbe 9115 893e b5be 11be
00000390: dd4e 093f 524b bd3d 554e 073f bf59 663c
000003a0: 1869 233f 3659 bc3d e548 bd3e 8d5e 7fbc
000003b0: 2c66 abbd 0e6c 2cbf e592 1a3d 608c 56be
000003c0: 5c9e 5bbe a1cb c3be 5895 f83e 29fc 0c3f
000003d0: e94b e93e 5772 9fbd 709c 8abe cd43 35be
000003e0: 6ed9 e83e e5cd d63e ee04 50bf 19c5 15be
000003f0: eef0 b7be 1ffd 2cbe 33ff 953d bd81 113f

pi.logits_net.0.bias f4 [64]
0.02080121 0.31655508 0.0036439828 0.15451103 0.03843807 -0.23741916 0.26876363 -0.33272442
0.040426597 0.22812958 -0.11517759 -0.25955337 -0.027132286 0.27704957 0.11578064 0.061125655
0.05199791 0.047241364 0.044679195 -0.06402866 0.11884892 0.2136205 0.121228345 -0.0384875
-0.103749424 -0.1107504 -0.1394744 0.2493919 0.056622244 0.07673526 -0.020880131 0.027945163
0.49813116 -0.13162383 0.12126596 0.07928866 -0.08018076 -0.028682545 0.058500085 0.3312127
-0.22012828 -0.18785109 0.068274744 -0.09918476 -0.15617764 -0.03764403 0.31550038 0.056931186
-0.11206811 0.2197632 0.05341766 0.36149243 -0.12197614 -0.11653287 0.05752945 0.12470301
-0.054702595 -0.10970752 0.033427987 0.007840118 0.108102106 -0.10326547 -0.065315224 0.020516528
00000000: 4d67 aa3c 8213 a23e e3cf 6e3b 2438 1e3e
00000010: 3d71 1d3d 021e 73be 639b 893e db5a aabe
00000020: 5c96 253d cd9a 693e 3ae2 ebbd 2ee4 84be
00000030: 8744 debc 71d9 8d3e 661e ed3d e55e 7a3d
00000040: c3fb 543d 2980 413d 8801 373d 7521 83bd
00000050: 1067 f33d 55bf 5a3e 9146 f83d 12a5 1dbd
00000060: 947a d4bd 1bd1 e2bd 61d2 0ebe 9760 7f3e
00000070: baec 673d 6027 9d3d cf0c abbc 41ed e43c
00000080: 0c0b ff3e 66c8 06be 4a5a f83d 1862 a23d
00000090: cf35 a4bd a8f7 eabc c99d 6f3d b694 a93e
000000a0: 4f69 61be 095c 40be a1d3 8b3d 6121 cbbd
000000b0: 08ed 1fbe a030 1abd 4489 a13e ad30 693d
000000c0: f783 e5bd 9b09 613e 7acc 5a3d 8915 b93e
000000d0: a0ce f9bd c9a8 eebd 00a4 6b3d 4b64 ff3d
000000e0: d40f 60bd 56ae e0bd c9eb 083d d773 003c
000000f0: a364 dd3d d97c d3bd fdc3 85bd 4712 a83c

pi.logits_net.2.weight f4 [64, 64]
-0.5689063 0.6793847 0.5078164 0.26813763 0.16714792 -0.24178436 0.18545663 0.52639115
-0.7634545 0.16594921 -0.39096278 -0.071101345 0.4065175 -0.19339938 -0.08776724 0.21306686
0.63511133 0.13453633 -0.6154893 0.10907733 -0.69642544 0.6181272 -0.062992975 -0.5328593
-0.10372317 0.3348993 0.45019877 0.41622844 -0.21368368 0.45758766 0.098261535 0.7036058
0.6351111 -0.76903796 1.0039893 -0.5042688 -0.5351883 -0.08789266 -0.03561046 -0.60383457
-0.39778602 0.24823739 0.22196302 0.11650487 -0.34690702 0.16519746 0.26826313 0.035785314
0.33597863 -0.531436 -0.29302835 0.24238569 0.072235554 -0.39912552 -0.3446695 -0.14572586
-0.04728298 -0.9489903 0.0060028317 0.2960857 -0.84720004 -0.03734939 0.451492 0.48638788
0.7128251 0.21450762 0.18723999 -0.24745461 0.3095591 0.48375398 0.14896114 0.7716573
0.09701752 0.25958303 -0.65251786 0.6468064 0.20853336 -0.56157243 1.0084343 -0.14035253
-0.525409 -0.63122475 -0.17143728 -0.056506436 -0.68180203 -0.4306756 0.34234405 -0.30835474
0.51165104 0.58437455 -0.48992914 0.3038539 -0.20320705 0.24036723 -0.121695526 0.21721628
0.2228004 -0.25704035 -0.33776912 -0.39443108 0.013346911 0.5591597 0.2679383 -0.7631259
0.34648138 -0.099608116 -0.19257021 0.19669424 0.11619384 -0.31115907 -0.13516317 -0.2965035
-0.0329352 -0.446052 -0.29696107 -0.008864193 0.51666003 0.08027138 0.66385037 -0.28834748
-0.14596276 0.14197324 -0.44836202 -0.36786258 -0.09056574 0.21254104 0.3083499 0.5488452
0.10389029 -0.024287267 -0.34615466 -0.26712263 0.70592123 -1.0955637 0.35813552 -0.04513794
0.057113763 0.45414647 0.80865973 0.21122272 -0.10767497 -0.8122871 -0.53267884 0.08366848
-0.019644972 -0.23006424 0.25130168 -0.14882684 -0.4688744 0.82649046 -0.3504589 -0.1393237
-0.049254354 -0.4507371 -0.23112433 0.39988914 -0.31606442 0.46713832 -0.06882621 -0.26393393
-0.22279026 -0.56539994 0.32331535 0.14799744 0.046348695 -0.43681565 0.6148357 -0.29276654
-0.20568061 -0.43187472 -0.10081006 -0.061124146 -0.24716271 -0.18072616 -0.10959913 0.7531075
0.016469039 -0.104317985 -0.2766205 0.31565785 -0.18025102 -0.26869348 0.25080195 0.4609071
0.43861684 -0.43786663 0.1094601 0.29038724 -0.3016599 0.72653353 0.62191415 -0.34272018
-0.58247435 -0.22395241 0.50920564 -0.46528453 0.010242833 -0.3831544 -0.47576228 -0.24837027
0.47328126 -0.22760953 -1.1484251 0.4153492 -0.18717834 -0.5867414 -0.5700828 0.24697433
-0.47368345 -0.37882072 -0.17604406 0.12185991 -0.22340155 -0.08358198 -0.05409758 -0.16718565
0.3221969 0.61573946 -0.57634383 -0.4118803 0.48040095 -0.27007198 -0.3877168 0.66717386
-0.11471952 -0.06835413 -0.7690904 -0.6359297 -0.14409748 0.10003097 -0.11000734 -0.0064584673
0.03298471 -0.32940066 0.43145084 0.15903296 -0.37063637 0.1284388 0.5605504 -0.5375471
0.3999687 0.6161707 -0.25447768 -0.44918713 0.6522518 -0.07706881 0.11491306 0.114421986
-0.3454715 -0.41255826 -0.48908412 -0.61892724 -0.56241834 -0.09206727 -0.41333553 0.2216858
00000000: d8a3 11bf 28ec 2d3f 4100 023f 5649 893e
00000010: d328 2b3e 5296 77be 58e8 3d3e 92c1 063f
00000020: c171 43bf 97ee 293e 462c c8be 959d 91bd
00000030: 1023 d03e 7d0a 46be 50bf b3bd 332e 5a3e
00000040: a896 223f e4c3 093e b590 1dbf ef63 df3d
00000050: f048 32bf 963d 1e3f 7602 81bd 7869 08bf
00000060: d06c d4bd ec77 ab3e 7480 e63e e51b d53e
00000070: e5cf 5abe ee48 ea3e 583d c93d 821f 343f
00000080: a496 223f acdf 44bf b982 803f c317 01bf
00000090: 1a02 09bf 1101 b4bd 46dc 11bd e794 1abf
000000a0: 9caa cbbe f131 7e3e 464a 633e 1b9a ee3d
000000b0: cc9d b1be 8629 293e c959 893e 9f93 123d
000000c0: 6405 ac3e 310c 08bf d007 96be f433 783e
000000d0: 3cf0 933d 2e5a ccbe 8578 b0be 2939 15be
000000e0: ccab 41bd 07f1 72bf 67b3 c43b 8b98 973e
000000f0: 1ae2 58bf adfb 18bd f629 e73e d507 f93e
00000100: b57b 363f e3a7 5b3e d7bb 3f3e be64 7dbe
00000110: 887e 9e3e 9aae f73e 4589 183e 558b 453f
00000120: 1fb1 c63d 11e8 843e 690b 27bf 1b95 253f
00000130: c589 553e 36c3 0fbf 6014 813f 93b8 0fbe
00000140: 3481 06bf f297 21bf 418d 2fbe 4b73 67bd
00000150: 948a 2ebf 8381 dcbe b847 af3e ace0 9dbe
00000160: 90fb 023f 9299 153f fed7 fabe bd92 9b3e
00000170: 8215 50be d422 763e 813b f9bd f26d 5e3e
00000180: ca25 643e cb9a 83be 13f0 acbe dff2 c9be
00000190: 01ad 5a3c 1725 0f3f 352f 893e 385c 43bf
000001a0: 0266 b13e 57ff cbbd 2031 45be 376a 493e
000001b0: 09f7 ed3d 3e50 9fbe 3768 0abe 4fcf 97be
000001c0: 0fe7 06bd ee60 e4be 480b 98be 1f3b 11bc
000001d0: d543 043f 5265 a43d 19f2 293f 48a2 93be
000001e0: 4377 15be 6f61 113e b58f e5be 7c58 bcbe
000001f0: 887a b9bd 5ca4 593e 0ae0 9d3e 1e81 0c3f
00000200: 6fc4 d43d 17f6 c6bc 2f3b b1be 4cc4 88be
00000210: 41b7 343f 6e3b 8cbf 8a5d b73e 90e2 38bd
00000220: 1ff0 693d e385 e83e 5304 4f3f c54a 583e
00000230: b284 dcbd 0cf2 4fbf a45d 08bf 615a ab3d
00000240: 7eee a0bc f695 6bbe 9daa 803e 1066 18be
00000250: 4e10 f0be e194 533f 596f b3be dfaa 0ebe
00000260: efbe 49bd 03c7 e6be dbab 6cbe 45be cc3e
00000270: 32d3 a1be c12c ef3e c2f4 8cbd 5922 87be
00000280: 2123 64be 0dbe 10bf 9789 a53e a48c 173e
00000290: 21d8 3d3d 4da6 dfbe df65 1d3f 7fe5 95be
000002a0: f09d 52be af1e ddbe 8175 cebd 505d 7abd
000002b0: 3918 7dbe 4710 39be 8275 e0bd a7cb 403f
000002c0: 14ea 863c aba4 d5bd 34a1 8dbe e89d a13e
000002d0: b993 38be 3192 89be 1d69 803e 04fc eb3e
000002e0: 6392 e03e 0e30 e0be 9e2c e03d a3ad 943e
000002f0: 2b73 9abe 1afe 393f c435 1f3f 0579 afbe
00000300: 0a1d 15bf c853 65be 4d5b 023f c639 eebe
00000310: 8ed1 273c d02c c4be 1d97 f3be c754 7ebe
00000320: ec51 f23e 7912 69be 98ff 92bf a6a8 d43e
00000330: aeab 3fbe af34 16bf f2f0 11bf d7e6 7c3e
00000340: a386 f2be caf4 c1be e544 34be b091 f93d
00000350: 60c3 64be 072d abbd 6d95 5dbd b732 2bbe
00000360: fef6 a43e 1aa1 1d3f 458b 13bf fae1 d2be
00000370: 1df7 f53e e046 8abe d182 c6be e8cb 2a3f
00000380: 11f2 eabd 40fd 8bbd 1ce3 44bf 4acc 22bf
00000390: 4a8e 13be 0add cc3d 874b e1bd 8da1 d3bb
000003a0: fa1a 073d 34a7 a8be 20e7 dc3e 89d9 223e
000003b0: 0dc4 bdbe 7685 033e 3b80 0f3f b09c 09bf
000003c0: b3c8 cc3e 5dbd 1d3f e64a 82be dbfb e5be
000003d0: f9f9 263f 41d6 9dbd 8a57 eb3d 1356 ea3d
000003e0: a4e1 b0be d63a d3be 3c69 fabe 0472 1ebf
000003f0: a6fa 0fbf c48d bcbd b7a0 d3be 9a01 633e

pi.logits_net.2.bias f4 [64]
0.29939938 -0.16479163 0.6638744 -0.095468 -0.27444664 0.111119 -0.13197617 0.2208746
-0.24058077 -0.29460832 0.35392836 0.20352753 -0.016419034 -0.45530978 0.14445797 0.05799811
-0.11949215 0.080751866 0.0275464 -0.35756984 0.016661469 -0.0932035 0.48316985 0.073869884
0.15361749 0.39796227 0.24366394 -0.34858257 0.63844186 -0.0034942091 0.18415202 0.35285872
0.026708933 0.19551513 0.54327685 0.13078749 -0.22883552 -0.07903218 -0.3983819 0.1926109
0.015342886 -0.12690847 -0.03498892 0.037511177 -0.6321504 0.053673066 0.10653959 -0.26032832
-0.08763347 -0.087367706 0.53360987 -0.118553385 -0.2820703 0.05984583 0.40653566 0.033603784
0.15430523 0.08997371 -0.042820826 0.11451045 -0.055254836 -0.081497036 0.06875098 -0.56846255
00000000: e04a 993e 23bf 28be acf3 293f ba84 c3bd
00000010: 4584 8cbe 5c92 e33d c324 07be f32c 623e
00000020: ce5a 76be e7d6 96be 1936 b53e 8569 503e
00000030: 3681 86bc 5d1e e9be caec 133e 6d8f 6d3d
00000040: 4db8 f4bd 3c61 a53d fda8 e13c 6513 b7be
00000050: a27d 883c 7ae1 bebd 0a62 f73e 1849 973d
00000060: e74d 1d3e b6c1 cb3e 0a83 793e 6a79 b2be
00000070: ed70 233f 1aff 64bb 5992 3c3e e6a9 b43e
00000080: b1cc da3c 1e35 483e 3114 0b3f 28ed 053e
00000090: dc53 6abe a0db a1bd b6f8 cbbe cb3b 453e
000000a0: ba60 7b3c 4bf4 01be 8b50 0fbd 52a5 193d
000000b0: 9cd4 21bf 4ad8 5b3d 6e31 da3d c149 85be
000000c0: 2d79 b3bd d7ed b2bd a89a 083f 1ecc f2bd
000000d0: 856b 90be e720 753d 7125 d03e 1fa4 093d
000000e0: 3102 1e3e 2344 b83d e464 2fbd 7484 ea3d
000000f0: e552 62bd ebe7 a6bd 50cd 8c3d c386 11bf

pi.logits_net.4.weight f4 [87, 64]
-0.002746887 0.111467235 0.21469891 -0.16744661 0.7098543 -0.9588205 -0.34078285 -0.5005227
-0.6197523 -0.6145143 0.63332707 0.39631647 -1.4585441 0.8028501 0.9120851 0.56782675
-0.4806782 0.37070662 1.1018045 0.1213127 0.5404251 -0.5865888 0.29581887 0.6114207
0.44511625 0.4419143 0.38515043 0.033870082 0.27611747 0.72201204 0.2265255 0.6296453
-0.8738373 0.76179665 0.49651578 0.77183026 0.9736513 -1.13029 -0.20792508 0.7556249
0.662207 -0.49032933 -0.41252238 0.86742294 0.43108362 0.3928096 0.8890005 -0.5152848
0.79163176 -0.7636609 0.4252349 -1.2114451 0.74600905 0.2472425 -0.17235407 -0.34624216
0.57464916 0.3171527 -0.38153595 0.7168991 -0.32723546 -0.80515945 0.71219075 -0.48603138
0.878277 -0.37440047 0.8220331 -0.070712306 -0.28190285 -0.087154284 -0.013427624 0.84860414
-1.3886937 -0.92843115 0.21349378 0.08307379 0.5640331 0.283274 0.86298645 0.26407555
-0.2560657 -0.43184248 0.2787002 -1.0389297 -0.12942927 -0.90468997 0.68700075 -0.2464746
0.26722434 0.80283517 0.42093784 0.6039634 0.42014462 -1.3182783 -0.18701498 0.6995733
-0.6280109 1.4850311 0.30149984 -0.58369553 -0.24516305 0.025179243 -0.94595444 0.7622031
1.2605234 -0.14127891 0.32485446 -0.31218523 -0.61473274 0.3118576 0.058160216 -0.67300355
0.36451873 -0.71563995 0.9948049 0.4581076 1.2000386 -0.9523977 0.2551816 -0.38039955
-1.3110772 -0.16757776 0.28748098 0.49651745 0.5907468 -0.40239966 0.9514812 -0.1292938
-0.3876386 -0.1266696 0.057995714 -0.47522715 0.24310583 -0.15192233 -0.6885581 -0.66863537
-0.37591702 -0.2553973 2.0544097 0.5363103 -0.15687469 0.5911503 0.13519725 1.130222
-0.09939775 0.8931099 1.1389849 0.23532994 1.0942386 -1.3818868 0.29242682 -0.39633664
-0.005697415 0.25993192 0.30164114 -0.47164702 -0.08216816 -0.30630767 0.6796219 0.2705293
0.07546893 0.8212359 0.5692461 -0.35732505 0.7684863 -0.39405963 -0.44602636 0.33502796
1.1268421 -0.8106056 0.24952686 0.56013066 -0.5641607 -1.0984833 0.63548106 -0.36433688
-0.933065 -0.9461337 0.2976187 0.007048135 1.1184996 -0.9683452 0.32423103 0.9735723
0.35072768 0.45963544 0.1018641 0.5872663 -0.69546217 -0.39164838 0.92691255 -0.48288247
-0.34639072 -0.24671127 0.31106892 -0.7985 -0.5802813 -0.29056975 0.1777927 0.730332
-0.9108959 -0.5245544 0.54428947 0.23565952 0.17580512 0.27542803 -0.6607569 0.3095458
-0.4500914 1.1938149 -0.13842991 0.5774985 1.0993847 -0.17055693 0.4609766 0.7633801
0.9733181 0.7181571 -0.90290946 -0.8026401 0.471449 0.7623331 0.47104397 0.23662026
-0.86311924 0.56310624 0.40449056 0.9555492 1.0091847 -1.015894 0.99600464 0.44197783
0.3348414 0.8332198 -0.010025521 -0.04390894 -0.48791176 -0.9767339 -0.052994255 -0.4373218
0.3993134 -0.11821416 0.35181126 -0.58711463 -0.6639207 -0.54991114 0.69883627 1.1370932
-0.21779728 1.1196003 0.8644151 0.5553333 -0.5951083 -0.65477824 -0.12313672 -0.61636657
00000000: 1e05 34bb ef48 e43d 08da 5b3e 2077 2bbe
00000010: 03b9 353f 4375 75bf 177b aebe 4122 00bf
00000020: 16a8 1ebf cf50 1dbf b921 223f fee9 ca3e
00000030: 93b1 babf 9687 4d3f 697e 693f 185d 113f
00000040: 741b f6be 42cd bd3e ee07 8d3f cb72 f83d
00000050: 4d59 0a3f af2a 16bf 9275 973e 1186 1c3f
00000060: 47e6 e33e 9742 e23e 7032 c53e 5bbb 0a3d
00000070: 455f 8d3e c8d5 383f 4df6 673e 6f30 213f
00000080: cdb3 5fbf 1b05 433f 5137 fe3e ab96 453f
00000090: 3641 793f 58ad 90bf 50ea 54be a270 413f
000000a0: 6686 293f 720c fbbe 2236 d3be 6e0f 5e3f
000000b0: feb6 dc3e 571e c93e 8995 633f b4e9 03bf
000000c0: 61a8 4a3f 487f 43bf 64b8 d93e a210 9bbf
000000d0: 73fa 3e3f 232d 7d3e 967d 30be a746 b1be
000000e0: 351c 133f d761 a23e ae58 c3be b386 373f
000000f0: 688b a7be ee1e 4ebf 2252 363f 1bd9 f8be
00000100: c3d6 603f 6bb1 bfbe c370 523f 9dd1 90bd
00000110: 9255 90be f27d b2bd 89ff 5bbc 1f3e 593f
00000120: b7c0 b1bf aaad 6dbf 1d9e 5a3e 9722 aa3d
00000130: 7964 103f 4a09 913e aeec 5c3f e934 873e
00000140: 0b1b 83be 751a ddbe cbb1 8e3e a6fb 84bf
00000150: 1b89 04be c399 67bf 48df 2f3f d663 7cbe
00000160: a1d1 883e 9b86 4d3f 2a85 d73e 589d 1a3f
00000170: 321d d73e 58bd a8bf db80 3fbe 3c17 333f
00000180: 53c5 20bf 8015 be3f 305e 9a3e 126d 15bf
00000190: 060c 7bbe b344 ce3c 122a 72bf be1f 433f
000001a0: d558 a13f 6bab 10be 5353 a63e bed6 9fbe
000001b0: 205f 1dbf cdab 9f3e 6839 6e3d f649 2cbf
000001c0: 33a2 ba3e 2e34 37bf 89ab 7e3f 148d ea3e
000001d0: dd9a 993f 56d0 73bf 2aa7 823e bbc3 c2be
000001e0: 61d1 a7bf 8199 2bbe b530 933e 8937 fe3e
000001f0: 2f3b 173f 5407 cebe 4694 733f 9865 04be
00000200: 9178 c6be adb5 01be ea8c 6d3d f950 f3be
00000210: bcf0 783e 8791 1bbe 5845 30bf b02b 2bbf
00000220: 3278 c0be 6fc3 82be 737b 0340 a24b 093f
00000230: c2a3 20be a055 173f 2671 0a3e 1dab 903f
00000240: 0c91 cbbd daa2 643f 42ca 913f 55fa 703e
00000250: 0310 8c3f abe1 b0bf f8b8 953e a3ec cabe
00000260: 62b1 babb cc15 853e b570 9a3e b87b f1be
00000270: c847 a8bd 5cd4 9cbe b3fb 2d3f d182 8a3e
00000280: 748f 9a3d 843c 523f 1dba 113f 4ff3 b6be
00000290: 85bb 443f 2fc2 c9be 915d e4be c988 ab3e
000002a0: 5d3c 903f d983 4fbf f883 7f3e b964 0f3f
000002b0: d66c 10bf 1a9b 8cbf e3ae 223f 5d8a babe
000002c0: 59dd 6ebf d135 72bf 7a61 983e 0bf4 e63b
000002d0: ff2a 8f3f 79e5 77bf 9c01 a63e 093c 793f
000002e0: 9492 b33e 5655 eb3e 209e d03d 1657 163f
000002f0: cf09 32bf 2386 c8be 244a 6d3f 5f3c f7be
00000300: 205a b1be e1a1 7cbe 6d44 9f3e 7f6a 4cbf
00000310: 518d 14bf 8fc5 94be 4a0f 363e 0af7 3a3f
00000320: 7930 69bf 3249 06bf 8e56 0b3f bb50 713e
00000330: 4206 343e e704 8d3e 5d27 29bf c97c 9e3e
00000340: 6172 e6be edce 983f 92c0 0dbe f1d6 133f
00000350: a3b8 8c3f 7aa6 2ebe 2005 ec3e e16c 433f
00000360: 602b 793f 25d9 373f 1325 67bf d279 4dbf
00000370: c361 f13e 4328 433f ad2c f13e 954c 723e
00000380: 62f5 5cbf bb27 103f 6319 cf3e df9e 743f
00000390: f72c 813f d108 82bf 29fa 7e3f eb4a e23e
000003a0: 5570 ab3e e54d 553f 1542 24bc dcd9 33bd
000003b0: 92cf f9be 3c0b 7abf 8110 59bd a5e8 dfbe
000003c0: ce72 cc3e 441a f2bd 9b20 b43e 254d 16bf
000003d0: b5f6 29bf fac6 0cbf efe6 323f 458c 913f
000003e0: 4006 5fbe 104f 8f3f 4f4a 5d3f 532a 0e3f
000003f0: 0459 18bf 8c9f 27bf 1b2f fcbd 33ca 1dbf

pi.logits_net.4.bias f4 [87]
0.28080022 0.6127332 0.4060058 0.30218565 0.47417483 0.41466114 0.1940664 0.23336922
0.38977495 0.43052688 0.21696071 0.29875755 0.6541659 0.34851584 0.3292486 0.5575404
0.40263778 0.42772737 0.56662846 0.49946427 0.7340613 0.57432663 0.6412121 0.42516306
0.37421158 0.4005952 0.49853143 0.28934792 0.4014001 0.4937392 0.35785714 0.5901918
0.56026053 0.38151807 0.34274945 0.24519257 0.17122072 0.3120566 0.17906 0.4723006
0.38936418 0.39513665 0.42542008 0.3936769 0.37871465 0.5920623 0.4933776 0.17502214
0.24275765 0.22902718 0.33794466 0.48623922 0.7314164 0.5052789 0.31123078 0.2925951
0.058793858 0.6037215 0.53725046 0.7288429 0.5927499 0.4148067 0.65366817 0.63728935
0.48834902 0.38985962 0.579506 0.070359536 0.18776356 0.33776948 0.32408103 0.35455316
0.5012094 0.32419154 0.32691368 0.011271134 0.2501871 0.46179003 0.41687244 0.60399973
0.58243614 0.27244717 0.33958888 0.45310596 0.4827435 0.6713 0.333121
00000000: 0cc5 8f3e 15dc 1c3f fedf cf3e 14b8 9a3e
00000010: 0bc7 f23e 774e d43e 58b9 463e 57f8 6e3e
00000020: 9590 c73e 056e dc3e f32a 5e3e c0f6 983e
00000030: 6b77 273f ab70 b23e 4693 a83e f8ba 0e3f
00000040: 8a26 ce3e 15ff da3e 900e 113f c8b9 ff3e
00000050: 71eb 3b3f 1207 133f 7a26 243f f9ae d93e
00000060: a998 bf3e d01a cd3e 833f ff3e 6925 943e
00000070: 5084 cd3e 62cb fc3e 0d39 b73e cf16 173f
00000080: 3c6d 0f3f 5656 c33e db7c af3e c313 7b3e
00000090: 7c54 2f3e e2c5 9f3e 815b 373e 62d1 f13e
000000a0: be5a c73e 5a4f ca3e a9d0 d93e 0590 c93e
000000b0: e3e6 c13e 6591 173f fd9b fc3e 0139 333e
000000c0: 7695 783e 1a86 6a3e 1507 ad3e 59f4 f83e
000000d0: 1b3e 3b3f f559 013f a459 9f3e 06cf 953e
000000e0: d4d1 703d 7e8d 1a3f 3f89 093f 7395 3a3f
000000f0: 75be 173f 8b61 d43e cc56 273f 6525 233f
00000100: e208 fa3e ae9b c73e 815a 143f a918 903d
00000110: 1745 403e 1ff0 ac3e f3ed a53e fe87 b53e
00000120: 424f 003f 6ffc a53e 3b61 a73e 90aa 383c
00000130: 8618 803e be6f ec3e 4e70 d53e ba9f 1a3f
00000140: 891a 153f 327e 8b3e 98de ad3e 81fd e73e
00000150: 282a f73e 51da 2b3f d68e aa3e

v.v_net.0.weight f4 [64, 282]
2.4524953 -0.046648566 1.7578928 2.3861556 2.1101968 1.9076612 1.8744937 1.8725983
1.7740853 2.5531015 0.15308544 -0.027539862 2.4481177 1.701581 1.8964078 2.411101
2.4412577 0.035250507 2.1309066 2.3298783 2.4723697 1.9648565 -0.5460943 1.9001198
1.170759 1.7803266 2.343073 2.2537696 1.9189452 2.5077462 1.8952022 1.7708528
-0.09944286 1.8170125 2.3270292 1.8939601 1.8693689 1.7714875 2.1579602 1.8076899
1.7615454 0.15965886 1.8056865 1.7673955 -0.5951523 1.7054744 2.1256714 2.1620252
0.08036712 1.8999809 2.2675388 2.5116591 0.10357786 1.744523 -0.013219398 2.0514057
0.0033233943 2.2510211 1.6942177 2.287676 2.3181586 1.8064618 1.9774705 0.119318865
-0.0932675 1.7456207 1.6017666 0.08941184 -0.3057147 2.4870672 -0.11215077 1.9789764
1.7050529 -0.2387109 0.17624909 1.9510239 -0.04078762 1.9059855 2.3666997 1.6947131
0.19788367 2.0527534 1.923328 2.351741 1.7631352 2.5169225 0.1340429 0.25513953
-0.3910466 -0.4213161 -0.03639996 -2.5461504 -1.7435985 0.16257335 0.25188872 -0.9108411
-1.2471718 -1.0270807 -0.74196315 -0.20105307 -2.1452699 -0.45498857 -0.24224709 -1.1013079
-0.41187307 -0.2814716 -1.4350998 -2.041446 0.18430103 1.0190121 -3.1180036 1.4405943
0.3503713 0.8972882 -1.475307 -1.2088679 -1.1822678 -1.8988867 -1.3113521 -0.7274284
-2.3646386 1.5809953 -1.0740154 0.59105635 -0.99556684 -2.2908404 -0.85862255 -1.0962992
-1.6014677 0.314264 0.24739118 1.0980793 0.6283393 -2.1970687 -1.9247332 -0.38523188
1.0929253 0.46428895 -1.4720803 -1.8272276 0.6776616 0.0028746193 0.1417667 1.8557104
1.1999079 -0.8003677 -2.0825024 -2.7255135 -0.37026927 -0.8338961 -3.7036667 -0.9045988
0.3373579 -3.021303 -3.584485 -0.019489085 -1.8807747 -0.14893009 -0.59810853 -0.12615922
0.40374205 1.0383121 -0.75155663 1.1669172 -0.06702403 -1.7965657 0.7812231 -1.3713331
-0.9934814 -0.0707108 -0.5960433 -1.2169443 -2.0399365 -1.8653665 0.1766091 -0.23783562
-4.624576 0.6915781 0.99332446 0.82827115 -2.7134602 -1.773687 3.155803 -6.6541085
-7.6074076 -14.792235 10.60189 0.030273108 -7.173495 -5.150458 -0.04006795 1.0891829
-2.207338 -3.6658983 -1.6712452 -2.6909254 1.0165547 -0.50091964 -0.60873574 -1.5704948
-0.29280093 0.9108148 0.28466868 0.83352256 -3.4505377 0.68498653 -0.7869413 -0.6921329
-0.4203692 0.63301927 -0.35459942 0.022594811 -0.16592744 -1.7757359 1.6726128 1.4847126
-0.46019453 0.7699224 -0.2668467 0.6842694 2.5419002 -2.2308478 -2.5036805 -0.872092
1.3772074 -3.1286466 1.3023957 -0.9814776 -1.3848848 0.3255308 -0.01796445 0.6745031
0.22210802 3.9523816 -0.7189104 1.8967843 2.8652499 0.17248382 0.2809857 1.5532774
3.328521 -1.1056763 1.2579957 -1.3330269 -1.035343 0.87198734 -2.9837356 -2.0752296
1.2775959 0.22684869 -2.2645874 -0.3825267 -2.5594018 1.3395656 -0.36405984 -1.4887366
00000000: aff5 1c40 9112 3fbd a202 e13f c6b6 1840
00000010: 770d 0740 3e2e f43f 69ef ef3f 4db1 ef3f
00000020: 3a15 e33f 0466 2340 6ec2 1c3e 479b e1bc
00000030: f6ad 1c40 68cd d93f 7ebd f23f 7b4f 1a40
00000040: 913d 1c40 d662 103d c660 0840 ba1c 1540
00000050: 4e3b 1e40 6b80 fb3f d6cc 0bbf 2037 f33f
00000060: 6edb 953f bee1 e33f e8f4 1540 c33d 1040
00000070: ff9f f53f ea7e 2040 fc95 f23f 4eab e23f
00000080: b3a8 cbbd de93 e83f 0cee 1440 496d f23f
00000090: 7b47 ef3f 1ac0 e23f 051c 0a40 6262 e73f
000000a0: 527a e13f 9d7d 233e bc20 e73f 043a e23f
000000b0: e75b 18bf fc4c da3f 000b 0840 9f5e 0a40
000000c0: 8497 a43d 9332 f33f 5b1f 1140 06bf 2040
000000d0: a120 d43d 884c df3f 2d96 58bc 3b4a 0340
000000e0: 4ecd 593b bb10 1040 20dc d83f 4969 1240
000000f0: b65c 1440 243a e73f c11d fd3f 735d f43d
00000100: 0803 bfbd 8070 df3f b006 cd3f 8e1d b73d
00000110: a386 9cbe 1c2c 1f40 4eaf e5bd 194f fd3f
00000120: 2c3f da3f a170 74be a47a 343e 27bb f93f
00000130: eb10 27bd 55f7 f33f 0278 1740 5cec d83f
00000140: 04a2 4a3e 5060 0340 9d2f f63f ed82 1640
00000150: 6aae e13f 4215 2140 8b42 093e a6a1 823e
00000160: 4337 c8be beb6 d7be 2018 15bd 21f4 22c0
00000170: 3c2e dfbf a179 263e 8ff7 803e e22c 69bf
00000180: 53a3 9fbf 6177 83bf 4cf1 3dbf dbe0 4dbe
00000190: 1a4c 09c0 43f4 e8be 9f0f 78be a8f7 8cbf
000001a0: 07e1 d2be 0c1d 90be 5ab1 b7bf 0da7 02c0
000001b0: 69b9 3c3e fd6e 823f 5f8d 47c0 6565 b83f
000001c0: de63 b33e aeb4 653f dcd6 bcbf 2fbc 9abf
000001d0: 8d54 97bf b80e f3bf 63da a7bf bf38 3abf
000001e0: 3d56 17c0 0e5e ca3f 5679 89bf 784f 173f
000001f0: 78dd 7ebf 219d 12c0 b0ce 5bbf 8853 8cbf
00000200: e5fc ccbf 36e7 a03e 1d54 7d3e dd8d 8c3f
00000210: d8da 203f c69c 0cc0 a85d f6bf 1d3d c5be
00000220: fae4 8b3f 48b7 ed3e 216d bcbf 98e2 e9bf
00000230: 3b7b 2d3f 1c64 3c3b 4a2b 113e eb87 ed3f
00000240: 9596 993f e6e4 4cbf b847 05c0 d06e 2ec0
00000250: ef93 bdbe 377a 55bf e008 6dc0 c993 67bf
00000260: 2dba ac3e 075d 41c0 3468 65c0 93a7 9fbc
00000270: 3abd f0bf 2181 18be a41d 19bf e22f 01be
00000280: 47b7 ce3e 69e7 843f 0466 40bf 8b5d 953f
00000290: e543 89bd ddf5 e5bf 3dfe 473f d887 afbf
000002a0: cc54 7ebf d3d0 90bd 4b96 18bf d5c4 9bbf
000002b0: 528e 02c0 54c4 eebf 04d9 343e 2e8b 73be
000002c0: 87fc 93c0 430b 313f 834a 7e3f 9409 543f
000002d0: 55a9 2dc0 2d08 e3bf adf8 4940 75ee d4c0
000002e0: e26f f3c0 ffac 6cc1 57a1 2941 4fff f73c
000002f0: 458d e5c0 8dd0 a4c0 4a1e 24bd 586a 8b3f
00000300: 0745 0dc0 149e 6ac0 5deb d5bf 1f38 2cc0
00000310: 771e 823f 453c 00bf 1bd6 1bbf f905 c9bf
00000320: 01ea 95be 292b 693f 18c0 913e bc61 553f
00000330: 9cd5 5cc0 475b 2f3f fc74 49bf 9f2f 31bf
00000340: a23a d7be 8d0d 223f 0e8e b5be c118 b93c
00000350: e2e8 29be 504b e3bf 2d18 d63f 100b be3f
00000360: 9e9e ebbe a219 453f 21a0 88be 482c 2f3f
00000370: 7eae 2240 36c6 0ec0 4d3c 20c0 6c41 5fbf
00000380: 5548 b03f bf3b 48c0 e7b4 a63f 1e42 7bbf
00000390: e843 b1bf f9ab a63e 2f2a 93bc 3cac 2c3f
000003a0: 4970 633e d2f3 7c40 830a 38bf d4c9 f23f
000003b0: 4160 3740 999f 303e 5cdd 8f3e cbd1 c63f
000003c0: 7d06 5540 cd86 8dbf 0106 a13f a0a0 aabf
000003d0: 1f86 84bf 903a 5f3f 86f5 3ec0 90d0 04c0
000003e0: 4388 a33f 064b 683e 00ef 10c0 8ada c3be
000003f0: 3dcd 23c0 e376 ab3f 0d66 babe ec8e bebf

v.v_net.0.bias f4 [64]
-2.131251 1.6535088 -1.4998845 -1.68013 -0.36792615 0.24424843 -6.5689416 -0.2086667
-7.5412655 -0.71924603 0.9642202 12.229887 1.428362 -1.6956332 -3.967971 -0.23605569
-1.5021528 1.1157254 -3.2011 6.4244103 -4.025412 2.0462122 2.652111 -1.804266
-3.3332365 -8.267147 1.5012417 3.0860918 4.5005283 7.7893095 -2.339313 -3.2654278
1.3013775 2.17792 -4.643729 2.340621 2.311019 -7.070434 1.6071827 -2.5203629
1.4570488 -3.5519705 -2.7854733 2.946601 0.27110583 -0.21407121 -2.2386096 1.8523562
4.0752788 2.7995117 1.7580941 -1.2553568 -1.118165 -4.1929793 3.6778584 -1.2655694
-0.1268129 2.3949947 -8.325272 0.16111292 -1.185926 -1.6377687 -0.8534179 -0.6305666
00000000: 6b66 08c0 2da6 d33f 37fc bfbf 800e d7bf
00000010: d160 bcbe 431c 7a3e c534 d2c0 b9ac 55be
00000020: 0c52 f1c0 8220 38bf 23d7 763f 9ead 4341
00000030: 91d4 b63f 820a d9bf 3df3 7dc0 95b8 71be
00000040: 8b46 c0bf 17d0 8e3f d3de 4cc0 c594 cd40
00000050: 2dd0 80c0 24f5 0240 30bc 2940 30f2 e6bf
00000060: bf53 55c0 3c46 04c1 b028 c03f 8782 4540
00000070: 5404 9040 0642 f940 4eb7 15c0 c5fc 50c0
00000080: 8a93 a63f 0b63 0b40 6e99 94c0 bccc 1540
00000090: bce7 1340 ff40 e2c0 2ab8 cd3f a04d 21c0
000000a0: 9380 ba3f 7c53 63c0 3245 32c0 1c95 3c40
000000b0: 62ce 8a3e 7c35 5bbe 6145 0fc0 021a ed3f
000000c0: af68 8240 332b 3340 3a09 e13f 88af a0bf
000000d0: 0820 8fbf e32c 86c0 0862 6b40 2efe a1bf
000000e0: 3edb 01be 9847 1940 5034 05c1 c9fa 243e
000000f0: 6ccc 97bf 68a2 d1bf 9879 5abf d06c 21bf

v.v_net.2.weight f4 [64, 64]
4.2429676 -1.357845 -1.3381717 1.9617656 3.345504 1.2285734 1.5100913 0.7127792
5.5876327 3.9057095 -2.8268967 -8.401771 0.7409061 -0.98710614 2.3118765 -0.2437921
0.5539448 1.1754813 -0.56300527 -5.51546 -1.4408964 -2.4485447 1.3640105 -1.7075815
2.4445975 2.2968607 -2.6806586 -6.37001 -3.4281218 0.917235 -1.1471468 3.392404
-0.31524995 -3.4371393 5.9689918 2.2699685 1.4394786 -0.7265633 -0.25038207 3.7324111
3.2044466 2.8919146 0.9027642 -2.399297 -1.1212403 -0.6784705 0.48277038 -2.585512
1.2039257 -6.471502 -0.58732504 0.84397304 0.18058053 -0.6051039 0.4960968 -2.2425046
-1.5392578 1.5955819 2.8037086 -2.7382233 -1.9554873 -1.6403195 2.9624798 4.2691207
-1.3082868 -1.364906 -1.3827274 1.53828 2.301237 -0.5781955 -1.8434801 -2.1111355
-3.9514322 -2.143749 2.005659 6.54401 -0.9672705 1.8676126 1.5762655 6.895069
-0.5031839 3.2026894 2.3124502 3.6984324 0.86031735 2.2949803 3.0837162 4.0381308
-0.30999744 0.09987175 5.531843 -1.2299238 1.8794605 -0.2105335 -5.792143 2.6599436
0.94079417 0.17879586 -6.941832 0.16309546 0.29039475 -2.0912137 -1.60139 1.1143082
-2.635357 -0.5487194 1.5805842 0.27740887 0.8543598 0.5951655 2.3780901 4.064545
2.005685 5.6008396 0.8332658 -1.2702976 1.4705719 3.0463235 3.2387772 0.41085842
0.9324423 -0.5657316 1.1069821 2.3649168 -0.5437092 -1.4968218 -4.264424 -6.180752
-1.6919378 -3.06534 -1.0812601 3.5329404 1.1464562 -2.358573 -0.9273744 0.8218923
-1.2534854 1.1619978 -2.7082021 0.99149954 -1.370251 -1.0182831 -1.5696515 -3.6803112
-4.092633 -2.0402408 0.7161031 -0.13799864 3.0179117 -2.4444335 0.39624527 1.5437132
-1.2486154 -0.59527814 -2.1089056 4.4896297 2.2454557 1.8364443 -0.5496824 -2.9090707
-1.6768302 1.1063217 -1.6869316 1.1113236 -0.06743808 -0.8153772 -3.844832 -5.349739
-1.0533272 2.1899757 0.45918807 3.2291234 2.1407778 -2.2553663 0.47137776 -0.8248373
-3.0540123 -0.76589626 -2.27441 0.25890777 1.2285014 0.8414717 1.4199249 0.9987532
3.4376466 0.26315287 -2.904996 0.47549728 0.80722505 -2.4780598 0.23870267 -0.067317605
1.913512 2.0712817 3.9891098 -2.8014674 -2.1242228 -0.54715276 -0.3422815 4.668404
-1.6216453 -1.952871 0.43706518 -2.7384212 3.6386154 4.161718 2.0731068 -8.021089
0.60545117 -1.9449635 -2.630612 2.4289148 1.7627407 0.16123265 -2.8782315 3.7138677
5.8770895 -2.6975086 -3.1319544 2.4055755 -0.5945353 5.150229 3.1483257 1.5361642
-5.066933 -1.2543403 -0.44460565 0.9426139 0.04839321 -3.291695 -5.949624 -3.279917
-5.1600146 -2.5340574 -4.425463 2.4073853 1.0352193 -2.0323634 -2.3196454 4.0161037
-1.6795428 -1.5307721 0.1161233 -4.7500443 -2.0269387 -3.1434224 0.69407624 -2.3118668
-5.6496835 2.2957897 1.9166623 2.6709025 -2.9433584 1.1116246 -4.7181897 -1.2299848
00000000: 64c6 8740 ddcd adbf 3649 abbf 231b fb3f
00000010: bd1c 5640 e541 9d3f ac4a c13f b378 363f
00000020: e3cd b240 25f7 7940 e0eb 34c0 a76d 06c1
00000030: 06ac 3d3f fdb2 7cbf c9f5 1340 a3a4 79be
00000040: 54cf 0d3f 2c76 963f 1d21 10bf a67e b0c0
00000050: 4b6f b8bf f5b4 1cc0 e597 ae3f 0892 dabf
00000060: 4974 1c40 c4ff 1240 e98f 2bc0 1fd7 cbc0
00000070: 5966 5bc0 eacf 6a3f b5d5 92bf 261d 5940
00000080: 7168 a1be 17fa 5bc0 fb01 bf40 2a47 1140
00000090: d640 b83f 0d00 3abf 1432 80be d3df 6e40
000000a0: a715 4d40 2115 3940 8e1b 673f 158e 19c0
000000b0: cd84 8fbf 3eb0 2dbf ae2d f73e 0779 25c0
000000c0: 3d1a 9a3f 8b16 cfc0 ef5a 16bf 9e0e 583f
000000d0: 1aea 383e 17e8 1abf 6600 fe3e 3285 0fc0
000000e0: 6606 c5bf 073c cc3f f66f 3340 0d3f 2fc0
000000f0: 684d fabf fdf5 d1bf 4599 3d40 a39c 8840
00000100: f175 a7bf 3db5 aebf 36fd b0bf 5ce6 c43f
00000110: 7847 1340 9f04 14bf 28f7 ebbf d81c 07c0
00000120: 44e4 7cc0 2f33 09c0 b85c 0040 8868 d140
00000130: 0a9f 77bf ee0d ef3f 11c3 c93f 68a4 dc40
00000140: a9d0 00bf ddf8 4c40 2fff 1340 1eb3 6c40
00000150: c23d 5c3f f5e0 1240 9b5b 4540 5e38 8140
00000160: fcb7 9ebe 8f89 cc3d dc04 b140 256e 9dbf
00000170: 2992 f03f 1896 57be 3c59 b9c0 843c 2a40
00000180: e3d7 703f 4316 373e 7d23 dec0 7f02 273e
00000190: 9fae 943e 72d6 05c0 59fa ccbf a7a1 8e3f
000001a0: b0a9 28c0 e078 0cbf 9550 ca3f 8908 8e3e
000001b0: 53b7 5a3f c45c 183f a132 1840 c110 8240
000001c0: 255d 0040 143a b340 e850 553f 1d99 a2bf
000001d0: b33b bc3f f7f6 4240 2048 4f40 095c d23e
000001e0: 8ab4 6e3f c9d3 10bf 97b1 8d3f cc5a 1740
000001f0: 8730 0bbf db97 bfbf 2976 88c0 b8c8 c5c0
00000200: 6b91 d8bf 882e 44c0 bb66 8abf b21b 6240
00000210: 14bf 923f dcf2 16c0 6968 6dbf 8967 523f
00000220: 3672 a0bf 58bc 943f 2f53 2dc0 ead2 7d3f
00000230: 6364 afbf 1a57 82bf 57ea c8bf 388a 6bc0
00000240: d9f6 82c0 4e93 02c0 8852 373f 844f 0dbe
00000250: 7725 4140 9971 1cc0 a9e0 ca3e 6598 c53f
00000260: a1d2 9fbf 2664 18bf 4ff8 06c0 0cab 8f40
00000270: 8cb5 0f40 9b10 eb3f fcb7 0cbf 372e 3ac0
00000280: 5fa2 d6bf f39b 8d3f 60ed d7bf da3f 8e3f
00000290: fa1c 8abd 8fbc 50bf ba11 76c0 1031 abc0
000002a0: 6dd3 86bf 9028 0c40 b31a eb3e f5a9 4e40
000002b0: 8102 0940 ec57 10c0 6d58 f13e 8a28 53bf
000002c0: f074 43c0 c711 44bf ef8f 11c0 8f8f 843e
000002d0: 893f 9d3f b06a 573f 19c0 b53f 4aae 7f3f
000002e0: 6702 5c40 f9bb 863e 74eb 39c0 6174 f33e
000002f0: 4da6 4e3f 8898 1ec0 796e 743e d0dd 89bd
00000300: f6ed f43f e18f 0440 934d 7f40 3e4b 33c0
00000310: 44f3 07c0 3412 0cbf 853f afbe 9163 9540
00000320: 1392 cfbf adf7 f9bf 02c7 df3e 4b42 2fc0
00000330: 13df 6840 cb2c 8540 c8ad 0440 6156 00c1
00000340: d9fe 1a3f 90f4 f8bf f25b 28c0 5773 1b40
00000350: 7da1 e13f 2c1a 253e f234 38c0 02b0 6d40
00000360: 1e11 bc40 fba3 2cc0 f171 48c0 f3f4 1940
00000370: 7733 18bf adce a440 2b7e 4940 07a1 c43f
00000380: 5124 a2c0 398e a0bf 5aa3 e3be 254f 713f
00000390: f537 463d 22ab 52c0 5263 bec0 29ea 51c0
000003a0: d71e a5c0 ff2d 22c0 659d 8dc0 9a12 1a40
000003b0: 1182 843f 3e12 02c0 1275 14c0 ec83 8040
000003c0: 42fb d6bf 57f0 c3bf 0dd2 ed3d 5d00 98c0
000003d0: 5db9 01c0 d52d 49c0 fbae 313f a0f5 13c0
000003e0: 35ca b4c0 38ee 1240 3155 f53f 11f0 2a40
000003f0: fc5f 3cc0 b749 8e3f 69fb 96c0 2470 9dbf

v.v_net.2.bias f4 [64]
-0.0017714874 1.5017879 1.4256225 -1.0321144 -1.4978317 -0.19441353 -0.5039865 -1.3285306
0.5469036 -0.82410324 -0.056429014 -1.778519 -2.3475597 0.6441077 1.3683074 -2.0717258
0.46735296 1.8363477 -0.85684633 -1.9688783 -2.3318295 1.5579075 -1.7242008 -2.6980956
0.1819221 0.03332568 0.30526608 0.056948766 -2.1121972 -0.354782 -1.1716617 -0.57384324
-0.9707527 -0.0978782 -0.43560764 0.16467892 -0.93311054 -1.5277972 -0.83358103 -0.9024685
-0.033439476 1.3997116 -0.205369 -2.1697829 1.5012614 -1.2419668 0.94458175 0.32260087
0.05252163 -0.80757475 0.77114445 -0.90585554 0.9334166 0.15478545 1.0942625 -0.3370168
0.23178028 -0.49562246 3.303585 -1.0948493 -2.448229 2.7898803 0.12780681 -2.3449547
00000000: 4131 e8ba 963a c03f cc7a b63f 531c 84bf
00000010: f3b8 bfbf 5714 47be 4205 01bf 4a0d aabf
00000020: e001 0c3f 6ef8 52bf 1c22 67bd 83a6 e3bf
00000030: 6b3e 16c0 3ee4 243f b224 af3f 2897 04c0
00000040: e348 ef3e 710d eb3f 485a 5bbf 3404 fcbf
00000050: b23c 15c0 8369 c73f 9db2 dcbf 99ad 2cc0
00000060: c949 3a3e 8280 083d d64b 9c3e 1c43 693d
00000070: 3d2e 07c0 fca5 b5be 03f9 95bf 64e7 12bf
00000080: 4083 78bf 5e74 c8bd f707 dfbe 97a1 283e
00000090: 55e0 6ebf dc8e c3bf 9165 55bf 2d08 67bf
000000a0: d5f7 08bd c029 b33f 404c 52be b9dd 0ac0
000000b0: 5529 c03f c5f8 9ebf 1cd0 713f f12b a53e
000000c0: ec20 573d 38bd 4ebf b969 453f 26e6 67bf
000000d0: 64f4 6e3f 1480 1e3e cb10 8c3f 778d acbe
000000e0: cf57 6d3e 3ac2 fdbe f06d 5340 0624 8cbf
000000f0: c9af 1cc0 668d 3240 cadf 023e bd13 16c0

v.v_net.4.weight f4 [1, 64]
-20.76247 -29.193855 17.361208 26.53494 -16.450756 -21.496958 -12.982951 19.108759
-26.605446 -12.335052 -19.3827 -17.284863 -9.858607 -22.298073 13.541399 -11.501191
-12.135298 -26.689613 16.631516 -16.605362 -26.51693 16.862862 -15.461836 -24.682917
18.628029 21.82482 16.953438 31.984941 -37.74972 -12.738724 -16.417624 11.642635
-17.290562 20.357725 19.202068 -25.07477 -18.226532 -25.876888 14.450387 -23.774555
24.260584 17.014246 12.884836 33.071415 20.64576 16.963146 23.261463 -18.144932
-13.339145 -15.18057 15.600424 -29.653294 17.615795 -13.68178 -32.523884 17.294046
-18.513618 -14.542976 -33.217834 -8.784454 -15.329556 27.108463 19.465 -13.519801
00000000: 8a19 a6c1 048d e9c1 c1e3 8a41 8f47 d441
00000010: 269b 83c1 c5f9 abc1 2bba 4fc1 bdde 9841
00000020: f4d7 d4c1 5f5c 45c1 c50f 9bc1 6647 8ac1
00000030: dbbc 1dc1 7462 b2c1 92a9 5841 e104 38c1
00000040: 2e2a 42c1 5484 d5c1 580d 8541 c8d7 84c1
00000050: ac22 d4c1 24e7 8641 ae63 77c1 9d76 c5c1
00000060: 3406 9541 3b99 ae41 a4a0 8741 29e1 ff41
00000070: b7ff 16c2 d0d1 4bc1 4b57 83c1 3c48 3a41
00000080: 1253 8ac1 9fdc a241 d69d 9941 2199 c8c1
00000090: f0cf 91c1 de03 cfc1 c934 6741 4a32 bec1
000000a0: ad15 c241 2d1d 8841 4a28 4e41 2149 0442
000000b0: 842a a541 86b4 8741 7a17 ba41 d228 91c1
000000c0: 236d 55c1 9de3 72c1 569b 7941 f239 edc1
000000d0: 26ed 8c41 92e8 5ac1 7518 02c2 355a 8a41
000000e0: e41b 94c1 08b0 68c1 10df 04c2 208d 0cc1
000000f0: dd45 75c1 22de d841 52b8 9b41 1b51 58c1
