model_wts/s4_d3_m0.0_b1.0.ckpt (torch, 206875 bytes, 11 tensors)

pi.logits_net.0.weight f4 [64, 282]
00000000: 0686 0bbd e7c6 d33e 8e7f 67bd ea45 98bd
00000010: bfda e6b9 8d28 573b 5024 583d a638 313d
00000020: 5b21 cd3b b80a e13d 1d28 c53e 1fc9 be3e
00000030: bd54 1d3c 067e 34bc a555 8e3d e816 97bb
00000040: 1452 20bc 1da2 c23e 4644 103d 18f6 c4bd
00000050: cade 1dbd 9583 dfbc 2cac b13e d0b2 793d
00000060: d709 2f3d c123 33bb e552 3abc 81b3 b7bc
00000070: 061a 403d 2801 87bd 3002 dd3d fdbd 0e3d
00000080: 9101 c43e d8ee c13d e5bd 623c 5639 22bd
00000090: 3be6 eebc 57a8 063d 9aa2 d93d 898e 003c
000000a0: 0fca 2a3c a3c7 e63e 778e 353d ef76 3abd
000000b0: 9895 9e3e b029 2d3d 862b b93d 604d f83c
000000c0: 9dda c53e 6c66 543d d2ca a0bd 1e58 3bbb
000000d0: bfe3 e13e 0810 85bd 33bd b13e 5fc9 9f3d
000000e0: eb21 df3e 6291 3d3c 7e02 09ba c1d2 55ba
000000f0: 9014 abbd 63c8 e23c 61a4 81bd 270f e43e
00000100: a97a d33e c1ec ec3c 6118 d93c 591b bb3e
00000110: a391 b43e aec3 09bd 798e d43e a9de 6dbd
00000120: df68 1bbd 2fe4 a53e 6da0 bf3e 5c63 373d
00000130: 7f6b e13e 9b40 983c 3933 6cbd 1b1a 66bd
00000140: 8daf d63e 64fb e73d 337d a83c 96de b6bd
00000150: fd50 57bc 9ab5 1ebd 0d8c e33e 9bd0 20be
00000160: 0242 033f 620e d6be 6076 b03e 26ac d33e
00000170: b981 123f 1e9e d0be 03b7 69be 8f4e e4be
00000180: d015 543e 4ca6 973e dbdc 5c3e a494 93be
00000190: 8e74 35be d8df 053e e00a 963e 9b70 0cbe
000001a0: 98ff 463d 0aeb 293f 3f70 c8bd 66b1 d5be
000001b0: 5528 0fbd 4e66 41be ef62 983e 0999 5abe
000001c0: 2c76 283e 92c2 ceb9 9ec1 c5be d947 83be
000001d0: fd9f 3c3e 505e b8bd 1918 0d3e 3f5f 82be
000001e0: 1d35 ab3d 2655 42bd 3ada 663d 9dba 9b3e
000001f0: 6081 c7be d269 933e f02a 6dbe 9df5 13be
00000200: acf0 3d3e dec6 32be f248 013f 3bf2 973a
00000210: 1ae4 f9bb 5504 0abe 6430 87be d15c d23d
00000220: bca7 bfbd cbf9 a33e 2924 e0bd a520 c63d
00000230: b746 acbe 3c03 18be 4178 5a3d c69e 583e
00000240: 8306 05be 0e80 473e 5b48 ff3e 603b 72be
00000250: c915 923e 0d5b da3c 4bd3 213e 43f2 eb3e
00000260: c6b4 fabe 484a 82bd 3957 8fbd 955f 96be
00000270: 8ce8 03be 894e 42bc 7dc0 d9be 3488 b23b
00000280: 3a18 a63d a360 f73e 6d4a 853e 8103 f13c
00000290: 043d d4bd 6049 13be a1bf fbbd cca5 163f
000002a0: f70c df3b 907f 96be 020c 02bd fbf4 fcbd
000002b0: c7e8 7f3d a402 743e d43e bdbd c673 a13c
000002c0: 1951 c2be 743a 6a3d c388 bf3d 4663 08bd
000002d0: 8318 fa3e 1e93 38be 489d 873e 61d7 46be
000002e0: 7478 0f3f 706f 01be 69d9 f6be 8397 0c3f
000002f0: fe3d 153f 4e09 57bf d8e0 35bf 973b cf3d
00000300: 8bd4 f63e 8c37 a2bf 6d83 d43c c7ca 043f
00000310: 7604 e5be d17a bcbc f915 7d3f 5c3f b63e
00000320: d822 3e3e 46ae a8be 1bce 30bf 8b6f 563e
00000330: 20f8 583f 37d2 b33e 1365 32bf 68ed df3e
00000340: 6112 223d 3ff1 ed3e ff10 6bbd 2e03 2dbf
00000350: b0ee bfbe abc6 05bf 2f35 543d 9fd8 1f3f
00000360: 6f60 563f 3069 61be 31ce c7be a07b e33e
00000370: d04f bb3e ce40 1d3f 04b2 7cbe 5bf7 f5be
00000380: c677 253f de7c af3d b674 efbe 10f8 9a3e
00000390: b3ba ac3e 2183 abbe 01cc 32be d1f6 ba3c
000003a0: 8ed7 c23e 067c c13e fc2d 5ebe 38bb 85bd
000003b0: 3ac0 b2bd c6dd 693e 495d 52be a534 ddbd
000003c0: 87a0 cb3e d796 1e3d 300b 84bf 9d6c 0d3f
000003d0: 44ae ac3d a469 873e 8075 0dbf 132c 7dbe
000003e0: 3d18 853e 6dcf 38bd 52e6 f83d 0851 4cbf
000003f0: 8a7a ba3d 5c27 1fbf 3cd4 98bd b4bb dfbd
-0.03406336 0.41362688 -0.05651813 -0.0743521 -0.00044031997 0.0032830567 0.052769005 0.043266915
0.00626008 0.109883726 0.38507167 0.37262818 0.009602723 -0.011016374 0.06949929 -0.004610885
-0.009785194 0.38014308 0.03522136 -0.09617251 -0.038542546 -0.027284423 0.3470167 0.060961545
0.042733993 -0.0027334543 -0.011372303 -0.022424461 0.046899818 -0.065920174 0.10791433 0.034849156
0.38282445 0.09469384 0.01383922 -0.03960546 -0.029162517 0.032875385 0.10626717 0.007846483
0.010424151 0.45074186 0.04432532 -0.04552358 0.30973506 0.042276084 0.090415046 0.030310333
0.3864335 0.05185549 -0.07851185 -0.0028586457 0.4411907 -0.06497198 0.3471466 0.0780208
0.43580565 0.0115703065 -0.00052265066 -0.000815671 -0.08353531 0.027683442 -0.06330181 0.4454281
0.4130452 0.028921487 0.026500883 0.36544302 0.35267362 -0.03363388 0.41514948 -0.058073673
-0.03794181 0.32400653 0.37427083 0.04477249 0.44027326 0.018585494 -0.057666037 -0.05617724
0.4193081 0.11327246 0.020567512 -0.08929174 -0.013141868 -0.038747407 0.44442788 -0.15704577
0.51272595 -0.41807848 0.34465313 0.41342276 0.5722919 -0.40745634 -0.2282372 -0.44591185
0.20711446 0.29619062 0.21568625 -0.2882434 -0.17720243 0.13073671 0.29305172 -0.1371483
0.048583597 0.66374266 -0.09787034 -0.41736907 -0.034950573 -0.18886682 0.2976298 -0.21347441
0.16451329 -0.00039436348 -0.3862428 -0.25640753 0.18420406 -0.09002364 0.13778724 -0.25463292
0.0835974 -0.047444485 0.05636046 0.30415812 -0.38965893 0.28791672 -0.2316091 -0.14449163
0.1854884 -0.17458674 0.5050193 0.0011592576 -0.007626069 -0.13478215 -0.26404107 0.102716096
-0.09358165 0.32026514 -0.10944397 0.09674195 -0.336477 -0.14844984 0.05333734 0.21154317
-0.12990765 0.19482443 0.4985989 -0.23655462 0.28532246 0.026654745 0.15803258 0.4608327
-0.48966044 -0.06361824 -0.06999058 -0.29369798 -0.12881678 -0.011859545 -0.4252967 0.0054483656
0.081100896 0.48315915 0.26033345 0.029420616 -0.103632 -0.14383459 -0.1229241 0.58846736
0.0068069655 -0.29394197 -0.031749733 -0.12351414 0.062477853 0.23829132 -0.09240499 0.019708525
-0.37952498 0.05718465 0.09352257 -0.0332978 0.48846826 -0.18024871 0.26487184 -0.19418098
0.5604317 -0.12640166 -0.48212746 0.5491869 0.5829772 -0.8399857 -0.7104621 0.10118788
0.48209032 -1.2673202 0.025941575 0.51871914 -0.44729966 -0.023007782 0.9886165 0.35595214
0.1856798 -0.3294546 -0.6906449 0.20940988 0.8475361 0.3512132 -0.69685477 0.43735814
0.03956831 0.4647312 -0.057389256 -0.67582977 -0.37486792 -0.5225627 0.051808532 0.6243991
0.83740896 -0.22012782 -0.390245 0.44430256 0.3658433 0.6142701 -0.24677283 -0.4804028
0.64635885 0.085687384 -0.4676873 0.30267382 0.3373619 -0.3349848 -0.17460634 0.02282277
0.3805508 0.37789935 -0.21697229 -0.0652985 -0.087280706 0.22838506 -0.20543398 -0.10801057
0.3977091 0.03871807 -1.0315914 0.55243856 0.08431676 0.26447785 -0.55257416 -0.24723844
0.25995055 -0.04511969 0.12153305 -0.79811144 0.09105404 -0.6216943 -0.074623555 -0.109244734

pi.logits_net.0.bias f4 [64]
00000000: 695a d33d e743 babb 152c 843e a0a1 503d
00000010: 2d89 df3d d14e 60bc 0541 8b3d 5ae1 8ebe
00000020: 41c1 f0bc 6c0b df3d 3bb7 a93d dab5 d6bd
00000030: 553e d8be e43e 5d3d 1c4a b9bd f0e6 813e
00000040: 7d77 acbd 1d8b 4b3d 04fd 15bc e4b2 5e3d
00000050: 6ce7 8f3e d305 633d 57a5 db3c 6f63 ddbd
00000060: 521d 2abe d2d9 29be 423b 3abb 3667 93bd
00000070: 545e 723e ad57 9f3d b79b 263d 7117 523e
00000080: a589 483e d743 79be 373c 9b3c def7 cb3e
00000090: ede8 a8be ae36 3e3d ab3d d23e d43b 513e
000000a0: 1852 bdbc 2515 eb3d 971c 38bc b16e 22be
000000b0: 9b3e 0cbe 1595 88bd f2d4 ae3e aa06 d5bd
000000c0: a957 6cbd c3a7 d53e e15d 4dbd e915 c83e
000000d0: b36d 3bbc 0439 86be 0816 d6bd 3575 0bbd
000000e0: b547 233d 96d0 a03d f62a 9cbd ed8b 1dbd
000000f0: 5939 c8bc f283 473d 28b1 a03e 6543 bb3d
0.10319979 -0.005684364 0.25814882 0.050935388 0.10914836 -0.013690666 0.06799511 -0.27906305
-0.029389026 0.108908504 0.082869016 -0.10483904 -0.42235056 0.054015055 -0.09047338 0.25371504
-0.08421228 0.049693216 -0.009154562 0.054369822 0.28106248 0.055425476 0.026812239 -0.10809981
-0.16612747 -0.16586998 -0.0028416668 -0.0719742 0.23668796 0.07780395 0.040675845 0.20516755
0.19583757 -0.24342285 0.018949611 0.39837545 -0.32990208 0.046438865 0.41062674 0.20432979
-0.023110434 0.114786424 -0.011237285 -0.15862538 -0.13695757 -0.0666906 0.3414684 -0.10401662
-0.057700787 0.41729555 -0.050138358 0.39079216 -0.011439729 -0.26215374 -0.10453421 -0.034047324
0.039863307 0.078522846 -0.07625382 -0.03846352 -0.024441408 0.048709817 0.3138516 0.09143714

pi.logits_net.2.weight f4 [64, 64]
00000000: 9520 a13e 78d4 0bbe afd3 d33e e6f9 c93e
00000010: ca62 11be 1b5a c43e 4ccb 853d 4392 d8be
00000020: 2d7c 153f 5118 693f ff7b f33e 6d46 c53b
00000030: 0f29 8a3e d4b4 a93e a0bb 1b3f 15cc 95be
00000040: b3fd 363f 20fa 403f 3799 79be 4526 4f3e
00000050: 9761 0ebf b0e4 923f 38f3 10bf 4b4e 78be
00000060: 7ff8 723e b0e1 edbe e027 863e d162 de3d
00000070: 70b4 0539 8915 833f 0c46 44bf 8dfe d1be
00000080: 6b3c d73e e236 a43e 5727 ac3e b1b4 183e
00000090: 874e 323e 661b a3bd ce5f f5bd 0c20 ed3e
000000a0: fae1 b13e d8e4 a7bd 2298 b6bd 06cb 813c
000000b0: 5dd7 5cbf 39d4 91be dead 033f 429b 90bd
000000c0: 9097 bdbe 76e3 d53d 513c c5be c767 b73e
000000d0: 454d 06bf f27f 16bf 2153 14be 973d 1d3f
000000e0: da94 843f 769a 9c3d 0ed5 353e 4607 7a3f
000000f0: 092f 76be d5e7 dfbe 5de4 873e 1b2f 103c
00000100: 27f9 fabe 1dff 923e 6ea8 0e3f 7e6e 0f3e
00000110: d3ce 0ebf ee56 123e 6c4d 19bf f2ef 693f
00000120: 6555 b1be c93f 103d b483 cebe 32c0 123f
00000130: 9ad2 1d3f 798c efbe 9591 b03c 1d78 fc3d
00000140: a990 9abc 2a49 bebe 1181 103f 5a6c 6bbf
00000150: 2286 d53d 65e6 e4be 6cee 943e 9459 0e3f
00000160: 0031 23bd e3ff 323e 38ce 9bbe e2cf b83e
00000170: 86ce 30bf 750e 19bf 72e6 20bf 2c4a debe
00000180: 8d4e 79bd a101 243d ef31 2fbf 62d6 a83e
00000190: d745 1e3f 8219 29bf 0cec 2fbf 4971 0bbf
000001a0: 9443 113f 1fb3 29be 380e f1bc 214c c83e
000001b0: 2e62 2ebe c169 f7bb be49 6b3e acb8 89be
000001c0: e4c9 cfbe 4786 cebe 8a1e 003f a97f 2bbf
000001d0: b249 c53e 0f1d 87be 154f 9ebe 5366 a1be
000001e0: 0a88 91be ead0 15bf 665c 193e ebcd 023d
000001f0: c383 243d 1dd3 193f dd00 d8be 049f 25bd
00000200: bfdd 653e 2040 b03e a83b 453f aae7 bebe
00000210: a93c 1f3f 13fb 803e 5eb5 033e 6222 4fbe
00000220: cb73 af3e 7dbb 3e3f dee1 233e 8365 28bf
00000230: 15a4 95be 8f5c 9dbf 3996 623e 3a46 b33e
00000240: 8e74 84be e66d 82be 734d ddbe ed80 d53e
00000250: 23f2 96bd 3cc4 1e3f 24ca 1fbf 6728 45bd
00000260: 4ba5 e83e 00b8 03bf 5251 1d3f c98d 4cbc
00000270: c5ef d4bc d012 e93e f5a6 84bf c904 ef3c
00000280: 2b0f 163f 637e f6bc 4803 8d3d 0ff1 e13e
00000290: 7761 58bf 6128 413e 6a6b a93e af18 8a3e
000002a0: c6cb 7c3e e9d5 f0be 261f 843d 2553 78bd
000002b0: 15aa 83be 71c4 1dbd 7cab b63e 8425 fc3d
000002c0: 183d 5b3e 54ad 533c e1a4 dcbd 9138 efbd
000002d0: e1a0 f0bc 247e cdbe ffb2 a5be 61a9 423e
000002e0: ae1c c6be 6c77 a13e 4b93 533f 7b69 2cbe
000002f0: ef1a 863d 6ab0 163f 882a 293f c3c5 e4be
00000300: 0fee 953e 6e92 96bd fd24 433f 80ab 2dbe
00000310: 75b7 5fbf e87b ad3d 55df 80bf 0596 043e
00000320: 8522 dfbe 8220 7cbd 7f16 67bf 64a8 723e
00000330: bb40 c6bb 244b 19bf 7655 6a3e 554b 24be
00000340: fb5d 693e a5c6 0bbf a995 d93e 4e11 abbc
00000350: 23a9 1ebf af1a e6be f2e8 3dbe dad7 c2be
00000360: badc 123f e943 be3e 1f66 133e 9c50 0abe
00000370: 8aa3 90bd d736 413e 9c35 893e 1895 d4be
00000380: 323b c5be f3d4 63be 1775 75be 6559 53be
00000390: fda5 aa3e 9e3a a3bd eef1 43bf bcfa 79be
000003a0: d342 043f 87ec 093f 80b8 983f cb28 04bf
000003b0: 2ea8 cc3c 834c 3f3e 6675 373d 006d 2cbe
000003c0: 3ab0 0ebe dde1 b6bd b699 1abe c908 fbbe
000003d0: bde8 9e3e d1f9 3ebc a3b6 4c3f aec1 db3e
000003e0: 7eb9 c4be 2892 23bf 832e 8dbd 7640 8c3e
000003f0: 50af 83be 9b02 a93d b937 a43e 019e aebe
0.3147017 -0.13655269 0.4137244 0.3944847 -0.14197841 0.38349995 0.065329164 -0.4229909
0.583926 0.9105273 0.4755554 0.0060203583 0.2698445 0.33145773 0.6083317 -0.29257265
0.71480864 0.7538166 -0.24374853 0.20229442 -0.5561766 1.147604 -0.5662112 -0.24248616
0.23727606 -0.46461248 0.26202297 0.108586915 0.00012751087 1.0240947 -0.76669383 -0.4101452
0.42038283 0.32073122 0.33623764 0.14912678 0.17412768 -0.0796421 -0.11981164 0.46313512
0.3474272 -0.08197945 -0.08915736 0.01584388 -0.8626612 -0.28482226 0.51437175 -0.07060863
-0.37029696 0.10443775 -0.3852258 0.35821363 -0.52461654 -0.5878898 -0.14484836 0.61422104
1.0357926 0.076466486 0.17757055 0.9766735 -0.2404138 -0.4373156 0.26541415 0.008800293
-0.49018213 0.2871026 0.55725753 0.14006993 -0.5578434 0.14290974 -0.5988376 0.9138175
-0.34635463 0.03521708 -0.40334857 0.57324517 0.6164948 -0.4678686 0.021553794 0.12327597
-0.018867807 -0.37165195 0.5644694 -0.91962206 0.104259744 -0.44707027 0.2908815 0.55605435
-0.039841652 0.17480426 -0.3043077 0.36096102 -0.6906513 -0.59787685 -0.6285163 -0.43415964
-0.060865927 0.040040616 -0.6843557 0.3297606 0.6182532 -0.66054547 -0.68719554 -0.54469734
0.5674374 -0.16572236 -0.029425725 0.39120582 -0.1702964 -0.0075504486 0.22977349 -0.26898706
-0.40583718 -0.4033682 0.500466 -0.6699167 0.38532788 -0.26389357 -0.3091971 -0.3152338
-0.28424102 -0.585219 0.14976653 0.03193466 0.04016472 0.6008776 -0.4218816 -0.040434852
0.2244787 0.34423923 0.77044153 -0.3728612 0.62201935 0.25191554 0.12862155 -0.2022796
0.3426803 0.74504834 0.1600413 -0.65779895 -0.29226747 -1.2293872 0.22127618 0.35014516
-0.25870174 -0.2547447 -0.43223152 0.41699925 -0.07370403 0.6201818 -0.6241782 -0.048134234
0.4543861 -0.51452637 0.6145221 -0.012484976 -0.025993237 0.45522165 -1.0363451 0.029177086
0.58616894 -0.030089563 0.068853915 0.44129226 -0.8452372 0.1886306 0.33089763 0.26971957
0.24687108 -0.470382 0.064512536 -0.060626168 -0.257157 -0.03851742 0.35677707 0.12311843
0.21410024 0.012919743 -0.10773636 -0.11680711 -0.029373588 -0.401353 -0.32363126 0.19009925
-0.38693756 0.31536424 0.82646626 -0.16837113 0.06548106 0.58862936 0.6608052 -0.4468213
0.29283187 -0.07352148 0.76228315 -0.16959953 -0.8738931 0.08470899 -1.0068156 0.12947853
-0.43581024 -0.06155444 -0.902687 0.23697048 -0.006050197 -0.5988028 0.22884163 -0.16044362
0.22789757 -0.5459998 0.42496994 -0.020882275 -0.6197683 -0.44942233 -0.18545893 -0.38055307
0.5736805 0.37161186 0.14394425 -0.13507313 -0.070624426 0.18868576 0.26798713 -0.4152
-0.38521725 -0.22249202 -0.23970447 -0.2063957 0.33329764 -0.07970165 -0.7654103 -0.24412054
0.51664466 0.5387654 1.1931305 -0.51624745 0.024982538 0.1868153 0.044789694 -0.16838455
-0.13934413 -0.08929799 -0.15097699 -0.4903014 0.3103694 -0.011656241 0.7996618 0.42921203
-0.3842277 -0.6389489 -0.06893637 0.2739293 -0.2571969 0.0825245 0.32073763 -0.34104922

pi.logits_net.2.bias f4 [64]
00000000: 7b98 1d3e f13f a9be 068b c13e 8bb8 9cbe
00000010: 5da3 2abe 9a8a 76bc e2cb 51be b364 2bbe
00000020: a3cb 91be d189 2e3d 00a1 303e 102e 183f
00000030: 4efe 083f 7099 91be c78b 893e 2064 fcbe
00000040: 1bc0 afbe 92a7 b8bc 53c4 943e 045e d2bd
00000050: 6575 9fbe 013b 4bbe 31e4 0f3e 815e 803e
00000060: 5d57 053f feb4 613e 7a8b ea3e 184d 0bbf
00000070: 3c70 313f a847 da3d d872 6b3e 9e5e 1d3f
00000080: a786 223f d17d 2cbe 3ca5 853d 911f 693e
00000090: 87bf ac3d 390f 84bc 626e 1cbf 196f 5b3e
000000a0: 508b 813e 9592 003e cb81 6a3b 4253 323f
000000b0: dc31 b4be 612b 0dbf aa6e 903d de45 2cbe
000000c0: c259 ebbe 6b83 01be f2fc 0e3e f48e 21be
000000d0: 8bc3 1c3c 8f13 d2bd c11c 013e 18a0 62b9
000000e0: 8005 11be 5f5c 69bd db19 04be 5299 0f3e
000000f0: 8b71 1a3c b6c0 98bd 20d2 0cbe b928 1dbe
0.15390198 -0.33056596 0.3780138 -0.30609545 -0.1666388 -0.015047694 -0.20487931 -0.16737632
-0.28475675 0.0426119 0.17248917 0.59445286 0.5351304 -0.28437376 0.26864454 -0.4929514
-0.34326252 -0.022540841 0.29056033 -0.10271838 -0.31144252 -0.19846727 0.14051892 0.250721
0.5208643 0.220417 0.45809537 -0.5441451 0.6931188 0.106581986 0.22993028 0.614725
0.63486713 -0.1684487 0.065256566 0.22765948 0.084349684 -0.01612054 -0.6110593 0.21429099
0.253016 0.12555917 0.003578293 0.6965829 -0.3519429 -0.55144316 0.070523575 -0.16823527
-0.45966917 -0.12647788 0.13963678 -0.15777189 0.009568105 -0.10257637 0.12608625 -0.00021612679
-0.14162254 -0.056972858 -0.12900488 0.14023331 0.009426485 -0.07458632 -0.13752031 -0.15347566

pi.logits_net.4.weight f4 [87, 64]
00000000: a30c 8fbe 6bf2 74be 3317 e83e c47a 4d3e
00000010: 6f4c c2be 1518 24bf dbd3 3fbe ca8d 063e
00000020: 2bc0 8abe 10e0 6abf e9d5 04bf f35f 293f
00000030: 2bf4 203f 0ca4 f1bd 8e33 b2be f2b4 27be
00000040: 35f7 3b3e 97a2 bebe 9861 943e e1b7 43be
00000050: 114e 783f cfbd 17be 74fe 03bf e879 833e
00000060: 28b5 0f3f 6f64 383f d415 243f 3f3e e8bd
00000070: 195a 163f 22b1 1abf c8b1 653e bb9d 033f
00000080: 4cd6 3abd 486e 10bf f15c 99be e3ef 033d
00000090: 34c5 473f 28d0 d83c 3457 4fbe 57b5 523f
000000a0: 1857 be3e 4dd8 5e3f 69e8 cfbd 5892 eb3e
000000b0: fe13 cbbe 4306 05bf f895 0a3f 6854 84bf
000000c0: c1a2 6f3d eb4f 36bc 60c1 9cbe 1ef8 12be
000000d0: 7672 253f b06e 4a3f 9d15 95be 0b19 393e
000000e0: 81cb 38bf 1252 223f 70a0 02bf 5456 bc3e
000000f0: 2837 d63d 8963 45bf 8d04 a03e 0186 17bf
00000100: 2017 e13e 4b9f 23bf cd76 f63e 2be7 53be
00000110: 54e1 50bf 4ed7 03be 082b a8be d23f fbbd
00000120: 6139 ff3e 43d9 b1be 18fe f8bc c5ac 013f
00000130: 95f3 a7bd 4d72 34bf 3692 723f 323d a7be
00000140: ddfe 543e 6636 1c3e 700f 9abe b91a b8be
00000150: da7b 1c3e e386 183c 75e7 e43e 5339 ff3e
00000160: f900 b73e 467a b13e ebde a43e 2d51 05bf
00000170: eba5 383f 8507 68be 5eff 013f cac7 0e3f
00000180: 8201 dd3e fb62 133f 9fcb 693e 5d15 843e
00000190: 94d5 35be 6d54 36bf 9a0f ecbe abb6 e93e
000001a0: 1389 373f 659e d9be 0173 6e3e e715 a23e
000001b0: 3dac 433d f943 d3be d5c5 8a3e 3e04 84be
000001c0: 0ec0 23bf 6084 7fbf 7fa5 0c3f 1178 eabe
000001d0: a8e7 193e 4f27 db3e 0c7a 64bf 5a31 b9bc
000001e0: 5da1 8cbe 704d 4d3e bfad cebe 8c01 56bb
000001f0: ad20 b73e 450e 19bf 6c2a bc3f 05c5 67bf
00000200: 6c48 22bf 0acc 66be 0d80 aa3e 117e f7be
00000210: dd59 60be a13d 96bd 394c 17bf 0092 1d3e
00000220: 4af9 513f ebee d43e 5238 313f bc57 e43e
00000230: 6e76 8a3f afd7 0d3f 10d6 3dbf dbe6 94be
00000240: f24a 8fbd 1388 9d3f 16e8 b13d 5086 fbbe
00000250: 76a0 153d 4ebb 85bf 6a1d b03e 53c7 0cbf
00000260: 2f1c 143f 4daa 9c3d 2361 283f 4f82 26bf
00000270: 4acc c53e e88f f23d 4054 f1be 9c2e 173f
00000280: c4db 193f 72b6 43be 4797 113d 9505 1fbf
00000290: e6b7 d13d 2014 86bf f5de 91be fddf db3e
000002a0: f6fa 073f 08b8 533e 0bf3 9d3f 8f73 5e3f
000002b0: eae9 3cbf 33dc 3bbb f5aa 053e b58a bd3d
000002c0: 1287 4cbf 3844 6cbe ec3f b93d f402 0d3e
000002d0: 24a7 79bf 0896 b33f 42e6 28bf 39e7 223f
000002e0: 4a66 9a3f b134 a33f ed60 013e 1058 7b3f
000002f0: 7833 99bf b7b0 9e3f 1ede b03e 3bc5 1b3f
00000300: 506a 99be cb4b 81be c69d a3bd f5a1 5fbf
00000310: 70bc f9bd ea59 35be 6e4d 23bf 90a9 b33e
00000320: 6b5c 61bf 94e3 c4be 351a 98bf cd9c 903f
00000330: 2dfe 3cbe ea04 67bf 7087 503f 0fe4 df3e
00000340: 2c42 3cbf 7ae4 113f 5d8f 24be 2ef6 15bf
00000350: 67a2 69bf 6369 63bf aa2d 723f 6c76 5abf
00000360: cb8a 233f 1927 af3e 6be2 023f b8c5 ccbe
00000370: a7ef 5bbe aada 64be e355 6ebf 6467 fa3e
00000380: 3a89 a33d 782c 4e3d df8b 803f bc55 dd3e
00000390: 171f afbe 7121 0c3e f032 3fbf 8cdf d43e
000003a0: 26b8 223f 3a4a 94bf 3165 333e bc8b 1e3f
000003b0: 0cf7 013f 07ad 7abe f2db 6d3e e0d8 df3e
000003c0: 092e 62bf eee6 9e3e ef50 ab3d ad1e aebe
000003d0: e987 c6be 3c5b e2bd 9cf3 103f 85b3 3f3f
000003e0: 15e0 263d 752c cd3e 6841 b9be 78dc 0c3e
000003f0: 81de 9e3d e369 833c c2d6 32bd 26b3 91bf
-0.2793933 -0.239206 0.453302 0.20066363 -0.3794894 -0.64099246 -0.1873316 0.13140026
-0.27099738 -0.9174814 -0.518889 0.6616203 0.6287257 -0.117988676 -0.34804958 -0.16377619
0.18356021 -0.3723342 0.28980708 -0.19113113 0.9699412 -0.148185 -0.5156014 0.25678945
0.561358 0.7202825 0.6409581 -0.113399975 0.5873123 -0.60426533 0.224311 0.5141255
-0.045614526 -0.56418276 -0.2995372 0.032211196 0.78035283 0.026466444 -0.20248109 0.8230795
0.37175822 0.870488 -0.101517506 0.4601009 -0.3966369 -0.5196268 0.54135084 -1.0338259
0.058504824 -0.011127452 -0.30616283 -0.14352462 0.6462778 0.79075146 -0.29118052 0.1807596
-0.7218552 0.6340648 -0.5102606 0.36784613 0.10459739 -0.77105004 0.31253472 -0.5918885
0.43962955 -0.63914937 0.48137513 -0.20693652 -0.81593823 -0.12875101 -0.3284533 -0.12268032
0.49848464 -0.3473607 -0.030394599 0.5065425 -0.082007565 -0.7048691 0.9475435 -0.32663876
0.20800348 0.15255126 -0.30089903 -0.35957888 0.1528162 0.009309503 0.44707838 0.49848422
0.3574293 0.346636 0.32201323 -0.5207699 0.7212817 -0.22659118 0.50780284 0.55773604
0.43165213 0.5757291 0.22831582 0.2579755 -0.17757255 -0.71222574 -0.46105653 0.45647177
0.71693534 -0.42503658 0.23286058 0.31657335 0.04777168 -0.41262797 0.2710406 -0.25784487
-0.6396493 -0.99811363 0.54940027 -0.45794728 0.15029776 0.42803428 -0.8924873 -0.02260654
-0.2746686 0.20049071 -0.40366933 -0.003265473 0.35767117 -0.597874 1.4700446 -0.90535
-0.63391757 -0.22538772 0.3330082 -0.4833837 -0.2190928 -0.073359735 -0.5910068 0.15387726
0.8202101 0.4158853 0.6922656 0.44598186 1.0817392 0.5540723 -0.7415476 -0.2908238
-0.069967166 1.2307152 0.08686845 -0.4912591 0.03652998 -1.0447786 0.3439744 -0.54991645
0.57855505 0.0764967 0.6577322 -0.65042585 0.38632423 0.11843854 -0.4713459 0.59055495
0.6010096 -0.19112566 0.03554466 -0.6211789 0.10240154 -1.0474892 -0.28490415 0.42944327
0.5311731 0.20675671 1.2339796 0.8689508 -0.73794425 -0.0028665185 0.13053496 0.09254972
-0.798936 -0.23072898 0.09045395 0.13770658 -0.9752066 1.4030161 -0.65976346 0.6363407
1.2062466 1.2750455 0.1263463 0.9818125 -1.1968832 1.2397679 0.34544462 0.60847825
-0.29963923 -0.25253138 -0.07989077 -0.873565 -0.12194145 -0.1771008 -0.63790023 0.35090303
-0.88031644 -0.38454878 -1.1882998 1.1297852 -0.18456335 -0.90241873 0.8145666 0.43728682
-0.7353847 0.5698925 -0.16070314 -0.58578765 -0.9126343 -0.8883268 0.9460093 -0.8533695
0.63883656 0.34209517 0.51126736 -0.39994597 -0.21478139 -0.22349039 -0.930998 0.48907006
0.07985158 0.050335377 1.0042685 0.43229473 -0.34203407 0.13684632 -0.746871 0.41576803
0.6356224 -1.1585152 0.1751907 0.6193197 0.5076759 -0.24480067 0.23228434 0.4372015
-0.88351494 0.3103556 0.08365046 -0.3400778 -0.38775566 -0.11052558 0.5662172 0.748833
0.040741045 0.4007298 -0.36182714 0.13755977 0.07757283 0.016041702 -0.04366184 -1.1382797

pi.logits_net.4.bias f4 [87]
00000000: f7f7 5c3e 1401 043f 101f 063f 801f e13e
00000010: dffe 113e 5f12 e83e 4edb d23e fdf5 af3e
00000020: 7f55 013f 827d 063f 4d99 dc3e ff5d e13e
00000030: c9b2 fe3e 7863 ee3e d393 273e 8c6b e93e
00000040: 8015 103f 9caa 823e 512f 823e ae5c 9e3e
00000050: a617 cb3e 89e0 263f 4390 323f 993f 143f
00000060: ac23 df3e d672 123f 304b 0c3f c23e f73e
00000070: 1ccf c13e 8cf4 d13e 956f 143e 5987 2d3f
00000080: 4bce b23d d251 0c3f 2f5e 513e db6b cc3e
00000090: ae94 fc3e bf18 e53e 80b0 583e 4a83 433f
000000a0: fd0a 0a3f e15b 593e 9246 f13e bdeb cb3e
000000b0: 948e f13e c945 283f dba5 bd3e a9ff ea3d
000000c0: 1ebd a43e 104c 073f 98e9 0d3e 93e1 d73e
000000d0: 9120 753e a638 723e b5ce b33e 6da4 113e
000000e0: 6eee 783e a427 c53e 51d4 a13e afc7 363f
000000f0: 8ffd 4f3e df7a aa3e c6c9 a43e 8479 9e3e
00000100: dfa6 dd3e b436 e03e 3131 d03e e997 673e
00000110: 3b04 0b3f e2cb df3e 44a7 ae3e 0516 0e3f
00000120: 4f4a ef3e ebcf a43e 030d c33e 779f ff3e
00000130: 43b5 1c3f 6097 1c3f 71b3 0e3f a39b bd3e
00000140: d413 f33e 4083 203e 5739 1c3f 1743 ac3e
00000150: 731d 623e ddf6 233f 869d a33a
0.21578966 0.51564145 0.5239115 0.43969345 0.14257382 0.45326516 0.4118294 0.34367362
0.5052108 0.5253526 0.4308571 0.44017026 0.49745777 0.46560264 0.16364984 0.45589864
0.56282806 0.2552079 0.25426725 0.30930084 0.3966648 0.65186363 0.69751376 0.5790954
0.43581903 0.57206476 0.5480223 0.48290068 0.37853324 0.41006887 0.1449569 0.6778465
0.087307535 0.5481235 0.20446084 0.39926037 0.49332184 0.44745442 0.2116108 0.76372206
0.53923017 0.21226455 0.47124153 0.39828292 0.4717909 0.65731484 0.370406 0.114745446
0.32175535 0.5285044 0.1385864 0.42164287 0.23938204 0.23654422 0.35118642 0.1422288
0.24309704 0.38506806 0.31607297 0.71398443 0.20311569 0.33296868 0.3218519 0.30952084
0.43291375 0.43791735 0.4066253 0.22616543 0.5430333 0.43710238 0.3411199 0.5550235
0.4673638 0.3218988 0.38095865 0.4992635 0.61214083 0.6116848 0.55742556 0.37032804
0.47476065 0.15675068 0.61024994 0.33644935 0.22081546 0.6404856 0.0012482859

v.v_net.0.weight f4 [64, 282]
00000000: 33e6 aebf 9eb9 d6bd 768e 533e 1a1e 8abf
00000010: 5b8c 7a3f 3382 773f f6c6 87bf 0505 88bf
00000020: e023 643e d39d 263f ae56 b3bd 9898 afbd
00000030: a175 afbf c0e3 193e a0a0 743f acec 86bf
00000040: 6956 b0bf 3a2f 5fbe f8d9 7f3f 098b 9bbf
00000050: 135b acbf 696c 78bf e144 71bf d893 753f
00000060: 6f0c c8be 3489 6a3e b9da 99bf 0f49 a5bf
00000070: 6916 82bf b5d3 a7bf 7151 743f 94d4 603e
00000080: 0867 21be 9b4b 603f 59e8 9bbf 2649 85bf
00000090: db6e 88bf d87a 613e fc62 833f 0d47 833e
000000a0: 384c 573e afdd a5bd dd40 823e 204a 5d3e
000000b0: 37d3 7dbf badf 1d3e f782 7e3f 56e8 833f
000000c0: 2c1f 24be ee83 84bf c985 a3bf 8553 a7bf
000000d0: 255b 0cbe 14dd 453e 4e43 92bd dd7d 6b3f
000000e0: bac2 60bd 0fa3 a5bf 425a 123e dff1 a0bf
000000f0: 050b 9dbf 5da6 823e 0c32 75bf e47b f8bd
00000100: f414 1bbe fcfc 463e d143 91be d2dc 1abe
00000110: 5d0c 8abf 6179 aabf 4a6a 2ebe 79cf 74bf
00000120: 2671 1d3e 4d79 81bf 1ce2 83bd 4ff7 7bbf
00000130: 00b8 cabd 1bbf 83bf a29b 8cbf eadb 123e
00000140: e824 2fbd 45d6 6b3f db86 81bf b5be 98bf
00000150: 04ed 583e 15a7 a6bf 8e56 dabd bcd5 4bc0
00000160: 171a a2c0 52d9 273f 235b c0bf 887d 5abf
00000170: c73c babf f461 cd3e b197 863f 1226 f7bd
00000180: eea4 e1bf c63c 4bc0 50c6 edbf 11b3 343f
00000190: 2095 48bf 6826 c2bf f0f0 7bbe 2590 25bf
000001a0: 373e edbe f082 33c0 7168 1bc0 957c 3fbf
000001b0: 78b0 2dbf bc8d c3bf 1508 3fbf 0cac 7b3f
000001c0: d096 8cbe 5235 433f d4d1 073f 984a 613b
000001d0: 213b 6e3f 5d13 c6bf 66ee 72bf 80b5 46c0
000001e0: 1dfe febf 1873 c83f d223 be3f ecc9 bcbe
000001f0: ab98 193f 9b11 d7bf 77cd 1e3d 2091 0bbf
00000200: 3595 2ac0 5527 18bf a40c 043f e1f8 0fc0
00000210: 3e47 dfbe 2a60 16c0 2e42 82be 9f85 b7bf
00000220: cde8 8abe c89d 91c0 87c0 96be acd7 a4bf
00000230: ca85 85bf cb05 40c0 2807 8ebf d693 c0bf
00000240: bba5 b6bf 6779 9bbd deec 603f db1f 3f3f
00000250: 7d33 d0bf 5f8c 99bf dc89 b9bf 690e 32bf
00000260: 5316 d53e b652 ea3e f6bc 3cc0 4b8a 843e
00000270: faab 50c0 a575 913e a122 60be 942a 953f
00000280: c03d efbf 6dd6 22bf b4bd 24be cd8c 0ec0
00000290: ecd3 273e 3855 8ebf ac93 fcbe 8b95 6abf
000002a0: e80a 4bc0 45ff 35be 3ec9 15c0 59f0 e53f
000002b0: 7258 11c0 ce82 c5c0 af71 09bf b967 34bf
000002c0: 37f2 d0bf 3b49 193f ab48 1fbf 325c 6140
000002d0: a48f 8ec0 699b 69be c22d ebbf ba41 98be
000002e0: 46e3 48bf d555 23c0 72d4 4940 1ef1 b83e
000002f0: 2e35 25c0 1067 14bf eef0 a13e dbdd e7bf
00000300: 0c7f 47bf afaf 9d40 741f c1bd a4b5 f2bf
00000310: 302c 5fbe 1fb2 463e d675 3ac0 e46d 2d3d
00000320: 2a3d 5c3f b20e 62bf 68ce e1be 511d 0dbf
00000330: 0362 cdbe 84fb 1a40 14f7 10bf a1c1 d8bf
00000340: 11b8 a2bf eaf4 3ebf 244b b63f 6336 9dbf
00000350: 49e3 a93f f700 b4be 0d62 a33f 0dfb 143f
00000360: ca66 933e 4deb a4bd 6eaf 62bf 8a89 4fbd
00000370: 0076 40be 4b9a 8e3f 66ab b5c0 868d dd3e
00000380: 83fe 1440 3b0e ad3d c591 7b3f 68bb 6c3f
00000390: 480b c93d d49c 0f3f d95f afbf d2f4 cd3e
000003a0: b038 33be 76bd d83e 79d3 67bf a27d 8d3f
000003b0: bcad 8c3d a81b db3f ef30 e6bf 4dd5 013f
000003c0: e4b1 5440 0137 81be 43f1 c33f 2bd9 15bf
000003d0: bdf1 8cbf 870e c4bf 3f4e 603f f0ca cd3e
000003e0: ef75 0ac0 38cc 2bbf 2bb4 3d3f c2d3 f33e
000003f0: 2e54 f8bf 7265 93bf 4bcd efbe 6d9a 713f
-1.3664001 -0.104846224 0.20659813 -1.0790436 0.97870415 0.96683043 -1.0607593 -1.0626532
0.2227931 0.6508457 -0.08756767 -0.08574027 -1.3707772 0.15028286 0.95557594 -1.0540977
-1.377637 -0.21795359 0.9994197 -1.2151805 -1.3465294 -0.9704042 -0.94245726 0.95928717
-0.39071986 0.22903901 -1.2019874 -1.2912921 -1.0163089 -1.3111483 0.9543677 0.21956092
-0.1576196 0.87615365 -1.2180282 -1.0412948 -1.065883 0.22019517 1.0264583 0.25640145
0.21025169 -0.080989234 0.25440112 0.21610308 -0.99150413 0.15417376 0.99418586 1.0305278
-0.16027516 -1.0352762 -1.2775203 -1.3072363 -0.13706644 0.19322616 -0.071417436 0.9198893
-0.054873206 -1.2940387 0.14292243 -1.2573813 -1.2268988 0.2551755 -0.9577949 -0.12133005
-0.15144712 0.19432443 -0.28372052 -0.15123299 -1.0785023 -1.3318292 -0.17032734 -0.9562908
0.15375194 -1.0115143 -0.06439611 -0.9842424 -0.098983765 -1.0292696 -1.0984995 0.14341703
-0.042759806 0.92123824 -1.011928 -1.1933199 0.21184164 -1.3019739 -0.1066104 -3.1849203
-5.065685 0.6556598 -1.5027813 -0.85347795 -1.4549798 0.40113795 1.0515043 -0.12067808
-1.7628458 -3.1755843 -1.8576145 0.70585734 -0.78352547 -1.5167971 -0.24603629 -0.6467307
-0.4633653 -2.8048668 -2.4282496 -0.7479947 -0.67847395 -1.5277629 -0.7462171 0.983094
-0.2745881 0.76253235 0.5305455 0.0034376737 0.93058974 -1.5474659 -0.9489502 -3.104828
-1.9921299 1.5660124 1.4854681 -0.36872804 0.5999858 -1.6802248 0.038770165 -0.5451832
-2.6653569 -0.59435016 0.5158179 -2.2495654 -0.4360904 -2.3496194 -0.25441116 -1.4337653
-0.27130738 -4.5505104 -0.29443762 -1.2878318 -1.0431454 -3.0003536 -1.1095934 -1.5045116
-1.4269327 -0.07591515 0.8786143 0.7465798 -1.6265713 -1.1995963 -1.4495196 -0.6955324
0.41618595 0.45766228 -2.9490333 0.2588676 -3.2604966 0.28410068 -0.2188821 1.1653619
-1.869072 -0.6360844 -0.16087991 -2.2273438 0.16389436 -1.1119757 -0.49331415 -0.91634434
-3.1725407 -0.17773159 -2.3404078 1.7963973 -2.2710233 -6.1722174 -0.5368909 -0.7047077
-1.6323918 0.59877366 -0.6222026 3.5212522 -4.4550343 -0.2281319 -1.8373339 -0.29737645
-0.7847179 -2.5521138 3.1535916 0.36121458 -2.5813708 -0.5796976 0.31629127 -1.811458
-0.77928233 4.9276958 -0.09429827 -1.8961682 -0.217942 0.19403885 -2.9134421 0.042341128
0.8603083 -0.88303673 -0.44102788 -0.5512286 -0.4011384 2.4216013 -0.5662701 -1.6934091
-1.2712423 -0.7459246 1.4241681 -1.2282223 1.3272487 -0.35156986 1.2764298 0.58195573
0.2878936 -0.080526926 -0.88548934 -0.050668277 -0.18795013 1.1140836 -5.6771727 0.43272036
2.3280342 0.0844998 0.982693 0.9247346 0.09816605 0.56098676 -1.3701125 0.40225846
-0.17502093 0.42332047 -0.90557057 1.1053965 0.06869075 1.7117815 -1.7983683 0.50716096
3.3233576 -0.25237277 1.5308002 -0.585345 -1.1011273 -1.5316933 0.87619394 0.40193892
-2.163448 -0.6710849 0.7410304 0.47622496 -1.940069 -1.1515334 -0.46836314 0.9437626

v.v_net.0.bias f4 [64]
00000000: 1b07 a4c0 5f3e 9d3e 8ec0 d840 6776 71c0
00000010: e2cf 18c1 8788 1540 40a6 4d40 c7eb 2dc0
00000020: 498e 9cbf b9fd 30c0 7c79 edc0 c381 3540
00000030: e501 ecc0 a702 83c0 f505 2e40 50b7 b2bf
00000040: 7293 58c0 574f e5bf 0360 3240 8fdd b2c0
00000050: f941 6cbf 59fb 863f 21d8 8d40 7485 b0c0
00000060: cf76 b140 902c e33c 915a 5bbf 5d65 41c0
00000070: 2098 9cc0 0439 a940 1eb1 1ec0 e4f6 9bc0
00000080: 83ca 1a3f 6328 bfc0 9b45 fc3f 73cd 83c0
00000090: b43a 9cbf b478 5440 31a3 44c0 e17d 2ec0
000000a0: 2544 8dc0 6f27 0a3f 40c2 933f 7d99 d03e
000000b0: 990e c740 2aaf 50be 48b5 1fbf 85ff 7a40
000000c0: e029 99c0 85cb b13e 377e 8240 06ba 293f
000000d0: 3d86 9fbe 38d5 b4bf 35bd 313f 6218 d2bf
000000e0: eb10 4a40 1c24 cdc0 3c63 c5bf 496c 1a40
000000f0: 37f9 c4c0 2c5e d0c0 f6e4 e23f 866d 923f
-5.1258674 0.30711648 6.773505 -3.7728517 -9.550753 2.336458 3.213272 -2.7175157
-1.2230922 -2.765486 -7.4210796 2.836045 -7.3752313 -4.094074 2.7191136 -1.3962193
-3.3839993 -1.7914838 2.78711 -5.5895457 -0.92288166 1.0545455 4.432633 -5.5162907
5.545753 0.02773121 -0.8568507 -3.0218117 -4.89357 5.28821 -2.4795604 -4.873888
0.6046526 -5.97368 1.9708742 -4.1188293 -1.2205415 3.3198671 -3.0724604 -2.726433
-4.4145684 0.5396642 1.1543655 0.40742102 6.220532 -0.2037932 -0.6238599 3.9218457
-4.7863617 0.34725586 4.077907 0.66299474 -0.31157103 -1.4127569 0.6942933 -1.6413691
3.1572826 -6.410658 -1.5420909 2.4128592 -6.1554217 -6.5114956 1.7726123 1.1439674

v.v_net.2.weight f4 [64, 64]
00000000: d452 53be ef75 df3f 8a51 3040 c963 82c0
00000010: 9381 0bc0 7383 5d3f d463 c13f 9cfc 0e3f
00000020: f418 263e 371e bfc0 4003 7f3f e429 563f
00000030: 84ab b8be 35c9 77bd 779f 9ebf 0790 ebbf
00000040: 0f2b 9fbf 0fbf 4d40 52ef abbf ebaa 06c0
00000050: 2824 15bc 1500 b73e bf2e ee3f 3426 50be
00000060: e5c0 4a3f ecfa 9b3e 4413 4ac0 1591 2dbf
00000070: aca1 8dbf fcd5 8cbf 0994 3cc0 4e92 d43e
00000080: 5a53 01c0 892f a8bf fb9d b2bf 95f8 ebbd
00000090: 3d91 833e 67fd fd40 d0c9 3dbf c269 57bf
000000a0: 63c8 1c3e f18d 63bf 117c 89bf 2a71 8fbf
000000b0: a981 ccbf 04fc c140 7412 2dc0 132c 55c0
000000c0: 64fe b13e d904 06c0 b2d0 493f 36c5 3a3f
000000d0: 2895 c53f ac59 3fbf 1b63 1b40 fc42 81c0
000000e0: 16b4 7a3f 0947 d6bf 2fe7 6ec0 a272 7940
000000f0: a10c 6ebd f1ef 8fbf bfa7 7f3f 3be9 383f
00000100: d0e1 8dbf 7d00 4540 2a2d 6fbf eacd 41bf
00000110: 2ecf bf3e 9a31 bbbe 6150 1c40 51a2 2640
00000120: 306f 3b40 8ae0 943f da76 9140 871c 2640
00000130: 7fd1 1540 5be4 bdbf ff4c 6940 9eb4 07c0
00000140: 7152 40c0 04d5 14c0 578c 47c0 4f7a 0bc0
00000150: ca2f 1ac0 00b0 8540 7090 a0bd 7a41 93be
00000160: fc52 44bf 4d5e 2b40 ffc4 b3be 3e1b 8e3f
00000170: f9cf c13f 6d56 75be 0580 a4c0 b2ba 10c0
00000180: f8a5 043f 54e7 9e3f 7261 b3bf 5c36 2140
00000190: ae15 bbbf 1b5f 7dbe 3bd4 953f b9d6 a93f
000001a0: cea9 4e3f 86c7 6b3f 18c0 ae3f e3e6 e7bf
000001b0: 42ac 4f40 d160 c340 168e 943e 341d 2abf
000001c0: 7749 273f 9066 36c0 73c0 c9bf c42a 3bbf
000001d0: f913 e3bf 55b6 60bf 8f88 e53f e6ef 76c0
000001e0: 8878 8f3f 549c dfbf da38 c5bf 5aa0 2340
000001f0: d89f 7640 e180 f33e 5593 c03f f23c 30be
00000200: a1df 693f 9736 ab3f f89f 4140 c4d9 73c0
00000210: 1e96 23be 2556 973f 7645 3d3f 42bc 873f
00000220: 3264 83bf fabf 86c0 6cf3 59c0 f0c0 5a3f
00000230: ea83 6a40 d79e 9f3f 87df b6bf 3f51 66bf
00000240: a74d 8fbf 8395 9c3e ea1c 273f f92d 8f3f
00000250: 093e 1abf 3c2e 1a3f 4472 0640 a1bc 573f
00000260: fcea e13f 7d37 6f3f 59ac 62bf 314d a7bf
00000270: e08c c3bf 1c38 05bf 4ed0 c0bf b331 59c0
00000280: 280b 03bf 17e1 bdc0 c55e c53c 8ac6 2ec0
00000290: 47e4 b23f 276f 2a40 03e7 7abf c7f6 353f
000002a0: c7df cdbf 18b4 85bf 2bf7 08c0 ca90 8ebe
000002b0: 6c43 c23e df97 19bf 803f d0bf d87c 8abf
000002c0: 3123 163f 2eb0 a9c0 9a54 f53f 22f8 0c3f
000002d0: 3162 373f aa3e dcbf f2ae d1be 5dfe 9abe
000002e0: ebf1 0340 8b6a 5a3f 2b55 d6be ea1e d23f
000002f0: 017d 3cbf 1586 84bf 6535 e73e 3a65 03c0
00000300: 3161 8abf 0224 4bbf aa03 2f3f 987d 2eba
00000310: 9b30 79c0 0a78 bc3f 5dbc 9cbf f056 fd3e
00000320: f3c7 79c0 c6f6 bebd 7e61 50bf 3cde 993e
00000330: 02f5 ebbe a16b ac3f ad4c 8c3f 7c00 a93f
00000340: 71e3 453e 6577 78be 0799 b83f f18f e7bf
00000350: 079b 7d3f 9347 cb3f e35f 35be b7e3 90bf
00000360: 840f 4d3f 98ca 9abf aada 84bf 75b7 e2bf
00000370: 9659 a2bf 2630 8cbf 808d eebd b927 1dc0
00000380: 28a5 2d3f 922b 413d 7a0d f13f 3a93 313f
00000390: 8017 a3bf d8a9 9e3f 7011 5cc0 dde9 0bbf
000003a0: d355 03c0 8e28 ea3f 9b46 5e3f 7f16 fe3e
000003b0: 88b2 d13c 71d5 c1c0 2627 1b3f 7b40 923f
000003c0: b9ff 4cc0 431e 86bf 27be 283f df5f 1540
000003d0: e56a 643e 7faf f9bf 0102 32bf ffd9 0e3e
000003e0: 2c51 82be 0e38 ad3f e924 9d3f 0bfb b9bf
000003f0: 6f8a a0bf 7393 b03f 4bcb 87bf 0517 6d3e
-0.20637065 1.7457865 2.7549767 -4.074681 -2.1797836 0.865287 1.510859 0.558542
0.16220456 -5.9724383 0.99614334 0.8365767 -0.36068356 -0.06049462 -1.2392415 -1.8403329
-1.2435015 3.2147863 -1.343241 -2.104182 -0.009102859 0.3574225 1.8608016 -0.20327073
0.79200584 0.30464876 -3.1574259 -0.677995 -1.1064963 -1.1002803 -2.9465353 0.41517872
-2.0207124 -1.3139507 -1.3954462 -0.11522023 0.25696746 7.937183 -0.74136066 -0.8414575
0.15310816 -0.8888846 -1.0740987 -1.120641 -1.5977069 6.0620136 -2.7042513 -3.330815
0.34764397 -2.0940459 0.7883407 0.7295717 1.5436144 -0.74746203 2.427924 -4.039427
0.9793104 -1.6740428 -3.7328603 3.8976216 -0.058117513 -1.1245099 0.99865335 0.7223088
-1.1084538 3.0781548 -0.9342829 -0.75704825 0.37462753 -0.3656128 2.442406 2.603657
2.9286613 1.1631024 4.5457582 2.5954912 2.3409116 -1.4835314 3.6453245 -2.120399
-3.0050318 -2.3255014 -3.1179407 -2.1793401 -2.4091668 4.1777344 -0.07840049 -0.28760892
-0.76689124 2.6776307 -0.35111234 1.1102064 1.5141593 -0.2395875 -5.1406274 -2.261395
0.5181575 1.2414346 -1.4014113 2.5189428 -1.4615991 -0.24743311 1.1705393 1.3268653
0.8072785 0.92101324 1.3652372 -1.8117336 3.2448888 6.1055684 0.29014653 -0.6645081
0.65346473 -2.85001 -1.5761856 -0.7311213 -1.774047 -0.87778217 1.7932299 -3.8583922
1.1208658 -1.7469583 -1.5407975 2.556662 3.853506 0.47559264 1.5044962 -0.17210749
0.91356856 1.3376034 3.0253887 -3.8101664 -0.15975234 1.1823164 0.73934114 1.0604327
-1.0264952 -4.2109346 -3.4054823 0.8545065 3.6643014 1.2470349 -1.4286965 -0.8996772
-1.1195573 0.30582818 0.65278494 1.1185905 -0.6025091 0.602268 2.1007242 0.842722
1.7649837 0.93444043 -0.8854423 -1.3070432 -1.5277367 -0.5203874 -1.506357 -3.3936584
-0.511889 -5.933727 0.024093041 -2.7308679 1.3975915 2.6630342 -0.98008746 0.7107968
-1.6083916 -1.0445585 -2.140086 -0.2784484 0.37942064 -0.5999736 -1.6269379 -1.0819349
0.5864745 -5.3027563 1.9166443 0.5506612 0.71634203 -1.7206624 -0.40953785 -0.3027219
2.0616405 0.8531882 -0.41861853 1.6415684 -0.7362824 -1.0353419 0.45157924 -2.0530534
-1.081091 -0.7935182 0.68364966 -0.0006656288 -3.8935916 1.4724133 -1.2244984 0.4948039
-3.902829 -0.09324412 -0.8139876 0.30052364 -0.46085364 1.3470346 1.09609 1.3203273
0.19325043 -0.24264295 1.44217 -1.8090802 0.9906468 1.5881218 -0.17712359 -1.1319493
0.801018 -1.2093077 -1.0379231 -1.7712237 -1.268359 -1.0952194 -0.11648083 -2.4555495
0.67830133 0.047160693 1.8832238 0.69365275 -1.2741547 1.2395582 -3.4385643 -0.5465372
-2.0521133 1.8293626 0.86826485 0.49626538 0.025597826 -6.057305 0.6060661 1.1425928
-3.203108 -1.0477985 0.6591515 2.3339765 0.22306402 -1.9506682 -0.6953431 0.13950346
-0.25452554 1.3532732 1.2276889 -1.4529737 -1.2542247 1.3794998 -1.0608915 0.23153313

v.v_net.2.bias f4 [64]
00000000: 86dc e73d 7c3c 3abf 6553 5fbf 4e5d 7bbf
00000010: 1845 623f 48c3 0b3f 616c 133f 4d0c a6bf
00000020: a85b 0ebe b53b c53e c0ee c13f 7020 c73e
00000030: 5f16 f83f da68 b43e 8986 c3bf d7f5 303f
00000040: e81f c93f 55a9 7a3f 0ff1 0ebf e813 c53f
00000050: 35c3 433d a05a c2bf f1b8 a03f 3b1e cf3f
00000060: 20ad bdbf f4c2 22be 722e 86bf 652f b73e
00000070: 0d49 0b3f eb45 d1bd f6b6 dc3f 0a66 42bf
00000080: 4cd4 3c3f a039 bfbf cf74 98bf bbbc 613f
00000090: e5e7 2e3f fbfb 643f c515 56bf dbd9 673f
000000a0: 5c55 07be 0ea1 06c0 0d36 98bf e906 c8bf
000000b0: f0ba 20bf 9434 d0bf be57 84bf 54be 0cbf
000000c0: dfda 343f e3fa 7a3f 135f 91bf 5782 9c3f
000000d0: 9798 b3bf 98ce f73e 0d93 c33e f644 063e
000000e0: 08cc 1f3f 70a4 453f 3fe5 f33f 1a63 c73d
000000f0: 463c f53e 8c15 9bbe b9e9 d8bf 6e5c 653f
0.113213584 -0.7274854 -0.87236625 -0.98189247 0.8838668 0.5459485 0.5758725 -1.2972504
-0.13902152 0.38522115 1.5150986 0.38891935 1.9381827 0.35236245 -1.5275432 0.6912512
1.5712862 0.9791463 -0.55836576 1.53967 0.047793586 -1.5183907 1.255644 1.6181101
-1.4818459 -0.15894681 -1.0482924 0.35778347 0.5440834 -0.10218414 1.7243335 -0.7593695
0.7376144 -1.4939461 -1.1910647 0.88178605 0.6832259 0.8944699 -0.8362697 0.90566796
-0.13216156 -2.10358 -1.1891495 -1.5627109 -0.62785244 -1.6266046 -1.0339277 -0.5497792
0.7064647 0.9803907 -1.1357139 1.2227277 -1.4030942 0.48399806 0.38198128 0.13112244
0.624207 0.77204037 1.9054335 0.09735699 0.47897547 -0.30289876 -1.6946326 0.8959416

v.v_net.4.weight f4 [1, 64]
00000000: 4b0a 60c1 c28a aec0 2fae 00c1 68a1 7e40
00000010: 1068 d9c1 4efe c5c0 ada4 93c0 0183 4842
00000020: ae43 84bf 99d6 d840 9c17 9fc1 f1a7 8abe
00000030: 39a9 89c1 a011 9bc0 bccf 2f41 9b7d 26c1
00000040: 50e9 d5c1 9154 85c1 865b 2b40 825a a340
00000050: 7fe4 55bd 1d6f e041 dff8 8ec1 51ad 43c0
00000060: 70ab ca41 e314 ae40 81e8 0741 ff76 e2bf
00000070: 962e b140 ac8b 9cc0 ee40 76c1 12a2 05c0
00000080: 26a6 05c1 10b6 7a41 a76d fb41 6f8d a8c0
00000090: 83f1 8040 aa3f 6741 746f ab41 eb03 2cc1
000000a0: 12f7 f440 e638 b6bf 10fc 4d41 faea 9940
000000b0: 116d 3741 030a 5c41 7ca5 dcc0 e388 0841
000000c0: 8084 59c1 1de8 94c1 e5cd af40 2786 bdc1
000000d0: b32e c7c0 d7c5 8c41 c364 e240 cddf 08c1
000000e0: 52c3 99c0 08dd d8c0 f32a b9c0 e19f e33e
000000f0: e233 05c1 be34 1ac0 8b46 bac0 6605 a5c1
-14.002513 -5.454438 -8.042525 3.9786015 -27.175812 -6.187293 -4.613852 50.127934
-1.0333154 6.776196 -19.886528 -0.27081254 -17.207628 -4.8459015 10.988216 -10.405665
-26.738922 -16.666292 2.6774611 5.1047983 -0.052219864 28.054255 -17.87152 -3.0574534
25.33371 5.4400496 8.494264 -1.7692565 5.5369368 -4.89205 -15.390852 -2.088017
-8.353064 15.669449 31.428541 -5.267265 4.0294814 14.453043 21.42942 -10.750957
7.65516 -1.4236114 12.874039 4.8099337 11.464128 13.752444 -6.8952007 8.53342
-13.594849 -18.613337 5.4938836 -23.690504 -6.2244506 17.596601 7.0748 -8.554639
-4.805093 -6.7769814 -5.786493 0.44457915 -8.325167 -2.4094691 -5.821111 -20.627636
